ML Agents tutorial/Assets/results/RollerBall_test/RollerBall/RollerBall-180974.onnx (onnx, 75769 bytes, 8 tensors)

network_body._body_endoder.seq_layers.0.weight f4 [128, 8]
0	0xbec25af8	-0.3796003
1	0xbed9c52e	-0.4253325
2	0xbd6660f3	-0.0562448
3	0x3e9cf461	0.30655196
4	0x3ea04ee2	0.31310183
5	0xbd83121b	-0.06399938
6	0x3dfa6e39	0.122280546
7	0xbd1caf6d	-0.038253237
8	0x3e0ac287	0.13550769
9	0xbe845e46	-0.25853175
10	0x3eb5485e	0.35406774
11	0xbe3055b8	-0.17220199
12	0xbd789c9d	-0.060696233
13	0x3cc911d8	0.024544641
14	0xbde2dced	-0.110772945
15	0xbf451fc6	-0.7700161
16	0xbe81c067	-0.25342104
17	0xbe529602	-0.20565036
18	0xbddb22b5	-0.10699979
19	0xbe581d02	-0.21104816
20	0x3e8b7593	0.2723814
21	0xbebde2d4	-0.3708712
22	0x3de53ac4	0.11192849
23	0xbdf67306	-0.12033658
24	0x3ea630d7	0.32459137
25	0xbe80e7ad	-0.25176755
26	0xbe50dbe8	-0.20396388
27	0xbe1948e8	-0.14969218
28	0xbe391732	-0.18075255
29	0xbea157c8	-0.31512284
30	0x3d86b5cd	0.065776445
31	0xbe70da99	-0.23520888
32	0x3e8fe879	0.2810705
33	0x3f50a5dd	0.8150309
34	0x3ca97663	0.020686334
35	0xbf4dd5cc	-0.80404353
36	0xbe08ebf1	-0.13371255
37	0x3db35bcb	0.087577425
38	0xbdb8197c	-0.08989236
39	0x3cf93e6d	0.030425275
40	0x3dcda7c1	0.10041762
41	0xbea5fbdd	-0.3241872
42	0xbe1d1d2e	-0.15343162
43	0xbdd56b21	-0.10420824
44	0x3f06c82a	0.52649176
45	0xbdc1e434	-0.094673544
46	0x3dc351db	0.09537097
47	0xbe44b88a	-0.19211021
48	0x3e2fd037	0.17169271
49	0xbe0a8362	-0.13526681
50	0x3eedafcc	0.46423185
51	0x3e32644c	0.17421073
52	0xbd3a7603	-0.0455227
53	0x3ea13a16	0.3148963
54	0x3eaeed8c	0.3416561
55	0xbf204601	-0.6260682
56	0xbefd2535	-0.4944245
57	0x3eedf930	0.46479177
58	0x3e9cbc20	0.30612278
59	0x3e6280ec	0.22119492
60	0xbed61054	-0.41809332
61	0xbd928379	-0.07153983
62	0x3e59314c	0.21210212
63	0xbebd20e2	-0.3693915
64	0x3f2736a9	0.6531778
65	0x3d9c73fd	0.076393105
66	0x3e270097	0.16308819
67	0x3e8fbde0	0.2807455
68	0xbe1a6639	-0.15078057
69	0x3e8af219	0.2713783
70	0xbe06be5f	-0.13158558
71	0xbd339e6f	-0.043852266
72	0xbec41d3c	-0.38303554
73	0x3f0d4759	0.5518699
74	0x3eb13639	0.3461168
75	0xbed0f610	-0.4081273
76	0xbeb2ca4d	-0.34919968
77	0x3f02fc0a	0.5116583
78	0xbcea0d47	-0.028570784
79	0xbe9eab7c	-0.30990207
80	0xbe24db0f	-0.16099189
81	0xbbdf0029	-0.006805439
82	0x3e0f3443	0.1398478
83	0xbedc2d4b	-0.43003306
84	0xbe90e54f	-0.2829995
85	0xbedef426	-0.43545645
86	0x3f5ddd8f	0.86666197
87	0xbee20e56	-0.44151562
88	0x3f0129ed	0.504546
89	0xbd42e114	-0.047577932
90	0xbc7c840c	-0.015412342
91	0x3d076b60	0.033061385
92	0x3f0e86f1	0.55674654
93	0xbece8bce	-0.40341038
94	0x3db8e6dd	0.09028409
95	0x3ea2d943	0.31806383
96	0x3e24b5fa	0.16085044
97	0x3d38e4b9	0.045140002
98	0xbeea4653	-0.45756778
99	0xbe08f1d1	-0.13373496
100	0x3f15ec68	0.5856385
101	0x3f11430e	0.5674294
102	0xbef50340	-0.47854042
103	0xbee8b3a0	-0.45449543
104	0xbd1cb86d	-0.03826182
105	0x3f39299b	0.7232911
106	0x3e8bc6d0	0.2730012
107	0x3eaf7244	0.34266865
108	0x3ed86922	0.4226771
109	0xbea36265	-0.31911007
110	0x3e2e7a3c	0.17038816
111	0xbe084ce5	-0.13310583
112	0xbeeb000a	-0.45898467
113	0xbee72f8e	-0.4515347
114	0xbecd9d54	-0.40159094
115	0xbf4cc84d	-0.79993135
116	0x3e865a74	0.26240885
117	0x3e506484	0.20350844
118	0x3e74861a	0.2387928
119	0x3e3dd490	0.18538117
120	0x3f0d06e4	0.5508864
121	0x3e1d78ea	0.15378156
122	0xbf04a985	-0.51821166
123	0xbe9ff287	-0.3123972
124	0xbe8893bd	-0.26675215
125	0x3f3b1ef8	0.7309413
126	0xbea088cb	-0.31354365
127	0x3e33240e	0.17494223
128	0xbe6978de	-0.22800013
129	0xbf16e1f8	-0.5893855
130	0x3e382dd5	0.17986234
131	0x3e4c26ff	0.19936751
132	0x3ee28615	0.4424292
133	0x3e2a1a67	0.16611634
134	0xbd845eb1	-0.064633735
135	0xbe58b2af	-0.21161912
136	0xbe473978	-0.19455516
137	0x3ef52736	0.47881478
138	0xbded1ee0	-0.115781546
139	0x3f08e48b	0.5347373
140	0xbc1e9161	-0.009678216
141	0xbec183a9	-0.3779576
142	0x3e151380	0.1455822
143	0xbede9441	-0.43472484
144	0x3e3f1fdd	0.18664499
145	0x3d11ee8f	0.035627898
146	0x3dedd1ed	0.11612306
147	0xbeaff199	-0.34364012
148	0x3eaae395	0.33376756
149	0xbe8b61db	-0.27223095
150	0xbdae7a94	-0.08519474
151	0x3f20dcd9	0.62836987
152	0x3f070c13	0.527528
153	0xbe3bab84	-0.18327147
154	0x3e131f00	0.14367294
155	0x3dca7fe4	0.098876745
156	0x3e2e289b	0.17007677
157	0xbd96b597	-0.07358854
158	0xbe815798	-0.2526214
159	0x3d71705a	0.058945037
160	0x3e8f91f1	0.28041032
161	0x3e76176c	0.24032372
162	0x3f89434b	1.0723661
163	0xbe4b19a6	-0.19834003
164	0x3e37b1f1	0.17938973
165	0x3e76a358	0.24085748
166	0xbd9df42a	-0.07712586
167	0xbe805659	-0.25065878
168	0x3e04c249	0.12964739
169	0xbe20ea9c	-0.15714496
170	0xbe28e7fe	-0.16494748
171	0xbe0b5275	-0.13605674
172	0x3e4a895a	0.19778958
173	0x3f024786	0.50890386
174	0x3e5d48c8	0.21609795
175	0xbf058757	-0.5215964
176	0xbdb1a921	-0.08674837
177	0x3ece9f32	0.4035583
178	0x3ec6aac7	0.38802168
179	0x3f948680	1.1603546
180	0xbdf02a34	-0.117267996
181	0xbec33b43	-0.3813115
182	0xbe8188c4	-0.25299656
183	0xbe89f3ee	-0.26943916
184	0x3ec555da	0.38542062
185	0xbe87ffce	-0.2656235
186	0x3e6efc0a	0.23338333
187	0xbe350544	-0.1767779
188	0x3e84c3f5	0.25930753
189	0x3dae76fe	0.0851879
190	0x3eb37b79	0.3505514
191	0x3eaa5905	0.33271042
192	0xbef7a6ae	-0.48369354
193	0xbe13c695	-0.14431222
194	0xbe225e72	-0.1585634
195	0xbee1fdf0	-0.4413905
196	0x3ed43c63	0.4145232
197	0xbdf4c3d5	-0.119514145
198	0xbdfc1eda	-0.12310572
199	0x3c855406	0.016275417
200	0xbe31e036	-0.17370686
201	0x3da55ab2	0.080739394
202	0xbd92d1e5	-0.071689405
203	0x3f4a8a32	0.7911712
204	0x3f053bf0	0.5204458
205	0x3cc5f4c7	0.02416457
206	0xbe2f3370	-0.17109466
207	0xbf1ab667	-0.60434574
208	0xbe8bbfa0	-0.27294636
209	0x3f2fae2a	0.6862513
210	0x3e4f2893	0.20230322
211	0x3ea2d685	0.3180429
212	0xbdc19e32	-0.094540015
213	0xbf1adff6	-0.6049799
214	0x3e7546b8	0.23952758
215	0x3dd3208e	0.10308944
216	0x3d208d6d	0.039197374
217	0xbc3054a0	-0.010762364
218	0xbed8f870	-0.42377043
219	0xbe359ac5	-0.17734821
220	0x3f58877f	0.8458175
221	0xbea83cb1	-0.32858804
222	0xbf23f29a	-0.64042056
223	0x3f1252a9	0.5715738
224	0xbe6bac43	-0.23014931
225	0x3f0a67ff	0.54064935
226	0x3f5283a9	0.8223215
227	0x3e54ec35	0.20793231
228	0xbed3f449	-0.41397312
229	0xbf6ec7f3	-0.9327385
230	0xbdf562db	-0.11981746
231	0xbbee3227	-0.007269162
232	0x3f0ca921	0.5494557
233	0xbe122a93	-0.14274053
234	0x3ed23c36	0.41061562
235	0x3e817c01	0.2528992
236	0xbf26a889	-0.65100914
237	0xba9366f0	-0.0011245888
238	0xbe2115c4	-0.15730959
239	0x3e338852	0.17532471
240	0xbe0c2257	-0.13684975
241	0xbf046797	-0.51720566
242	0xbe760b62	-0.2402778
243	0xbe9f7532	-0.311441
244	0xbf1f750e	-0.62287986
245	0x3f055ddf	0.5209636
246	0xbcdff4d2	-0.02733842
247	0xbeb3fd65	-0.35154262
248	0x3e543847	0.20724593
249	0xbe9592b9	-0.29213503
250	0x3ea2b239	0.31776598
251	0xbeb121b4	-0.34596026
252	0xbe8bb93f	-0.2728977
253	0xbd728c8a	-0.05921606
254	0xbe8f51ab	-0.27991995
255	0x3ea75e0a	0.32688934

network_body._body_endoder.seq_layers.0.bias f4 [128]
0	0x3d42447a	0.047428586
1	0xbc87e77a	-0.016589869
2	0x3c6c0d4b	0.014407466
3	0xbc4bcbb9	-0.012438708
4	0x3d93b879	0.0721292
5	0xbd755b9d	-0.059901822
6	0xbc39cec8	-0.011340804
7	0x3c869c92	0.01643208
8	0xbcc5394d	-0.024075175
9	0xbe027553	-0.12740068
10	0xbccf87b0	-0.025333256
11	0x3ce4caf1	0.027928801
12	0x3ddec995	0.108782925
13	0xbba321a6	-0.0049783764
14	0x3d564aae	0.052317314
15	0x3d43f855	0.04784425
16	0xbd207a4a	-0.039179124
17	0x3c1ccba2	0.009570034
18	0xbd3dcadd	-0.046336044
19	0x3bf76196	0.007549475
20	0xbcb2ae8e	-0.02181175
21	0xbd01ebc0	-0.03171897
22	0x3cdaaa3f	0.026692508
23	0xbde37c98	-0.11107749
24	0xbd3f918d	-0.046769667
25	0x3cd98eca	0.026557345
26	0x3dccc46d	0.09998403
27	0x3d6ad7f5	0.05733486
28	0x3e012708	0.12612545
29	0xbcaed08a	-0.021339674
30	0xbe2c7abc	-0.16843694
31	0xbd743be5	-0.059627432
32	0x3d9c85e3	0.07642724
33	0xbb82d706	-0.003992918
34	0xbd0bcae5	-0.034129042
35	0xbdaae124	-0.083437234
36	0x3d0b75e8	0.03404799
37	0x3cbff393	0.023431575
38	0x3cf4bad0	0.029874235
39	0x3d596f73	0.053084802
40	0xbe046906	-0.12930688
41	0xbdfb17f6	-0.122604296
42	0xbc175dac	-0.009238642
43	0xbd8f76f5	-0.07005111
44	0x3db108f6	0.08644287
45	0x3dab05f4	0.08350745
46	0x3d335cfb	0.043789845
47	0x3c9050d4	0.017616667
48	0xbcf637c0	-0.03005588
49	0xbdbe0f2f	-0.0928024
50	0xbb54dc5d	-0.003247998
51	0xbc5d0528	-0.013489999
52	0x3d82eadc	0.06392452
53	0xbda2e9b8	-0.079547346
54	0xbd818022	-0.063232675
55	0x3c86077f	0.016360996
56	0xbdcd456f	-0.10023009
57	0xb92a19e2	-0.00016222105
58	0x37a25f98	1.935642e-05
59	0xbb9033af	-0.0044006924
60	0xbcd87cb1	-0.026426645
61	0x3d87ef87	0.06637483
62	0x3d122550	0.035680115
63	0xbcded3d0	-0.02720061
64	0x3c7ca0ce	0.015419198
65	0xbc9daf71	-0.019248696
66	0x3d7d96f5	0.061911542
67	0x3d771ddf	0.06033122
68	0xbddecfb6	-0.108794615
69	0x3d50f441	0.05101419
70	0x3c1a158c	0.009404551
71	0x3dc52aa5	0.096272744
72	0xbcc541df	-0.024079261
73	0x3d0f0838	0.034919947
74	0x3e01619d	0.12634893
75	0x3d0747b1	0.033027355
76	0xbded290b	-0.11580094
77	0x3e0d964d	0.13826866
78	0xbcdf2c3e	-0.027242776
79	0xbd9bc156	-0.07605235
80	0xbb457a72	-0.0030132798
81	0xbe13cf70	-0.144346
82	0xbd327065	-0.04356422
83	0x3c09261d	0.008370903
84	0xbcc23947	-0.023708953
85	0xbd7dbd53	-0.06194813
86	0x3dc45697	0.09586828
87	0x3d8ed975	0.069750704
88	0x3c70f3ba	0.014706546
89	0x3d3c3b33	0.045954894
90	0xbd029cc0	-0.03188777
91	0xbd1d75ce	-0.038442425
92	0x3dc61477	0.09671872
93	0xbd52b3f1	-0.051441137
94	0x3bd7f264	0.0065901745
95	0xbd37d2a9	-0.044878636
96	0x3dbc591a	0.09196682
97	0x3db44cf9	0.08803744
98	0x3d7b1115	0.061295588
99	0xbc66e923	-0.01409367
100	0xbaf2fc4e	-0.0018538327
101	0xbc7d943e	-0.015477238
102	0xbb8de7d3	-0.004330614
103	0xbc74648e	-0.014916552
104	0x3da56a6c	0.08076939
105	0x3de3c4f0	0.11121547
106	0x3cbb110a	0.022835273
107	0x3dad0d45	0.084497966
108	0xbdaf313c	-0.085543126
109	0x3b0a2b21	0.0021082836
110	0xb9f25dc4	-0.00046227698
111	0xbc50762e	-0.012723489
112	0xbd11dc19	-0.035610292
113	0xbcee375f	-0.029079137
114	0xbcf9d960	-0.03049916
115	0xbcdede21	-0.027205529
116	0xbdac4c26	-0.08412962
117	0x3d93aec4	0.07211068
118	0x3c7ab590	0.015302077
119	0x3d98f570	0.074686885
120	0x3d691fd3	0.056915116
121	0x3bc6bb93	0.006064841
122	0xbde81904	-0.11332896
123	0xbd96db4f	-0.073660485
124	0x3d162df0	0.036664903
125	0x3c6ea58e	0.0145658385
126	0x3c86480a	0.016391773
127	0xbd36e518	-0.044652075

network_body._body_endoder.seq_layers.2.weight f4 [128, 128]
0	0xbd73e144	-0.059541002
1	0x3d92393a	0.07139821
2	0xbe5ee7bb	-0.21768086
3	0xbd9beb60	-0.076132536
4	0xbd3ad362	-0.045611747
5	0xbdd1df26	-0.1024764
6	0xbd7194f5	-0.058979947
7	0x3d693aa8	0.056940705
8	0xbc40345d	-0.011731234
9	0x3cdf908a	0.027290601
10	0x3d83ff57	0.064451866
11	0xbdbae517	-0.09125727
12	0x3ca0f62e	0.019648638
13	0xbd05c621	-0.032659654
14	0x3e339b0b	0.17539613
15	0x3d2fc67b	0.042913895
16	0xbdcd43dc	-0.10022709
17	0xbe252e27	-0.16130887
18	0x3c1925dd	0.009347406
19	0xbcda2d3b	-0.026632896
20	0xbc1ba665	-0.009500121
21	0xbe1a4e49	-0.15068926
22	0x3d778316	0.060427748
23	0xbdd62e0a	-0.10458
24	0xbe1b4637	-0.15163504
25	0xbdd5c84a	-0.10438593
26	0x3df4c0cb	0.11950835
27	0xbd3f4f0b	-0.04670624
28	0xbcec2a86	-0.02882887
29	0x3d9554df	0.072915785
30	0xbd9564ff	-0.07294654
31	0x3e21026a	0.15723577
32	0xbe45557a	-0.19270888
33	0xbd28c909	-0.041207347
34	0xbd0f56f7	-0.034995046
35	0x3ae3c782	0.0017378184
36	0x3e164a89	0.1467687
37	0xbd3ac6da	-0.045599796
38	0x3d3cb01f	0.0460664
39	0xbe08b963	-0.1335197
40	0x3d4394a2	0.04774917
41	0x3d1f2792	0.038856097
42	0x3ce6b8ae	0.028164234
43	0x3d977830	0.07395971
44	0xbdb0fe94	-0.08642307
45	0xbd8259bf	-0.06364774
46	0xbcdf2ffe	-0.027244564
47	0xbd93b60b	-0.07212456
48	0x3c7c9b58	0.015417896
49	0xbd8dd180	-0.069247246
50	0xbc153c1d	-0.00910857
51	0xbd087cb2	-0.033322044
52	0xbd72ba8d	-0.05925994
53	0xbbeabecb	-0.0071638576
54	0xbe014b68	-0.12626421
55	0x3d71894d	0.05896883
56	0x3d240cd3	0.040051293
57	0xbd1e3fad	-0.038634945
58	0xbca9fbfe	-0.020750042
59	0x3e11ab31	0.1422546
60	0x3dada685	0.08479027
61	0xbd9352da	-0.07193537
62	0xbe14996a	-0.14511648
63	0xbd46b73a	-0.048514582
64	0xbd570ab9	-0.05250046
65	0x3d29a969	0.041421328
66	0xbe03c023	-0.12866263
67	0xbcf455bd	-0.02982604
68	0x3dbf14bb	0.09330126
69	0xbb58132e	-0.0032970416
70	0xbdacf436	-0.08445017
71	0xbc2de33f	-0.010613262
72	0xbced7ceb	-0.02899023
73	0xbd3d5972	-0.04622788
74	0x3e38028a	0.17969719
75	0x3cc19a9f	0.0236333
76	0x3d748ed3	0.05970652
77	0xbd8c6f27	-0.06857138
78	0xbd289a7b	-0.04116295
79	0xbe723917	-0.2365459
80	0x3d0533e6	0.032520197
81	0xbe2355a7	-0.15950643
82	0x3e1a5ce3	0.15074496
83	0xbe256073	-0.16150074
84	0xbdb25f5c	-0.087095946
85	0x3df1e2fe	0.118108734
86	0xbd785992	-0.060632296
87	0xbe365fa3	-0.1780992
88	0x3c0f0b55	0.008730729
89	0xbd948245	-0.072514094
90	0x3c6f44f8	0.014603846
91	0xbe04c865	-0.1296707
92	0xbd04679c	-0.032325372
93	0xbb7d6b2c	-0.0038668616
94	0xbe109654	-0.14119846
95	0x3de05195	0.109530605
96	0xbd2bb4ee	-0.041920595
97	0xbc849a14	-0.016186751
98	0xbe83ca13	-0.25740108
99	0xbd329db3	-0.043607425
100	0x3c33d4d2	0.010976033
101	0x3dc5b551	0.09653724
102	0x3c81608e	0.015793111
103	0xbe0df75f	-0.13863896
104	0xbe862b65	-0.26204982
105	0xbde81a61	-0.113331564
106	0xbd5f4516	-0.054509245
107	0xbe02db1d	-0.12778898
108	0x3bfef4c1	0.007780642
109	0xbc9bf8fc	-0.019039623
110	0xbd984f1f	-0.07436966
111	0xbd15a5a7	-0.03653493
112	0xbcc4f6e6	-0.024043512
113	0xbba4b090	-0.0050259307
114	0xbd46311c	-0.048386678
115	0x3dc75bd9	0.097343154
116	0x3c170ce9	0.009219387
117	0xbe771cca	-0.24132076
118	0xbe37d9bd	-0.17954154
119	0xbdd32538	-0.10309833
120	0xbe370f87	-0.17877017
121	0xbcc36633	-0.023852443
122	0x3dc42db6	0.09579031
123	0xbd9a3d7e	-0.0753126
124	0x3d68e8b2	0.05686254
125	0xbdb71bf5	-0.08940879
126	0x3e4a8762	0.19778207
127	0xbe3bbf7c	-0.18334764
128	0xbd82909f	-0.063752405
129	0xbe636fa6	-0.22210559
130	0xbc44d7d8	-0.012014352
131	0xbd456fe5	-0.048202414
132	0x3dfd1a61	0.12358547
133	0x3dd409e1	0.10353447
134	0xbd48c12a	-0.04901234
135	0xbe2ce51c	-0.16884273
136	0xbda6849a	-0.081307605
137	0xbde18fcb	-0.110137545
138	0xbb6a71d0	-0.0035773404
139	0x3da378b8	0.0798201
140	0x3e34280e	0.17593405
141	0xbe2298a7	-0.15878545
142	0x3e63af66	0.22234878
143	0xbe54ff73	-0.20800571
144	0xbd8b95e9	-0.068157025
145	0xbd2257e2	-0.039634593
146	0xbe0490bb	-0.12945835
147	0x3d50ab17	0.050944414
148	0x3c106995	0.008814235
149	0x3cc5dc3b	0.024152866
150	0x3b198191	0.0023423175
151	0x3cfd3f4f	0.030913977
152	0xbd49626c	-0.049166128
153	0x3d274eab	0.040846508
154	0xbdc44ee2	-0.09585358
155	0x3e11ffde	0.14257762
156	0xbeb0635e	-0.3445081
157	0x3bfdc015	0.007743845
158	0x3ca210bf	0.019783376
159	0xbe2c03c2	-0.16798308
160	0x3b02d1cf	0.0019961481
161	0xbec250d1	-0.37952283
162	0x3c35b9de	0.0110916775
163	0xbda17d46	-0.07885222
164	0xbd95b953	-0.073107384
165	0x3e152ba1	0.14567424
166	0xbda7ff76	-0.08203022
167	0xbd2aa387	-0.041659858
168	0x3d85791f	0.06517243
169	0xbdd8775e	-0.105696425
170	0x3e3be9cc	0.18350905
171	0xbe03f23a	-0.12885371
172	0xbc2c58e3	-0.010519239
173	0x3df5798e	0.11986075
174	0xbe0569bf	-0.1302862
175	0xbd836a51	-0.064167626
176	0x3c89ee9d	0.016837412
177	0xbd9cc0ea	-0.07653983
178	0x3daa9b89	0.08330447
179	0x3dc6f7b1	0.09715212
180	0x3d69dfcf	0.057098206
181	0x3d9f7157	0.0778529
182	0x3cd8c80e	0.026462581
183	0xbd74179d	-0.059592832
184	0x3e2ce8f3	0.16885738
185	0x3d96592a	0.073412254
186	0xbbb01f07	-0.0053747925
187	0x3e7f3a3f	0.24924563
188	0xbdf400a7	-0.11914187
189	0x3cb33adf	0.021878658
190	0xbc8fa25e	-0.017533477
191	0x3df2b9fb	0.11851879
192	0xbdbfa5b7	-0.093577795
193	0xbe390bea	-0.18070951
194	0x3db3ee12	0.08785643
195	0xbcee5472	-0.029093001
196	0xbd34bf22	-0.04412759
197	0xbdd5781f	-0.10423302
198	0x3d9a3bc5	0.075309314
199	0x3e541455	0.20710881
200	0xbe11c232	-0.14234236
201	0x3dd7e2ce	0.105413064
202	0x3d7bbbb7	0.061458316
203	0xbda9f6b1	-0.08299006
204	0xbb9718b6	-0.0046111
205	0x3d8074c6	0.06272273
206	0xbae81ca8	-0.0017708736
207	0xbd1d34c8	-0.038380414
208	0x3d306139	0.04306147
209	0x3e5be875	0.21475394
210	0xbcc8a171	-0.024491044
211	0xbcc97b28	-0.024594858
212	0xbdbe40fe	-0.0928974
213	0x3d3ce34a	0.046115197
214	0xbd305293	-0.0430475
215	0x3dab61b5	0.083682455
216	0xbdc2a96f	-0.09504973
217	0xbae92831	-0.0017788467
218	0xbca29b04	-0.019849308
219	0xbe241969	-0.16025318
220	0x3e349ff9	0.1763915
221	0x3dde5054	0.10855165
222	0x3d881a6a	0.06645663
223	0x3d424047	0.04742458
224	0xbc5beae7	-0.013422704
225	0x3de98f0c	0.11404237
226	0x3e4ecbbd	0.20194907
227	0x3c0c4467	0.00856123
228	0x3e16839a	0.1469864
229	0xbc9890fe	-0.018623825
230	0x3e0d2309	0.13782896
231	0x3e368613	0.17824583
232	0x3d4489fc	0.047983155
233	0x3bb094ed	0.005388847
234	0x3d915a27	0.07097273
235	0x3d6fb837	0.05852529
236	0x3d725b42	0.05916906
237	0xbcc16d31	-0.023611637
238	0x3e65b0eb	0.2243077
239	0x3c7b1a07	0.01532603
240	0xbd7d8840	-0.061897516
241	0xbd04ca17	-0.03241929
242	0xbc55eff5	-0.0130576985
243	0xbdf98bd3	-0.121848725
244	0x3e01c73c	0.12673658
245	0x3d883786	0.06651215
246	0xbe37c618	-0.1794666
247	0xbd68a414	-0.056797102
248	0x3e16d33d	0.14729019
249	0x3dafc568	0.08582574
250	0x3d66d353	0.05635388
251	0xbdb3b75f	-0.0877521
252	0x3c6f3416	0.014599821
253	0xbd7c6913	-0.061623644
254	0xbd3416dd	-0.043967117
255	0xbd97b1d0	-0.07406962

network_body._body_endoder.seq_layers.2.bias f4 [128]
0	0xbd059182	-0.03260947
1	0x3decfe09	0.11571891
2	0xbd6519fa	-0.055932976
3	0x3d54fc8e	0.051998667
4	0xbd75c6aa	-0.060003914
5	0x3ce332c2	0.027734164
6	0x3daa00a5	0.08300904
7	0x3dd09468	0.10184556
8	0xbc54836b	-0.012970786
9	0x3b44a249	0.0030003956
10	0x3d675b8e	0.056483798
11	0x3dcc284d	0.09968624
12	0xbc0bdea7	-0.008536971
13	0x3d3d1cf5	0.046170194
14	0x3d4737f2	0.048637338
15	0x3cc0d29a	0.023537923
16	0x3d20890a	0.03919319
17	0xbc94d722	-0.01816899
18	0x3d427681	0.047476295
19	0x3d9dd0d3	0.07705846
20	0x3c97dca5	0.018537829
21	0x3d056984	0.03257133
22	0x3d6c293a	0.057656504
23	0x3dd9e58e	0.10639487
24	0x3bd2154b	0.0064112297
25	0xbccaf04d	-0.024772787
26	0xbd1eaacd	-0.038737107
27	0xbcfb3ac3	-0.030667668
28	0xbd217320	-0.039416432
29	0xbb12a445	-0.0022375744
30	0x3dd5c92d	0.10438762
31	0x3ca19878	0.019726023
32	0xbc830455	-0.015993277
33	0x3ce71529	0.028208332
34	0xbcfead49	-0.031088488
35	0x3c766c84	0.015040521
36	0x3dd53810	0.10411084
37	0xbd073d75	-0.033017594
38	0x3dd511ff	0.10403823
39	0xbd533774	-0.051566556
40	0x3ca947f7	0.020664198
41	0xbc8e17c4	-0.017345317
42	0x3dc9bfca	0.09851034
43	0x3c3f71ff	0.011684894
44	0x3c4b5881	0.012411238
45	0x3d89bb76	0.067252085
46	0x3b7a34fd	0.0038178556
47	0xbc1acd0c	-0.009448301
48	0xbb1c0354	-0.0023805695
49	0xbcedf362	-0.029046718
50	0x3cc2072f	0.023685066
51	0x3e011d86	0.12608919
52	0xbd0dd217	-0.034624185
53	0x3d23e92d	0.040017296
54	0xbb4d3288	-0.0031310637
55	0xbc2c0fc6	-0.010501808
56	0xbc591568	-0.013249733
57	0x3c4ef35a	0.012631262
58	0x3db92fd8	0.090423286
59	0xbd1be558	-0.038060516
60	0xbd3b49b1	-0.045724574
61	0x3d965224	0.07339886
62	0x3de30d5c	0.110865325
63	0x3cf68ad2	0.030095492
64	0x3cb3e722	0.021960799
65	0x3dab68cb	0.08369597
66	0x3b332efa	0.0027341233
67	0x3d9b102d	0.07571445
68	0xbc75482b	-0.0149708195
69	0xbc21b373	-0.009869444
70	0xbca4b33e	-0.020105
71	0x3d9b2908	0.075761855
72	0xbcf06e33	-0.029349422
73	0x3e09b05a	0.13446179
74	0xbc6ecb57	-0.014574847
75	0xbc00ca22	-0.007860692
76	0xbd63790a	-0.055535354
77	0xbb1dcdbf	-0.0024078933
78	0x3cbcd387	0.023050083
79	0x3d413f5e	0.047179572
80	0x3c412d77	0.011790625
81	0xbd5b2eb7	-0.053511348
82	0xbd02a114	-0.031891897
83	0x3d3ad45d	0.04561268
84	0x3c8bdbd4	0.017072596
85	0x3d3afd19	0.04565153
86	0x3dd559c1	0.1041751
87	0xb88b1a17	-6.632896e-05
88	0xbc38c66b	-0.011277775
89	0x3d9cc0a3	0.0765393
90	0x3d115636	0.035482608
91	0x3c2276b4	0.009915996
92	0xbd25ac9c	-0.040447816
93	0x3d301170	0.04298538
94	0xbbf3e8c8	-0.007443521
95	0x3d61ff7d	0.055175293
96	0x3cc4d6f7	0.024028284
97	0x3cdc50c9	0.02689399
98	0xbd9b2cae	-0.07576881
99	0xbd4a5f63	-0.049407374
100	0x3ba1466a	0.004921724
101	0xbbe18809	-0.0068826717
102	0x3d5782f2	0.052615114
103	0xbc9a7a3d	-0.018857116
104	0xbbbb5f8c	-0.005718177
105	0x3c93cd8d	0.01804235
106	0xbd5bb49c	-0.05363904
107	0xbd6ba6d8	-0.05753216
108	0xbd053424	-0.03252043
109	0x3d19a815	0.03751381
110	0x3ac25edf	0.0014829299
111	0xbc3fa4d3	-0.011697012
112	0x3df6b376	0.12045948
113	0xbd27eac4	-0.040995374
114	0xbcb06b00	-0.021535397
115	0x3d10788c	0.035271212
116	0x3d779730	0.060446918
117	0x3d7401c7	0.059572008
118	0x3d0e98f7	0.034813847
119	0x3de8e818	0.11372393
120	0x3c253ff9	0.010086053
121	0xbc41c5c9	-0.011826941
122	0xbc6d6625	-0.014489685
123	0x3d96b0f8	0.07357973
124	0xbcbf2286	-0.023331892
125	0x3da98ccf	0.0827881
126	0x3d15d03e	0.03657555
127	0xbc06b4ba	-0.0082217995

action_model._continuous_distribution.log_sigma f4 [1, 2]
0	0xbe87c1bd	-0.26514998
1	0xbe57de9a	-0.2108101

action_model._continuous_distribution.mu.weight f4 [2, 128]
0	0xbc6c7aa1	-0.014433534
1	0x3ad21431	0.0016027746
2	0xbc8c4093	-0.017120635
3	0x3c86385e	0.0163843
4	0x3d38b9a6	0.045098923
5	0x3d35dc3a	0.044399478
6	0xbbe1bc9f	-0.0068889405
7	0xbcc7f11f	-0.024406968
8	0x3d77bc86	0.060482524
9	0xbcc8266f	-0.024432389
10	0xbd5d4860	-0.0540241
11	0x3e199a8f	0.15000366
12	0x3b0ce71e	0.0021500061
13	0xbd18265a	-0.03714595
14	0x3de537a3	0.111922525
15	0x3d0c265d	0.034216274
16	0x3b77673c	0.0037750741
17	0xbc261a51	-0.01013811
18	0xbdd8f745	-0.10594038
19	0x3db38def	0.08767306
20	0xbc9c500a	-0.019081134
21	0xbd8ed8af	-0.06974923
22	0xbd6f15ee	-0.058370523
23	0xbd32db30	-0.043666065
24	0x3d84c7bc	0.06483409
25	0xbcb6660a	-0.022265453
26	0x3c31cc57	0.010851941
27	0x3c51cd5a	0.012805307
28	0xbccea822	-0.025226656
29	0x3d6e390b	0.05815987
30	0xbdc8ed67	-0.09810906
31	0xbcaff025	-0.021476815
32	0x3b29d25f	0.0025912744
33	0x3db54eea	0.08852942
34	0x3d55c642	0.052191027
35	0x3c9403b1	0.018068166
36	0xbd0f5dfd	-0.035001744
37	0x3b846328	0.0040401407
38	0x3c8817b6	0.016612869
39	0x3ab919f5	0.0014122116
40	0x3dbe3b64	0.092886716
41	0x3d33278e	0.043738894
42	0x3d4a4715	0.049384195
43	0xbd177819	-0.03697977
44	0x3da67089	0.08126933
45	0xbd711b14	-0.058863714
46	0xbcc1dea1	-0.023665728
47	0xbcee2f76	-0.029075366
48	0x3ca06fcc	0.019584559
49	0xbb872a85	-0.004124942
50	0x3d13cf76	0.036086522
51	0x3a8caf6c	0.0010733432
52	0x3d01cb9b	0.031688314
53	0xbc878ab8	-0.016545638
54	0xbd4a757e	-0.049428456
55	0xbae20c0d	-0.0017246023
56	0xbcddf559	-0.02709453
57	0xbd02e717	-0.031958666
58	0xbdda3abe	-0.106557354
59	0x3c07dd07	0.008292443
60	0x3d58488f	0.052803572
61	0x3b320d49	0.0027168563
62	0x3e0b16f8	0.1358298
63	0xbd085e65	-0.033293147
64	0xbd737999	-0.059442136
65	0x3c85be56	0.01632611
66	0xbc2a3471	-0.01038848
67	0xbd9d04ab	-0.07666906
68	0x3d190c3d	0.037365187
69	0x3dccc4f3	0.099985026
70	0x3b7ee8f8	0.0038896184
71	0xbd901c40	-0.07036638
72	0x3c8048d1	0.015659722
73	0xbd2f6212	-0.042818137
74	0x3d1e0d4f	0.03858691
75	0xbc692c2e	-0.014231725
76	0x3d1c3818	0.038139433
77	0xbc2d316a	-0.010570863
78	0x3d8278c1	0.06370688
79	0xbd8436c5	-0.06455759
80	0xbc92a048	-0.017898694
81	0x3c9b6733	0.018970108
82	0x3bbaf4bb	0.0057054437
83	0x3c3f41bf	0.01167339
84	0x3d17d444	0.037067667
85	0xbd253c10	-0.040340483
86	0xbdc90d0f	-0.09816944
87	0x3da1acc9	0.07894284
88	0x3d5ba713	0.05362613
89	0x3dde0619	0.10841007
90	0xbcef995e	-0.029247936
91	0xbc8c6073	-0.017135834
92	0xbc99e844	-0.01878751
93	0xbd89c690	-0.06727326
94	0x3db4e673	0.08833017
95	0x3dc0e89a	0.09419365
96	0xbd64ec2d	-0.055889297
97	0xbd5019d4	-0.05080588
98	0x3d5ac995	0.0534149
99	0x3bd9509d	0.0066319243
100	0x3d7626ba	0.060095526
101	0xbce21967	-0.027600003
102	0x3c85994d	0.016308451
103	0x3d2e0a99	0.042490575
104	0x3d898132	0.06714095
105	0xbd46094a	-0.048348702
106	0xbbc33fa3	-0.005958514
107	0x3c17520b	0.009235869
108	0x3d85d651	0.06535018
109	0xbaf09b7c	-0.0018356885
110	0x3d008596	0.031377397
111	0x3a4a25ca	0.00077113195
112	0xbdb4d2ba	-0.088292554
113	0xbd1aff9b	-0.03784142
114	0xbcb80d6d	-0.02246734
115	0xbd8cc983	-0.06874373
116	0xbd3dfdb6	-0.046384536
117	0x3dc3d442	0.09561969
118	0xbd8470c6	-0.06466822
119	0xbe11fb7c	-0.1425609
120	0xbdaa4c87	-0.08315378
121	0xbd038869	-0.032112513
122	0x3dc88e64	0.09792784
123	0xbd7fa2ad	-0.062411
124	0x3d882cb4	0.066491514
125	0x3d287f79	0.041137192
126	0xbd13a276	-0.036043607
127	0x3d611b04	0.054957405
128	0xbb4692a8	-0.0030299816
129	0xbdd1deb1	-0.10247553
130	0x3d691e5b	0.056913715
131	0x3e0da54b	0.13832586
132	0x3cccf88a	0.025020856
133	0xbd482421	-0.04886258
134	0xbdd982bf	-0.10620641
135	0xbe095491	-0.13411166
136	0x3d133348	0.035937577
137	0x3dd93f33	0.106077574
138	0x3d47279f	0.04862177
139	0xbcfafa3f	-0.030636905
140	0x3dab5ae8	0.08366948
141	0xbdb97dce	-0.090571985
142	0x3cf66c37	0.030080898
143	0xbd982ac7	-0.07430034
144	0xbd5587b8	-0.052131385
145	0x3d1a5d80	0.037686825
146	0x3c0891dc	0.008335557
147	0xbd998790	-0.074965596
148	0xbd7c5dae	-0.061612777
149	0xbbcf52bb	-0.006327001
150	0x3de66912	0.11250509
151	0xbd8416f1	-0.06449688
152	0xbc1601ed	-0.009155733
153	0x3d420957	0.04737219
154	0x3d43faff	0.04784679
155	0x3da9d650	0.0829283
156	0xbbeda40c	-0.007252222
157	0x3d4c8ff1	0.04994196
158	0xbd35874b	-0.04431848
159	0xbd5e9ca7	-0.054348614
160	0x3d8e224f	0.069401376
161	0x3c81c71d	0.015842015
162	0xbb97e2eb	-0.004635205
163	0x3da2bb25	0.07945851
164	0x3e207121	0.15668155
165	0x3d5bc6a6	0.053656243
166	0xbdc30350	-0.09522116
167	0x3d22315a	0.039597847
168	0x3bac1e05	0.005252602
169	0x3d62ecc7	0.05540159
170	0xbe16538c	-0.14680308
171	0x3c94f99e	0.018185433
172	0xbceea592	-0.029131684
173	0x3d2ea747	0.042639997
174	0x3d21cdc8	0.03950289
175	0x3d65429a	0.05597172
176	0x3d927a86	0.07152276
177	0x3db4fd05	0.08837322
178	0xbd003cd2	-0.031308003
179	0xbe122b69	-0.14274372
180	0xbbe399cb	-0.006945824
181	0x3ddd2da4	0.10799721
182	0x3d9636fb	0.073347054
183	0x3d030026	0.031982563
184	0xbcf77389	-0.030206459
185	0x3d22768c	0.039663836
186	0x3cf8fde3	0.0303945
187	0xbd864edd	-0.06558011
188	0x3d810067	0.06298905
189	0x3de956ae	0.11393486
190	0xbdf6f042	-0.12057544
191	0x3d810a53	0.06300797
192	0x3cfff06f	0.031242577
193	0x3e26d344	0.16291529
194	0x3dc7868b	0.09742459
195	0xbdc574cf	-0.0964142
196	0x3cb17301	0.021661283
197	0xbc1f48a4	-0.009721909
198	0x3d2aa90b	0.04166512
199	0xbcb9ae03	-0.022665983
200	0x3b4d2047	0.0031299756
201	0xbe112950	-0.14175916
202	0x3daea806	0.08528142
203	0x3daadfda	0.083434775
204	0x3c8965af	0.01677212
205	0x3da4a450	0.080391526
206	0x3bb3226b	0.0054667494
207	0xbd6ad91d	-0.05733596
208	0x3c64e2eb	0.013970117
209	0xbd1dd411	-0.03853232
210	0x3d722a0f	0.05912214
211	0xbd957d41	-0.07299281
212	0x3d92264c	0.07136211
213	0x3d148e89	0.036268745
214	0xbd11d8fa	-0.035607316
215	0xbc91a3cb	-0.017778298
216	0x3cd93b31	0.026517482
217	0xbd38d1f9	-0.04512212
218	0x3da0480b	0.07826241
219	0x3db97f12	0.0905744
220	0x3d0b6649	0.034033094
221	0xbc58b6c8	-0.013227172
222	0x3cd73199	0.026268767
223	0x3baf5403	0.005350591
224	0x3d00e009	0.031463657
225	0xbcaaf7a8	-0.020870045
226	0x3d55b698	0.052176088
227	0x3d11e4a0	0.035618424
228	0x3d500773	0.050788354
229	0x3bf0f4e2	0.007353411
230	0xbdda6c93	-0.1066524
231	0x3bee6830	0.0072756037
232	0xb9cd15e9	-0.0003911697
233	0xbc3755a4	-0.011189852
234	0xbc58ed9a	-0.013240242
235	0x3d8eaa98	0.06966132
236	0xbb84ebce	-0.0040564304
237	0x3df79457	0.120888405
238	0x3d33a386	0.04385712
239	0x3dd118f1	0.10209835
240	0x3e0f4137	0.13989721
241	0x3d117a3f	0.035516974
242	0x3cb33d6d	0.021879876
243	0x3d345902	0.044030197
244	0x3dfc8b94	0.1233131
245	0xbd587ac5	-0.052851457
246	0xbd671d31	-0.056424323
247	0x3ca9426e	0.020661559
248	0x3b5c90c3	0.003365562
249	0x3d764dc2	0.06013275
250	0x3d4a3f34	0.04937668
251	0xbd1e577d	-0.038657654
252	0x3c952aea	0.01820894
253	0xbdeb0b36	-0.11476748
254	0xbd02f25e	-0.03196942
255	0xbcd7ea28	-0.026356772

action_model._continuous_distribution.mu.bias f4 [2]
0	0xbcf73924	-0.030178614
1	0xbd19c8b4	-0.03754492

action_model._discrete_distribution.branches.0.weight f4 [1, 128]
0	0xbb9aceed	-0.0047243745
1	0x3a868ae6	0.0010264784
2	0xbbd5978f	-0.0065183113
3	0x3b97ad58	0.0046288185
4	0xbc4491f0	-0.011997685
5	0x39a4b733	0.00031417012
6	0xbb7faeb7	-0.003901405
7	0x3c548423	0.012970957
8	0x3c04ac0b	0.008097659
9	0x3ba06e1c	0.0048959386
10	0xbbdb6143	-0.006694944
11	0x3b6af03a	0.0035848753
12	0xbb87537a	-0.004129824
13	0xbc8a518d	-0.01688459
14	0x3bc1ed33	0.005918169
15	0xbba792f8	-0.0051139556
16	0x3ae9fc77	0.001785173
17	0xbbd2c6f8	-0.0064324103
18	0xbb0fd79b	-0.002194858
19	0x3bb85459	0.0056252894
20	0xbbac3164	-0.0052549113
21	0xbb80c705	-0.003929975
22	0xbb41f4ec	-0.0029595448
23	0xbb06e0a0	-0.0020580664
24	0x3bfabfe0	0.007652268
25	0x3b10f1a1	0.0022116678
26	0x399ce9b7	0.0002992877
27	0xbb87a871	-0.004139953
28	0xbc4facbf	-0.012675463
29	0xbadb48ed	-0.0016730108
30	0xbb341dd7	-0.0027483606
31	0xbaaeaeb6	-0.0013327214
32	0x3b20d30b	0.0024539854
33	0x3b9712aa	0.004610379
34	0x3c7963d7	0.015221558
35	0x3b873ab5	0.0041268715
36	0x3b0d4822	0.0021557887
37	0x3ba3e8cb	0.0050021163
38	0x3c479d40	0.012183487
39	0xb9d25b00	-0.00040122122
40	0x3aca1b33	0.0015419483
41	0x3c0bc043	0.0085297255
42	0xbb8bc874	-0.0042658392
43	0x3bc9e0b5	0.0061608204
44	0xbba720e2	-0.0051003555
45	0xbbf86742	-0.0075806687
46	0xbc2946e7	-0.010331846
47	0xbacc18d9	-0.001557137
48	0x3c798152	0.015228586
49	0xbb8a0776	-0.004212315
50	0xbb42cdf8	-0.0029724818
51	0xbc4981c5	-0.012299006
52	0x3bc9e55c	0.006161375
53	0x3bac5b3f	0.005259901
54	0xbc68f59d	-0.014218715
55	0x3b48776b	0.0030588757
56	0x3b6a9c8a	0.003579887
57	0xbc663220	-0.014050037
58	0x3c8dfed9	0.017333435
59	0x3c36ff74	0.011169303
60	0xbc0c7d27	-0.0085747605
61	0x3c5cdeb7	0.013480834
62	0x3bb74a2b	0.0055935583
63	0x3c43ab6f	0.011942728
64	0xbc646ca2	-0.013941916
65	0xbbfb7f6d	-0.0076751024
66	0x3c30da77	0.010794274
67	0xb99a65e6	-0.0002944909
68	0xbc556f13	-0.01302697
69	0xbcb4835c	-0.022035293
70	0xbb1a8d27	-0.0023582669
71	0xbbd041d3	-0.006355503
72	0x3b142dd0	0.0022610314
73	0xbb630198	-0.00346384
74	0x3c8f4f1f	0.017493783
75	0x3b4eed73	0.0031574636
76	0xbc0bbb24	-0.0085285045
77	0xb9570cf8	-0.00020508829
78	0x3c0ec048	0.008712836
79	0xbbb7d909	-0.0056105894
80	0xbc825887	-0.015911354
81	0x397f2557	0.00024332605
82	0xbc85b107	-0.016319765
83	0xbc13f0a3	-0.00902954
84	0xbc55aaa0	-0.013041168
85	0xbc005803	-0.007833484
86	0xbbe80a6d	-0.007081321
87	0x3b99afa3	0.004690127
88	0x3b8d52c0	0.004312843
89	0xbc35f5f7	-0.011106006
90	0xbb3ae2d0	-0.0028516538
91	0xbb8580d9	-0.0040741977
92	0x3c8be65a	0.017077614
93	0xbc19cdbb	-0.009387429
94	0x3a95513f	0.0011392011
95	0x3aa75eb2	0.001276931
96	0x3ca59b51	0.020215662
97	0xbb434095	-0.0029793133
98	0xbc106e57	-0.00881537
99	0x3b033eb1	0.002002638
100	0x3b81dd56	0.003963153
101	0x3c6c528f	0.01442398
102	0x3af3b397	0.0018592951
103	0x3be4d105	0.006982925
104	0x3c40728f	0.011746063
105	0x3aaea0e7	0.0013323099
106	0xbb837bf9	-0.0040125814
107	0xbb9d4941	-0.0047999923
108	0x3b231e6a	0.0024889954
109	0x3b429a38	0.0029693972
110	0xbb8fb6cb	-0.0043858043
111	0x3a84cd43	0.0010131974
112	0xb92f3d8a	-0.00016712226
113	0xbc7e5b1f	-0.015524655
114	0x3c0a722f	0.008450075
115	0xbbb30620	-0.0054633766
116	0x3b54a6c5	0.0032448035
117	0x3b0323af	0.0020010283
118	0xbc5ae532	-0.0133603085
119	0x3b0c34c7	0.0021393762
120	0xba18e64e	-0.0005832658
121	0x3c0da9fc	0.008646484
122	0xbb8a9d4b	-0.0042301766
123	0xbc435afa	-0.011923546
124	0x3c0089d7	0.007845364
125	0xbb9e3218	-0.004827749
126	0xbbf9a15b	-0.007618112
127	0x3aeab00b	0.0017905248
