ML Agents tutorial/Assets/results/RollerBall_2walls_between_time/RollerBall/RollerBall-5447.onnx (onnx, 76281 bytes, 8 tensors)

network_body._body_endoder.seq_layers.0.weight f4 [128, 9]
000000 ca 96 4e 3c 49 e9 a4 be a6 20 52 3e 43 92 19 3f
       0.012609193 -0.32209232 0.20520267 0.599888
000010 9d 4f a5 bd b8 7e 1e 3d 55 97 b6 be cd e1 fa 3e
       -0.08071826 0.038695067 -0.35662332 0.49000397
000020 1f c7 ef 3e 33 a1 56 3e b4 aa 3f be e6 a5 d4 be
       0.46831605 0.2095993 -0.18717462 -0.4153282
000030 95 e1 d1 be 8d 56 c5 3e e6 76 ac be 43 6b 7c be
       -0.40992418 0.38542596 -0.33684462 -0.24650292
000040 42 c3 85 be 8d 32 c7 be cf 3a d0 3d 22 4d be be
       -0.26125532 -0.38905755 0.10167467 -0.37168223
000050 6a 1b 23 3f 4a 56 3d bd fb 96 c4 be ce 68 f2 be
       0.63713706 -0.04622487 -0.3839644 -0.47345585
000060 0a c2 12 3e 26 b7 ee 3e 5d 64 93 bd 3d 30 36 3e
       0.14331833 0.46624106 -0.07196877 0.17791839
000070 f9 44 86 3f c3 83 b1 3e 5f 87 d8 be 97 74 16 bd
       1.0489799 0.3467084 -0.4229078 -0.036732282
000080 49 b1 8e be 44 57 44 3e 4c 56 a3 3c 1f 03 02 bf
       -0.27869633 0.19173914 0.01993861 -0.5078601
000090 f8 72 c0 be 1f fc 94 3e 2d c7 3c be 76 a5 af bd
       -0.37587714 0.29098603 -0.18435355 -0.08576481
0000a0 8d 92 bb bd 3f e1 03 3c 46 8a a0 3e d1 6b c2 be
       -0.09158812 0.008049308 0.31355494 -0.37972882
0000b0 74 6a 52 3e 90 34 48 bf 2a 04 36 3f e6 a5 63 3e
       0.20548421 -0.78205204 0.71100104 0.22231254
0000c0 17 1d c7 bd de 81 57 be 52 86 94 be 85 1c 0e 3f
       -0.09722345 -0.21045634 -0.29008728 0.5551227
0000d0 ac b0 04 3e 98 95 dd 3d 9d 26 90 be 5f 12 23 3e
       0.1295802 0.10819548 -0.2815446 0.15924977
0000e0 ef bc 3c 3f 51 76 0d 3f c6 ce 4b 3e d5 ee da be
       0.7372579 0.5525866 0.19903097 -0.4276034
0000f0 4c 20 92 be 73 a8 f2 bd df 0a 28 be 10 ba 93 be
       -0.28540266 -0.118485354 -0.16410397 -0.28852892
000100 af 32 16 3f 4a a1 7b be fd da 61 3d 67 54 20 bd
       0.5867109 -0.24573246 0.055140484 -0.039142992
000110 f9 32 7b 3d 69 91 d2 3d 45 0b 92 be 51 f9 3f 3c
       0.06132791 0.10281641 -0.28524223 0.0117171565
000120 6b 19 cb be 99 a2 96 be 06 27 2d 3f ff be bd be
       -0.3966783 -0.29420927 0.6763767 -0.3705978
000130 2d 09 d5 3e 4f e0 c1 3d db cb 79 3e bb 3e 93 be
       0.41608563 0.094666116 0.24394171 -0.28758797
000140 80 f1 30 3d 2e 84 33 bd 4c e0 39 bf 64 4a bb be
       0.043199062 -0.04382723 -0.72607875 -0.36580193
000150 1d 0b 86 bd 1c be 0e bf 47 b9 88 be 51 9a 38 be
       -0.065450884 -0.55758834 -0.26703855 -0.18027617
000160 f6 99 a9 3d 36 b2 36 be 6d 0b b4 3e 79 45 61 3f
       0.08281319 -0.1784142 0.35164967 0.8799663
000170 03 37 03 3e f0 7e 34 3d 05 66 7a 3e 36 2a 67 3f
       0.12813954 0.04406637 0.2445298 0.90298784
000180 0f 21 b0 bc a4 e3 db 3c 88 9c e1 3e 51 0b a8 be
       -0.021500139 0.026841946 0.44064736 -0.32821134
000190 60 f2 fb 3e b0 87 24 be 20 d3 b5 bd 2c 52 08 bd
       0.49208355 -0.16067386 -0.088781595 -0.03328149
0001a0 18 2b f6 3e 66 06 ee bd 6b 3f c3 bd 99 0d 00 be
       0.48079753 -0.11622314 -0.095335804 -0.12505187
0001b0 72 35 70 be 7e fd ca 3d 88 8a 8f be 44 c9 1d bd
       -0.23457888 0.09911631 -0.28035378 -0.03852202
0001c0 29 07 20 be b4 78 e7 bd 7d cc ab be ae 3f 9c 3c
       -0.15627731 -0.11302319 -0.3355445 0.019073334
0001d0 18 e0 e9 3d 83 6b d2 bb 05 73 a4 3e ad 94 4d 3e
       0.114196956 -0.006421508 0.32119003 0.20076247
0001e0 25 ac 07 bf d6 bf 52 be e0 29 32 bf be 69 e9 bc
       -0.52997047 -0.20580992 -0.69595146 -0.028492805
0001f0 e7 f0 e8 3e 6c 88 0a be da 2f 85 3d 89 bc 33 3f
       0.45496294 -0.13528603 0.065032676 0.70209557
000200 f5 03 87 3d 3a b6 68 be 6f 3a 00 3f f7 43 15 bf
       0.065925516 -0.22725764 0.5008916 -0.5830683
000210 64 d2 37 bd 5d b3 29 3e ab 3b 8e be 39 60 b6 3e
       -0.04487838 0.16572328 -0.27779898 0.35620287
000220 69 87 4a be 3e 5e 56 be 8a 25 96 be f3 3b 9d be
       -0.19778217 -0.20934388 -0.29325515 -0.307098
000230 be 04 14 bf 9c c9 42 bd db cf 5c be fb 62 19 3c
       -0.57819736 -0.04755555 -0.21563666 0.009361978
000240 e3 df 35 3e 2d ab f3 3d 23 03 8b 3e 02 f6 8e 3d
       0.17761187 0.118978836 0.2715083 0.06980516
000250 17 82 e1 3d 06 5a a7 3d 31 e1 df be b1 9f 5d be
       0.11011141 0.081714675 -0.43726495 -0.21642949
000260 95 7d 26 bc 79 b4 0f bd 54 eb 8f be 38 c7 fd 3d
       -0.010161777 -0.03508422 -0.2810923 0.123915136
000270 0c 63 ef bc bd c8 11 3e 95 9e 04 3f a8 7d 11 3e
       -0.029222034 0.14236732 0.51804477 0.1420809
000280 a8 ca 3c bc 78 1f 4d be 0f b6 a2 be b3 e0 9d 3e
       -0.011522926 -0.20031536 -0.31779525 0.30835494
000290 87 d0 a1 be ad bf ac bd c0 da 30 bf e9 f2 fc bc
       -0.31604406 -0.08434997 -0.69083786 -0.030877547
0002a0 54 04 cb 3c 0f 9e 11 bf c7 23 2d bf 25 4a 2a 3e
       0.024782337 -0.56881803 -0.67632717 0.16629846
0002b0 89 09 98 3e f9 7b eb be 4b 55 8e be ff 30 83 bc
       0.29694775 -0.4599302 -0.27799448 -0.016014574
0002c0 30 c7 5a bd 9c bd b8 3c c2 84 eb bd 30 28 b5 be
       -0.053412616 0.02255135 -0.11499931 -0.35382223
0002d0 93 fa 5c 3e 87 ca 60 be 06 6c c8 be 53 42 91 3f
       0.21579961 -0.21952258 -0.39144915 1.1348366
0002e0 e4 14 03 be ad e4 11 3f 02 87 a7 be c3 77 df 3c
       -0.12800938 0.56989557 -0.3272019 0.027278787
0002f0 fc bd c7 be 4f 8f 8e 3e 9e bb 95 3d c4 63 1a 3e
       -0.39012134 0.2784371 0.07311176 0.1507712
000300 ba c1 0d 3e e4 f4 f9 be 5a 1c a5 bd 9f 02 d8 be
       0.13843432 -0.4881965 -0.08062048 -0.421895
000310 4e a5 b5 be 25 53 94 bc 0c 78 a5 be 36 79 01 bf
       -0.3547768 -0.018106053 -0.3231815 -0.5057558
000320 cd 0a 55 3e 2e 71 2d be 77 1f d8 be 15 43 9f be
       0.20804901 -0.16937706 -0.42211506 -0.31105867
000330 17 1c 9d 3e fd 2b 8b be 99 b6 d3 be ae 78 3f be
       0.30685493 -0.27181998 -0.41350248 -0.1869838
000340 a0 0a 59 be 6f 57 77 3e 70 79 1a bf ee af 6b 3e
       -0.2119546 0.24154447 -0.6034155 0.2301633
000350 36 0a 4a 3e e2 a7 1c be 83 49 97 bd c6 c9 17 3d
       0.19730458 -0.15298417 -0.07387068 0.03705766
000360 95 ec 3f be 91 d9 87 be 0f 14 08 bd 9e 3c 14 3d
       -0.18742593 -0.26533177 -0.033222254 0.03619062
000370 db c2 c6 3e 0b fc 8f be eb 23 de 3d a8 16 80 be
       0.38820538 -0.2812198 0.108466946 -0.25017285
000380 8d 22 be 3b 1d e1 85 3d 84 e5 06 3e b8 9d 59 3e
       0.0058024586 0.065370776 0.13173491 0.21251571
000390 23 db af 3e 89 f8 1c be 96 5a 8f 3d e1 20 fc be
       0.34346876 -0.15329184 0.069997 -0.49243835
0003a0 be cd f3 be 23 ac 86 be 90 bb 40 3f 2e 8d b0 3e
       -0.47617906 -0.26303205 0.752862 0.34482712
0003b0 75 eb 58 be 1c e2 4a 3e 51 1e 96 3e f3 86 4b be
       -0.2118357 0.19812816 0.29320005 -0.19875698
0003c0 d6 ac b3 bc 11 23 8f 3e b4 98 02 3f fe 08 29 be
       -0.021933 0.2795644 0.51014256 -0.16507336
0003d0 4a 88 04 3f 36 74 80 be e4 0c 7c 3d 47 df 66 3e
       0.5177046 -0.25088662 0.06153573 0.22546111
0003e0 c3 49 ce 3d 4f 1e 2f 3e ef c5 89 bd b1 51 35 3e
       0.10072663 0.17101406 -0.06727206 0.17706944
0003f0 94 14 3b be 5a a1 06 be 58 03 ed bd b1 0e 03 3e
       -0.18269569 -0.13147488 -0.115729034 0.12798573

network_body._body_endoder.seq_layers.0.bias f4 [128]
000000 b0 9b a3 bc a9 3d ca bc 4e 60 09 3c 71 cb 21 3c
       -0.019971699 -0.024687605 0.008384777 0.009875164
000010 1b 51 3d 3c 67 91 02 bc 04 36 3c 3c 8a c4 a4 bb
       0.011554982 -0.007969237 0.011487488 -0.005028312
000020 25 69 bc 3c 6e 40 3a ba 6d fe b3 bb 39 09 16 bc
       0.022999356 -0.00071049377 -0.0054929764 -0.009157472
000030 e7 a4 fa bb a2 57 e8 3c c1 64 a0 3a 41 c0 f2 bb
       -0.0076490524 0.0283621 0.0012237058 -0.0074081724
000040 fb d3 3f ba 02 57 ba 3b b8 f8 a7 ba 8e c9 d1 ba
       -0.00073176593 0.0056866417 -0.0012815213 -0.0016005503
000050 2b 58 35 bc 84 47 58 3b 40 fd 68 bc 97 77 ab bc
       -0.011068384 0.003300161 -0.014220536 -0.020931048
000060 2a ff 75 bc 0c ec 70 bc 71 b2 fd bb 99 c5 0f bc
       -0.015014449 -0.014704715 -0.007742219 -0.008775138
000070 e0 ac 1c bb 7f 55 16 bc 6b ac f0 39 87 35 87 3c
       -0.0023906752 -0.009175657 0.0004590483 0.016505016
000080 38 46 61 3b 5f 39 7e bb 91 e1 d7 3a 55 12 27 3c
       0.003437413 -0.003879152 0.0016470422 0.010197242
000090 67 10 d7 bc 64 dc 48 bc 1d fd a8 ba 90 55 95 bb
       -0.026252938 -0.0122595765 -0.0012892816 -0.004557319
0000a0 1c 5f 39 bb 9e 0c 8d 3b d9 29 02 3b b5 85 e5 3b
       -0.002828545 0.0043044826 0.001986137 0.0070044645
0000b0 fe ef b5 3b a8 bb 27 ba a1 ed 01 bc a5 a8 0a bb
       0.005552291 -0.00063985074 -0.00793019 -0.002115765
0000c0 a6 18 47 3c d2 a9 3d ba 71 5b 4f 3a 9c bc 61 bb
       0.012151873 -0.0007235083 0.0007910049 -0.0034444695
0000d0 de 90 45 bc 54 ce 48 bb 5e 91 09 bb 3a 6e e2 b9
       -0.012058465 -0.003064056 -0.0020991187 -0.00043188204
0000e0 8b 27 06 bb 02 bc 9b bb 0c a3 13 3c 0c b7 13 3b
       -0.0020470347 -0.004752637 0.009011041 0.0022539524
0000f0 fa 97 00 3a ee 32 7f 3b 71 5a af bc 9b c7 be bb
       0.0004905459 0.0038940269 -0.02140543 -0.0058221347
000100 9f d4 15 3c 7f 9c 9b bb dc 09 08 3b 4b cd 8c 3a
       0.009144931 -0.0047488804 0.002075783 0.0010742334
000110 2d f7 3b bb c5 d9 c1 3b 3d 91 51 bc 13 31 65 3c
       -0.0028681264 0.0059158527 -0.012790975 0.013988751
000120 7f 8f 11 bb f5 bd 09 bb 3b 54 50 bc f8 84 07 bc
       -0.0022210774 -0.0021017764 -0.012715395 -0.008271448
000130 07 db 00 bc 5c 00 1e bb 55 d5 39 3c 83 c1 28 bc
       -0.00786472 -0.00241091 0.011342366 -0.010300043
000140 ce 0a 90 3b 05 73 95 bc 87 29 ac 3b f0 42 c2 bc
       0.0043958193 -0.018243322 0.005253974 -0.023713559
000150 ad 93 a9 38 bd 9d e3 bb 47 d3 45 bc fe 15 d2 3b
       8.086055e-05 -0.006946294 -0.012074298 0.006411313
000160 3d 16 87 bc ec 1f 63 bc b7 21 15 bb 68 ad e5 bb
       -0.016490096 -0.013862591 -0.0022755691 -0.007009197
000170 fe 11 17 bc 2e 35 90 3b 5e 6d 8e bc 6e 6d 1f ba
       -0.009220598 0.0044008708 -0.017386135 -0.0006081675
000180 ad d9 21 3c b8 76 58 bb 12 da cb 3a 60 3b 35 bb
       0.009878558 -0.0033029746 0.0015552661 -0.0027653798
000190 df 14 52 bc 79 85 a7 3a 08 29 90 3c 13 6b 1a 3c
       -0.012822359 0.0012780867 0.01759769 0.009424943
0001a0 c8 db 69 3c 06 10 e8 3b 06 8d f6 3c 03 31 41 bc
       0.014273591 0.0070819883 0.030096542 -0.01179147
0001b0 a3 64 bd 39 59 04 ae bb 7f a0 36 bb 30 d1 19 bc
       0.0003612387 -0.005310577 -0.002786666 -0.009388253
0001c0 cd 98 e6 3b a9 18 20 3a aa 8b 47 bc 91 36 63 bc
       0.0070372582 0.000610719 -0.012179295 -0.01386799
0001d0 a2 bf 19 bc 48 74 73 bb 1b f5 5e 3c fc 01 29 3c
       -0.009384068 -0.0037148166 0.013608242 0.0103154145
0001e0 3d 46 4b 3c 74 1a 17 bc 3e 28 cb 3a b3 53 c1 bb
       0.012406883 -0.0092226155 0.0015499664 -0.0058998703
0001f0 bf 27 e5 ba 96 04 e5 bc 86 a3 84 bb 33 6b 86 bb
       -0.0017483159 -0.027956288 -0.004047814 -0.0041021346

network_body._body_endoder.seq_layers.2.weight f4 [128, 128]
000000 6f 15 08 bd 6f 92 fd 3d 6f 30 96 3c ef 85 7d bd
       -0.033223566 0.123814456 0.018333642 -0.061895307
000010 97 e4 8b 3c f1 ad c9 3d 65 dd 07 3d 00 d8 46 bd
       0.017076774 0.0984763 0.033170123 -0.048545837
000020 e7 0a a6 bd 21 0a 43 bd 24 28 cf 3c 0a 40 fe 3c
       -0.08107548 -0.04761708 0.025287695 0.031036396
000030 31 a5 04 bd 6b 99 9e 3c 92 8c 69 bb 64 05 77 3d
       -0.0323841 0.019360265 -0.0035636765 0.060307875
000040 7e 4f c2 bd 30 b7 0b 3d 11 ff a2 3d e0 11 ca 3c
       -0.09487818 0.034110248 0.07958806 0.024666727
000050 05 2f 9a 3c c4 0a 3d bd f6 88 b0 3d 0f 49 6e 3d
       0.018821249 -0.046152845 0.08619873 0.058175143
000060 92 c1 0d 3e 24 85 aa bd f2 67 63 bd 95 61 10 3e
       0.13843372 -0.08326176 -0.05551905 0.14099725
000070 49 f3 97 3c 5d 29 59 bc 54 7f af 3d dc ed 15 bd
       0.018548625 -0.013254491 0.08569208 -0.036603794
000080 0d b3 b8 bd a3 7d e0 bb ee ff 3c 3e 88 80 32 3b
       -0.09018526 -0.0068509146 0.18457004 0.0027237255
000090 f8 56 7a 3c fa a3 94 ba f8 37 7f 3c 46 19 08 be
       0.015279524 -0.0011340373 0.015577309 -0.13290891
0000a0 a0 c7 bf 3d b2 e1 d4 bd 2f e2 88 bd 55 b4 e8 3d
       0.09364247 -0.103946105 -0.06683766 0.113625206
0000b0 bc 04 b8 bb 1c 61 12 3c d4 8b b3 bc 77 2a 08 3e
       -0.0056157988 0.0089342855 -0.021917261 0.13297449
0000c0 d5 5c bc bd ff 38 b4 3d 46 a0 56 be dd c9 34 be
       -0.09197394 0.08799934 -0.20959577 -0.1765513
0000d0 66 a6 87 3c 56 2c 6c 3d 31 53 8a bc 16 2c cd bd
       0.016558837 0.05765947 -0.016885372 -0.10018174
0000e0 9c 58 ba 3d 83 d9 b3 3d 01 e5 32 bd ab 23 a3 bd
       0.09098932 0.087817214 -0.043675426 -0.079657875
0000f0 e5 2d 79 3e 39 e6 09 3d ce 55 33 3d 0c 30 5d bd
       0.24333914 0.033666823 0.043783 -0.0540009
000100 8e bf 0e bd 7d 5f c8 3d 57 7f 07 3d a3 81 3a 3d
       -0.03485065 0.09783838 0.033080425 0.045533787
000110 14 13 4a be 48 f3 24 be 23 67 15 3b 17 97 ff 3c
       -0.1973384 -0.1610843 0.002279707 0.031199975
000120 cc de 02 be 1c 4a 08 3d 4b 49 94 3d 5d 09 a5 3d
       -0.12780303 0.0332738 0.07240542 0.080584265
000130 d1 8b dd bc c6 c1 da 3c 70 c3 a1 3d b5 cc 2f 3d
       -0.027044209 0.026703727 0.07898605 0.042919833
000140 12 53 8d bd 0a 8d ef bd 2d 03 ab bd cf b1 da 3d
       -0.0690061 -0.11696823 -0.08350215 0.106784455
000150 c2 e8 1d be 23 91 d7 3c b0 b3 c1 3d 47 d9 af 3d
       -0.15420821 0.026314324 0.09458101 0.08586364
000160 c6 57 ad 3d 79 25 0a be 9d 03 92 bd 3d b1 4c 3d
       0.08464007 -0.13490857 -0.071295954 0.049973715
000170 0a 57 39 bd 9f 22 b3 3d 3e 25 d9 3d ae 97 e1 3d
       -0.045249023 0.08746838 0.106028065 0.11015259
000180 b7 42 08 3c d2 64 7b bc a1 27 e3 bb ce 77 a7 3c
       0.008316687 -0.015343862 -0.0069322144 0.02044287
000190 d3 6f 85 bd 97 ab 88 bd eb 39 2d be e3 9a c2 bd
       -0.065154694 -0.06673353 -0.16916625 -0.095021985
0001a0 ce f4 f5 3c 24 3d 4a bd 83 82 07 3d e0 61 ad bd
       0.030023959 -0.049374714 0.03308345 -0.08465934
0001b0 b4 0d d1 bc ac 32 8e bc 0e 41 08 bc 2c c6 9d bd
       -0.02551923 -0.017358147 -0.0083162915 -0.07703814
0001c0 3c 07 56 bd a2 ed 77 bd 6a 5f 0f 3e cc 4d c0 3d
       -0.052252993 -0.06052936 0.14001241 0.093898386
0001d0 e3 68 1c bd b0 74 9c 3d c3 20 80 3c a6 91 50 3d
       -0.038185965 0.07639444 0.015640622 0.05092015
0001e0 85 b5 cb 3d 2b 68 04 bd a1 5c bc 3d 68 0d 04 bd
       0.099467315 -0.032325905 0.09197355 -0.032239348
0001f0 84 e5 d3 3d 17 c8 0d be 6f bf f6 bc 20 56 28 be
       0.10346511 -0.1384586 -0.03012058 -0.16439104
000200 a3 88 fb bd 44 72 06 3e 2c 9c 06 bd 60 0f 28 bd
       -0.12281921 0.13129526 -0.03286378 -0.041030288
000210 ec 81 c8 3d 9c 6b f8 3a 05 be f8 bd 74 c4 7c 3c
       0.09790406 0.0018952969 -0.12145618 0.015427697
000220 c2 7c e4 3d 2f 55 ac bd d0 fc a8 3c f5 90 b6 3d
       0.11156608 -0.08414685 0.020628363 0.08914367
000230 b5 6b 48 3e c5 a1 ff bc cf 07 63 be 39 8d 89 3d
       0.19572337 -0.031205067 -0.22170947 0.06716389
000240 bc c9 6d bc a8 34 e6 39 59 da dd bc c1 fa 3e be
       -0.014513429 0.0004390825 -0.027081655 -0.18650343
000250 68 34 94 3d 12 d6 42 3e a0 c2 90 bb 46 3e 0b be
       0.07236558 0.19026974 -0.0044177324 -0.13597974
000260 d2 e0 1d 3d f8 43 53 bd 76 d1 a4 bc b7 2f e1 3c
       0.038544483 -0.051578492 -0.02011941 0.027488573
000270 99 51 a1 bd 87 17 1d bd 78 f1 93 3c b3 9d 24 3e
       -0.07876892 -0.038352516 0.018059477 0.16075782
000280 90 c7 1d bd da 5e 00 bc 1f fd d8 3d 19 fb 18 bd
       -0.038520396 -0.007835114 0.10595154 -0.03734884
000290 62 0b b5 bc f1 a1 27 be 87 0e 81 3a 45 a8 d0 bb
       -0.022100154 -0.1637037 0.0009846248 -0.0063677155
0002a0 87 79 2d 3d 80 93 6e bd 18 83 8e bd 02 1d a5 bd
       0.042352226 -0.058246136 -0.06958598 -0.080621734
0002b0 41 46 03 3b 62 6a 55 3d b7 73 35 bc 79 b1 34 3e
       0.0020030888 0.052103408 -0.011074952 0.17645825
0002c0 17 f6 60 3d ba bd 5b bc e3 d5 20 be 89 63 36 3d
       0.05492219 -0.013411934 -0.15706591 0.044528518
0002d0 46 92 5e bd b0 5f 0f be cb 84 27 be ad 76 b3 bd
       -0.054338716 -0.14001346 -0.1635925 -0.0876287
0002e0 81 4b 8a bd 3f 56 03 bd e6 ed 40 bd 3c 34 b4 bd
       -0.067526825 -0.032064673 -0.047101878 -0.087990254
0002f0 d4 9c b6 3b 74 b2 2b 3c 9e c5 f8 3b f6 83 cf 3c
       0.0055728946 0.010479558 0.007591917 0.025331479
000300 39 8f 58 bd b6 cf 59 3e 72 76 b6 3d 26 10 11 bb
       -0.052870963 0.21270642 0.089093104 -0.002213487
000310 f5 13 e9 3d 18 3d 07 bd a1 07 e1 bd b4 de 80 bd
       0.113807596 -0.033017248 -0.10987783 -0.06292477
000320 70 c4 90 bc 5b 51 2d bd 59 cc cd bd c8 01 ab 3d
       -0.017671794 -0.042313915 -0.10048742 0.08349949
000330 30 43 91 3d f3 2e 3d 3d 39 f7 6c bb 1b 5d 33 bd
       0.07092893 0.046187352 -0.0036158098 -0.043789964
000340 d7 26 13 3e 2c fb 52 3d 18 61 b5 3d 14 5d 32 3d
       0.14370285 0.051509067 0.0885641 0.043545797
000350 3d 6a 6f bd 17 26 c7 3b a8 d3 e1 3d 65 ac 15 be
       -0.058450926 0.0060775387 0.11026698 -0.14616545
000360 0a 85 6c 3b 79 b0 c8 3c bc 42 c0 3d 17 46 3c 3d
       0.003609004 0.024498211 0.093877286 0.04596528
000370 60 34 33 bc 12 28 50 3c d8 da 75 3e 0c 3c cb 3d
       -0.01093778 0.012704866 0.24009264 0.099235624
000380 ed 04 c1 bd 2b b7 7b bb a2 2f cd bc dd 21 e1 ba
       -0.09424768 -0.0038408737 -0.025047127 -0.001717623
000390 ab 79 80 3d 64 ea 81 3b de 11 35 bd fd 10 05 bd
       0.06273206 0.003964709 -0.044206493 -0.032486904
0003a0 6b 4d b3 bd 43 d1 f2 3c 5b 20 b8 3c 23 f9 52 bd
       -0.08755001 0.0296408 0.022476366 -0.051507127
0003b0 21 02 1e 3e 29 9d a2 3d d4 34 14 bd 2b 7a cf bc
       0.154305 0.07940132 -0.036183193 -0.025326809
0003c0 e4 08 c4 3d 70 73 a0 3d 83 13 c5 bd 65 8c e9 3c
       0.09572008 0.07834518 -0.09622862 0.028509328
0003d0 30 8b 19 be a1 20 39 bd 84 14 cc bd ba 7f ce bd
       -0.14994502 -0.045197133 -0.099648505 -0.10082956
0003e0 d1 9d bf bd c8 f2 30 bd 3a 49 1c 3d bb 72 49 be
       -0.09356273 -0.043200284 0.03815577 -0.19672672
0003f0 85 03 3a 3e 90 4e ea 3d b3 4d 0e bd 79 23 85 3d
       0.18165405 0.11440766 -0.03474207 0.065009065

network_body._body_endoder.seq_layers.2.bias f4 [128]
000000 7d 0a f8 bb 39 74 96 bb 36 b2 50 3a 58 ab 2b bc
       -0.0075696097 -0.0045914915 0.0007961126 -0.010477863
000010 3b 38 d7 3b 6d 2d 8e bb 6f 86 41 3b 64 90 39 bb
       0.0065679825 -0.0043389113 0.0029529592 -0.0028314823
000020 3b dd 19 bc 62 21 1d 3b e4 29 29 bc 35 da 64 3c
       -0.009391124 0.0023976197 -0.010324929 0.01396804
000030 b0 0c 15 3b 8e 13 1e 3a be 7d 13 bc 42 67 cc 3a
       0.0022743158 0.00060301356 -0.009002147 0.0015594738
000040 de e6 02 3c 90 e3 23 3c 11 f1 00 bc 93 65 31 bc
       0.007989613 0.010002986 -0.007869975 -0.01082744
000050 72 a9 db 3c 87 69 66 bb 0a c2 da bb 8e a1 dd 3a
       0.026814196 -0.0035158114 -0.0066759633 0.0016909109
000060 f4 2e 96 bb 1e 8b 38 bc d7 8a 69 3b 9d e6 d2 ba
       -0.004583234 -0.011263637 0.0035635734 -0.0016090457
000070 e7 a7 ce bb a8 93 75 3c e3 9a f9 b8 7e 68 ce bb
       -0.0063066366 0.014988817 -0.00011902095 -0.0062990775
000080 cf 3b 8a bb 74 11 37 bc aa ff 8d 3a 95 37 01 bc
       -0.0042185555 -0.011173595 0.001083364 -0.007886787
000090 78 13 05 bc ff f9 d5 ba e0 8a f1 bb 8c 4c 03 bc
       -0.0081223175 -0.0016325115 -0.0073712915 -0.008013856
0000a0 a2 8f 18 3b 02 e8 8c bc 45 ca 79 bb 6d 99 30 39
       0.0023278971 -0.017200474 -0.0038114947 0.00016841824
0000b0 5f 7c 26 bb a7 b2 06 bb b3 0f 8d 3a a6 67 3f bc
       -0.002540372 -0.0020553262 0.0010762125 -0.011682427
0000c0 d9 05 83 bc c0 68 c0 bb 0b 99 b2 bb a6 ff b8 ba
       -0.015994 -0.005871862 -0.005450373 -0.0014114275
0000d0 ac d8 eb bb f6 a7 ed bb b5 51 16 bc ee cc 13 bc
       -0.00719746 -0.0072526885 -0.009174754 -0.009021027
0000e0 8d 38 fa 3a 5d 56 18 bc 87 2b 06 bc bc 28 8e 3b
       0.001909034 -0.009297934 -0.008189089 0.004338352
0000f0 7c 81 bf bb 77 c8 1d bc 3b 1b 3d bb b9 15 a1 3c
       -0.005844293 -0.009630314 -0.0028855342 0.019663678
000100 7e f5 d6 ba da 7b ad 3a d1 2b 48 bc 89 63 d3 bb
       -0.0016400067 0.0013235763 -0.012217478 -0.0064510745
000110 24 0e 83 bb 70 db 4a 3a ec de 89 ba 76 bf 0a 3b
       -0.0039994884 0.0007738387 -0.0010518706 0.0021171249
000120 6c ae 07 bc 53 9e 39 bc b6 ab d5 ba 48 fc b7 3b
       -0.0082813315 -0.011329251 -0.0016301784 0.005614791
000130 4c 9c 7b 3b 24 c1 0c bc 1a 8a a6 bb b7 d8 c6 bb
       0.003839272 -0.00859097 -0.005082381 -0.006068315
000140 e6 90 86 3a 39 9d 3b bc 3c 32 1d 39 18 bd ee bb
       0.0010266572 -0.011451059 0.000149914 -0.0072857253
000150 8f 1c ce 3b 27 2a 10 bc 2b 4c 1b bc be 98 89 bc
       0.0062900255 -0.008799112 -0.009478609 -0.016796466
000160 26 d2 8c bc ea 55 02 3b 3c 87 23 3c 29 e1 39 bc
       -0.01719005 0.0019887635 0.009980973 -0.011345186
000170 3a 7b 1e bb f1 9b 09 3c 17 98 5a bb 63 f9 1d bc
       -0.0024182335 0.008398996 -0.0033354813 -0.009641978
000180 d4 d3 db bc de fd 81 3c 84 73 a5 3c 3f 25 4a bb
       -0.026834406 0.015868124 0.020196684 -0.0030844954
000190 2b d4 51 bb f1 cc d1 bb f3 37 53 bc 9e ab 5c 3b
       -0.003201733 -0.0064026047 -0.012891757 0.0033671628
0001a0 ec 2f 49 bc 86 f2 89 bc 6e 3f 42 bb 75 7a 38 bb
       -0.012279492 -0.016839277 -0.0029639858 -0.0028149162
0001b0 ea 81 5b 3b 09 d6 e5 3b d7 cb a7 3b 4e e7 62 bc
       0.0033494183 0.0070140404 0.005120735 -0.013849093
0001c0 01 54 a4 bb 9b 44 67 3a f5 9e b3 ba 2c bf 0f bc
       -0.005014897 0.00088221737 -0.0013703989 -0.008773606
0001d0 e9 ce 76 3b 69 88 e6 bb 82 25 99 bc ce 74 a3 bc
       0.003765995 -0.0070353043 -0.018694643 -0.019953158
0001e0 a5 d2 35 bd 32 1c 3b bc 78 5a 87 bc c6 1f d3 ba
       -0.04439034 -0.0114202965 -0.016522631 -0.0016107492
0001f0 ae 4a a5 bc 8c 3d 1c bc 6a 44 ab bb 04 b8 d8 bb
       -0.020177212 -0.009536158 -0.0052266615 -0.0066137332

action_model._continuous_distribution.log_sigma f4 [1, 2]
000000 34 57 01 bd 1e 5c 56 bc
       -0.031577304 -0.013083486

action_model._continuous_distribution.mu.weight f4 [2, 128]
000000 55 17 83 bb 82 7b f0 ba f6 9e c6 3c cb 83 07 3c
       -0.004000584 -0.0018347355 0.02424572 0.008271168
000010 e0 91 d7 3c 2a 14 ac 3b 7c 6c b2 3b a3 b1 c8 bb
       0.026314676 0.005251427 0.0054450613 -0.0061246916
000020 25 59 44 bc 82 02 74 3c a4 cc 16 bb 45 18 34 bb
       -0.011984144 0.014893176 -0.002301016 -0.0027480286
000030 bc 46 0b 3c 2c 07 ac bc ba 66 84 3a b6 b7 49 3c
       0.008500751 -0.020999514 0.0010101416 0.0123118665
000040 64 5d ba bb 16 cb 16 3c 2e f8 e2 3a 79 59 1f bb
       -0.0056874026 0.009203693 0.0017316395 -0.0024314804
000050 8b c9 1e bd 8f e4 39 3c 96 0c 9b 3c c5 a8 41 bc
       -0.038766425 0.0113459965 0.0189269 -0.011820023
000060 b6 3c bf 3c 91 e8 38 ba 96 28 ea bb 5d ce 77 3c
       0.023344379 -0.0007053698 -0.0071459515 0.015124884
000070 6f 03 cc 3b 6d 54 c7 bc 93 fd 69 bc 9f fa e8 3b
       0.0062259953 -0.02433225 -0.014281648 0.0071099545
000080 37 03 b8 3a d8 a1 a7 3c e8 ce 35 3c 00 3c 7f 3c
       0.0014039044 0.020462915 0.011096694 0.01557827
000090 1a 1f 19 3c 25 74 fd 3b 32 45 42 3c bd 99 6a bb
       0.009345794 0.007734793 0.011857318 -0.0035797202
0000a0 9f 39 87 3c 48 a7 dd 39 e9 a6 75 bc 74 34 30 3d
       0.016506968 0.0004227704 -0.014993408 0.043018773
0000b0 06 7a 29 bd c1 f7 11 3d fb c7 bb 3c c9 60 0f 3c
       -0.041376136 0.035636667 0.022922507 0.008751103
0000c0 0f c7 0a bb 7f 23 4a ba 87 72 2d 3c dd 72 bb 3a
       -0.0021175777 -0.0007710978 0.0105863875 0.00143012
0000d0 a1 a5 74 3c 22 95 07 3d 83 31 b5 3c 25 5e b3 3b
       0.014932067 0.03310121 0.022118336 0.0054738694
0000e0 68 dc 86 bc 7d aa 56 3b 78 3b b9 3c f9 00 5f ba
       -0.01646252 0.0032755428 0.022611365 -0.000850692
0000f0 34 21 8a 3c 63 c8 0b 3d 45 9b 45 3c 2d ef 39 bd
       0.016861536 0.03412665 0.012060945 -0.04539411
000100 38 39 e7 3c 0b da 0b bc 5b 03 58 bb bc e7 12 3c
       0.028225526 -0.008535872 -0.0032960984 0.008966383
000110 cd 5f 6e bb d4 f2 40 3c 9d 10 f2 3c d6 42 e3 bc
       -0.003637302 0.011776645 0.029548937 -0.02774183
000120 cd 44 0b bc c6 fc 82 3c e8 c4 15 bc 99 b2 c9 bc
       -0.00850029 0.015989672 -0.009141184 -0.024621295
000130 a8 c3 7b bb bc 75 b0 bb e8 cc 4b bb 60 d6 d5 3c
       -0.003841618 -0.005385129 -0.0031097475 0.026103199
000140 6c 4b 2b 3c 95 9a d5 bb 66 5e 90 3c d1 43 f8 39
       0.010454994 -0.0065186718 0.017623138 0.00047352773
000150 b9 24 b0 bb be fb a3 bb 86 3b 19 3c 69 30 e3 3a
       -0.0053754714 -0.0050043752 0.00935257 0.0017333153
000160 72 92 6e 3a 60 cc 7e 3c 95 59 d8 3a ed 12 b9 3c
       0.00091008015 0.0155516565 0.001650619 0.022592032
000170 43 23 87 bc f9 8b 3a 3c 88 80 1b bd c4 f5 15 bb
       -0.016496306 0.011385911 -0.037964374 -0.0022882083
000180 c2 a3 01 bc f2 09 6f 3c db 53 36 3c ce 21 4a 3c
       -0.007912578 0.0145897735 0.011128391 0.012337161
000190 74 70 0d 3d 25 12 8b bb 73 ba b7 bb 66 7c b7 bc
       0.03453107 -0.0042441064 -0.0056069433 -0.022398185
0001a0 3f ec 30 3c cf c9 51 3b 02 77 2a 3b 73 64 23 3c
       0.010798513 0.0032011156 0.0026010876 0.009972679
0001b0 e3 88 bd 3b fc 25 bf 3c f0 07 1a bb e1 f4 92 3c
       0.0057841404 0.023333542 -0.0023503266 0.017939033
0001c0 8f 2f a1 bb a6 df 6b 3c 2e 1e f8 bc 69 07 4f bc
       -0.0049189995 0.014396584 -0.030287828 -0.012636044
0001d0 17 6e 85 3b cf 8f 74 39 9f 04 d9 ba 32 08 b1 3c
       0.0040719616 0.00023323226 -0.0016557163 0.021610353
0001e0 65 f2 fd 3b a9 75 07 3b 90 6b b7 3b 96 7b 7a bb
       0.007749843 0.0020669496 0.0055975392 -0.0038220636
0001f0 10 57 28 ba a6 b2 56 ba 03 ff a1 ba c5 8d 20 bb
       -0.0006421665 -0.0008190073 -0.0012359325 -0.0024498564
000200 d8 79 42 3c 78 17 04 3c 8f 32 94 bc 4b f3 b9 3c
       0.01186987 0.008062236 -0.018090514 0.022699019
000210 d8 04 11 3d ba 10 75 3c 17 cc b5 3c f9 80 4c bb
       0.03540501 0.014957601 0.022192044 -0.0031204803
000220 11 72 ac 3a 88 d7 81 3d ff 13 3f 3c d0 cd 90 3c
       0.0013156553 0.063399374 0.011662482 0.017676264
000230 90 e4 19 bc bb 43 b4 3c 66 19 8c 3c 3b 43 a1 bc
       -0.009392872 0.022004953 0.017101955 -0.019685378
000240 c5 f7 ee bb d5 4f af bc 5a 59 4d 3c 93 d6 ce 3b
       -0.00729272 -0.021400372 0.01253351 0.0063122003
000250 b2 c3 5b 3b b4 9f d5 bb 2f 3d a6 3b ee dc 03 bc
       0.0033533392 -0.0065192822 0.0050732116 -0.008048279
000260 d8 2f 61 bc 06 53 ed 3a 9e 1b 9f 3b 81 ec a0 bc
       -0.013744317 0.0018106408 0.004855587 -0.019644024
000270 a1 3f 2b bc 2a 23 3c 3c f5 25 c0 bc fe db e2 3b
       -0.010452182 0.011482993 -0.0234556 0.006923198
000280 05 ce 3c bc 99 38 bf 3b 11 e7 60 bb 91 21 98 bb
       -0.011523728 0.0058356044 -0.0034317414 -0.0046426733
000290 22 6f 49 3b bc e0 05 bd e9 84 9e bb 96 40 3a 3c
       0.0030736406 -0.032685027 -0.0048376215 0.011367938
0002a0 17 77 f9 bc fa 06 e7 3c 9a e3 5b bc e1 7f 9c 3c
       -0.030452294 0.028201569 -0.013420964 0.019103946
0002b0 5d e3 a6 bc a5 13 83 39 7f 59 c6 bc dd fc 19 bb
       -0.020372087 0.00025000903 -0.024212597 -0.0023496666
0002c0 26 22 6f ba 08 2f 58 3c ce d6 57 ba ff 3e a8 bc
       -0.0009122215 0.013194807 -0.00082336075 -0.020537851
0002d0 4d 97 20 3c 34 f7 18 3b 4a cd 8b 3c ec e2 fe bb
       0.009801698 0.0023340704 0.017065663 -0.007778516
0002e0 16 f5 70 bb 5e 5e 96 bb a2 96 f0 3b 69 d2 85 bc
       -0.0036767176 -0.004588886 0.0073421756 -0.016335683
0002f0 f4 d0 c8 3c ff c8 15 3c 27 24 e6 3b e6 f4 c1 ba
       0.0245137 0.0091421595 0.0070233527 -0.0014797717
000300 6c 9f 7a 3b d1 16 87 3b 18 d2 58 bc cb ed 19 b9
       0.0038241995 0.004122593 -0.013233684 -0.00014679802
000310 3f 5c 28 bc 54 54 83 bc 7e 84 27 bc 26 5d 2c bc
       -0.010275899 -0.016031422 -0.01022446 -0.010520255
000320 a5 96 d9 3b 1a 82 57 3b b7 ea 90 bc 73 3d d2 3c
       0.0066402727 0.0032883943 -0.017690046 0.025664067
000330 1b 9d a8 3c a7 69 0e 3c 4a c2 b9 bc 3c e0 85 3c
       0.020582726 0.008692182 -0.022675652 0.016342275
000340 a1 f3 8d bc 72 6a 4a bc 21 00 9e 3a bc 44 e2 3b
       -0.017328085 -0.01235448 0.0012054482 0.0069051664
000350 1b 74 87 bc 11 8f 7f bb 7e 8c 8c 3b 77 9c 2a 3b
       -0.016534856 -0.0038995186 0.004289209 0.0026033202
000360 10 36 8e 3a a5 05 18 bc e2 a2 14 bd 64 46 0e 3c
       0.0010849852 -0.0092786895 -0.03628815 0.008683775
000370 12 d0 cc 3a 4d 76 b6 bc 2e c7 13 bc bc 3b 8b bb
       0.0015625975 -0.022273207 -0.009019656 -0.0042490643
000380 43 1f 84 bb 40 ac b8 bb d3 61 22 bd 78 0f 46 3b
       -0.004032047 -0.005635768 -0.039644074 0.0030221622
000390 d1 80 e3 ba e5 8e 8a 3c 89 ff c4 3b d7 78 7d 3c
       -0.0017357116 0.01691384 0.0060119075 0.015470705
0003a0 fd 6c 08 3b 6b a9 2f b9 65 66 c1 3c 50 9f 72 bc
       0.0020816915 -0.00016752414 0.023608396 -0.014808491
0003b0 3f fb 8a bc 24 5c 6b bd a9 22 e6 3b 8c 47 6d 3c
       -0.016965507 -0.05746092 0.007023175 0.01448239
0003c0 59 5b b8 3c 49 04 6c bc 70 17 2b 3c bb 00 e8 3c
       0.022504495 -0.014405319 0.0104426 0.02832066
0003d0 52 a4 d1 bc 31 3b f2 3c fd c2 30 3b 43 e2 98 ba
       -0.02559105 0.02956924 0.002697169 -0.0011664111
0003e0 81 9a 12 bb e8 15 c8 ba 64 7a 87 bb 4c 53 4b bc
       -0.0022369924 -0.0015265318 -0.004134463 -0.012409996
0003f0 bb ad 51 3a 28 e1 fd 3c ee c6 17 bc 5a 31 b1 3b
       0.0007998605 0.030991152 -0.009263737 0.0054074945

action_model._continuous_distribution.mu.bias f4 [2]
000000 00 f2 48 3a a5 cf c1 bb
       0.00076654553 -0.0059146457

action_model._discrete_distribution.branches.0.weight f4 [1, 128]
000000 ed 9e 18 3b 99 dd ac bb 7a d9 91 3b ce 9b 04 3c
       0.0023288087 -0.00527544 0.004450974 0.008093787
000010 5b 27 5a bc 32 3f f6 39 53 ee 52 bc 1f 57 5d 3c
       -0.013315047 0.0004696786 -0.012874204 0.013509541
000020 0d 80 e9 bb a3 c7 9e 3c d5 cd 1d 3c eb 79 b9 3b
       -0.0071258605 0.019382304 0.009631594 0.0056602857
000030 65 5e 99 3b 7e d6 0b 38 7d 7b fd b9 e8 1b 37 3b
       0.004680442 3.3339944e-05 -0.00048347926 0.0027940217
000040 37 58 37 3c d2 a2 5f bc 25 56 5d 3b 0a 8b cf bb
       0.011190466 -0.013649659 0.003377327 -0.0063337134
000050 63 48 e8 3b 7f 8e 70 3b 13 92 83 bb b7 d4 54 3c
       0.0070887073 0.0036706028 -0.004015216 0.012990168
000060 36 e3 0c 3b b7 36 1a bb ac 7d 0e 3c 71 12 2b 3b
       0.0021497733 -0.0023531148 0.008696955 0.0026103521
000070 fe 80 07 bb 6a b9 d2 bb 47 7f 41 3a a3 4a b0 3b
       -0.002067625 -0.0064307945 0.00073813315 0.005379991
000080 8a df 6e 3c 48 b1 0d 3c 00 ce 37 3c 8f 0b 8e 3b
       0.014579663 0.008648224 0.011218548 0.004334874
000090 b7 7d 6c bb 51 96 88 3b 98 fa 2e 3c 41 8f 30 bc
       -0.0036085674 0.0041683097 0.010679863 -0.010776342
0000a0 f7 25 09 bc 13 31 90 b8 29 f4 cb 3b f0 f8 4e 3c
       -0.008370868 -6.875596e-05 0.0062241745 0.0126325935
0000b0 ba d4 55 3c c7 b0 c6 bb 83 5a b4 3b 61 05 95 39
       0.013051206 -0.006063554 0.005503954 0.00028423502
0000c0 db 2c fa bb 9e dc 02 bb eb 4a dd bb b9 4b 4b bc
       -0.0076347417 -0.0019967924 -0.0067533157 -0.01240819
0000d0 a3 7e 2d bb 5b af 06 3c 08 27 cd bb 7a 32 4a 3b
       -0.0026473186 0.008220519 -0.0062607564 0.003085284
0000e0 44 9f 2c 3c 5b 38 61 3b a3 45 08 bc 4e 1c 2d 3a
       0.010536019 0.0034365866 -0.008317384 0.0006603644
0000f0 5b 9b 31 3c f2 89 30 bc a7 29 14 3c 9d de 11 3c
       0.010840262 -0.010775076 0.009043134 0.008903173
000100 d0 51 eb 3c 5f 7b 8d b9 39 ee 8e 3b 52 09 a1 3a
       0.028725535 -0.00026985534 0.0043618944 0.0012286103
000110 55 f7 d9 bb bb 73 02 3a cd c0 95 bb 1b ea 0c bb
       -0.0066517987 0.00049763516 -0.004570103 -0.0021501842
000120 66 58 b3 3b c2 c2 af bb 03 3e f5 3b 08 f3 02 3c
       0.0054731844 -0.005363793 0.007484199 0.0079925135
000130 d2 d1 75 bb 85 bb 76 ba fb 13 34 3b ea 3a 9c 3b
       -0.0037509096 -0.0009412098 0.002747773 0.0047677653
000140 e7 92 1c bc c3 5b 88 bc 05 61 35 3c b4 0f 4c bc
       -0.009556509 -0.016645318 0.011070495 -0.012454916
000150 f7 ad 09 bb 2b 76 fa bb 2b fa 92 3b 10 73 e6 bb
       -0.0021008232 -0.0076434813 0.0044853888 -0.0070327595
000160 e2 a7 4a 3b 77 6f 62 3b 93 42 26 bb 30 e7 51 bc
       0.003092282 0.0034551302 -0.0025369271 -0.012811467
000170 d3 ec e2 bb 47 8f 22 bc b7 6b 0f 3c d3 88 cc 3b
       -0.0069252043 -0.009921855 0.008753709 0.0062418967
000180 93 eb 26 bc 93 2e bd bb 1d 9d 5e bb 1b 0c 81 3c
       -0.010188001 -0.0057733743 -0.0033968159 0.015752843
000190 4d b3 8e 3b 95 33 89 3c 4b 81 31 3c 0f b0 a3 3b
       0.0043548704 0.016748229 0.0108340485 0.004995353
0001a0 63 d6 3b bc 38 95 c8 3a 5d bb 50 bc 55 e0 24 bc
       -0.011464688 0.001530326 -0.012739983 -0.010063251
0001b0 5a dc 93 3b 99 5e 00 3c c3 73 f9 bb 50 cb 57 3b
       0.004512352 0.007835054 -0.007612677 0.003292758
0001c0 f7 17 d3 ba 59 d8 02 3c 50 87 0a bc 12 fd 7a ba
       -0.0016105165 0.007986152 -0.008455113 -0.00095744536
0001d0 63 41 41 3b 77 ce 90 3b 10 4c 2a ba b3 b4 9b 3b
       0.0029488436 0.004419144 -0.00064963195 0.0047517656
0001e0 47 cd 77 3c ad af 53 bb 5f 8c 85 3b 43 46 d0 3a
       0.0151246255 -0.0032300756 0.0040755714 0.001589008
0001f0 8a d4 e8 3a 4a ab 5d bb 55 29 b5 ba bf 33 ff bb
       0.0017763537 -0.003382402 -0.0013821522 -0.007788151
