ML Agents tutorial/Assets/results/RollerBall_2walls_between_time/RollerBall/RollerBall-42674.pt (torch, 449865 bytes, 39 tensors)

network_body._body_endoder.seq_layers.0.weight f4 [128, 9]
-0.41281155 0.05120213 0.7634595 0.17255339 0.5440111 0.33278075 0.09956833 -0.5777976
0.18534115 -0.029428061 -0.27063653 -0.3595778 -0.5457109 -0.1576911 -0.34147573 -0.043052446
-0.22183716 -0.39691934 -0.121667646 -0.14651227 -0.37566477 -0.057261407 -0.34646976 -0.20980097
-0.12197466 0.6799508 -0.036901947 -0.07100316 -0.16004743 0.05511176 0.03345387 0.038302742
-0.13986173 -0.2688536 -0.16593742 0.104539245 0.7203115 0.16975759 -0.121599704 -0.09497462
-0.17718746 0.20417781 0.3632544 -0.42772064 -0.2982595 -0.47469592 -0.47615427 0.2379081
0.18231039 0.6646397 0.14145885 0.044561066 -0.15890661 -0.2724031 -0.062049977 -0.115692854
-0.138591 0.013495201 -0.35694525 -0.06579921 -0.007707091 0.0011859694 -0.43712837 -0.34243453
0.29654747 0.1886572 0.22193728 0.37227154 0.033831347 0.26792216 -0.23079945 0.1580596
-0.38900372 -0.05509999 -0.041418534 -0.4944367 -0.32701087 -0.43745872 0.05041331 -0.28253895
-0.1560676 0.23835169 0.26221308 -0.47999057 -0.3926369 -0.056670617 -0.70068765 -0.2883683
0.04757518 -0.5582071 0.37730387 0.18285838 -0.3429254 0.12815784 -0.2412731 0.521069
-0.44575396 -0.20556813 -0.20544931 0.27100644 0.34052086 0.31979856 -0.7425368 0.08674095
-0.30382597 -0.106766894 0.21809837 0.5279421 -0.10640008 -0.44801345 -0.23234743 0.36252573
0.2926703 -0.16767736 0.07283105 0.10903765 -0.3843956 0.03882419 0.098100446 -0.24422242
-0.3907399 -0.14517091 0.00871622 -0.19784473 -0.06366614 -0.13886647 0.41469178 0.1408507
-0.6117339 0.05205876 -0.13632225 0.02530389 0.42602566 0.16325423 -0.51094174 -0.3660549
0.0060907346 0.21337365 -0.110556096 -0.66485 0.24703376 0.4595149 -0.30920544 0.3921884
-0.4221775 0.06522484 0.008998144 -0.30551705 0.026740396 -0.32529625 -0.39775917 0.15197289
0.35920656 -0.109567955 -0.48841277 -0.11619736 -0.29195628 0.3732939 -0.2198746 0.45753327
0.27234817 0.21558306 0.4220647 -0.15215722 -0.38778913 0.80832785 0.19294302 0.09248533
-0.4089987 -0.44712332 0.041290764 0.41037887 -0.335133 -0.5046061 0.1608892 -0.73173815
0.37555048 -0.70600635 -0.22225171 -0.14686741 -0.71783406 -0.28829744 -0.10218565 0.24625853
0.25997218 -0.094021745 0.49249253 -0.2277669 0.60122675 -0.66077656 -0.44724393 -0.27033696
0.33454186 -0.1704696 -0.05828954 0.42974943 0.3285557 0.026549352 0.0032328847 0.08319546
0.07396832 -0.13372606 -0.18807581 -0.21098407 -0.08150575 0.7367762 -0.1835316 -0.07891714
-0.19612269 -0.006419937 0.47013944 -0.03273013 -0.13679671 -0.47823876 -0.013991562 0.016968427
-0.5644634 0.13730744 0.016907893 0.21247481 0.13006231 0.44405937 0.050210793 0.17475219
-0.23161237 -0.6900426 0.031121906 0.3454346 0.012149307 0.48747185 0.1125132 -0.01230054
-0.14009677 -0.026781652 -0.6321741 -0.1366768 -0.44301 -0.32084945 0.072733544 -0.12742485
-0.081463985 -0.20669284 0.63608384 0.122418396 0.47854608 0.02001999 -0.44514027 0.44340935
-0.057659477 0.22025926 0.26804814 0.23875196 0.04306081 -0.23394011 -0.80417126 -0.46766555
00000000: 095c d3be 53b9 513d 1572 433f d6b1 303e
00000010: 5044 0b3f 3d62 aa3e 7bea cb3d 8bea 13bf
00000020: 12ca 3d3e 1e13 f1bc df90 8abe 951a b8be
00000030: b6b3 0bbf c779 21be e8d5 aebe c357 30bd
00000040: 4829 63be 0339 cbbe e32c f9bd 5007 16be
00000050: 2257 c0be f08a 6abd 7c64 b1be 11d6 56be
00000060: dacd f9bd 4111 2e3f 7f26 17bd 1b6a 91bd
00000070: 79e3 23be debc 613d ed06 093d 56e3 1c3d
00000080: ea37 0fbe 2ea7 89be 80eb 29be ac18 d63d
00000090: 5666 383f efd4 2d3e 4409 f9bd 0e82 c2bd
000000a0: a170 35be fd13 513e 7bfc b93e 33fe dabe
000000b0: 78b5 98be 580b f3be 7eca f3be 2e9e 733e
000000c0: 93af 3a3e d425 2a3f 97da 103e aa85 363d
000000d0: 6ab8 22be 6b78 8bbe 1e28 7ebd 60f0 ecbd
000000e0: cdea 0dbe fa1a 5d3c 87c1 b6be bcc1 86bd
000000f0: c48b fcbb 8872 9b3a 4acf dfbe 9453 afbe
00000100: 12d5 973e 5a2f 413e 8743 633e 609a be3e
00000110: bd92 0a3d 182d 893e b156 6cbe 60da 213e
00000120: 7f2b c7be 87b0 61bd 7ba6 29bd cf26 fdbe
00000130: f86d a7be 97fa dfbe 307e 4e3d f2a8 90be
00000140: 2fd0 1fbe 7712 743e cb40 863e 53c1 f5be
00000150: b407 c9be 731f 68bd 4460 33bf 03a5 93be
00000160: 31de 423d a9e6 0ebf f92d c13e 3a3f 3b3e
00000170: eb93 afbe cf3b 033e 4c10 77be c764 053f
00000180: dd39 e4be 7480 52be 4e61 52be 5bc1 8a3e
00000190: c058 ae3e a3bc a33e e416 3ebf 3da5 b13d
000001a0: 148f 9bbe 9aa8 dabd 2e55 5f3e 3727 073f
000001b0: 49e8 d9bd 0562 e5be 7cec 6dbe f99c b93e
000001c0: e2d8 953e 9db3 2bbe 7228 953d 224f df3d
000001d0: 80cf c4be 1d06 1f3d e3e8 c83d 7115 7abe
000001e0: 0f0f c8be afa7 14be 7ace 0e3c cf97 4abe
000001f0: 6563 82bd 0333 0ebe 7b52 d43e 2a3b 103e
00000200: 989a 1cbf 913b 553d 0f98 0bbe 1b4a cf3c
00000210: 0920 da3e 1e2c 273e 14cd 02bf 8c6b bbbe
00000220: c994 c73b 9f7e 5a3e 3c6b e2bd 9c33 2abf
00000230: 6bf6 7c3e 8945 eb3e 2d50 9ebe ebcc c83e
00000240: a627 d8be 9a94 853d f46c 133c bb6c 9cbe
00000250: ad0e db3c 3b8d a6be 17a7 cbbe c89e 1b3e
00000260: ece9 b73e 2a65 e0bd 3d11 fabe e2f8 edbd
00000270: 4b7b 95be 6120 bf3e cf26 61be cd41 ea3e
00000280: 3871 8b3e cec1 5c3e dd18 d83e 1acf 1bbe
00000290: 4c8c c6be 93ee 4e3f db92 453e f368 bd3d
000002a0: 4768 d1be 59ed e4be 8120 293d 2e1d d23e
000002b0: 8d96 abbe de2d 01bf 23c0 243e 3153 3bbf
000002c0: 2748 c03e d5bc 34bf f495 63be 6964 16be
000002d0: f9c3 37bf b99b 93be b646 d1bd 322b 7c3e
000002e0: 131b 853e 798e c0bd fb27 fc3e ba3b 69be
000002f0: ffe9 193f a728 29bf 28fd e4be 9b69 8abe
00000300: 1249 ab3e 958f 2ebe 03c1 6ebd 1e08 dc3e
00000310: 7438 a83e 077e d93c cede 533b 6262 aa3d
00000320: b47c 973d 7cef 08be f296 40be 350c 58be
00000330: 7dec a6bd 5d9d 3c3f b5ef 3bbe 4f9f a1bd
00000340: 63d4 48be 565e d2bb 1eb6 f03e 0710 06bd
00000350: 7014 0cbe b6db f4be dd3c 65bc 5f01 8b3c
00000360: ac80 10bf 529a 0c3e 6c82 8a3c ff92 593e
00000370: 0e2f 053e c05b e33e d5a9 4d3d 3df2 323e
00000380: cb2b 6dbe a2a6 30bf 5ef3 fe3c cedc b03e
00000390: e30d 473c e995 f93e 526d e63d 3488 49bc
000003a0: 8775 0fbe 3265 dbbc 29d6 21bf 01f5 0bbe
000003b0: 35d2 e2be 6146 a4be 53f5 943d a97b 02be
000003c0: 97d6 a6bd 4aa7 53be 64d6 223f 7fb6 fa3d
000003d0: fe03 f53e f600 a43c 6de9 e3be 8d06 e33e
000003e0: 582c 6cbd a58b 613e 9b3d 893e 657b 743e
000003f0: 8860 303d ff8d 6fbe 2bde 4dbf dc71 efbe

network_body._body_endoder.seq_layers.0.bias f4 [128]
0.022328356 -0.043375354 0.015411443 0.0054472736 -0.051960636 0.026277572 -0.071930334 0.0057495064
0.0008025647 -0.03560932 0.020039044 -0.018266873 0.017270926 -0.033937514 -0.047784146 0.0011095229
0.08746624 0.017971482 0.0003398364 -0.033900242 0.051970646 -0.039260816 0.0029618912 0.024561005
-0.010972708 0.0007288085 -0.029018188 -0.04052863 -0.07735509 0.013356487 0.006769199 -0.023429584
0.0027569695 -0.03709841 -0.013383801 0.008556414 -0.042584848 0.04237632 -0.01886042 0.007629789
-0.037810404 0.08463987 -0.08070194 -0.03534355 -0.049554452 -0.02961632 -0.011127306 -0.03788541
0.077391535 -0.083404034 -0.078906536 0.07258765 -0.06391798 0.009345023 -0.05628236 -0.019741282
-0.047353018 -0.0013668984 -0.005639947 0.04570611 -0.038800802 0.020409735 -0.0045080823 -0.023466475
0.028945658 -0.038316302 -0.015210204 0.015810307 0.035654765 0.04075122 0.016603736 0.045809884
-0.05782654 0.016458917 -0.003656574 0.021823993 -0.012345284 0.025067113 0.017561357 0.051703632
-0.04279624 0.030535057 0.0038464223 -0.02309966 -0.027909279 -0.03067664 0.025942225 -0.0827982
-0.030332452 0.020730123 -0.043413363 -0.082207814 -0.01664675 -0.028649138 0.013843847 -0.0014701874
-0.009866465 0.0033931753 -0.018535271 -0.026104817 -0.021057202 -0.06270177 -0.05396248 -0.009739546
-0.019469207 0.008892622 0.024602773 -0.06868194 0.049815748 -0.008546875 0.010758925 -0.016786117
-0.04387656 -0.020753916 -0.006877553 0.036943913 0.03273978 -0.02749275 -0.05268805 0.03204998
-0.036215946 -0.021811219 -0.049131073 0.013949439 0.05077205 -0.03407963 -0.027887575 -0.014311403
00000000: f5e9 b63c 5baa 31bd 4780 7c3c 0b7f b23b
00000010: add4 54bd 1044 d73c 3650 93bd 5b66 bc3b
00000020: 3563 523a 14db 11bd ec28 a43c 69a4 95bc
00000030: c27b 8d3c 1002 0bbd 4fb9 43bd 696d 913a
00000040: 8021 b33d ee38 933c 122c b239 fbda 0abd
00000050: 2cdf 543d f3cf 20bd 4a1c 423b 2934 c93c
00000060: e0c6 33bc 830d 3f3a 8db7 edbc 5901 26bd
00000070: 586c 9ebd 2bd5 5a3c 28d0 dd3b 66ef bfbc
00000080: 46ae 343b 81f4 17bd bb47 5bbc 3430 0c3c
00000090: 736d 2ebd cb92 2d3d 2b81 9abc 4f03 fa3b
000000a0: 15df 1abd ab57 ad3d 0f47 a5bd 66c4 10bd
000000b0: 9cf9 4abd ed9d f2bc 4e4f 36bc bb2d 1bbd
000000c0: 747f 9e3d bccf aabd c099 a1bd d5a8 943d
000000d0: 6ee7 82bd de1b 193c 5588 66bd 78b8 a1bc
000000e0: 3df5 41bd 8029 b3ba 4ecf b8bb 5436 3b3d
000000f0: 97ed 1ebd 5132 a73c 89b8 93bb c43c c0bc
00000100: 721f ed3c 8ef1 1cbd 3834 79bc 9e84 813c
00000110: bb0a 123d c0ea 263d 8f04 883c 25a3 3b3d
00000120: 86db 6cbd dad4 863c 22a3 6fbb 3bc8 b23c
00000130: e043 4abc 8c59 cd3c d6dc 8f3c 30c7 533d
00000140: 1c4b 2fbd a824 fa3c 4214 7c3b 803b bdbc
00000150: 00a2 e4bc 944d fbbc ca84 d43c 1a92 a9bd
00000160: c37b f8bc 38d2 a93c 36d2 31bd 925c a8bd
00000170: c45e 88bc 99b1 eabc 4ed1 623c 4eb3 c0ba
00000180: f4a6 21bc 0960 5e3b 48d7 97bc c5d9 d5bc
00000190: 2780 acbc c969 80bd c307 5dbd 9e92 1fbc
000001a0: e37d 9fbc 5cb2 113c c18b c93c 1ea9 8cbd
000001b0: 990b 4c3d 3108 0cbc 3446 303c 0a83 89bc
000001c0: e8b7 33bd 1e04 aabc 195d e1bb 8052 173d
000001d0: 261a 063d 7a38 e1bc 6dcf 57bd d746 033d
000001e0: 2c57 14bd 71ad b2bc aa3d 49bd 308c 643c
000001f0: 5af6 4f3d 1597 0bbd 7c74 e4bc 607a 6abc

network_body._body_endoder.seq_layers.2.weight f4 [128, 128]
-0.085258104 0.00026584743 -0.085696146 -0.08808194 -0.055886522 0.32207206 -0.1411628 0.025118446
-0.047317047 0.1709297 -0.045146164 -0.15759729 0.0671653 -0.058418542 -0.22646317 -0.08015101
0.024167556 -0.21580973 -0.01688103 0.030980844 -0.07985577 -0.05847847 0.095615886 -0.055108443
0.06473835 0.06848072 0.037427288 -0.093687244 0.13459888 -0.23722783 0.14025037 -0.07278023
-0.009222254 0.16414419 -0.043689158 0.03696669 -0.13274074 0.062444344 0.046895675 -0.056143634
0.011525225 -0.03165219 -0.030023564 -0.061307307 -0.075116776 -0.12731378 0.076733686 0.012311689
0.060647182 -0.018257627 -0.04699032 -0.11664628 -0.020091873 0.07441547 -0.092533715 0.027605861
0.08439145 0.17918573 -0.17039782 0.09209853 -0.044596095 -0.2601838 0.062205825 -0.1491821
-0.03933009 -0.059948806 0.0013378131 -0.014022868 -0.03217726 0.16002813 -0.019382749 0.074418254
0.030477462 0.00049168244 -0.041379668 -0.05548318 -0.1691878 -0.061954346 0.11426126 0.059840348
-0.032116134 0.14339398 0.21711144 0.06929577 0.024086116 0.005428262 0.0068276757 -0.16319086
0.05581732 -0.046639003 -0.030473778 -0.107489936 0.12706214 -0.13159133 0.013534304 -0.040820654
-0.1638325 0.08549948 0.08791544 -0.014714729 -0.03864656 -0.07485697 0.02542337 -0.09073806
-0.07558449 0.06728419 0.020988043 0.07590448 0.23398022 -0.059032187 -0.13261425 -0.11955651
-0.048666812 0.045363378 0.019582529 -0.058723774 -0.03807925 0.10747728 0.015450743 0.07131643
-0.026744224 -0.07396123 0.038094405 -0.05978539 0.09326816 -0.08609839 -0.08889711 -0.07340894
-0.13494691 0.027292509 -0.02376983 0.13514505 -0.050392386 0.062086444 -0.1715031 0.15932512
-0.08067754 -0.06216154 -0.22104554 0.035031594 -0.069517046 0.025958898 -0.16857223 0.073936895
-0.14660285 -0.007935228 0.037359163 0.017483037 -0.13629474 -0.0006586687 0.07046837 0.013838698
-0.07063388 -0.14162444 -0.037698638 -0.08110367 0.14187595 0.031499114 -0.06678022 0.03821649
-0.07930899 0.14206389 -0.019015621 0.021208918 -0.004069525 0.0021691436 -0.09083117 0.0011756103
0.04355178 -0.005333518 0.043249622 0.15902725 -0.05327706 0.15741684 -0.06414846 0.06748306
-0.096802235 -0.029291604 0.08654367 -0.081889555 0.10319904 0.029023062 0.20385464 -0.14589812
0.09395031 0.064013414 0.11752584 -0.070396796 0.1440281 -0.020999566 -0.046980206 0.16939877
-0.11387775 0.05593372 -0.03206674 0.021717813 0.16299503 -0.05003307 -0.03511105 -0.15106577
-0.040528327 0.022301763 0.030243065 -0.055547465 -0.09226155 -0.068316944 -0.25923017 0.012669805
-0.108648516 -0.059952125 0.055621944 -0.03286068 0.01502147 -0.039579164 -0.023910787 -0.14706852
0.016818698 0.021788584 0.07936175 -0.07754634 -0.00057349587 -0.08556138 -0.069777854 -0.058801923
0.047939636 0.0047302213 -0.071362555 -0.07721402 -0.07092125 0.009657463 -0.0389844 -0.13168539
-0.018329794 0.03600433 0.12496212 -0.04358619 0.10838028 0.13400808 -0.010834288 -0.062425606
-0.020522008 -0.11803149 0.04582058 0.06493864 -0.14000447 0.0013712585 0.08571269 0.036820862
0.03925577 -0.06442674 0.12167375 -0.13354485 -0.08218536 -0.14229688 0.12587653 0.11056957
00000000: cd9b aebd 7061 8b39 7681 afbd 4e64 b4bd
00000010: 44e9 64bd a1e6 a43e fb8c 10be 33c5 cd3c
00000020: 85cf 41bd 3208 2f3e 2feb 38bd 2f61 21be
00000030: f68d 893d 4848 6fbd f6e5 67be 3626 a4bd
00000040: 0afb c53c 3afd 5cbe 164a 8abc 8acb fd3c
00000050: 6c8b a3bd 1f87 6fbd 43d2 c33d 64b9 61bd
00000060: 8a95 843d 9f3f 8c3d 5b4d 193d 19df bfbd
00000070: 4ad4 093e daeb 72be cb9d 0f3e cd0d 95bd
00000080: f018 17bc 6a15 283e 67f3 32bd 626a 173d
00000090: 30ed 07be a4c5 7f3d ae15 403d def6 65bd
000000a0: 4cd4 3c3c baa5 01bd faf3 f5bc 5f1d 7bbd
000000b0: d3d6 99bd 8b5e 02be 8d26 9d3d f7b6 493c
000000c0: 2e69 783d 0591 95bc ec78 40bd 3fe4 eebd
000000d0: b697 a4bc 2367 983d 5182 bdbd b025 e23c
000000e0: 6dd5 ac3d 777c 373e c47c 2ebe 279e bc3d
000000f0: 65aa 36bd d036 85be 89cb 7e3d 31c3 18be
00000100: 9718 21bd e18c 75bd 8f59 af3a 2cc0 65bc
00000110: 4dcc 03bd 6ade 233e 92c8 9ebc 9968 983d
00000120: dfab f93c 40e4 003a ba7d 29bd 5542 63bd
00000130: 913f 2dbe d7c3 7dbd cf01 ea3d 271b 753d
00000140: 358c 03bd dfd5 123e 7652 5e3e f1ea 8d3d
00000150: 3f50 c53c 90df b13b b2ba df3b 811b 27be
00000160: b4a0 643d 8a08 3fbd 25a4 f9bc af23 dcbd
00000170: 941c 023e e1bf 06be fcbe 5d3c 8f33 27bd
00000180: b5c3 27be 5a1a af3d 030d b43d 0c16 71bc
00000190: db4b 1ebd 9c4e 99bd ac44 d03c e0d4 b9bd
000001a0: 0bcc 9abd 4bcc 893d 1eef ab3c cf73 9b3d
000001b0: 8398 6f3e bccb 71bd 08cc 07be 0bda f4bd
000001c0: da56 47bd f3ce 393d 8a6b a03c 5788 70bd
000001d0: fdf8 1bbd 0c1d dc3d 1d25 7d3c 590e 923d
000001e0: b416 dbbc fc78 97bd e108 1c3d 86e1 74bd
000001f0: 6103 bf3d 5a54 b0bd b00f b6bd 6d57 96bd
00000200: 862f 0abe 8a94 df3c f2b8 c2bc 7763 0a3e
00000210: 3f68 4ebd 5b4e 7e3d 829e 2fbe 2026 233e
00000220: 443a a5bd 199d 7ebd c359 62be 4a7d 0f3d
00000230: f45e 8ebd c1a7 d43c 339e 2cbe 3a6c 973d
00000240: 0f1f 16be c202 02bc ec05 193d 9638 8f3c
00000250: d990 0bbe 82aa 2cba b951 903d b5bb 623c
00000260: 7fa8 90bd ff05 11be e369 1abd ae19 a6bd
00000270: ee47 113e 3705 013d 11c4 88bd e588 1c3d
00000280: c06c a2bd 3279 113e a6c6 9bbc 53be ad3c
00000290: a659 85bb 3128 0e3b b105 babd f016 9a3a
000002a0: 5a63 323d cbc4 aebb 8426 313d 0ad8 223e
000002b0: 0c39 5abd e131 213e 4560 83bd 8f34 8a3d
000002c0: 4040 c6bd f2f4 efbc cf3d b13d b6b5 a7bd
000002d0: 055a d33d c6c1 ed3c 45bf 503e 5166 15be
000002e0: 0569 c03d 7719 833d 63b1 f03d 322c 90bd
000002f0: 1a7c 133e 4807 acbc 516e 40bd df76 2d3e
00000300: bd38 e9bd c21a 653d 6a58 03bd 8ee9 b13c
00000310: 2be8 263e 7aef 4cbd 9bd0 0fbd fcb0 1abe
00000320: 0801 26bd 30b2 b63c 4ec0 f73c bd85 63bd
00000330: a0f3 bcbd c1e9 8bbd d1b9 84be 0495 4f3c
00000340: 1d83 debd 5c90 75bd d6d3 633d ec98 06bd
00000350: 9d1c 763c c31d 22bd 8ee0 c3bc 2199 16be
00000360: 5ec7 893c f97d b23c 6a88 a23d 9ed0 9ebd
00000370: a856 16ba ce3a afbd b1e7 8ebd 49da 70bd
00000380: 5a5c 443d f9ff 9a3b 8826 92bd 6222 9ebd
00000390: 293f 91bd 563a 1e3c 1bae 1fbd 89d8 06be
000003a0: 5d28 96bc 4779 133d 24ec ff3d 6f87 32bd
000003b0: 7bf6 dd3d 6a39 093e 4c82 31bc feb1 7fbd
000003c0: c51d a8bc 7eba f1bd 5cae 3b3d 8dfe 843d
000003d0: 555d 0fbe cdbb b33a 238a af3d 79d1 163d
000003e0: a9ca 203d 2bf2 83bd 1630 f93d fbbf 08be
000003f0: cc50 a8bd 46b6 11be c7e5 003e 4c72 e23d

network_body._body_endoder.seq_layers.2.bias f4 [128]
0.02142965 -0.025929742 0.05933554 -0.004064045 -0.0643527 -0.015033838 -0.036847327 -0.02451336
-0.047528606 0.023026878 -0.07721575 -0.078937165 0.023621228 -0.022861207 -0.07529918 0.04311286
-0.06779313 -0.03587267 0.04983223 0.0221903 -0.07874624 0.04018164 -0.021857461 0.019701697
-0.01549262 -0.05426556 -0.0047624046 -0.0056412634 -0.031627398 -0.06525311 0.045443185 -0.05337447
0.015315238 -0.13282506 -0.060440052 0.010153017 -0.0424557 0.0018493464 -0.008391372 -0.042277865
-0.050027154 -0.067663506 -0.030558543 -0.036205303 -0.017383171 -0.043196447 -0.06700182 -0.04610558
-0.08560622 -0.07057867 -0.018659761 0.0133996485 0.013800213 -0.033572935 -0.030984707 -0.0031386777
0.031463377 -0.00017679535 -0.02501197 0.014382295 -0.061713394 0.0007562597 -0.01925436 0.009374225
0.017954111 -0.024395457 -0.015443429 -0.010812674 0.048442103 -0.058600824 0.012298895 -0.07111012
-0.07475843 0.02413056 -0.030793332 -0.033488512 -0.005038738 -0.020263756 -0.0032078805 0.023681374
-0.011940621 -0.022514943 -0.058309134 0.044935975 -0.042127583 0.005770092 -0.035698462 0.00017876884
-0.092203416 -0.013418843 -0.014549846 -0.043070834 -0.06398631 -0.013954523 -0.00043830328 -0.10662486
0.03532747 -0.080155164 -0.008305118 -0.026268391 -0.049711086 -0.0007071483 -0.02673174 0.071858846
-0.012017982 0.03883043 0.0030433466 -0.0015716346 -0.003882656 -0.020002317 0.00960575 0.027573893
0.027129149 -0.026434345 -0.00456009 -0.035950765 0.025566792 0.031025866 0.007980979 -0.032403886
0.022037376 0.035446092 -0.06206368 0.018228268 -0.019314444 0.033869218 -0.0033670813 -0.018475393
00000000: 3c8d af3c 9c6a d4bc d309 733d ae2b 85bb
00000010: 59cb 83bd 7d50 76bc 39ed 16bd 3ed0 c8bc
00000020: 5bad 42bd dda2 bc3c 4b23 9ebd cfa9 a1bd
00000030: 4e81 c13c 6d47 bbbc 7536 9abd 1c97 303d
00000040: 20d7 8abd 39ef 12bd e11c 4c3d 6fc8 b53c
00000050: b545 a1bd 8195 243d 6b0e b3bc 7465 a13c
00000060: c2d4 7dbc 9045 5ebd f20d 9cbb 59da b8bb
00000070: bb8b 01bd 6ca3 85bd a222 3a3d 309f 5abd
00000080: c4ec 7a3c 4b03 08be fd8f 77bd d758 263c
00000090: 07e6 2dbd c565 f23a f77b 09bc 8e2b 2dbd
000000a0: 46e9 4cbd 2a93 8abd e955 fabc 034c 14bd
000000b0: 2767 8ebc c2ee 30bd 4038 89bd 34d9 3cbd
000000c0: 5052 afbd 8d8b 90bd 5bdc 98bc 338a 5b3c
000000d0: 4a1a 623c c683 09bd a4d3 fdbc 46b2 4dbb
000000e0: bedf 003d 2462 39b9 e7e5 ccbc b8a3 6b3c
000000f0: 2fc7 7cbd bb3f 463a 52bb 9dbc 5996 193c
00000100: 8014 933c fbd8 c7bc 7006 7dbc a427 31bc
00000110: 3a6b 463d 6b07 70bd 4e81 493c 2fa2 91bd
00000120: f31a 99bd 74ad c53c 4c42 fcbc 402b 09bd
00000130: ff1b a5bb 2d00 a6bc 4e3b 52bb 71ff c13c
00000140: 98a2 43bc 4271 b8bc 8fd5 6ebd c90e 383d
00000150: f98d 2cbd 0a13 bd3b 8d38 12bd e573 3b39
00000160: 25d5 bcbd b5da 5bbc 7a62 6ebc 0b6b 30bd
00000170: 410b 83bd 83a1 64bc 12cc e5b9 225e dabd
00000180: 8ab3 103d 6428 a4bd 3112 08bc cf30 d7bc
00000190: da9d 4bbd eb5f 39ba 86fc dabc bb2a 933d
000001a0: 12e7 44bc a80c 1f3d e272 473b 4eff cdba
000001b0: 2974 7ebb e6db a3bc 7061 1d3c a5e2 e13c
000001c0: f33d de3c d78c d8bc cf6c 95bb 1c41 13bd
000001d0: 7371 d13c f529 fe3c a7c2 023c f0b9 04bd
000001e0: ba87 b43c ec2f 113d 7c36 7ebd 7353 953c
000001f0: 5339 9ebc 73ba 0a3d 40aa 5cbb b559 97bc

action_model._continuous_distribution.log_sigma f4 [1, 2]
-0.038197316 -0.1437665
00000000: ca74 1cbd 8637 13be

action_model._continuous_distribution.mu.weight f4 [2, 128]
-0.0058942293 0.0038688413 -0.0781815 0.010679032 -0.016638393 0.023672799 -0.019510401 0.004266724
0.00079139066 0.0036945408 -0.006379252 -0.0129844975 -0.041103825 0.01756398 -0.01628932 0.011030964
-0.0026213673 -0.029604644 -0.071603626 -0.057320815 -0.009008287 -0.039488286 -0.028611002 0.011332554
-0.010648265 0.0054164515 -0.033930965 -0.0050049894 -0.036999237 0.023336088 -0.03100017 -0.011690333
-0.027612757 -0.044524755 -0.024345791 -0.021625677 -0.02691182 -0.043091424 -0.0024225777 0.007656548
0.00015734082 -0.0064554415 -0.00093657564 0.025998376 0.0011400017 -0.006562884 -0.008228303 -0.027445907
-0.034837414 -0.0041552978 0.009049047 0.060160004 -0.009295342 -0.004181537 0.015595832 0.015129106
-0.04942765 -0.05599446 0.0064476 0.0037724373 0.0104623195 -0.035511248 -0.047002953 -0.01730906
-0.05871796 -0.005699777 0.04857175 0.0037258328 0.050840188 -0.03130657 -0.014170369 0.032083575
-0.00945047 0.035939857 -0.015858442 -0.028349174 0.033589926 -0.040258966 -0.030495815 0.09859144
0.009966498 -0.01835307 -0.02787915 -0.06220619 -0.007338514 0.022525381 -0.022230979 0.006025387
-0.011176998 -0.011578032 -0.030682527 -0.030718965 -0.020811478 -0.031894572 -0.0048970236 -0.027889611
-0.0779027 -0.003296352 0.007758017 0.004242318 -0.043241315 -0.048687834 -0.009613133 -0.104425915
-0.012360175 0.0049805325 0.07889889 0.034770146 0.01636053 -0.037950113 0.00087638403 0.004779986
-0.0050962176 0.02523246 0.001794233 0.014542227 -0.03145743 0.0032190732 0.027588118 0.015084563
-0.0055461694 0.01268572 -0.027094102 0.008720263 0.008789094 0.0031909987 -0.0044221906 -0.011901971
0.03410237 0.006498183 0.021628553 0.05010512 0.03105279 -0.01970966 0.03496346 -0.0028195977
0.013724915 -0.034458984 0.016041657 -0.0015591059 -0.007163191 0.0032624982 0.027389262 -0.027489094
-0.012255541 0.0053546494 0.0021533803 0.036541507 -0.00013461943 -0.0011268654 0.009632772 -0.028836014
-0.00051052554 0.046318658 -7.062947e-05 -0.007040153 0.011268533 0.027467273 -0.0038390113 0.019626854
0.0139960395 0.008976145 0.003206517 -0.012201253 0.027686078 0.017022533 0.002792779 -0.0018601756
-0.008275557 0.023194756 -0.011264134 0.031583387 0.027836686 -0.0037729004 0.025814075 0.027403355
0.07643866 0.02705654 0.04170084 0.036268882 -0.034846418 0.01876498 0.016107656 -0.0110974815
0.005101068 0.049073678 0.015289693 -0.002027218 0.037157524 -0.022948194 0.026308656 -0.025469234
-0.00909807 0.04003921 0.028137825 0.03292661 -0.0028551996 0.016503848 0.013888591 0.016176049
0.013015856 0.03892697 -0.013567771 -0.004426147 0.06162198 0.029836083 0.0042155697 0.029231088
-0.013731879 0.015796753 0.035760544 -0.0035049669 0.032260504 -0.004819377 -0.028700596 -0.019287763
0.016451001 -0.0067524593 0.034865696 0.013573898 0.008265361 -0.009619646 0.04946272 0.01702702
-0.0074763475 0.019654926 -0.01706061 0.04446992 -0.0026146197 0.01167309 -0.0070127747 0.027320778
0.026189048 0.0071142646 0.03513823 0.012408564 0.026564267 -0.01726931 -0.025562182 0.016364325
0.00147734 0.06330617 0.000746038 0.036752164 -0.0058974596 -0.038244527 -0.028056204 0.029185861
-0.024831912 -0.046469655 -0.005110896 -0.022335347 0.024127197 -0.01763703 -0.028223284 -0.021894509
00000000: 6124 c1bb 638c 7d3b 9f1d a0bd 1bf7 2e3c
00000010: 3d4d 88bc 75ed c13c 47d4 9fbc e0cf 8b3b
00000020: 5475 4f3a 1c20 723b 0b09 d1bb eebc 54bc
00000030: 7c5c 28bd 56e2 8f3c 2e71 85bc 37bb 343c
00000040: 3fcb 2bbb 7085 f2bc eca4 92bd 3bc9 6abd
00000050: 7f97 13bc 78be 21bd 9f61 eabc 2dac 393c
00000060: 0f76 2ebc 7d7c b13b 32fb 0abd e500 a4bb
00000070: 838c 17bd 532b bf3c 12f4 fdbc cf88 3fbc
00000080: 2634 e2bc 975f 36bd d370 c7bc 5528 b1bc
00000090: 2d76 dcbc a280 30bd 1cc4 1ebb c8e3 fa3b
000000a0: dbfb 2439 2b88 d3bb 8784 75ba 8cfa d43c
000000b0: 1c6c 953a 760d d7bb 01d0 06bc 3dd6 e0bc
000000c0: adb1 0ebd 2a29 88bb 7442 143c 566a 763d
000000d0: 7d4b 18bc 4605 89bb a985 7f3c 12e0 773c
000000e0: a674 4abd 725a 65bd 6446 d33b ff3a 773b
000000f0: 266a 2b3c 3e74 11bd 2b86 40bd bbcb 8dbc
00000100: 3e82 70bd 32c5 babb 2cf3 463d 1a2d 743b
00000110: cd3d 503d 513b 00bd d62a 68bc 116a 033d
00000120: 25d6 1abc ac35 133d 90e9 81bc 873c e8bc
00000130: 9795 093d 96e6 24bd 5cd2 f9bc 4fea c93d
00000140: 864a 233c 2d59 96bc d162 e4bc ebcb 7ebd
00000150: eb77 f0bb 2687 b83c be1d b6bc 9c70 c53b
00000160: ba1f 37bc c9b1 3dbc ec59 fbbc 57a6 fbbc
00000170: d57c aabc e2a3 02bd 3677 a0bb c178 e4bc
00000180: 738b 9fbd 9c07 58bb f736 fe3b 2503 8b3b
00000190: ce1d 31bd e56c 47bd 6780 1dbc 41dd d5bd
000001a0: 5582 4abc bc33 a33b be95 a13d 246b 0e3d
000001b0: 8506 863c 9471 1bbd 23bd 653a 6ea1 9c3b
000001c0: 2cfe a6bb 4eb4 ce3c 782c eb3a 8542 6e3c
000001d0: 82d9 00bd 16f7 523b 7a00 e23c 3e25 773c
000001e0: a4bc b5bb c4d7 4f3c 73f4 ddbc 6fdf 0e3c
000001f0: 2200 103c 1320 513b 06e8 90bb 7c00 43bc
00000200: edae 0b3d b6ee d43b 5d2e b13c 073b 4d3d
00000210: 6c62 fe3c 2776 a1bc d835 0f3d 00c9 38bb
00000220: 77de 603c dd24 0dbd cb69 833c ea5a ccba
00000230: 34b9 eabb a3cf 553b 725f e03c cf30 e1bc
00000240: 77cb 48bc 0e76 af3b ba1f 0d3b 8cac 153d
00000250: a128 0db9 54b3 93ba c6d2 1d3c 8139 ecbc
00000260: cad4 05ba a2b8 3d3d e81e 94b8 15b1 e6bb
00000270: a79f 383c 0c03 e13c ec97 7bbb 7fc8 a03c
00000280: a54f 653c ae10 133c 6e24 523b c4e7 47bc
00000290: eacd e23c d772 8b3c 0e07 373b 23d1 f3ba
000002a0: 3496 07bc ee02 be3c 348d 38bc 955d 013d
000002b0: c309 e43c c442 77bb 0a78 d33c 007d e03c
000002c0: df8b 9c3d ada5 dd3c 80ce 2a3d ae8e 143d
000002d0: 1ebb 0ebd 04b9 993c 34f4 833c 36d2 35bc
000002e0: dc26 a73b 7b01 493d 9f81 7a3c 13db 04bb
000002f0: 7d32 183d dafd bbbc 4085 d73c dba4 d0bc
00000300: 1210 15bc 2800 243d 4c81 e63c 0ede 063d
00000310: 4d1e 3bbb 1433 873c f98c 633c a283 843c
00000320: 7540 553c e371 1f3d 5b4b 5ebc 3609 91bb
00000330: 5467 7c3d cd6a f43c c322 8a3b 0976 ef3c
00000340: adfb 60bc 3168 813c a679 123d 96b3 65bb
00000350: 9723 043d ddeb 9dbb 831d ebbc 5f01 9ebc
00000360: 40c4 863c bc43 ddbb 55cf 0e3d 0e65 5e3c
00000370: 706b 073c b89b 1dbc 6c99 4a3d 407c 8b3c
00000380: 26fc f4bb 5e03 a13c b1c2 8bbc 1726 363d
00000390: 0a5a 2bbb 7d40 3f3c 6bcb e5bb d3cf df3c
000003a0: 6a8a d63c c71e e93b 1bed 0f3d 4a4d 4b3c
000003b0: 4e9d d93c 5e78 8dbc c867 d1bc 7a0e 863c
000003c0: 4ea3 c13a aaa6 813d c391 433a 7089 163d
000003d0: 7a3f c1bb 4ba6 1cbd 20d6 e5bc 3017 ef3c
000003e0: 4b6c cbbc f756 3ebd 4e79 a7bb 9ef8 b6bc
000003f0: 66a6 c53c 887b 90bc 8434 e7bc 1d5c b3bc

action_model._continuous_distribution.mu.bias f4 [2]
-0.042604536 -0.026652893
00000000: 1882 2ebd 2b57 dabc

action_model._discrete_distribution.branches.0.weight f4 [1, 128]
-0.004640213 -0.0070246393 0.0010390088 -0.007344539 -0.004031954 -0.002594419 -0.010938345 -0.003950881
0.0042420384 -0.0069201165 -0.003378622 -0.0035416882 -0.008910325 -0.009051094 -0.0023476677 -0.0025123465
0.002021347 0.013817101 0.0051718405 -0.007820391 0.003467725 0.01373373 0.012164756 0.012243457
-0.026396394 -0.0017069619 0.011932788 0.0012824466 -0.0083145425 -0.012616652 0.0054504704 -0.0014225747
-0.0107046915 0.0025530197 0.016965419 -0.004630598 0.008387527 0.010163208 -0.004392895 0.007150754
0.010575843 0.008679594 -0.0056416946 0.0024182654 -0.0009945047 -0.0019713955 -0.00594307 0.008044881
-0.007060587 -0.013789413 0.0040549575 -0.005341264 0.0013060482 0.0077587874 -0.008865203 0.018684193
-0.006804631 0.013031974 -0.010700765 -0.0042845653 0.00085440045 -0.027371485 -0.009036809 0.0021858255
-0.0037237809 0.0012251175 0.006994372 0.0012244412 -0.008501364 0.008051043 0.009009379 -0.005369775
0.012431853 0.020466544 0.0016834766 0.010345282 0.008958453 0.009809387 -0.0010178791 -0.014896817
-0.0050096335 -0.0038586673 -0.009261847 -0.004502251 -0.0068847067 -0.011162632 -0.005954159 0.0051163444
-0.0051998305 0.012498537 -0.00546677 -0.013536972 -0.008050583 0.007213869 0.0134823015 0.005010212
0.0013216141 0.0038919945 -0.00080675416 0.0065721096 0.005257472 0.0069466927 0.0070076035 0.008924724
0.005156611 0.0067767347 0.00017234143 0.015135065 -0.0009019719 -0.012303839 0.007279809 -0.0049039098
0.006837116 -0.024419809 0.0013929055 0.011576331 0.0005309056 0.0044793873 -0.015368916 -0.014678048
0.0055629457 0.0016295224 -0.017969305 0.012659202 0.0030396837 0.0038145098 -0.0077465125 -0.018217934
00000000: ee0c 98bb f22e e6bb 5a2f 883a 75aa f0bb
00000010: 7b1e 84bb 2107 2abb bf36 33bc 6476 81bb
00000020: cc00 8b3b 25c2 e2bb df6b 5dbb ab1b 68bb
00000030: 9dfc 11bc 0a4b 14bc 54db 19bb 2ea6 24bb
00000040: 9378 043b 1f61 623c 8b78 a93b 1921 00bc
00000050: c542 633b 7003 613c af4e 473c c898 483c
00000060: 403d d8bc 23bc dfba be81 433c c417 a83a
00000070: b839 08bc 13b6 4ebc dc99 b23b b075 baba
00000080: bb62 2fbc 9050 273b 10fb 8a3c 45bc 97bb
00000090: d76b 093c 9583 263c 46f2 8fbb df50 ea3b
000000a0: 4d46 2d3c db34 0e3c f7dd b8bb c37b 1e3b
000000b0: 0a5a 82ba 8732 01bb 16be c2bb adce 033c
000000c0: 7f5c e7bb fdec 61bc 73df 843b c505 afbb
000000d0: b52f ab3a 6d3d fe3b 5b3f 11bc 980f 993c
000000e0: 62f9 debb 1084 553c 4352 2fbc 8a65 8cbb
000000f0: d8f9 5f3a 2a3a e0bc 200f 14bc 1140 0f3b
00000100: ad0a 74bb 1f94 a03a 0b31 e53b 6e7d a03a
00000110: 4e49 0bbc 86e8 033c 139c 133c f0f4 afbb
00000120: f9ae 4b3c 74a9 a73c 1aa8 dc3a 427f 293c
00000130: 7ac6 123c 8db7 203c 5b6a 85ba c711 74bc
00000140: da27 a4bb b2e1 7cbb 00bf 17bc 9e87 93bb
00000150: 1b99 e1bb 79e3 36bc 1b1b c3bb 02a7 a73b
00000160: 5763 aabb aac6 4c3c 9722 b3bb 2dca 5dbc
00000170: 98e6 03bc 5262 ec3b dfe4 5c3c b42c a43b
00000180: 033a ad3a d510 7f3b 5b7c 53ba da5a d73b
00000190: df46 ac3b 15a1 e33b 0aa0 e53b 0139 123c
000001a0: caf8 a83b 5f0f de3b 8db6 3439 10f9 773c
000001b0: 4f72 6cba 0b96 49bc 778b ee3b fab0 a0bb
000001c0: e309 e03b 0d0c c8bc 2792 b63a a7aa 3d3c
000001d0: 792c 0b3a d3c7 923b e8cd 7bbc 327c 70bc
000001e0: 5f49 b63b b395 d53a 5d34 93bc 8b68 4f3c
000001f0: 6e35 473b dbfc 793b 75d6 fdbb c73d 95bc

exp_avg f4 [128, 9]
2.7325237e-05 0.00042930638 0.001880279 -0.00031456226 0.00043588804 0.0010273713 -0.0009270361 0.0004387983
-0.000102890954 -0.0015699959 -0.00011922578 -0.00052326376 -0.00014675035 -0.000116648574 0.0003746936 -0.00025899493
0.00035617515 0.00025119146 0.0029177014 7.219582e-05 0.0031331647 0.0003180024 5.5823348e-05 -0.00095164106
0.0009678033 -0.0006407999 -0.00018648521 -0.00043981886 -7.535354e-05 -0.00049824617 -4.794123e-06 -6.9140144e-05
-0.00017081844 1.2362686e-05 1.5121565e-05 8.416179e-06 -0.0006399644 -3.2036147e-05 -0.00014376485 -1.47625115e-05
-3.2580705e-05 2.5674382e-05 -5.6344e-05 2.447388e-05 -7.7391385e-05 -6.91712e-06 0.00058025296 0.0028426868
-0.00037573307 0.00057351054 0.0015588293 -0.0010507004 0.0007711029 -7.629581e-05 0.0009935774 -0.00010769002
0.0012357702 0.00032337086 -0.00011869508 -0.0005772073 0.0007796218 -0.00038309963 7.265338e-05 0.00089335465
0.0009278065 0.004352633 -0.00042369543 0.0009211218 0.0015159191 -0.0012827243 0.0005533278 -0.00015529561
-3.1860109e-06 8.395918e-05 0.00022650027 -0.0002882313 9.596989e-05 0.00018647402 -0.00057465525 0.0002543381
-0.00015477775 0.00068005413 -8.221935e-05 0.0011230076 0.0006256883 -8.9013614e-05 -0.0008517906 0.0010895794
-0.00074265106 -5.9525002e-05 0.0004557167 -0.00050363067 -0.001503873 0.0004472353 -0.0005035895 -0.001223621
0.0010619886 -0.00075699884 -0.00013244375 0.0034488526 -0.00077046076 -0.0025602772 0.00040643907 -0.00077605585
-0.0020818985 0.0016814325 -0.0009900699 5.9693593e-07 0.0062261694 6.368646e-05 0.0057932595 0.0009214756
1.8736631e-05 -0.0023135142 0.0025269391 -0.0017851463 2.110334e-05 -0.001051855 -0.00024269891 -0.0019576226
-0.00020763242 -0.00022978825 -1.4045676e-05 -0.00033691787 0.00017244832 4.1214724e-05 9.3191746e-05 -2.5996575e-05
0.00088437076 0.00020877707 -3.320272e-05 -0.00032040983 0.0005060242 -0.0003342105 -1.051771e-05 0.0015336681
0.0006603374 0.0041300547 -0.00031624534 0.00067679986 0.00069310924 -0.0012705519 0.00029130094 -0.00036028697
-0.0011318456 -0.000138089 0.00042905184 -0.000217253 -0.00011704776 -7.152513e-05 -0.000307002 0.00030941624
-5.189544e-05 0.0031416782 8.388671e-05 0.0022023642 0.0004220823 7.754564e-05 -0.0011839329 0.00086263864
-0.0007805665 -0.00020736383 -0.0014035238 -0.000111425186 0.00022784506 -2.2107122e-06 -0.00012277375 -0.00029955324
0.0002644403 -0.00012207095 8.7709486e-07 -0.0011951153 -2.6050435e-05 -0.0016589338 -5.712082e-05 -2.4340461e-05
0.00023552062 -0.0001788357 7.210263e-05 -2.429124e-05 0.0025515694 0.0007127455 0.005193903 -2.6181122e-05
0.0007200362 -0.00023517478 -0.00038308182 -4.494645e-05 -0.00029257304 0.00081695826 5.3679352e-05 0.00029729423
3.2357413e-05 6.510566e-05 -0.0008836864 1.2144737e-05 -0.00025554982 -0.00013644382 -0.00086938596 -0.0001323674
-0.002101119 -0.00019735152 -0.000139789 0.00017119912 -7.3218434e-05 0.00023902413 0.00016944809 0.00077613886
6.300955e-05 0.0013407493 0.00010279351 6.528653e-05 -0.0002482108 0.00015089815 -0.00020339785 -0.00011092451
-0.0015962354 0.00042158287 0.0019996185 -0.00045987955 0.00044105243 0.001094087 -0.0014937558 0.00078542787
-4.3705375e-05 0.00053339906 0.0011278401 0.005134806 -0.00027717196 0.0011251087 0.0018634754 -0.0014684818
0.0006026996 -0.00019106286 8.83312e-05 0.00019068336 -0.000105249055 -0.00011793871 0.00019400936 -3.296917e-05
-0.00027866272 7.459779e-05 -2.1153306e-05 0.0004995781 -3.6331483e-05 0.00017164789 -3.068227e-05 -3.594855e-05
6.058909e-05 1.3773502e-05 5.874073e-06 5.8349142e-05 0.001624957 -0.000102981474 0.0015958985 0.0003560222
00000000: 8038 e537 8714 e139 b273 f63a d5eb a4b9
00000010: e787 e439 dca8 863a 5704 73ba 830e e639
00000020: 29c7 d7b8 52c8 cdba da08 fab8 a32b 09ba
00000030: ffe0 19b9 3aa1 f4b8 8672 c439 b6c9 87b9
00000040: 05bd ba39 59b2 8339 e836 3f3b d667 9738
00000050: c855 4d3b 8fb9 a639 dd23 6a38 8d77 79ba
00000060: 2eb4 7d3a 5afb 27ba 3e8b 43b9 7d97 e6b9
00000070: 2007 9eb8 bc9c 02ba 34dd a0b6 55ff 90b8
00000080: ba1d 33b9 5569 4f37 a1b2 7d37 3733 0d37
00000090: 49c3 27ba 8d5e 06b8 95bf 16b9 81ac 77b7
000000a0: 44a7 08b8 515f d737 e952 6cb8 424d cd37
000000b0: 2f4d a2b8 9c19 e8b6 1e1c 183a 5f4c 3a3b
000000c0: 0afe c4b9 a457 163a a251 cc3a a8b7 89ba
000000d0: d723 4a3a 0001 a0b8 ed3a 823a a4d7 e1b8
000000e0: 91f9 a13a 1a8a a939 f0eb f8b8 ba4f 17ba
000000f0: 895f 4c3a c3da c8b9 7d5d 9838 0430 6a3a
00000100: 0a38 733a 88a0 8e3b 7023 deb9 7077 713a
00000110: ceb1 c63a 1621 a8ba 330d 113a d9d6 22b9
00000120: 40cf 55b6 3e13 b038 b480 6d39 c01d 97b9
00000130: 7143 c938 3d88 4339 76a4 16ba af58 8539
00000140: d64b 22b9 a945 323a 2d6d acb8 e231 933a
00000150: 3b05 243a d2ac bab8 b34a 5fba 38d0 8e3a
00000160: 78ae 42ba 7caa 79b8 43ed ee39 1506 04ba
00000170: 9b1d c5ba e87a ea39 5203 04ba e861 a0ba
00000180: 6d32 8b3a 5571 46ba 99e0 0ab9 2506 623b
00000190: bff8 49ba 53ca 27bb 5417 d539 3a70 4bba
000001a0: 7670 08bb 8363 dc3a 3cc5 81ba 203d 2035
000001b0: e504 cc3b 688f 8538 62d5 bd3b 2e8f 713a
000001c0: 9c2c 9d37 549e 17bb 019b 253b 92fb e9ba
000001d0: 1407 b137 66de 89ba fe7c 7eb9 754b 00bb
000001e0: e7b7 59b9 50f3 70b9 b8a5 6bb7 5aa4 b0b9
000001f0: 3ed3 3439 f9dd 2c38 f06f c338 3813 dab7
00000200: 1ed5 673a 2beb 5a39 2643 0bb8 aefc a7b9
00000210: b6a6 043a f938 afb9 3875 30b7 5d05 c93a
00000220: 7e1a 2d3a 6955 873b bbcd a5b9 456b 313a
00000230: c6b1 353a a688 a6ba c0b9 9839 e6e4 bcb9
00000240: 705a 94ba fccb 10b9 5df2 e039 68ce 63b9
00000250: 8a77 f5b8 c3ff 95b8 1cf5 a0b9 2539 a239
00000260: 4eaa 59b8 9de4 4d3b 56ec af38 8a55 103b
00000270: ed4a dd39 00a0 a238 322e 9bba b322 623a
00000280: ee9e 4cba ce6f 59b9 72f6 b7ba f1ac e9b8
00000290: b1e9 6e39 bf5b 14b6 d4bc 00b9 5b0d 9db9
000002a0: 94a4 8a39 2c00 00b9 8071 6b35 6aa5 9cba
000002b0: e286 dab7 9570 d9ba 0395 6fb8 be2e ccb7
000002c0: 16f6 7639 d885 3bb9 ce35 9738 0ac5 cbb7
000002d0: 3b38 273b 8ad7 3a3a 9e31 aa3b 889f dbb7
000002e0: d0c0 3c3a 4099 76b9 5fd8 c8b9 e284 3cb8
000002f0: 7d64 99b9 2429 563a c425 6138 28de 9b39
00000300: 82b7 0738 5689 8838 31a7 67ba 40c1 4b37
00000310: 51fb 85b9 5c12 0fb9 81e7 63ba 1acc 0ab9
00000320: edb2 09bb 25f0 4eb9 5394 12b9 ea83 3339
00000330: d98c 99b8 8da2 7a39 e0ad 3139 cc75 4b3a
00000340: ff23 8438 15bc af3a d892 d738 70ea 8838
00000350: 4a22 82b9 6a3a 1e39 3247 55b9 25a0 e8b8
00000360: c638 d1ba e507 dd39 080c 033b fd1b f1b9
00000370: 0e3d e739 7867 8f3a 21ca c3ba 2ce5 4d3a
00000380: 4a50 37b8 ced3 0b3a 09d4 933a e041 a83b
00000390: 6451 91b9 6278 933a dc3f f43a 137a c0ba
000003a0: 7cfe 1d3a 0c58 48b9 743e b938 2df2 4739
000003b0: 28b9 dcb8 dd55 f7b8 fe6e 4b39 6048 0ab8
000003c0: 7a19 92b9 6271 9c38 6172 b1b7 1ef6 023a
000003d0: a262 18b8 61fc 3339 d6b0 00b8 76c7 16b8
000003e0: 0a21 7e38 be14 6737 e719 c536 eabb 7438
000003f0: 82fc d43a c2f7 d7b8 782d d13a 7ea8 ba39

exp_avg_sq f4 [128, 9]
0.00032543976 1.4056209e-06 0.00021112247 7.14188e-05 1.4449435e-06 7.163488e-05 3.816363e-05 1.9488903e-05
1.5177396e-06 0.00042136718 1.076047e-06 9.7622964e-05 0.00013382593 1.0786839e-06 2.3963214e-05 8.367872e-05
5.8531273e-06 1.0654422e-06 0.00036031168 1.291563e-06 0.00023838448 0.00016149163 1.2993868e-06 7.8463316e-05
9.3257964e-05 2.9237099e-05 2.3964776e-06 3.6088168e-05 2.0529033e-07 3.986772e-05 2.1859443e-05 2.1058587e-07
6.2238837e-06 7.988697e-06 2.0572993e-06 3.2490547e-07 4.7978672e-05 2.2404463e-07 4.5065284e-05 6.418187e-06
2.2436718e-07 6.086874e-05 1.9558256e-06 8.182106e-06 3.301997e-07 0.00013577695 8.831281e-07 9.385564e-05
3.8699876e-05 9.088913e-07 3.1040436e-05 3.022457e-05 1.0100365e-05 6.84061e-07 7.088857e-05 2.611397e-07
7.940972e-05 3.3602177e-05 2.6604545e-07 1.1660383e-05 2.4378753e-05 8.708135e-06 2.841777e-07 0.00065107463
3.666028e-06 0.00043737932 0.00013314285 3.768852e-06 6.908118e-05 0.000109965666 2.8585662e-05 4.0659593e-06
0.00020370161 6.759757e-07 0.000108965985 0.00011989313 6.803202e-07 2.9302588e-05 4.8678165e-05 5.9773347e-06
9.854701e-07 0.00012980719 5.4159e-07 0.0001477193 6.8787886e-05 5.523181e-07 2.3405924e-05 3.6146983e-05
1.5402451e-05 1.0477318e-06 0.00026462876 1.0503476e-06 0.00024979576 3.227614e-05 1.0655248e-06 0.00012722435
2.345535e-05 3.565818e-05 1.4051786e-06 0.000424503 2.6084692e-06 0.0004284246 8.7058026e-05 2.6724913e-06
7.932213e-05 6.691398e-05 3.0541592e-05 3.7848638e-06 0.0004445945 1.8902572e-06 0.0007891319 2.8746746e-05
1.9657678e-06 6.756968e-05 8.441504e-05 5.914153e-05 3.8888643e-06 0.00020532131 7.188697e-07 9.300889e-05
6.6365516e-05 7.2269796e-07 3.3115757e-05 4.937746e-05 8.697603e-06 9.313362e-07 4.7721755e-05 2.2701062e-07
5.2102034e-05 1.40758575e-05 2.2991468e-07 1.7851662e-05 6.1350224e-06 6.757047e-06 3.449049e-07 0.00077701855
3.8427133e-06 0.00050309283 0.00012245055 3.9495194e-06 6.522654e-05 0.000101850696 2.3705274e-05 4.8360685e-06
0.0003298476 1.7835691e-06 0.00039953119 0.00022118348 1.822491e-06 8.707213e-05 8.933743e-05 3.381963e-05
3.5831279e-06 0.0002258615 7.619505e-07 0.00016465924 9.031396e-05 7.7253407e-07 2.28962e-05 3.1426625e-05
1.080129e-05 1.5425735e-06 0.00014083459 5.931303e-07 0.00011820947 6.020066e-06 6.1284425e-07 6.5829096e-05
9.116059e-06 1.4007428e-05 1.2784468e-06 7.0528156e-05 2.1725133e-07 4.6236484e-05 1.4897778e-05 2.1887931e-07
3.1151663e-05 8.3951145e-06 4.8069564e-06 4.774059e-07 0.0015033297 5.4532034e-06 0.0006103655 0.0004509333
5.5632236e-06 9.97192e-05 0.0002779244 3.2892614e-05 6.2519757e-06 0.0002520426 8.64971e-07 0.00010987193
4.976493e-05 8.82162e-07 1.6133592e-05 4.3455962e-05 4.7595768e-06 1.1807819e-06 0.00012451914 5.874348e-07
0.00011849239 7.1737406e-05 5.910808e-07 3.492572e-05 2.5938263e-05 1.4138402e-05 7.1194995e-07 0.00014829302
3.7773748e-07 8.800783e-05 8.523968e-06 3.8589516e-07 7.918003e-06 2.1101132e-05 4.6663085e-06 9.036311e-07
7.262271e-05 9.583312e-07 0.00018269145 3.0380206e-05 9.80602e-07 5.2145733e-05 1.8440409e-05 1.6680233e-05
8.8516845e-07 0.0008081154 4.559656e-06 0.00052906905 0.00013935762 4.6787654e-06 0.00010203194 0.00012255477
3.6705933e-05 4.772751e-06 3.8904396e-05 1.9783593e-07 2.4577896e-05 2.5470616e-05 1.996532e-07 6.787958e-06
8.9936775e-06 1.937894e-06 2.3524403e-07 5.0280876e-05 2.0609748e-07 3.5217126e-05 5.7555106e-05 2.0033241e-07
3.275916e-05 8.052397e-06 5.593446e-06 3.6779934e-07 0.00027774094 9.703239e-07 0.00014483377 0.0003097656
00000000: c99f aa39 c4a8 bc35 c260 5d39 adc6 9538
00000010: e1ef c135 af3a 9638 e311 2038 1a7c a337
00000020: 23b5 cb35 f2ea dc39 b26c 9035 eeba cc38
00000030: a053 0c39 4cc7 9035 9c04 c937 ac7c af38
00000040: fb65 c436 5100 8f35 37e8 bc39 c459 ad35
00000050: d9f6 7939 1456 2939 9766 ae35 ac8c a438
00000060: 7d93 c338 3142 f537 2cd3 2036 605d 1738
00000070: c76d 5c34 a337 2738 cc5e b737 671d 6234
00000080: c1d6 d036 3107 0637 2210 0a36 ab6e ae34
00000090: b53c 4938 eb90 7034 7b04 3d38 ce5b d736
000000a0: 95e9 7034 504d 7f38 d440 0336 e145 0937
000000b0: 4d46 b134 595f 0e39 1a10 6d35 5dd4 c438
000000c0: ad51 2238 89fa 7335 6a31 0238 c58a fd37
000000d0: bd74 2937 50a0 3735 03aa 9438 c432 8c34
000000e0: c588 a638 10f0 0c38 02d5 8e34 f7a0 4337
000000f0: f980 cc37 2819 1237 1691 9834 e1ac 2a3a
00000100: e205 7636 0f50 e539 439c 0b39 62ec 7c36
00000110: addf 9038 5e9d e638 3ecb ef37 536e 8836
00000120: bc98 5539 b274 3535 ab84 e438 226f fb38
00000130: 409f 3635 d4ce f537 c82b 4c38 ea90 c836
00000140: 7f44 8435 da1c 0839 c861 1135 19e5 1a39
00000150: 3742 9038 0343 1435 d757 c437 879c 1738
00000160: 8334 8137 ca9f 8c35 dfbd 8a39 abf9 8c35
00000170: 05f7 8239 3e60 0738 2703 8f35 8767 0539
00000180: fbc1 c437 ae8f 1538 9299 bc35 d48f de39
00000190: 290d 2f36 2d9e e039 ec92 b638 0d59 3336
000001a0: bf59 a638 2b54 8c38 c919 0038 77ff 7d36
000001b0: 7718 e939 beb4 fd35 bfdd 4e3a 2b25 f137
000001c0: a2eb 0336 32b4 8d38 fb07 b138 bc0e 7838
000001d0: 177d 8236 854b 5739 5af8 4035 c50d c338
000001e0: b72d 8b38 6dff 4135 c6e5 0a38 a51a 4f38
000001f0: eceb 1137 f000 7a35 d828 4838 34c0 7334
00000200: 2288 5a38 5927 6c37 77de 7634 27c0 9537
00000210: 71db cd36 97ba e236 5e2b b934 d5b0 4b3a
00000220: a8f0 8036 fde1 033a 1266 0039 1d86 8436
00000230: 3bca 8838 ad98 d538 b0da c637 8345 a236
00000240: 65ef ac39 f862 ef35 2b78 d139 7ded 6739
00000250: 509c f435 7e9a b638 ab5a bb38 8dd9 0d38
00000260: ab75 7036 3cd5 6c39 d788 4c35 61a8 2c39
00000270: f066 bd38 2360 4f35 3711 c037 15d0 0338
00000280: 3037 3537 6c0a cf35 ffac 1339 9b37 1f35
00000290: 3ae7 f738 f9ff c936 5682 2435 ba0d 8a38
000002a0: 2df1 1837 7201 6b37 1997 ab35 84e8 9338
000002b0: 9745 6934 0cee 4138 78f1 7937 1605 6b34
000002c0: d8a8 0238 bed8 0c37 714b a136 1527 0035
000002d0: 600b c53a a9fa b636 ef00 203a 3e6b ec39
000002e0: baab ba36 5620 d138 62b6 9139 2df6 0938
000002f0: 10c8 d136 9624 8439 5b30 6835 0b6b e638
00000300: b0ba 5038 b6cd 6c35 a056 8737 7c44 3638
00000310: 74b4 9f36 5b7b 9e35 5a91 0239 36b0 1d35
00000320: 1e7f f838 ba71 9638 c3aa 1e35 357d 1238
00000330: ff95 d937 f933 6d37 d41c 3f35 1b7f 1b39
00000340: d8cb ca34 d890 b838 2a02 0f37 072d cf34
00000350: 90d7 0437 5602 b137 4993 9c36 0e91 7235
00000360: 054d 9838 02a0 8035 dd90 3f39 ffd8 fe37
00000370: 3a9d 8335 0eb7 5a38 7ab0 9a37 87ec 8b37
00000380: 509c 6d35 b5d7 533a 26ff 9836 39b1 0a3a
00000390: 8720 1239 4afe 9c36 fbf9 d538 0c82 0039
000003a0: b2f4 1938 9e25 a036 472d 2338 ba6c 5434
000003b0: a12c ce37 bba9 d537 4160 5634 1dc4 e336
000003c0: 8de3 1637 c40c 0236 6397 7c34 aee4 5238
000003d0: a54b 5d34 1ab6 1338 5367 7138 f41a 5734
000003e0: e166 0938 c818 0737 56af bb36 f575 c534
000003f0: c29d 9139 133c 8235 85de 1739 0968 a239

exp_avg f4 [128]
0.00085861277 -0.00023845155 0.00014439164 -0.00015070708 -6.4072294e-05 0.0011605059 -0.00021538005 0.001855613
0.00016791836 -0.0001644387 -0.0010072613 -0.0015409215 0.00012737291 -0.00048539782 -5.199315e-05 0.0013206748
-0.000276178 0.00016777343 -0.00022285037 -5.210087e-05 0.001425491 0.000107358705 -0.0002647348 0.0001260191
0.00084316573 0.0022556803 0.00038136673 -7.2662966e-05 -0.00020596295 -0.00023404544 0.0003561431 -0.000111113986
-0.0005794296 0.0011602023 -0.00028650396 0.00080928433 -4.989675e-05 0.00024568304 0.00019235749 -0.001519751
-0.0005890245 0.00089076714 -2.0305964e-05 -0.0003136879 -0.00021456071 -1.196182e-06 -0.000479647 -0.00014711183
0.0028913724 0.000114808354 -0.00020598504 0.0008538607 6.684107e-05 1.844934e-05 -0.0004056938 -0.0017723807
-3.2579264e-05 0.00092523394 -0.00031105315 0.0024184394 0.00034006446 0.0010008935 -0.0011003002 -0.0001095139
0.00065971847 -0.00019919645 0.00096075225 0.00042071255 0.0020299712 -0.0006830346 0.0005263731 0.0024216622
-0.00016482447 3.7746715e-05 -0.0010731276 0.0011808565 -0.00021357041 0.0004781838 0.0015114493 0.0016349666
-7.653052e-05 0.00031978742 0.00038954336 0.00096198404 -6.385959e-05 -0.000118716656 0.00016151096 5.333909e-05
0.00092897704 -0.00026105944 0.000629026 -0.00051445747 -0.0004043356 -0.0003720218 -0.00094193546 -0.0003623796
5.063298e-05 0.0015572989 8.425064e-06 0.0009473975 0.0012555533 -0.00072727684 -0.00019496748 -0.00010872451
0.000504907 -4.2141037e-06 -0.00018772372 -0.0001861679 0.0009599136 -0.00054784014 0.00012230255 0.00018110542
-0.0001867045 -0.00046839882 0.0012907607 0.0012474412 -7.77637e-05 0.0008548312 -0.00023438573 0.00026753108
0.0016918217 -0.00036768214 -8.903851e-05 0.00064487965 0.00045225144 -0.00029212527 -0.00023969545 1.4090299e-05
00000000: 8714 613a da08 7ab9 d667 1739 2007 1eb9
00000010: 8d5e 86b8 1e1c 983a a4d7 61b9 0a38 f33a
00000020: 3e13 3039 2d6d 2cb9 1506 84ba bff8 c9ba
00000030: 688f 0539 fe7c feb9 3813 5ab8 7e1a ad3a
00000040: fccb 90b9 56ec 2f39 f1ac 69b9 e286 5ab8
00000050: 8ad7 ba3a c425 e138 1acc 8ab9 ff23 0439
00000060: e507 5d3a 09d4 133b 2df2 c739 a262 98b8
00000070: c2f7 57b9 186a 75b9 b8b8 ba39 de05 e9b8
00000080: dde4 17ba ee11 983a e935 96b9 2726 543a
00000090: 3a48 51b8 05cf 8039 92b3 4939 6232 c7ba
000000a0: c468 1aba 5f82 693a ba56 aab7 7a76 a4b9
000000b0: b4fb 60b9 808c a0b5 2179 fbb9 0842 1ab9
000000c0: 2e7d 3d3b 44c5 f038 b0fd 57b9 9fd5 5f3a
000000d0: 072d 8c38 a8c3 9a37 4db3 d4b9 3a4f e8ba
000000e0: b8a5 08b8 668b 723a d914 a3b9 ae7e 1e3b
000000f0: ae4a b239 6a30 833a f337 90ba d4aa e5b8
00000100: f5f0 2c3a 64df 50b9 feda 7b3a 1593 dc39
00000110: 4409 053b ad0d 33ba 4dfc 093a c0b4 1e3b
00000120: bbd4 2cb9 3a52 1e38 30a8 8cba f8c6 9a3a
00000130: dff1 5fb9 beb4 fa39 d31b c63a 604c d63a
00000140: 037f a0b8 24a9 a739 a03b cc39 a82d 7c3a
00000150: 5bec 85b8 85f7 f8b8 455b 2939 69b8 5f38
00000160: 9886 733a cede 88b9 38e5 243a a8dc 06ba
00000170: 01fd d3b9 ec0b c3b9 38ec 76ba c4fd bdb9
00000180: c05e 5438 481e cc3a 6059 0d37 c55a 783a
00000190: 6191 a43a b9a6 3eba 2f70 4cb9 0703 e4b8
000001a0: bc5b 043a e066 8db6 b4d7 44b9 1136 43b9
000001b0: b6a2 7b3a ee9c 0fba 573e 0039 1ee7 3d39
000001c0: 1cc6 43b9 6d93 f5b9 be2e a93a 2e81 a33a
000001d0: 1215 a3b8 c016 603a 71c5 75b9 6a43 8c39
000001e0: 1ec0 dd3a 76c5 c0b9 30ba bab8 240d 293a
000001f0: 291c ed39 6428 99b9 c256 7bb9 6065 6c37

exp_avg_sq f4 [128]
5.6224835e-06 4.304188e-06 5.166252e-06 8.2116134e-07 8.961785e-07 3.5325124e-06 1.0445588e-06 1.4664112e-05
2.7039027e-06 2.16636e-06 4.2013903e-06 1.0433877e-05 7.5610287e-06 2.875479e-06 9.0804247e-07 1.5370853e-05
7.1342765e-06 3.047802e-06 2.3725213e-06 8.690053e-07 2.1812813e-05 3.459884e-06 2.3497391e-06 1.5109499e-06
3.8333246e-06 1.8238625e-05 7.913437e-07 8.2438993e-07 3.8812955e-06 2.548947e-06 5.9973327e-06 2.8197094e-06
3.6754893e-06 4.946085e-06 2.1784238e-06 2.0688805e-05 4.4171617e-07 2.098599e-06 6.1960836e-06 2.3674493e-05
8.727541e-06 2.0424672e-05 5.4623524e-06 1.04025785e-05 5.738424e-06 3.8115477e-06 5.1527613e-06 1.3657126e-06
4.9016096e-05 1.1164942e-06 1.3266513e-06 6.469756e-06 4.1709422e-06 8.001084e-06 1.8149096e-06 2.1388216e-05
1.5906272e-06 1.0719147e-05 2.8253996e-06 3.254115e-05 2.605499e-06 8.09965e-06 1.0578329e-05 1.4092543e-06
7.3209508e-06 2.0671139e-06 3.727677e-06 4.854146e-06 3.064475e-05 1.2300834e-05 6.161035e-06 5.292444e-05
7.998363e-06 1.0672954e-06 6.451406e-06 5.6337963e-06 5.4682946e-06 7.0142128e-06 1.0971152e-05 3.2546926e-05
3.436073e-06 1.6445081e-06 4.6770847e-06 5.17958e-06 1.3717328e-06 1.6208306e-06 3.7976645e-06 4.2241435e-08
9.229655e-06 2.3207338e-06 8.1340095e-06 1.3547445e-06 7.898511e-06 3.108145e-06 6.3632046e-06 2.6289974e-06
6.401082e-06 2.1110192e-05 1.1717138e-06 1.6322898e-05 1.0691963e-05 1.107329e-05 1.7574278e-06 3.5762869e-06
3.3326037e-06 5.049105e-06 2.3264474e-06 8.533298e-06 1.2416361e-05 2.3878958e-06 3.9624597e-06 2.952294e-06
1.1629273e-06 6.8693394e-06 1.3652022e-05 2.5356729e-05 1.3413869e-06 4.6185864e-06 4.840734e-06 5.420035e-06
1.8265484e-05 4.4263297e-06 6.4471437e-06 3.220295e-06 4.1109024e-06 9.481601e-06 3.0674605e-06 4.5891725e-06
00000000: c4a8 bc36 b26c 9036 c459 ad36 c76d 5c35
00000010: eb90 7035 1a10 6d36 c432 8c35 e205 7637
00000020: b274 3536 c861 1136 abf9 8c36 290d 2f37
00000030: beb4 fd36 5af8 4036 34c0 7335 a8f0 8037
00000040: f862 ef36 d788 4c36 9b37 1f36 9745 6935
00000050: a9fa b637 5b30 6836 36b0 1d36 d8cb ca35
00000060: 02a0 8036 26ff 9837 ba6c 5435 a54b 5d35
00000070: 133c 8236 930e 2b36 b23c c936 3d3a 3d36
00000080: 6da8 7636 8cf6 a536 0931 1236 df8c ad37
00000090: 0225 ed34 a8d5 0c36 f4e7 cf36 9698 c637
000000a0: 816c 1237 a655 ab37 4049 b736 bc86 2e37
000000b0: b08c c036 e4c9 7f36 e2e5 ac36 874d b735
000000c0: a296 4d38 73da 9535 640f b235 c816 d936
000000d0: 1ff4 8b36 653c 0637 d297 f335 d86a b337
000000e0: 897d d535 63d6 3337 ff9b 3d36 cb7c 0838
000000f0: 22da 2e36 bbe3 0737 9479 3137 9c25 bd35
00000100: 7da6 f536 bfb8 0a36 0129 7a36 cce0 a236
00000110: 8d88 0038 ae5f 4e37 e3ba ce36 2ffb 5d38
00000120: b530 0637 fe3f 8f35 2879 d836 f109 bd36
00000130: 4b7c b736 a15b eb36 bd10 3837 ff82 0838
00000140: 4997 6636 deb8 dc35 daef 9c36 41cc ad36
00000150: 611c b835 518b d935 61db 7e36 f36c 3533
00000160: 11d9 1a37 e7bd 1b36 4e77 0837 abd4 b535
00000170: d983 0437 8695 5036 8383 d536 d56d 3036
00000180: e0c8 d636 cb15 b137 c843 9d35 28ed 8837
00000190: a261 3337 6bc7 3937 c2e0 eb35 2400 7036
000001a0: b2a5 5f36 7b6b a936 1020 1c36 3c2a 0f37
000001b0: dd4f 5037 bd3f 2036 45f5 8436 0620 4636
000001c0: e115 9c35 2d7f e636 fd0a 6537 29b5 d437
000001d0: b409 b435 5bf9 9a36 976d a236 bfdd b536
000001e0: d438 9937 e285 9436 8b54 d836 3f1c 5836
000001f0: 62f0 8936 2b13 1f37 92da 4d36 b1fc 9936
