ML Agents tutorial/Assets/results/RollerBall_2walls_2/RollerBall.onnx (onnx, 76281 bytes, 8 tensors)

network_body._body_endoder.seq_layers.0.weight f4 [128, 9]
00000000: 248a aa3e 63eb d1bc 5433 d1bd fe0c 6d3d
00000010: 51c5 8bbe bf00 013f 9063 8fbe f335 7a3e
00000020: 356b 6cbe 5b99 a03d a13e 7ebe a932 5fbd
00000030: b01d 6abf 6404 6fbe 84ac 7fbc 39e8 8d3d
00000040: 53b8 023e c22b 8c3e b6cb f43e 776a 33bf
00000050: 41a8 bcbe c984 363e 4f35 753e 2e24 99bd
00000060: 5714 e9be 9c05 bf3c 1146 b5be 15cf 1b3f
00000070: 9d79 0a3f 9da3 79be 239c 0abc 314e a33d
00000080: 62fe d13d 04ba 09bf 2528 223f fbff 92bd
00000090: 7ca5 58be 8f90 fabd f369 863c 33f4 393f
000000a0: 4f29 313e 654d 31bc acb1 34be de2b 463e
000000b0: c550 293e 126d fa3c 3819 70bd 692c 0cbf
000000c0: b1ae a3be 639c 0c3d 6cca 13be 7f1a abbe
000000d0: b338 cfbe a14c 913d 6dc0 17bd 6e9c 043e
000000e0: 73f6 6abe 96c2 16be fd18 b8be 8e29 4dbf
000000f0: 65bd cebc 426b 673e df50 03bf 7be7 14be
00000100: 588a 5a3f 8a15 36bd 9887 9e3e 6093 26be
00000110: 1d3f 6e3e b440 cdbe 182f f0bd 8fed d6bb
00000120: 8af9 92be 01f0 42bf 1800 43be 0807 543e
00000130: 5ad4 203f 1258 7ebf 50db 88be 0c02 1bbf
00000140: 1dcd ca3e fae6 a63e d33e 12bf 4aa2 253d
00000150: f518 5ebd 140a e5bd c461 213e 2a3a 0f3e
00000160: ac3d ef3e 76de 1ebe 2679 edbd 2500 a23e
00000170: 5648 afbd 7d98 253d fbb0 a0bd 7ed5 cbbe
00000180: 1275 ffbe f681 053e 3685 a53e d177 84be
00000190: 9c15 3d3d 0b08 d0bd 162d 65be 2cf3 7abe
000001a0: 8815 713e 2df3 173d 28ae 8fbb a0f1 99be
000001b0: 5c7f 243c 8e0c 683e 9b17 02bd 2b1e 943e
000001c0: 1c9a 85be 55ba efbd 9ef1 8dbd ccf5 533e
000001d0: 9380 09be 8fb1 543d 9fbd 233f 91ac 5e3d
000001e0: 3b9f d13c 73f8 0abb 365f 1c3f 0a0e 533e
000001f0: 4e7d 803d eb87 6cbe 5617 61bd a527 03bb
00000200: 4958 013e fcd5 49be 0cf8 68bd 2a8c 44be
00000210: 535d 973d a24f ea3d 5c27 64be 7b39 533e
00000220: dc71 81be cc87 65be acda 08be 714f 41bd
00000230: cde6 893e 97d0 943d d7e8 4f3e 3436 343f
00000240: 4219 713e 230c 86be d970 5ebe 18cb 7bbd
00000250: 47fe c23e f2d8 8bbe f5d5 6cbe fde4 5abf
00000260: 3bb7 1e3f 7a62 733e 6e93 06bf 893a a7bb
00000270: 7c6c b3bc 5455 833e 0cbe b839 99e2 72be
00000280: fe4d a7be 156e 1ebf 4fb8 37be 373f 3f3d
00000290: ee63 84be f4e3 7a3b 18fd 40bf 86bf 973e
000002a0: bf8c 81be 2acc 65bd b57e c4be d965 223e
000002b0: 9994 a3be e2a5 92bd e90c bcbe 53fb 53be
000002c0: 8adc 02be a528 d0bd d58b 0e3f ab9f 403e
000002d0: 6bc6 1dbe 9f40 a7be 9b16 c33d 4e20 b83e
000002e0: 7096 83be d361 0cbd 8ebc 26be 5f79 413e
000002f0: e906 563e e705 f53d bc11 8cbd b4e6 133e
00000300: 7a3e b83d 023e 3cbd 6326 fbbe ac0a ffbd
00000310: d6c1 54bd 379d bd3d 8d20 babd 9f33 ba3c
00000320: 48af c3be af48 6e3e cc4c b8be 9d22 783d
00000330: fafd 07be 6485 903d 2a5e 36bf 0590 0cbf
00000340: b52f a13b 3933 18be 2aa5 443f 44db 97bd
00000350: 4b03 103e 7285 1e3f de64 b03c 1ff9 373d
00000360: 96ea 96be 1301 e0be 2e31 c5be 34f0 92be
00000370: b9e7 49be 520d bfbe 5d19 0a3e e6ee d6be
00000380: 08ec e8be 5535 3cbc c6e9 573e 6db4 c43d
00000390: 2b1e f1be aee3 c43e 01cd 253e bd09 d93d
000003a0: 1033 eebd 3fc9 c13e 2e2d bb3e 9757 a43d
000003b0: f1a8 433f eb33 dfbe 9fa5 043f 3331 f5bc
000003c0: 3751 5bbe 245e c9bb 6cd4 5f3e 67c6 05bb
000003d0: 7254 1cbf f6e3 e13d 06ea cd3e 17ee a3be
000003e0: ef06 f4be a67c aa3c e3d5 60be ca48 bbbe
000003f0: 7f38 9cbe 0c1c a03e 28ce 39be d1ea cabe
0.33308518 -0.025624936 -0.10214868 0.05787372 -0.27298978 0.50391763 -0.28005648 0.24434642
-0.23087771 0.0784175 -0.24828579 -0.054491673 -0.9145155 -0.23341519 -0.015605096 0.069290586
0.12765627 0.27377135 0.4781167 -0.7008433 -0.36847118 0.17824091 0.23946117 -0.07477604
-0.4552333 0.023318104 -0.3540502 0.6086286 0.5409182 -0.2437882 -0.008460077 0.07973898
0.10253598 -0.5379946 0.63342506 -0.07177731 -0.21156877 -0.122346036 0.016407942 0.72638243
0.17300914 -0.010821675 -0.17645901 0.19352672 0.16534717 0.030569587 -0.0586178 -0.54755265
-0.31969216 0.03432883 -0.14432687 -0.33418652 -0.40472946 0.07094694 -0.037048746 0.12950298
-0.22945575 -0.14722666 -0.35956565 -0.8014153 -0.025236795 0.2259951 -0.51295274 -0.14541428
0.85367346 -0.044454135 0.30962825 -0.16267157 0.23266263 -0.40088427 -0.117277324 -0.006559081
-0.28706008 -0.76147467 -0.19043005 0.20705807 0.6282402 -0.99353135 -0.26729822 -0.6055
0.39609614 0.32598096 -0.5712711 0.040437974 -0.05422302 -0.11183563 0.15759951 0.13987032
0.4672674 -0.1551455 -0.11595373 0.31640735 -0.08558719 0.040428627 -0.07846256 -0.3981132
-0.49894005 0.13037857 0.32328194 -0.25872663 0.046163186 -0.10157784 -0.2238048 -0.24506825
0.2354337 0.037097145 -0.0043847747 -0.30067158 0.0100401305 0.22661039 -0.031760793 0.28929266
-0.2609414 -0.11705462 -0.069308504 0.20699233 -0.13427953 0.051927146 0.63961214 0.05436379
0.025588622 -0.0021205216 0.6108278 0.20610824 0.062739 -0.23098724 -0.054953896 -0.0020012644
0.12631334 -0.19710535 -0.05687718 -0.19194093 0.07390847 0.1144097 -0.2228064 0.20627396
-0.2528218 -0.22415084 -0.13364667 -0.0471949 0.269339 0.07266348 0.20303665 0.7039521
0.23544791 -0.26181135 -0.21722735 -0.061472982 0.38084623 -0.27313954 -0.23128493 -0.8550566
0.6199834 0.23768035 -0.5256871 -0.0051034135 -0.021902315 0.25651038 0.0003523681 -0.23719253
-0.3267669 -0.6188672 -0.17941402 0.046691146 -0.2585749 0.0038282843 -0.7538619 0.29638308
-0.25302693 -0.05610291 -0.3837792 0.15859164 -0.3194931 -0.07160546 -0.367286 -0.20701341
-0.12779441 -0.10164002 0.55682117 0.18810908 -0.15407722 -0.3266649 0.09525796 0.35962147
-0.25700712 -0.03427298 -0.16282865 0.18893956 0.20901074 0.119640164 -0.0683932 0.14443475
0.089962915 -0.045957573 -0.49052724 -0.124532074 -0.05194267 0.09258502 -0.0908824 0.022729693
-0.38219666 0.23269914 -0.3599609 0.060579885 -0.13280478 0.07056692 -0.7123743 -0.54907256
0.004919017 -0.1486329 0.7681452 -0.074148685 0.14063756 0.6192237 0.021532472 0.044915315
-0.2947585 -0.4375082 -0.38514084 -0.28698885 -0.19717301 -0.3731485 0.13486238 -0.4197914
-0.45492578 -0.011487325 0.21085271 0.09604726 -0.4709333 0.38454956 0.16191484 0.105975606
-0.11630833 0.3784885 0.36557907 0.08024519 0.7642966 -0.43594298 0.5181522 -0.029930687
-0.214177 -0.0061452556 0.21858376 -0.0020412446 -0.61066353 0.11029808 0.40217608 -0.32017586
-0.4766154 0.02081139 -0.21956591 -0.3657897 -0.30511853 0.31271398 -0.18145049 -0.39632276

network_body._body_endoder.seq_layers.0.bias f4 [128]
00000000: d37e b53b 22a8 8dbb bcb2 813c ccbc e23c
00000010: c3c1 1e3c e064 70bd 24d1 c4bb c2ed f3bc
00000020: 3526 b43c fa61 1c3d 722e 003c 66af 05bd
00000030: 1b7d 6dbd fa65 77bd c8bd 96bd 78b7 56bd
00000040: 8c0f 89bc c9a4 25bd 3a10 5cbd 27a0 83bc
00000050: 6342 92bd 3bb3 143d 3cde f0bc 86be 1ebd
00000060: a106 56bd 9851 adbc acce 9d3c 1f36 87bc
00000070: 1275 9abc a5ef 603d f03d 9cbd 4b62 283b
00000080: ad80 02bb 0c28 0a3d 49e1 c13b 4de7 2cbd
00000090: e7d0 62bc 49d3 18bc 37cb 64bd ac91 60bd
000000a0: b24c 67bc 709d 563b 408f cfbc 83a7 72ba
000000b0: d9ee b03c 4b79 093b d7a4 21bd 6aab 14bd
000000c0: e113 0bbc 54bd 413c f46c 03bd 750d 62bd
000000d0: 6f60 50bc 6d92 87bc 9cad 443d bdca d6bb
000000e0: 1e00 afbc 7fea 87bc 70af 9ebb 4340 d83c
000000f0: 3d43 34bd 372f 67bc 7724 643c a0b0 b7bc
00000100: bcfd 71bc e726 c9bc 424a 2fba 17d2 cc3c
00000110: 840f dbbc 19f9 d53c f133 73bc ef62 8abc
00000120: 8205 c1bc 8528 edbb 2e46 28bc b9aa f13c
00000130: 059e 74bd 6917 47bc 10fb 3ab8 bd25 c3bb
00000140: f643 81bc 9f11 4cbc f5b2 9a39 3ab3 903c
00000150: 75de 063d f82a 06bc c022 09bd 473d 2dbd
00000160: e8a2 debb 1601 43bd 6c2a 6fbc 5441 1c3d
00000170: c7eb 49bd bc80 89bc eea0 803b 6173 203d
00000180: 0aae 1bbc d2c2 13bd f584 a53c 9676 9ebc
00000190: cab8 c63c a570 ab3c 874b cb3b 11ca 0d3b
000001a0: 568c 5ebd 6f5a 523d 2d54 77bd 03a7 28bd
000001b0: 6ed5 833d 4d29 d9bc f320 b13c 3308 afbd
000001c0: 7020 093c 96bf 543b bcb9 6abc c005 89bd
000001d0: 53d3 e5bb 4e69 c5bc e555 18bd 5b0c 37bd
000001e0: dcde 3d3c 6ec3 05bd c3dc 533c eb46 f4bc
000001f0: cca7 86bc 648f a0bc 3e29 b0bd 46da 7f3c
0.0055388003 -0.0043230215 0.015832298 0.027677916 0.009689751 -0.058689952 -0.006006377 -0.029776458
0.021990875 0.038179375 0.007823573 -0.032637976 -0.057980638 -0.060399987 -0.07360417 -0.052421063
-0.016731046 -0.040440354 -0.053726412 -0.016067578 -0.071415685 0.03630374 -0.029402845 -0.038755916
-0.052252416 -0.021157071 0.019263588 -0.0165053 -0.018854652 0.054916043 -0.07629001 0.0025693353
-0.0019913123 0.033729598 0.0059167487 -0.042212773 -0.0138437515 -0.009327718 -0.055857863 -0.054826424
-0.014117407 0.0032747649 -0.025336862 -0.00092565286 0.021598266 0.0020976837 -0.039463844 -0.036296286
-0.008488626 0.0118249245 -0.032086328 -0.055188615 -0.012718304 -0.016549313 0.04801713 -0.00655493
-0.02136236 -0.016591309 -0.004842691 0.02639783 -0.044009436 -0.014110378 0.0139247095 -0.022423089
-0.014769968 -0.024554683 -0.00066867855 0.025002522 -0.026740797 0.026119756 -0.014843927 -0.016892878
-0.023562197 -0.0072374963 -0.010270638 0.029500352 -0.05972101 -0.0121515775 -4.4579676e-05 -0.0059554265
-0.015779477 -0.012455373 0.00029506502 0.017663587 0.032926995 -0.0081889555 -0.033480406 -0.042294767
-0.0067943223 -0.047608458 -0.0145975165 0.03814824 -0.04929712 -0.016785018 0.0039254343 0.039172534
-0.009501943 -0.036074467 0.020205 -0.019343656 0.024258036 0.020927737 0.006204072 0.0021635334
-0.054333054 0.051355775 -0.06038301 -0.0411749 0.06437193 -0.026508952 0.021622157 -0.08546486
0.00836955 0.0032462827 -0.014326509 -0.0669055 -0.007013717 -0.024098065 -0.03719129 -0.044689517
0.011588778 -0.03265708 0.012931052 -0.029818973 -0.016437434 -0.019599624 -0.08601616 0.015616005

network_body._body_endoder.seq_layers.2.weight f4 [128, 128]
00000000: 5721 83bc 63ab 9dbd 2732 22be ff45 033e
00000010: fadb 8a3d 1af6 8bbd 7a1e ccbc 6db1 8dbc
00000020: 4582 61bd 4a61 84bd 3676 87bc 54f6 1abd
00000030: 2a14 1c3e 5b38 dcbd e1b6 4fbe 6cc9 2bbe
00000040: 70c1 54bc c5e6 93bd 0b87 40bd a694 d73d
00000050: f302 a83d 7a57 a8bd 05a7 f93b 1137 87bd
00000060: 71f5 493c ded3 4cbd 6304 2a3e 894a 14be
00000070: d5d0 b7bc 9288 583b c762 75bd 11c3 523b
00000080: 558f 853d 41d9 3fbd fc88 febd 77d6 923d
00000090: 40e3 0a3b 05b6 963d 176a 1abe 7ae4 66bd
000000a0: 2f91 623d 8e58 1cbc e85f edbd 5452 8ebd
000000b0: ed4d 17be d22f 15bd 3219 b1bd e587 e73b
000000c0: 90b1 033e 2070 523c b8c7 8bb9 114f adbd
000000d0: 9a25 11bd 55c8 b3bd 9521 8cbc 5362 02bb
000000e0: a455 503d 5b53 de3c 0196 6cbd 4144 4d3d
000000f0: 4561 33bd 4d4e e1bd c63a 47bd 9dd8 883c
00000100: e68e 783d 0e76 6abd 34fb bebd e6f0 013e
00000110: f8e2 203c 25bf 0bbd 2fe1 24bd 9d06 ccbd
00000120: 6541 a93d 69c3 29be 51e6 83bd e2a0 c9bc
00000130: 2290 e9bd a364 0c3d fadb d7bd cc55 48bd
00000140: 17c5 a23d f6fb 9ebd 23b1 9f3d b781 f63d
00000150: 86c4 31be 223a ee3d 9c54 50bd 166a b1bd
00000160: 5df8 343d 9f06 7d3a e0cc 8f3d d8a8 913c
00000170: f6ad 8c3d 322f 7c3d 076f 553d f957 603e
00000180: f7dd acbd d08f b23d adb6 86bd b73b 013e
00000190: 57b6 e93d 2244 2cbd 9c8d 173d 34dc b2bc
000001a0: e9bf ba3b 9638 803d e71a 0fbe 20c6 f1bd
000001b0: 7edf 33bc bb2d a0bd ec8e 9abd 8bc0 b9bc
000001c0: 7d83 5bbd 9065 0abc bb63 ef3d 4776 1fbb
000001d0: f43b 203d cc4c 5abe 3c6e d4bd 4378 a33d
000001e0: 88e5 dcbd ec33 203d 470a e93c 476a 1f3e
000001f0: c9a8 263d 92ed 363d faa8 1ebd 8419 aa3d
00000200: b405 143e d530 88bd d218 aebd 853f f73d
00000210: 6d2f 0bbb b353 e43d e60e 383d f88e 1ebb
00000220: ab3a 743c 7ffb 1abc fadb 7cbd 832d 053e
00000230: ba5d ed3d 7da4 9dbb a5b2 783d 0868 87bd
00000240: 11b7 293d e2c7 9cbc ddcc ae3d 38f4 d7bd
00000250: 9383 2d3e f398 c2bd e60b e6bd 6706 d4bb
00000260: 51ac eb3d a054 8dbd 40b8 84bd 8836 a83b
00000270: 9aa0 cdbb 4b2f b23d 39f2 00be 7db7 e8bd
00000280: 8de9 523d 79c0 383d 0997 d5bc 2d3f 02be
00000290: d555 b7b9 b0fe 10be 903d 08be bdae 303d
000002a0: 4489 b2bc b730 71bd dcf7 523b f2dc 99bd
000002b0: 09f5 1c3d 071d 5ebd 25df 03be 3c92 04be
000002c0: 6a45 2dbe 36da 3fbe b0dd f1bd 7506 4ebb
000002d0: 97f5 3ebe 1a8f 783c 945c eabd 0c2b d83c
000002e0: 7f47 c3bd b93c 00bd 932c b6bd 064e 4ebc
000002f0: 3a6b abbd ad81 92bd 2fb4 dbbd 9478 35bc
00000300: 37c2 aabc d4be 1c3d 7b07 833e e208 003e
00000310: ee92 a4bc c971 5abe fdbb 29bb ef7f 1ebe
00000320: 9971 793c 0fc6 54be 8fea 98bd ed55 77bd
00000330: 3c56 8cbd 05f8 353d 81a7 99bd d5c1 40bd
00000340: a956 63bd 94fa ec3d 5516 f3bb 2623 e9bd
00000350: e8e9 ef3d 60cc 51bd 2f8a bcbd 3bbc fe3b
00000360: 847f 443d 5563 52bd ff91 783e 26a1 2abd
00000370: 07e0 53bd b03f bebb 5959 21bd 2abd bfbd
00000380: 4fb3 b7bb 0cdc febd 32fa 9fbd 5d11 0cbd
00000390: b9f9 913d 3a28 f33d b3f2 443d 66ff 80bd
000003a0: f6dd ad3d 9b0f 5b3d 9b05 a33d 40e6 2ebe
000003b0: 468b babd 4f2d 38bd 1c4a 823d 9baa 1b3e
000003c0: 3031 0ebe f040 17bd de9f 36bc beb6 93bc
000003d0: 148f 0a3d 2859 bebd 3c33 b93d 9a6d 563e
000003e0: ea8d 75bd e096 70bc 22e9 dd3c 59a2 0bba
000003f0: 6e8b 813d 223a a0bc 0377 a1bd b8d8 17be
-0.016007109 -0.07698705 -0.15839444 0.1281967 0.067802384 -0.068340495 -0.024916876 -0.017296517
-0.055055875 -0.06463869 -0.01653586 -0.037832573 0.15242067 -0.107529365 -0.20284607 -0.16776055
-0.012985572 -0.0722175 -0.047003787 0.10526399 0.082036875 -0.0821981 0.007618787 -0.066023
0.012326584 -0.05000674 0.16603236 -0.14481558 -0.022438446 0.0033040387 -0.059908655 0.0032159726
0.06521479 -0.04683805 -0.124284714 0.07169812 0.002119258 0.07358936 -0.15079533 -0.056370236
0.05531424 -0.009542597 -0.11590558 -0.069492966 -0.1477582 -0.036422558 -0.08647384 0.0070657604
0.12860703 0.0128441155 -0.00026660948 -0.08462346 -0.03543625 -0.08778445 -0.017105857 -0.0019895032
0.050862923 0.027139356 -0.057760242 0.05011392 -0.043793935 -0.11001263 -0.048640035 0.016704852
0.060683154 -0.057241492 -0.09325257 0.12689552 0.009819739 -0.034117837 -0.040253814 -0.09962199
0.08264426 -0.1657845 -0.06440414 -0.024612848 -0.11404444 0.034275662 -0.10540004 -0.048909947
0.07947748 -0.077629015 0.07797458 0.1203646 -0.17360124 0.11632182 -0.05086194 -0.086628124
0.04418217 0.00096521707 0.07021499 0.017780706 0.06869118 0.061568446 0.052107837 0.21908559
-0.08440774 0.08718836 -0.065778114 0.12620436 0.11411732 -0.042057164 0.037000284 -0.021833517
0.005699147 0.06260793 -0.13975106 -0.118053675 -0.010978578 -0.078212224 -0.075467914 -0.02267482
-0.053592194 -0.008447066 0.11688944 -0.0024331973 0.039119676 -0.21318358 -0.10372588 0.079819225
-0.10785967 0.039112017 0.028447283 0.15567885 0.04068831 0.04466016 -0.038735367 0.08305648
0.144553 -0.06649939 -0.08500828 0.12072662 -0.0021237985 0.11148777 0.044936083 -0.0024194103
0.014906566 -0.009459375 -0.061733223 0.13005643 0.115901425 -0.0048108683 0.060717244 -0.06611639
0.04143435 -0.01913828 0.08535168 -0.10544628 0.16944723 -0.09501829 -0.11232738 -0.00647049
0.11507476 -0.069009066 -0.064804554 0.0051334538 -0.0062752487 0.08700427 -0.125924 -0.113631226
0.051492263 0.04510543 -0.026072996 -0.12719412 -0.0003496843 -0.14159656 -0.13304734 0.043135393
-0.021793969 -0.05888435 0.0032191193 -0.07512845 0.03831962 -0.0542269 -0.12878092 -0.12946409
-0.1692101 -0.18735585 -0.11809862 -0.0031436954 -0.18648373 0.015170837 -0.11443439 0.026387714
-0.09535121 -0.03130791 -0.088952206 -0.012591844 -0.08370061 -0.0715364 -0.10727727 -0.011076111
-0.020844562 0.038267925 0.25591645 0.12503389 -0.020089593 -0.21332468 -0.0025899403 -0.1547849
0.015224838 -0.20778678 -0.074666135 -0.06038468 -0.068523854 0.044425983 -0.07502652 -0.047059853
-0.055502567 0.115712315 -0.0074184337 -0.11383657 0.11714536 -0.051220298 -0.09206044 0.0077739037
0.04797317 -0.05136426 0.24274443 -0.04165759 -0.05172732 -0.005805932 -0.03939185 -0.09362252
-0.005606092 -0.12444314 -0.07811393 -0.034196246 0.07127709 0.11872907 0.04808302 -0.062987134
0.08489601 0.05348168 0.079600535 -0.17080021 -0.091085956 -0.044965085 0.063617915 0.152018
-0.13885951 -0.036927164 -0.011146514 -0.018031474 0.033827856 -0.09294349 0.09042975 0.20940247
-0.059949793 -0.014684409 0.027088705 -0.0005326621 0.06325422 -0.01955897 -0.07884028 -0.14828765

network_body._body_endoder.seq_layers.2.bias f4 [128]
00000000: 7ba7 e0bb 6249 c6bc e960 8c3b 9d54 49bd
00000010: 788c 88bc 05e8 d9bc 0789 1dbb 01fc cfbc
00000020: 5aba 13bd 3a02 893c 2b60 8d3c 3a2b 00bd
00000030: 5321 833c e3ee c1bc 6a1a a43a 9539 3cbc
00000040: c074 67bd eb4d afbc 39f3 8bbc 54a0 183d
00000050: be96 b1bd f15e a4bc e790 60bc 3074 b2bd
00000060: 338f 34bd 6a26 27bd 17c4 c8bc 6ed2 66bc
00000070: bd1b 9abc ff6c 08bd 37eb 30bd 918c bcbc
00000080: 8f5e a0bd 32d0 f8bb 9787 b0bc ae26 5e3c
00000090: 9261 d13c 6683 28bd 808d 2bbd 3da2 d1bc
000000a0: aea4 debc 7e2e ac3b cccb 71bc 49f0 8dbc
000000b0: 0daf 353d a879 a33c 3211 b0bd 13e2 1f3d
000000c0: 2d4f 473c 2396 56bb 46c7 f13c 3a9b de3b
000000d0: 0564 623d c1cb b5bc accd 1cbc 1b45 1d3d
000000e0: 5207 543d 1869 99bc f937 38bc 0925 00bd
000000f0: 6849 dabc 9366 243b f823 193b bb60 e3bc
00000100: ce4a f5bc 22c5 37bc 7ffc 7d3a 3209 ecbc
00000110: e60e fcbb bb7c 25bd d582 133d 416b 623b
00000120: 6305 a4bd 05b1 0cbd 16ee cabb 3896 863c
00000130: 9077 8abb e265 1cbb 74fa 083d 2391 5fbc
00000140: a1ad 89bb 94e0 a3bd 9e82 783c ebde ea3c
00000150: 57be f63b 14b1 abbd 8feb 4abc 11ba 013d
00000160: dd47 7bbd 9b1f 9fbd ad4f 4e3d ac30 9ebc
00000170: c782 89bc b13a babc 2f13 113a 3d80 013c
00000180: 83b3 1ebc efb0 f83a 07f1 11bd c6a3 8bbc
00000190: 0a5a 8339 f8a1 f6bb 01ba b0ba 320d a2bd
000001a0: eb11 78bd 50bd 65bd 8767 8ebc 151c 2f3d
000001b0: ab59 26bc 2a79 06bc 1d6e 4bbd 3f24 50bc
000001c0: f6a2 9fbd 6f80 533d 5035 773c 5e50 b53c
000001d0: afba 163d b953 0fbd d233 9a3b 81ec debb
000001e0: 6a3d d03c 173e 1d3d c480 b53a 62d4 993b
000001f0: 219b 88bc 0e21 9fbc d5d0 f6bc e8a4 f23c
-0.0068559027 -0.024204914 0.0042840135 -0.04915296 -0.016668543 -0.026599893 -0.0024037973 -0.02538872
-0.03606639 0.016724695 0.01725777 -0.031291224 0.016007101 -0.02367348 0.0012520079 -0.011488338
-0.056507826 -0.021399459 -0.017083751 0.037262276 -0.0867133 -0.020064803 -0.013706422 -0.08713567
-0.044081878 -0.04080812 -0.024507565 -0.014088256 -0.018812055 -0.03330707 -0.04319307 -0.023016246
-0.078305356 -0.007593178 -0.02154903 0.013559027 0.02555922 -0.041140936 -0.04188299 -0.025590057
-0.027178135 0.0052545657 -0.014758062 -0.017326491 0.044356395 0.019955471 -0.0859703 0.03903396
0.012164873 -0.0032743297 0.029513966 0.006793407 0.055271167 -0.022191884 -0.00957052 0.038395982
0.051764794 -0.01872687 -0.011243814 -0.03128532 -0.026646331 0.0025085553 0.0023367386 -0.027756086
-0.029942896 -0.011216434 0.0009688809 -0.028812978 -0.0076922057 -0.040402155 0.036013443 0.0034548792
-0.0800884 -0.034348506 -0.006192933 0.016429052 -0.0042256787 -0.0023864438 0.033441976 -0.013645443
-0.0042016064 -0.08001819 0.01516786 0.028670749 0.0075300145 -0.08383384 -0.012385263 0.031671587
-0.06134783 -0.077697 0.050368953 -0.019310318 -0.016785992 -0.022733064 0.00055341696 0.00790411
-0.009686354 0.0018973629 -0.035630252 -0.017045867 0.0002505335 -0.0075266324 -0.0013483168 -0.07912673
-0.060563963 -0.056088746 -0.01738335 0.04275139 -0.010153214 -0.008207599 -0.04966556 -0.012703954
-0.07794754 0.051636156 0.015088394 0.022133049 0.03679913 -0.034991954 0.0047058845 -0.006803096
0.02541991 0.03838929 0.0013847579 0.0046945075 -0.016675534 -0.019424941 -0.030128876 0.029619649

action_model._continuous_distribution.log_sigma f4 [1, 2]
00000000: d5c1 c5bd cf21 b1bd
-0.09656111 -0.086490266

action_model._continuous_distribution.mu.weight f4 [2, 128]
00000000: d603 bfbc 75bd bd3b 970e 983b 2479 223c
00000010: 8554 b7bc c703 0a3d 9fbc 633b 69cb 1ebd
00000020: 7864 3f3c 8af7 83bc 011a 953a 7573 163d
00000030: bca1 3c3c 9d6e a93c 2ec4 8339 2340 ef3b
00000040: 11e8 a13b 02aa 5bbd cc0c 1b3b 825e 14bc
00000050: 540c d0ba 926b b4bc 3fc7 a1ba e22d 8bba
00000060: 96b6 25bc ff1a 393b f2a8 533c 1829 55bb
00000070: d8cd 2abc 741d 07bc ed3c c8b9 21f1 803b
00000080: c8bd 763c a310 4abc 1e50 cd3c 0e3f 113c
00000090: f348 7dbc 07a6 2ebc d4f8 be3b c46d f33a
000000a0: a60a b9bc 81d4 c4bc f6f3 03bc e605 30bd
000000b0: 8b5c 583d 05db 603c 6b8b d93c 5b79 ac3c
000000c0: e1b1 d7bc e004 5ebc 9bf5 093d d924 da3c
000000d0: 0f30 75bc 1cde c53c b175 f6bb 1983 8ebb
000000e0: e42e 133b 4ec2 35bb 5b4a a93b 5c89 44bc
000000f0: 7023 bdba a035 973c 4a4e 73bd d9f5 5a3c
00000100: efe3 323a 7733 c3ba 1d0d 57bb 5078 a8bc
00000110: be28 91bc 8101 b4bc b528 1ebd f4ec e6bb
00000120: b60e 3f3c acf7 84bb 240b 88bc a464 90bd
00000130: d799 d338 e13a 98bc 2ce9 2b3d 4ae6 98bb
00000140: 079e 813c 359b 893c 32fb d9bb 57c5 0d3c
00000150: de51 00bd f66b 9a3c 136e 1bbd 54bc 153c
00000160: 6148 62bc 301f ac3c 0760 acbc 602a 6a3c
00000170: 39d6 e7bb 347d 90bd 376e c8bc 1018 d93a
00000180: f57d 73bc 794a 6bbc 103c ff3b efa8 343c
00000190: f28a a1bc 875f 1b3d 9b0b e2bb 4333 cb3b
000001a0: dbc4 03bc 531b 013c 437a 32bc c58d 443c
000001b0: 522b 373b 4274 643c ce72 e8bc a687 abbb
000001c0: 03f8 11bc bce8 fd3b e1c7 6a3b c779 40bc
000001d0: 3cfe eb3b 5a3d a93c 1045 72bc 4b31 b43c
000001e0: 7610 91bc 8649 27bc b392 633c a94f 00bc
000001f0: f296 ff3b 1424 633c 9088 c23b b44a 093c
00000200: cf0f dcba 8327 223c f6c6 20bc 6571 363c
00000210: 937c f4bb 8f72 273d c480 1fbd ce51 8fbc
00000220: fd79 05bb 04e2 63bc 91f5 80bd 12dd 42bd
00000230: 47fb a2bc 9567 bf3c 66eb 48bc 7a93 953c
00000240: 334e 74ba 1863 64bc 52bd 8abb 0310 1fbd
00000250: 5124 acbc 43a6 ccbc 0ffa 2dbd fa8e 8dbc
00000260: 68a9 96b9 2a13 88bc e478 843b 5e36 c2bc
00000270: d8dc 4339 3cc8 ccbb 7dd5 47bb 2aa9 2abd
00000280: aca2 aabb 58ea c63c c72e 81bc 20f2 5ebd
00000290: 6d59 b03b 0922 53bb fbed abbb 0719 3a3c
000002a0: fabc a4bc 5669 71bc 41d8 07bd c267 90bc
000002b0: 3c1f 65bd c649 883c 3fd5 01bd b8cc 983d
000002c0: 0364 b03c 3853 303c dd79 8c3c 37b2 063d
000002d0: 191d 7f3d 3457 80bc 9d2b 253c c8ea 55bd
000002e0: ab31 90bd 755c a9bc 14fc d2bc 6d24 ad3b
000002f0: 0e07 ba3c dfac 6d3c 7bed 7abc 24f4 d6bb
00000300: 5195 02bd 7e43 0e3c b720 8dbc 1e6a c1bc
00000310: 3010 e43c dbd7 efbb 2c32 1f3d b4ae 39bc
00000320: 4aaf ba3c 60ab 06bb 2e11 31bd 672b 14bc
00000330: 04e0 e03c 18cc 513c fb48 be3c 372c cdbc
00000340: 366a 20bd f939 2fbc 696e 82bc 7d56 383d
00000350: adc8 52bc 3058 a7b9 b4ec 8d3c 7f63 70bd
00000360: 0fb4 e53b 0818 94bc 010c 453d 4e4c 0e3d
00000370: 6750 d5bc 73d4 3abb fc04 02bd 14c5 06bd
00000380: 1e06 fabb b126 bbba 912a 2cbd b9c2 c33c
00000390: 26c6 cb3c 1350 32bb 1f67 edbc f5ba 99bc
000003a0: cf20 9dba 2be8 9a3b f5ea 333c 786f 69bd
000003b0: 0b87 1abd 2a40 e43c 2f9b cebc f447 4a3d
000003c0: 5ee1 2aba 6b0e a03d b280 38bd 34c4 1cbd
000003d0: 6956 28bd 5d55 313d aa94 bb3c e814 e83b
000003e0: 881d 0d3d 0f4f e2bc 30be 1e3d 82d4 913c
000003f0: d38f f63b bf76 5e3c 7620 c7bb 0dde 34bd
-0.023317259 0.0057904073 0.004640411 0.0099165775 -0.02237917 0.03369501 0.0034749878 -0.038768206
0.011681668 -0.016109247 0.0011375548 0.036731202 0.01151317 0.020682627 0.00025132432 0.007301347
0.0049409945 -0.05362893 0.002365875 -0.009055736 -0.0015872815 -0.02202395 -0.0012342705 -0.0010618533
-0.010114333 0.002824485 0.012918698 -0.0032525714 -0.010425054 -0.008246768 -0.00038192366 0.003934995
0.015059896 -0.012333068 0.025062617 0.008865131 -0.015459287 -0.010659701 0.0058280025 0.0018572141
-0.022588085 -0.024027111 -0.00805377 -0.042974375 0.05282263 0.013724093 0.026555737 0.02105396
-0.026329936 -0.013550967 0.033681493 0.026628898 -0.014965071 0.024153762 -0.007521354 -0.004349124
0.002245837 -0.0027734223 0.0051663346 -0.01199564 -0.0014430117 0.018458188 -0.059400834 0.013364279
0.0006824126 -0.0014892657 -0.0032814213 -0.020565182 -0.017719623 -0.021973373 -0.03861304 -0.00704729
0.011661222 -0.004057845 -0.016606875 -0.07050446 0.00010089919 -0.018582763 0.041970417 -0.0046661245
0.015822424 0.016797641 -0.0066522593 0.0086530065 -0.031328075 0.018850308 -0.03794677 0.009139139
-0.013811202 0.021010965 -0.021041883 0.01429233 -0.007075098 -0.070551306 -0.024466617 0.0016562957
-0.014861573 -0.014361017 0.0077891424 0.011026605 -0.019719575 0.0379329 -0.006898356 0.006201179
-0.0080425395 0.00788005 -0.010893407 0.011996691 0.0027949405 0.013943734 -0.028375056 -0.0052346764
-0.008909228 0.0077486914 0.0035824704 -0.011747784 0.007201938 0.020659138 -0.014786974 0.021996161
-0.017708044 -0.0102104 0.013889956 -0.007831492 0.0077999765 0.013863582 0.0059366897 0.008379627
-0.0016789379 0.009897116 -0.009813061 0.011135434 -0.0074611395 0.040880736 -0.03894116 -0.017495062
-0.00203669 -0.013908867 -0.06296838 -0.04757411 -0.019895209 0.023364821 -0.012263155 0.018258799
-0.0009319514 -0.013939641 -0.0042339945 -0.03883363 -0.02101341 -0.024981624 -0.042474803 -0.01728009
-0.00028736447 -0.0166107 0.0040427316 -0.023707565 0.0001867892 -0.0062494557 -0.003049224 -0.041665234
-0.0052073803 0.024281666 -0.015769375 -0.054430127 0.005381754 -0.0032216331 -0.0052468753 0.011358506
-0.020109642 -0.014734587 -0.03316522 -0.0176276 -0.05593799 0.01663674 -0.031697508 0.07460922
0.021532064 0.010762028 0.017147953 0.032884803 0.06228361 -0.015666582 0.010081199 -0.052225858
-0.070407234 -0.02067397 -0.025754966 0.0052838833 0.022708442 0.014506548 -0.015315409 -0.0065598655
-0.03188068 0.008683084 -0.017227514 -0.02361017 0.02783975 -0.007319433 0.038866207 -0.011333156
0.022788662 -0.0020548925 -0.043229274 -0.009043551 0.027450569 0.012805007 0.02322816 -0.025045497
-0.03916379 -0.010694974 -0.015921788 0.045004357 -0.012865228 -0.00031918427 0.017324783 -0.058688637
0.00700999 -0.018077865 0.04810715 0.03474074 -0.026039315 -0.0028507977 -0.031743035 -0.032902792
-0.0076301238 -0.0014278499 -0.042032782 0.023896562 0.024874758 -0.0027208372 -0.028979836 -0.018765906
-0.0011987927 0.0047273836 0.010981311 -0.05699107 -0.037726443 0.027862627 -0.025220482 0.049385026
-0.00065185677 0.0781525 -0.04504461 -0.03827305 -0.041098032 0.0432943 0.022898037 0.0070825703
0.03445199 -0.027625589 0.038755596 0.017801527 0.0075244694 0.013578116 -0.0060768677 -0.044157077

action_model._continuous_distribution.mu.bias f4 [2]
00000000: 4f09 a83c 9272 54bb
0.020512251 -0.0032416922

action_model._discrete_distribution.branches.0.weight f4 [1, 128]
00000000: aea9 a73a eb01 da3a f771 a83b e92c 1fbc
00000010: 75d6 4d3b 6f86 033c c321 a0b9 77f5 11bc
00000020: 782c 87ba 351d 6d3b d95a 8abc 9fae 5abc
00000030: 3e04 25bc 7000 68bc 97e4 fa3b f37c 663c
00000040: 7ed8 44bb 236f 64bc 0f79 6cbb 9430 b3bb
00000050: 6775 143c bf4b 03bb 7257 18bc 4846 7cbc
00000060: de19 1f39 6371 54bc 732d 3f3b 7bf8 0d3c
00000070: 20d4 d23b 8111 9dbb 3060 1cbc 2528 693c
00000080: 034f c63b 9f01 c6bb 471b 88bc 585e 833b
00000090: 632a fc3b f951 01bc 0a65 15bb 893d 02ba
000000a0: b02f d43a 2b8a 8c3c 13d0 753b 9e43 853c
000000b0: 7b57 d7bb 695d 3e3c b7fd 36bb ca6f 35bb
000000c0: 32b4 133c 8b3b 49bc eeb9 823c 4ac2 94b9
000000d0: b197 a53b d397 1a3c 0b24 113c 2a97 c93b
000000e0: c79f 113c 764c 4bb9 0802 7ebb 1d28 d73b
000000f0: b8bf f039 27cf 00bb b4b8 09bb d694 2cbb
00000100: 7524 483c e127 48bc e343 903c 7ad1 42bc
00000110: 1b3e dbbb cdcc 733c 9a10 5d3c aad6 413a
00000120: 6316 15bb 0d87 e0bb 6f64 e1bb 376c 8f3b
00000130: 5568 d43b 1bec 373c 2bd2 723a 69ea 45bb
00000140: 8da0 9a3c 0497 033b 6fc7 2bbb 68e2 f8bb
00000150: 40b5 bd3b 0d84 fabb 639d 883a 3007 703c
00000160: d739 e6bb 3b7a 33bb 9c82 a83a 4383 9fbb
00000170: 4a95 79ba ba46 6b3b 47ba c9bb fc14 383c
00000180: 673e 9739 84c1 bdba 2742 b5ba 77bb be3b
00000190: 623e dc3b 2ddd 51bc f566 323b ca06 bb3a
000001a0: b695 933a c7ab fabb c169 aebb 1736 a0bc
000001b0: dad6 33bc e2da 703b 053c 88bb 28e0 f7ba
000001c0: 68e3 b93b 5ba4 05bb da79 03bc a5f9 8cbb
000001d0: 8005 533c 7f90 0a3c 7bcd d23b 371f 2dbc
000001e0: 1019 d23c 5b44 9c3b 4445 bf3b eb75 fc3b
000001f0: e7dc d73a cb39 34bc 9f16 1abc 51d6 9b3c
0.0012791657 0.0016632652 0.005140539 -0.009715297 0.0031408344 0.008027657 -0.00030542733 -0.008908621
-0.0010312935 0.0036180739 -0.016889023 -0.013347297 -0.010071812 -0.014160261 0.0076566446 0.014067876
-0.0030036266 -0.013942513 -0.0036082899 -0.0054684374 0.009061194 -0.0020034162 -0.009298192 -0.015397616
0.00015173058 -0.012966487 0.0029171377 0.008665199 0.0064339787 -0.0047933464 -0.009544417 0.014230763
0.0060518994 -0.0060426737 -0.01661457 0.0040090494 0.0076954826 -0.007893079 -0.002279582 -0.0004968276
0.0016188528 0.017155727 0.0037508055 0.016267594 -0.006571708 0.01161895 -0.0027922222 -0.002768504
0.00901513 -0.012282263 0.015957799 -0.00028373516 0.0050534834 0.009435612 0.008858691 0.0061520534
0.008888192 -0.00019388073 -0.0038758535 0.006566061 0.0004591921 -0.0019654722 -0.0021014633 -0.002633383
0.012215723 -0.012216539 0.017610496 -0.011890763 -0.006690753 0.014880371 0.013492728 0.0007394353
-0.002274894 -0.006852037 -0.0068784277 0.004376914 0.006482164 0.0112257255 0.0009262885 -0.0030199534
0.018875385 0.0020079026 -0.00262114 -0.007595349 0.005789429 -0.007645136 0.0010422881 0.014650151
-0.007025938 -0.0027386087 0.0012856307 -0.0048679425 -0.0009520842 0.003590031 -0.006156239 0.011235472
0.00028847458 -0.0014477228 -0.0013828919 0.0058206874 0.006721304 -0.01280908 0.0027222012 0.0014268991
0.0011259827 -0.007649872 -0.0053226654 -0.019557042 -0.010976518 0.0036751558 -0.0041575455 -0.0018911408
0.005672861 -0.0020392153 -0.008024657 -0.004302221 0.012879729 0.008457302 0.0064331866 -0.010566524
0.025646716 0.004768891 0.0058371145 0.0077044866 0.0016469032 -0.011000107 -0.009404807 0.019023092
