ML Agents tutorial/Assets/results/RollerBall_2walls_2/RollerBall/RollerBall-293.onnx (onnx, 75769 bytes, 8 tensors)

network_body._body_endoder.seq_layers.0.weight f4 [128, 8]
000000 ec 59 8c 3d 2e 06 69 3e db 34 b8 3e 6f ba d3 bd
       0.06853089 0.22756264 0.35977826 -0.10338294
000010 a2 1c 5b 3d cc d3 f4 bc 69 94 dd 3e 32 f6 27 3e
       0.053494103 -0.029886149 0.4327729 0.1640251
000020 a2 68 8d be f1 e4 c5 be 54 79 c9 bd 31 09 05 3f
       -0.2761889 -0.3865123 -0.09837595 0.5196715
000030 77 b7 09 be d0 ef 0f bf 0a 03 ba bd d9 49 8d bd
       -0.13448893 -0.562253 -0.09082611 -0.06898851
000040 9a db 0a bf 9b 3e 82 be 5b 49 b7 be 6f da 16 3e
       -0.54241335 -0.2543839 -0.35798153 0.14731763
000050 af fe 41 3e ed d8 1d be 34 d8 84 3e 79 25 21 3d
       0.1894481 -0.15414782 0.259462 0.039342377
000060 7c 47 b4 be 0c 96 94 bd f3 a6 ed 3d d1 93 f1 bd
       -0.35210788 -0.07255182 0.11604109 -0.11795772
000070 7e 5b b1 3d cc 50 83 be 47 76 d0 3e b7 af 3b bd
       0.08660029 -0.2564758 0.40715238 -0.04582187
000080 2f 67 07 be d5 ad 54 3e b9 af 96 be fa c7 f8 be
       -0.13222955 0.20769437 -0.2943094 -0.4859007
000090 d6 54 b7 3e 89 f3 c2 3e c4 ec e9 bd b0 e5 be be
       0.35806912 0.38076428 -0.114221126 -0.37284613
0000a0 f0 58 d2 3e 25 e7 56 be 5a 0b 29 3e bb 83 4d 3d
       0.4108348 -0.20986612 0.16508237 0.050174456
0000b0 ea 77 e5 be 4f 23 2b 3d fd 86 b8 3e 60 f1 b9 be
       -0.4481805 0.04178172 0.36040488 -0.36316967
0000c0 96 81 64 bd 88 e9 9e 3e 38 70 38 be 67 1f 95 3c
       -0.055787645 0.31037545 -0.18011558 0.01820345
0000d0 d1 67 56 3e 46 c2 dc 3d 1b 3f 47 3e 85 97 1b 3f
       0.2093804 0.10779242 0.19457667 0.60778075
0000e0 73 9a 17 3e d9 da 50 3e 49 23 f0 be 4f 6d 07 3f
       0.14805011 0.20395984 -0.4690192 0.52901167
0000f0 49 1e ce be 32 e0 7a bd 7e d6 a9 3e 54 96 e8 3e
       -0.4025748 -0.061248966 0.33171457 0.4542719
000100 78 6d 07 bf 56 b5 bb be 01 b5 06 3f 28 d5 0e 3f
       -0.5290141 -0.36661786 0.5261994 0.55794
000110 85 a1 cc 3e 66 24 be 3d 18 82 36 3e da d7 66 be
       0.3996698 0.09284286 0.17823064 -0.22543278
000120 29 56 63 3d 9d bc 1a 3f 3c e5 22 be 35 95 db 3e
       0.05550209 0.6044405 -0.15907758 0.42887273
000130 3b 1b 03 3f ef 88 55 3f 32 ff 89 3e 0f 47 0c bf
       0.51213425 0.8341207 0.2695251 -0.54795927
000140 05 f9 87 3c 37 e6 f6 3d 43 d6 4f 3e 11 b2 bb bd
       0.016598234 0.12055629 0.20296578 -0.09164823
000150 2d 71 a6 be 9a 2a 6c 3c d1 04 8d be 22 3d ce 3e
       -0.3250822 0.014414454 -0.27542737 0.40281016
000160 a3 c8 08 bf 29 6d e6 be f3 de 98 be b5 ed ef be
       -0.5343115 -0.45005158 -0.29857597 -0.46861044
000170 c4 7e 4a bf a5 50 92 be 31 9e 0e bf cc bc b3 be
       -0.7909968 -0.28577152 -0.5571013 -0.35104978
000180 0a b2 92 be 5e 6a 13 3e 27 d9 d3 bd ee fe fb bd
       -0.28651458 0.14396045 -0.10344153 -0.12304483
000190 0c 2e 31 3e 07 5c 97 3e 5a aa 3c bf ab e4 2a 3e
       0.17302722 0.295624 -0.73697436 0.16688792
0001a0 63 8b 83 3e 04 f5 2c bf 0e 29 25 3f 4e 75 4a be
       0.2569228 -0.67561364 0.6451577 -0.1977131
0001b0 ff a6 e9 be 0b 0c 38 be f5 b6 77 3d 00 54 c9 bd
       -0.4563522 -0.17973344 0.060477216 -0.09830475
0001c0 09 06 83 3e 05 53 2b be bf ac d0 3e 5d 42 4a 3e
       0.25590542 -0.16730888 0.40756795 0.19751878
0001d0 ef 35 05 3e ec 62 f5 3d b2 55 ce bd d5 9a ee bc
       0.13008855 0.119817585 -0.10074939 -0.029126564
0001e0 84 18 59 3e 73 54 1c 3f e9 b0 d8 3e 0a 64 73 3e
       0.21200758 0.6106636 0.42322472 0.2376863
0001f0 51 a1 34 be 0c df 34 3f a1 3d 21 3c 94 a4 f4 be
       -0.17639662 0.7065284 0.009841354 -0.47781813
000200 74 e6 16 bd 59 43 e2 3d 14 3d 8b 3e 48 d4 54 be
       -0.03684087 0.11048002 0.27195036 -0.20784104
000210 8f ee e3 bd 10 a1 cc 3e 1b 61 0e be 2a bf 55 bf
       -0.11129486 0.3996663 -0.1390423 -0.8349482
000220 5e b2 9d 3e 07 13 bd 3d 1a 90 bc be 8a 6c 70 be
       0.30800146 0.09232145 -0.3682869 -0.23478904
000230 f2 4a 98 3e 3d a9 84 3e 6d 48 85 be dc ec 5c bd
       0.2974468 0.2591037 -0.2603182 -0.053936824
000240 2d 17 bf be e9 36 01 3e fe 26 3a bf 7e 97 15 3e
       -0.3732237 0.12618603 -0.7271575 0.14608571
000250 da 17 35 3f c9 53 e0 3d 1f c0 eb bb ef b4 00 3f
       0.7073952 0.10953481 -0.0071945335 0.5027608
000260 19 6c 85 be 72 53 89 3e 16 42 9f be b7 2d ea be
       -0.26059034 0.26821476 -0.31105107 -0.45738003
000270 16 2d 0f 3e b1 17 e4 be 48 c9 90 be 8b dc 16 3e
       0.13982043 -0.44549325 -0.28278565 0.14732568
000280 c4 95 50 3e f7 e1 9a be d4 34 98 be 08 a3 11 3d
       0.20369631 -0.30250522 -0.29727805 0.03555587
000290 2b f8 11 3f 5d 09 09 bf 8d d4 cf be 4f 2f d6 3e
       0.570193 -0.5352991 -0.4059185 0.4183297
0002a0 36 29 34 bd c9 e6 5d 3d 4a c3 ae be 29 b1 fa 3c
       -0.043984614 0.054175172 -0.3413337 0.030602055
0002b0 3a 17 a0 3e 40 26 82 3e 8d 20 4d be 29 d7 fb be
       0.3126772 0.25419807 -0.20031948 -0.49187592
0002c0 4b fa 8d be cc 3a 79 3e 87 70 5e be 23 3a c2 bc
       -0.2773002 0.24338835 -0.21722613 -0.023709362
0002d0 29 7b a3 3e 2e c4 1a 3f c1 68 18 bf 86 a2 88 3d
       0.319299 0.60455596 -0.5953484 0.06671624
0002e0 c8 15 f9 3e 7f 66 fc bd 04 05 10 3f 0f 51 59 3e
       0.4864943 -0.12324237 0.56257653 0.21222328
0002f0 b0 70 b1 be 04 a9 53 be 1c 33 7b be e2 67 a2 be
       -0.34656286 -0.20669943 -0.24531215 -0.3171988
000300 2d 52 bd be 57 2f a1 be 43 ee b8 3d a8 36 70 3e
       -0.36976758 -0.3148143 0.0902982 0.2345835
000310 44 d2 00 be 69 9b 3e 3e e7 19 fb 3d e2 f8 dd 3e
       -0.1258021 0.18613972 0.122608 0.43353945
000320 22 d6 ff 3d 93 32 59 bd a2 38 0f 3e 43 c3 70 3e
       0.124920145 -0.053026747 0.13986447 0.23511986
000330 95 66 df bd 40 3e 05 bc bc 12 20 bf e4 7e 1f bf
       -0.10908238 -0.008132517 -0.62528586 -0.62302995
000340 2f d3 94 bd b6 33 d3 3e 1b c0 64 3e 4c 16 2d bd
       -0.072668426 0.4125039 0.22338907 -0.042257592
000350 d4 79 50 3e 80 19 85 be 76 38 8c be f2 f5 1c bd
       0.20358974 -0.25996017 -0.27386826 -0.03832049
000360 2e 4b b1 be cc 6c cd be e7 93 cc be 31 08 f9 3d
       -0.3462767 -0.40122068 -0.3995659 0.121597655
000370 33 e7 c1 3d d9 f9 af 3d ca 8a 68 be e0 ec a1 3e
       0.09467926 0.085925765 -0.22709194 0.31626034
000380 dd f7 81 3e 68 bc cf be 68 a1 3f 3f f2 07 95 3e
       0.25384417 -0.4057343 0.7485566 0.29107624
000390 88 8b 12 3f 74 7a ed bb 88 de 45 be 11 a9 ee 3d
       0.5724416 -0.0072472636 -0.1932317 0.116533406
0003a0 e7 28 2e 3e 88 1a 0c be 44 d8 0d 3e 17 7c 3f be
       0.1700779 -0.13681996 0.1385203 -0.1869968
0003b0 99 4f 4b be 9d 5b 69 3e da f7 cc 3e a3 9b 94 be
       -0.19854583 0.22788854 0.40032846 -0.2902499
0003c0 0e de 1b bf 26 e7 60 be 47 4c cc 3e b0 ad 1d be
       -0.60885704 -0.21963176 0.39901945 -0.15398288
0003d0 45 7d 8a 3b 90 cb 9c be 5d f1 01 bf cc 31 a1 3d
       0.004226359 -0.30624056 -0.50758916 0.07870826
0003e0 76 bf 00 3e 33 db 60 bd f4 9e bb 3e c3 c6 31 3f
       0.12573037 -0.054896545 0.3664471 0.6944391
0003f0 6a bf a5 be b9 f2 33 bf ae bc b5 be 6a fd 36 bf
       -0.323726 -0.7029224 -0.35495514 -0.7148043

network_body._body_endoder.seq_layers.0.bias f4 [128]
000000 94 2a 35 bb 0c a4 4a 3b 9a b2 18 3a e0 cc 13 bb
       -0.0027643787 0.0030920533 0.00058249536 -0.0022552535
000010 b0 76 db ba 98 14 a4 ba 21 1e 2d 3b 37 85 b1 b9
       -0.0016743746 -0.0012518344 0.0026415663 -0.00033859324
000020 11 37 89 ba d0 c1 02 3b 7e 20 2f 3b ff 3c ac ba
       -0.0010468682 0.0019951947 0.0026722248 -0.0013140737
000030 cb c8 2b ba 67 5c 43 bb 85 21 c0 3a bb 53 1a 3b
       -0.0006553053 -0.0029809715 0.0014658427 0.0023548442
000040 f2 2b f3 ba e2 f8 a0 3a c3 82 f5 3a 8b 88 04 3a
       -0.0018552525 0.0012281204 0.0018730987 0.0005055747
000050 ba d6 13 3b ff 15 60 3a 10 b1 e7 3a 2d 21 31 3b
       0.0022558407 0.00085481995 0.001767667 0.002702783
000060 d7 32 56 bb 0e a4 8a ba d6 71 7e 39 8a bb 02 3b
       -0.0032684112 -0.0010577457 0.00024265735 0.0019948208
000070 3b 77 db 3a 88 5b 11 ba d2 50 dc bb bf f9 5c 3b
       0.0016743907 -0.000554495 -0.0067235017 0.0033718196
000080 6f b1 3b 3b 60 c9 00 3b df e3 a6 3a 68 4b 8e 3a
       0.0028639694 0.001965128 0.0012732706 0.0010856213
000090 3e 0a bd 3a 19 aa 7d ba cc eb 51 ba 18 3c 06 bb
       0.0014422608 -0.00096765306 -0.0008007854 -0.0020482596
0000a0 ad ae 21 bb 81 e8 99 ba 34 ec 0a 3a 13 74 82 ba
       -0.0024670765 -0.0011742265 0.0005299479 -0.0009952806
0000b0 c3 8e 4a b8 d6 64 76 3b c1 96 34 bb 6c 62 10 bb
       -4.829351e-05 0.0037596724 -0.0027555677 -0.002203132
0000c0 13 84 91 bb 04 03 25 bb d5 03 94 3a 64 f1 a5 3a
       -0.0044407933 -0.00251788 0.0011292646 0.0012660441
0000d0 e2 73 c7 3a d2 80 b7 3a fa 77 76 bb b0 b7 e0 b8
       0.0015217031 0.0014000183 -0.0037608133 -0.00010715367
0000e0 49 58 dc ba fd e4 19 bb 18 97 22 bb 63 0f 04 bb
       -0.0016810979 -0.0023482435 -0.0024809297 -0.0020150773
0000f0 79 34 af 3a b8 87 bf ba 10 99 de b9 a3 57 37 3b
       0.0013367078 -0.0014612591 -0.0004245718 0.002797582
000100 17 c1 85 3b 13 e6 c9 3a 0f 36 eb ba b8 78 35 bb
       0.004081856 0.001540365 -0.0017945188 -0.0027690362
000110 4d 75 e6 ba 30 9b 00 ba a4 6b 6e 39 1d ec 1f ba
       -0.0017582566 -0.0004905937 0.00022737548 -0.0006100552
000120 86 f1 28 ba 93 16 41 bb f0 bd 8d ba 11 75 2b 3b
       -0.0006444681 -0.0029462918 -0.0010814052 0.0026162306
000130 39 cc fd 3a 27 2c 6e ba 88 e2 f6 39 ca f8 a8 3a
       0.0019363231 -0.00090855587 0.00047089555 0.0012891528
000140 4e 3a 8b b9 74 ad fd ba e1 c0 c1 39 06 3e 55 39
       -0.00026555586 -0.0019354061 0.00036955535 0.00020336368
000150 d3 50 a2 ba d6 a5 63 b9 c5 72 32 39 26 f5 21 3b
       -0.0012383707 -0.00021710186 0.00017018158 0.002471277
000160 f5 0a 4f b9 43 29 5b 3b 3a 7d 62 ba a8 85 0c 39
       -0.0001974514 0.0033441342 -0.0008639876 0.00013401231
000170 8e 20 c0 ba 0e 26 48 ba 9e 71 d1 b9 c9 db 5e ba
       -0.001465814 -0.0007635065 -0.00039948238 -0.00085013785
000180 c0 55 94 37 77 a3 da 3a 55 4b ee 3a 4c c2 7a ba
       1.7682905e-05 0.0016680796 0.001818041 -0.00095656957
000190 f8 f4 5c 39 cc e2 0a b8 51 26 d4 39 9f 79 cd 3a
       0.00021072093 -3.3112985e-05 0.0004046434 0.0015676505
0001a0 93 63 e0 b9 99 90 f3 ba 3a d8 8c 3b a8 ca b3 39
       -0.00042798798 -0.0018582522 0.004298237 0.0003429253
0001b0 b6 41 39 3b 8b be 30 3b b0 26 16 3b 9e a6 0a bb
       0.0028267927 0.0026969041 0.0022911243 -0.002115644
0001c0 86 f9 8f 3a e3 ea fa 3a 2c 21 59 3b 79 e2 5c 3b
       0.0010984398 0.0019143488 0.0033131344 0.0033704324
0001d0 38 e0 f8 ba 20 d2 64 ba 1b d7 21 3a 2d 1e dc ba
       -0.0018987721 -0.0008728821 0.0006173716 -0.0016793661
0001e0 d9 49 0d 3b 55 b5 21 bb 33 94 14 b9 1f b5 1e 3a
       0.002155891 -0.0024674733 -0.00014169588 0.0006054211
0001f0 3d 9f 5f ba 74 c4 6c 39 ef c4 b8 39 f1 b5 13 bb
       -0.0008530503 0.00022579898 0.00035241942 -0.0022538865

network_body._body_endoder.seq_layers.2.weight f4 [128, 128]
000000 04 8e 28 3d 46 5a 91 3c a2 59 f1 3d 70 98 46 bd
       0.04115106 0.017743241 0.11784674 -0.04848522
000010 4e 90 33 be c2 04 a0 3d 76 ae 96 bd 37 4c 2f bd
       -0.17535517 0.078134075 -0.073574945 -0.042797294
000020 b8 60 f1 3c ee 7c 0c bd 14 1a cc 3d 56 e1 90 bd
       0.029465064 -0.03429883 0.099659115 -0.070742294
000030 69 8a 50 bc 4e c8 c8 3c 7a 3e 18 3e 61 22 0b bd
       -0.012728312 0.024509575 0.14867583 -0.033968333
000040 0c 78 10 3c ee a7 1c 3d 71 83 9a bd 93 a1 b2 3d
       0.008817684 0.038246088 -0.07544602 0.08722224
000050 cc af 3b 3e ec 1b ff 3d f0 94 17 bd 01 aa 17 3e
       0.1832878 0.124564976 -0.037007272 0.14810945
000060 e0 07 c0 3d e5 76 cd 3c 0c 42 a1 bc b8 a6 2d be
       0.09376502 0.025081107 -0.019684814 -0.1695813
000070 fa c2 7d bd 79 5c 18 3e 45 0f c9 3d ae 43 d1 3d
       -0.061953522 0.14879026 0.098173656 0.10217987
000080 34 6f e3 3d 03 c4 b7 bd 08 cf 80 3d 02 26 1a 3d
       0.11105195 -0.08972933 0.06289488 0.037633903
000090 e4 ee 83 bd 94 12 39 3e 40 cf e0 3d 34 ae 4a 3d
       -0.06442049 0.18073493 0.1097703 0.04948254
0000a0 82 b9 6a 3a 9f b5 ba 3c 6a 59 49 bd bf a4 e8 3d
       0.00089540344 0.022791682 -0.049157538 0.11359548
0000b0 f2 58 3d 3d 54 b4 51 3c 53 58 2f be 4c ea 84 3d
       0.046227403 0.012799341 -0.17123537 0.06490001
0000c0 31 2b 6f bc d7 c3 01 be 90 2d 97 bd 78 9a 08 be
       -0.0145977 -0.12672363 -0.07381737 -0.13340175
0000d0 3d 0e 48 bd bc 1f ba bd ed 32 cb bd 79 29 15 3d
       -0.048841704 -0.09088084 -0.09921823 0.036416505
0000e0 81 9f ee 3c 9d b1 83 3d b0 97 a9 3d d7 b1 19 bc
       0.029128792 0.064303614 0.08280885 -0.009380779
0000f0 f6 81 54 bd ec 6c 64 bd 37 36 d1 3c 2a 50 fd bd
       -0.051881753 -0.05576794 0.025538547 -0.12368806
000100 a4 d2 99 bd 29 be 0f 3e a2 fd 1e 3b 3b 09 f3 3d
       -0.0751088 0.14037384 0.0024260064 0.11866995
000110 ed b6 ab ba a8 27 81 3d ff d5 04 3e 46 12 2f bd
       -0.0013100781 0.06306392 0.12972258 -0.042742036
000120 f8 39 45 bc 3e c8 72 3d 12 ea 40 bd 32 70 38 3d
       -0.012037747 0.059272997 -0.047098227 0.045028873
000130 1a 99 bd 3d 1a 2b ff ba 60 dd 49 bb c7 82 2b be
       0.092577174 -0.0019467801 -0.0030802116 -0.16749106
000140 8a e3 77 bd d1 9a 58 bd 43 da 67 bd 86 80 9e 3d
       -0.060519733 -0.05288202 -0.056604635 0.07739358
000150 47 58 ff bc 99 58 5b bc 1b 48 bd bc 47 01 c4 3d
       -0.031170024 -0.013387823 -0.023105672 0.09570556
000160 0c c1 81 bd f9 fc 5e bc 85 0b da 3d fe fd bc bc
       -0.06335649 -0.013610118 0.106467284 -0.023070332
000170 08 25 b6 bd 41 b6 a8 bc 8b 03 59 bd bc d2 bc bd
       -0.08893782 -0.020594718 -0.052981894 -0.09219882
000180 c6 c1 4f bd 41 a3 6e bd 75 2f 39 bc f4 22 2a 3d
       -0.050721906 -0.05826116 -0.011302819 0.04153724
000190 ef 5e 3d 3e 9e 2c 4b 3c d5 4c 94 3d 97 1d 09 3d
       0.18493246 0.012400774 0.07241217 0.033475485
0001a0 8f 3b b4 bd f2 ef 85 bc 0f d2 25 bd 2e e3 8d bd
       -0.088004224 -0.016349766 -0.04048353 -0.06928097
0001b0 8b 8e 35 bd 81 19 dc 3c de f5 1a 3e 65 55 a0 3d
       -0.044325393 0.02686763 0.15132853 0.07828788
0001c0 42 8c 17 3c 1f d2 72 3e db 19 99 3c d6 24 89 3c
       0.009249749 0.23712967 0.018689087 0.016741198
0001d0 fb 64 82 3d c3 e2 b7 ba bb 60 80 3a 93 5d 97 bc
       0.06366917 -0.0014029372 0.0009794453 -0.018477237
0001e0 c4 08 a8 bc a7 34 01 be a4 c1 7b 3d 59 2d 23 3e
       -0.020511992 -0.12617742 0.061463967 0.15935268
0001f0 1b 35 4b be 84 94 b7 3d c9 9e e4 bd d3 a9 84 3c
       -0.19844477 0.08963874 -0.11163098 0.01619426
000200 48 70 1f 3e 3c 96 19 be 39 21 1d 3d 74 12 09 be
       0.15570176 -0.14998716 0.03836176 -0.13385946
000210 e0 0e bb bd 22 b7 39 3d e2 fe ed bc fa 1f 8f bb
       -0.091336966 0.045340665 -0.029052202 -0.0043678256
000220 73 32 a9 3d cf d2 b1 3c 1f f7 1b 3d 39 0c c1 bd
       0.082615755 0.021706967 0.03807747 -0.094261594
000230 ba 93 81 bd b8 57 59 bd 72 b4 75 bc 96 c9 33 bd
       -0.06327005 -0.05306217 -0.014996635 -0.04389342
000240 66 e4 03 be 87 de a7 bd f6 32 2e 3d a9 7f 04 3d
       -0.12880096 -0.081967406 0.04252907 0.03234831
000250 09 6c 7b be 87 c4 ac 3c 5b 38 b3 bc 43 b4 fe bc
       -0.24552931 0.021089805 -0.021877458 -0.031091815
000260 c1 79 75 bd 47 59 07 3d 37 4d e3 3b f6 02 1b 3d
       -0.059930567 0.033044126 0.006936695 0.03784462
000270 ae 5d ed bd 4c 22 d4 bd 87 70 fd bc 7c a5 e8 3d
       -0.115901336 -0.10358104 -0.030937446 0.11359689
000280 9b 4f 0f 3d 0d d2 7c bc d3 73 c6 3d b7 71 28 bd
       0.034988027 -0.015430939 0.096900605 -0.041124072
000290 08 6b b2 3d d7 8a 96 bd 89 35 fe bd 72 b4 2a be
       0.08711821 -0.073507 -0.12412555 -0.16670397
0002a0 be 3b 26 3d 58 be f1 3d 0a ae 0b bd 08 41 d7 3c
       0.04058432 0.11803883 -0.034101523 0.026276127
0002b0 c3 da 22 bc 19 70 29 be c7 ea 60 bd f7 3b d5 bd
       -0.009939852 -0.16546668 -0.0549114 -0.10411828
0002c0 d5 58 ab bd 97 4d 68 bc 32 b3 b9 bd 2c 39 81 3b
       -0.08366553 -0.014178655 -0.09067382 0.003943583
0002d0 2c 2e ea 3d b6 82 d8 bc bd 08 ac 3d 92 15 b3 3a
       0.11434588 -0.026429515 0.08400104 0.0013663045
0002e0 13 35 f4 bd 46 68 ce bb 33 70 dd 3b 47 d4 15 be
       -0.119241856 -0.0062990515 0.00675776 -0.14631759
0002f0 3c d3 65 3d e0 d6 79 bd bb 96 ff bc 37 5b e8 bd
       0.056109652 -0.060995936 -0.031199804 -0.11345523
000300 62 56 7f bc 93 5c f7 bd 23 bf d9 3d 5d c9 98 bd
       -0.01558456 -0.12078204 0.106321596 -0.07460282
000310 6f a4 39 be 15 73 20 3d 20 3b b0 3b 87 89 dd bc
       -0.18129133 0.03917225 0.005378142 -0.027043117
000320 60 61 25 3c f8 00 03 3e 27 12 47 bd 78 6c f2 bc
       0.010094017 0.12793338 -0.048601296 -0.029592738
000330 20 3c ad bd 69 27 75 3d 10 a8 c5 3d ab ac 7e 3d
       -0.084587336 0.059852038 0.09651196 0.062176388
000340 bb d1 65 bc d2 74 5a 3c 22 5e d8 3b 64 ab c6 bd
       -0.014027054 0.013333516 0.0066030184 -0.09700659
000350 40 47 10 bc 7b 95 ff 3a 9f 15 8a 3c 5a 43 14 bc
       -0.00880605 0.0019499505 0.016856013 -0.009049261
000360 a1 e7 ac bc 79 71 9b bd da f8 52 3d 98 ee 24 bd
       -0.021106543 -0.075900026 0.051506855 -0.040266603
000370 dc 29 43 bc 3e c7 da 3d 2f b9 1f bd 7b 13 0f 3e
       -0.0119118355 0.10682534 -0.038994964 0.13972275
000380 9e 11 f8 bc 7d 94 19 bd 3b 35 b2 bd d5 37 8b 3d
       -0.030281838 -0.037495125 -0.08701559 0.067977585
000390 13 80 4b be 72 e5 f3 bd 5e 17 43 bb b1 1e 05 3e
       -0.19873075 -0.119089976 -0.0029768567 0.12999989
0003a0 39 5a a6 bd ca de 4c 3d 4c a0 7b bd 30 a0 40 3d
       -0.08122677 0.050017156 -0.061432168 0.047027767
0003b0 81 7b cb 3d 83 96 5a bc aa 32 9b bc 8b e7 2a bd
       0.09935666 -0.013341549 -0.018945057 -0.041724723
0003c0 21 63 8b bd af 24 90 bd bd 80 47 3d 9d 91 d8 3d
       -0.06806017 -0.07038247 0.04870676 0.105746485
0003d0 73 4c f7 3d 08 9b a7 3d 04 75 27 ba c9 af cd 3d
       0.120751284 0.08183867 -0.0006387981 0.10043294
0003e0 88 73 17 be 6d c2 d1 bd 90 18 b8 bd 1c 94 3f bb
       -0.14790165 -0.10242162 -0.0898906 -0.0029232567
0003f0 44 a0 93 bd e8 d4 e5 3d d1 61 2a bc ed af 44 be
       -0.072083026 0.11222249 -0.010399298 -0.19207735

network_body._body_endoder.seq_layers.2.bias f4 [128]
000000 1b 9a e1 3a f6 2b cb ba cb f9 c2 ba 1d 58 02 bb
       0.0017212065 -0.0015500772 -0.001487547 -0.0019888945
000010 98 5c 6b 3b f9 93 9e 3a 6e 62 1b bb 54 43 11 3b
       0.0035913344 0.0012098543 -0.0023709792 0.0022165375
000020 40 fe a5 ba 53 19 d4 ba 0d 6f 3b ba 1d d6 06 3b
       -0.0012664273 -0.0016181864 -0.0007150032 0.0020574399
000030 0c 39 b1 bb e2 7c ab 3a d0 f9 ae ba b2 42 28 3a
       -0.005408412 0.0013083483 -0.0013349596 0.000641863
000040 d8 5e c8 3a 60 ca 86 ba a3 8b 02 3b e5 8d 96 3a
       0.0015287055 -0.0010283701 0.0019919656 0.001148638
000050 30 9a 46 bb 42 ed 31 3a c9 80 c4 3a 7e fd 54 ba
       -0.0030304305 0.00067873683 0.0014991994 -0.00081249315
000060 7a 82 00 ba 7c f8 4a ba 44 62 0b 38 2e 9a d4 3a
       -0.0004902255 -0.00077427155 3.32317e-05 0.0016220266
000070 a1 16 75 3a 78 79 07 bb db 04 dd 3a 1d 81 f7 ba
       0.000934938 -0.0020671766 0.0016862409 -0.0018883083
000080 72 ac 35 39 21 a3 ce ba 8d 04 56 bb 56 fc 98 3a
       0.00017325746 -0.0015765169 -0.003265652 0.0011671882
000090 47 c6 ff 3a a6 9b 26 bb ce b5 7d 38 6c 21 03 bb
       0.0019514047 -0.0025422364 6.048922e-05 -0.0020008935
0000a0 7b 6f da ba ea cc fb ba 83 5d 91 39 50 92 26 ba
       -0.0016665304 -0.001921085 0.00027726227 -0.00063542
0000b0 7d 4f 6a 3a 42 4d 47 b9 e2 6d a6 ba 34 9f 4a b9
       0.0008938236 -0.000190069 -0.0012697543 -0.00019323529
0000c0 a0 c2 0c bb bd 70 06 3b a7 16 b9 3a 14 b4 5e 3b
       -0.002147831 0.0020513975 0.0014121131 0.0033981847
0000d0 4a 70 e6 ba cd ba 60 bb 8f f8 86 3a fe 97 a8 ba
       -0.0017581072 -0.003429103 0.0010297465 -0.001286268
0000e0 99 9a 15 bb e3 4e 17 bb 99 73 69 3a ab d0 55 bb
       -0.0022827743 -0.0023087792 0.000890547 -0.0032625597
0000f0 ab 5d cb ba 3c d1 f8 ba b6 93 cb 36 b3 19 20 3b
       -0.0015515586 -0.0018983255 6.0670673e-06 0.002442938
000100 db 91 00 bb 9b 90 44 3a 2b 32 c4 39 5d 34 f2 3a
       -0.0019618187 0.00074983545 0.0003742141 0.001847874
000110 95 a0 91 ba ff 75 e1 39 7b 96 a8 3a 0d a9 3e 3a
       -0.0011110479 0.00043003258 0.001286223 0.00072731153
000120 17 a4 f2 ba 1d 5c 84 b8 da a1 25 3b a5 63 cd ba
       -0.0018512037 -6.311408e-05 0.0025273473 -0.0015669955
000130 70 36 1f bb 6d 0a 8b 3a 6c 4d 48 bb 4b 08 84 b9
       -0.0024293922 0.0010607966 -0.0030563725 -0.0002518318
000140 d7 4c 15 3b 10 cf 33 bb e1 9e 05 bb aa 30 04 ba
       0.0022781396 -0.0027436651 -0.0020388889 -0.0005042652
000150 61 f8 0a 3b af 36 d7 3a 1a 03 40 3a f3 ed 11 3b
       0.0021205174 0.0016419495 0.0007324681 0.0022267073
000160 9f 7e 36 39 49 45 a9 ba af 4e c4 3a 7d 5a 75 bb
       0.00017404043 -0.0012914325 0.0014977063 -0.0037437968
000170 56 24 33 3b 9e e2 8d ba 13 bb 46 bb b7 b6 22 3a
       0.002733489 -0.0010824983 -0.0030323907 0.0006207036
000180 f2 ff 40 bb c8 6c fa ba c9 1e c8 38 84 82 90 ba
       -0.002944943 -0.0019105906 9.542477e-05 -0.0011025225
000190 46 b5 9a ba d4 dd 06 bb e7 ea 4c 3b 56 b7 3d bb
       -0.0011803291 -0.0020578997 0.0031267942 -0.0028948388
0001a0 fe 70 d7 ba 6f e9 6b ba a3 88 f6 39 e1 41 ed ba
       -0.0016436873 -0.0008999323 0.0004702258 -0.0018101298
0001b0 e9 70 b3 b9 95 1a e3 3a a3 bc 7e 38 3f 0e 46 bb
       -0.00034225665 0.0017326648 6.0734e-05 -0.0030220894
0001c0 84 4a b6 ba 9a be 46 bb 2d da 94 ba 53 a3 fc 3a
       -0.0013907705 -0.003032601 -0.0011356525 0.0019274749
0001d0 d3 5f 02 bb 68 ea fb 3a a8 06 50 bb 01 07 85 3b
       -0.0019893541 0.0019219639 -0.0031742249 0.004059673
0001e0 46 ce 8e ba 08 96 05 bb 34 fc 48 3b 06 1d b2 3a
       -0.0010895215 -0.0020383615 0.0030667903 0.0013588972
0001f0 2f ac 0a bb 2d 3e c1 b9 04 15 9f 3a 36 25 05 bb
       -0.0021159758 -0.00036858153 0.0012137 -0.002031637

action_model._continuous_distribution.log_sigma f4 [1, 2]
000000 a9 cd 6e ba c7 a5 34 ba
       -0.0009109625 -0.0006891158

action_model._continuous_distribution.mu.weight f4 [2, 128]
000000 45 74 7f 3b de f8 36 bc 47 e3 05 b9 91 4a 5d bc
       0.0038979214 -0.011167733 -0.00012768536 -0.013506548
000010 c1 00 c7 bb c8 75 49 3c 5b e6 9f bc 84 fc 3a 3c
       -0.006073088 0.012296148 -0.019519022 0.0114127435
000020 35 1b 9e 3c 07 56 df 3c 55 d0 9f 3c af 22 7b bc
       0.019300083 0.0272627 0.01950852 -0.015328093
000030 fa af 45 bb 3e b5 ab ba 52 c0 86 bc dc 40 45 3d
       -0.0030164705 -0.0013100279 -0.016449127 0.048157558
000040 63 4c 04 3c 1a 9f 5d bc b7 73 de 3a dc 9e 5e bb
       0.008074853 -0.013526702 0.0016971742 -0.00339692
000050 84 e7 0b bc 3c 40 7e bc 5f 20 eb 3c dc 68 8c bc
       -0.008539084 -0.015518244 0.02870196 -0.017139845
000060 f3 a4 05 3c 68 b0 b3 3c a4 4e 08 3d f5 96 00 3d
       0.008157003 0.021934703 0.033278123 0.031393964
000070 91 9e 5e 3c 73 ac 0c bd 32 f6 93 3c 6b 01 d0 bb
       0.01358761 -0.034344148 0.018061731 -0.0063478253
000080 6d 37 42 bd 80 1e ef bc 76 34 ef 3a 49 3f 5a 3b
       -0.04741614 -0.029189348 0.0018249888 0.003330188
000090 da a6 94 3b 3f 5b 65 bc ca a6 07 bc 9e 2c 6f bc
       0.004536492 -0.013998806 -0.008279512 -0.01459804
0000a0 45 4c 45 bc 94 0d b8 bc 2b 6d 8c bc 3d d4 17 bd
       -0.01204211 -0.022467412 -0.0171419 -0.03706764
0000b0 f8 c2 d0 3c e2 a2 4d 3c 0e f5 42 3c 03 43 8e 3a
       0.025483593 0.012551041 0.011899246 0.0010853711
0000c0 64 cf 82 3b 0d 5b 84 3c d3 97 db 3b 33 5c 80 3c
       0.003992008 0.016156698 0.0067014485 0.015668964
0000d0 b6 a7 85 bc e4 39 a9 3b 96 f5 60 3c 21 85 ec bb
       -0.016315322 0.005164372 0.013730427 -0.0072180186
0000e0 51 5f 9e bb 53 ac d2 3a a3 90 60 bc 77 ff 9b bc
       -0.00483314 0.0016073085 -0.013706359 -0.019042714
0000f0 fb b9 53 3c aa 17 13 b9 8b a3 d7 3b e4 8f 25 3d
       0.012922759 -0.00014027828 0.006580775 0.040420428
000100 5a f1 16 bc f6 3c 26 3b b9 56 bb ba 90 1a ba bb
       -0.009212816 0.0025365925 -0.0014292813 -0.005679436
000110 0f f5 95 3c 90 80 47 bc d6 0f 0a 3c e8 48 f4 3b
       0.01830533 -0.012176648 0.008426627 0.00745498
000120 24 89 34 bb 75 8c 20 bc a8 9e 25 3d b2 aa 1b bc
       -0.0027547562 -0.009799113 0.04043451 -0.009501146
000130 9d a4 bb bb 4b cc 0a 3d f8 0b 09 bc f8 16 1b 3c
       -0.0057264105 0.033886235 -0.00836467 0.009465925
000140 56 ab 39 3c af 53 15 3c 72 1f 58 bb 2e f4 01 3d
       0.011332354 0.00911419 -0.0032977727 0.03172701
000150 3f 93 a3 3a 85 47 c3 bb 84 27 00 3d 19 5b 2b 3c
       0.0012479796 -0.0059594535 0.031287685 0.010458731
000160 32 0b db 3c ea 8e 7e 3c 97 a2 14 3d fc b9 97 bb
       0.026738737 0.015537003 0.03628787 -0.0046303254
000170 68 89 75 bb 00 65 bb bc bf 84 3f 3c 0d 39 95 3c
       -0.0037465934 -0.022875309 0.011689364 0.01821568
000180 69 53 a8 bb a8 5a 1d bd 4b 4b 93 ba 63 60 f0 3c
       -0.0051368964 -0.038416535 -0.0011237649 0.029342836
000190 fd 52 db bc 91 58 ba 3c 12 f7 26 3c 3c ef f0 bb
       -0.02677297 0.02274731 0.010190742 -0.0073527377
0001a0 0c 1b 3d bc fc 8b 39 bc c2 8c 39 3c db 46 f1 3c
       -0.011542093 -0.011324879 0.011325063 0.029452732
0001b0 b2 80 80 bb d3 86 d8 bb 22 f8 cf bc fb 4a 31 bc
       -0.0039215917 -0.006607869 -0.025386874 -0.010821099
0001c0 19 fd a3 bc 32 b7 3b 3c 17 a8 27 bd 5c ad 54 bc
       -0.020018147 0.011457251 -0.040931787 -0.012980785
0001d0 b4 8b 89 bb 30 53 ca 3c 72 9f a4 3a 3d bd 82 bc
       -0.004197562 0.02469787 0.0012559725 -0.015959376
0001e0 ff 94 9d bc 3c a3 0c ba 5c 4e ce 3b 03 31 d0 3c
       -0.019236086 -0.00053649 0.0062959623 0.025413996
0001f0 65 7f 9c bb 1b 60 98 3c a8 e7 38 3c 1d ed b9 3a
       -0.004775929 0.018600514 0.0112857 0.0014185045
000200 a9 34 e6 3c 4b 87 41 bc 2e ba 94 3b 20 b3 f6 bc
       0.028101282 -0.0118120415 0.004538796 -0.03011471
000210 c2 9c 63 3c 73 43 97 bb 4f 70 68 bc 67 61 45 3c
       0.013892354 -0.004616195 -0.014186933 0.012047148
000220 11 df 0b bc ce 5e da bc ee 52 9a bb ee e9 f6 bc
       -0.00853707 -0.026656535 -0.004709593 -0.030140843
000230 29 8e bd bc 9f ec 8a 3c b3 9f 07 3c 83 26 a3 bc
       -0.023139076 0.016958533 0.008277821 -0.019915825
000240 d6 f5 00 bd 24 48 31 bb 51 cd 7c 3b 26 43 8f bc
       -0.031484447 -0.0027051056 0.0038574527 -0.017488074
000250 f1 26 50 3c d0 8b 31 3c 50 a0 af 3c 37 93 6e 3b
       0.012704597 0.010836557 0.021438748 0.0036403665
000260 09 78 15 bd b9 8a 15 bc 10 e3 a0 3c 8d 27 4b 3c
       -0.036491428 -0.009127312 0.019639522 0.012399566
000270 a4 63 91 3c 49 fd c8 bc 5d 2b db 3b ab df bf ba
       0.017747708 -0.024534838 0.006688519 -0.0014638802
000280 da c6 19 bb 61 de 8e 3c 54 5f e5 bc 49 da 39 3c
       -0.0023464472 0.017440023 -0.027999558 0.011343547
000290 58 44 a9 3c 12 0f 01 bd 0f 57 3a 3c a2 8d 41 3a
       0.020662472 -0.031508513 0.011373295 0.00073834707
0002a0 66 35 79 bb 7d 6b e9 bc 54 da 0e bb ea e0 e9 3b
       -0.0038026213 -0.028493637 -0.0021797614 0.0071374075
0002b0 b7 9b 9d 3c c3 ba 0c 3a a6 80 f4 bb a6 f9 f5 b8
       0.01923929 0.0005368406 -0.007461625 -0.00011729011
0002c0 67 3d e0 3a 5d 71 08 3d e9 17 c1 3b 94 81 a8 bb
       0.0017108143 0.033311237 0.005892743 -0.0051424
0002d0 d2 03 a7 3b 07 9f 4a bd 65 9a 96 bc 18 19 db bb
       0.005096891 -0.049468067 -0.018384168 -0.006686341
0002e0 4d c1 67 bc b9 c5 91 ba 93 9d 94 bb 66 4f 4c 3b
       -0.014145208 -0.0011121548 -0.004535386 0.0031175255
0002f0 10 12 e0 3b e4 be c6 bc 68 59 15 3d e0 75 54 bb
       0.0068380907 -0.024260946 0.036462218 -0.0032418892
000300 fc 6f cb bc e3 19 1d 3a 09 52 88 3c 36 3d 50 3d
       -0.024833672 0.0005992932 0.01664068 0.050839625
000310 c6 33 96 ba 80 0e b8 3c a0 4d 78 3a e7 29 2a 3a
       -0.0011459521 0.022467852 0.0009472016 0.0006491229
000320 27 a8 81 bc 70 ac 02 bd fc 3d 5e 3b 48 c3 74 bc
       -0.015827252 -0.03190273 0.0033911457 -0.014939137
000330 20 64 06 3b c6 55 ed bb ea 7e f6 3b 58 08 c9 bb
       0.0020506456 -0.007242891 0.0075224536 -0.006135028
000340 98 02 7c 3c 06 c8 4a bc fa 20 28 3b 09 98 9a bc
       0.015381478 -0.012376791 0.0025654421 -0.018871324
000350 10 71 02 3c de 9c a5 3c 43 90 fc 3c 7e e3 ce 3c
       0.0079615265 0.020216402 0.030830508 0.025254961
000360 b8 7a 59 3c e3 b3 8a bc c2 c0 ed bc 12 64 d9 ba
       0.013273887 -0.01693148 -0.029022578 -0.0016585609
000370 7d 1d ec 3c 7f 40 96 bc 30 37 02 bd 3f 92 83 3c
       0.028822655 -0.018341301 -0.031790912 0.016060947
000380 cb 68 a7 3b 93 58 49 bb fb f1 df ba 40 e5 fb bc
       0.005108928 -0.003072296 -0.0017085666 -0.030748963
000390 6a 3c a4 bc 3a 16 9f 3b db 4b f5 3c 49 4e a1 bc
       -0.020048339 0.0048549445 0.029943397 -0.01969065
0003a0 b8 15 cc bb 3e 0e 3d bc 15 ef 14 3c 17 88 fe bc
       -0.006228175 -0.01153904 0.009090205 -0.031070752
0003b0 f5 18 b4 3a 97 0d cf 3c 31 64 98 bc 80 69 0e 3c
       0.0013740348 0.025275035 -0.018602462 0.008692145
0003c0 48 83 93 3c 99 83 77 bc fb f1 37 bb f6 c9 83 3b
       0.018006936 -0.015107059 -0.0028067816 0.0040218784
0003d0 cd 16 0f bc 45 8c 50 3c 0c 0d b0 3c 76 2a 46 3d
       -0.0087334635 0.012728755 0.021490596 0.048380338
0003e0 cf fe 73 3b 2b 64 52 bb a7 48 ca 3b 43 9b 96 3c
       0.0037230735 -0.0032103162 0.0061732116 0.018384581
0003f0 7f 00 db bb 6c 8d 3d 3b c5 7e 56 3b 57 a2 6b 3b
       -0.0066834087 0.0028923405 0.003272937 0.0035954916

action_model._continuous_distribution.mu.bias f4 [2]
000000 79 0d 96 3a 02 34 22 3b
       0.0011448107 0.0024750237

action_model._discrete_distribution.branches.0.weight f4 [1, 128]
000000 9c ca 2d 3c 12 6c 10 3c 4d 9d 2a bc 6d 89 d0 3b
       0.010607388 0.0088148285 -0.01041348 0.0063640387
000010 04 5e 23 3c 3e d5 0a bc c8 fe e9 bb bb e8 c4 bb
       0.009971146 -0.008473692 -0.007140968 -0.006009189
000020 5f ea be bb b7 81 3d 3c 9e 38 41 3c 28 84 ad 3c
       -0.005826279 0.011566571 0.011793284 0.021181181
000030 ab 86 bb bb e9 a9 14 3b 3b 13 2c bc 2f 20 05 3c
       -0.005722841 0.0022684282 -0.010502632 0.008125349
000040 af 47 7b bc 47 23 fb 3b 7f 90 05 bc b2 a1 57 bc
       -0.015336915 0.0076641175 -0.008152126 -0.01316111
000050 df 46 fb ba 94 d5 37 bc af df f5 3a e7 e2 77 bb
       -0.0019170902 -0.011220355 0.001875868 -0.0037824453
000060 69 fd b3 3a 20 dc 03 bc b8 a1 11 3c 77 cd 7b ba
       0.0013732138 -0.008048087 0.008888654 -0.0009605507
000070 8a 65 1a 3c ac d2 a6 bc ed 76 c0 3a f9 95 0e 3c
       0.009423623 -0.020364128 0.001468388 0.008702748
000080 98 33 7f bb f6 76 48 ba 2f 49 cb 3a 97 02 a9 bb
       -0.0038940664 -0.0007647121 0.0015509481 -0.0051577794
000090 ad fd 09 3b 4d 54 5d bc ae d0 0e bc 87 34 93 3c
       0.0021055744 -0.013508868 -0.008716745 0.017969383
0000a0 2e 2b 10 3c eb a0 82 3c f2 ed 37 bc d7 ce a7 3b
       0.008799357 0.015945872 -0.011226164 0.005121093
0000b0 b0 b5 32 ba df 11 37 3c 42 78 ea 3b 6a b0 4c 3b
       -0.00068172347 0.011173694 0.007155449 0.003123308
0000c0 b5 2c 56 bb 03 ed 02 bc a7 fd fb ba 67 0e 98 3a
       -0.0032680456 -0.007991078 -0.0019225375 0.0011600972
0000d0 40 f4 19 bb 5b 28 cf bb 56 6a 08 bc ef 3e 36 bb
       -0.0023491532 -0.0063219494 -0.008326134 -0.0027808507
0000e0 7a cd a5 3a d3 b1 84 3c 36 0e 1a bc 7a 8c 45 bc
       0.0012649738 0.016198074 -0.009402802 -0.012057418
0000f0 27 f5 34 3b f0 93 f7 3a b8 29 24 bb 4b 13 3e 3b
       0.0027611942 0.0018888693 -0.002504928 0.0029003199
000100 10 38 29 3c 87 77 f5 3b 45 07 ed ba a0 0a 72 bb
       0.010328308 0.0074910554 -0.0018083832 -0.0036932603
000110 11 42 c1 3c ad 86 b3 3a 7e ac 12 3c 0b e3 84 3c
       0.023591073 0.0013696753 0.008952258 0.016221544
000120 70 58 61 3c cb 9e 0b ba 0c bb 46 3c d1 a6 18 bb
       0.013753995 -0.0005326091 0.012129556 -0.002329279
000130 2b 7d df bb 53 e2 75 bb 1d 71 8d bc 17 e1 c9 3b
       -0.006820341 -0.0037518933 -0.01726585 0.006160866
000140 38 20 24 bb 24 b3 14 ba e3 87 0b 3c 01 ba 27 3c
       -0.0025043618 -0.0005672446 0.008516285 0.010237218
000150 3f 63 cc b9 d2 7e 04 3b 4b d1 63 ba e3 9f c9 ba
       -0.00038983856 0.0020217192 -0.000869055 -0.0015382733
000160 d8 4d 76 39 77 46 4b bc eb c7 b6 bb 77 97 8e 3b
       0.00023489387 -0.012406937 -0.0055780313 0.004351552
000170 f2 cb 3d 3c 93 15 40 bb 1e 68 ba 3b 93 c2 88 bb
       0.011584269 -0.0029309734 0.0056886813 -0.0041735857
000180 77 6e 0a bc 75 fe 56 3c c5 00 69 3b a5 c7 12 3b
       -0.008449188 0.013122191 0.0035553437 0.002239683
000190 04 ed 97 b9 5b 2c 25 3c f7 da 7e 3b 13 35 a0 3a
       -0.00028977555 0.010081376 0.0038887837 0.0012222849
0001a0 a3 78 c8 3b 20 ea 65 bc 5d 06 c7 3a 05 b9 45 3b
       0.0061178966 -0.0140328705 0.0015184392 0.0030170095
0001b0 67 56 d8 b9 eb 2e a9 3b 07 79 c7 3b fa 73 f1 3b
       -0.00041263105 0.0051630638 0.0060874256 0.007368562
0001c0 63 e9 96 bb c6 4c 46 bc dd 03 2b bc 59 8b 33 ba
       -0.0046054586 -0.012103265 -0.010437933 -0.00068490725
0001d0 f0 7c d0 bb 4f 4d 62 3a cf a9 c3 3a 25 25 71 3c
       -0.00636255 0.00086327357 0.0014927926 0.014718329
0001e0 7a 61 63 bb dd 63 7c bb cd fe ba bc bd 8e fd 3a
       -0.0034695552 -0.0038511672 -0.022826577 0.0019344907
0001f0 7f b0 6e bb 32 01 94 3c ed fc ff 3a 6f ce fc ba
       -0.0036421118 0.018066976 0.0019530334 -0.0019287596
