ML Agents tutorial/Assets/results/RollerBall3/RollerBall/RollerBall-499968.onnx (onnx, 77817 bytes, 8 tensors)

network_body._body_endoder.seq_layers.0.weight f4 [128, 12]
-0.5411117 -0.26246482 -0.16111432 -0.48395866 0.3389681 -0.18334916 -0.037387036 0.71324795
-0.052738298 -0.28429553 -0.082992524 -0.5943898 0.21790543 -0.4263873 0.10822814 -0.021371678
-0.045525603 -0.08285863 -0.19359435 -0.33748364 -0.35906997 -0.14205502 -0.087150805 -0.3564228
-0.4060388 -0.08396306 -0.20370202 0.04635105 0.22774386 0.23382795 -0.07703275 -0.14530133
0.18668142 -0.10980643 0.56731963 -0.29760548 -0.056696054 0.25592855 0.19913597 -0.017383073
-0.42278302 -0.12000037 0.3793032 0.22344959 0.13595288 0.139902 -0.20771894 -0.12860425
-0.4678938 -0.00343834 -0.059394117 0.4114178 -0.42353168 -0.009992481 0.17868513 -0.27900833
0.069711976 0.4870554 0.042357184 0.21332312 -0.5703798 0.024887057 0.28522584 0.0077848295
-0.34209934 -0.31703857 -0.24514548 0.3979265 -0.46491352 0.17414758 -0.16105784 0.51933604
-0.12569124 0.20545523 -0.20333996 0.16476403 0.2359685 -0.11836074 -0.39560726 0.6384069
0.049369536 -0.2735812 0.32602757 0.18690053 -0.09383486 -0.08530993 -0.6735104 -0.25425535
-0.05625667 0.093877494 0.12067332 -0.08405108 0.027387645 -0.18914618 0.24123374 -0.12011384
-0.2739791 -0.13900273 -0.27102685 0.038060535 0.33712837 0.8677012 -0.4213977 0.19623479
-0.3646578 -0.5232312 -0.21776749 -0.2515745 -0.24909492 -0.14342542 0.147537 -0.30770496
-0.5461021 -0.5873416 -0.16750708 0.13783546 -0.14431375 -0.820071 -0.776523 0.28090906
-0.041251443 -0.7233729 0.32237488 0.12033152 -0.15194917 -0.31186315 0.049926486 -0.09818041
0.06268061 0.112999186 0.28412485 0.37046304 -0.21083397 0.18965971 -0.2290454 0.48582628
0.020794852 0.36080617 -0.3492763 -0.416235 0.58747286 -0.57037073 0.44536558 0.1037541
-0.05092592 -0.3307272 0.084886864 0.10894487 -0.09515643 0.044245016 0.10004435 -0.32953608
-0.42192754 -0.19710335 -0.12426446 -0.17887624 0.53034896 -0.09352728 0.23051873 -0.024657218
-0.53592557 -0.55712914 -0.011811504 -0.33634806 -0.02555594 0.11225623 0.22905847 0.11338052
-0.27183855 0.63184655 -0.24876343 0.15749294 -0.3823574 0.24763012 0.09398954 -0.14399233
-0.046581045 0.6320946 0.86543506 0.5343595 0.14225373 -0.53040665 -0.51681066 -0.13520151
0.22165704 -0.012267797 0.43161076 0.22368707 -0.3533073 -0.39643115 -0.3283734 0.59638155
0.23622988 0.01224004 -0.2417602 -0.46832338 -0.32668763 -0.0798629 -0.40056244 -0.12291982
-0.032977052 0.43447292 -0.38283727 -0.7134085 0.17109753 -0.4814283 -0.13820088 -0.45949206
-0.49402806 0.20270522 -0.22765677 -0.5781382 -0.072171286 0.2494992 -0.05835465 -0.3951273
-0.15494505 0.25815174 -0.37050533 -0.34622866 0.041197482 -0.4655764 0.98015344 -0.045751546
-0.043803755 0.27720526 0.25766206 0.5219941 -0.10834798 -0.0908384 0.10804693 -0.0532047
0.24335219 0.25992364 0.538786 0.04530308 0.07646888 -0.074474335 0.14428575 0.112212196
-0.13752681 -0.07961841 -0.08867238 0.41620317 -0.15529476 -0.14399172 -0.51691896 -0.31651425
-0.07934321 -0.12745182 0.09029018 0.21177831 0.37764278 0.14461817 0.38280454 -0.206263
00000000: 4c86 0abf ca61 86be 27fb 24be 6ec9 f7be
00000010: 3a8d ad3e e2bf 3bbe 2623 19bd 6b97 363f
00000020: 1d04 58bd 2f8f 91be fcf7 a9bd ee29 18bf
00000030: 9a22 5f3e 704f dabe b7a6 dd3d a813 afbc
00000040: 0e79 3abd c9b1 a9bd 993d 46be a8ca acbe
00000050: 05d8 b7be df76 11be 1f7c b2bd 0d7d b6be
00000060: 51e4 cfbe d3f4 abbd 4397 50be 99da 3d3d
00000070: b035 693e 9870 6f3e 59c3 9dbd dfc9 14be
00000080: 6a29 3f3e 32e2 e0bd dc3b 113f bf5f 98be
00000090: 1f3a 68bd 1109 833e 4dea 4b3e f266 8ebc
000000a0: 0477 d8be c1c2 f5bd 0734 c23e f8cf 643e
000000b0: 3b37 0b3e 7842 0f3e 46b4 54be d5b0 03be
000000c0: c78f efbe c655 61bb 3f47 73bd 5ba5 d23e
000000d0: 25d9 d8be 81b7 23bc 3cf9 363e 2eda 8ebe
000000e0: 27c5 8e3d 535f f93e ba7e 2d3d 6071 5a3e
000000f0: 6904 12bf f1df cb3c 1f09 923e e217 ff3b
00000100: a527 afbe e152 a2be 6b07 7bbe 06bd cb3e
00000110: 2509 eebe be53 323e 59ec 24be 35f3 043f
00000120: 34b5 00be db62 523e 5a38 50be e7b7 283e
00000130: baa1 713e 1e67 f2bd 098d cabe a26e 233f
00000140: b637 4a3d d612 8cbe 16ed a63e da62 3f3e
00000150: 7e2c c0bd f9b6 aebd 2d6b 2cbf c22d 82be
00000160: 656d 66bd d842 c03d 9323 f73d f922 acbd
00000170: 0e5c e03c 89af 41be fa05 773e 3ffe f5bd
00000180: fd46 8cbe bb56 0ebe 08c4 8abe 5de5 1b3d
00000190: 179c ac3e aa21 5e3f 70c1 d7be c6f1 483e
000001a0: 6db4 babe 7bf2 05bf 71fe 5ebe 5fce 80be
000001b0: bd12 7fbe 1dde 12be f013 173e 818b 9dbe
000001c0: 59cd 0bbf 055c 16bf fa86 2bbe bd24 0d3e
000001d0: fcc6 13be 2cf0 51bf 36ca 46bf 50d3 8f3e
000001e0: 46f7 28bd f72e 39bf 520e a53e 5f70 f63d
000001f0: 9098 1bbe 87ac 9fbe b77f 4c3d d012 c9bd
00000200: b15e 803d 1e6c e73d d078 913e 55ad bd3e
00000210: dce4 57be 2836 423e e18a 6abe 39be f83e
00000220: f759 aa3c 96bb b83e 58d4 b2be c11c d5be
00000230: 9f64 163f d103 12bf f506 e43e 087d d43d
00000240: b397 50bd 1355 a9be 2ad9 ad3d 7d1e df3d
00000250: 60e1 c2bd 433a 353d 0de4 cc3d f4b8 a8be
00000260: e306 d8be 76d5 49be 5d7e febd 552b 37be
00000270: f3c4 073f 3b8b bfbd 1a0d 6c3e effd c9bc
00000280: 6b32 09bf 04a0 0ebf 0a85 41bc d035 acbe
00000290: b15a d1bc 98e6 e53d 4e8e 6a3e 0c34 e83d
000002a0: 6c2e 8bbe b2c0 213f d7bb 7ebe d445 213e
000002b0: 59c4 c3be c092 7d3e 977d c03d ba72 13be
000002c0: c4cb 3ebd f4d0 213f 278d 5d3f c9cb 083f
000002d0: f6aa 113e bbc8 07bf b44d 04bf 4472 0abe
000002e0: 10fa 623e dffe 48bc 16fc dc3e 390e 653e
000002f0: b2e4 b4be 06f9 cabe 8f20 a8be 76ac 183f
00000300: 3fe6 713e 738a 483c fc8f 77be 15c8 efbe
00000310: 9a43 a7be 298f a3bd 8516 cdbe 63bd fbbd
00000320: f212 07bd 3c73 de3e 3f03 c4be f1a1 36bf
00000330: 3134 2f3e c57d f6be 8884 0dbe 8b42 ebbe
00000340: 3ff1 fcbe f591 4f3e db1e 69be dd00 14bf
00000350: 8ace 93bd b87c 7f3e 4905 6fbd 204e cabe
00000360: eaa9 1ebe 772c 843e e0b2 bdbe e244 b1be
00000370: b1be 283d 0860 eebe 56eb 7a3f f965 3bbd
00000380: 916b 33bd d9ed 8d3e 48ec 833e 68a1 053f
00000390: 8ce5 ddbd 7c09 babd b547 dd3d 2ced 59bd
000003a0: 5131 793e b614 853e e1ed 093f b98f 393d
000003b0: b79b 9c3d 0086 98bd a5bf 133e 82cf e53d
000003c0: d4d3 0cbe fa0e a3bd dd99 b5bd 9518 d53e
000003d0: 9705 1fbe 9172 13be cd54 04bf 280e a2be
000003e0: b17e a2bd bb82 02be 0fea b83d 6adc 583e
000003f0: 655a c13e c916 143e f5fe c33e 9c36 53be

network_body._body_endoder.seq_layers.0.bias f4 [128]
-0.16415954 -0.23410666 -0.011778167 -0.0219823 0.00870815 0.054294333 0.14616872 -0.06375412
-0.19622359 0.10407202 -0.10153484 0.08311346 -0.10319905 -0.03907925 0.07758919 -0.1240336
-0.0322401 -0.03154479 -0.008304055 -0.09624256 -0.026907831 -0.07996687 0.08192513 -0.20342277
0.13575304 -0.07606201 -0.363097 -0.053684585 -0.00014534136 -0.13740885 -0.19264372 -0.15818422
-0.13790996 0.02794195 -0.13640596 -0.060972054 -0.07780455 -0.0012404402 -0.053882163 -0.08156637
-0.10177239 -0.26248816 -0.049027774 0.02295885 0.09242313 0.08530035 -0.14974238 -0.122207046
-0.070658505 0.047075674 0.16214614 -0.13473606 -0.11725002 0.1358172 -0.13812114 -0.041699544
0.07564057 -0.0056405296 -0.018208614 -0.22487451 -0.043737225 -0.09330361 0.11926666 -0.10827729
-0.096799165 0.02603368 0.035422016 0.0642262 0.074691504 -0.1237937 -0.04680912 -0.034848817
0.10451215 -0.04508946 0.033662476 -0.0044572647 -0.07183851 -0.07278615 0.028165752 0.033508714
0.0041585 -0.018623404 -0.0837677 -0.10560129 -0.12290129 -0.042289715 -0.07913934 -0.0060930327
-0.025213765 0.052548435 -0.144595 -0.18132836 -0.067526095 0.045108076 -0.0676382 -0.18335292
-0.06228284 -0.10106946 -0.10541949 -0.12740144 -0.0161856 0.053469602 -0.07138178 -0.08778227
0.026571248 -0.044779927 -0.09577166 0.016346915 0.032555137 -0.20962457 -0.047951434 -0.04595961
-0.016939072 -0.07404049 -0.11862572 -0.04716076 -0.1300616 -0.087226875 0.047933083 0.05234807
-0.15243873 -0.015873041 -0.17977709 -0.114626 -0.08014582 -0.024520941 -0.14311993 -0.060022235
00000000: 7019 28be a8b9 6fbe 37f9 40bc 3914 b4bc
00000010: a1ac 0e3c bc63 5e3d 41ad 153e 8591 82bd
00000020: d6ee 48be b623 d53d 80f1 cfbd 6437 aa3d
00000030: 065a d3bd 9011 20bd 15e7 9e3d 5405 febd
00000040: 320e 04bd 1c35 01bd bb0d 08bc d21a c5bd
00000050: d06d dcbc acc5 a3bd 5dc8 a73d 0f4e 50be
00000060: d802 0b3e 66c6 9bbd dae7 b9be 5ee4 5bbd
00000070: c666 18b9 e8b4 0cbe 6544 45be 0bfb 21be
00000080: 4538 0dbe 84e6 e43c 01ae 0bbe d5bd 79bd
00000090: fe57 9fbd 4496 a2ba 8bb3 5cbd 450c a7bd
000000a0: 0b6e d0bd d964 86be 59d1 48bd 3314 bc3c
000000b0: 5748 bd3d f3b1 ae3d 1156 19be b047 fabd
000000c0: 68b5 90bd 6cd2 403d a309 263e 40f8 09be
000000d0: c720 f0bd aa13 0b3e a16f 0dbe 24cd 2abd
000000e0: 71e9 9a3d 31d4 b8bb 3b2a 95bc 8145 66be
000000f0: ce25 33bd f715 bfbd 1442 f43d 7cc0 ddbd
00000100: a43e c6bd 9644 d53c ad16 113d 0789 833d
00000110: dcf7 983d 8d87 fdbd ebba 3fbd a2bd 0ebd
00000120: 770a d63d baaf 38bd aae1 093d 3f0e 92bb
00000130: 1220 93bd e810 95bd ddbb e63c 6f40 093d
00000140: 0744 883b 1c90 98bc 668e abbd 7d45 d8bd
00000150: acb3 fbbd fb37 2dbd ce13 a2bd 10a8 c7bb
00000160: 198d cebc 073d 573d b610 14be 24ae 39be
00000170: 1f4b 8abd 3fc3 383d e685 8abd dec0 3bbe
00000180: 4b1c 7fbd 81fd cebd 2ce6 d7bd 8675 02be
00000190: aa97 84bc f102 5b3d 9c30 92bd 31c7 b3bd
000001a0: f2ab d93c 286b 37bd ef23 c4bd f7e9 853c
000001b0: 8958 053d d3a7 56be b968 44bd 2540 3cbd
000001c0: cfc3 8abc 8aa2 97bd 0bf2 f2bd a42b 41bd
000001d0: de2e 05be 01a4 b2bd 7b55 443d ee6a 563d
000001e0: e618 1cbe 2e08 82bc 7c17 38be 09c1 eabd
000001f0: 7e23 a4bd 24e0 c8bc 088e 12be e0d9 75bd

network_body._body_endoder.seq_layers.2.weight f4 [128, 128]
0.009363059 0.06923145 -0.024984231 -0.103262424 -0.013861501 -0.05608508 -0.03084991 -0.0029235734
-0.09792033 0.038425528 -0.098019555 -0.18268836 0.05279367 -0.09704539 -0.24298385 -0.015440313
0.13307095 0.16983062 -0.15235344 -0.26582268 0.041617636 0.17214207 -0.10750134 -0.24196662
0.205694 0.26977107 -0.12200104 0.11799554 -0.00051374326 0.022050774 0.020328838 0.08724922
-0.10060522 0.06053594 -0.10594536 -0.09911706 0.13706148 -0.01947644 -0.12361575 0.039229125
0.059257425 -0.09340193 -0.114585094 -0.005313851 -0.04057062 0.08404346 -0.10871915 0.10109926
-0.10393332 -0.077523805 -0.371176 0.01085153 -0.10489979 0.014383623 0.047706597 -0.14743902
-0.002515952 0.1565566 -0.08704206 -0.065068156 0.23869048 0.11145823 0.0059259594 -0.12863
-0.062980115 -0.077132225 -0.14931567 -0.2639715 -0.10726739 0.011836904 -0.020946996 -0.2190795
-0.1085077 0.101649866 0.19066569 0.24255018 -0.13517097 0.20378608 0.121397994 -0.20006654
-0.12365898 0.014426279 -0.037534695 -0.099403806 -0.03501813 0.21400656 0.1434257 -0.17889117
0.06083919 0.07973141 -0.020236978 0.066695325 0.08017262 0.19164735 0.015652796 -0.16888666
-0.056981236 -0.08576858 0.1062165 0.0017592614 -0.032728374 0.17235991 -0.19392927 0.12436471
0.058716662 0.010927217 -0.23345318 0.045043793 0.25412074 0.15342794 -0.1405887 -0.23623192
-0.018912878 0.012500744 -0.04066851 0.12583108 0.061151113 -0.060354035 -0.009503871 0.1637782
0.07360428 -0.04556435 0.076233804 -0.13441075 0.20294702 0.055919673 -0.160862 0.04484603
0.060504556 -0.21021271 -0.07413457 0.026557125 -0.06530228 -0.032983985 0.05043139 0.04690184
-0.09425579 0.028570466 -0.117424555 -0.010045375 -0.09537977 -0.19537587 -0.04094369 0.015141997
-0.028268557 -0.24033707 0.06828916 -0.082630344 -0.08913143 -0.13293876 -0.02458668 -0.10801916
-0.06294194 0.079342134 0.017039765 -0.2263448 -0.22139451 -0.16166118 -0.065097585 -0.06680652
-0.04399487 -0.08507552 -0.0815272 0.091694884 -0.07033658 0.12989861 0.00867949 0.10906186
0.13895358 -0.06665908 0.08171866 -0.0017213392 -0.028085034 -0.056056388 -0.07028553 0.07845415
-0.06670568 0.043410484 -0.12589121 0.015601431 -0.02168872 -0.019446855 -0.15143397 0.025376456
0.07322437 -0.02327287 0.033210162 -0.021665085 0.0079801185 -0.027506886 -0.093472086 -0.046706196
-0.14877108 -0.025511857 -0.08587614 -0.062315468 -0.009243914 -0.0813036 -0.05129638 -0.19549221
0.07192057 -0.11766579 0.03237951 -0.15689994 0.11456915 -0.15773813 -0.046081595 -0.021531934
-0.28464517 -0.0831319 0.0690455 0.004447612 -0.17969786 -0.039261963 -0.07994986 -0.10565705
-0.061873026 0.0155253615 0.006127054 -0.052390337 -0.09120238 -0.06313055 -0.21489197 -0.0447314
-0.040719483 -0.0356546 0.038464442 -0.16112992 -0.14980589 -0.022931246 -0.073406674 -0.053562857
-0.2612011 -0.28325158 -0.039856434 0.10539539 -0.12419627 -0.07015963 0.04527531 0.057141196
-0.053438053 -0.14826882 -0.14677063 0.1535644 -0.10612643 -0.08544006 -0.010214492 -0.16963282
-0.18424097 0.0065318714 -0.052922413 -0.08716719 0.04573087 -0.118643545 -0.21645379 -0.02368133
00000000: 8467 193c 38c9 8d3d bbab ccbc 407b d3bd
00000010: 591b 63bc 78b9 65bd f3b8 fcbc 6c99 3fbb
00000020: 748a c8bd 1664 1d3d 7abe c8bd a812 3bbe
00000030: 2d3e 583d bcbf c6bd c2d0 78be 5ef9 7cbc
00000040: c043 083e 14e8 2d3e 8a02 1cbe e919 88be
00000050: 4177 2a3d 0346 303e aa29 dcbd 19c6 77be
00000060: 73a1 523e 6f1f 8a3e aedb f9bd a5a7 f13d
00000070: baac 06ba d3a3 b43c aa88 a63c b8af b23d
00000080: 1c0a cebd 89f4 773d e2f9 d8bd e3fd cabd
00000090: d859 0c3e 0e8d 9fbc 412a fdbd b8ae 203d
000000a0: eab7 723d 8349 bfbd 97ab eabd d01f aebb
000000b0: 612d 26bd fa1e ac3d 25a8 debd 210d cf3d
000000c0: feda d4bd cdc4 9ebd c80a bebe 9eca 313c
000000d0: b3d5 d6bd 4aa9 6b3c fe67 433d 41fa 16be
000000e0: ace2 24bb 6050 203e 1c43 b2bd 7442 85bd
000000f0: 476b 743e 3644 e43d 8d2e c23b 95b7 03be
00000100: b8fb 80bd 80f7 9dbd 35e6 18be 4627 87be
00000110: 01af dbbd 93ef 413c 0999 abbc 6056 60be
00000120: 4939 debd ce2d d03d de3d 433e 135f 783e
00000130: 426a 0abe 4cad 503e 839f f83d 3ede 4cbe
00000140: eb40 fdbd 335c 6c3c fbbd 19bd 3994 cbbd
00000150: 2c6f 0fbd 8924 5b3e 30de 123e 3f2f 37be
00000160: 8432 793d 394a a33d 05c8 a5bc 8f97 883d
00000170: 8b31 a43d 343f 443e 4b3a 803c a0f0 2cbe
00000180: 2865 69bd 70a7 afbd 0988 d93d 0497 e63a
00000190: 300e 06bd 1e7f 303e 6595 46be edb2 fe3d
000001a0: e280 703d 1208 333c 5a0e 6fbe d77f 383d
000001b0: 1d1c 823e 371c 1d3e 7cf6 0fbe c8e6 71be
000001c0: 2eef 9abc eccf 4c3c 0694 26bd ddd9 003e
000001d0: 9779 7a3d cb35 77bd 20b6 1bbc 79b5 273e
000001e0: d7bd 963d afa1 3abd 7820 9c3d f9a2 09be
000001f0: 58d1 4f3e 070c 653d 02b9 24be 79b0 373d
00000200: a0d3 773d 0042 57be ded3 97bd 548e d93c
00000210: 34bd 85bd 371a 07bd 2591 4e3d 251c 403d
00000220: 2e09 c1bd 9c0c ea3c 497c f0bd 5b95 24bc
00000230: 7856 c3bd 9d10 48be 92b4 27bd 2316 783c
00000240: 7693 e7bc ec1a 76be 30db 8b3d 193a a9bd
00000250: 8a8a b6bd 1921 08be 016a c9bc 2639 ddbd
00000260: b4e7 80bd 217e a23d fa96 8b3c eec6 67be
00000270: 3eb5 62be 828a 25be e251 85bd dbd1 88bd
00000280: f733 34bd 133c aebd bcf7 a6bd 87ca bb3d
00000290: a00c 90bd 2404 053e 6b34 0e3c d35b df3d
000002a0: d949 0e3e 8e84 88bd 1d5c a73d 8f9e e1ba
000002b0: 9612 e6bc 629b 65bd dcf1 8fbd 92ac a03d
000002c0: fd9c 88bd 31cf 313d a0e9 00be 259d 7f3c
000002d0: 8bac b1bc 034f 9fbc 8211 1bbe 49e2 cf3c
000002e0: a9f6 953d bfa6 bebc 6107 083d fa7a b1bc
000002f0: 0bbf 023c 1f56 e1bc 4b6e bfbd ff4e 3fbd
00000300: 7257 18be 3efe d0bc d4df afbd 813e 7fbd
00000310: c973 17bc 8082 a6bd 271c 52bd 1c2f 48be
00000320: 184b 933d c3fa f0bd 61a0 043d 61aa 20be
00000330: 3ba3 ea3d 1b86 21be 0ec0 3cbd bd63 b0bc
00000340: 03bd 91be 0f41 aabd ba67 8d3d 46bd 913b
00000350: b702 38be 27d1 20bd c1bc a3bd b962 d8bd
00000360: 926e 7dbd 165e 7e3c 74c5 c83b 4097 56bd
00000370: 50c8 babd 974a 81bd a40c 5cbe 4638 37bd
00000380: 79c9 26bd 8f0a 12bd e48c 1d3d 3eff 24be
00000390: b766 19be 4fda bbbc 3d56 96bd ba64 5bbd
000003a0: 27bc 85be 5a06 91be 8040 23bd 8ad9 d73d
000003b0: 9d5a febd daaf 8fbd 9a72 393d e30c 6a3d
000003c0: dce1 5abd c8d3 17be 0a4b 16be fc3f 1d3e
000003d0: d058 d9bd 33fb aebd af5a 27bc 3ab4 2dbe
000003e0: aaa9 3cbe 4f09 d63b 2cc5 58bd b684 b2bd
000003f0: 4b50 3b3d 63fb f2bd 10a6 5dbe 59ff c1bc

network_body._body_endoder.seq_layers.2.bias f4 [128]
-0.05078273 -0.06727771 -0.060691696 0.091964 -0.08430458 -0.06379272 -0.14274405 0.013367788
-0.17481902 -0.0779598 0.14169402 -0.14913766 -0.08531781 -0.046118513 -0.0549477 0.018422684
0.012364182 -0.0408735 -0.061460383 -0.05958963 -0.010610313 0.018336788 -0.08193109 -0.03293073
-0.028874002 -0.033929225 0.06414872 -0.10402773 -0.14278834 -0.08058605 -0.045451533 -0.046313204
-0.055841934 -0.1352972 -0.030697368 -0.031364176 0.0062134434 -0.099764384 -0.078407 -0.07658689
-0.08998422 -0.11168113 -0.06137609 0.027194897 -0.05142668 -0.020238029 -0.05748086 -0.0011142406
-0.09217767 -0.014231885 -0.029865278 -0.101718724 -0.09601108 -0.12893671 -0.04381359 0.06048054
-0.046422794 -0.06869176 -0.0075609125 0.047718447 -0.050695676 -0.0116961915 -0.050718114 -0.019746982
0.00795722 -0.077716805 -0.037815887 0.13255538 -0.044034578 0.021714926 -0.16355631 -0.04023312
-0.05888518 0.028683955 -0.10504276 -0.016107598 -0.15763393 0.064160325 -0.045517817 -0.12820129
0.00095386675 -0.05882271 0.01589026 -0.016077287 0.0753031 -0.06273885 -0.110693045 -0.11857379
-0.029697135 -0.08091816 -0.04738463 -0.13150781 -0.079723716 -0.10165576 -0.08251568 -0.06433391
-0.14655958 -0.05575832 -0.05035445 -0.032973662 0.011350141 0.0075080055 -0.06358822 -0.15601338
-0.06397699 -0.08455768 -0.094065756 -0.04255395 -0.14255738 -0.07383466 -0.13545579 -0.08292437
-0.06889971 -0.19988717 -0.08317234 -0.1547006 -0.1333224 -0.12619878 -0.03579353 -0.012965425
0.06240985 -0.0700741 -0.052847795 0.052920703 -0.06634973 -0.13964172 -0.15345287 -0.04824915
00000000: 8d01 50bd e5c8 89bd db97 78bd 9f57 bc3d
00000010: e1a7 acbd c2a5 82bd 7f2b 12be 9104 5b3c
00000020: c203 33be 63a9 9fbd 3d18 113e 8bb7 18be
00000030: 1bbb aebd c4e6 3cbd d710 61bd 2beb 963c
00000040: 2393 4a3c f96a 27bd e2bd 7bbd 4214 74bd
00000050: e1d6 2dbc 0837 963c 7dcb a7bd 60e2 06bd
00000060: 2c89 ecbc 5ff9 0abd 6760 833d 7e0c d5bd
00000070: 1b37 12be 4d0a a5bd 632b 3abd eab2 3dbd
00000080: 83ba 64bd 598b 0abe 0c79 fbbc b977 00bd
00000090: 249a cb3b 4551 ccbd d993 a0bd 96d9 9cbd
000000a0: a649 b8bd 14b9 e4bd 7f65 7bbd d5c7 de3c
000000b0: c8a4 52bd 39ca a5bc 0d71 6bbd b60b 92ba
000000c0: a5c7 bcbd da2c 69bc 07a8 f4bc e851 d0bd
000000d0: 75a1 c4bd fc07 04be e175 33bd 71ba 773d
000000e0: d425 3ebd 44ae 8cbd 88c1 f7bb 6b74 433d
000000f0: 45a6 4fbd 62a1 3fbc ccbd 4fbd 6cc4 a1bc
00000100: 005f 023c fd29 9fbd d5e4 1abd 99bc 073e
00000110: 9a5d 34bd 80e3 b13c 4e7b 27be 7ccb 24bd
00000120: 9631 71bd 9dfa ea3c a920 d7bd 15f4 83bc
00000130: ca6a 21be 7d66 833d e470 3abd 3347 03be
00000140: ea0c 7a3a 15f0 70bd 4a2c 823c 84b4 83bc
00000150: 8338 9a3d 3a7d 80bd 09b3 e2bd d1d6 f2bd
00000160: 6847 f3bc 6cb8 a5bd 6316 42bd fca9 06be
00000170: 3046 a3bd e530 d0bd fbfd a8bd 7fc1 83bd
00000180: b713 16be d662 64bd 7840 4ebd 640f 07bd
00000190: f1f5 393c b705 f63b 8a3a 82bd f9c1 1fbe
000001a0: 5e06 83bd 942c adbd 8ca5 c0bd 0d4d 2ebd
000001b0: 90fa 11be a036 97bd ecb4 0abe 41d4 a9bd
000001c0: 4b1b 8dbd 39af 4cbe 4356 aabd d669 1ebe
000001d0: ab85 08be 413a 01be 3d9c 12bd ef6c 54bc
000001e0: 79a1 7f3d 0283 8fbd ee76 58bd 61c3 583d
000001f0: 5ee2 87bd 3dfe 0ebe c022 1dbe e7a0 45bd

action_model._continuous_distribution.log_sigma f4 [1, 2]
-0.39883673 -0.41939184
00000000: 5434 ccbe 87ba d6be

action_model._continuous_distribution.mu.weight f4 [2, 128]
0.097177364 0.01030564 -0.12005265 0.09992409 -0.061523017 0.012269339 0.032034725 -0.07187893
0.004122224 0.018113129 0.14625226 -0.01878109 0.026842043 -0.006321726 0.09392652 -0.06199152
-0.01156638 0.049699 0.12549269 -0.0014237132 -0.04772699 0.14878257 0.01873773 0.17252232
0.036975436 0.07722743 -0.14466617 -0.017051233 -0.036676485 0.06423025 0.100402735 0.15622096
0.11529235 0.036169466 0.13104981 -0.08146332 0.075178616 -0.08576898 -0.039856173 0.07598696
0.0190636 0.009435078 -0.060177904 -0.1346276 -0.01307202 0.08850199 -0.015978398 -0.030900978
-0.048405997 0.1325614 -0.029973313 0.043954372 0.090343796 -0.019322015 0.016229002 -0.09632592
0.0013709264 0.16210973 -0.061935037 0.13575968 0.061974127 0.044654608 0.080832265 0.07664395
-0.05056849 -0.012928538 0.15255673 -0.045513593 -0.035875887 -0.028804777 0.007712655 0.07534194
0.116282314 0.11260606 -0.028424121 -0.051324807 -0.07797121 0.08626445 0.032171164 0.064106464
0.15597072 0.014725272 0.032405462 0.027964283 -0.09398354 -0.010747149 0.05778879 0.08066516
0.035180993 -0.018617623 -0.05544666 -0.0052184653 0.17490575 -0.050661493 -0.060028084 -0.09196603
-0.038662683 0.0026426204 -0.06273598 0.059148367 -0.025917243 0.063201934 0.005354563 0.087459534
0.03269087 -0.043824103 -0.03826048 0.034043252 0.099214226 0.022467498 -0.06118203 0.010287599
0.0011550743 0.0735656 0.04089764 -0.0261438 0.045735206 0.050785344 -0.11111756 0.009103442
-0.064358704 0.12622203 -0.09807459 -0.1344715 0.010781983 0.045020033 -0.058706693 0.1113057
0.0015128851 -0.08012568 -0.06102159 0.081586346 -0.18738613 -0.14512052 0.00021161306 0.011346143
-0.003047666 -0.06453991 0.10401564 -0.13709904 0.124658756 0.071967475 -0.030284306 0.04700333
0.09368709 -0.043878708 -0.17262545 0.012007923 0.053566325 0.031368196 -0.21961562 -0.012026173
-0.061929397 -0.14714736 -0.06692632 -0.18391049 -0.096405104 -0.044875253 -0.2606184 0.11867987
-0.096013136 -0.05338224 -0.07491858 -0.10433004 0.04890098 -0.08733785 -0.10543514 -0.0145091945
-0.13176902 -0.019766849 -0.07221442 -0.022416383 -0.043655936 -0.16566698 -0.14211607 0.20496906
-0.055359323 -0.09526142 0.023428597 0.054894365 -0.094721235 -0.048182115 0.043655608 0.06197941
0.0046886886 -0.13255514 -0.09326643 0.043847356 -0.08725351 -0.11324445 -0.1205866 -0.02853969
-0.018760314 0.04645953 -0.06617602 0.1304742 -0.036731392 -0.06872913 -0.076604426 -0.0362497
-0.019310024 0.0052427584 -0.04215968 0.024046797 -0.08421544 0.1007043 -0.06859212 -0.11624117
-0.15252864 -0.008830739 0.08914064 -0.14800523 0.02997937 -0.25205305 -0.14759323 -0.08485619
-0.16144979 -0.20954706 -0.030277897 -0.21551144 -0.0747277 -0.055334464 -0.23304851 -0.14141157
-0.06275947 -0.09625732 -0.014561935 -0.07624 0.026616348 0.024393074 0.012925111 -0.08267771
0.0010572913 -0.11732671 -0.016688056 -0.016187526 -0.14155133 -0.08071656 0.045868423 -0.21565051
-0.0040733917 -0.034789894 -0.11092598 -0.06838449 -0.032715455 -0.08841317 -0.08754833 -0.15395595
0.0010380261 -0.098738365 -0.09201694 0.0017325712 -0.12203214 -0.07530694 -0.12932609 0.042678438
00000000: ed04 c73d fdd8 283c 2ade f5bd 00a5 cc3d
00000010: 8fff 7bbd 5605 493c d836 033d 4335 93bd
00000020: b913 873b fc61 943c 27c3 153e cdda 99bc
00000030: d8e3 db3c 7b26 cfbb 8c5c c03d d2ea 7dbd
00000040: ea80 3dbc 2e91 4b3d 2881 003e e39b baba
00000050: 607d 43bd 755a 183e de7f 993c b1a9 303e
00000060: 8e73 173d 6a29 9e3d 5e23 14be 07af 8bbc
00000070: 153a 16bd 268b 833d f39f cd3d 63f8 1f3e
00000080: 651e ec3d 6f26 143d ec31 063e 3ed6 a6bd
00000090: 3ff7 993d a6a7 afbd 3a40 23bd 0d9f 9b3d
000000a0: 442b 9c3c 9695 1a3c 1b7d 76bd d1db 09be
000000b0: 072c 56bc 8840 b53d 21e5 82bc 0c24 fdbc
000000c0: 5e45 46bd 2dbe 073e 988a f5bc 8009 343d
000000d0: 2b06 b93d 3449 9ebc aff2 843c 8646 c5bd
000000e0: a8b0 b33a 1800 263e 98af 7dbd 9604 0b3e
000000f0: 95d8 7d3d c0e7 363d 638b a53d 81f7 9c3d
00000100: e820 4fbd 38d2 53bc d537 1c3e 766c 3abd
00000110: 98f2 12bd fff7 ebbc 70ba fc3b e04c 9a3d
00000120: 6c25 ee3d 029e e63d b4d9 e8bc f639 52bd
00000130: 5faf 9fbd 6aab b03d e9c5 033d 404a 833d
00000140: cab6 1f3e 4442 713c 97bb 043d 5a15 e53c
00000150: 717a c0bd cf14 30bc f0b3 6c3d c733 a53d
00000160: f219 103d fc83 98bc 091c 63bd a9ff aabb
00000170: 7e1a 333e 6d82 4fbd 02e0 75bd b058 bcbd
00000180: c35c 1ebd d02f 2d3b b97b 80bd 8f45 723d
00000190: 6650 d4bc 0470 813d 5475 af3b fc1d b33d
000001a0: dde6 053d e780 33bd 05b7 1cbd f070 0b3d
000001b0: d430 cb3d c20d b83c 029a 7abd 518d 283c
000001c0: dd65 973a 90a9 963d 4984 273d 862b d6bc
000001d0: d754 3b3d 4b04 503d 9a91 e3bd 9a26 153c
000001e0: 7fce 83bd 5940 013e 55db c8bd e6b2 09be
000001f0: eaa6 303c ed66 383d 6e76 70bd 3ef4 e33d
00000200: 004c c63a ef18 a4bd c6f1 79bd be16 a73d
00000210: 26e2 3fbe 799a 14be 73e4 5d39 2ce5 393c
00000220: 5abb 47bb 802d 84bd 2706 d53d b163 0cbe
00000230: 174d ff3d af63 933d cb16 f8bc 9086 403d
00000240: 04df bf3d 29ba 33bd bac4 30be e1bc 443c
00000250: 5d68 5b3d f07b 003d ebe2 60be 6d09 45bc
00000260: aea9 7dbd ccad 16be ab10 89bd 0853 3cbe
00000270: 0a70 c5bd 1dcf 37bd c66f 85be 6f0e f33d
00000280: 89a2 c4bd 56a7 5abd ea6e 99bd fdaa d5bd
00000290: 654c 483d 30de b2bd 61ee d7bd f9b7 6dbc
000002a0: 75ee 06be 16ee a1bc 27e5 93bd 90a2 b7bc
000002b0: 91d0 32bd 9ba4 29be e086 11be 69e3 513e
000002c0: 75c0 62bd 6b18 c3bd 54ed bf3c ead8 603d
000002d0: 35fd c1bd 9c5a 45bd 39d0 323d 1fde 7d3d
000002e0: 92a3 993b 89bc 07be 7802 bfbd 4999 333d
000002f0: f8b1 b2bd b5ec e7bd 1bf6 f6bd 11cc e9bc
00000300: 3baf 99bc 594c 3e3d 4b87 87bd 079b 053e
00000310: a873 16bd dcc1 8cbd c8e2 9cbd 917a 14bd
00000320: 0e30 9ebc 72cb ab3b a1af 2cbd cafd c43c
00000330: 2579 acbd 0e3e ce3d 077a 8cbd da0f eebd
00000340: 7830 1cbe ceae 10bc 5e8f b63d af8e 17be
00000350: 4c97 f53c 190d 81be ae22 17be 15c9 adbd
00000360: 1853 25be 8193 56be 5a09 f8bc 08af 5cbe
00000370: d60a 99bd 64a6 62bd 45a4 6ebe 32ce 10be
00000380: 0988 80bd 8f22 c5bd 2f95 6ebc b823 9cbd
00000390: 870a da3c fcd3 c73c d8c3 533c ee52 a9bd
000003a0: cf94 8a3a fc48 f0bd 64b5 88bc b49b 84bc
000003b0: d5f2 10be b94e a5bd 87e0 3b3d 7dd3 5cbe
000003c0: 167a 85bb d97f 0ebd 292d e3bd 2b0d 8cbd
000003d0: a400 06bd f711 b5bd 8a4c b3bd a1a6 1dbe
000003e0: 600e 883a 5737 cabd 6173 bcbd 7117 e33a
000003f0: fdeb f9bd 863a 9abd 0f6e 04be 96cf 2e3d

action_model._continuous_distribution.mu.bias f4 [2]
-0.07589258 0.08625382
00000000: 926d 9bbd d8a5 b03d

action_model._discrete_distribution.branches.0.weight f4 [1, 128]
-0.0011019759 -0.0049404637 0.0028080724 -0.024970656 0.005383425 -0.008695333 -0.0185488 -0.008546961
-0.0072414204 -0.0063445116 -0.010644972 -0.0055645453 0.0029816993 0.0040282886 0.011072994 0.012557122
0.015572438 0.00883738 -0.0037840486 0.004648931 -0.0048177703 -0.011634977 0.010686555 -0.014426628
-0.009205226 -0.0084968535 0.008119662 0.0014115971 0.0025024076 -0.011774615 0.0061098686 0.019076196
-0.0025142122 0.0028233516 0.011335987 0.002145564 0.005701335 0.004547141 0.016916998 0.012792475
0.011393734 -0.01430341 0.007967068 0.008366183 0.0009238991 -0.004176266 0.0016917645 -0.006691463
-0.0030542125 0.0057492433 0.0018851868 -0.016537836 -0.011128581 0.0130015975 -0.006394298 -0.0016440196
-0.009198706 -0.010569826 -0.005543656 -0.008130766 -0.016891865 -0.00011016805 0.0015147659 0.011905826
-0.005328529 -0.0035746384 0.0044623897 0.0036943746 -0.0008232551 -0.0071307532 -0.0036222264 -0.007411945
-0.0014307522 -0.011142555 0.005484206 0.008345669 0.01745206 -0.0058735213 0.008495161 0.002139533
0.013095381 -0.007717541 -0.01781944 0.006905941 -0.012352089 0.0062504425 -0.0013283915 0.004334313
-0.0067391726 0.0005874162 -0.014914359 0.0034628424 0.0034800482 0.009503027 -0.0073779956 0.01592158
-0.0023288622 0.002908199 -0.0010233376 -0.008827633 0.012044457 -0.0047392435 -0.0071162567 -0.00488918
0.010983181 0.00644866 0.0011953156 0.009974879 -0.0022456737 0.009059182 -0.012078785 0.002821096
-0.0025226062 0.016883388 -0.0017330066 -0.0004100665 -0.013138388 -0.022429828 -0.0059731053 0.0029881622
0.008341606 0.00034080257 -0.0094946725 -0.0021161288 -0.004263114 -0.00093526574 0.002565611 -0.00013030769
00000000: 2d70 90ba 9de3 a1bb a307 383b 438f ccbc
00000010: 7167 b03b df76 0ebc a7f3 97bc 8d08 0cbc
00000020: 7049 edbb 9fe5 cfbb 4068 2ebc ca56 b6bb
00000030: 9d68 433b bcff 833b 816b 353c 63bc 4d3c
00000040: 8a23 7f3c a9ca 103c cdfd 77bb 0f56 983b
00000050: 63de 9dbb a1a0 3ebc a916 2f3c aa5d 6cbc
00000060: 84d1 16bc 6336 0bbc 5508 053c 5705 b93a
00000070: 6fff 233b 51ea 40bc 4b35 c83b af45 9c3c
00000080: 7bc5 24bb fb07 393b 93ba 393c 979c 0c3b
00000090: 44d2 ba3b 2f00 953b 8495 8a3c 8797 513c
000000a0: c9ac 3a3c da58 6abc 4e88 023c 5112 093c
000000b0: d231 723a 0fd9 88bb 32be dd3a 0f44 dbbb
000000c0: 2f29 48bb 2664 bc3b 5f18 f73a 5b7a 87bc
000000d0: a754 36bc a704 553c 4287 d1bb 257c d7ba
000000e0: 2bb6 16bc 102d 2dbc 8fa7 b5bb e836 05bc
000000f0: cf60 8abc 050a e7b8 1c8b c63a a710 433c
00000100: f19a aebb 7b44 6abb 3d39 923b 521d 723b
00000110: b7cf 57ba 18a9 e9bb e062 6dbb e7df f2bb
00000120: 1488 bbba 438f 36bc dbb4 b33b 46bc 083c
00000130: 9ff7 8e3c ab76 c0bb 4a2f 0b3c 6837 0c3b
00000140: 028e 563c 6de3 fcbb 13fa 91bc 3b4b e23b
00000150: 6b60 4abc 83d0 cc3b 6c1d aeba da06 8e3b
00000160: 47d4 dcbb d5fc 193a 5b5b 74bc dbf0 623b
00000170: 8511 643b 96b2 1b3c 1dc3 f1bb f96d 823c
00000180: d39f 18bb 7c97 3e3b 8321 86ba c7a1 10bc
00000190: 1d56 453c a84b 9bbb 7d2f e9bb 6a35 a0bb
000001a0: cdf2 333c 484f d33b 23ac 9c3a ad6d 233c
000001b0: 272c 13bb f76c 143c 19e6 45bc 23e2 383b
000001c0: 4f52 25bb 084f 8a3c 0d26 e3ba 32fe d6b9
000001d0: 6542 57bc c2be b7bc 0aba c3bb 0bd5 433b
000001e0: 3bab 083c bfad b239 8b8f 1bbc c0ae 0abb
000001f0: 98b1 8bbb 9f2c 75ba cf23 283b 34a3 08b9
