ML Agents tutorial/Assets/results/RollerBall3/RollerBall/RollerBall-976706.onnx (onnx, 77817 bytes, 8 tensors)

network_body._body_endoder.seq_layers.0.weight f4 [128, 12]
000000 ce 7a 05 bf 2c d4 94 be 69 5b 0b be cf 1e 04 bf
       -0.5214051 -0.29068124 -0.13609089 -0.5160951
000010 e7 81 a1 3e 5d 3b 56 be f1 e4 bd bb 23 7f 4a 3f
       0.3154442 -0.20921083 -0.005795114 0.79100245
000020 26 c2 29 be 3c 4a 80 be 2d 40 72 be 98 31 fc be
       -0.16577968 -0.25056636 -0.23657294 -0.49256587
000030 43 b3 44 3e be 2a eb be 98 5d 12 3e 98 ba 2a bd
       0.19209008 -0.45931047 0.14293516 -0.041681856
000040 28 5b a5 bd cf 43 f2 bd 29 40 95 be 01 e3 aa be
       -0.08074027 -0.1182934 -0.29150513 -0.33376315
000050 3c 43 c4 be cc ff 2a be 1c 21 80 bd 23 d8 d3 be
       -0.38332546 -0.16699141 -0.06256315 -0.41375837
000060 92 c4 b8 be 96 d1 7b bd a5 99 00 be 53 8c 8e bc
       -0.3608747 -0.061479174 -0.1255861 -0.017400896
000070 86 70 80 3e 5d 8b 64 3e 64 d4 2a be d2 bc 27 be
       0.2508585 0.22318788 -0.16682583 -0.16380623
000080 5f 9d 5b 3e ac 34 52 be 8c fe f8 3e cf 21 97 be
       0.21446751 -0.20527905 0.48631704 -0.2951798
000090 5e 6d b6 bc 01 e5 3f 3e b9 55 10 3e fd ec 15 3d
       -0.022268947 0.18739702 0.140952 0.036602963
0000a0 3a 0b f9 be 57 a0 0a be 15 e8 e4 3e 61 f2 89 3e
       -0.48641378 -0.13537727 0.44708315 0.26942733
0000b0 31 19 85 3c 7a e9 03 3e 69 7f 64 be 54 df 9a bd
       0.016247364 0.12882033 -0.22314228 -0.07562128
0000c0 f8 b7 cc be 94 d6 85 bd 72 0d 2f bd c4 c0 a1 3e
       -0.39984107 -0.06535068 -0.04273743 0.3159238
0000d0 a0 4c f6 be b9 1b b6 bc 12 ab 53 3e 51 8a 66 be
       -0.48105335 -0.022230016 0.20670727 -0.22513701
0000e0 c6 ed 19 bd 32 23 07 3f 2e 15 af 3d e0 87 28 3e
       -0.037580274 0.5278808 0.085489616 0.16458082
0000f0 c6 a9 1f bf 8a e4 dc 3d 14 58 97 3e f2 9a 99 bd
       -0.6236843 0.10785778 0.29559386 -0.075002566
000100 9d 27 86 be db 89 43 be 62 71 56 be b2 43 f9 3e
       -0.26202098 -0.19095556 -0.2094169 0.4868446
000110 f9 a7 03 bf 5c 7c 01 3e e0 39 fc bd e9 26 3b 3f
       -0.5142818 0.12645096 -0.12315726 0.7310625
000120 08 7f 35 be 59 b4 3f 3e 67 1a 57 be d6 23 e6 3d
       -0.1772424 0.18721141 -0.21006165 0.11237304
000130 90 02 63 3e af 6a 29 be 09 96 a4 be 71 8d 1d 3f
       0.22168946 -0.16544603 -0.32145718 0.6154395
000140 af 82 9a bb ef c8 4c be 2a c7 96 3e 4c 24 8c 3e
       -0.0047152857 -0.19998525 0.29448825 0.27371442
000150 a8 b0 8f bd e0 00 c1 bd b8 8a 29 bf 3d ce 90 be
       -0.070161164 -0.09423995 -0.66227293 -0.28282347
000160 08 4a 6e bd 32 d4 80 3d f8 10 2e 3d 23 88 0b be
       -0.05817607 0.06290473 0.04249665 -0.13626151
000170 72 56 0e 3d 34 ed 0c be ae 3b a5 3e b6 fb 44 3d
       0.03475041 -0.13762361 0.32272094 0.048091613
000180 c8 ce 7a be ee 55 8c be 0d c8 80 be 2d 0e 45 bd
       -0.24492943 -0.2740931 -0.25152627 -0.048109222
000190 6b c2 52 3e 72 c3 4b 3f 01 0e d8 be d6 9e a1 3e
       0.20581977 0.795951 -0.42198184 0.31566495
0001a0 cb 70 01 bf ca fa 08 bf 7f 06 af be 37 c9 6c be
       -0.50562733 -0.53507674 -0.34184644 -0.23123632
0001b0 e6 61 88 be 04 8d cf bd 14 91 47 3e 8c f8 94 be
       -0.2663719 -0.101343185 0.19488937 -0.29095876
0001c0 c0 f1 fe be a6 93 01 bf 9d 48 0c be 7a bd 69 3d
       -0.49793816 -0.5061592 -0.13699575 0.057065465
0001d0 3c 68 e3 bd 10 cc 4e bf c2 2c 5d bf f8 d0 57 3e
       -0.111038655 -0.80780125 -0.8639642 0.21075809
0001e0 d8 a2 e7 bd 69 b3 3a bf 42 71 a2 3e 7c 46 f1 3d
       -0.11310357 -0.7293001 0.31727034 0.11781022
0001f0 13 6e 21 be fc 68 90 be 09 50 f5 3d 32 ce 81 bd
       -0.15764646 -0.28205097 0.11978156 -0.06338157
000200 c8 30 65 3d 2d 32 04 3d dc eb df 3e c5 08 d9 3e
       0.055954725 0.032274414 0.43734634 0.42389503
000210 38 a9 3f be 7e 0b 3f 3e 16 d3 72 be cc 72 05 3f
       -0.18716896 0.18656728 -0.23713335 0.5212829
000220 20 c1 aa 3c 34 67 a8 3e ca 10 97 be 46 eb ed be
       0.020844042 0.32891238 -0.29504997 -0.46468562
000230 2f e7 2d 3f 4a 85 0f bf e9 bc f1 3e fc ca 7c 3d
       0.67930883 -0.5606276 0.4721444 0.06171702
000240 4a 90 7e bc d1 53 9c be 12 de 06 3d 13 bd 09 3e
       -0.015537331 -0.30532697 0.032926627 0.13451032
000250 81 ae 8e bd f3 0a af 3d 5a 0f df 3d be 59 89 be
       -0.06966878 0.0854701 0.108916 -0.2682628
000260 9c df da be 02 ab 50 be 37 3e 5d be 90 b9 80 be
       -0.42748725 -0.20377734 -0.21605764 -0.25141573
000270 79 b3 ff 3e be e5 e2 bd 25 2b 77 3e f9 21 b0 bd
       0.49941614 -0.11078976 0.24137552 -0.0860023
000280 90 40 0f bf c1 ec 1f bf 87 c8 84 bd 88 51 b1 be
       -0.5595789 -0.6247063 -0.0648356 -0.34632516
000290 f4 27 48 bd 69 cc 3c 3d 3a 8a 38 3e 91 4b 59 bd
       -0.048866227 0.04609338 0.18021479 -0.05305058
0002a0 4f 3c 92 be 6f 6c 1b 3f cf 55 7d be f4 ed 49 3e
       -0.28561637 0.6071233 -0.24739765 0.19719678
0002b0 55 c5 d2 be 4b a8 64 3e 87 e6 1a 3e 10 f6 ba bd
       -0.41166177 0.22329824 0.15127002 -0.09128964
0002c0 7d 30 8f bd 7a b8 26 3f 67 65 59 3f 16 c2 07 3f
       -0.0699167 0.6512524 0.8492035 0.53030527
0002d0 f7 21 cc 3d ce 75 09 bf f1 b6 ea be 60 c6 99 bd
       0.09967416 -0.5369538 -0.45842698 -0.0750854
0002e0 1b 60 54 3e f5 d4 79 3c c7 f1 04 3f 20 f8 61 3e
       0.20739786 0.015248527 0.5193142 0.22067308
0002f0 ac b5 b4 be 13 2d a0 be 2d f2 7e be c1 28 2b 3f
       -0.35294855 -0.3128439 -0.2489707 0.6685906
000300 57 09 5c 3e 7e cb e1 bc e1 c0 8a be 56 92 fc be
       0.21487938 -0.027562853 -0.2710028 -0.49330395
000310 fe e4 bb be 35 4c d0 bd 5d 52 d6 be ee 2f 28 be
       -0.36698145 -0.10170785 -0.41859713 -0.16424534
000320 a2 36 cc bc 01 ae 0b 3f 70 dc b4 be 4d e3 12 bf
       -0.024928395 0.54562384 -0.3532443 -0.57378083
000330 8a a8 3f 3e 72 7c f8 be ee e1 1b bd 43 de d3 be
       0.18716636 -0.48532444 -0.03805726 -0.4138051
000340 9f f5 ff be 89 2c 48 3e dd 03 98 be 87 f0 25 bf
       -0.49992082 0.19548239 -0.29690447 -0.6482014
000350 6e b7 f9 bd 4d 33 83 3e d6 00 e7 bc 91 75 a5 be
       -0.121931896 0.25625077 -0.02819864 -0.3231626
000360 60 08 9d 3c 1e 6b 16 3e 9d 8f 9f be ff 50 93 be
       0.019169033 0.146893 -0.31164256 -0.28772733
000370 3b d2 87 bd 11 c3 f6 be 2d 32 6f 3f 6c d6 13 bd
       -0.06631895 -0.481957 0.9343594 -0.03609316
000380 55 0f 20 be fd af ac 3e 51 c5 ad 3e e9 00 f8 3e
       -0.15630849 0.33728018 0.33939603 0.48438194
000390 29 95 0a be 1a 42 bd bd 47 d8 4e 3d d1 c5 3a 3c
       -0.13533463 -0.092411235 0.050499227 0.011399702
0003a0 0c 54 77 3e cd 8a 77 3e 3a 21 e0 3e e8 d4 d3 3c
       0.24153155 0.24174042 0.4377535 0.025858358
0003b0 de 8d ac 3d bb 62 58 be 9a cc fd 3d 9d 17 7c 3d
       0.084254965 -0.21131413 0.1239254 0.061545957
0003c0 a0 1c 68 bd af 61 10 be 80 6f 10 be d2 8e d1 3e
       -0.056667924 -0.14099763 -0.14105034 0.40929276
0003d0 f1 a7 5a be 9a c9 17 be 1e 88 0a bf ab 3c 8f be
       -0.21353127 -0.14822999 -0.5411395 -0.27975973
0003e0 1f 55 aa bd 33 20 43 bd 55 c4 13 3e e2 99 59 3e
       -0.08317017 -0.04763813 0.14430363 0.21250108
0003f0 5e ee bf 3e 1d 17 07 3e 3f 1a b4 3e 01 52 80 be
       0.37486547 0.13192411 0.35176274 -0.25062564

network_body._body_endoder.seq_layers.0.bias f4 [128]
000000 11 ff 44 be 1d b8 88 be ea 63 2f 3c db 5e b9 bd
       -0.19237925 -0.26702967 0.010704974 -0.09051295
000010 84 ec 59 bd 83 8f 0c 3e bc fe 02 3e 35 db 94 bd
       -0.053204075 0.1372662 0.12792486 -0.07268373
000020 16 a2 a9 be 85 a9 15 3e 1c 18 dc bd 8c df a3 3d
       -0.33131474 0.14615448 -0.10746786 0.080016226
000030 1b 56 9f bd 68 c7 66 bd 06 84 58 3d 73 b6 05 be
       -0.07780095 -0.056342512 0.052860282 -0.1305788
000040 83 8b 93 bd ba 29 11 bd 37 df f4 bd 86 53 c8 bd
       -0.07204344 -0.035440184 -0.11956637 -0.09781556
000050 67 cf b4 bd e1 c3 bd bd a7 af 93 3d 9e fa 69 be
       -0.08828621 -0.092658766 0.072112374 -0.22849509
000060 c6 a5 6d 3e c9 14 0b be a9 ae f6 be b8 e9 94 bd
       0.23207769 -0.13582148 -0.4818013 -0.07271141
000070 92 17 fd bc e1 7c 8f be 13 c5 8c be 38 42 5b be
       -0.030895028 -0.28024963 -0.27494106 -0.21411979
000080 23 3c 51 be 6f ba 48 3d cb 45 f2 bd 0a 9c 52 bd
       -0.20433097 0.049005922 -0.11829718 -0.05141834
000090 9f cc 11 be f4 a1 d5 ba 52 e8 2f 3c c7 ae a8 bd
       -0.14238213 -0.0016298876 0.010736542 -0.08236461
0000a0 70 2d 1d be fc 7d c8 be a3 65 09 be 6e 37 41 bd
       -0.15349364 -0.39158618 -0.13417678 -0.047172002
0000b0 c0 97 05 3e 25 46 b1 3d 06 10 82 be dc c4 75 bd
       0.1304617 0.08655957 -0.2540285 -0.060002193
0000c0 99 7b 43 bd 18 88 d9 3c b5 f8 30 3e c4 cf 3e be
       -0.047725294 0.026554152 0.17282374 -0.18633944
0000d0 ca 14 08 be 78 12 02 3e 04 16 91 be ab 70 33 bd
       -0.1328918 0.12702358 -0.2833711 -0.04380862
0000e0 8d 99 a4 3d 7a c3 d6 bd 73 7e a3 3c fd 48 78 be
       0.080371 -0.10486503 0.019957757 -0.24246593
0000f0 a1 0d 9e bd ba 48 32 bd 52 3f 19 3e 3d 73 97 bd
       -0.07717443 -0.04352639 0.14965561 -0.07395027
000100 d4 b2 26 be 8b cd 99 bd 1c 71 10 3d d6 c5 92 3d
       -0.16279155 -0.07509907 0.03526412 0.071666405
000110 e8 fd 01 3c e3 8d 3b be 7b 00 da bd c5 af f1 bc
       0.007934071 -0.18315844 -0.10644623 -0.029502759
000120 42 bb d2 3d d9 aa 92 3b 3f f8 2d 3d 36 a0 92 bd
       0.10289623 0.004475933 0.042473074 -0.07159464
000130 db 92 2c be 55 57 21 be db b5 96 bc 37 65 a4 3d
       -0.16852896 -0.15755971 -0.018397262 0.08027118
000140 5b ea 14 3d c5 3f 52 bd 7c d7 32 bd 5f ed 24 be
       0.03635631 -0.051330347 -0.043662533 -0.16106175
000150 95 de f4 bd 84 d0 b4 bd b8 ce a1 bd 6e 93 c3 bd
       -0.11956517 -0.08828834 -0.079007566 -0.09549604
000160 f0 c2 3a bb 47 af 3b 3d d6 99 14 be 8d 95 37 be
       -0.002849754 0.045821454 -0.14511809 -0.17928143
000170 88 c8 77 be 72 27 bb 3d 4e 4e b2 bd 29 cc 5c be
       -0.2419759 0.09138383 -0.08706342 -0.21562256
000180 f1 a6 d2 bc 8d e4 02 be cd f4 d0 bd b6 3e 19 be
       -0.02571437 -0.12782498 -0.10202942 -0.14965329
000190 89 c8 e6 3c 8f 2f d6 3d 95 7c c8 bd 81 f7 0b be
       0.028171794 0.1045829 -0.09789387 -0.13668634
0001a0 8a 85 8a 3d fc 9b 98 bd 23 2b 17 be 32 35 cd bb
       0.06763752 -0.07451627 -0.14762549 -0.006262445
0001b0 cc f7 b4 bc e4 27 1b be b9 19 f0 bd c0 64 ed bd
       -0.022090815 -0.15151936 -0.11723656 -0.11591482
0001c0 4d db d6 3c 45 f1 28 be 1b f4 66 be 8b 83 d4 3a
       0.026227618 -0.16498287 -0.22554056 0.0016213519
0001d0 35 a6 01 be d4 fc e4 bd 48 f9 3f 3b d9 97 a2 3d
       -0.12661059 -0.11181036 0.002929287 0.07939119
0001e0 87 39 83 be 77 d4 a1 3c 09 08 84 be 72 cd 14 be
       -0.25629827 0.019754631 -0.2578738 -0.14531496
0001f0 db 20 e4 bd 60 8a 83 bd 9e 14 ff bd 8c 5b 14 be
       -0.11139079 -0.06422877 -0.12455104 -0.14488047

network_body._body_endoder.seq_layers.2.weight f4 [128, 128]
000000 83 c1 fd bc ed 72 5e 3d 8c a8 44 bd da 68 97 bd
       -0.030976063 0.05430882 -0.0480123 -0.07393046
000010 3d b3 02 3d e9 5a 2a bd 95 a5 73 bd b3 91 02 be
       0.031909216 -0.041590605 -0.059484083 -0.12750892
000020 f2 5b 5c be 20 14 05 3d e5 6f 0f be 70 5d 9e be
       -0.2151945 0.032489896 -0.14007528 -0.30930662
000030 ef 89 ab 3d 5e 78 3b be 4e 20 e6 be 34 88 e6 bd
       0.08375918 -0.18307635 -0.44946522 -0.112564474
000040 9a b0 c3 3c 72 4d 33 3d 4a a8 4d be 55 cc b7 be
       0.023887921 0.04377503 -0.20083728 -0.3589808
000050 23 96 df 3c 92 5b c6 3d 56 c7 62 be b3 6d 9e be
       0.02729327 0.096854344 -0.22146353 -0.3094307
000060 92 b0 ea 3d 90 9a 95 3e 19 7e 28 be 16 64 81 3d
       0.11459459 0.29219484 -0.16454352 0.06317918
000070 31 3f 1e be 96 cd cd bd 29 cb bd bd d7 fd dd 3d
       -0.15453793 -0.10048978 -0.09267265 0.10839432
000080 24 6b 20 be 60 70 8e bd bb e8 43 be df 7f 1c bd
       -0.15665871 -0.069550276 -0.19131748 -0.038207885
000090 13 dd 14 3e ce d3 3b be e0 74 3c be b3 ad a7 3d
       0.14537458 -0.18342516 -0.1840396 0.08187427
0000a0 23 a5 50 3b 45 a3 39 bd 8b a8 d6 bd ef 65 af bc
       0.003183671 -0.04532172 -0.10481366 -0.02141091
0000b0 13 eb a5 bd 20 3d ef 3c fa 35 2c be a3 7f 1e 3e
       -0.081014775 0.029203951 -0.16817465 0.15478377
0000c0 36 ea 0d be ad 96 8e bd 12 5a 07 bf fd f7 05 3d
       -0.13858876 -0.06962333 -0.5287181 0.032707203
0000d0 23 8b 06 be 9e 3a a1 bd 81 88 f1 bd b8 b4 2b be
       -0.13139014 -0.078725085 -0.11793614 -0.16768157
0000e0 13 bb 3e bd 7e a5 44 3d f3 bd ff bd ae d3 ce bd
       -0.046565127 0.04800939 -0.12487402 -0.100989684
0000f0 28 36 20 3e a5 9f 05 3e 6f 65 93 bc 49 1f 45 be
       0.15645659 0.13049181 -0.017992703 -0.19250216
000100 03 82 72 bd 14 35 4f 3b 86 c0 9a be 93 84 94 be
       -0.05920602 0.003161733 -0.3022501 -0.29007396
000110 6e 73 03 be 2e 73 38 bc 9a 9c 0c be 60 2d 76 be
       -0.12837002 -0.01125793 -0.13731614 -0.24040747
000120 1d 78 16 be 59 82 85 3d ee 38 b0 3d 2b 00 31 3e
       -0.14694257 0.065190025 0.086046085 0.1728522
000130 de 54 5d be ce 3f 4b 3e 19 dc f5 bb 45 f1 57 be
       -0.21614406 0.19848558 -0.0075030443 -0.21088131
000140 9b 01 0e be 95 65 59 bd 21 3f 28 bd 76 2b be bd
       -0.138678 -0.05307539 -0.04107583 -0.09285633
000150 33 e2 9f bc 3a 5b fe 3d 88 e8 92 3d e3 21 8c be
       -0.01951704 0.12419744 0.07173258 -0.27369604
000160 f7 c7 21 bd 4d 2f a0 bb d6 fe c4 bc 17 d1 34 ba
       -0.039497342 -0.004888451 -0.024047296 -0.0006897612
000170 47 22 9b 3d 93 53 84 3d 78 77 15 be 9e c5 49 be
       0.07574897 0.06461253 -0.14596355 -0.19704291
000180 af a1 ce bd 23 41 35 be c9 96 cb 3c ca 98 9f bd
       -0.100894324 -0.17700629 0.024852173 -0.07792814
000190 ea a3 a5 bd ec 6e 1a 3e d8 50 8f be 97 2c 24 3e
       -0.08087905 0.15081376 -0.27991366 0.16032635
0001a0 a8 2b 6d bd bd 04 b2 bc 96 4b 8e be 6c 19 52 3c
       -0.057902962 -0.021730775 -0.27792042 0.012823444
0001b0 94 17 22 3e 94 c4 10 3d 85 c1 a2 be 0a 7f 8e be
       0.15829307 0.03534372 -0.3178827 -0.27831298
0001c0 cc 87 1e be dc 67 a7 bd ee 2f 1a be 00 9b 93 3d
       -0.1548149 -0.081741065 -0.15057346 0.07207298
0001d0 62 f1 9c 3c 86 84 b9 bd 7f 60 4f be b1 37 d1 3d
       0.019158069 -0.0905848 -0.20251654 0.102157004
0001e0 ee 1c 45 bc 73 95 27 be 55 ab 87 bd ef 49 70 be
       -0.012030823 -0.16365604 -0.06624476 -0.23465703
0001f0 79 cd 3d 3e 6a c9 a4 3c 57 5c 5a be cc 62 94 bd
       0.18535413 0.020115573 -0.21324287 -0.072454065
000200 5d 4f d5 3b ae 98 37 be 1c 5b 24 be 6c 80 6b bd
       0.006509705 -0.17929336 -0.1605038 -0.05749552
000210 13 35 cf bd 71 20 40 be 72 da d1 3d c1 c3 00 3d
       -0.10117545 -0.18762375 0.10246743 0.031436685
000220 d9 4d 5e bd cc 64 4a bd 5c 5b 7e bd ae de 26 3c
       -0.05427346 -0.049412534 -0.062098846 0.010184927
000230 03 a4 53 be 17 d3 87 bd c7 cf a5 bd 63 28 86 3d
       -0.20668034 -0.06632059 -0.08096271 0.06550672
000240 62 4d 2c bc 56 c5 a6 be 37 a2 0a 3d fb 25 34 be
       -0.010516496 -0.3257243 0.033846106 -0.17592613
000250 7b a1 f0 bd 75 29 88 bd 6a 1c c0 bc 04 6f 21 be
       -0.1174955 -0.06648532 -0.023451049 -0.15765005
000260 f1 ee b7 bd 80 1a 92 3d 8b 88 7a bc 3e 6b 06 be
       -0.08981121 0.07133961 -0.015291343 -0.13126847
000270 93 3a 8d be 1d c5 21 be fc ff 11 be 87 a8 03 be
       -0.2758375 -0.15797849 -0.14257807 -0.12857257
000280 dc db 06 3d 9c d9 5e be fc 88 e1 bd e1 5f 23 3d
       0.032924518 -0.21762699 -0.11012456 0.03988636
000290 b1 05 35 be 9a 30 14 3e 82 d3 71 3d 68 ba f4 3b
       -0.17677952 0.14471665 0.0590396 0.0074685104
0002a0 eb 83 3d 3c 5e 20 fe bd 1e a8 bc 3d d2 e1 cd 3c
       0.011567096 -0.12408517 0.09211753 0.025132094
0002b0 e2 b1 09 bc e8 89 e4 3c 6b 10 0b bb 80 94 f6 3c
       -0.008404227 0.02789779 -0.0021219503 0.030100107
0002c0 e4 be 03 be 50 a7 a2 bc a0 d4 77 bc a4 7d 35 3b
       -0.12865788 -0.019855171 -0.015126377 0.0027693296
0002d0 60 39 f9 bd 8a 2c 5c bd e2 54 3d bd b8 ca d1 3b
       -0.121691465 -0.053753413 -0.04622353 0.00640234
0002e0 58 64 de 3d 9b bb e3 3b 8e 8d 9f bc ae 25 89 bd
       0.10858983 0.0069498545 -0.019476678 -0.0669664
0002f0 ce a7 da 3d 9a 94 1d bd 59 1c 0e be 2a 39 1d bd
       0.106765375 -0.038471796 -0.13878001 -0.038384594
000300 0d 9c 77 be 75 ad 05 be 81 4a 5b 3d d2 21 3f be
       -0.24180622 -0.1305445 0.05353785 -0.18665245
000310 38 43 07 3e fa b9 88 3c e5 c1 70 ba 73 2f 7a bd
       0.13209236 0.016690243 -0.0009184166 -0.061080407
000320 98 8b d6 3b 74 56 0e be bb c5 db 3d 01 af 5a bd
       0.0065474026 -0.13900167 0.107310735 -0.053389553
000330 c2 44 07 3e b0 d6 2a be b0 48 6f bc 4e 88 39 bd
       0.13209823 -0.1668346 -0.014604732 -0.045296006
000340 c0 44 31 be eb 0a 16 bc 48 15 83 3d f0 31 29 3d
       -0.17311382 -0.0091578765 0.064005435 0.04130739
000350 88 80 77 be ca 06 52 3d fe 4a 8a bd ad db 3b bd
       -0.24170125 0.051276006 -0.06752585 -0.045863796
000360 ec ed 95 bc e6 a7 34 bd 25 ce 46 bd 56 98 63 bd
       -0.018301927 -0.044105433 -0.04853644 -0.0555652
000370 02 ac ce bd 05 aa da bc 54 88 7f be f2 80 6d 3d
       -0.10091402 -0.0266924 -0.24954349 0.0579843
000380 d8 a2 f1 bd fa 1e 3a bd 54 88 97 3c 47 cf 1d be
       -0.11798638 -0.045439698 0.018497624 -0.15411101
000390 ce 32 14 be c3 db 17 3d 27 ef 3b bd 3c fa d0 bd
       -0.14472505 0.037074815 -0.04588237 -0.102039784
0003a0 f3 8d 9b be 98 29 8c be 02 9b 46 3d 78 fc 4f 3c
       -0.30381736 -0.27375484 0.04848767 0.012694471
0003b0 90 cf 09 3d e3 25 2a be a9 6d de 3d 11 96 52 3c
       0.033645213 -0.16616015 0.1086076 0.012853161
0003c0 d0 4e dc bd e1 6a a6 bd 0b 37 b3 bc 25 1f 1b 3b
       -0.1075722 -0.08125854 -0.021876832 0.0023669687
0003d0 5a 42 07 be 3a f7 89 3c 98 0a 79 3d 68 70 a0 bd
       -0.13208905 0.01684152 0.06080112 -0.0783394
0003e0 ec 1c 8f be 55 24 0a bd 77 4e 78 bd 17 83 12 be
       -0.27951753 -0.033726055 -0.060621705 -0.1430782
0003f0 02 89 39 3e 38 4f c2 bd ce d0 47 be b6 71 33 39
       0.1811867 -0.09487766 -0.19513246 0.00017113131

network_body._body_endoder.seq_layers.2.bias f4 [128]
000000 2e 50 3c be 3e 5b 71 bd 0d 92 ce bd 1e 68 3f 3d
       -0.18389961 -0.058924906 -0.10086451 0.046730153
000010 b8 ad 41 be 75 2f 17 be e5 65 2d be 2d 54 55 3d
       -0.18913925 -0.14764197 -0.16933401 0.05208223
000020 12 74 b9 bc 00 be 34 be 6c 8a 03 3e e8 aa 80 bd
       -0.022638354 -0.17650604 0.12845773 -0.06282598
000030 55 a4 e5 bc 14 4e d2 3c 34 b8 07 be 9d 4c 96 3d
       -0.028032461 0.025671996 -0.13253862 0.073388316
000040 23 16 90 3d d5 80 dc bd ba 81 b5 bd 47 14 8b bc
       0.07035472 -0.1076676 -0.08862634 -0.016977442
000050 80 5c 1a 3d cf f4 cf bd c7 d2 c7 bd ad 53 50 bc
       0.03768587 -0.101541154 -0.097569995 -0.012715262
000060 ff 42 be bd 3d 66 a4 bd 32 6e ad 3d e8 f0 9c bd
       -0.09290122 -0.08027313 0.08468284 -0.07663137
000070 ad 85 23 bd 8a 21 79 bd 66 3c a4 bd c2 02 ff bd
       -0.039922405 -0.060823 -0.080193326 -0.12451698
000080 13 2e ef bd 11 83 10 bc 7d e2 ab ba 51 f6 bb bd
       -0.1167871 -0.008820311 -0.0013113763 -0.091778405
000090 a0 b1 e1 bb bc c0 03 be bf 3a 32 be ab 62 f5 bc
       -0.0068876296 -0.12866491 -0.17405222 -0.029954275
0000a0 66 84 c0 bd 9a c6 f7 bd 46 81 20 bd e0 7e 30 bd
       -0.09400253 -0.12098427 -0.039185785 -0.043089747
0000b0 1c ad 46 be c4 5f 14 bd 63 52 1f bd 78 a9 70 3d
       -0.19401973 -0.03622414 -0.03889693 0.058755368
0000c0 3a d0 fb bd bc 62 ff bb 04 fd 54 3c 17 8c ea bd
       -0.122955754 -0.0077937525 0.012999777 -0.11452501
0000d0 b5 a2 52 bd 4e 28 0f be 74 b7 90 bc aa ac 0a 3e
       -0.0514247 -0.13980219 -0.017665602 0.13542429
0000e0 0e 2c b1 bd 5e fc 8c bd 07 99 9b bd f1 d3 a9 3c
       -0.08650981 -0.06884073 -0.07597547 0.020730944
0000f0 94 a2 e9 bd a3 c0 eb bd 0c 16 7b bc 8b 72 21 bd
       -0.114079624 -0.11511352 -0.015325081 -0.039415877
000100 dc 5c 5d 3c 5b 8d a3 bd 8d 34 0f 3d 9e b7 26 3e
       0.013510909 -0.07985946 0.034962226 0.16280982
000110 be 5b 00 be 15 22 36 bd 5e a7 1a be 85 3e b4 ba
       -0.12534997 -0.044466097 -0.15102908 -0.0013751542
000120 6d 93 94 bd c1 63 72 3d d0 49 8a bd 26 aa 20 bc
       -0.07254682 0.059177164 -0.0675236 -0.009806192
000130 60 a2 64 be de 7c dc 3c 92 a1 19 be 59 89 d5 bd
       -0.22327566 0.02691501 -0.1500304 -0.104265876
000140 6b cb fc bb 90 fd 6f bd 20 16 c8 3d 93 47 5f 3c
       -0.007714679 -0.058591425 0.09769845 0.0136279045
000150 6c ef 9d 3d 6d 4a d0 bd e0 55 d9 bd e3 66 27 be
       0.07711682 -0.101704456 -0.106120825 -0.16347842
000160 da 8e 02 be 8e b8 c4 bd 6d 84 a0 bd 78 58 be bd
       -0.12749806 -0.096055135 -0.07837758 -0.09294218
000170 42 5f 92 bd 9e b4 0f be c9 2c be bd f4 7f eb bd
       -0.07147075 -0.14033744 -0.09285886 -0.114990145
000180 c5 0b 1b be 1d 8e 23 bd 07 61 9e bd 49 74 a3 bd
       -0.15141208 -0.03993045 -0.0773335 -0.07981164
000190 41 dd 0b 3d 23 89 82 bb 29 41 a5 bb a2 a8 a4 bd
       0.03414655 -0.003983633 -0.005043168 -0.08039977
0001a0 15 e5 fa bd 9d 75 ad bd bd e7 b0 bd 6c d7 b7 bd
       -0.12250725 -0.084696986 -0.086379506 -0.08976635
0001b0 0b d6 e9 bd a6 f7 ed bc 05 ce 92 bd d8 a8 fe bd
       -0.114177786 -0.029048752 -0.07168201 -0.12434548
0001c0 29 5c a7 bd eb cd f1 bd ec dc dc bd c4 f1 f3 bd
       -0.08171875 -0.11806854 -0.10784325 -0.119113475
0001d0 e2 66 33 be a9 39 dc bd f1 67 02 3d f4 77 73 bc
       -0.17519715 -0.10753185 0.031837407 -0.014860142
0001e0 92 22 80 3d 07 bb e9 bb f3 65 f9 bd ad e0 43 3d
       0.06256594 -0.007132891 -0.121776484 0.04782169
0001f0 a7 37 8d bd 86 ee b3 bd d8 6c 3d be 8d 80 41 bd
       -0.068953805 -0.08785729 -0.18498552 -0.047241736

action_model._continuous_distribution.log_sigma f4 [1, 2]
000000 39 1f 14 bf ac fd 0e bf
       -0.5786014 -0.5585582

action_model._continuous_distribution.mu.weight f4 [2, 128]
000000 38 10 eb 3c ed b4 3e 3d 6f cd a5 bc d9 af 31 3d
       0.028694257 0.046559263 -0.02023956 0.043380592
000010 7e a7 9a 3c 26 39 66 3d 96 77 b1 3b d2 07 01 be
       0.018878695 0.056206845 0.005415867 -0.1260064
000020 57 68 e6 bd a9 24 53 3c de 02 a0 3d ff 94 1c 3c
       -0.1125037 0.012887158 0.07813047 0.009557008
000030 68 bb a9 bd 25 f2 8f bd c0 25 c5 3d d0 94 3b bd
       -0.08287698 -0.07028607 0.09626341 -0.045796216
000040 a8 ae 1e bd 38 61 eb bb c3 63 b6 3d 74 e2 98 bd
       -0.038740784 -0.0071832202 0.08905747 -0.074650675
000050 a7 67 ef bc f7 fe b5 3d 19 18 f7 3d 0a 0f 14 3e
       -0.02922423 0.08886521 0.12065143 0.14458862
000060 f9 34 10 3e 38 26 0d 3e 04 83 0b be cd de 95 3c
       0.14082707 0.1378411 -0.13624197 0.018294716
000070 c0 d6 22 bc 6d cf 2a 3e 8c 96 27 3d 4e 4a ab 3d
       -0.009938896 0.16680689 0.040915057 0.08363782
000080 78 da f8 3d 66 15 0a 3e 51 99 1a 3e db 91 03 3c
       0.121510446 0.13484725 0.15097548 0.00803038
000090 cb 49 06 3e 1f 52 16 be c7 09 42 3d e9 a1 c5 3d
       0.13114087 -0.14679764 0.047372606 0.096500225
0000a0 0b e6 39 bd 37 ff a2 3c 00 19 08 bc e7 96 e7 bd
       -0.0453854 0.019897087 -0.008306742 -0.11308079
0000b0 ac 29 46 3c 40 90 1b 3d 04 cb f8 3c 37 ee 9d bd
       0.012094896 0.037979364 0.030370243 -0.077114515
0000c0 ae cf f2 bc c2 61 79 3e ec 93 a5 bd 75 64 4f ba
       -0.029640045 0.24353698 -0.080848545 -0.00079113926
0000d0 21 19 84 bd e5 a6 ca bc fb 18 23 bd 2e bc e6 bd
       -0.064501055 -0.024737785 -0.039818745 -0.11266361
0000e0 4f d2 d8 3d bc d8 49 3e 1a 52 75 bd ff a5 24 3e
       0.10586988 0.19711584 -0.05989275 0.16078947
0000f0 d9 8f 2d 3d 33 55 c3 3d ca fa 00 3e e9 b7 d1 bc
       0.042373512 0.09537735 0.12595668 -0.02560039
000100 67 f4 84 bd be 9a 87 bd d1 03 66 3e 39 5f 6b bd
       -0.064919285 -0.066213116 0.22462393 -0.05746386
000110 2f 7d d0 3c 7c b7 74 bc 62 2b c9 3d bd 70 e2 3d
       0.025450317 -0.014936324 0.09822728 0.11056659
000120 64 d3 4d 3e 50 34 9d 3d 77 ad 89 3d 64 ff a4 bd
       0.2010017 0.076759934 0.06722539 -0.080565244
000130 13 ea 00 bd 93 3f fe 3c 1e f5 97 bd 6a 1d 46 3d
       -0.03147323 0.031036174 -0.07419799 0.048367895
000140 ca ff 0e 3e 67 7b 71 3d 33 dc 37 be 1f 99 b4 3d
       0.13964763 0.058955576 -0.17955093 0.08818268
000150 54 71 28 bd 68 c5 df bc ff 03 8d 3d bf 99 be 3d
       -0.041123703 -0.02731581 0.06885528 0.093066685
000160 52 eb 32 3d 23 86 28 3e 3d 0e 1f bd eb 91 09 3e
       0.04368145 0.16457419 -0.038831938 0.1343457
000170 c9 95 5b 3e 1d ef a7 3a 50 30 9b bd 10 b4 82 bd
       0.21443857 0.001281235 -0.07577574 -0.063820004
000180 39 51 af 3c 15 15 1f bd 9a 59 df 3c b9 2b a1 3d
       0.021401035 -0.038838465 0.027264405 0.078696676
000190 de ee 8e 3d ea 69 12 3d 67 bf 9c bc 05 89 7a 3e
       0.06979154 0.03574554 -0.019134236 0.24466331
0001a0 52 dd 3a bd af 16 bd bd 35 00 d0 bc a4 c7 3a 3d
       -0.045621224 -0.09232842 -0.025390724 0.04560055
0001b0 23 54 60 3e e8 b2 83 3d 97 1b 21 bd 22 23 e2 3c
       0.21907096 0.06430608 -0.039332952 0.027604643
0001c0 2c 67 6f bd 34 31 30 3e 9d 5b 25 bd be 13 cc 3d
       -0.058448 0.1720627 -0.040370572 0.09964703
0001d0 55 02 71 3c c3 a5 92 3d 21 55 30 be 27 58 a1 bd
       0.014710029 0.07160523 -0.17219974 -0.07878142
0001e0 e8 cd 93 bd 8a c7 2c 3e bf 7a 99 bd d4 08 85 bd
       -0.07217008 0.16872993 -0.07494115 -0.064958245
0001f0 a8 12 61 3c 94 7e ba bd ad 89 a0 bb 57 04 f1 3d
       0.013737358 -0.09106174 -0.0048992247 0.11768406
000200 eb c0 48 3d 24 0f eb bd e2 29 db bd d8 a5 67 3d
       0.049012106 -0.11477497 -0.10701348 0.056554645
000210 ff 3e 61 be 74 fb 11 be a0 78 e4 bd 17 39 0a 3d
       -0.21996687 -0.14256078 -0.1115582 0.03374585
000220 b4 d3 65 be 38 4d 96 3c 5e 1e bf 3d 8c dd 81 be
       -0.2244404 0.018347368 0.09331964 -0.2536434
000230 24 01 53 3e a3 81 ea 3d 55 70 db 3c a2 ee a7 3c
       0.20605904 0.114505075 0.026786963 0.020499531
000240 47 4b ce 3d fb c3 a9 bd c2 34 41 be 71 1a 5d bd
       0.10072952 -0.082893334 -0.18867782 -0.053980295
000250 40 5c cc 3b b7 ab 15 bd 95 cb 7d be cd b5 1f 3c
       0.006236583 -0.036540713 -0.24784692 0.0097479345
000260 8c a2 89 3c 01 26 ce bc 5f 6a 48 bd ba cd 4e be
       0.016801141 -0.025164606 -0.04892957 -0.20195666
000270 7a a8 45 be 17 df 4e bd ab 60 c0 be ae 05 de 3d
       -0.1930255 -0.050505724 -0.37573752 0.10840927
000280 39 6b 2f bd e1 33 c4 bd db 28 10 be e6 08 58 bd
       -0.042826865 -0.095802076 -0.14078085 -0.05274286
000290 5a 72 2e be cf 3c 03 be a3 f2 c7 bd 0e f9 2d 3b
       -0.17035809 -0.12816165 -0.09763076 0.0026546153
0002a0 f5 84 fb bd 64 71 a0 bc e7 29 4d be 52 4d 6e bd
       -0.12281219 -0.019585319 -0.20035516 -0.058179207
0002b0 04 c5 5e bd 8c c4 3e be ef 00 a1 bd 3f cd 78 3e
       -0.054387107 -0.18629664 -0.07861506 0.24297045
0002c0 fb 54 ac bd c0 3e 50 be b2 ce 07 3c 92 c1 51 3d
       -0.08414646 -0.20336437 0.008289026 0.051209994
0002d0 fa f1 53 be ba 3e 2e 3a 1e b5 0a 3d c2 ba 6f 3d
       -0.20697775 0.000664692 0.033864133 0.058527716
0002e0 92 d8 7e bd c9 8f 4e be 5e d7 1d bd 4f 50 87 3d
       -0.062218256 -0.20172037 -0.03853547 0.066071145
0002f0 b6 f9 e3 bd bb 55 0b bd a5 6f 53 be a6 c1 87 bd
       -0.11131613 -0.034017306 -0.20648058 -0.066287324
000300 bf 1c 0d bd 2d e2 85 bd 2a 8a cd 3c de 92 e9 3d
       -0.034451243 -0.0653728 0.025090296 0.11404966
000310 05 c0 a3 bc 4b 02 86 bd 70 a0 eb bd 27 0e d5 bc
       -0.019989023 -0.06543406 -0.115052104 -0.026007725
000320 d0 61 6f 3d c9 54 6e 3d 7d 7c 14 be 3b 51 59 3d
       0.05844289 0.058186326 -0.14500614 0.053055983
000330 19 44 89 bd 4e 56 fb 3d d8 45 c5 3c 83 da f5 bd
       -0.06702442 0.12272321 0.024081156 -0.120045684
000340 8d d7 7f be b0 74 95 bc 76 08 bf bb 39 a7 15 be
       -0.2498457 -0.018244117 -0.005829866 -0.14614572
000350 b6 06 4c 3d b6 ce 85 be 00 c9 76 be a1 e3 d7 bc
       0.049811088 -0.2613427 -0.24100113 -0.02635366
000360 21 a2 12 be d0 26 6d be d9 2c ed 3a 33 35 81 be
       -0.1431966 -0.23159337 0.0018095031 -0.252359
000370 45 87 51 be e8 39 7f bd da a5 4e be 44 70 a6 bd
       -0.20461757 -0.062311083 -0.20180455 -0.08126882
000380 45 79 d6 bd df 6e d3 bd 59 09 37 3d 30 54 0c bd
       -0.10472349 -0.10323881 0.04468665 -0.034259975
000390 77 52 a3 bd 3f 47 cf 3d ec 74 ec bd 73 57 25 be
       -0.07974713 0.10121011 -0.115457386 -0.1614664
0003a0 de a2 b2 bd a3 95 fe bd 32 0f 44 bd ff 79 0c bd
       -0.08722471 -0.12430885 -0.047866054 -0.034296032
0003b0 00 53 36 be 39 5c d0 bd 0d 2d 5b bd 8e 92 83 be
       -0.178051 -0.1017384 -0.05350976 -0.2569775
0003c0 1f dd 8a 3d 67 df e5 bd eb 8c a0 bd 83 81 1c be
       0.06780457 -0.11224251 -0.07839378 -0.1528378
0003d0 45 97 b9 bd 60 74 c6 bd 49 4f 60 bc d5 c8 0b be
       -0.090620555 -0.096901655 -0.013690778 -0.1365083
0003e0 ee 14 92 ba d4 3b ed bd 67 0c 1c be 79 bd 13 3d
       -0.0011145154 -0.11583677 -0.15239106 0.036069367
0003f0 1f 34 07 be ee 99 b8 bd 9e ca cc bd da f0 11 3d
       -0.13203476 -0.09013735 -0.09999584 0.035630085

action_model._continuous_distribution.mu.bias f4 [2]
000000 ef 08 cb bd 37 ee 34 3e
       -0.09913813 0.17668997

action_model._discrete_distribution.branches.0.weight f4 [1, 128]
000000 2d 70 90 ba 9d e3 a1 bb a3 07 38 3b 43 8f cc bc
       -0.0011019759 -0.0049404637 0.0028080724 -0.024970656
000010 71 67 b0 3b df 76 0e bc a7 f3 97 bc 8d 08 0c bc
       0.005383425 -0.008695333 -0.0185488 -0.008546961
000020 70 49 ed bb 9f e5 cf bb 40 68 2e bc ca 56 b6 bb
       -0.0072414204 -0.0063445116 -0.010644972 -0.0055645453
000030 9d 68 43 3b bc ff 83 3b 81 6b 35 3c 63 bc 4d 3c
       0.0029816993 0.0040282886 0.011072994 0.012557122
000040 8a 23 7f 3c a9 ca 10 3c cd fd 77 bb 0f 56 98 3b
       0.015572438 0.00883738 -0.0037840486 0.004648931
000050 63 de 9d bb a1 a0 3e bc a9 16 2f 3c aa 5d 6c bc
       -0.0048177703 -0.011634977 0.010686555 -0.014426628
000060 84 d1 16 bc 63 36 0b bc 55 08 05 3c 57 05 b9 3a
       -0.009205226 -0.0084968535 0.008119662 0.0014115971
000070 6f ff 23 3b 51 ea 40 bc 4b 35 c8 3b af 45 9c 3c
       0.0025024076 -0.011774615 0.0061098686 0.019076196
000080 7b c5 24 bb fb 07 39 3b 93 ba 39 3c 97 9c 0c 3b
       -0.0025142122 0.0028233516 0.011335987 0.002145564
000090 44 d2 ba 3b 2f 00 95 3b 84 95 8a 3c 87 97 51 3c
       0.005701335 0.004547141 0.016916998 0.012792475
0000a0 c9 ac 3a 3c da 58 6a bc 4e 88 02 3c 51 12 09 3c
       0.011393734 -0.01430341 0.007967068 0.008366183
0000b0 d2 31 72 3a 0f d9 88 bb 32 be dd 3a 0f 44 db bb
       0.0009238991 -0.004176266 0.0016917645 -0.006691463
0000c0 2f 29 48 bb 26 64 bc 3b 5f 18 f7 3a 5b 7a 87 bc
       -0.0030542125 0.0057492433 0.0018851868 -0.016537836
0000d0 a7 54 36 bc a7 04 55 3c 42 87 d1 bb 25 7c d7 ba
       -0.011128581 0.0130015975 -0.006394298 -0.0016440196
0000e0 2b b6 16 bc 10 2d 2d bc 8f a7 b5 bb e8 36 05 bc
       -0.009198706 -0.010569826 -0.005543656 -0.008130766
0000f0 cf 60 8a bc 05 0a e7 b8 1c 8b c6 3a a7 10 43 3c
       -0.016891865 -0.00011016805 0.0015147659 0.011905826
000100 f1 9a ae bb 7b 44 6a bb 3d 39 92 3b 52 1d 72 3b
       -0.005328529 -0.0035746384 0.0044623897 0.0036943746
000110 b7 cf 57 ba 18 a9 e9 bb e0 62 6d bb e7 df f2 bb
       -0.0008232551 -0.0071307532 -0.0036222264 -0.007411945
000120 14 88 bb ba 43 8f 36 bc db b4 b3 3b 46 bc 08 3c
       -0.0014307522 -0.011142555 0.005484206 0.008345669
000130 9f f7 8e 3c ab 76 c0 bb 4a 2f 0b 3c 68 37 0c 3b
       0.01745206 -0.0058735213 0.008495161 0.002139533
000140 02 8e 56 3c 6d e3 fc bb 13 fa 91 bc 3b 4b e2 3b
       0.013095381 -0.007717541 -0.01781944 0.006905941
000150 6b 60 4a bc 83 d0 cc 3b 6c 1d ae ba da 06 8e 3b
       -0.012352089 0.0062504425 -0.0013283915 0.004334313
000160 47 d4 dc bb d5 fc 19 3a 5b 5b 74 bc db f0 62 3b
       -0.0067391726 0.0005874162 -0.014914359 0.0034628424
000170 85 11 64 3b 96 b2 1b 3c 1d c3 f1 bb f9 6d 82 3c
       0.0034800482 0.009503027 -0.0073779956 0.01592158
000180 d3 9f 18 bb 7c 97 3e 3b 83 21 86 ba c7 a1 10 bc
       -0.0023288622 0.002908199 -0.0010233376 -0.008827633
000190 1d 56 45 3c a8 4b 9b bb 7d 2f e9 bb 6a 35 a0 bb
       0.012044457 -0.0047392435 -0.0071162567 -0.00488918
0001a0 cd f2 33 3c 48 4f d3 3b 23 ac 9c 3a ad 6d 23 3c
       0.010983181 0.00644866 0.0011953156 0.009974879
0001b0 27 2c 13 bb f7 6c 14 3c 19 e6 45 bc 23 e2 38 3b
       -0.0022456737 0.009059182 -0.012078785 0.002821096
0001c0 4f 52 25 bb 08 4f 8a 3c 0d 26 e3 ba 32 fe d6 b9
       -0.0025226062 0.016883388 -0.0017330066 -0.0004100665
0001d0 65 42 57 bc c2 be b7 bc 0a ba c3 bb 0b d5 43 3b
       -0.013138388 -0.022429828 -0.0059731053 0.0029881622
0001e0 3b ab 08 3c bf ad b2 39 8b 8f 1b bc c0 ae 0a bb
       0.008341606 0.00034080257 -0.0094946725 -0.0021161288
0001f0 98 b1 8b bb 9f 2c 75 ba cf 23 28 3b 34 a3 08 b9
       -0.004263114 -0.00093526574 0.002565611 -0.00013030769
