ML Agents tutorial/Assets/results/RollerBall3/RollerBall/RollerBall-999979.pt (torch, 459081 bytes, 39 tensors)

network_body._body_endoder.seq_layers.0.weight f4 [128, 12]
00000000: 25e3 06bf 1023 97be cbfc 14be 0ad7 02bf
00000010: 84c6 9f3e b393 60be a46d 783c 0a54 473f
00000020: 7a3e 36be 833b 87be 8e8d 6fbe f3e3 ecbe
00000030: ff6b 3c3e 58eb f2be b638 0b3e 6d8b 46bd
00000040: 6611 c4bd 536c 06be cf5a 91be ae86 abbe
00000050: fcbb c4be 14a2 26be 439e 89bd bc6b d4be
00000060: 70c1 b7be e47a 96bd 4925 01be c270 3dbc
00000070: 3537 753e 2a8a 593e e7e9 1bbe 406a 2cbe
00000080: e1af 5d3e 21ba 51be 7779 f03e 298d 99be
00000090: b6dc 0abb 188f 473e 857e 103e 49f8 213d
000000a0: b2c1 f4be e4a3 01be 236c e83e 36f5 8e3e
000000b0: 33da 0c3d 5eca 033e 3694 64be 937b 99bd
000000c0: d008 c9be 0483 8ebd e6b6 05bd f4f2 a53e
000000d0: b10a f8be c54e 00bd 1e81 423e 55c8 6fbe
000000e0: 5df1 38bd 5929 063f f0db c43d 96b3 233e
000000f0: dfbf 1fbf 333b f23d 680b 9b3e 35a2 90bd
00000100: 16d9 80be 1e40 40be 98b0 44be 82cf fd3e
00000110: 69cf 02bf 94a3 0f3e ebba e7bd ba6c 343f
00000120: e7ba 2cbe 8906 463e 57d7 53be 23d0 d83d
00000130: d674 6a3e 5895 29be ced9 adbe 887d 1e3f
00000140: 29c6 f0bb 944e 43be 6894 983e aa85 933e
00000150: 3c2d 93bd dc45 ddbd cff1 23bf 8912 8ebe
00000160: 2927 90bd 8e4a 423d 67bf 043d e31e 10be
00000170: 736b 203c f9ee 05be df24 a03e 450a 983d
00000180: 832a 79be 75d0 8bbe d212 7fbe bb39 86bd
00000190: f0ea 533e eb27 4d3f 88fd d8be 7cb7 a53e
000001a0: 09c9 03bf 85ad 08bf 52dd adbe 6bcd 62be
000001b0: a14e 85be 5363 d1bd e267 473e 7c76 8fbe
000001c0: 6440 ffbe 1444 03bf ccb4 19be 4b16 9b3d
000001d0: 7dc0 e7bd de88 4fbf f692 5bbf 895b 503e
000001e0: 91a5 dcbd e143 37bf dd7c a83e 17a5 053e
000001f0: 59cd 13be f5ee 8bbe 300c d53d aa95 85bd
00000200: 28f9 503d 2da4 213d c6f9 e03e bec6 dd3e
00000210: 5a6b 48be f166 3c3e 2e53 76be ffdd 043f
00000220: 7ff9 993c 5fd1 a63e 10eb a1be 80d6 f0be
00000230: c7b2 2c3f 385a 10bf b0b6 f13e a321 2b3d
00000240: b289 99bc 31d1 9bbe d4bc d03c e045 003e
00000250: b842 8bbd 14b2 b13d 0e58 d03d 6320 87be
00000260: 48b2 dbbe 5e7e 54be 82d8 53be 8a73 89be
00000270: 2ce8 003f cc7d e0bd 0897 7f3e 412c b9bd
00000280: 1af5 0ebf 943c 1ebf 99bb 38bd acf1 b2be
00000290: 5ce1 48bd cbfc ee3c 7d87 383e 3426 72bd
000002a0: 31ed 90be 7cb1 1b3f fb76 80be 5260 4b3e
000002b0: 3b49 d2be 02dc 603e 6a65 113e 44ca cabd
000002c0: 7c4e 87bd 316d 263f 1519 5a3f fb14 063f
000002d0: 27a5 dc3d bcd8 09bf efa3 e5be fab0 a1bd
000002e0: 93a7 533e de79 8b3c 27bb 063f 6bc2 703e
000002f0: 37c8 b9be b014 9bbe 7966 83be 552e 2e3f
00000300: 564f 643e df64 f6bc c706 8abe 9d75 fcbe
00000310: 28f9 bdbe 3397 c4bd 7615 cfbe 1711 28be
00000320: 4666 b3bc c89a 0b3f 59a4 b7be 2e77 11bf
00000330: e37b 3b3e 1c29 01bf e7af 42bd 8878 cdbe
00000340: dfdb 04bf a79b 3f3e 3918 98be eff7 2cbf
00000350: 7f0f 06be 693d 823e 51a8 19bd 0393 9fbe
00000360: d758 b73c 53c4 0d3e 5453 a5be 4ce8 8dbe
00000370: 3362 9bbd 52a4 f9be 12bc 693f faa5 26bd
00000380: 6856 1bbe 6f6f ac3e 86a3 ab3e fad0 f83e
00000390: 62d0 0dbe a0bc a7bd aded 5d3d 51ed c23b
000003a0: ff11 813e b4fb 7d3e 793e dd3e 8400 b93c
000003b0: 9a25 b93d ed95 63be f40d 023e 0d7c 7c3d
000003c0: 5a31 31bd 432a 02be 3ab2 0fbe 8ab9 d33e
000003d0: 4b42 4cbe 55b5 13be 22b3 0dbf 34c9 95be
000003e0: caa3 9cbd 548f 76bd 60f2 233e 1726 583e
000003f0: a817 bc3e 42ba ef3d 3d25 af3e a409 7fbe
-0.52690345 -0.29518938 -0.14549558 -0.51109374 0.31206143 -0.21931343 0.015162859 0.7786261
-0.1779727 -0.2641259 -0.23393843 -0.4626766 0.18400572 -0.47445178 0.13595852 -0.04847281
-0.09573631 -0.1312726 -0.28389594 -0.3350119 -0.3842467 -0.16272765 -0.06719639 -0.41488445
-0.3588977 -0.07347658 -0.1261188 -0.011562528 0.23946841 0.21244112 -0.15225945 -0.16837406
0.21649124 -0.20481159 0.4696767 -0.2999051 -0.0021188683 0.1948818 0.14110763 0.039543424
-0.47804028 -0.12660176 0.45395002 0.27921456 0.03438778 0.12870166 -0.22322163 -0.07494273
-0.39264536 -0.06958583 -0.03264513 0.3241192 -0.48445657 -0.03132512 0.18994567 -0.23416264
-0.045152057 0.5240684 0.09612262 0.15986475 -0.6240215 0.118276976 0.3028214 -0.070621885
-0.25165623 -0.18774459 -0.1920799 0.49572378 -0.5109773 0.14027244 -0.11314949 0.70478404
-0.16868173 0.1933843 -0.20687614 0.10586574 0.22896132 -0.16560876 -0.33955234 0.61910295
-0.0073478413 -0.19072944 0.29800725 0.28812915 -0.07186362 -0.1080434 -0.64040846 -0.27748516
-0.07038719 0.047434382 0.032409098 -0.14074282 0.009791243 -0.13079442 0.3127813 0.07423834
-0.24332623 -0.27307478 -0.24909523 -0.0655398 0.2069509 0.80139035 -0.4238093 0.3236655
-0.5147863 -0.5338977 -0.33957916 -0.22148673 -0.26036552 -0.10224023 0.19473222 -0.28020084
-0.49853814 -0.51275754 -0.15010375 0.075726114 -0.11316011 -0.8106822 -0.8577112 0.20347418
-0.10773767 -0.7158795 0.32907763 0.13051258 -0.14433803 -0.27330747 0.10402715 -0.06522687
0.051018864 0.03946321 0.43940562 0.4331569 -0.19572201 0.18398644 -0.24055168 0.5190124
0.018795727 0.32581612 -0.3162465 -0.4703865 0.6746029 -0.5638766 0.47209692 0.041780125
-0.018742416 -0.30433038 0.025480665 0.12526655 -0.06799835 0.08676544 0.10173045 -0.26391897
-0.42909455 -0.2075133 -0.2068806 -0.26845962 0.50354266 -0.10961494 0.24959958 -0.09041644
-0.55842745 -0.61811185 -0.045100782 -0.34950006 -0.049043044 0.029173275 0.18020435 -0.059118465
-0.28305963 0.60817695 -0.25090775 0.19860962 -0.41071495 0.21958926 0.14198843 -0.0990186
-0.066067666 0.6501036 0.8519452 0.52375764 0.10773688 -0.53846335 -0.44851634 -0.07895084
0.20669393 0.017025884 0.5262932 0.23511665 -0.36285564 -0.3028922 -0.25664118 0.6803945
0.2229589 -0.030077396 -0.26958296 -0.49308482 -0.37104154 -0.095991515 -0.4044606 -0.1641277
-0.021899354 0.5453305 -0.35867575 -0.5682248 0.18308978 -0.5045335 -0.047531035 -0.4013102
-0.51897997 0.1871172 -0.2970598 -0.67565817 -0.13091849 0.25437477 -0.037514035 -0.3116685
0.02238123 0.13844423 -0.32290137 -0.2771629 -0.075870894 -0.4875818 0.913026 -0.04068563
-0.1516968 0.33678767 0.33523196 0.48596936 -0.13849023 -0.08190274 0.054181743 0.0059487005
0.25209042 0.24803048 0.43211725 0.022583254 0.09040375 -0.22225161 0.12700635 0.06164174
-0.043259956 -0.12711434 -0.14032832 0.41352493 -0.19947164 -0.14424641 -0.5535146 -0.29255068
-0.07648428 -0.060195282 0.16010427 0.2110828 0.36736798 0.11705448 0.34208098 -0.24906021

network_body._body_endoder.seq_layers.0.bias f4 [128]
00000000: ae9c 49be b978 90be f665 a9ba 390b aabd
00000010: 7645 6bbd 923a 173e ea50 093e 3920 b1bd
00000020: 9b1c a9be 6ebe 143e 1d9d c0bd 4a96 9e3d
00000030: 9e4b 9dbd 5ef7 61bd b0d5 5c3d 2843 07be
00000040: ceb1 98bd afd7 5fbd 8716 03be 0ece b2bd
00000050: 6d60 98bd e537 dcbd 447d a23d 9efe 5dbe
00000060: 2ef2 5a3e d688 05be 2bb6 f8be 4fbe afbd
00000070: 2985 8cbc 5ed0 8dbe 7bb4 82be 5fda 5bbe
00000080: f82a 51be 6f13 0e3d debe d6bd 59ef 86bd
00000090: 8e9e 0ebe 0c88 94bc 99a6 fd3b f1b5 a7bd
000000a0: 2fe6 26be 05d2 c4be 511e febd aa0e 55bd
000000b0: 29ce 0d3e a56f a83d 91d7 81be 3cc2 8fbd
000000c0: 78ed 5cbd 713a ec3c 35cf 303e a4b1 43be
000000d0: ff98 06be d013 033e 06b3 8cbe 1888 36bd
000000e0: 2716 873d fdb2 e4bd 903c e73c 040b 7dbe
000000f0: 320f 92bd 9798 45bd 5797 1c3e 0d6e 7abd
00000100: 25b5 29be 3308 a2bd d387 213d 6261 823d
00000110: 6416 b23c 9212 42be f5de e0bd f872 4ebc
00000120: 2d41 e93d 5482 983b 8daf c23c 719a a3bd
00000130: 6451 2dbe 2ddf 10be 953c d4bc dda1 953d
00000140: 0063 db3c bee4 3dbd bab3 13bd ecaf 26be
00000150: a046 e5bd 9446 98bd d936 bdbd a10e b1bd
00000160: e00e 15bc 53f1 1b3d b373 17be 4a16 37be
00000170: 78d2 63be 12e3 ad3d c3e3 b4bd 8c05 5ebe
00000180: 20e0 ffbc 2b51 fcbd 3cfd e7bd c69f 19be
00000190: 5c49 a93c ca5c ef3d e0a1 debd 1f54 18be
000001a0: d780 423d d4ca 95bd 4245 1dbe 7aeb 48bb
000001b0: 6feb c6bc 5367 1dbe 3a9d debd b4d8 f6bd
000001c0: 7def d13c 449d 38be 5cf3 65be 1d98 86bc
000001d0: 0dc3 08be c9d8 d2bd f943 3d3c e5c8 7d3d
000001e0: 8cdc 7fbe f2d2 deba cd8c 84be 2af7 11be
000001f0: d094 f2bd 94e1 63bd ff39 ffbd efbe 17be
-0.19688675 -0.28217104 -0.0012924063 -0.08302922 -0.05743929 0.14768437 0.13409773 -0.08648724
-0.33029637 0.14525768 -0.09404967 0.07743509 -0.076804385 -0.05516755 0.053914726 -0.13209212
-0.074557886 -0.05464905 -0.12801562 -0.08730708 -0.07440267 -0.107528485 0.07934049 -0.2167916
0.21381447 -0.1304048 -0.48576483 -0.0858122 -0.01715334 -0.27698034 -0.2552832 -0.2147002
-0.20426548 0.034686502 -0.10485624 -0.06588621 -0.13927671 -0.018131278 0.0077408073 -0.081889994
-0.16298746 -0.38441482 -0.12408126 -0.052015938 0.13848175 0.082244195 -0.25359777 -0.07019469
-0.053937405 0.02883646 0.17266543 -0.19110733 -0.13144301 0.12800527 -0.27480334 -0.044563383
0.06596022 -0.11166952 0.02822712 -0.24711233 -0.071318045 -0.048241224 0.15292107 -0.06114011
-0.16573007 -0.0791172 0.039436173 0.063662305 0.021739192 -0.18952397 -0.10980026 -0.012600653
0.113893844 0.004654208 0.02376535 -0.07988442 -0.1692558 -0.14147635 -0.025907794 0.073062636
0.026780605 -0.046360724 -0.036060072 -0.16278046 -0.11195111 -0.07435337 -0.09238977 -0.08645368
-0.009097785 0.03807194 -0.1479023 -0.17879596 -0.22248256 0.08490576 -0.088325046 -0.21681803
-0.0312348 -0.12320169 -0.113275975 -0.15002355 0.020664863 0.1168762 -0.10870719 -0.1487584
0.047486152 -0.07314077 -0.15358451 -0.0030657933 -0.024282185 -0.15371446 -0.10869832 -0.120530516
0.025626892 -0.18028742 -0.22456115 -0.016429955 -0.13355656 -0.10295255 0.0115518505 0.061959166
-0.24986476 -0.0017000122 -0.25888672 -0.14254442 -0.1184479 -0.05563505 -0.12462234 -0.14818929

network_body._body_endoder.seq_layers.2.weight f4 [128, 128]
00000000: 955e 66bc 3949 713d b7cc 18bd 17c2 8bbd
00000010: 1e63 d43c 525d 22bd 1235 99bd 916b fdbd
00000020: 60b7 50be 156a e73c a9b0 10be b8c3 a1be
00000030: 6ee0 a63d ae65 3abe efec ecbe 9d86 eebd
00000040: b2e7 123d aa07 4b3d 8856 50be ec79 b6be
00000050: 3957 c93c 9ecc e53d 5dc4 58be e9c4 97be
00000060: d462 ed3d df9a 943e 4075 10be 6fcc a23d
00000070: 37be 17be 66d2 fcbd fbe6 c4bd 7ab0 de3d
00000080: 1d3c 25be 36f4 86bd f4d8 32be 4d03 e8bc
00000090: c987 143e 95d8 22be f836 39be ac4f 943d
000000a0: ca10 893c cee7 1abd fe4c c5bd 771b 7dbc
000000b0: ca56 a7bd 5c93 d73c 03e3 37be 1cf8 1d3e
000000c0: ac04 0cbe 3262 75bd 6555 0cbf 237a f33c
000000d0: 768e d8bd 22e3 a9bd d43a e1bd 63bd 1fbe
000000e0: 7c32 26bd cde2 6e3d 0ba7 e7bd d366 b2bd
000000f0: 17ff 213e ac9b 033e ed18 abbc 769c 31be
00000100: e55c 62bd c3e3 f83b f69f 8bbe bec3 98be
00000110: 5583 f8bd f251 5a3b cf88 f3bd 6500 74be
00000120: c813 1dbe 751f 843d 70f9 c73d da18 323e
00000130: c0fa 67be 8bb2 433e 3550 273c 3219 5abe
00000140: 82c7 08be 306e 31bd 7ff6 07bd 5f06 cebd
00000150: a27b 91bc 084e 043e 9e69 a23d 5150 98be
00000160: 7362 0ebd f6e9 c83b 1fe6 fabb 1ff8 4c3c
00000170: 4a59 8d3d c88e 903d cf6a 13be 83a4 49be
00000180: 7114 d4bd 0632 41be 2f38 9d3c 9047 81bd
00000190: 53db 8dbd 195e 1b3e e338 8cbe c311 1d3e
000001a0: 1b5f 3cbd bf73 44bb fc7a 86be 4d0a 843a
000001b0: db1a 363e 3c4e 243d 2792 97be b2eb 94be
000001c0: efd2 20be 201d 8dbd a16c 06be f912 9b3d
000001d0: 0721 473c 7159 b4bd 4557 3bbe a925 e43d
000001e0: 3794 2c3c 50ac 31be 3e98 60bd d89a 74be
000001f0: 0fe4 313e c147 613c 07c2 51be d060 48bd
00000200: 2bf4 4f3c 8e70 3dbe a7fb 1ebe f757 a2bd
00000210: 5d90 c7bd 0758 38be 8ce2 dc3d 8171 be3c
00000220: a8a2 88bd 593b 15bd c112 32bd 457a 453b
00000230: 3fe4 57be b3e2 95bd be2d 95bd 6e9e 593d
00000240: 86c0 30bc 0065 a6be 4653 233d 87a7 4fbe
00000250: b060 d6bd e121 82bd 7679 e3bc be4e 3dbe
00000260: 9b15 b3bd 7eac a73d a318 00bd 575e e6bd
00000270: ce5a 93be c80c 34be 7574 23be 21e8 d1bd
00000280: 46e5 e63c fc17 5abe e86c 05be 742d 4c3d
00000290: ff0a 29be 9e53 0f3e 975b 363d 9cb0 4d3c
000002a0: cc00 f3b7 5426 f7bd 5d05 d83d c79b 693c
000002b0: 187e 8bbc 55e6 bb3c 1f40 0cbc c1d0 ee3c
000002c0: b409 08be 2536 1ebd 1ad2 0abd a888 5a3c
000002d0: 92b4 02be 0237 66bd 0a7f 90bd f6df bb3c
000002e0: 7653 cc3d 2c50 f13b 304c 84bc bf8e 95bd
000002f0: 75ea c83d d0a3 39bd d5f3 1cbe 73f3 60bd
00000300: cfc4 6bbe eaa4 f1bd 0683 3b3d 9d3d 35be
00000310: 2575 023e 2614 f23c ecd9 36bb 68fb 81bd
00000320: 6e96 c53c 62d2 1bbe 295b eb3d 9b5e 43bd
00000330: cd18 003e 71ad 1dbe 681e 73bb f958 36bd
00000340: 0b36 24be 0ab1 a6bb 2ceb 5d3d 3fd0 423d
00000350: 41b7 81be 4ac3 4c3d 707f 89bd 6e2a 92bd
00000360: a25d 97bc 5d48 40bd 1bef 47bd 7151 49bd
00000370: 6934 c4bd 27a0 e9bc 76b5 81be 8bb9 513d
00000380: e54d 01be d744 5abd ca95 133b 82cd 2abe
00000390: e128 06be 9c41 2c3d 0490 4cbd f6f7 bdbd
000003a0: d9ed 97be 4642 90be 4535 483d 0055 223c
000003b0: f1df c03c a463 34be d4a5 c43d 03d5 d83c
000003c0: cca2 b8bd 0812 95bd c181 00bd ed81 2abc
000003d0: 6b6d febd 32a5 1d3c bdc1 373d 4f57 91bd
000003e0: d40f 96be a200 19bd b6fb 8dbd 372a 1bbe
000003f0: f35e 2d3e 784a d4bd af63 4fbe ca47 f4bb
-0.014060636 0.05890772 -0.037304606 -0.06824129 0.025926169 -0.03963978 -0.074808255 -0.12374032
-0.20382452 0.028248826 -0.1412989 -0.31594634 0.08148275 -0.1820285 -0.46274516 -0.11646769
0.035865493 0.049567856 -0.20345509 -0.35639894 0.024577724 0.11220668 -0.21168657 -0.29642418
0.115911156 0.29024407 -0.14107227 0.07949149 -0.14818655 -0.12344818 -0.096143685 0.10873504
-0.16136213 -0.06589548 -0.17465574 -0.028321886 0.14504923 -0.15902932 -0.18087375 0.07241759
0.016731638 -0.037818722 -0.09633826 -0.015448443 -0.081708506 0.026315384 -0.17957692 0.15426677
-0.13673657 -0.0599081 -0.548178 0.029721325 -0.10574047 -0.08295275 -0.10997549 -0.15599589
-0.04057549 0.058321763 -0.11311158 -0.087110184 0.15819965 0.12852353 -0.020885909 -0.17344841
-0.055264372 0.0075955107 -0.27270478 -0.2983684 -0.121344246 0.0033313003 -0.118913285 -0.23828276
-0.15339577 0.064513125 0.09764373 0.17392293 -0.22654247 0.19111077 0.010211994 -0.21298674
-0.13357356 -0.043317974 -0.03319406 -0.10059809 -0.017759148 0.12920392 0.07930301 -0.29748777
-0.034761857 0.006131406 -0.007656827 0.012510329 0.06901796 0.07058483 -0.14396213 -0.19691662
-0.103554614 -0.18866739 0.01919183 -0.063124776 -0.069265984 0.15172614 -0.2738715 0.15338807
-0.045989137 -0.0029976217 -0.26265705 0.0010073871 0.17783682 0.040113673 -0.29603693 -0.2908607
-0.15705465 -0.06890321 -0.13127376 0.07571978 0.01215387 -0.08806122 -0.1829501 0.111399956
0.010533384 -0.17350888 -0.05483269 -0.23887193 0.17372154 0.013750018 -0.20484172 -0.048920453
0.0126924915 -0.18499967 -0.15525685 -0.07926934 -0.09744332 -0.1800233 0.10785398 0.023247482
-0.06671649 -0.03643355 -0.043474916 0.0030132693 -0.21083163 -0.0731863 -0.07284115 0.053129606
-0.010788089 -0.32498932 0.039874338 -0.2027875 -0.104676604 -0.06354118 -0.027767878 -0.18487069
-0.08744355 0.08187197 -0.031273495 -0.11248463 -0.28780216 -0.17583 -0.15962394 -0.10249353
0.028185498 -0.21298212 -0.13029826 0.049848035 -0.16508101 0.13996741 0.04452094 0.012554314
-2.8968228e-05 -0.120678574 0.10547898 0.014258332 -0.0170279 0.02293698 -0.00856021 0.029152276
-0.13284951 -0.038625855 -0.033891775 0.013338245 -0.12764195 -0.056204803 -0.07055481 0.022933941
0.099768564 0.0073642936 -0.01614961 -0.07302617 0.09810344 -0.04532224 -0.1532739 -0.05491967
-0.23024295 -0.11799033 0.04577925 -0.17699285 0.1274 0.029550623 -0.0027900888 -0.0634678
0.024119582 -0.15216973 0.11491997 -0.047697645 0.12509461 -0.15398194 -0.003709698 -0.044518445
-0.16036241 -0.0050870227 0.054179356 0.04756188 -0.25335124 0.04999093 -0.0671376 -0.07136999
-0.018477265 -0.04694401 -0.048812013 -0.049149934 -0.09580309 -0.02851875 -0.25333756 0.05120234
-0.1262737 -0.053288307 0.00225197 -0.16679958 -0.13101532 0.042054757 -0.04994203 -0.092758104
-0.2967365 -0.28175563 0.048878927 0.009907961 0.023544284 -0.17616135 0.09601942 0.02646876
-0.09015426 -0.0727883 -0.031373743 -0.010406953 -0.124232136 0.009621905 0.044862498 -0.07096731
-0.2930895 -0.03735412 -0.06932776 -0.15152822 0.16930752 -0.10365766 -0.2025287 -0.007454847

network_body._body_endoder.seq_layers.2.bias f4 [128]
00000000: bbab 2dbe c8f3 93bd bca7 a7bd e2b0 2d3d
00000010: 202f 47be e927 1bbe 899d 20be bc08 683d
00000020: 2f3f e7bc 50da 30be 0e3f fe3d eed4 3bbd
00000030: b6f9 06bd dcb4 073d 8c37 01be fbf9 963d
00000040: c80f 813d 3cb3 d6bd bd00 c6bd d15a d2bb
00000050: b81e 0c3d 9625 ebbd 1775 eebd 385d 7abc
00000060: 9717 b1bd fb68 98bd c659 bb3d a28d a8bd
00000070: 9c3f 22bd 0265 6abd 31af a2bd d14f 04be
00000080: 98d7 cebd b76c 9cbc e6e3 6ebb 51f2 94bd
00000090: 8644 58bc 5bf7 0ebe 40f7 2abe 9268 e9bc
000000a0: bf1e bbbd 1a03 f8bd b65d 73bd a761 05bd
000000b0: 8541 3abe 31d7 fbbc a93d 06bd 4808 393d
000000c0: 57eb dcbd 8a66 fc3a e860 e439 da6c d5bd
000000d0: 0260 49bd 255d 1cbe 80ce f7bb 1a91 0f3e
000000e0: 62a1 bbbd 0432 77bd 0d6f b4bd e846 5e3c
000000f0: f29c f3bd 19ca ecbd 96ce 59bc 63ac 20bd
00000100: a48a 8139 bbba a6bd 11eb 053d 061a 203e
00000110: 0c5b 08be 5391 3abd 5928 2dbe 299f d0bb
00000120: 27ae 8bbd 88f6 613d 8400 a3bd 570b 0dbc
00000130: c5ae 68be 66fb 733d 430f 1cbe 09b4 c3bd
00000140: e250 97bc 10c2 46bd b40c dd3d d663 773c
00000150: 1fee 9c3d f955 babd c5f9 febd 693a 21be
00000160: a0a3 f3bd 2b86 bfbd 64f4 b1bd 5ea1 afbd
00000170: 225f 8dbd fe02 1cbe c5df e1bd 481a 02be
00000180: 6373 21be dc40 33bd a82f a2bd ff81 a0bd
00000190: 6fb5 193d 24e4 343c f2a8 07bc 98e6 a6bd
000001a0: d978 febd ad61 c9bd 142e bbbd 4137 c2bd
000001b0: f3a9 f6bd 97c6 19bd 7ded 77bd 2df0 00be
000001c0: e6b7 a7bd 6bc5 e3bd da81 febd 8274 07be
000001d0: 6862 38be d9ad d7bd 68a5 1d3d 68dd 16bc
000001e0: a782 623d cc59 38bc e7d2 03be 02a6 373d
000001f0: 8d40 a6bd 1527 b3bd e676 33be 8ee6 4dbd
-0.16960041 -0.07224232 -0.0818629 0.042405017 -0.1945157 -0.15151943 -0.15685095 0.056648955
-0.02822837 -0.1727078 0.124143705 -0.045857362 -0.032952987 0.033131465 -0.12618846 0.07371899
0.06301838 -0.10483405 -0.096681096 -0.0064195176 0.034208983 -0.11481778 -0.11643427 -0.015281014
-0.086470775 -0.074418984 0.09147982 -0.08230139 -0.039611444 -0.057225235 -0.07943571 -0.12921073
-0.10099715 -0.019094808 -0.0036451756 -0.07272781 -0.013199931 -0.13961546 -0.16695881 -0.028492246
-0.09136724 -0.121099666 -0.05941554 -0.03256383 -0.18189056 -0.03074226 -0.032773647 0.045173913
-0.10787075 0.0019256633 0.0004355975 -0.104211524 -0.049163826 -0.15269907 -0.0075624585 0.14020196
-0.09161641 -0.060350433 -0.08810244 0.01356671 -0.11895169 -0.115619846 -0.013293883 -0.0392269
0.00024708093 -0.08141085 0.03269488 0.15634927 -0.13315982 -0.04554875 -0.16909923 -0.0063666296
-0.06820326 0.05516675 -0.07959083 -0.008608661 -0.2272292 0.059565924 -0.15240197 -0.09555823
-0.018471185 -0.048524916 0.107934386 0.015099486 0.076626055 -0.09098429 -0.124499835 -0.15744938
-0.11896443 -0.093517624 -0.08689192 -0.085757 -0.06902911 -0.15235516 -0.11029009 -0.12705338
-0.15766673 -0.043763027 -0.07919246 -0.07837295 0.037526544 0.011040721 -0.008280026 -0.08149451
-0.124253936 -0.09833083 -0.09139648 -0.09483195 -0.12044134 -0.037542906 -0.06052922 -0.1259162
-0.08189373 -0.11121639 -0.12427111 -0.13228038 -0.18006289 -0.10531206 0.03848782 -0.009208061
0.05530038 -0.011251878 -0.12873422 0.04483605 -0.08117781 -0.08747689 -0.17525825 -0.050268702

action_model._continuous_distribution.log_sigma f4 [1, 2]
00000000: 5e28 18bf f84b 13bf
-0.59436595 -0.57537794

action_model._continuous_distribution.mu.weight f4 [2, 128]
00000000: c473 ed3a 3f62 e93c 1ecd f6bc 9828 463d
00000010: a8a7 db39 f52b 483d a894 c13c 7ebb 04be
00000020: 6fe0 03be 5e3d ad3c ba72 963d 1a0c 153c
00000030: 4152 a6bd 7ede 9bbd d380 d83d f24f 82bd
00000040: e2e6 33bd e0df dabc 863c af3d a02b 8dbd
00000050: 6e01 f6bc 7b72 a03d b1cc f33d 9806 1a3e
00000060: 80c8 113e ff4b 0c3e 6238 10be 6d68 a33c
00000070: 222d 0cbc 1d97 2f3e 73f6 593d a4bd 933d
00000080: 9f7c 033e 168c 0f3e 5e60 253e 9a7b ce39
00000090: c2c6 143e 275f 20be 2f63 4b3d efb6 bd3d
000000a0: 905a 2ebd 5f7d b43c c720 67bc 843c 01be
000000b0: daeb b63a f192 173d 9e35 323d f437 b5bd
000000c0: 0812 e8bc bf64 733e 330f 8ebd 3ebc 643c
000000d0: 0ce9 6abd 1021 f539 2fa8 5bbd de3e e8bd
000000e0: 4946 dd3d d1df 4c3e fded 86bd e71e 233e
000000f0: cf4c 743d 36f6 d03d cd51 f83d 6948 a5bc
00000100: 09ab 6fbd 0101 73bd fb90 643e 0236 71bd
00000110: 04e1 253c 61f7 09bc 29e6 c73d 17bf df3d
00000120: c131 613e 9ab6 9f3d 756b 823d 910a 99bd
00000130: 4f77 32bd f140 353d c926 90bd 2905 5e3d
00000140: c994 0d3e 755e 803d 7574 38be 1413 b63d
00000150: 9b36 41bd 849b f6bc 5b5e 883d 9ac5 bb3d
00000160: 5da2 7c3d eb86 2b3e 8e84 e0bc 6363 fa3d
00000170: fde4 5a3e 769d 603c 04ae 8bbd 6e31 7ebd
00000180: 04e9 1a3d fa63 21bd 6613 9b3c 71c1 a33d
00000190: 70ab 803d 6213 e53c d03d 6dbc be70 683e
000001a0: 8f34 51bd 8c20 a1bd 48cb e1bc 1f92 293d
000001b0: 74a6 5d3e 40ff 9a3d e788 2dbd 2c25 203d
000001c0: 1209 5fbd e1f7 3b3e 7eab f4bc c3aa d03d
000001d0: 2584 ef3c 4d78 953d e1a1 2ebe 9ae9 9bbd
000001e0: c77e 82bd 060c 2d3e ad10 9fbd 49c4 8ebd
000001f0: 85f0 a93c 91b3 afbd e14a 90bb 53bd f23d
00000200: 6ec3 753d 762a d9bd 186f e8bd 8623 713d
00000210: 3059 5dbe 1340 06be 4a91 f1bd 85ab 033d
00000220: bd12 64be 2ed4 d93c d6f2 c33d f457 88be
00000230: 69d3 4a3e 5fbf e93d 50ae 173d 1305 783c
00000240: 333a be3d 8b14 b3bd d9e0 32be f4f7 84bd
00000250: 044a 773b 24d5 debc 3edb 65be 2c81 f33b
00000260: ca59 e73c 28d4 90bc 443f 76bd 6772 3abe
00000270: e2a0 3cbe af40 80bd c1c7 b9be 1768 f93d
00000280: 1250 4fbd 1c5a acbd b403 d7bd 7d50 7ebd
00000290: 7318 24be c8e3 febd 17eb c6bd 6421 8fbb
000002a0: 4a6f efbd 5eaf 00bc 2af2 48be 79b4 86bd
000002b0: c3f9 2bbd a04d 4dbe cafa babd 3fe4 6d3e
000002c0: 65d2 acbd 62c3 4ebe 2864 353a 35a3 653d
000002d0: abd3 42be a30a c63b 28e3 323d 9a95 523d
000002e0: 058f 48bd c04c 5abe 0449 04bd 54ab 853d
000002f0: 6aae ccbd d0c6 43bd a423 52be b96a 99bd
00000300: f2cb 00bd 70ac 8abd 27e0 983c 6c5e da3d
00000310: 4dbd 71bc c89b 88bd 4f33 c7bd 3cd2 82bc
00000320: 9598 2d3d 36ba 743d 5845 01be d483 7f3d
00000330: 4607 6fbd cdbe 1e3e 3a3d e03c ff6a 03be
00000340: f513 66be 2ff1 eabc 5422 8f3b 8501 22be
00000350: 44e4 413d d86e 8cbe 2b27 6abe e33a 04bd
00000360: 7880 0cbe 7f53 67be 37a0 153c 073b 82be
00000370: e39e 5cbe 64fb 43bd b9d7 44be bace 92bd
00000380: 34b6 d7bd ce7b dabd a27e 433d 293e 2fbd
00000390: ea4c a2bd dbf9 dc3d 367c f1bd 8fcb 24be
000003a0: 8254 92bd c669 c4bd ebe5 f4bc 1efb debc
000003b0: 8b0e 2fbe a287 a9bd ed38 81bd 937b 77be
000003c0: b4b2 5b3d 96af d5bd c372 5cbd e18f 0ebe
000003d0: 0ba7 aabd 9558 ccbd 923a a8bc a0d9 0ebe
000003e0: 4d1a 643b 7fb7 fdbd efa2 02be 1fa8 053d
000003f0: 27ad febd daac b4bd b440 dcbd 3352 053d
0.0018116166 0.02848923 -0.030127104 0.048378557 0.0004189585 0.048870046 0.023630455 -0.12962148
-0.12878583 0.021147426 0.07346101 0.0090971235 -0.081211574 -0.076107964 0.10571446 -0.063629046
-0.04392136 -0.02671808 0.08556466 -0.068930864 -0.030029979 0.078343354 0.11904276 0.15041578
0.14236641 0.13700865 -0.14084008 0.019947255 -0.008555682 0.17147489 0.053213548 0.072139055
0.12840508 0.14018282 0.16150042 0.00039383472 0.14528945 -0.15661298 0.049655136 0.092634074
-0.042566836 0.022032438 -0.014106936 -0.12620741 0.0013955787 0.03700537 0.043508165 -0.08848563
-0.02832891 0.237689 -0.06936493 0.013960896 -0.057351157 0.00046754675 -0.05362719 -0.11340116
0.108044215 0.20007254 -0.065883614 0.15929757 0.059643563 0.10203211 0.12124977 -0.02017613
-0.05851272 -0.05932713 0.2232093 -0.058889396 0.010124449 -0.008420796 0.097606964 0.10925119
0.21991636 0.077985 0.06368152 -0.074727185 -0.043570813 0.044251386 -0.07038648 0.05420414
0.13826288 0.06268016 -0.18013175 0.088903576 -0.047171216 -0.030103453 0.06658622 0.09168549
0.06167828 0.16750686 -0.027406957 0.12225988 0.21376415 0.013709417 -0.068203 -0.06205886
0.037819877 -0.039401986 0.018930148 0.079958804 0.06282699 0.027963344 -0.014480069 0.22699258
-0.051075514 -0.07867536 -0.027562752 0.041399118 0.21645528 0.07568216 -0.04236689 0.03909795
-0.05445201 0.18356277 -0.02986693 0.1018882 0.029237816 0.07298336 -0.1705394 -0.07612915
-0.06371837 0.16899118 -0.077668525 -0.06971032 0.020744571 -0.085791714 -0.0044034575 0.11852517
0.06000083 -0.10603802 -0.113493145 0.05887177 -0.21616054 -0.1311038 -0.1179529 0.032145996
-0.22272773 0.026590433 0.09567802 -0.26629603 0.19807209 0.11413454 0.03703147 0.015137929
0.09288444 -0.08744153 -0.17468585 -0.06492606 0.0037733326 -0.027201243 -0.22446916 0.00743117
0.028241057 -0.017679289 -0.06011893 -0.18207704 -0.18420747 -0.062623374 -0.36285213 0.12178057
-0.05061347 -0.084156245 -0.10498753 -0.06208848 -0.16024952 -0.124457896 -0.097128086 -0.004367994
-0.116911486 -0.007854311 -0.19623628 -0.06577391 -0.04198624 -0.20049143 -0.091298655 0.232316
-0.08438567 -0.2019172 0.00069195265 0.05606385 -0.19026057 0.0060437485 0.043673664 0.051412202
-0.04896452 -0.2131834 -0.032296196 0.06526819 -0.09994204 -0.047797024 -0.20521408 -0.07491059
-0.031444497 -0.06771171 0.018661572 0.10662541 -0.0147546055 -0.06670338 -0.09726583 -0.015969388
0.04238184 0.059747897 -0.12624109 0.06238158 -0.058356546 0.15502472 0.027372945 -0.12833785
-0.2246855 -0.028679458 0.004368106 -0.15820892 0.04733683 -0.27428317 -0.22866504 -0.03228272
-0.13720882 -0.22590445 0.0091324365 -0.2543566 -0.21544985 -0.047847167 -0.19222917 -0.07168336
-0.10532799 -0.10668145 0.04772819 -0.04278389 -0.079248264 0.10789844 -0.117912695 -0.16093276
-0.07145025 -0.09590487 -0.02989479 -0.027219351 -0.17095391 -0.08277823 -0.06309686 -0.24168234
0.05363722 -0.10433881 -0.053820383 -0.13922073 -0.08332642 -0.09977833 -0.020535741 -0.13950205
0.0034805716 -0.12388515 -0.12757467 0.032631036 -0.1243537 -0.08822031 -0.10754529 0.032549094

action_model._continuous_distribution.mu.bias f4 [2]
00000000: 8c62 cebd 6fca 2a3e
-0.1007739 0.16678785

action_model._discrete_distribution.branches.0.weight f4 [1, 128]
00000000: 2d70 90ba 9de3 a1bb a307 383b 438f ccbc
00000010: 7167 b03b df76 0ebc a7f3 97bc 8d08 0cbc
00000020: 7049 edbb 9fe5 cfbb 4068 2ebc ca56 b6bb
00000030: 9d68 433b bcff 833b 816b 353c 63bc 4d3c
00000040: 8a23 7f3c a9ca 103c cdfd 77bb 0f56 983b
00000050: 63de 9dbb a1a0 3ebc a916 2f3c aa5d 6cbc
00000060: 84d1 16bc 6336 0bbc 5508 053c 5705 b93a
00000070: 6fff 233b 51ea 40bc 4b35 c83b af45 9c3c
00000080: 7bc5 24bb fb07 393b 93ba 393c 979c 0c3b
00000090: 44d2 ba3b 2f00 953b 8495 8a3c 8797 513c
000000a0: c9ac 3a3c da58 6abc 4e88 023c 5112 093c
000000b0: d231 723a 0fd9 88bb 32be dd3a 0f44 dbbb
000000c0: 2f29 48bb 2664 bc3b 5f18 f73a 5b7a 87bc
000000d0: a754 36bc a704 553c 4287 d1bb 257c d7ba
000000e0: 2bb6 16bc 102d 2dbc 8fa7 b5bb e836 05bc
000000f0: cf60 8abc 050a e7b8 1c8b c63a a710 433c
00000100: f19a aebb 7b44 6abb 3d39 923b 521d 723b
00000110: b7cf 57ba 18a9 e9bb e062 6dbb e7df f2bb
00000120: 1488 bbba 438f 36bc dbb4 b33b 46bc 083c
00000130: 9ff7 8e3c ab76 c0bb 4a2f 0b3c 6837 0c3b
00000140: 028e 563c 6de3 fcbb 13fa 91bc 3b4b e23b
00000150: 6b60 4abc 83d0 cc3b 6c1d aeba da06 8e3b
00000160: 47d4 dcbb d5fc 193a 5b5b 74bc dbf0 623b
00000170: 8511 643b 96b2 1b3c 1dc3 f1bb f96d 823c
00000180: d39f 18bb 7c97 3e3b 8321 86ba c7a1 10bc
00000190: 1d56 453c a84b 9bbb 7d2f e9bb 6a35 a0bb
000001a0: cdf2 333c 484f d33b 23ac 9c3a ad6d 233c
000001b0: 272c 13bb f76c 143c 19e6 45bc 23e2 383b
000001c0: 4f52 25bb 084f 8a3c 0d26 e3ba 32fe d6b9
000001d0: 6542 57bc c2be b7bc 0aba c3bb 0bd5 433b
000001e0: 3bab 083c bfad b239 8b8f 1bbc c0ae 0abb
000001f0: 98b1 8bbb 9f2c 75ba cf23 283b 34a3 08b9
-0.0011019759 -0.0049404637 0.0028080724 -0.024970656 0.005383425 -0.008695333 -0.0185488 -0.008546961
-0.0072414204 -0.0063445116 -0.010644972 -0.0055645453 0.0029816993 0.0040282886 0.011072994 0.012557122
0.015572438 0.00883738 -0.0037840486 0.004648931 -0.0048177703 -0.011634977 0.010686555 -0.014426628
-0.009205226 -0.0084968535 0.008119662 0.0014115971 0.0025024076 -0.011774615 0.0061098686 0.019076196
-0.0025142122 0.0028233516 0.011335987 0.002145564 0.005701335 0.004547141 0.016916998 0.012792475
0.011393734 -0.01430341 0.007967068 0.008366183 0.0009238991 -0.004176266 0.0016917645 -0.006691463
-0.0030542125 0.0057492433 0.0018851868 -0.016537836 -0.011128581 0.0130015975 -0.006394298 -0.0016440196
-0.009198706 -0.010569826 -0.005543656 -0.008130766 -0.016891865 -0.00011016805 0.0015147659 0.011905826
-0.005328529 -0.0035746384 0.0044623897 0.0036943746 -0.0008232551 -0.0071307532 -0.0036222264 -0.007411945
-0.0014307522 -0.011142555 0.005484206 0.008345669 0.01745206 -0.0058735213 0.008495161 0.002139533
0.013095381 -0.007717541 -0.01781944 0.006905941 -0.012352089 0.0062504425 -0.0013283915 0.004334313
-0.0067391726 0.0005874162 -0.014914359 0.0034628424 0.0034800482 0.009503027 -0.0073779956 0.01592158
-0.0023288622 0.002908199 -0.0010233376 -0.008827633 0.012044457 -0.0047392435 -0.0071162567 -0.00488918
0.010983181 0.00644866 0.0011953156 0.009974879 -0.0022456737 0.009059182 -0.012078785 0.002821096
-0.0025226062 0.016883388 -0.0017330066 -0.0004100665 -0.013138388 -0.022429828 -0.0059731053 0.0029881622
0.008341606 0.00034080257 -0.0094946725 -0.0021161288 -0.004263114 -0.00093526574 0.002565611 -0.00013030769

exp_avg f4 [128, 12]
00000000: 4f30 d83a c87f 6d39 4e71 c2bb 118d 8bbb
00000010: bf7f 6d39 680b f53b c10b 54b9 1edb bfba
00000020: 72f6 f239 bea7 84bb 18fe 3a3a b0c9 fa38
00000030: 2055 f1ba bd33 54b9 2788 06ba ca40 c93a
00000040: 9c34 54b9 5370 9cbb b0ab 7c3b 7cdb a6b9
00000050: 0ab4 1eb8 069d 463b 6790 53ba 38c8 0dba
00000060: 9095 1b3a 0030 2fb6 7862 2b3c 6b9b a63b
00000070: 00dc 2fb6 2046 0fbb 2ecf 953b d2ab 16bb
00000080: fd3d 20ba e6aa b73b 1d4b 013b 6851 cc3a
00000090: 7ff2 753b 3728 d439 ad51 ec3a 1c56 11bb
000000a0: 6328 d439 3980 0c3c 2a3b 193b aabd 743b
000000b0: 00ca e832 bcb9 6c3b 55c1 6bbb ebd4 6fba
000000c0: 6467 eebb 50a3 49ba efd5 bebb 7928 23bb
000000d0: 7ca3 49ba 711e 37bc 0147 99bb d394 103b
000000e0: abd6 1839 64b5 bdbb 0105 6dbb 15da 653b
000000f0: 504c 003b 425b 5d39 13e0 773a 3a7e 4ab9
00000100: 6e5b 5d39 b00b 533b c272 da38 aac9 423a
00000110: e57e 4c34 0810 2e38 fe7e f4b9 6cd2 a239
00000120: bd53 e0bb c3e6 3dba 82dd c1bb 3648 05bb
00000130: dce6 3dba e273 d2bb 9e76 b73b 1a37 253a
00000140: 37cc f038 7ee3 75bb ae3d e3bb e10a 0db9
00000150: 5f5f 5b3b cc04 c439 00a6 7bb7 3b3a bfb9
00000160: c804 c439 d1ce 023c 9d69 38ba 8166 76ba
00000170: 627a f538 8f37 f0ba 600e 3c3b 12e3 76ba
00000180: 75f0 f4ba a2fd 7fb9 5bbc ab3b 2aed b9ba
00000190: 50fe 7fb9 d82e 1cbb 58b2 2a3a 64a2 0b3b
000001a0: bc61 d8b9 66f7 33ba 5a15 03bb 3662 723a
000001b0: 7a04 baba 1462 1bb9 8c6a b9ba 1cdc 91b9
000001c0: f361 1bb9 822d fbba b28f 6eb9 aaed f2b9
000001d0: 70b1 3f38 5e8c 583a b5d3 093a 86eb 4ab9
000001e0: 2b36 7b3b d6fe d839 d13f f03a c6a3 7b3a
000001f0: 96fe d839 1e34 b63b 1ee1 5c3a 1aa2 09bb
00000200: 00e2 c536 f137 c73a 4209 0f3b d97d e33a
00000210: 2da2 253c 54a2 833a b923 8b3c 5007 b73b
00000220: e8a1 833a b96b 593c ae84 a0ba 055e c1bb
00000230: 7ebc 52ba 20fb a43b ac26 913b fe61 5cba
00000240: 5868 0a3c ddbc 763a c490 9cb9 8e6f c9bb
00000250: aabc 763a 8a2e b03c 41f5 cdbb a8be b139
00000260: ad7f 9639 8098 4fbc e851 723b 416d acbb
00000270: d898 d43a 3c38 3739 4924 523a fff8 553a
00000280: 6f38 3739 8e8a fd3a 3489 d6b9 e929 aeba
00000290: 28ab e1b5 6262 be39 8606 453a 6af5 caba
000002a0: 19ca 343b df9a a139 f083 8039 002e 8d38
000002b0: 109a a139 1a45 f93b dc16 9a3b a10b 81bb
000002c0: 7f64 0139 0031 5ab7 7c57 23ba 3aa4 9e3b
000002d0: 8ced f03b 629a 663a 1d61 12bc 180b e5bb
000002e0: 759a 663a fd4c ad3c 002f 73ba ea1a b63a
000002f0: 4e8e 563a 42d1 96bb 9cc7 12ba 82e5 feba
00000300: 20b9 453a c8f5 6439 5106 98bc 12d0 38ba
00000310: 30f7 6439 38b4 063b 4ccb 8aba 8f77 babb
00000320: 4a5c a93a a2e7 b43b e0e2 eb3a 8a95 85ba
00000330: 1881 77bb c422 cbb9 dbab 82bb a411 a83b
00000340: b022 cbb9 4f18 51bc ab2e 423a 3cf0 52bb
00000350: ee03 4c39 ef26 73bb afac 9f3b 693d c6bb
00000360: b431 3fba 3588 58b8 7bbe 8cbb b14d 1cbb
00000370: 1088 58b8 ea41 c43a 67de ec37 3106 ca39
00000380: 3c7c 8639 4eca 77ba 93bd 36bb 672b ba3a
00000390: 867d 723b 9e89 a839 76fe 4b3c b442 bc3a
000003a0: d888 a839 58e8 0c3b 4e2f 57bb 4e12 053a
000003b0: 8e33 3bba 9b23 a2bb 574e 843b d8ea f43a
000003c0: 1b62 153b 82d0 8339 4c1d a939 9c2c 38ba
000003d0: 42d0 8339 24e3 cb3b 1166 93ba 42d3 e6b9
000003e0: b6de 3f38 e217 bf3a 767a 4c3a a018 8cb7
000003f0: bf49 41bc f806 a1ba 20e1 3abc 2f80 033b
0.0016493889 0.00022649684 -0.005933917 -0.00425876 0.0002264967 0.0074781664 -0.00020222274 -0.0014637446
0.00046341453 -0.0040483167 0.00071332 0.00011958496 -0.001841221 -0.0002023717 -0.00051319826 0.0015354392
-0.00020237494 -0.0047741323 0.0038554482 -0.00031825516 -3.783781e-05 0.0030305996 -0.0008070529 -0.0005408558
0.00059350673 -2.6104972e-06 0.0104604885 0.0050844452 -2.620509e-06 -0.0021861866 0.004571817 -0.0022990596
-0.00061127526 0.0056050895 0.001972861 0.0015588226 0.0037528572 0.00040465753 0.0018029712 -0.002217657
0.00040465881 0.008575493 0.0023381212 0.0037344494 2.7100214e-08 0.0036121449 -0.003597339 -0.0009148854
-0.0072755087 -0.0007691877 -0.0058238427 -0.002489595 -0.00076919026 -0.011176691 -0.004677654 0.0022061362
0.0001457582 -0.0057894457 -0.0036166313 0.0035072614 0.0019576736 0.00021110199 0.0009455692 -0.00019311244
0.00021110263 0.0032203011 0.00010416425 0.0007430563 1.9045144e-07 4.1499763e-05 -0.00046633923 0.00031055824
-0.00684592 -0.0007244164 -0.0059162984 -0.002033723 -0.00072441786 -0.0064225057 0.005598857 0.0006302461
0.0001148213 -0.003751963 -0.006934843 -0.0001345086 0.0033473594 0.00037387607 -1.4999416e-05 -0.00036473744
0.00037387596 0.007983879 -0.00070347806 -0.00093994295 0.00011705306 -0.0018327105 0.0028695092 -0.00094179914
-0.0018687384 -0.0002441318 0.0052409596 -0.001418506 -0.00024413434 -0.0023831632 0.00065115606 0.002130651
-0.00041271548 -0.00068651733 -0.002000174 0.0009246202 -0.0014192008 -0.00014818489 -0.0014146133 -0.0002782055
-0.00014818441 -0.0019163343 -0.0002275098 -0.0004633491 4.57032e-05 0.00082606624 0.0005257682 -0.0001935196
0.0038331847 0.00041388598 0.0018329566 0.0009599294 0.00041388412 0.005560412 0.0008425879 -0.002100116
5.8973674e-06 0.0015199167 0.0021825586 0.0017356231 0.0101094665 0.0010042884 0.016984807 0.0055855885
0.0010042759 0.013270312 -0.0012246573 -0.0059011006 -0.0008038952 0.0050348192 0.004429659 -0.0008406936
0.008447729 0.0009412298 -0.00029862497 -0.0061473316 0.00094122684 0.021506567 -0.00628534 0.0003390212
0.00028705355 -0.012670636 0.003697509 -0.0052620475 0.0016219867 0.00017473189 0.0008016271 0.00081624085
0.00017473263 0.0019343661 -0.00040919485 -0.0013287637 -1.6813619e-06 0.00036312925 0.00075159257 -0.0015484516
0.002758628 0.000308237 0.00024512364 6.731972e-05 0.00030823098 0.0076071145 0.004702432 -0.003938154
0.00012339836 -1.3005221e-05 -0.0006230993 0.0048413547 0.0073525365 0.00087968085 -0.008934286 -0.006989848
0.00087968196 0.021154875 -0.0009276718 0.0013893519 0.0008184657 -0.004602582 -0.0005599202 -0.0019447061
0.00075425394 0.00021835335 -0.0185577 -0.0007050048 0.00021835859 0.0020554196 -0.0010589152 -0.005690522
0.0012921181 0.005520777 0.0017996691 -0.0010191661 -0.0037766155 -0.0003874508 -0.003987772 0.005129056
-0.0003874502 -0.012762143 0.0007407467 -0.0032186648 0.0001945642 -0.0037102064 0.0048728804 -0.006049801
-0.0007293478 -5.1625266e-05 -0.004295168 -0.0023850019 -5.162513e-05 0.0014973257 2.8236956e-05 0.00038533055
0.00025651034 -0.0009452448 -0.002788399 0.0014203609 0.0037001087 0.0003214599 0.012450805 0.0014363141
0.00032145414 0.0021500792 -0.0032834592 0.0005076275 -0.0007141166 -0.004948092 0.004037659 0.0018685712
0.002279407 0.00025141618 0.0003225602 -0.000702569 0.0002514143 0.0062221456 -0.0011245628 -0.00044026418
4.5745364e-05 0.0014579261 0.00078002305 -1.6700767e-05 -0.011797368 -0.0012285402 -0.011406213 0.0020065417

exp_avg_sq f4 [128, 12]
00000000: a4f8 573b b685 7237 63e7 813b 907d 233a
00000010: 801c 6737 d13f a03b 6b72 e838 4279 1c39
00000020: b696 1538 e674 3a39 c078 ec39 9bc8 9239
00000030: 12f9 db3b 0bcc 9b37 404e aa3b 66e5 003a
00000040: e7d0 9b37 e355 bd3b 6bbf d639 1b38 8839
00000050: 75f0 9937 8e23 d339 5b38 ec39 a665 e439
00000060: 16a3 563b b871 1338 7abf 4f3c 89d4 d53a
00000070: ee93 eb37 9033 d93c 579f 103a 6d4c 073a
00000080: 889e f438 d4a5 543a 5d9d 653b e3dc ac3a
00000090: 45b2 263b 9b57 1637 3797 063b 8bd3 b739
000000a0: 0bf3 1537 8be8 b13a ee3e ef38 e666 c238
000000b0: f3f8 6837 bd2a d338 0f29 1f39 7d63 0639
000000c0: 6f6c 803b 81d3 9537 b928 c33b 0b26 153a
000000d0: 5ace 9437 8a52 ba3b 209c 6239 bceb 4939
000000e0: b04e 4c38 1c2a 3b3a 4e25 9439 5860 5f39
000000f0: ab35 6e3b 3832 5f37 36d6 5e3b d41b 123a
00000100: f62a 5f37 f65d 103b 4bda f338 9320 e338
00000110: 4035 c937 636c 0139 d83f 3c39 9f3a 0d39
00000120: faba 713b e624 4c38 0d23 aa3c 41bc 1e3b
00000130: 7215 1b38 57f5 243d 7ef0 573a 4634 3a3a
00000140: 646a 3739 4acf 3d3a 799b cc3b 1185 043b
00000150: f848 db3a 58ac 5e37 103d 913b 597f 373a
00000160: 86ee 2837 9dfa 1f3c 198f 5839 6c23 4039
00000170: 808f 3038 1e79 3239 e8b6 b93a f48f 133a
00000180: df91 053c 31f2 8538 05a3 ad3c b9be 4f3b
00000190: 9fb9 5a38 f51b 343d 464d 723a d515 4d3a
000001a0: 6006 3439 e6cb 883a 5e1c c73b be5d 0f3b
000001b0: 29e4 fd3b 49bf c837 e805 dc3b 1999 f33a
000001c0: eabd c837 3d88 d03a e2b7 3839 f81b d538
000001d0: 2513 8438 cd9c 3939 15ee 3239 67ec 1339
000001e0: f19d 1e3c b48b 1738 047d 683c 003d d43a
000001f0: dc87 1738 7853 163c 9e66 c439 709f b139
00000200: 60c6 4438 4b35 073a c13f a93a 7086 063a
00000210: edc0 2f3c 8760 9d38 d6a1 ca3c 7510 693b
00000220: 7445 8038 1b14 593d 98bb bb3a e308 803a
00000230: 7729 6a39 e52a b13a 6b36 e53b 23d1 333b
00000240: 89ea d93b e69c 0a38 ce67 003c 2d2e 6d3a
00000250: af30 0a38 76f4 373c 8f3a 033a 3371 0d3a
00000260: 5323 1638 7f76 453a b19c 3c3a a51f 583a
00000270: cd16 493b b207 f936 d67e c13a 44a5 1d39
00000280: fd07 f936 564b bf3a 54b6 ed38 4beb 0b39
00000290: 27fc 3337 c449 0439 21d2 2439 917b 1039
000002a0: 2adf 383c 536c 7838 5c78 983c 0d2c 3e3b
000002b0: d005 6038 6a52 f83c bc04 3e3a be03 283a
000002c0: 472c 2a39 1590 733a d264 783b a614 be3a
000002d0: 6dc4 6e3b a4af a337 6817 b13b 8c27 203a
000002e0: fc47 a337 53b8 093c 9eea 4139 9025 8739
000002f0: 6f1b 7c38 79aa 0c3a bd50 1a3a 7485 f939
00000300: e5be 003c bf1d 1c38 ff7e 3a3c 4835 953a
00000310: 627f 1238 fb68 8e3c 05fa 223a 095e 1c3a
00000320: d66e dd38 fc85 653a 1a97 f93a 7cb8 763a
00000330: ce0c 303c 1079 2038 1fe3 1b3c f197 ac3a
00000340: bfed 1c38 decc 843c ff5b 483a 1691 003a
00000350: 8bd9 9138 16a5 4a3a ca18 da3a 8327 563a
00000360: 94e3 433a 1929 6b36 e6dc 983a 61e8 5439
00000370: deb9 6a36 3f54 423a 8070 6038 e798 6438
00000380: 1904 0d37 4d52 da38 483a 7938 52ac 3438
00000390: 5d3a c43b 8475 1a38 11a0 563c 9487 ee3a
000003a0: a164 0538 cbfd b63c 3760 023a ec88 e939
000003b0: 0fb3 db38 6514 333a fa91 483b 75e1 983a
000003c0: abde 9d3a 1458 a436 75be b53a 71d5 5539
000003d0: cb90 a336 ae5c 883a 134e 1c39 068e 7f38
000003e0: 19d6 6b37 c8b2 9238 d1ad ef38 077a 7838
000003f0: e984 2c3c 2d88 2b38 56ca 1f3c 30f8 a73a
0.0032954598 1.4455456e-05 0.003964351 0.0006236667 1.3775309e-05 0.00489042 0.00011083934 0.00014922491
3.566473e-05 0.0001778189 0.00045103393 0.00027996753 0.006713041 1.8572455e-05 0.0051973164 0.00049169955
1.8574718e-05 0.0057780608 0.00040959878 0.00025981743 1.8350993e-05 0.00040271546 0.00045055416 0.00043563283
0.0032751015 3.515344e-05 0.012679929 0.0016313951 2.8083068e-05 0.026513845 0.00055169075 0.00051612296
0.000116643554 0.00081118685 0.0035036423 0.0013188388 0.0025435847 8.961094e-06 0.0020536908 0.00035062092
8.93768e-06 0.0013573332 0.0001140813 9.269807e-05 1.3886241e-05 0.00010069225 0.00015178717 0.00012816298
0.0039191763 1.7860673e-05 0.0059557823 0.0005689568 1.7739065e-05 0.005686109 0.000216112 0.00019256672
4.8710674e-05 0.00071397587 0.00028256554 0.00021302828 0.0036347907 1.3303528e-05 0.0034002191 0.0005573605
1.3301838e-05 0.0022028661 0.00011627803 0.00010830271 2.3985864e-05 0.00012342776 0.00017952861 0.00013468646
0.0036885128 4.8671754e-05 0.020768667 0.0024221095 3.6974852e-05 0.040273037 0.0008237435 0.0007103126
0.00017491874 0.00072406663 0.0062441197 0.0020220915 0.001673012 1.3272358e-05 0.004432328 0.0006999872
1.0069116e-05 0.009764341 0.00020652673 0.00018323743 4.2095315e-05 0.00017020523 0.001416889 0.00056290557
0.008152454 6.387046e-05 0.021195898 0.0031699373 5.2148123e-05 0.043971974 0.0009243082 0.00078233826
0.00017168513 0.0010436743 0.0060763797 0.0021875943 0.007748146 2.3930932e-05 0.0067145713 0.0018585055
2.3930294e-05 0.0015909743 0.00017616109 0.00010161841 6.2978164e-05 0.00017701388 0.00017064095 0.00014107079
0.009681211 3.6131314e-05 0.014189962 0.0016192496 3.6127734e-05 0.009175174 0.0003746049 0.0003387886
4.6914793e-05 0.00051577826 0.0012912677 0.0005131727 0.010727149 7.504323e-05 0.024735373 0.0035562788
6.116452e-05 0.05299769 0.0014322875 0.0009768273 0.00022331426 0.0013516812 0.0069950125 0.0027437888
0.006650273 3.3047887e-05 0.007837249 0.0009047713 3.2947104e-05 0.011227718 0.00050059793 0.0005395591
3.5795685e-05 0.0007532611 0.00071949797 0.00082444615 0.0030683756 7.421674e-06 0.0014762532 0.00015034253
7.4217082e-06 0.0014594595 0.00011335002 0.00013343726 1.072794e-05 0.00012615981 0.00015718538 0.00013778942
0.011283675 5.9228692e-05 0.01861208 0.0029017956 5.3411175e-05 0.030312736 0.000724863 0.0006409249
0.00016228958 0.0009291184 0.003790189 0.0014502003 0.0036432997 1.9512903e-05 0.0054044016 0.00061094086
1.9464635e-05 0.008405763 0.00018493316 0.00025777193 6.010703e-05 0.00053659786 0.0005886665 0.0004759241
0.007858013 3.7221e-05 0.011382817 0.0011383677 3.4927747e-05 0.017384043 0.00062170654 0.000596494
0.00010558746 0.0008755622 0.0019042224 0.00094116456 0.01074524 3.825972e-05 0.009514599 0.0013167841
3.7414717e-05 0.01621097 0.0007643103 0.0004904432 6.954659e-05 0.0007730288 0.0016639468 0.000816934
0.00074725715 3.504165e-06 0.0011662513 0.00020304463 3.4976906e-06 0.00074130663 5.3510536e-05 5.4501837e-05
8.405209e-06 0.0001041038 5.9420505e-05 4.307583e-05 0.0059884028 3.6825906e-05 0.013099686 0.0018198364
3.180339e-05 0.022337815 0.00049734436 0.00044543238 0.00010476086 0.0006831347 0.0030604587 0.0011663871
0.001204451 4.8978345e-06 0.0013865965 0.00020392776 4.8746347e-06 0.0010403597 0.00014906404 6.0929007e-05
1.405694e-05 6.995123e-05 0.00011428784 5.9241454e-05 0.010529735 4.08964e-05 0.0097528305 0.0012815055

exp_avg f4 [128]
00000000: c87f ed39 bd33 d4b9 0030 afb6 3728 543a
00000010: 50a3 c9ba 425b dd39 c3e6 bdba cc04 443a
00000020: a2fd ffb9 1462 9bb9 d6fe 583a 54a2 033b
00000030: ddbc f63a 3c38 b739 df9a 213a 629a e63a
00000040: c8f5 e439 c422 4bba 3588 d8b8 9e89 283a
00000050: 82d0 033a f806 21bb b074 4db9 f0ed 923a
00000060: fe65 ac3a ef18 8039 defe 8aba 1043 2d39
00000070: 845d c73a 10de ca39 b9c5 e93a 8b5d acb9
00000080: 4d67 df39 ea1e 84bb f205 003a f967 ffb8
00000090: 3af4 b238 215b 42b9 fd8e 0cbb 6cb3 a638
000000a0: bc59 f938 cead 2139 34d5 2ab9 c019 8bb8
000000b0: 974c 83bb 0421 b438 5e66 323a b18a a8b9
000000c0: b2ca 0cbb 84bd 7fba 66d6 4a3b 28c2 1b3a
000000d0: 8245 4eb9 08f1 bbb9 5689 cf39 2070 4037
000000e0: 5d12 edba 121d 10bb a128 68ba 34c8 09ba
000000f0: f509 173b f296 593a c91a 6d3a d24b 473a
00000100: ec20 5c39 ee43 aab9 9fe5 1f3a 6677 e939
00000110: 8850 27b9 5c63 0bba 77ad 393a ad72 f939
00000120: d232 09b9 62b3 86ba 787c 8dba a545 d1ba
00000130: 553c bf39 4649 ad38 ce56 70bb 002e 41ba
00000140: 0aba e8ba 1913 52bb 2474 57ba 5efd 5e3a
00000150: 87fe 843a 66d9 4bbb 6410 d8ba fb1a 413b
00000160: 605e 08bb 9f35 16bb eaa8 ad38 5938 f1ba
00000170: c2aa 86b8 4ea5 db39 3c27 99b8 aeb0 1939
00000180: 2aac dcb9 ce8d 8aba 82ad 9938 b484 9fb9
00000190: e2e1 15bb 72db 7f39 7d0e 33b9 f64d 6638
000001a0: 83d5 61bb a95b 2bba ed29 06ba 20c2 4439
000001b0: 7939 bd3a 93b4 b1ba e5e1 e73a 5bc0 15ba
000001c0: 955a 82ba 3744 21bb 50d3 113b 70db 54bb
000001d0: 2807 c639 56a3 17ba 45cd 1b3b b6dc 44bb
000001e0: 0630 4dba 0c42 7c3a e030 4c3a c842 a239
000001f0: 910f 8bba 04e2 213b d0e2 f1b8 d5e8 0f3b
0.00045299367 -0.0004047434 -5.2209944e-06 0.00080931507 -0.0015383754 0.00042220397 -0.0014488328 0.00074775214
-0.0004882636 -0.00029636978 0.00082777196 0.0020085769 0.0018824596 0.00034946378 0.000616474 0.0017593617
0.0004367067 -0.0007749016 -0.00010325053 0.0006429198 0.00050283235 -0.0024570804 -0.00019593793 0.0011209827
0.0013152955 0.0002443264 -0.0010604521 0.00016523548 0.0015210365 0.00038693892 0.0017835415 -0.0003287609
0.0004261084 -0.0040320056 0.00048836984 -0.00012178714 8.533192e-05 -0.0001853523 -0.0021447532 7.948917e-05
0.000118899596 0.00015418904 -0.00016291888 -6.632833e-05 -0.004006933 8.5892185e-05 0.0006805415 -0.0003214679
-0.002148312 -0.0009755718 0.0030950545 0.00059417123 -0.00019671585 -0.00035847002 0.0003958444 1.1470198e-05
-0.0018087138 -0.0021989984 -0.0008856152 -0.0005255968 0.0023046706 0.00083003857 0.0009044824 0.00076025457
0.000209931 -0.00032475538 0.0006099585 0.00044530182 -0.00015956361 -0.0005317235 0.0007083038 0.0004757842
-0.0001308427 -0.0010276849 -0.0010794541 -0.001596619 0.0003647531 8.262931e-05 -0.0036672833 -0.000736922
-0.0017755639 -0.003205484 -0.00082189054 0.00085063826 0.0010146656 -0.0031104921 -0.0016484377 0.0029465545
-0.0020808205 -0.0022920144 8.2807455e-05 -0.0018403634 -6.421424e-05 0.00041894097 -7.3029165e-05 0.00014657035
-0.00042089942 -0.0010570826 7.327927e-05 -0.00030425715 -0.0022870232 0.00024400445 -0.00017076168 5.490888e-05
-0.0034459538 -0.0006536791 -0.0005117942 0.00018764334 0.0014436684 -0.0013557844 0.0017691223 -0.0005712562
-0.0009945208 -0.002460731 0.0022251196 -0.0032479428 0.00037770835 -0.0005784532 0.0023773473 -0.003003878
-0.00078272854 0.0009622879 0.00077892654 0.00030948804 -0.0010609498 0.0024701366 -0.000115340226 0.0021958847

exp_avg_sq f4 [128]
00000000: b685 7238 0bcc 9b38 b871 1339 9b57 1638
00000010: 81d3 9538 3832 5f38 e624 4c39 58ac 5e38
00000020: 31f2 8539 49bf c838 b48b 1739 8760 9d39
00000030: e69c 0a39 b207 f937 536c 7839 a4af a338
00000040: bf1d 1c39 1079 2039 1929 6b37 8475 1a39
00000050: 1458 a437 2d88 2b39 54ae bf38 6341 153a
00000060: 382d 1d39 51e3 0538 9875 6338 2003 1039
00000070: f543 4539 5752 0e39 ebfd 5439 8da8 9037
00000080: f245 7e38 0a44 9839 223f b838 028f 093a
00000090: 8f36 f137 6c12 7c38 0eb6 5139 ded8 b737
000000a0: fdda 5738 72dd 2538 a5ac 6838 a584 6037
000000b0: 7b33 243a 7786 a838 fbd3 be39 96a1 0e39
000000c0: 66e7 8e39 802a 0b38 5815 9539 0846 ca38
000000d0: d986 ae38 5062 173a fbcc 5439 2db2 1e39
000000e0: 7ab6 e038 6b5d b338 dd49 8d38 a71f c039
000000f0: 1b24 1339 7910 2e38 3895 0c39 a7da 8c39
00000100: b9af 4938 b9b5 ed37 69d4 613a 857d 0f39
00000110: 80bb a338 e1d3 3038 e801 1739 2d70 8b38
00000120: 8e37 6f39 e635 6639 bed0 a039 a7ec 8737
00000130: 6024 3437 0907 6337 a66c 3c3a aa83 e038
00000140: d737 ac38 a74a f838 04d4 0d39 1717 1138
00000150: bc0f 2c39 f28e 9639 5a0e c138 af1e 4339
00000160: 8f33 6639 cd8b 9c39 d856 7d39 b794 e338
00000170: 9ee5 0036 e170 7439 8280 8b37 e3f4 1c38
00000180: e8eb 7638 e5bb 2a39 6654 aa37 8105 b838
00000190: c9a4 7039 a4a7 8538 1079 7738 f535 9837
000001a0: 1d59 5d39 158b f038 810e 5639 d7ed 9438
000001b0: 716c 043a a0b3 b339 53c5 103a 3e6a 8638
000001c0: 8678 8d39 40f0 7c39 d76c 8439 edca be38
000001d0: 9d6d 9f38 b3a9 4138 cf52 b139 c37a 5039
000001e0: 37b9 8e38 df75 3938 43a7 6339 0db4 643a
000001f0: 0082 f038 54d9 6939 bc9b 8739 5f8c 0c39
5.7821824e-05 7.428982e-05 0.00014061376 3.5844376e-05 7.144269e-05 5.3214113e-05 0.00019468702 5.3089432e-05
0.00025548183 9.572373e-05 0.00014452526 0.00030017292 0.00013219155 2.9686697e-05 0.00023691477 7.805161e-05
0.000148884 0.00015303888 1.401666e-05 0.00014730362 1.9591338e-05 0.0001635856 9.140061e-05 0.00056936423
0.00014989532 3.1921376e-05 5.4230535e-05 0.00013734074 0.000188127 0.0001357285 0.00020312487 1.7244625e-05
6.062346e-05 0.00029042392 8.785563e-05 0.0005247445 2.8754845e-05 6.009864e-05 0.00019999614 2.1916287e-05
5.1463943e-05 3.9545303e-05 5.5473898e-05 1.3382324e-05 0.00062637747 8.03591e-05 0.00036397562 0.00013602371
0.00027256756 3.3179764e-05 0.00028435397 9.645155e-05 8.322084e-05 0.00057748426 0.00020294257 0.0001513443
0.00010715141 8.5527856e-05 6.737162e-05 0.00036644677 0.00014032463 4.1500174e-05 0.00013407029 0.0002686579
4.808579e-05 2.8337223e-05 0.00086147204 0.00013684302 7.80737e-05 4.2158998e-05 0.00014401192 6.648931e-05
0.00022813512 0.00021954588 0.00030673103 1.6203454e-05 1.0737305e-05 1.3531892e-05 0.0007187821 0.00010705677
8.212e-05 0.000118394666 0.0001352579 3.4592198e-05 0.0001640906 0.00028716732 9.20563e-05 0.0001860808
0.00021953716 0.00029858798 0.00024160312 0.00010851904 1.920714e-06 0.00023311704 1.6629932e-05 3.7421367e-05
5.8870675e-05 0.0001628246 2.030488e-05 8.774829e-05 0.00022949571 6.37316e-05 5.9002137e-05 1.8144938e-05
0.000211094 0.00011469998 0.00020414033 7.101491e-05 0.00050515594 0.00034275372 0.00055225677 6.409407e-05
0.00026983413 0.00024122093 0.00025258094 9.097704e-05 7.602128e-05 4.617283e-05 0.00033821768 0.00019882158
6.8055866e-05 4.4217213e-05 0.00021710717 0.00087243394 0.00011468306 0.00022301573 0.00025865238 0.00013403733
