ML Agents tutorial/Assets/results/RollerBall2/RollerBall/RollerBall-71055.onnx (onnx, 77817 bytes, 8 tensors)

network_body._body_endoder.seq_layers.0.weight f4 [128, 12]
000000 ad 4e 70 be 36 d8 99 be a6 c7 b7 be 34 b7 4c be
       -0.23467512 -0.30047768 -0.35894507 -0.19991761
000010 3b 26 4b be 21 6d 21 3f 39 0f 25 be cd 6e bc 3e
       -0.19838803 0.6305714 -0.16119088 0.36803284
000020 49 03 6c 3e e8 25 45 3e 70 b7 54 3e e8 28 a0 bd
       0.23048128 0.19252741 0.20773101 -0.07820302
000030 dc 8f df be 56 0b 74 bd 1f 28 5c bd c3 e8 bf bd
       -0.43664443 -0.059581123 -0.0537492 -0.09370568
000040 81 a0 4a be bd f2 1f 3d b5 12 a7 3e 0e 1d d4 3d
       -0.1978779 0.039049853 0.3263146 0.10357104
000050 a5 2b 7f bc 74 49 ea 3e 85 11 a7 3e 1e 65 e5 3e
       -0.0155743705 0.45759165 0.32630554 0.4480371
000060 92 5b 81 3e dc 54 53 be fd 30 84 bd 60 47 16 3f
       0.25265175 -0.2063784 -0.06454656 0.5870266
000070 4d 39 fc bd 3c 0a 56 3d a2 39 b6 be 55 8b d1 3d
       -0.12315617 0.052255854 -0.35590845 0.102316536
000080 29 3b d7 be bc 23 7d be 89 81 e7 3e 68 56 68 3e
       -0.42037323 -0.24720663 0.45216015 0.22689211
000090 1c 96 64 be dc bc e9 3c 67 5b 04 3f 6d 40 d2 3d
       -0.22322887 0.028532438 0.5170197 0.102661945
0000a0 f4 dc cd 3e 04 81 12 3e 65 f5 d3 be 3e 04 bb be
       0.40207636 0.14307028 -0.4139816 -0.36526674
0000b0 c7 61 c2 bd 19 ef 70 3d b2 e1 5b bf 50 31 25 be
       -0.09491306 0.05882177 -0.8589126 -0.16132092
0000c0 ba 97 4b bd 37 9d 80 3c b7 77 b7 3e 8b cb 5e be
       -0.049705245 0.015699966 0.35833523 -0.21757333
0000d0 71 5a 3e be 5c 6a 7d bd c6 2d 33 3e 70 ba ec 3e
       -0.18589188 -0.06186901 0.1749793 0.4623599
0000e0 d4 1d c5 3d 40 d9 a5 bd f3 7b 5d 3e f8 89 68 bf
       0.0962483 -0.08098078 0.21629314 -0.90835524
0000f0 e8 76 fc 3e 78 84 78 3e c3 95 8f be 84 e9 09 3f
       0.49309468 0.24269283 -0.28043947 0.5387194
000100 0f 1e b6 be b5 35 d5 3c 85 3f 5e be d8 d8 40 3f
       -0.35569808 0.026026586 -0.21703918 0.7533088
000110 bb 4f c0 3b 57 21 6e 3a 33 15 0c 3e 28 fa eb bd
       0.0058688796 0.00090839475 0.13679962 -0.11522323
000120 19 0a 12 be 7c 71 9d 3e d4 ca 50 be 11 4d e1 3b
       -0.14261664 0.30750644 -0.20389873 0.006875642
000130 93 23 37 3f 6a f4 2d be 66 31 ba 3e 03 dd 80 be
       0.71538657 -0.16987768 0.36365813 -0.2516862
000140 14 dc 27 be d9 6e bf 3e 89 4a 1a be 67 3e d4 3d
       -0.16392547 0.37389258 -0.15067495 0.10363465
000150 c9 8d a5 bd bb c4 16 bd 89 04 88 be d5 86 d6 3d
       -0.08083684 -0.03680871 -0.2656596 0.10474936
000160 b2 08 3e 3e be e7 97 bd bd d3 67 bd 27 a6 fc bc
       0.18558004 -0.07417248 -0.056598414 -0.030840946
000170 f5 0b 2d 3e 87 8d 8b 3e 6b c9 9f be 5c d6 fa be
       0.16899092 0.27256414 -0.31208357 -0.48991668
000180 93 2e 0b bf d0 3f e3 3e fc c5 58 bd b5 88 ac be
       -0.5436794 0.44384623 -0.052923188 -0.3369805
000190 b6 20 cf bd 51 35 1a be 2a 6d 98 3e c4 20 2e 3f
       -0.10113661 -0.15059401 0.29770786 0.68018746
0001a0 52 7f e4 3e b4 2f d5 3e 7e ed 13 bf 5a 58 91 3e
       0.44628388 0.41637957 -0.5778426 0.2838772
0001b0 d7 01 29 be e6 e3 bc be 31 40 59 3e 7e 9c 47 be
       -0.16504608 -0.36892623 0.21215893 -0.19493291
0001c0 df ca 96 be ae 1b 8d 3c 9b 4e 2a be 33 50 ee 3e
       -0.29451653 0.017225113 -0.16631548 0.46545562
0001d0 72 98 a4 be 2d 25 14 bf b2 85 42 3f 09 fc 62 3f
       -0.32147557 -0.57869226 0.7598525 0.88665825
0001e0 4f b5 81 be 09 3f b7 bd 92 d7 67 3d 3d 67 b3 3e
       -0.2533364 -0.0894757 0.05660207 0.35039702
0001f0 64 56 5b bc 2b a2 af 3e 73 91 cf be 6f be 16 bf
       -0.013387296 0.34303412 -0.40540656 -0.5888433
000200 70 3b a3 be 55 18 f4 3e a4 aa 5b 3e 77 d3 c1 3d
       -0.31881285 0.47674814 0.21451813 0.09464162
000210 74 d8 9b 3d e6 a2 2a 3e 82 0e 30 b9 79 d3 12 be
       0.076096445 0.16663703 -0.00016790073 -0.14338483
000220 15 a6 9f 3e 63 1b eb 3d 02 2b 55 3d 89 45 d7 3b
       0.31181398 0.11479833 0.05204297 0.0065695685
000230 b8 66 e3 3e 0e 92 49 3b 69 db bb 3d c1 3b 86 be
       0.44414306 0.0030757221 0.091727085 -0.26217464
000240 8a 24 a3 3e 68 45 d5 be e7 76 a4 be 8a 0f e2 be
       0.31863815 -0.41654515 -0.32121965 -0.4415248
000250 e2 6b 98 be 1e 5a a8 be 73 85 ad be 98 d6 9d 3e
       -0.29769808 -0.32881254 -0.33890876 0.30827785
000260 d9 f3 79 be a2 54 18 be eb b5 bf 3e 0e bc ff 3d
       -0.24409427 -0.14876035 0.3744348 0.124870405
000270 7d 6c de 3e a8 66 86 be 71 4b bb 3c 68 01 53 3e
       0.43442145 -0.26250196 0.022863122 0.20606005
000280 c7 02 cb 3e 35 95 de 3e 8e db f3 be 2a ab 29 be
       0.39650556 0.4347321 -0.47628444 -0.165692
000290 45 79 29 3e 38 01 57 3c c0 e6 cf 3e 8c 55 ec 3e
       0.16550167 0.013122849 0.40605736 0.46159017
0002a0 b3 e1 05 bf 5b c2 82 be 13 62 bd be d9 45 5b 3d
       -0.52297515 -0.25538906 -0.36988887 0.05353341
0002b0 31 7f 32 3e 22 1e 33 bc d7 d5 e8 be d0 05 49 3f
       0.17431332 -0.010932477 -0.45475647 0.78524494
0002c0 41 dc a0 3e 1e 40 3a 3e c7 b5 62 3d 79 61 ef 3d
       0.3141804 0.18188521 0.055349138 0.11688513
0002d0 14 e6 d7 be df e7 67 be 27 d2 94 bd 5c 83 35 3e
       -0.42167723 -0.22647046 -0.07266646 0.17725891
0002e0 0f b3 a8 bd af e8 62 be 85 44 9f be eb 69 fe bd
       -0.08237278 -0.22159074 -0.31106964 -0.12422546
0002f0 26 94 5d be 79 2d 15 be 45 ba bd bd 01 89 ca be
       -0.21638545 -0.14568128 -0.09264044 -0.3955765
000300 a1 9e 24 3c 81 a3 29 3e c9 ec c5 be 14 fa 07 be
       0.010047586 0.16566278 -0.38657215 -0.13278991
000310 c3 40 eb 3e 61 b8 b6 be e2 82 3a 3f 41 d9 cb be
       0.45947847 -0.35687545 0.7285596 -0.3981419
000320 7b a0 39 be 7e 84 93 be b7 c1 4f 3c 13 7c 81 be
       -0.18127625 -0.2881202 0.012680463 -0.25289974
000330 68 09 b1 be 2b 02 96 3c 08 a3 84 3d 9c 5a ad be
       -0.3457749 0.01831158 0.06476408 -0.33858192
000340 74 49 37 be a0 4e 33 be 53 6b af 3d a7 fc ab 3e
       -0.17899114 -0.17510462 0.08565392 0.33591196
000350 48 76 c6 3e 3a c5 9d 3e 42 a5 84 3e 3d 2b 98 be
       0.38762116 0.30814534 0.25907332 -0.29720488
000360 4d 6d 18 3c 37 11 b9 3e a5 66 c4 be 35 68 be bd
       0.009303403 0.36145946 -0.38359562 -0.0929722
000370 e1 da 3f 3c 3e ab c9 3e 69 3d f1 3c 0e fe 15 3e
       0.0117099 0.3938846 0.029448228 0.14647695
000380 c2 41 df bd 9d 6a 29 be 03 28 c4 3e 47 4e d8 3e
       -0.10901214 -0.16544576 0.38311777 0.4224722
000390 1b eb 16 3e 3b 3a 87 bd 32 25 a4 3e 5e dc e5 3d
       0.14738123 -0.066029035 0.32059628 0.11223672
0003a0 e1 3c 70 be 2c 8b 9c bc d0 7c 3e bf 30 0a f1 3c
       -0.23460723 -0.019109331 -0.744092 0.029423803
0003b0 c4 d3 52 3d 20 7d 5a 3e 6d 5d a7 3d a6 d3 86 3d
       0.051471487 0.21336794 0.081721164 0.065833375
0003c0 e1 de f5 3c 23 bd c2 bd ff 0d 04 3e c8 2e cf be
       0.030013504 -0.09508731 0.12895964 -0.4046538
0003d0 6a e0 93 be 5e 09 c0 3e fc 24 7c bd c8 45 33 3e
       -0.28882152 0.37507147 -0.06155871 0.17507088
0003e0 56 60 ab be 00 eb be bd ef 23 9c be 71 d4 db 3e
       -0.33471936 -0.093221664 -0.30496165 0.42935517
0003f0 59 b3 03 3f 98 34 fa be 99 94 78 3e 7f 33 e2 bd
       0.5144554 -0.4886825 0.24275436 -0.11044978

network_body._body_endoder.seq_layers.0.bias f4 [128]
000000 33 04 5b 3c cc 6a 38 3c 26 b4 76 bd 15 a6 03 bd
       0.0133677 0.011255931 -0.060230397 -0.03214081
000010 89 a8 e3 bd ce e6 31 bd 13 4e cb 3c 52 61 9a 3c
       -0.1111613 -0.043433003 0.024817502 0.018845234
000020 5e 31 15 bd 1c d5 94 3b ff 45 cd bc 97 d1 66 bd
       -0.036424033 0.004542006 -0.02505779 -0.056352224
000030 1c 0b ef bd a4 d7 18 bd 19 95 7c 3c 9e 43 52 bc
       -0.11672041 -0.037315026 0.015416407 -0.012833504
000040 b5 da b3 3d 17 8f a0 bc d4 fe 85 bc 31 eb 1a ba
       0.087819494 -0.01959948 -0.016356863 -0.000590968
000050 86 fa ed 3c 39 69 62 bd d7 4b 67 3c ff 7d ab bc
       0.029050123 -0.05527613 0.014117203 -0.020934103
000060 61 21 40 3c 37 43 e0 bc 6d 1e 43 bd 92 9d 0c 3d
       0.011726708 -0.0273758 -0.04763644 0.03432996
000070 e3 b9 9e bd 12 0a de bb c5 e8 b7 bd 3a 11 74 bc
       -0.07750299 -0.006776103 -0.08979944 -0.014896685
000080 29 ec 99 3d f2 85 0d bd 00 d3 9a 3c b7 1e 11 3d
       0.07515747 -0.03455157 0.01889944 0.035429683
000090 81 70 c0 bb db 8e 82 bd 2d a3 25 bc 5f 10 c3 bd
       -0.0058727865 -0.06374904 -0.010109705 -0.09524607
0000a0 77 a3 ab bc c7 b7 8a bd f3 07 67 bd 1c 99 3c bd
       -0.02095197 -0.06773334 -0.056404065 -0.046044454
0000b0 b1 20 38 3c 10 3a 17 3d 9d 89 51 bc c4 2b 21 bd
       0.011238263 0.036920607 -0.012789157 -0.03934838
0000c0 ac 5b 5e bd e5 9e 09 bd c1 1d 4e bd cd e8 eb bc
       -0.054286644 -0.0335988 -0.050321344 -0.028797532
0000d0 92 ab 7a 3a 9a 62 a8 bc e1 10 fe 3b e4 f9 36 3b
       0.0009562309 -0.02055483 0.007753477 0.0027919943
0000e0 41 26 8e bd cd a2 db bc 68 f0 78 3c 84 df a0 3b
       -0.0694089 -0.026811028 0.015194036 0.0049094576
0000f0 1a 0c 2d bd 68 f8 97 bd 42 d4 7f bd 5a 75 ac bd
       -0.04224787 -0.074204266 -0.062458284 -0.084208205
000100 ca cd 61 bd 1c 5c b2 3b 1c 52 64 bd a5 54 66 bd
       -0.055127896 0.005443109 -0.055742368 -0.056233067
000110 1d 2c b3 bd f4 85 61 3c 3a 1c a4 bc 9a 0b 8a bd
       -0.08748648 0.013764847 -0.02003299 -0.06740494
000120 ad 32 39 bc ec ef a1 bc 3f d7 7b bd 0d 30 07 bd
       -0.011303586 -0.019767724 -0.06148457 -0.03300481
000130 1b a8 e8 bc 7e c0 46 bd 83 d5 ca 3d 6c e8 98 3b
       -0.028400471 -0.04852342 0.099040054 0.0046663787
000140 a1 d2 68 bc 60 6c 50 3a aa 8d 57 3b 19 11 77 bc
       -0.014210374 0.00079507194 0.0032890835 -0.01507976
000150 a5 ff bb bd 12 90 2c bc 17 7e 42 bc 0a 6c 57 bd
       -0.0917962 -0.010532396 -0.0118708825 -0.05259327
000160 c1 b8 05 3b 9e f6 82 bd b0 61 b1 3c 0a b3 98 bd
       0.0020404311 -0.06394695 0.021653026 -0.07456024
000170 65 4d cf bb 17 9f 0f bd 2c b2 bf bd d8 fc 00 bc
       -0.006326365 -0.03506383 -0.093601555 -0.007872783
000180 be 07 11 bd 7d 27 0a bd 3e 91 94 3d 65 bc 64 bc
       -0.035407774 -0.033729065 0.07254265 -0.013960932
000190 d2 3b 06 bd 98 90 33 3c 24 e2 48 bd 33 f2 9d bd
       -0.032771893 0.010959767 -0.04904379 -0.077122115
0001a0 4d 8e 8a 3d c4 12 da bc 4c ce 5c ba cb 6e 3d bd
       0.06765423 -0.026620276 -0.00084230746 -0.04624824
0001b0 c0 59 d0 3a 5f 07 13 bd 33 e1 94 bc 48 6c ef bc
       0.0015895888 -0.0358957 -0.01817379 -0.029226437
0001c0 0f a9 6b bc dc 22 9e bd 4c 73 5e bd 46 0c 03 bc
       -0.014383568 -0.07721493 -0.054309174 -0.007998532
0001d0 e4 73 17 bc 1c 8b ac bd 9f 8e 08 3d 90 f9 9a 3d
       -0.009243939 -0.084249705 0.03333914 0.075671315
0001e0 9f 21 cb 3d 66 d7 9a bc 2a 74 2d bd 53 ec 87 bd
       0.09918522 -0.018901538 -0.04234711 -0.06636872
0001f0 ca 75 0a 3d 9d 9a 5a 3c d9 2f 21 bc 0a a6 81 3d
       0.03380374 0.013342527 -0.009838068 0.063304976

network_body._body_endoder.seq_layers.2.weight f4 [128, 128]
000000 a9 40 2f 3d 32 23 32 be d8 4f 19 3e 7b da c9 bd
       0.042786274 -0.17396238 0.14971864 -0.09856125
000010 7e 4e 22 be d8 9c 68 3d 37 3e ba bc 90 c4 5a bb
       -0.15850255 0.056790203 -0.022734744 -0.003338132
000020 73 93 81 3d 42 5d 30 3e cf 73 23 bd c6 6a c9 bd
       0.06326952 0.17223075 -0.039905366 -0.098348185
000030 6a 92 d2 3d 0a 7e c0 3c 6b 56 fd 3c 0a 81 04 bd
       0.102818325 0.0234976 0.030924996 -0.032349624
000040 07 b4 d6 3c 65 46 97 3d de 8b 94 3c 75 80 bb bd
       0.02620889 0.073864736 0.0181331 -0.091553606
000050 27 da 8d bc 6a 93 fe bd 31 95 45 bd 23 44 a3 3d
       -0.017315937 -0.12430461 -0.048237983 0.079719804
000060 f0 3a 35 3b ab c9 c9 3d 70 e4 c4 3c d8 67 81 3d
       0.0027653538 0.09852918 0.024034709 0.06318635
000070 89 e4 de bd f7 d9 9b bd e6 9c 59 3d e5 79 18 3c
       -0.10883433 -0.07609933 0.053128146 0.009306406
000080 5b a3 c1 bd f0 49 33 3e ed df 80 be 62 00 c4 bc
       -0.09454986 0.17508674 -0.25170842 -0.023925964
000090 bf 62 d2 3d d6 f6 ed 3c c4 9e ad bd ec 82 46 bd
       0.102727406 0.029048365 -0.08477548 -0.0484647
0000a0 ed 25 dd 3d 48 70 8c 3b a3 a3 fb 3d 19 02 19 be
       0.107982494 0.004285846 0.122870706 -0.14942206
0000b0 3e 71 c1 3d c7 f3 a0 3d d2 88 4a 3d 94 a4 a9 bb
       0.09445427 0.07858997 0.04944689 -0.00517709
0000c0 f2 33 29 be 3b 2b 3e 3c 87 57 83 3d 4d ed 1b bd
       -0.16523722 0.011606987 0.06413179 -0.038068105
0000d0 77 62 ec bd 86 d5 14 3d f2 70 f8 3c ea 34 bf bc
       -0.11542218 0.036336444 0.030327294 -0.023340661
0000e0 ec 05 16 3e b0 cf 9b bd bd e6 79 be 22 ef 7a 3d
       0.14650697 -0.076079726 -0.24404426 0.06126321
0000f0 9f 11 9e 3d 67 d2 e4 bc 1a 46 4d 3d c4 13 74 3a
       0.07718205 -0.027932359 0.050115682 0.00093108066
000100 18 bb a2 bd 1f 38 50 3d 80 03 02 be 31 c3 d8 bc
       -0.079458416 0.05083477 -0.12696648 -0.026460262
000110 91 39 bc 3d 92 55 0d 3d 08 19 12 3d 88 87 13 3d
       0.091906674 0.034505434 0.035668403 0.036017925
000120 3a 34 b2 3c b7 e8 4a be 03 e4 09 be 3f 6b ff 3c
       0.02175342 -0.19815336 -0.13465886 0.031179069
000130 5e 7a 71 bd f0 af c3 bd 13 1e e7 bd 0f 77 eb 3b
       -0.05895459 -0.09555042 -0.11285033 0.0071858237
000140 cb d1 b4 3c c7 98 e8 bc 83 94 42 3d 03 f2 bc bb
       0.022072693 -0.028393162 0.047504913 -0.0057661547
000150 89 53 26 bc 18 97 b5 bd 13 32 6c bd de f5 04 be
       -0.010151752 -0.088667095 -0.057664942 -0.12984416
000160 75 b3 65 3d 9e 71 73 3b e2 2f e3 3c e8 6f 75 3d
       0.056079347 0.0037146579 0.027732793 0.059921175
000170 3d 2b 12 be 8f 4f cb bd 3c 22 9f bd 8e 47 94 3c
       -0.14274307 -0.09927284 -0.077702016 0.018100526
000180 ec c9 05 bb 05 4d f2 3d 1c c9 0c 3e 8e c1 63 be
       -0.0020414544 0.118310966 0.13748592 -0.22241804
000190 60 1b e8 3d 9e 0d 29 3e 59 11 5e bd 37 7e 83 3c
       0.11333346 0.16509101 -0.054215763 0.016051395
0001a0 27 d8 88 bd f7 bc 7a 3e 35 51 22 be fa f8 3d bd
       -0.06681853 0.24486147 -0.1585129 -0.04638002
0001b0 51 82 98 bd fc b0 ad bd 54 e2 dd bd 19 29 cc bd
       -0.07446731 -0.08481023 -0.10834184 -0.09968776
0001c0 ac d3 0e bd d9 47 89 3d 9e d4 4c be 11 6f 95 bd
       -0.034869835 0.06703157 -0.20002982 -0.07296575
0001d0 59 3a 19 bd c4 57 d5 bd 75 f5 06 3d 59 0f 93 bd
       -0.03740916 -0.104171306 0.03294893 -0.07180662
0001e0 a7 cd 21 be e8 28 37 be 50 56 86 3d 25 cf 60 bd
       -0.15801106 -0.17886698 0.065594316 -0.05488505
0001f0 b5 9c 8d 3d 2c 57 dd bd 7c 13 dc 3d a3 6f 9c 3d
       0.06914655 -0.10807642 0.10745904 0.076384805
000200 e4 47 86 3b a9 18 c2 bd b5 e5 b3 3d 86 ed 0b 3c
       0.0040979255 -0.0947736 0.087840475 0.008540517
000210 a1 4c c8 3d 07 08 3a 3d 60 24 65 bd 4f a6 8f bd
       0.09780241 0.04541781 -0.055942893 -0.07014143
000220 1a 9b 5e be 5b e4 67 3d 7e 93 ce 3d 87 b5 fc bd
       -0.21738854 0.05661426 0.10086726 -0.12339311
000230 ad 0e 91 bd a2 a7 00 ba 51 93 76 bd a3 3f a0 3d
       -0.07082877 -0.0004907792 -0.060199086 0.07824638
000240 28 a0 95 3d 90 da fa bd 31 b3 95 3a e8 2c 33 bd
       0.07305938 -0.12248719 0.0011421201 -0.043743998
000250 aa 78 89 bc ba a9 f7 bd ef da a5 3d 4c 67 d4 3d
       -0.01678117 -0.1209292 0.08098399 0.10371265
000260 68 f5 85 3d 07 78 2a be fe 0d 4b bc 4b a3 0c be
       0.06540948 -0.1664735 -0.012393473 -0.13734166
000270 d6 cf f6 bd 8a dd 8d bd 50 6c e3 3b 6e 2c 1c 3d
       -0.1205136 -0.06927021 0.006940402 0.03812831
000280 67 8a e4 3d 7d 5a b8 3c f4 27 b0 bc 23 7e 56 be
       0.11159211 0.022504086 -0.021503426 -0.20946555
000290 e2 8a 50 bc 29 c6 24 bd 32 cf cc 3b 00 a7 80 3c
       -0.012728425 -0.040228043 0.0062502855 0.015704632
0002a0 f9 5c 84 3d 43 2c 20 bc d5 d6 10 be f6 ad b2 bd
       0.064630456 -0.009776178 -0.14144452 -0.08724587
0002b0 e5 46 33 bd 09 b5 d3 3c ad 83 db 3d db ed a6 bd
       -0.043768782 0.02584316 0.107184745 -0.08150836
0002c0 ae 9f e9 3a 4e b8 aa bd d2 f8 90 3b d7 05 0b 3e
       0.0017824078 -0.083359346 0.004424193 0.13576446
0002d0 9c 5e 6b 3e 56 ba ca bc 55 26 da 3c 33 b8 82 3c
       0.2298531 -0.024747055 0.026629606 0.015956974
0002e0 a3 04 07 be 81 5c e5 bd 9d 12 af 3d fe 5a 24 3e
       -0.13185363 -0.11199284 0.08548472 0.16050336
0002f0 7d 98 b7 bd 15 75 19 be 3c 18 2f 3d af 60 4d 3c
       -0.08964632 -0.1498607 0.04274772 0.012535258
000300 20 d2 ea 3b 84 ce 7f bc e4 1c 52 bc 51 3e 15 3d
       0.007166162 -0.015613202 -0.012824271 0.036436383
000310 6c 77 af bd 8b dd 87 3d 57 21 85 bc 35 16 32 be
       -0.085677 0.06634053 -0.01625125 -0.17391284
000320 b7 50 63 3d fd fb 35 be 5d 0c f5 bd 6b c3 b6 3d
       0.055496898 -0.17771907 -0.11965249 0.08923992
000330 22 fb bc 3d 75 0c a5 bd 19 18 67 be b4 90 2b be
       0.09227587 -0.080590166 -0.22567786 -0.16754419
000340 f6 bc 14 3e 61 6f 05 3d 34 f9 1f 3e 49 6b 18 be
       0.14525208 0.032576922 0.15622407 -0.14884676
000350 90 ec 8d 3b f5 42 14 3d 85 6e 59 3d 70 fe 2a be
       0.004331179 0.036196668 0.053083915 -0.16698623
000360 80 88 12 bd 96 95 04 3d bc 2e d6 bd 1d fc a3 3d
       -0.035774708 0.03236922 -0.104581326 0.08007071
000370 c1 e6 4a bd 03 aa ca 3d 62 3d 4c bc ba 26 79 bd
       -0.04953647 0.098957084 -0.012465807 -0.06082795
000380 1e d3 15 be b9 f6 0d be 44 4f c6 3d fe 5b 01 3e
       -0.14631316 -0.13863648 0.096830875 0.12632748
000390 45 eb 23 3e ba 51 a3 3d eb c3 b4 3c 7a 77 98 3d
       0.16007717 0.079745725 0.022066077 0.07444663
0003a0 96 d6 e6 bd de a7 8a bd c3 e6 24 be c2 ed 90 bd
       -0.11271398 -0.067702994 -0.16103654 -0.07076599
0003b0 20 4f 26 bd af 99 57 be 26 bf 39 be 95 47 6a 3d
       -0.040602803 -0.2105472 -0.18139324 0.057197172
0003c0 b0 ba 6c 3c 03 66 7f 3d 3a 4f b0 3d 48 62 6b bd
       0.014448807 0.062353145 0.08608861 -0.057466775
0003d0 f4 b6 05 be 47 14 88 bd d8 39 ab bd 64 fa 73 be
       -0.13058072 -0.066444926 -0.08360642 -0.23825985
0003e0 ce f6 95 bd 52 38 13 3d 18 72 42 be df cc de bc
       -0.07322465 0.035942383 -0.18988836 -0.0271973
0003f0 75 c6 fc ba dc 72 97 3d 5b ae 7b 3b 37 d8 03 b9
       -0.0019285219 0.073949546 0.0038403485 -0.0001257368

network_body._body_endoder.seq_layers.2.bias f4 [128]
000000 81 d2 7e ba 85 00 69 bd fb bb 3a bd e4 36 fa bc
       -0.00097206986 -0.05688526 -0.04558943 -0.030543752
000010 c1 ba 3b bd 6b 6d d9 bd 60 16 9b bd 98 88 52 bc
       -0.0458324 -0.10616573 -0.07572627 -0.012849949
000020 c9 cc 37 3a 33 e8 87 bd f2 c4 31 3c d7 e3 7e bd
       0.00070114114 -0.06636085 0.010850178 -0.062229004
000030 35 5e 01 bc 96 84 32 bd 77 a1 fd bc 5e 32 1c bd
       -0.007895996 -0.043583475 -0.030960781 -0.03813397
000040 3b a9 c7 bc a4 11 23 3d 7c a8 98 3c 8c be 07 bd
       -0.024372688 0.039811745 0.018635027 -0.033140704
000050 c9 94 19 bd 7f 24 02 bd ce cc 06 bc 45 55 04 bd
       -0.03749541 -0.031773087 -0.00822754 -0.03230788
000060 fd ce a6 bc de 23 3d bd 3e 68 e4 bc 1c 50 79 bd
       -0.020362372 -0.046176784 -0.027881738 -0.060867414
000070 81 b1 44 bd e3 92 bf ba 6c 0a 9e bd ec c1 3f 3b
       -0.048020843 -0.0014615919 -0.077168316 0.0029259874
000080 07 fd 71 bd 79 21 2f bd 55 ca 0f bd 5f e5 4b bb
       -0.059079196 -0.04275653 -0.03510507 -0.0031112058
000090 07 fe d6 3b aa d2 49 bb d8 4a c1 bc 3f ec 4c bd
       0.006561044 -0.0030795732 -0.023595259 -0.05002999
0000a0 94 12 8c bd 12 7a 0c bb 27 90 9d bc de c4 64 bd
       -0.06839481 -0.0021435064 -0.019233776 -0.05585181
0000b0 b6 12 31 bd 63 2b 1e bd a3 f3 a0 bc 44 b7 51 bd
       -0.043230735 -0.038615596 -0.019647425 -0.051200166
0000c0 b3 8d 97 bc 78 39 42 bd f2 30 82 bd 93 4a 68 bc
       -0.018500185 -0.047418088 -0.06356992 -0.014177936
0000d0 eb dc eb bc c7 cb d0 bc b4 71 73 bd 87 5f 15 bd
       -0.028791865 -0.025487794 -0.059434608 -0.036468055
0000e0 12 cd 77 3c 4b eb 3b bd 4f d4 a3 bc d2 c9 99 3b
       0.015124576 -0.04587869 -0.019998698 0.0046932483
0000f0 84 39 48 bc 44 0e fe bc f8 60 bc bc 5f 3b 49 bd
       -0.012220744 -0.031012662 -0.022995457 -0.049128886
000100 8b 1f 47 3b 6a 0a c8 bc 21 72 85 3b d7 b4 13 bd
       0.0030383791 -0.024419028 0.004072443 -0.036061134
000110 10 ce a8 bc 67 ef 36 bc d8 5e c2 bc f2 c9 13 3a
       -0.02060607 -0.011165476 -0.023726866 0.0005637697
000120 ce 8a ee bc c2 de 02 bd 0f b1 42 bd 93 1e f1 bc
       -0.029118922 -0.03195072 -0.047532137 -0.029433524
000130 86 c8 22 bd 17 fd 1b bd 47 ca 70 bd 9f e9 6b 3c
       -0.039742015 -0.038083162 -0.058786657 0.014398961
000140 b9 a3 6e 3c 81 72 cb bc 7a cb 1e bd 10 cb 88 bd
       0.014565402 -0.024834873 -0.03876827 -0.06679356
000150 f0 31 52 3c cd d2 d1 3c 97 db 0a bd 5e 3a 83 bd
       0.012829289 0.025613213 -0.033900823 -0.06407617
000160 1d be 99 bd 35 e7 dd 3b 3d 8b 44 bd ca c4 b6 bc
       -0.07506964 0.006771947 -0.04798435 -0.022310633
000170 7d a8 6f bd b0 85 05 3b 94 96 88 bc 61 0a 12 bd
       -0.058510292 0.0020373873 -0.016673364 -0.03565443
000180 a8 8f a1 bd 7b 3b c8 3c 64 54 0e bd 8b 2f 6c bd
       -0.078887284 0.024442425 -0.03474845 -0.057662528
000190 35 d6 7f bd e5 37 e0 bc 02 06 3c bb 18 ef 6c 3c
       -0.062460143 -0.027370403 -0.0028690104 0.014461301
0001a0 15 2f 87 bd 30 81 a7 bc f4 00 73 bd 29 03 3b 3d
       -0.06600777 -0.020447344 -0.05932708 0.04565731
0001b0 95 e3 a6 bc 06 b2 98 bc c4 7f 7a bd 1e 80 eb bb
       -0.020372191 -0.018639576 -0.061157003 -0.0071869036
0001c0 28 5c 2a bd d8 41 b0 bc 21 3f 72 bd d5 50 ca bc
       -0.041591793 -0.021515772 -0.059142236 -0.024696747
0001d0 96 9c 74 bd 6a 45 aa bd aa a6 33 bc 06 52 a0 3c
       -0.059719644 -0.08314021 -0.010965029 0.019570362
0001e0 13 0f 20 bd b4 27 06 bd 6a 4b 8a 3a ed ea 7f bd
       -0.039076876 -0.032752708 0.001055104 -0.062479902
0001f0 b0 d7 a0 bd 3a 40 82 bd c4 aa d7 bc 5b dc 3e bd
       -0.07853639 -0.063599065 -0.026326545 -0.046596866

action_model._continuous_distribution.log_sigma f4 [1, 2]
000000 75 f0 1b be 65 58 9a bd
       -0.15228446 -0.07536391

action_model._continuous_distribution.mu.weight f4 [2, 128]
000000 59 93 6f 3c 2c a3 09 ba 66 f5 09 bd 90 3c 9b 3b
       0.014622533 -0.000525045 -0.033681296 0.004737444
000010 99 36 d6 bc 9f 14 a5 bc 60 09 e7 bb b5 97 4b bd
       -0.026149081 -0.020151434 -0.007050678 -0.049705226
000020 62 b2 45 bd 78 ec 41 bd 86 0d 19 3c af 35 21 3c
       -0.048265822 -0.047344655 0.009341603 0.009839459
000030 81 42 00 bc 62 07 b6 3c 8e b0 5b bc b2 f7 22 bb
       -0.007828356 0.022220317 -0.013408793 -0.0024866876
000040 d5 21 89 bb 62 d2 fc 3c 54 c3 3c bd 88 c9 0f b8
       -0.0041849413 0.030862037 -0.046084717 -3.4281547e-05
000050 13 b3 da bc b3 24 a0 bc 49 2a 0d 3d 04 0c df bc
       -0.026696717 -0.01954875 0.034464154 -0.02722741
000060 0d 53 61 bc b7 e8 d7 bc 32 8c 9c 3c e1 0c 66 bc
       -0.013752711 -0.026356084 0.01910982 -0.0140411565
000070 b7 06 04 bd ae 02 50 bd 15 7d 1f bd a9 82 aa bc
       -0.032232966 -0.050783806 -0.038937647 -0.020814257
000080 0a b0 ad bb f9 17 71 bc 0e a6 73 bc 75 74 83 3c
       -0.0053005265 -0.014715188 -0.0148711335 0.016046742
000090 06 00 df 3c 69 50 59 3c fd 36 d7 3b d2 2c a2 bc
       0.02722169 0.0132638 0.0065678344 -0.019796763
0000a0 37 98 98 bc c4 94 4c bb 1d 1c 3d bd 4f 2c eb 3b
       -0.01862727 -0.00312166 -0.04616939 0.007176913
0000b0 a8 de 56 bc 45 28 ee 3c d3 e1 97 bc 04 d1 0b 3c
       -0.013114609 0.029071936 -0.018540299 0.00853372
0000c0 11 23 1a bd 1b aa dc 3c ce 77 c9 bb b7 54 45 bc
       -0.0376311 0.026936581 -0.006148315 -0.012044123
0000d0 86 de d5 bb 05 27 5b bc 41 28 ff bc d0 3e 81 bc
       -0.006526771 -0.013376002 -0.031147124 -0.015777022
0000e0 98 e9 23 3d a7 04 3f 3c 99 09 12 bd 2d 26 d8 bc
       0.040017694 0.011658824 -0.035653684 -0.026385391
0000f0 6a 58 36 3c 67 ee 0f bd 03 96 89 bc 85 1b 76 ba
       0.011129478 -0.035139468 -0.016795164 -0.0009388256
000100 c3 64 34 3c f0 82 9d bb c3 53 bb bc ef d9 d0 3c
       0.011010352 -0.0048068687 -0.02286709 0.025494544
000110 26 e7 7a bb 30 9e a3 bb fb c5 1c bd 54 91 f0 3c
       -0.0038284748 -0.0049932227 -0.038274746 0.029366173
000120 48 d4 72 bd 8f a0 54 3a 3d 38 04 3b 75 82 77 bc
       -0.05928448 0.00081110833 0.0020175122 -0.015106787
000130 48 0d 34 3c 1a c3 33 ba c2 e9 4c 3d dc 6e b3 3c
       0.010989495 -0.00068573805 0.050027616 0.021903448
000140 73 6b 10 bb 0c e4 b0 3a 01 a7 31 bc ec ca 0e 3c
       -0.00220367 0.0013495698 -0.0108430395 0.0087153725
000150 c5 a0 b3 bc 5a db 2e 3d 4e ac 95 bc 13 91 49 3d
       -0.021927247 0.04268966 -0.018270638 0.04921062
000160 08 53 04 bc 44 a4 35 bc 0a f1 9e bd 96 32 03 bd
       -0.008076437 -0.011086527 -0.07760818 -0.032030664
000170 78 1b 5d bc 88 b5 50 3d d8 ec 46 bd f4 30 42 bc
       -0.013495319 0.05095437 -0.048565716 -0.011852492
000180 36 4b 45 bc 83 cf c0 3c 98 af 0b 3b 2d 62 3a bd
       -0.0120418575 0.02353645 0.0021314379 -0.045503784
000190 e5 ab 9c 3c 2a f8 51 bb 88 57 c3 3a 9c 48 be bb
       0.019124934 -0.0032038786 0.0014903406 -0.0058069956
0001a0 58 de f6 bc 1e 41 28 bb 03 1b ee bb 3d 6d 85 3c
       -0.030135319 -0.0025673578 -0.0072664036 0.01628744
0001b0 92 27 15 39 ef 67 ed 3c e2 12 1a bd 3d a8 73 3a
       0.00014224488 0.028980223 -0.037615664 0.0009294784
0001c0 0c 93 b8 bc a5 0a e3 bb 09 be 7d bd 50 2e e9 bc
       -0.022531055 -0.006928759 -0.06194881 -0.028464466
0001d0 0c 3d 46 bd 1c ec a2 ba a8 f1 08 3d 1e 4c 30 bc
       -0.048398063 -0.0012429985 0.033433586 -0.010760335
0001e0 47 83 fa bc 5f 91 ac bc 8e b3 e9 bb a8 7f d1 ba
       -0.030580176 -0.021065412 -0.0071320003 -0.0015983479
0001f0 db f1 47 bc d6 16 2b bd ef 1b a6 bb 4c b8 17 3c
       -0.012203659 -0.041769825 -0.005069248 0.009260248
000200 fa 01 82 bd d7 ae 83 3c f7 32 f3 3b 93 9b 99 bd
       -0.06348033 0.016074581 0.007421847 -0.075003766
000210 50 4d a2 bc 8e a2 92 ba 0b 70 56 bd f6 f1 42 3b
       -0.019812256 -0.0011187361 -0.052352946 0.002974627
000220 d3 64 88 bc 59 30 aa 3c a8 df 39 bd 63 4c 10 bc
       -0.01664964 0.020775007 -0.04537931 -0.0088072745
000230 02 6c d8 3c 33 ed 27 bc cc e6 44 3c 68 3e 2c 3d
       0.02641869 -0.010249424 0.012017917 0.042051703
000240 d8 de 38 bd 7a ec 19 3c 15 ae 0f 3d 13 e0 58 bc
       -0.045134395 0.009394759 0.035078127 -0.013237017
000250 8b 36 56 ba ad 9f 9b bc e9 4d 0a bd 84 d6 c3 bc
       -0.00081715797 -0.018997038 -0.033765707 -0.023906
000260 c0 5f a3 3c 2f 15 81 bc c1 ec da bc e4 e7 bd ba
       0.019943118 -0.015757171 -0.026724221 -0.0014488664
000270 62 02 8a bd 86 c6 26 3c 11 69 c4 bc c8 7f 98 bd
       -0.06738736 0.010179168 -0.02397588 -0.07446247
000280 c3 e7 1c bc 65 47 85 3c 90 d2 53 3c c8 93 fc 3c
       -0.009576741 0.016269395 0.01292862 0.030832186
000290 d9 9e 43 3c 9a 36 bf bc 0b 80 20 bd cd 30 7a ba
       0.011939728 -0.023341466 -0.03918461 -0.0009544015
0002a0 83 05 3d bc 9c 48 2b 3d 96 8a 4f bd 75 06 57 bc
       -0.011536959 0.041817293 -0.050669275 -0.013124098
0002b0 da 6b 7e ba c8 92 20 bd e3 82 c0 bc a8 43 61 bc
       -0.0009705402 -0.03920248 -0.023499912 -0.013749041
0002c0 71 fc 3b bd 53 41 cc 3c 2e 9d 9e bc 2e 49 2c bd
       -0.045895044 0.024933493 -0.019362058 -0.042061977
0002d0 78 16 0e bd af 9e 89 bd e8 7b 3f bd c5 65 33 3d
       -0.034689397 -0.067197196 -0.046749026 0.043798227
0002e0 c0 5b 34 bd 7a 2f bf bc f7 eb 35 bd ad ab 6b bd
       -0.044032812 -0.023338068 -0.044414487 -0.05753677
0002f0 49 d1 69 bd 5a 46 0b bd 71 69 1d 3a 56 79 c4 bb
       -0.057084356 -0.03400264 0.00060047867 -0.0059959097
000300 90 5b fd 3c ad 72 83 bc 5b 2f f7 3c 6f 85 ac 3c
       0.03092745 -0.016045893 0.030173948 0.02105972
000310 c8 7c 2c bd 38 1d df 3c b3 a8 96 bd ed 18 0b bd
       -0.04211119 0.027235612 -0.073563956 -0.033959318
000320 83 0c be bb 67 3d 08 3d 9d 11 97 3c db 77 27 bd
       -0.0057998314 0.033261683 0.018441016 -0.040885787
000330 5f 08 8c 3c 5c 43 a6 3c fd e2 d4 bb 84 1b 02 3d
       0.017093835 0.020295791 -0.0064967857 0.031764522
000340 4a 87 f7 3c 49 23 82 3c d6 85 9c bc f2 5e ea 3a
       0.030215878 0.015885966 -0.019106787 0.0017881079
000350 a8 28 50 3d 6f fe 4d bd ae 5b 3b 3c 70 db 7f bc
       0.050820023 -0.050291475 0.011435432 -0.015616283
000360 90 12 8b bd c4 14 80 3c 02 83 93 bc 0c 9c c1 bc
       -0.0679065 0.015634902 -0.018006805 -0.02363398
000370 8c b2 b6 bc 0c 0e 64 bc fe ca d2 3c 79 9c 84 bc
       -0.022301935 -0.013919365 0.02573156 -0.016187893
000380 aa 4b 3a bc b1 51 3b 3a c8 e7 e2 3c 80 b1 40 3c
       -0.011370579 0.0007145657 0.027698413 0.011761069
000390 43 ff 0a bd 93 0f e1 3c 4e 14 89 3c 63 9a a5 3b
       -0.033934843 0.027473247 0.016733315 0.0050538047
0003a0 87 a2 77 bb 9e c7 7d 3c 22 ff 45 bb 7e e8 fa 3c
       -0.0037786083 0.015489487 -0.0030211885 0.030628439
0003b0 69 27 6a 3c 92 55 ce bc b2 e0 c9 bb 60 1b a1 bc
       0.014291623 -0.025187287 -0.006160819 -0.019666374
0003c0 7c ae 2e 3c fb 91 75 bc 42 5e cd bc db 53 0a bd
       0.0106617175 -0.014988418 -0.02506936 -0.033771377
0003d0 73 c3 c4 bc 74 7d c6 bc 03 4f 95 bc bf e4 63 3d
       -0.024018979 -0.024229743 -0.018226152 0.05563807
0003e0 18 78 ef bc 2a 03 3c bd 1d 14 46 bd 9a e1 85 bb
       -0.02923207 -0.045901455 -0.048359025 -0.0040857317
0003f0 fd 9c 07 bd ba 96 33 bb f3 67 8c bc a6 c8 a6 bc
       -0.0331087 -0.0027403072 -0.01713941 -0.020359349

action_model._continuous_distribution.mu.bias f4 [2]
000000 cb a1 16 3c 5e 55 1d 3d
       0.009193848 0.03841149

action_model._discrete_distribution.branches.0.weight f4 [1, 128]
000000 e8 69 69 bc 60 2d f2 3a 02 c2 e3 bb 8b 88 d7 38
       -0.014246441 0.0018476658 -0.006950618 0.00010277432
000010 58 7d 9d bb 25 73 9e 3b 13 2d 51 3c be c8 a1 3a
       -0.004806202 0.0048355036 0.012767094 0.0012343151
000020 38 16 d1 b8 65 15 2e 3a d6 77 2d bb 6f de 2e bb
       -9.970035e-05 0.0006640761 -0.0026469133 -0.0026682874
000030 bd e6 5d bc ba 63 d8 bb 43 1c 21 bc bc 91 0c bc
       -0.013543782 -0.006603685 -0.009833398 -0.008579668
000040 ec f2 14 bb 57 c4 4b bc 75 4c d5 bb bc ce 8b bb
       -0.00227278 -0.012436948 -0.0065093585 -0.004266588
000050 1f fa c9 3a 85 65 1d bc 95 5f f0 bb 13 91 ce bb
       0.0015409625 -0.009606724 -0.007335613 -0.0063039153
000060 ab 99 da b9 31 de c5 3b 54 ea 32 3c ed b8 45 bb
       -0.00041694692 0.00603845 0.010920126 -0.0030170039
000070 e3 f4 a8 3b 1b ab dd bb 5b ac 69 bc 99 88 a7 3c
       0.005156146 -0.006764782 -0.014262284 0.020450877
000080 e0 90 99 3c 97 19 93 bb 12 43 ea 3b 69 4f 32 3b
       0.01874584 -0.0044891345 0.0071491087 0.0027207977
000090 6a 90 ea 3b 80 d9 ac 3b 3f 49 9e 3b 65 5c 5f 3b
       0.007158329 0.0052749515 0.004830509 0.003408217
0000a0 ca 24 f6 ba 4b 97 53 bb 1d 10 02 3c 00 64 24 bc
       -0.0018779275 -0.0032286223 0.007938412 -0.0100336075
0000b0 f3 96 50 3c 4d d6 65 bc 87 7f e5 3a f5 c8 06 3b
       0.012731302 -0.014028144 0.001750932 0.0020566557
0000c0 0b c6 a5 3a 48 2a 50 bc 83 23 c5 bb c7 9c aa bb
       0.0012647522 -0.012705393 -0.006016196 -0.0052066776
0000d0 9c 22 49 3b 68 fc 6c 3b da 5b 04 bc ba cd f5 bb
       0.0030690795 0.0036161188 -0.00807854 -0.007501331
0000e0 10 91 b4 bc 5b 4c ce 3b 15 21 4c bc d4 e1 c9 3b
       -0.022041827 0.0062957234 -0.012459059 0.006160954
0000f0 76 8e 91 3c 47 2d 85 bb 83 90 01 bb 5f 5f 89 3a
       0.017768126 -0.0040642354 -0.0019769974 0.0010480693
000100 2a 7d 52 3c 87 84 6d 3b 33 24 93 3b 0f f8 b1 bb
       0.012847224 0.0036242323 0.0044903993 -0.005431182
000110 af 9a 06 3c 4c 49 85 bb 1b 41 d3 3b a4 d6 aa bb
       0.00821559 -0.0040675756 0.00644697 -0.0052135754
000120 29 6d 20 bb c7 b4 86 bc 73 ed fc 3b 3c c1 08 bc
       -0.0024479127 -0.016443623 0.007718736 -0.008346852
000130 67 39 7b 3b 9d 21 77 bb 10 30 86 bc 2a 60 2f bb
       0.0038333775 -0.0037709244 -0.01638034 -0.00267602
000140 d3 4f 31 3b bd 87 89 bb 44 cb a7 bb f5 df a8 3b
       0.0027055636 -0.0041970895 -0.0051206667 0.005153651
000150 ab 80 29 3c 9f 49 e2 3b 97 3c 09 bc d1 bb 19 3c
       0.010345618 0.006905749 -0.008376262 0.009383158
000160 af 04 e1 ba 3e 22 bf bb ff 8f 99 3a d4 84 9b 39
       -0.0017167534 -0.0058329394 0.0011715888 0.00029662868
000170 78 4b a7 3b 60 61 5d 3b 35 65 59 bc 3d 24 53 3c
       0.005105432 0.0033779964 -0.013268759 0.012887058
000180 87 db 11 3c c5 8a cd 3b dd ba 47 bb 86 39 a7 bb
       0.008902437 0.006272646 -0.003047637 -0.005103293
000190 b8 98 d6 3b 17 7f 96 3b ab 20 1c bc 14 b4 25 bc
       0.006548967 0.004592787 -0.009529273 -0.010113735
0001a0 5b 6a 77 bc ec a7 bd bb ab 09 e9 bb 74 ee a6 3b
       -0.015101041 -0.00578784 -0.007111748 0.005094344
0001b0 6f b8 57 3c 78 52 7e 3c 03 b4 0e 3c f3 56 16 3c
       0.013166531 0.015522592 0.00870991 0.009176004
0001c0 6e 62 ab 3b bf 32 c4 bc c7 3e 13 bc 2b d4 8c 3b
       0.0052302396 -0.023949979 -0.008987135 0.0042977533
0001d0 01 c5 25 bc e4 23 88 ba 62 dd 15 3b 8b 47 57 b9
       -0.01011777 -0.0010386673 0.002286755 -0.0002053065
0001e0 91 37 b3 bb c5 60 ad ba d7 24 81 bc 97 7d 0c bc
       -0.0054692705 -0.0013227692 -0.015764637 -0.008574865
0001f0 da 56 02 bb e0 01 3a 3c 6d e6 80 39 0c 3d 84 3b
       -0.0019888193 0.011352986 0.00024585743 0.0040355977
