ML Agents tutorial/Assets/results/RollerBall2/RollerBall/RollerBall-9706.onnx (onnx, 77817 bytes, 8 tensors)

network_body._body_endoder.seq_layers.0.weight f4 [128, 12]
0	0xbe17bbc0	-0.14817715
1	0xbe40e1d2	-0.18836144
2	0x3cd39b62	0.025830928
3	0x3f063a35	0.52432567
4	0xbd6e605f	-0.058197375
5	0x3d950053	0.072754525
6	0xbf06461b	-0.5245072
7	0x3e9803e1	0.2969046
8	0x3d30039e	0.0429722
9	0xbce16564	-0.027514167
10	0xbd8e1d7f	-0.0693922
11	0x3d6023f0	0.054721773
12	0x3dcca8ce	0.099931344
13	0x3e16a3fb	0.14710991
14	0xbd4bae14	-0.04972656
15	0x3ee62e26	0.44957083
16	0x3dc6336f	0.09677779
17	0x3de50e19	0.111843295
18	0xbecccc14	-0.3999945
19	0x3ee21cf1	0.44162706
20	0xbe6d893e	-0.23196885
21	0xbf317ee6	-0.69334257
22	0xbd6b8791	-0.057502333
23	0xbe8dd48b	-0.2770122
24	0x3e2becc8	0.16789544
25	0xbe0520bb	-0.13000767
26	0x3ea5ee4f	0.32408378
27	0xbebb0ff9	-0.36535624
28	0x3d0243de	0.031803004
29	0x3f082f63	0.53197306
30	0x3e9e7ab2	0.30952984
31	0x3ec86b79	0.39144495
32	0xbe7eef2e	-0.24895927
33	0xbe6c5b7f	-0.23081778
34	0xbddef524	-0.108866006
35	0x3ea6f97f	0.32612225
36	0xbebe8b5c	-0.37215698
37	0xbcd35d07	-0.025801195
38	0x3f0ed7a1	0.55797774
39	0xbf1121cd	-0.566922
40	0xbed70bca	-0.42001182
41	0xbe3caad8	-0.18424547
42	0x3e843af9	0.25826243
43	0x3daac36e	0.083380565
44	0x3e253b8b	0.16135995
45	0x3e28b023	0.16473441
46	0xbe7897d4	-0.24276668
47	0x3ed1fce9	0.41013268
48	0xbdc3d2cb	-0.0956169
49	0x3e360246	0.17774305
50	0xbe6776e3	-0.22603945
51	0x3e08a418	0.13343847
52	0xbf3fc20e	-0.7490548
53	0xbe4fc912	-0.20291546
54	0x3ed9f585	0.4257013
55	0x3def60e8	0.11688405
56	0xbe8eea1e	-0.27912992
57	0x3cbf1028	0.023323134
58	0xbe805d73	-0.25071296
59	0x3e0d226f	0.13782667
60	0x3da667b9	0.08125252
61	0xbec52e19	-0.38511732
62	0xbdb6737b	-0.08908745
63	0xbe62fd86	-0.22167024
64	0x3d6dbdf2	0.058042474
65	0xbe732cef	-0.2374761
66	0x3e5d93ab	0.21638362
67	0x3ea953f1	0.33071855
68	0xbc80fd5c	-0.015745811
69	0xbe7ab4aa	-0.2448298
70	0x3e96f092	0.29480416
71	0x3e8e4c15	0.2779242
72	0xbe90d43f	-0.2828693
73	0xbdca33bc	-0.09873149
74	0xbcd6b832	-0.026210878
75	0xbf0c9f5e	-0.54930675
76	0x3e294f3b	0.1653413
77	0xbdd52174	-0.10406771
78	0x3e368adc	0.17826408
79	0x3eade731	0.33965448
80	0x3e041b4d	0.1290104
81	0xbe34513d	-0.17609115
82	0x3d408032	0.046997257
83	0xbee8090e	-0.45319408
84	0xbf010b36	-0.5040773
85	0xbf06083f	-0.5235633
86	0x3ea02e76	0.31285447
87	0x3e16d922	0.14731267
88	0xbe304902	-0.1721535
89	0xbcf2211f	-0.029556809
90	0x3b8540a7	0.004066545
91	0xbe420ee5	-0.18950994
92	0xbe86face	-0.26363224
93	0xbe827883	-0.25482568
94	0xbf01a906	-0.50648534
95	0x3dfdbe69	0.123898335
96	0x3d3e9d96	0.046537004
97	0x3ee5a827	0.44854853
98	0xbdab2550	-0.08356726
99	0xbd597414	-0.053089216
100	0x3ebdde7e	0.3708381
101	0x3eae5be1	0.34054473
102	0x3e5c9b0d	0.21543522
103	0x3ea263eb	0.31716856
104	0x3e4dbe21	0.2009206
105	0xbdcb9c5a	-0.09941931
106	0xbd7bc72e	-0.06146925
107	0x3e39d087	0.18145953
108	0xbe249f49	-0.16076387
109	0x3d08d9b4	0.033410743
110	0xbe8020ef	-0.25025126
111	0x3ed711d7	0.42005798
112	0x3ed016b9	0.40642336
113	0xbdf28566	-0.1184185
114	0xbe9150c2	-0.28381926
115	0xbf0f4b58	-0.5597434
116	0x3db15101	0.086580284
117	0xbe2287ef	-0.15872167
118	0xbe2f8002	-0.17138675
119	0x3e813359	0.25234488
120	0xbdf0cad1	-0.11757434
121	0xbe2bb10a	-0.16766754
122	0x3e92a6ab	0.28642783
123	0x3d86fc3a	0.06591077
124	0xbd8657b2	-0.06559695
125	0xbe26bc7e	-0.16282842
126	0x3ed506e6	0.41606826
127	0xbe8ca429	-0.27468994
128	0x3d6268e2	0.055275805
129	0xbc8a3663	-0.016871637
130	0xbc3c4748	-0.011491604
131	0xbe8ec26f	-0.27882716
132	0x3d1e2db1	0.038617793
133	0xbe07e50b	-0.13270967
134	0xbe4a7136	-0.19769749
135	0xbca85121	-0.020546498
136	0x3e71f39e	0.23628089
137	0x3dd59637	0.10429042
138	0xbe46151c	-0.1934399
139	0xbdc44c55	-0.09584872
140	0xbebed41b	-0.372712
141	0xbe1d37b9	-0.15353288
142	0xbe319bd8	-0.17344606
143	0xbbe4abbb	-0.0069784797
144	0x3e2246fb	0.1584739
145	0x3df64608	0.12025076
146	0xbe54302b	-0.207215
147	0x3dc2f4c1	0.09519339
148	0x3ba7f207	0.0051252875
149	0xbc67eaaf	-0.014155074
150	0x3e45a274	0.19300252
151	0x3ed12ac0	0.40852928
152	0x3f016b7f	0.5055465
153	0xbdd3d632	-0.10343589
154	0xbf05db83	-0.52288073
155	0xbba524da	-0.0050397934
156	0x3c4b4fab	0.012409131
157	0xbe07f045	-0.1327525
158	0xbd2dbb30	-0.042414844
159	0x3d819907	0.06328016
160	0x3d4e1d42	0.05032087
161	0x3e438552	0.19093826
162	0xbe975f83	-0.29565057
163	0x3ed3f39f	0.41396806
164	0xbb8e5b72	-0.004344397
165	0x3ebeb1e5	0.37245098
166	0x3f51b1c2	0.8191186
167	0xbdfc1675	-0.12308971
168	0xbe4ac477	-0.19801508
169	0xbda7afca	-0.08187826
170	0xbedf82fd	-0.43654624
171	0x3e3f5d53	0.18687944
172	0xbe4b5b60	-0.19859076
173	0xbe02e801	-0.12783815
174	0xbe0d460e	-0.13796255
175	0x3e14df40	0.14538288
176	0x3ef19103	0.47180948
177	0xbdf563e5	-0.11981944
178	0x3e394c50	0.18095517
179	0xbf06fc1b	-0.5272843
180	0xbdca041c	-0.09864065
181	0xbf03a523	-0.51423854
182	0x3db74014	0.08947769
183	0xbeeb699e	-0.45979017
184	0x3ed84074	0.42236674
185	0xbda4cce2	-0.08046891
186	0xbe946427	-0.2898266
187	0x3e64507d	0.22296329
188	0xbeb3dccf	-0.351294
189	0xbeb215ed	-0.34782353
190	0x3e3406d2	0.17580727
191	0x3e7dd5d2	0.24788597
192	0xbe009dbb	-0.1256017
193	0xbed33083	-0.4124795
194	0xbe608a36	-0.21927723
195	0x3d2a997f	0.04165029
196	0xbf047638	-0.5174289
197	0xbee901da	-0.45509225
198	0xbe3c71a1	-0.18402721
199	0xbe38a8da	-0.18033162
200	0xbe9a9f87	-0.30199835
201	0xbdb650b1	-0.089021094
202	0xbda13ebc	-0.07873294
203	0xbebcc5c7	-0.36869642
204	0x3d11668a	0.03549818
205	0xbf5c9dca	-0.86178267
206	0x3ecefee5	0.40428844
207	0x3e27fda9	0.16405357
208	0xbe285892	-0.16440037
209	0x3d7e7d38	0.062131137
210	0x3dee1b43	0.116262935
211	0xbdecff37	-0.11572116
212	0x3c38f127	0.011287964
213	0x3ec6cd9e	0.38828748
214	0x3f260cea	0.64863455
215	0xbe235948	-0.15952027
216	0xbe23afbf	-0.1598501
217	0xbe3b7c22	-0.18309072
218	0xbf2a92ee	-0.66630447
219	0x3df0736c	0.11740765
220	0x3e5a3255	0.21308263
221	0x3daacace	0.08339463
222	0xbdc5c036	-0.09655802
223	0xbe18219c	-0.14856571
224	0x3dc7ab25	0.0974944
225	0x3ec48278	0.3838079
226	0x3f484f83	0.78246325
227	0x3d064587	0.03278115
228	0x3eb65d3d	0.3561801
229	0x3e7c34a1	0.24629451
230	0x3ea9c802	0.33160406
231	0x3d00ce08	0.031446487
232	0xbe43f7c6	-0.19137487
233	0xbdb871be	-0.090060696
234	0xbe8f6238	-0.28004622
235	0xbd3e708e	-0.04649406
236	0x3cdab4cf	0.026697544
237	0x3e87d8c4	0.26532567
238	0xbd64755b	-0.05577598
239	0xbe42709f	-0.18988274
240	0x3d9ffd32	0.07811965
241	0xbd9f376c	-0.07774243
242	0xbe4b725c	-0.19867843
243	0xbe038716	-0.128445
244	0x3ea64d90	0.3248105
245	0xbe748291	-0.23877932
246	0xbe4a13fb	-0.19734184
247	0xbed51b76	-0.41622514
248	0x3d51cc4f	0.051220234
249	0xbe9a6b07	-0.3015978
250	0x3d2ff84e	0.04296141
251	0xbdb9c03c	-0.09069869
252	0xbee6d107	-0.4508135
253	0xbe6568b0	-0.22403216
254	0xbe3d2505	-0.18471153
255	0xbd015224	-0.031572476

network_body._body_endoder.seq_layers.0.bias f4 [128]
0	0x3be465c3	0.0069701388
1	0x3b7c08ec	0.0038457466
2	0xbc9200a5	-0.017822573
3	0x3bfa4ffe	0.0076389303
4	0x3b6e57a9	0.0036368167
5	0xbbbe3b26	-0.005805391
6	0xbcab98ef	-0.020946948
7	0xbcc33778	-0.02383016
8	0x3c649d43	0.01395351
9	0xbcceb733	-0.02523384
10	0x3ca3585d	0.019939596
11	0xbc3af474	-0.011410821
12	0xbb1ffa3c	-0.0024410626
13	0x3a07a1cd	0.00051739515
14	0xbb2ed4de	-0.0026677172
15	0xbc056311	-0.008141295
16	0x38da3644	0.00010405158
17	0xbce6f24e	-0.028191712
18	0x3b4d9355	0.0031368334
19	0x3b2f60a6	0.0026760488
20	0xbba8d1c4	-0.005151959
21	0x3c845cb1	0.01615748
22	0xbcc02e94	-0.02345971
23	0x3cbead24	0.02327592
24	0x3c11a17d	0.008888599
25	0xbb6cd9a4	-0.0036140466
26	0xbb7a2657	-0.0038169825
27	0x3aa3efbb	0.0012507358
28	0xbccf0627	-0.025271488
29	0x3d07fa3b	0.033197623
30	0xbb07ee55	-0.0020741422
31	0xbb1e425e	-0.0024148445
32	0xbba0f978	-0.0049125515
33	0xbc96d1ec	-0.018410645
34	0x3c6ab8a1	0.0143262455
35	0x3c8c1b14	0.017102756
36	0xbc8a5d4d	-0.016890192
37	0xbc3d3392	-0.01154794
38	0x3bd6090a	0.0065318393
39	0xbca532ab	-0.020165762
40	0xbceeee11	-0.029166253
41	0xba129dbe	-0.00055929634
42	0xbb1275c6	-0.002234803
43	0x3cb37e34	0.021910764
44	0xbc6687ae	-0.0140704345
45	0xbc837256	-0.01604573
46	0x3b0008be	0.001953646
47	0xbb14694d	-0.0022645772
48	0xbc6dc034	-0.014511157
49	0xbc0dd261	-0.008656115
50	0x3b349240	0.0027552992
51	0xbcf7042c	-0.030153356
52	0x3cb5ed7d	0.02220797
53	0x3caa9666	0.020823669
54	0x3abcef8e	0.0014414655
55	0xbcf4a430	-0.029863447
56	0x3c6e8996	0.01455917
57	0x3bad972e	0.005297563
58	0x39c49dce	0.00037501607
59	0xbcc035ba	-0.023463119
60	0xbb708b59	-0.0036704151
61	0x3c68f9e6	0.014219737
62	0xbcae6775	-0.021289567
63	0xbcaa55f8	-0.020792946
64	0xbaf46efb	-0.0018648797
65	0xbd26bb6f	-0.040706094
66	0xbd1da372	-0.03848595
67	0xbc5bc68f	-0.013414039
68	0xbb1142cf	-0.0022165065
69	0xba617dca	-0.0008601813
70	0xbbffe736	-0.007809545
71	0xbc7e0311	-0.015503661
72	0xbc8b8a8d	-0.01703384
73	0xbc2052bb	-0.0097853495
74	0x3a5c3346	0.00083999743
75	0xbbd3aa34	-0.006459499
76	0xbc7ba6f3	-0.015359628
77	0xbc2af75b	-0.010434951
78	0xbc860e9c	-0.016364388
79	0xbc871dfe	-0.016493794
80	0x3b262474	0.0025351318
81	0xbd071e41	-0.032987837
82	0x3c93ee81	0.018058063
83	0xbcad2701	-0.021136763
84	0x3c593727	0.013257778
85	0xbb6836db	-0.0035433087
86	0xbb98e72e	-0.0046662306
87	0x3c94fe2b	0.018187603
88	0xbc824e26	-0.015906405
89	0x3c86d7b9	0.016460286
90	0xbc52a50d	-0.012856734
91	0x3c47ab11	0.0121867815
92	0xbcd71d22	-0.026259009
93	0x3cd897af	0.026439516
94	0x3cec51a0	0.028847516
95	0xbb271d9f	-0.0025499833
96	0xbcb71ae5	-0.022351691
97	0x3b6ca9ee	0.0036112028
98	0xbcab9ff9	-0.020950304
99	0xbc3c650e	-0.011498703
100	0x3cab019f	0.020874796
101	0x3bb8cc1a	0.005639565
102	0xbc8e2850	-0.017353207
103	0x3c1672fb	0.009182687
104	0xbb22fc4e	-0.0024869624
105	0xbc173477	-0.009228817
106	0x3be8e3fb	0.0071072555
107	0x3c835e9f	0.01603633
108	0xbc8b14c0	-0.016977668
109	0x3b83d651	0.0040233512
110	0x3c4ad468	0.012379743
111	0x39b4e6ab	0.00034504136
112	0xbc0f17f0	-0.0087337345
113	0xbd0b7929	-0.034051094
114	0xbc6122ff	-0.013741254
115	0x3abca89f	0.0014393515
116	0xbbcef922	-0.00631632
117	0xbbd1498c	-0.0063869413
118	0xbd1122ac	-0.035433456
119	0xbd009c77	-0.031399217
120	0xbc8c8a44	-0.017155774
121	0x3cc65b48	0.024213448
122	0x3b496731	0.0030731673
123	0x3aaf1492	0.0013357571
124	0xbbf33ed1	-0.00742326
125	0xbd0b8d98	-0.03407058
126	0xbc3730fc	-0.011181112
127	0xbbcc637e	-0.0062374463

network_body._body_endoder.seq_layers.2.weight f4 [128, 128]
0	0x3e1f216e	0.15540096
1	0x3d83e27a	0.06439681
2	0xbda7c4c8	-0.0819183
3	0xbd6e2d70	-0.0581488
4	0xbe0ae4d9	-0.13563861
5	0x3cedb7ff	0.0290184
6	0xbd98fc08	-0.07469946
7	0xbdf08b86	-0.11745362
8	0xbd9b31f8	-0.0757789
9	0xbd6d1486	-0.0578809
10	0xbde7b86c	-0.113144726
11	0xbd5698ca	-0.052391805
12	0x3c113cd1	0.008864597
13	0xbdfea5fc	-0.12434003
14	0x3dab3cba	0.08361192
15	0x3df62e5a	0.120205596
16	0x3d9a3c72	0.0753106
17	0xbdc3bf2c	-0.095579475
18	0x3ada5d48	0.001665988
19	0x3c481ddb	0.012214149
20	0x3ddbc7a6	0.10731439
21	0xbc3cacdf	-0.011515825
22	0xbc79c5b8	-0.015244894
23	0x3e1f0c4b	0.15532033
24	0xbda05633	-0.07828941
25	0x3d7d8782	0.06189681
26	0x3d3cb718	0.04607305
27	0x3c9d07b3	0.01916871
28	0xbd3af0b8	-0.045639724
29	0xbcce7c94	-0.025205888
30	0xbd8cc7f6	-0.06874077
31	0x3d769df5	0.060209233
32	0xbe14ce1e	-0.14531752
33	0x3da88d59	0.08230085
34	0x3e567641	0.20943548
35	0xbde7a3fd	-0.11310575
36	0xbdc1703e	-0.094452366
37	0x3e2999ee	0.16562626
38	0xbded35ce	-0.11582528
39	0xbe0e146e	-0.13874981
40	0xbd849288	-0.06473261
41	0xbe2225bb	-0.15834706
42	0xbe05e5be	-0.13075921
43	0x3e22c614	0.15895873
44	0xbd97c804	-0.07411197
45	0x3c89cb64	0.016820617
46	0xbd215c91	-0.03939492
47	0x3d95a3bc	0.073066205
48	0xbda48e94	-0.08035007
49	0x3d8cc8b5	0.06874219
50	0x3e0ce759	0.13760127
51	0x3dd74668	0.10511476
52	0x3d870cfd	0.06594274
53	0xbc783067	-0.015148259
54	0xbcac52af	-0.02103552
55	0xbe31fe99	-0.17382278
56	0xbd50ec07	-0.051006343
57	0x3ddfd543	0.10929348
58	0xbe2488c2	-0.16067794
59	0xbe268613	-0.16262083
60	0x3de99aae	0.11406456
61	0xbcc98c65	-0.024603078
62	0xbdfde1aa	-0.12396558
63	0x3c9f73a9	0.01946433
64	0x3d626650	0.055273354
65	0x3dbc4edf	0.09194731
66	0x3cc7cfd5	0.024391094
67	0x3dce6003	0.100769065
68	0x3cfd36e8	0.03090997
69	0x3d8a7975	0.06761447
70	0xbc0947f4	-0.008378971
71	0x3cc8c36b	0.024507245
72	0x3c131b62	0.008978697
73	0x3d6cfd6a	0.057858862
74	0x3e3ed0ba	0.1863431
75	0xbabfd676	-0.0014636058
76	0xbc09224b	-0.0083699925
77	0xbd8adaea	-0.06780036
78	0x3d14124c	0.03615026
79	0x3d27ffd0	0.041015446
80	0x3bfe2376	0.007755692
81	0xbd92bfd4	-0.071654946
82	0xbceb9eac	-0.028762184
83	0xbd2c9efe	-0.042143814
84	0x3d21c530	0.039494693
85	0xbd09f610	-0.03368193
86	0x3dded35b	0.108801566
87	0xbd82fa11	-0.06395353
88	0xbcadc22b	-0.02121075
89	0xbda69f89	-0.08135898
90	0x3db7eeed	0.08981118
91	0x3dc9f44f	0.09861051
92	0x3d6c379d	0.057670224
93	0xbcfc19cc	-0.03077402
94	0xbd9e4b53	-0.07729211
95	0xbd803ac4	-0.06261209
96	0xbdaed25b	-0.08536216
97	0x3dd3d314	0.10342994
98	0xbc67be30	-0.014144465
99	0x3ce63f0d	0.028106237
100	0x3e2606b6	0.16213498
101	0x3e01ef58	0.12688959
102	0xbdead4de	-0.114663824
103	0x3c1de64f	0.009637429
104	0x3d7e1f22	0.06204141
105	0x3d4dca65	0.050241847
106	0xbd4e78ee	-0.050408296
107	0xbe06b9fc	-0.13156885
108	0xba4a1f9d	-0.0007710399
109	0xbe04f752	-0.1298497
110	0xbcf2c6ba	-0.029635776
111	0xbcc6dd20	-0.024275362
112	0xbdc0c41a	-0.094124034
113	0x3db41a7f	0.08794116
114	0xbe2af16e	-0.1669366
115	0xbd73b416	-0.059497915
116	0xbc971563	-0.018442815
117	0x3d9abb01	0.075551994
118	0x3db2a35e	0.08722566
119	0xbc8e356b	-0.017359456
120	0xbcd75ed5	-0.026290337
121	0xbd0a6817	-0.033790674
122	0x3d842c62	0.06453778
123	0x3d99b6bd	0.07505558
124	0x3e0a73cb	0.13520734
125	0xbca740b1	-0.02041659
126	0xbdaa06d1	-0.083020814
127	0x3d5d78a8	0.054070145
128	0xbda9138b	-0.08255681
129	0xbe03f47f	-0.12886237
130	0xbd33945f	-0.04384267
131	0xbe346f7c	-0.17620653
132	0x3e48c9e4	0.19608265
133	0x3df3f84e	0.11912595
134	0x3d3d79f1	0.04625887
135	0x3d88f8cb	0.066880785
136	0xbb1fa199	-0.0024357794
137	0xbddc4fc3	-0.10757401
138	0xbc51024d	-0.012756896
139	0x3d696d20	0.056988835
140	0x3db9d923	0.09074619
141	0xbd773e07	-0.06036189
142	0x3d6bafe0	0.057540774
143	0x3df0bfad	0.11755309
144	0xbde32167	-0.11090355
145	0xbd660bc4	-0.056163564
146	0x3cb23749	0.021754878
147	0xbdca9d8e	-0.098933324
148	0x3bce695a	0.00629918
149	0x3d6314c4	0.055439726
150	0x3e3497a4	0.17635971
151	0xbd907547	-0.07053619
152	0x3d21b929	0.039483223
153	0x3e25278f	0.16128372
154	0x3e6342f0	0.22193503
155	0xbddd0db6	-0.10793631
156	0x3b4bd783	0.0031103797
157	0xbdbe8729	-0.093031235
158	0xbe209c54	-0.15684634
159	0x3ceb541e	0.028726634
160	0x3d744f9c	0.059646234
161	0x3cb506fb	0.022098055
162	0x3d4f1f45	0.05056693
163	0x3ce54074	0.027984835
164	0x3d0697a2	0.032859452
165	0x3d972e4b	0.073818766
166	0x3e22c6db	0.1589617
167	0x3d6c40f3	0.057679128
168	0xbe2d87a3	-0.16946273
169	0xbdf4191c	-0.11918852
170	0x3de5e181	0.11224652
171	0x3c8a05f7	0.016848547
172	0xbbcec5f9	-0.0063102213
173	0xbd24b9d1	-0.04021627
174	0xbc2e7af0	-0.010649428
175	0x3d482943	0.048867475
176	0x3e1c6114	0.15271407
177	0xbcfc0de1	-0.030768337
178	0xbd12126c	-0.0356621
179	0xbdcc236b	-0.09967693
180	0xbc4690b7	-0.012119464
181	0xbd4a47e7	-0.049384978
182	0x3dc1345d	0.09433816
183	0xbe202ece	-0.15642855
184	0xbd016052	-0.031586
185	0xbd540baa	-0.051768936
186	0xbd317f84	-0.0433345
187	0xbdc90e6b	-0.09817203
188	0x3d65e740	0.05612874
189	0x3cf36b55	0.029714266
190	0x3cf72fc1	0.030174138
191	0x3d80775a	0.062727645
192	0xbd4c71df	-0.049913283
193	0x3bbf9d96	0.005847643
194	0x3c95eb3a	0.018300641
195	0x3d06767b	0.032827836
196	0xbd56b573	-0.052419137
197	0x3c8333ca	0.016015906
198	0xbdd8b34b	-0.105810724
199	0xbe20f6b4	-0.1571911
200	0x3d1b9ad1	0.03798944
201	0x3e63a422	0.2223058
202	0xbcc45848	-0.023967877
203	0xbe3c4d7d	-0.18388934
204	0xbdf65a60	-0.120289564
205	0xbc92f72b	-0.017940124
206	0x3d4f607c	0.050629124
207	0xbcd5ee07	-0.026114477
208	0xbe4a9084	-0.19781691
209	0x3e07271b	0.13198511
210	0xbd3291e6	-0.04359617
211	0x3d154149	0.036439214
212	0x3d99ea40	0.07515383
213	0xbe87bec3	-0.26512727
214	0x3d82abf7	0.06380456
215	0xbdaad294	-0.08340946
216	0xbb6b73bf	-0.0035927144
217	0x3d741705	0.059592266
218	0xbd65c473	-0.05609555
219	0xbda74afc	-0.08168599
220	0xbc2b9f85	-0.010475044
221	0xbc0b8a00	-0.0085167885
222	0x3c990872	0.018680785
223	0xbe089934	-0.13339692
224	0xbdebb31c	-0.11508772
225	0x3cd76c27	0.026296688
226	0x3dd9447c	0.106087655
227	0xbc717531	-0.014737413
228	0x3b896637	0.004193093
229	0xbcb08fb4	-0.021552898
230	0x3e040e6b	0.12896125
231	0x3d48c509	0.049016032
232	0x3d8dbcf2	0.06920804
233	0xbdcf4ebb	-0.101224385
234	0x3d29db7e	0.04146909
235	0x3dce25d1	0.10065807
236	0xbe0736f5	-0.13204558
237	0xbdaab3ca	-0.08335073
238	0xbd4dfee9	-0.05029193
239	0xbaae7917	-0.0013311234
240	0x3c679b27	0.014136112
241	0xbd8f0ba2	-0.06984641
242	0xbd38f011	-0.04515082
243	0xba8ddba9	-0.001082291
244	0xbd7c363e	-0.061575167
245	0xbdf3c85e	-0.119034514
246	0xbdc0bffb	-0.09411617
247	0xbe0a2a66	-0.13492736
248	0xbcc7a71b	-0.024371674
249	0x3cceac11	0.025228532
250	0x3dc56505	0.096384086
251	0x3dc446e4	0.09583834
252	0x3cafd203	0.021462446
253	0xbce4080b	-0.027835866
254	0xbdc63915	-0.09678856
255	0x3d1cce4d	0.03828268

network_body._body_endoder.seq_layers.2.bias f4 [128]
0	0xbba5ae79	-0.005056199
1	0xbce91beb	-0.028455695
2	0xbbba2ca6	-0.005681592
3	0x3cdf9a14	0.02729515
4	0xbcbd0b3b	-0.023076644
5	0xbb6a83e2	-0.0035784175
6	0x3cb59aa5	0.022168467
7	0xbc3d6eb5	-0.011562039
8	0x3cf3bd6a	0.029753406
9	0x3ac8f1dc	0.0015330869
10	0xbb6ddee4	-0.0036296183
11	0x3b535bf4	0.0032250853
12	0xbcb0efc1	-0.021598699
13	0x3b872338	0.0041240714
14	0xba817e0f	-0.0009879487
15	0xbcb83942	-0.02248824
16	0xbb048a21	-0.0020223933
17	0x3b9b50d3	0.0047398596
18	0x3c871163	0.016487783
19	0xbc0fac02	-0.008769037
20	0x3bbb9dc8	0.005725596
21	0xbc7bd42f	-0.015370413
22	0x3c39bd9a	0.011336708
23	0x3bcbe8dd	0.006222828
24	0xbcef2d27	-0.029196335
25	0xbca1a1d2	-0.019730482
26	0xbc170ef0	-0.00921987
27	0x3b9dd9af	0.0048172097
28	0xbc9116b3	-0.01771102
29	0xbca929a6	-0.020649742
30	0xbcbc1dd6	-0.022963446
31	0xbc983d28	-0.01858385
32	0xbc54d700	-0.012990713
33	0x3c1ee7bc	0.0096988045
34	0x3b27efef	0.002562519
35	0x3b987dfa	0.0046536895
36	0xbc5d7e22	-0.013518842
37	0x3aa01f92	0.001221644
38	0x3c410068	0.011779882
39	0xbc0da96e	-0.008646352
40	0xbbc71678	-0.0060756765
41	0xbc429124	-0.0118754245
42	0xbd146023	-0.036224496
43	0xbc01451d	-0.007890013
44	0x3c780c9a	0.015139723
45	0xbcb715ca	-0.022349257
46	0xbcb05dd0	-0.021529108
47	0xbca7d63e	-0.0204879
48	0x3aa44461	0.0012532586
49	0xbbf24a05	-0.0073940777
50	0xbc57edcf	-0.013179257
51	0x3bdc3367	0.006719995
52	0x3900600a	0.00012242809
53	0x3c696a2b	0.014246504
54	0x3b88f8ff	0.0041800733
55	0xbcb30345	-0.021852145
56	0xbcf73bfa	-0.030179966
57	0xbbd0cc22	-0.006371991
58	0xbcb3dc8d	-0.021955753
59	0x3cd0a51b	0.025469353
60	0xbac0aa50	-0.0014699195
61	0x3c9f8160	0.01947087
62	0xbcd005fa	-0.025393475
63	0xbbb9c1a8	-0.0056688376
64	0xbc2b9b0f	-0.010473981
65	0xbc2b47d1	-0.010454134
66	0xbccd3d25	-0.02505357
67	0x39955e68	0.00028489833
68	0xbc04462e	-0.008073373
69	0x3c11e265	0.008904074
70	0xbcb72565	-0.022356698
71	0xbb7980b7	-0.0038071105
72	0xbbcf946b	-0.0063348315
73	0xbc34d010	-0.011035934
74	0xbc2a7b9a	-0.0104054455
75	0xbbf0fbd8	-0.007354241
76	0xbc04cd7c	-0.008105632
77	0xbc9f7f10	-0.019469768
78	0xbcbf1f9d	-0.023330504
79	0xbcbcf73e	-0.023067113
80	0xbc0c885b	-0.008577432
81	0xbcafeb22	-0.021474425
82	0xbc00029b	-0.007813121
83	0xbc8c6799	-0.017139243
84	0x3c95a87b	0.018268814
85	0x3c75f90a	0.015012989
86	0xbc1dacc0	-0.009623706
87	0xbb8415a3	-0.0040308996
88	0xbbfa6cf1	-0.0076423814
89	0x3d190f99	0.03736839
90	0xbbda62df	-0.0066646184
91	0xbbc3a571	-0.00597065
92	0xbbe5a2c6	-0.0070079295
93	0xbc344c3c	-0.011004504
94	0x3c802a68	0.01564522
95	0x3c063aa1	0.008192689
96	0xbbd53738	-0.0065068267
97	0xbc4e8d29	-0.012606897
98	0xbb13d361	-0.0022556412
99	0xbcbd5abd	-0.023114556
100	0x3c9cc36e	0.019136157
101	0xbb0bd4b7	-0.0021336505
102	0xbab34844	-0.0013678153
103	0xbc363e34	-0.011123229
104	0xbc6d216b	-0.0144732995
105	0xba8247ee	-0.000993965
106	0xbc7d4c60	-0.015460104
107	0x3ca2c5d1	0.019869717
108	0xbad1a86e	-0.001599563
109	0x3bb37189	0.005476181
110	0xbca98040	-0.020691037
111	0xbc6a6f3e	-0.014308749
112	0xbcb3cf84	-0.021949537
113	0xbb948cb9	-0.004533377
114	0xbd09d6ce	-0.03365212
115	0xbbd13780	-0.00638479
116	0xbc21e904	-0.009882215
117	0x3c22b250	0.009930208
118	0x3c20da48	0.009817667
119	0xbccf65c6	-0.025317084
120	0xb948b166	-0.00019139572
121	0x3a82826c	0.0009957082
122	0x3bec0454	0.0072026644
123	0xbcc242d1	-0.023713501
124	0xbc41c676	-0.011827102
125	0x3c708ebe	0.01468247
126	0xbc0e6186	-0.008690244
127	0x3bd07e41	0.006362707

action_model._continuous_distribution.log_sigma f4 [1, 2]
0	0x3c71b91e	0.014753608
1	0xba1041f2	-0.00055029907

action_model._continuous_distribution.mu.weight f4 [2, 128]
0	0x3c195dd3	0.009360748
1	0x3c06575e	0.008199541
2	0x3c9aa19c	0.01887589
3	0x3cdb2640	0.026751637
4	0x3cb714e2	0.022348825
5	0x3cb2d9f3	0.021832442
6	0xbcb3bcbf	-0.021940587
7	0x3d2a7023	0.04161085
8	0xbcd7c055	-0.026336828
9	0x3bdf2003	0.006809236
10	0xbba8fdbe	-0.0051572016
11	0x3d5d1e69	0.05398408
12	0x3c80db9a	0.015729714
13	0xbc269eab	-0.010169665
14	0x3c8be0a7	0.017074896
15	0x3cd0c2bf	0.025483487
16	0xbc4351d1	-0.011921362
17	0xbc336b78	-0.0109509155
18	0xbc90d0bb	-0.017677655
19	0x3b9af4ea	0.004728903
20	0x3b1136f2	0.0022157994
21	0xbc05a2e1	-0.008156509
22	0x3c1a1152	0.009403544
23	0xbceeabc3	-0.029134637
24	0xbb48f76b	-0.003066505
25	0x3cc4715a	0.023979831
26	0x3cadb029	0.021202164
27	0xbc4f450d	-0.01265074
28	0xbbc6df9c	-0.006069137
29	0x3c2d6fa7	0.010585702
30	0x3c98d0fb	0.018654337
31	0x3ca039b2	0.019558761
32	0x3c498f4a	0.012302229
33	0xbcf0c7d5	-0.029392162
34	0x39d15906	0.00039929914
35	0xbbb4410d	-0.0055009187
36	0x3c0a3736	0.008436015
37	0x3cc1ac99	0.023641871
38	0xbc9c833b	-0.019105544
39	0x3c3157eb	0.010824184
40	0xbca5a743	-0.020221358
41	0xbc36b2e4	-0.011151049
42	0x3ba6f5fc	0.0050952416
43	0x3c74b974	0.014936794
44	0xbc9c0e81	-0.019049885
45	0xba6a6f29	-0.0008942956
46	0xbb21069f	-0.0024570597
47	0x3cc76ba1	0.024343314
48	0xbb8691e1	-0.0041067456
49	0x3be5b95d	0.0070106224
50	0xbb12a3a8	-0.0022375379
51	0xbcb6b2a2	-0.022301976
52	0xbc22af30	-0.009929463
53	0x3d23fd38	0.04003641
54	0xbc665401	-0.014058114
55	0x3c68042c	0.014161151
56	0x3b857005	0.0040721917
57	0x3ccb7999	0.024838256
58	0xbc39e439	-0.011345916
59	0xbce5b2f4	-0.028039433
60	0xbbc42da1	-0.0059868847
61	0x3d6a57ba	0.05721257
62	0x3b7cc202	0.0038567786
63	0x3a60acd1	0.00085706735
64	0x3ba84401	0.00513506
65	0xbbff98fc	-0.0078002196
66	0x3c4f2a9d	0.012644437
67	0x3c3ce026	0.0115280505
68	0xba3e8d7c	-0.00072690076
69	0xbce9ab20	-0.028523982
70	0x3cc9d1d7	0.024636192
71	0x3d571f7b	0.052520256
72	0xbc2dcbb0	-0.010607645
73	0x3c360a55	0.011110862
74	0xbbe6405d	-0.0070267157
75	0x3cdaafae	0.026695099
76	0x3b5dcd2a	0.003384421
77	0xba9c6539	-0.0011932022
78	0x3cd25a4a	0.025677819
79	0x3cd4d275	0.02597926
80	0x3cf57124	0.029961176
81	0x3c8f589e	0.01749831
82	0xbc3bab24	-0.011454377
83	0x3bc4f40c	0.006010538
84	0xbcb310e0	-0.021858633
85	0xbccefd99	-0.02526741
86	0x3c92a463	0.017900651
87	0x3b2fa391	0.0026800374
88	0x3ca67b05	0.020322332
89	0x3ca807ae	0.020511474
90	0xbc52f6e6	-0.012876248
91	0x3d29efa9	0.041488323
92	0x3d970529	0.07374031
93	0x3b82cab3	0.003991449
94	0xbd019081	-0.03163195
95	0x3cbbf4ef	0.022943942
96	0x3ca2d440	0.0198766
97	0x3d347339	0.044055197
98	0xbc230d75	-0.009951939
99	0x3c35a9ee	0.011087878
100	0xbc880597	-0.016604228
101	0x3cb0e6a2	0.02159435
102	0xbb4e6191	-0.003149126
103	0x3cc30c4e	0.023809578
104	0x3bf87f6c	0.0075835492
105	0x3cdc975a	0.026927639
106	0xbc05b02f	-0.008159681
107	0xbcefd5ac	-0.029276691
108	0x3cb2389d	0.021755511
109	0x3c211a95	0.009832998
110	0x3d04eadc	0.03245054
111	0x3ac9924a	0.001537868
112	0x3a9db494	0.0012031966
113	0xba729ec2	-0.0009255224
114	0x3b9a9532	0.0047174925
115	0xbbadc25c	-0.0053027105
116	0xbc3fe1c7	-0.011711544
117	0xbcef5eb2	-0.029219959
118	0xbca4df9e	-0.02012616
119	0x35fd43aa	1.8869662e-06
120	0x3a46fc69	0.00075907126
121	0x3c0d84d9	0.00863763
122	0x3aae98d3	0.0013320692
123	0x3cad47b8	0.021152362
124	0x3bab6372	0.0052303607
125	0xbbeeee94	-0.0072916243
126	0x3cdc7849	0.026912825
127	0xbc24b390	-0.010052577
128	0x3cc1cedb	0.023658207
129	0xbb923eed	-0.0044630677
130	0x3c254e18	0.01008942
131	0xbd0b53c3	-0.03401543
132	0xbbfecf50	-0.0077761784
133	0xbca08023	-0.01959235
134	0x3cc727b7	0.02431093
135	0xbaef48e3	-0.0018255975
136	0x3c2bfa36	0.010496667
137	0xbceab788	-0.028651968
138	0x3cc9771f	0.024592934
139	0x3929c7d5	0.00016191539
140	0xb9e78945	-0.00044162027
141	0x3c87ff15	0.016601125
142	0x3b7971c3	0.0038062192
143	0x3c1f1699	0.009709978
144	0xbd00447f	-0.031315323
145	0x3c015588	0.007893927
146	0x3c8bbf92	0.017059121
147	0x3cbbb49e	0.022913273
148	0xbd128c8c	-0.035778567
149	0xbc2d3fe1	-0.010574312
150	0xbc909ea9	-0.01765378
151	0x3988a125	0.00026060003
152	0xb99c0129	-0.00029755503
153	0x3cdba40a	0.026811618
154	0x3cc47c64	0.023985095
155	0x3b62a76c	0.0034584654
156	0xbc34db05	-0.011038546
157	0xbbc9506a	-0.0061436193
158	0xbc75927f	-0.014988541
159	0x3cad5da4	0.021162815
160	0xbab8ae75	-0.0014090078
161	0xb94ba50b	-0.00019421072
162	0x3a38bc4a	0.00070471
163	0x3ab1f48d	0.001357691
164	0xb99a4849	-0.00029427026
165	0x3b5bca40	0.0033537298
166	0x3d463140	0.048386812
167	0x3d0091cc	0.031389043
168	0xbbc6d3ec	-0.0060677435
169	0x3ce4ded1	0.027938278
170	0xbb243ba6	-0.0025059967
171	0xbc1fc51f	-0.009751587
172	0xbd06b217	-0.032884683
173	0xbbce6cd7	-0.006299596
174	0xbb1ebf78	-0.002422301
175	0x3cc1d4ed	0.023661101
176	0x3af666ca	0.0018798944
177	0x3a5212d6	0.0008013671
178	0x3b9122f3	0.004429215
179	0x3c0862ad	0.008324307
180	0x3c9fe267	0.019517137
181	0xbbaac799	-0.005211782
182	0x3d0101e9	0.031495962
183	0xbb8e9b13	-0.0043519824
184	0xbad90203	-0.0016556386
185	0x3c491a60	0.012274355
186	0x3ca256aa	0.019816715
187	0x3b22e800	0.002485752
188	0x3ca31e89	0.019912021
189	0xbd0e45ef	-0.034734663
190	0x3b68cedd	0.003552369
191	0xbd0a26b8	-0.03372833
192	0x3aed274b	0.0018093375
193	0x3c11bf08	0.008895643
194	0xbbf5598e	-0.0074874824
195	0xbbfd5ba7	-0.007731873
196	0xbc9a812b	-0.01886042
197	0x3c2a4883	0.010393265
198	0x3c8c4c63	0.017126268
199	0x3db14322	0.08655383
200	0x3beb10c3	0.007173629
201	0x3d2eef10	0.042708457
202	0x3c8b393c	0.016995065
203	0x3d0f338c	0.03496127
204	0xbc510ff6	-0.012760153
205	0xbbe0912d	-0.006853244
206	0xbc0ecb81	-0.008715511
207	0x3cc799e4	0.024365373
208	0x3c73a6ce	0.014871312
209	0x3c87b54a	0.016565938
210	0x3c753ae4	0.014967654
211	0x3c899f50	0.016799599
212	0x3b3898e2	0.0028167297
213	0xbc89f66f	-0.016841142
214	0xbc0e60bb	-0.0086900545
215	0x3cb9af95	0.022666732
216	0xbc167792	-0.009183781
217	0xbcc2cd10	-0.023779422
218	0xbbb1abf5	-0.00542211
219	0xbcc3370b	-0.023829957
220	0xbc88015b	-0.016602209
221	0x3bada9be	0.005299776
222	0xbb7cb191	-0.0038557986
223	0x3d13e92f	0.036111053
224	0x3cee894f	0.029118208
225	0xbd2d1bd8	-0.042262882
226	0xbad02aa0	-0.0015881844
227	0xbb58553a	-0.0033009783
228	0x3bdb65a5	0.0066954666
229	0x3c72f1fe	0.014828203
230	0xbc4cdab8	-0.0125033185
231	0x3bb48ee7	0.0055101993
232	0x3c9d72e0	0.019219816
233	0x3d171b48	0.03689125
234	0x3cb52194	0.022110738
235	0x3cf63bed	0.030057872
236	0xbb7d24fd	-0.0038626783
237	0xbc7bb737	-0.015363506
238	0x3c0f1916	0.008734008
239	0xbc2863fc	-0.010277744
240	0xbc8a06e3	-0.016848987
241	0xbc1c6106	-0.009544617
242	0xbb948661	-0.004532621
243	0xbccc5a13	-0.024945294
244	0x3c8019b3	0.015637254
245	0x3bdf6582	0.0068175206
246	0xbc1b896d	-0.009493214
247	0x3c2e5fc3	0.010642949
248	0x3d2e5dab	0.042569797
249	0x3bd0d7c6	0.0063733784
250	0xbd06ef28	-0.03294292
251	0xbc8c66d9	-0.017138885
252	0x3c2a59f1	0.01039742
253	0x3a829079	0.0009961269
254	0xbcdf9a6b	-0.027295312
255	0xbd070e0c	-0.03297238

action_model._continuous_distribution.mu.bias f4 [2]
0	0xbc824b75	-0.015905121
1	0xba9799d3	-0.0011566229

action_model._discrete_distribution.branches.0.weight f4 [1, 128]
0	0xbc42c97f	-0.011888861
1	0xbbea7e08	-0.0071561374
2	0xbc0efe64	-0.008727644
3	0x3b8d8c7f	0.004319727
4	0xbbc7b0db	-0.006094081
5	0xbb81a32c	-0.003956219
6	0x39a7ff6f	0.00032043035
7	0xbbe331ca	-0.0069334256
8	0xbb5e7fd3	-0.00339507
9	0xbc15111f	-0.00909832
10	0xbba96079	-0.005168971
11	0xbc6db523	-0.014508518
12	0xbbe61543	-0.0070215776
13	0xbbe3a330	-0.0069469437
14	0xbaf59e75	-0.001873924
15	0x3c201a8a	0.009771952
16	0xba98e77d	-0.0011665669
17	0x3bbc7ff4	0.005752558
18	0xbbcdb4b8	-0.006277647
19	0x3acd12c2	0.0015645849
20	0x3b80d8f3	0.0039321124
21	0x3b8cc7a0	0.004296258
22	0xbc09de1f	-0.008414774
23	0x3c219476	0.009862056
24	0x3bf91f70	0.0076026246
25	0xbbbf0f45	-0.0058306777
26	0xbb4eadd8	-0.0031536724
27	0xbba3f1cc	-0.0050031897
28	0xba0caf28	-0.00053666765
29	0xbc15227b	-0.009102459
30	0xba120bdc	-0.0005571225
31	0xbc8e71ae	-0.017388191
32	0xbae6d9ef	-0.0017612557
33	0xbb4a1477	-0.0030834952
34	0x3c855c02	0.016279224
35	0x3696cd43	4.494244e-06
36	0x39925f9b	0.00027918522
37	0x3c2d9156	0.010593733
38	0xbc36fcb3	-0.011168647
39	0x3ba6a70f	0.005085833
40	0x3cb64b55	0.022252718
41	0x3c285463	0.010274026
42	0xbc0d4069	-0.008621314
43	0x3baa016b	0.0051881573
44	0x3c3e4bed	0.011614782
45	0x3c3ec1a8	0.011642851
46	0xbb70975f	-0.0036711318
47	0xbc8d4c6c	-0.017248355
48	0x3c56b608	0.013104923
49	0xbbc4cf0c	-0.006006127
50	0x3c01a5b7	0.007913045
51	0xbc5f12c3	-0.013615313
52	0x3c3c14a3	0.01147953
53	0x3bec0b93	0.007203528
54	0xbc2c1ff1	-0.010505662
55	0xbc29415f	-0.010330527
56	0xbbf3b258	-0.0074370317
57	0xbaafdee5	-0.0013417868
58	0xbb44d82a	-0.003003607
59	0x3b96b360	0.00459902
60	0xbb453a22	-0.0030094464
61	0xbad7757f	-0.0016438215
62	0x3bb7de9d	0.0056112544
63	0xbbac4e0a	-0.0052583264
64	0xbbca8cbb	-0.006181327
65	0x3c30fd8b	0.010802637
66	0xbb794928	-0.003803799
67	0x3b29f197	0.0025931352
68	0xbcdeb650	-0.027186543
69	0xbaf648c7	-0.001879
70	0x3bc2f8b9	0.00595006
71	0xbb35fe5d	-0.002777002
72	0xbb581c93	-0.0032976016
73	0x3bc35aab	0.005961736
74	0xbb28d913	-0.0025764152
75	0x3c9dffcc	0.019287013
76	0x3bb85177	0.0056249457
77	0x3c6677e7	0.014066673
78	0x3c12832d	0.008942408
79	0x3c5c9a5a	0.013464535
80	0x3b27b787	0.0025591569
81	0xbc8cb525	-0.01717622
82	0xbc0eee47	-0.008723802
83	0xbb2c9a01	-0.002633691
84	0xbbad3773	-0.005286151
85	0xbbaee3ed	-0.0053372295
86	0xbc18130b	-0.009281884
87	0x3b90abbf	0.004415005
88	0xbc902a7b	-0.017598381
89	0xbb98178f	-0.0046414803
90	0xbc15889a	-0.009126807
91	0x3af33d3b	0.0018557677
92	0xbc5baae2	-0.013407441
93	0xbc0de66c	-0.008660894
94	0x3c0a9a1b	0.008459593
95	0xbcc2386a	-0.023708541
96	0x3b3baf67	0.0028638483
97	0x3ba057ce	0.0048932796
98	0xbabbe9ca	-0.0014336642
99	0xbb1e786f	-0.002418067
100	0x3c304935	0.010759641
101	0xbc27d9eb	-0.010244827
102	0x3bc29835	0.0059385546
103	0x3c43aaa7	0.011942542
104	0xbc248195	-0.01004066
105	0xbb4ee77b	-0.0031571079
106	0xbcc0fa47	-0.023556842
107	0x3c1e90bb	0.009678061
108	0xbc20943b	-0.009800966
109	0xbbd5ab57	-0.0065206694
110	0xbc70ecb0	-0.014704868
111	0xbaeaff27	-0.0017928825
112	0x3bacba48	0.00527123
113	0x3bb05c79	0.0053821173
114	0x3be6b7b2	0.007040941
115	0xbc2d5f08	-0.010581739
116	0x3c19be7f	0.009383797
117	0x3c4bedfa	0.012446875
118	0xbae50cba	-0.0017475106
119	0xbb6dc3e8	-0.00362801
120	0x3c3f5933	0.011678982
121	0xbbee8f70	-0.0072802827
122	0x3b5aebd0	0.0033404715
123	0xbc15b7ea	-0.009138087
124	0x3bcf6dc3	0.0063302233
125	0x3caed477	0.021341546
126	0xb95c647f	-0.00021018273
127	0x3bc0f23d	0.005888252
