ML Agents tutorial/Assets/results/RollerBall2/RollerBall/RollerBall-31365.pt (torch, 459081 bytes, 39 tensors)

network_body._body_endoder.seq_layers.0.weight f4 [128, 12]
0	0x3d2c0bd3	0.042003464
1	0xbe2c34b0	-0.16816974
2	0xbe1d50a8	-0.15362799
3	0xbd661750	-0.056174576
4	0xbea56569	-0.32303932
5	0xbdac2cee	-0.08407007
6	0x3d14d1ea	0.036333002
7	0xbdde1959	-0.108446784
8	0x3dc4f33b	0.09616705
9	0x3e95b4d7	0.29239532
10	0x3f03ef41	0.5153695
11	0x3da8c1da	0.08240099
12	0xbd01f2ba	-0.031725623
13	0xbe4f318a	-0.20233741
14	0xbe906c12	-0.2820745
15	0xbf23525c	-0.63797545
16	0xbd54da84	-0.051966205
17	0xbe628eee	-0.22124836
18	0x3eb2153c	0.34781826
19	0x3e9906c6	0.2988798
20	0xbeb391a2	-0.35072047
21	0x39617b39	0.00021503576
22	0xbe792f74	-0.24334508
23	0x3e91c7d2	0.28472763
24	0x3db23adb	0.08702632
25	0xbe902acf	-0.2815766
26	0xbcf776fb	-0.030208101
27	0xbe27333d	-0.1632814
28	0xbe1c32fe	-0.15253827
29	0x3ed7325f	0.42030618
30	0xbe9166e1	-0.28398803
31	0xbe7b0515	-0.24513657
32	0xbee6d987	-0.45087835
33	0xbed11254	-0.40834296
34	0x3e906ec9	0.28209522
35	0x3e8e3ef2	0.27782398
36	0xbcafcc8b	-0.021459838
37	0x3c0c7931	0.008573816
38	0xbda81753	-0.08207574
39	0x3d10a9ef	0.03531831
40	0xbe3824cc	-0.17982787
41	0xbe4b5c31	-0.19859387
42	0x3e6be8c6	0.23038015
43	0x3e5ada43	0.21372323
44	0xbce17801	-0.027523043
45	0xbc5eb761	-0.013593526
46	0x3ecd9780	0.40154648
47	0xbe8475bb	-0.2587107
48	0x3d837b25	0.06419972
49	0xbed090c9	-0.40735462
50	0x3da765cf	0.08173715
51	0xbe0fd943	-0.14047723
52	0xbd056a13	-0.032571863
53	0xbd3a17f1	-0.04543299
54	0xbec86de4	-0.3914634
55	0x3f0ff2d0	0.5622988
56	0xbd582776	-0.052772008
57	0xbde770bf	-0.113008015
58	0x3e1d5b5d	0.15366884
59	0xbf1b565b	-0.60678643
60	0xbf1e8198	-0.61916494
61	0xbe3b3681	-0.1828251
62	0x3e97776d	0.29583302
63	0x3eca44d9	0.39505652
64	0x3d97d0dc	0.07412884
65	0xbe6fccd8	-0.23417985
66	0x3c8f681a	0.017505694
67	0x3ee07953	0.43842563
68	0xbec99e81	-0.3937874
69	0x3dbd48a2	0.09242369
70	0xbdb2ccdf	-0.08730482
71	0xbbb23294	-0.0054381583
72	0xbe080eac	-0.13286847
73	0xbe062684	-0.1310063
74	0xbe5ef016	-0.21771273
75	0x3e672a8c	0.22574824
76	0xbd5bb155	-0.053635914
77	0x3dc559ef	0.09636294
78	0xbe6b35be	-0.2296972
79	0x3c7138cb	0.014723013
80	0xbdbc7ad8	-0.09203118
81	0x3e3d23e3	0.18470721
82	0x3f28ac1e	0.6588763
83	0x3dcbf91c	0.09959623
84	0x3f1e2bb3	0.6178543
85	0xbec5c804	-0.38629162
86	0x3ee12766	0.4397537
87	0xbe0f2f07	-0.13982783
88	0x3eb9afe4	0.36267006
89	0x3eb7c2f6	0.3589093
90	0xbe10b8c1	-0.14132978
91	0xbe920f32	-0.28527218
92	0xbe9837cb	-0.29730067
93	0x3d7ab9bd	0.06121229
94	0xbc08d5ef	-0.008351787
95	0x3dc6fdfb	0.09716412
96	0x3ea05f35	0.31322637
97	0x3e7d58c6	0.24740896
98	0xbeb8adbf	-0.36070058
99	0xbe1a0afb	-0.15043251
100	0x3e662a18	0.22476995
101	0xbe922cac	-0.28549707
102	0x3dbb8493	0.09156146
103	0xbeb4c6d6	-0.3530795
104	0x3cd0efba	0.025504936
105	0xbd341281	-0.04396296
106	0xbe3b5fa7	-0.18298207
107	0xbea1b7b6	-0.31585473
108	0x3e04dbd7	0.12974487
109	0xbea97912	-0.33100182
110	0xbdb90f51	-0.090361245
111	0xbe0820ae	-0.13293716
112	0x3eb7ef56	0.35924786
113	0x3def076f	0.1167134
114	0x3ec019fe	0.3751983
115	0x3efd222b	0.4944013
116	0x3e9121dd	0.28346148
117	0xbde4e08e	-0.11175643
118	0x3eeff9c6	0.4687025
119	0x3ea3f4b5	0.32022634
120	0xbd7a64e2	-0.061131366
121	0xbde3c8f9	-0.11122317
122	0xbcbdb4a9	-0.023157435
123	0x3cfdaae1	0.03096527
124	0xbc6ee005	-0.014579778
125	0xbe171bf9	-0.14756764
126	0x3e0ff335	0.1405762
127	0xbd9aac2c	-0.075523704
128	0x3ba902ca	0.005157803
129	0xbdec11c0	-0.11526823
130	0xbe3bc94d	-0.18338509
131	0x3eb12601	0.34599307
132	0x3eaa769b	0.33293614
133	0xbd397987	-0.045281913
134	0x3e1743a7	0.14771901
135	0xbeb517cc	-0.35369718
136	0x3e1c3e73	0.15258197
137	0x3e8745db	0.26420483
138	0x3f07ab11	0.529954
139	0x3f092d48	0.5358472
140	0xbe3e3bd2	-0.18577507
141	0x3b6d1d14	0.0036180662
142	0xbeb21c15	-0.3478705
143	0x3db63077	0.08895963
144	0xbe5a419b	-0.21314089
145	0x3d145a5f	0.036218997
146	0x3ea3c000	0.31982422
147	0x3ee146bc	0.4399928
148	0xbed4efe2	-0.41589266
149	0x3f1a02dd	0.6016062
150	0x3e8bafc7	0.27282545
151	0x3eba8e47	0.36436674
152	0xbd9a2f68	-0.07528573
153	0xbe3aed03	-0.18254475
154	0xbe2931ff	-0.16522978
155	0xbe887c1d	-0.2665719
156	0xbeb733e2	-0.3578177
157	0xbe6b6420	-0.22987413
158	0x3ee3d2b6	0.44496697
159	0x3ef07451	0.46963742
160	0xbda2d8ae	-0.079514846
161	0xbeba703f	-0.36413762
162	0x3e975f16	0.29564732
163	0xbe05fffd	-0.13085933
164	0x3b95f5f8	0.004576441
165	0x3e887709	0.26653317
166	0xbeb46498	-0.35232997
167	0xbf1e7fe2	-0.61913884
168	0xbe3382bf	-0.17530344
169	0xbe6e3e9a	-0.23266068
170	0xbf377a25	-0.7167075
171	0x3f21740d	0.63067704
172	0xbe124e89	-0.14287771
173	0x3ea0dd7b	0.31418976
174	0x3df25b57	0.11833828
175	0xbe68699d	-0.22696538
176	0xbeedab8d	-0.46419945
177	0xbf08bff9	-0.5341793
178	0x3ed8bfec	0.42333925
179	0x3e205d53	0.156606
180	0x3e6195fa	0.22029868
181	0x3f098d6b	0.5373141
182	0xbec84200	-0.39112854
183	0x3e84b52d	0.25919476
184	0x3e252f6f	0.16131376
185	0xbde7853d	-0.1130471
186	0x3e8d1616	0.27555913
187	0xbde3e0a7	-0.111268334
188	0x3e7c0dee	0.24614689
189	0x3e8256b9	0.2545679
190	0xbdbb41e3	-0.09143426
191	0x3f00e02d	0.50342065
192	0x3e75cfbd	0.24005027
193	0x3f0f7a90	0.5604639
194	0xbe96f246	-0.29481715
195	0xbe5de2fd	-0.2166862
196	0x3e40ba69	0.1882111
197	0x3cd13083	0.025535828
198	0x3f17b94a	0.59267104
199	0x3dfb8e7a	0.122830346
200	0x3da8887e	0.08229159
201	0xbe902d68	-0.28159642
202	0xbeac8b35	-0.33699957
203	0xbf178f34	-0.59202886
204	0x3da1cb95	0.07900158
205	0x3e2b7e0e	0.16747305
206	0xbe9e928c	-0.3097118
207	0x3e469a88	0.19394886
208	0xbe3a3436	-0.1818398
209	0xbdca8ee8	-0.098905385
210	0x3dc1e3cd	0.09467278
211	0xbf3552d3	-0.70829505
212	0xbd7da704	-0.061926857
213	0xbe15ad62	-0.14616922
214	0xbeae076f	-0.33990046
215	0xbe937e7f	-0.28807446
216	0x3ea2a64f	0.31767508
217	0xbc9df32e	-0.019280996
218	0x3eb5c329	0.35500458
219	0xbeeff802	-0.46868902
220	0x3e6920fc	0.22766489
221	0x3e5fe07c	0.21862978
222	0x3d41bf10	0.047301352
223	0x3ee8eefe	0.45494837
224	0xbdb7342b	-0.08945497
225	0xbe4d7496	-0.20064005
226	0x3f0468e5	0.51722556
227	0xbe873039	-0.26403978
228	0x3f037b7f	0.51360315
229	0x3dfd95c4	0.12382081
230	0x3daf32fb	0.08554646
231	0xbe531152	-0.20612076
232	0x3eaef3d6	0.34170407
233	0xbed702e7	-0.41994402
234	0x3d553d13	0.052060198
235	0xbc549c60	-0.012976736
236	0x3e538dcc	0.2065956
237	0xbec5d3f5	-0.38638273
238	0xbea2cb5b	-0.31795773
239	0x3b4bafe4	0.003108018
240	0xbe053392	-0.13007954
241	0x3e8b14bb	0.27164254
242	0x3ad712c8	0.0016408795
243	0xbcc4b99d	-0.024014289
244	0x3e85a397	0.26101372
245	0x3c571c9b	0.013129379
246	0x3f2656c8	0.6497617
247	0xbeaec94b	-0.3413795
248	0xbe2d73f8	-0.1693877
249	0xbea8e82d	-0.32989636
250	0x3e47338f	0.19453262
251	0xbe1ca89d	-0.15298696
252	0xbcbd9f21	-0.023147168
253	0xbed2529e	-0.41078657
254	0x3d266623	0.04062475
255	0xbeab4655	-0.33452097

network_body._body_endoder.seq_layers.0.bias f4 [128]
0	0xbb84ed07	-0.004056576
1	0xbce7bb17	-0.028287454
2	0xbd9b9e8e	-0.07598601
3	0x3bbd8671	0.005783849
4	0xbd5b4da0	-0.053540826
5	0xbd0e7fd3	-0.03478987
6	0xbd63d842	-0.05562616
7	0xbc5dd4ab	-0.0135394735
8	0xbd0a6ec9	-0.03379706
9	0xbd44ac68	-0.048015982
10	0x3cc2281f	0.023700772
11	0xbd520351	-0.051272694
12	0xbcf6a402	-0.030107502
13	0x3d26dd22	0.040738232
14	0x3be87205	0.0070936703
15	0xbcb188d4	-0.02167169
16	0x3ceb7d00	0.028746128
17	0x3d078b74	0.033091977
18	0xbd35232b	-0.044222992
19	0xbd107d67	-0.035275843
20	0x3ceb22c5	0.028703103
21	0xbc460267	-0.012085534
22	0xbd00abd2	-0.03141386
23	0x3d2ea914	0.042641714
24	0x3d55832d	0.052127052
25	0xbd66274b	-0.056189816
26	0xbca80591	-0.020510467
27	0x3cee69b9	0.029103147
28	0xbbf050d5	-0.0073338547
29	0xbbb66260	-0.0055659264
30	0xbd41b60d	-0.047292758
31	0x3d921316	0.071325466
32	0xbcb61c40	-0.022230268
33	0xbd24c2b9	-0.040224764
34	0xbc8b54fc	-0.017008297
35	0x3cf30ba1	0.029668631
36	0xbc8fc9b0	-0.017552227
37	0xba4c61dc	-0.00077965646
38	0x3c69a4f9	0.014260524
39	0x3cd65262	0.02616233
40	0xbcfb6640	-0.030688405
41	0xbcb2d787	-0.021831287
42	0xbae9960e	-0.0017821209
43	0xbccf902b	-0.0253373
44	0x3b97f02a	0.004636784
45	0xb905fdf6	-0.00012778476
46	0xbd4d53c4	-0.050128713
47	0x3d152642	0.03641344
48	0x3c44100f	0.011966719
49	0xbcb39cc4	-0.021925338
50	0x3c16d982	0.009207131
51	0xbc2bdad6	-0.010489186
52	0xbb07ae78	-0.0020703357
53	0xbcbedbe1	-0.023298206
54	0xbc441b29	-0.011969366
55	0xbc60cbb5	-0.013720443
56	0x3c598565	0.013276433
57	0x3b00f387	0.0019676404
58	0xbca84f48	-0.020545617
59	0x3c9e8e25	0.01935489
60	0xbc08b28f	-0.008343353
61	0x3cc74f30	0.024329752
62	0x3c0ef7d8	0.008726083
63	0xbd2013b5	-0.039081294
64	0xbd0701f8	-0.032960862
65	0xbcca94da	-0.024729181
66	0xbbf68d3c	-0.0075241607
67	0x3b01b794	0.001979326
68	0xbd003f39	-0.031310294
69	0xbd520bb7	-0.051280703
70	0x3ca19d59	0.01972835
71	0xbc75e858	-0.015009008
72	0xbbce89da	-0.0063030543
73	0xbb9fb3d4	-0.004873732
74	0xbb93779c	-0.0045003425
75	0xbd17d033	-0.03706379
76	0x3d245336	0.04011842
77	0xbc587327	-0.013211048
78	0x3c62a190	0.013832465
79	0xbba0b7f6	-0.0049047424
80	0x3bbcea14	0.005765209
81	0xbc5e4b4e	-0.013567759
82	0xbc6b89ec	-0.014376145
83	0xbcd2d3c2	-0.02573574
84	0x3d0103f0	0.031497896
85	0xbc83c0d0	-0.016083151
86	0xbc953a4d	-0.018216277
87	0xbd3766d9	-0.044775818
88	0x3ca3d0cf	0.019997029
89	0xbd29ba8d	-0.041437674
90	0x3d5693fb	0.05238722
91	0x3ca5899d	0.02020722
92	0x3d2db587	0.042409446
93	0x3c4510ec	0.01202796
94	0xbd1f8eff	-0.03895473
95	0xb98e58db	-0.00027150553
96	0x3c644352	0.013932066
97	0xbb92b3aa	-0.004476984
98	0x3c4d152b	0.012517254
99	0xbca01e09	-0.019545572
100	0xbcbddccc	-0.023176573
101	0x3d76539e	0.060138337
102	0x3cb5639c	0.022142224
103	0xbc9e2b34	-0.01930771
104	0xbd0a88b7	-0.033821788
105	0xbd994e21	-0.07485605
106	0x396b9cd1	0.00022469765
107	0xbd3e8a4b	-0.046518605
108	0x3a9a4885	0.001177088
109	0xbc504160	-0.012710899
110	0xbc2b9a1e	-0.010473756
111	0x3cfeb20a	0.031090755
112	0xbc5a5fa5	-0.0133284675
113	0xbc0835c2	-0.008313598
114	0xbca4630c	-0.02006676
115	0xbd31ed24	-0.043439046
116	0xbb05ad59	-0.0020397513
117	0xbc58eab8	-0.013239555
118	0x3cbbba5f	0.022916017
119	0xbceec461	-0.029146375
120	0xbc2a6d48	-0.010402031
121	0x3c36b13f	0.011150657
122	0x3caab3ae	0.020837631
123	0xbce28165	-0.02764959
124	0xbcf3060c	-0.02966597
125	0x3b0cdd6d	0.0021494285
126	0xbd0c0833	-0.034187507
127	0xbd1fb8d2	-0.038994618

network_body._body_endoder.seq_layers.2.weight f4 [128, 128]
0	0xb9fef0c2	-0.00048626034
1	0xbd864e8f	-0.065579526
2	0xbd713fc1	-0.05889869
3	0x3c7211c3	0.014774743
4	0x3d19cdad	0.037549663
5	0x3c1b6404	0.009484295
6	0xbd86663b	-0.06562468
7	0x3df2b1d4	0.11850324
8	0xbd2adec0	-0.041716337
9	0xbd7125ef	-0.058874067
10	0x3dd9a241	0.106266506
11	0xbdd461fd	-0.10370252
12	0x3da79d8e	0.08184348
13	0xbbf804ce	-0.007568932
14	0xbd0d0b6e	-0.03443473
15	0xbd7a4cef	-0.061108526
16	0xbe0c2bd8	-0.136886
17	0xbd37adda	-0.044843532
18	0x3d3ed457	0.04658922
19	0x3a4e4e23	0.00078699196
20	0xbdc5482c	-0.09632906
21	0xbd07e1a3	-0.03317417
22	0xbd3acd49	-0.04560593
23	0x3d87a7be	0.06623791
24	0xbdfc0eaa	-0.123074844
25	0x3c628c19	0.013827347
26	0x3dacc49d	0.084359385
27	0xbd119b07	-0.035548236
28	0xbd8e3651	-0.06943954
29	0xbd9f7da2	-0.077876344
30	0xbd4af583	-0.049550544
31	0xbc743425	-0.01490501
32	0x3d1dc585	0.038518447
33	0xbdd6f1dc	-0.1049535
34	0xbd8b2b39	-0.067953534
35	0x3dc3a8b2	0.095536605
36	0x3d8b540c	0.0680314
37	0x3d41fd2d	0.047360588
38	0x3d64c45e	0.055851333
39	0xba44a614	-0.0007501554
40	0x3d688b47	0.05677345
41	0xbdce68e1	-0.10078598
42	0xbce3369f	-0.027736006
43	0x3d7a04c1	0.06103969
44	0xbd99cdeb	-0.07509979
45	0xbc6000a9	-0.013672032
46	0x3d7bae54	0.06144555
47	0x3cec9fe0	0.028884828
48	0x3c484898	0.012224339
49	0x3da9a34b	0.08283099
50	0x3cd0db3d	0.025495166
51	0xbc1bce2f	-0.009509607
52	0x3ca2c9d5	0.019871632
53	0xbdacafa5	-0.08431939
54	0xbd39899e	-0.045297258
55	0xbddfca95	-0.10927311
56	0xbd412123	-0.047150742
57	0x3daa59c4	0.08317903
58	0x3d906104	0.07049754
59	0xbdad76c0	-0.084699154
60	0x3dc57a62	0.09642483
61	0xbd168242	-0.036745317
62	0x3de069ad	0.10957656
63	0xbd2adfe1	-0.041717414
64	0xbdb2d04d	-0.087311365
65	0xbe0ab706	-0.1354638
66	0x3e09f60e	0.13472769
67	0xbe175483	-0.14778332
68	0x3e228d95	0.15874322
69	0x3e083152	0.13300064
70	0xbbaf6925	-0.0053531104
71	0x3c9cebad	0.019155348
72	0xbe33cd0e	-0.17558691
73	0x3db9fa50	0.090809464
74	0x3d3f93dc	0.04677187
75	0x3c698770	0.014253482
76	0x3d31adf7	0.043378796
77	0x3dab051d	0.08350585
78	0x3ce46809	0.02788164
79	0xbe128254	-0.14307529
80	0xbd9bbc7c	-0.0760431
81	0x3d585e4f	0.052824315
82	0xbe78e854	-0.24307376
83	0x3b9a1737	0.0047024745
84	0xbc8de446	-0.017320763
85	0xbd375f1a	-0.04476843
86	0xbdab715b	-0.0837123
87	0x3cd2e7a8	0.025745228
88	0x3c5d9c55	0.013526042
89	0x3cc2479f	0.023715792
90	0xbdfca4ab	-0.123360954
91	0x3cd941af	0.026520578
92	0x3d161ca0	0.036648393
93	0x3d86b4f0	0.0657748
94	0xbdae6817	-0.08515947
95	0xbe2bb92c	-0.16769856
96	0x3d7a45b1	0.06110162
97	0xbc4cda56	-0.012503227
98	0xbd65485c	-0.05597721
99	0xbc947b2e	-0.018125143
100	0xbd06026e	-0.03271716
101	0x3d193cc8	0.03741148
102	0x3d02d730	0.0319435
103	0xbdef9f89	-0.11700351
104	0x3d9b6846	0.07588248
105	0x3ca323e0	0.019914567
106	0xbd07d150	-0.0331586
107	0xbd4bbc71	-0.04974026
108	0xbda4ceed	-0.080472805
109	0xbd90e3a3	-0.07074668
110	0xbdde6dff	-0.10860824
111	0xbe1b9cea	-0.15196577
112	0x3d0be41a	0.03415308
113	0x3dc8eef3	0.09811201
114	0x3e6c8027	0.23095761
115	0x3dbcd432	0.092201605
116	0xbe09b13a	-0.13446513
117	0xbcb257ca	-0.021770377
118	0xbc8254a3	-0.015909499
119	0x3da8c2f8	0.08240312
120	0xbc2d7378	-0.010586612
121	0xbc893e9a	-0.016753484
122	0x3d190e9b	0.037367444
123	0x3d165d5e	0.036710136
124	0xbd6252b6	-0.05525466
125	0x3cf1c5bf	0.029513238
126	0xbd1a1ba4	-0.037624016
127	0x3bf50cd9	0.007478338
128	0xbdc7431a	-0.097295955
129	0x3e652db1	0.22380711
130	0xbe040f9e	-0.12896582
131	0xbd84b0e6	-0.06479053
132	0x3db2198c	0.08696279
133	0x3dc5a111	0.096498616
134	0xbd74f4ea	-0.05980388
135	0xbdf5a85c	-0.119950026
136	0xbcaab0e1	-0.020836296
137	0xbd363857	-0.044487324
138	0x3c99d6ba	0.018779147
139	0x3d3ace73	0.04560704
140	0x3c11579d	0.008870986
141	0xbc953681	-0.018214466
142	0xbe7a1907	-0.2442361
143	0xbdd18abe	-0.10231541
144	0xbdee1ed5	-0.116269745
145	0x3d81416d	0.06311307
146	0x3e29e0eb	0.16589706
147	0x3d2a2b69	0.041545305
148	0xbe34ad7b	-0.17644303
149	0xbd269a9d	-0.040674794
150	0xbb688e86	-0.0035485341
151	0xbc84dfa2	-0.016219918
152	0xbe4398de	-0.19101283
153	0xbd87bed2	-0.06628193
154	0x3e16edd5	0.14739163
155	0xbcd5c713	-0.026095903
156	0x3bb2b725	0.0054539614
157	0xbe6b2376	-0.22962746
158	0xbd7f4598	-0.06232223
159	0xbcb995c3	-0.02265442
160	0xbdaa82f6	-0.0832576
161	0x3cdcbbe6	0.026945066
162	0xbd7bf44d	-0.06151228
163	0xbda848fd	-0.082170464
164	0xbcbd0f5b	-0.023078611
165	0xbdafc2c4	-0.085820705
166	0x3cfe1916	0.031017821
167	0x3d81b38b	0.06333073
168	0x3d9fdced	0.0780581
169	0xbd5275e1	-0.05138195
170	0xbe2191a1	-0.1577821
171	0x3dd722b4	0.10504666
172	0x3df5fbcb	0.12010916
173	0x3d70f23b	0.05882476
174	0x3de00d9c	0.10940096
175	0x3d628cc0	0.05531001
176	0xbc930aec	-0.017949544
177	0x3cc36d80	0.023855925
178	0xbdaf40c1	-0.08557273
179	0xbe0925e1	-0.13393356
180	0xbe07f55e	-0.13277194
181	0x3ae30868	0.0017321231
182	0x3b9d264f	0.0047958265
183	0x3c47916c	0.012180667
184	0xbc55bc3f	-0.01304537
185	0x3d4e5656	0.050375305
186	0xbd9b1159	-0.07571668
187	0x3cf131ef	0.029442756
188	0xbdaf1853	-0.08549561
189	0x3cc98b0a	0.024602432
190	0x3db625de	0.08893941
191	0x3e2e76ce	0.17037508
192	0x3d49b8a8	0.049248368
193	0xbdd4ac22	-0.10384394
194	0x3e07713b	0.13226788
195	0xbc7d81fc	-0.015472885
196	0xbe0a675a	-0.13515988
197	0xbdc9a9ba	-0.09846826
198	0x3db8cfe4	0.09024027
199	0xbdac9246	-0.08426337
200	0xbc554950	-0.013017967
201	0xbc9a5ce5	-0.018843124
202	0x3d8fe06c	0.07025227
203	0x3c491501	0.012273074
204	0x3c6af497	0.014340541
205	0xbdeea9f6	-0.11653511
206	0x3e250e3f	0.16118716
207	0x3d99866d	0.07496343
208	0xbddf3bc4	-0.10900071
209	0x3cbf4008	0.023345962
210	0xbcad9be5	-0.0211925
211	0xbd74632f	-0.0596649
212	0xbcccf5ad	-0.025019491
213	0xbdb8b183	-0.09018233
214	0xbd001e27	-0.031278756
215	0x3cf26238	0.02958785
216	0xbc6c6f4e	-0.014430834
217	0x3c8647c7	0.016391648
218	0xbd032a23	-0.032022607
219	0x3ddced50	0.10787451
220	0x3d62a3a3	0.055331837
221	0xbc96ef10	-0.01842454
222	0x3a0392d8	0.0005019135
223	0xbdc6a40b	-0.096992575
224	0xbdded384	-0.10880187
225	0xbd72c16c	-0.059266493
226	0x3d5cccd8	0.05390629
227	0xbe30d4af	-0.17268632
228	0xbcab4f26	-0.020911764
229	0x3be9019a	0.0071107866
230	0xbdd6dfc6	-0.104919
231	0xbcb6e980	-0.022328138
232	0x3b74e4d1	0.003736783
233	0x3c73962f	0.0148673495
234	0xbdb151a5	-0.086581506
235	0xbdc3fa43	-0.09569218
236	0xbd89cfe1	-0.06729103
237	0xbd100508	-0.03516105
238	0xbdd13e65	-0.10216979
239	0xbcc93618	-0.024561927
240	0xbd8e236d	-0.06940351
241	0xbd721531	-0.05910224
242	0xbbe002b0	-0.006836258
243	0x3c16189b	0.00916114
244	0x3dbe93ef	0.0930556
245	0xbd182a1f	-0.037149545
246	0x3d8b2af3	0.06795301
247	0xbbeab075	-0.0071621486
248	0xbd151423	-0.036396157
249	0x3d0b99bc	0.03408216
250	0xbe34b17f	-0.17645834
251	0x3dbd71fe	0.09250258
252	0xbe57a220	-0.2105794
253	0x3b425bd6	0.002965679
254	0x3cc4519a	0.023964692
255	0xbb023b94	-0.0019871937

network_body._body_endoder.seq_layers.2.bias f4 [128]
0	0xbbb9b125	-0.005666869
1	0xbc99df4f	-0.01878324
2	0xbbd81266	-0.00659399
3	0xbc7b0168	-0.0153201595
4	0xbcfaf67d	-0.030635113
5	0x3c42c671	0.011888132
6	0xbc7796ca	-0.0151116345
7	0xbc9431f1	-0.01809022
8	0x3a45525d	0.00075272267
9	0x3c88c400	0.016695023
10	0x39f2b0ca	0.00046289555
11	0xbcd3f541	-0.025873782
12	0x3cacde57	0.021102114
13	0xbd33d6e9	-0.043906126
14	0x3cfc0ce1	0.03076786
15	0xbd09e9c4	-0.033670202
16	0xbca0c840	-0.019626737
17	0x3b52ea5d	0.0032183148
18	0xbd02bf39	-0.031920645
19	0xb9a16e86	-0.0003079066
20	0x3cafa023	0.021438664
21	0x3cb9bd59	0.022673296
22	0xbd1d669a	-0.038427927
23	0xbc92ef4e	-0.017936375
24	0xbd6dfdad	-0.058103252
25	0xbd1fe6e3	-0.03903855
26	0xbcbed80b	-0.023296377
27	0xbbbc975e	-0.005755349
28	0xbc523309	-0.012829551
29	0xbcd2c270	-0.02572748
30	0x3bfd950f	0.0077387164
31	0x3ba8a408	0.005146507
32	0xbd29fabc	-0.041498885
33	0xbbf244e9	-0.0073934686
34	0xbd35caf2	-0.044382997
35	0xbd0eb7fb	-0.034843426
36	0xbcf7366e	-0.030177321
37	0x3b33497f	0.002735704
38	0xbcf238de	-0.029568132
39	0x3bb01263	0.0053732856
40	0xbc39e9f8	-0.011347286
41	0x3b2684c0	0.0025408715
42	0xbcc728ef	-0.02431151
43	0xbc0bba55	-0.008528312
44	0xbd4c2edb	-0.049849372
45	0xbced3d03	-0.028959757
46	0xbd4b6a74	-0.04966207
47	0xbc3a6237	-0.011375955
48	0xbaf21e00	-0.0018472075
49	0xbd079879	-0.033104394
50	0xbd51d80d	-0.051231433
51	0xba7642ee	-0.00093941286
52	0x3c8d7b5f	0.017270742
53	0xbcd33328	-0.02578123
54	0xbc8118f2	-0.015758965
55	0xbc42d14a	-0.011890719
56	0xbcf15e89	-0.029464023
57	0xbc70c534	-0.014695454
58	0xbc4dbd48	-0.012557335
59	0x3c2005a0	0.009766966
60	0xbd1a419e	-0.037660234
61	0x3c862cf3	0.016378855
62	0xbcee405e	-0.029083427
63	0x3b039a6d	0.0020081059
64	0x3c3b3fa4	0.011428747
65	0xb8c1624c	-9.2212664e-05
66	0x3c1196db	0.008886064
67	0xbbf16490	-0.0073667243
68	0x3c3707df	0.01117131
69	0xbcfe42de	-0.031037744
70	0xbbb150fd	-0.005411266
71	0xbc81ee76	-0.015860777
72	0xbc4d739f	-0.012539773
73	0xbcc82dc9	-0.024435895
74	0xbd068712	-0.032843657
75	0x3cb9a199	0.022660064
76	0xbceb1c3a	-0.028699983
77	0x3ba23b67	0.004950929
78	0xbc2b1350	-0.010441616
79	0xb9f91973	-0.00047511942
80	0x3c1a70a8	0.009426273
81	0x3b3e8c5e	0.0029075365
82	0xbcbb9784	-0.022899397
83	0x3cac3a22	0.021023814
84	0xbcb5a7a8	-0.022174671
85	0xbb80be39	-0.0039289263
86	0xbc69833e	-0.014252482
87	0xbcdf0482	-0.02722383
88	0xbd0a988f	-0.033836897
89	0xbbb7f1f2	-0.005613559
90	0xbcd3e8cb	-0.02586784
91	0xbc2bfe7c	-0.0104976855
92	0xbc2610bc	-0.010135826
93	0xbd91fc49	-0.07128198
94	0xbd430f1e	-0.04762184
95	0xbcc7fb4d	-0.024411822
96	0xbc7b95d5	-0.015355547
97	0xbd02589d	-0.03182279
98	0xbd382d58	-0.04496512
99	0xbc7c7fe0	-0.015411347
100	0xbc1ead65	-0.009684895
101	0xbcdab0e4	-0.026695676
102	0xbd9cc76e	-0.07655226
103	0xbcf93923	-0.030422753
104	0x3c81f64f	0.01586452
105	0x3ada96ab	0.0016676983
106	0xbc9800c8	-0.01855506
107	0xbc31fd76	-0.010863652
108	0xbaad4114	-0.0013218247
109	0x3d078e1b	0.033094507
110	0x39ebad8e	0.00044952
111	0xbc49b78b	-0.012311826
112	0xbcf208a2	-0.029545132
113	0x3cab00d6	0.020874422
114	0xbc864281	-0.016389133
115	0xbcd00810	-0.02539447
116	0xbce960c5	-0.028488526
117	0xbd221840	-0.039573908
118	0xbbee267e	-0.007267772
119	0xbc5aed91	-0.013362304
120	0xbc9f0a33	-0.019414043
121	0x3b8e37f2	0.0043401653
122	0xbca0404d	-0.019561911
123	0xbcb6a2a0	-0.022294343
124	0xbc8903e6	-0.016725492
125	0xbcac28d2	-0.021015558
126	0xbcb3ca86	-0.021947157
127	0x3ab70599	0.001396346

action_model._continuous_distribution.log_sigma f4 [1, 2]
0	0xbcb38660	-0.02191466
1	0xbd270b62	-0.04078234

action_model._continuous_distribution.mu.weight f4 [2, 128]
0	0x3c8b2d26	0.016989302
1	0xbcacd3c2	-0.021097068
2	0xbce56e04	-0.028006561
3	0x3a736270	0.00092843827
4	0xbcc0d215	-0.023537675
5	0xbd2afe48	-0.041746408
6	0xbbf29dfc	-0.007404087
7	0x3c7a108f	0.015262737
8	0x3c630389	0.013855823
9	0xbcb62d83	-0.022238499
10	0xbd32fbb5	-0.043697078
11	0xbc8444ce	-0.01614609
12	0xbcc43b26	-0.023953985
13	0xbce77bb7	-0.028257234
14	0xbd746aaa	-0.059672035
15	0xbc60e3cd	-0.013726187
16	0xbca20746	-0.019778859
17	0x3bdc9907	0.0067321095
18	0x3c72a689	0.014810213
19	0xbc249b5a	-0.010046804
20	0xbc3230dc	-0.010875907
21	0xbd0aefda	-0.033920147
22	0xb91fef4e	-0.0001525257
23	0xbb1a4074	-0.0023536952
24	0x3a899641	0.001049705
25	0xbc198008	-0.009368904
26	0xbb2558bf	-0.0025229899
27	0xbd129398	-0.035785288
28	0xbc4ae7c3	-0.012384358
29	0xbc3d9147	-0.011570281
30	0xbc52d800	-0.012868881
31	0xbc4ac2d3	-0.012375551
32	0xba21b65d	-0.0006168837
33	0x3ca15f3d	0.019698733
34	0xbc1d3c21	-0.009596855
35	0x3ae4443d	0.0017415356
36	0x3a63371a	0.00086675736
37	0xbd1b5a1c	-0.037927732
38	0x3b3773db	0.002799264
39	0x3ca54469	0.020174222
40	0xbb7fb074	-0.0039015086
41	0x3c0535db	0.008130516
42	0xb91eb2d9	-0.0001513468
43	0xbcba527c	-0.02274441
44	0xbca55219	-0.020180749
45	0x3b50854a	0.0031817728
46	0x3b2ecaa9	0.0026671088
47	0x3c29c7c7	0.010362572
48	0x3b67cf67	0.0035371424
49	0x3b56765f	0.0032724363
50	0xbcf9bea8	-0.03048642
51	0xbd61ddcf	-0.055143174
52	0xbcf10ac7	-0.029424084
53	0x3c3662f9	0.011131995
54	0xbc3f3b25	-0.011671816
55	0x3c955d6c	0.018233024
56	0x3c84bc66	0.016203117
57	0xbcc36add	-0.023854667
58	0x3cd843c3	0.026399499
59	0x3b923446	0.004461798
60	0x3a02acc0	0.0004984848
61	0xbd2808d5	-0.041024048
62	0xbc16ba87	-0.009199745
63	0x3cc7c1fb	0.02438449
64	0x3c5c9c6d	0.013465029
65	0x3d143304	0.036181465
66	0x3c9f0983	0.019413715
67	0x3b973fcc	0.0046157595
68	0xbd2ab24a	-0.041673936
69	0xbcc69b9b	-0.02424412
70	0x3ce78b12	0.028264556
71	0xbc9efabb	-0.019406667
72	0x39261bdc	0.00015841372
73	0xbc36c897	-0.011156223
74	0x3cd99243	0.026559
75	0xbd0e1674	-0.03468938
76	0x3ae1090a	0.0017168832
77	0x3bed24b5	0.007237042
78	0x3b1c4b88	0.002384873
79	0xbc4c9680	-0.012487054
80	0x3cc109c1	0.023564221
81	0x3cce6ebd	0.025199289
82	0xbcfbe40e	-0.030748393
83	0x3c993b28	0.018704966
84	0x3c25f822	0.01012996
85	0xbcd4e507	-0.025988115
86	0x3bcc0b6f	0.006226949
87	0xbc9e7ca4	-0.019346543
88	0x3c972cfb	0.018454066
89	0xbd1aa6a0	-0.037756562
90	0x3c30fb62	0.010802122
91	0x3c8674f6	0.016413193
92	0xbd0cef5c	-0.03440796
93	0xb90983f7	-0.00013114499
94	0xbab1a24f	-0.00135524
95	0xbb67d725	-0.003537604
96	0xbd0fb895	-0.03508814
97	0xbc12ebed	-0.008967382
98	0x3d0b21cc	0.033967778
99	0x3c7e3d11	0.015517489
100	0xbb874337	-0.0041278857
101	0x3bb5371b	0.0055302507
102	0xbcec472d	-0.028842533
103	0x39fced2f	0.000482419
104	0xbd00e353	-0.031466793
105	0xbc7d3ee1	-0.015456886
106	0xbcf58df1	-0.02997491
107	0x3ba90412	0.005157956
108	0x3c5cd34a	0.01347811
109	0xbcfaef68	-0.030631736
110	0xbcabf135	-0.02098904
111	0xbc8f1b18	-0.017468974
112	0xbaff9d12	-0.0019501767
113	0xbbf7f576	-0.007567103
114	0x3bbdd115	0.005792747
115	0x3b3de18b	0.0028973545
116	0xbbac5334	-0.005258942
117	0x3994dc38	0.00028392836
118	0xbb881af9	-0.004153606
119	0x3ccc28a4	0.024921723
120	0xbc1bb4ab	-0.009503524
121	0x3c803296	0.015649121
122	0xbbcbf5e4	-0.006224381
123	0x3b389d9a	0.002817011
124	0xbc970c14	-0.018438376
125	0xbcf407af	-0.02978882
126	0x3b02f1cc	0.0019980548
127	0xbbf095ad	-0.0073420615
128	0xbc149996	-0.009069821
129	0x3bd2f4a3	0.0064378544
130	0x3c66b4fa	0.014081234
131	0xbc87139d	-0.016488845
132	0x3cb74239	0.022370445
133	0xbd03abb6	-0.03214618
134	0x3d0816da	0.033224918
135	0x3c413285	0.01179183
136	0x3d525839	0.051353667
137	0xbcf31bf8	-0.029676422
138	0xbd8a9185	-0.06766037
139	0x3d6d5ab4	0.05794783
140	0xbca9cfd4	-0.020728983
141	0x3d0c53a2	0.034259446
142	0xbd39c6f3	-0.04535575
143	0x3c9e0d7a	0.019293536
144	0xbd08ccf4	-0.033398584
145	0xbc7523f0	-0.014962181
146	0x3b67cb88	0.0035369117
147	0xbce8a149	-0.02839722
148	0xbc6108c5	-0.013735001
149	0xbd1a2c12	-0.037639685
150	0x3c60b9a2	0.013716133
151	0xbc1a8eb1	-0.009433434
152	0x3bd86877	0.00660425
153	0x3c39e275	0.0113454955
154	0x3d8538db	0.06504985
155	0x3d4646c2	0.048407324
156	0xbcc3ee34	-0.023917295
157	0x3c918a13	0.017766034
158	0xbd2a2525	-0.04153933
159	0xbd061023	-0.032730233
160	0x3ccee858	0.025257275
161	0xbca4fa86	-0.02013899
162	0xb983c483	-0.0002513268
163	0x3b366f34	0.0027837278
164	0x3d0c9fe1	0.03433216
165	0x3c811e5f	0.015761552
166	0x3c4263bc	0.011864599
167	0xbcc4356f	-0.02395126
168	0x3c1c92fe	0.00955653
169	0xbd0902aa	-0.033449806
170	0x3b4e8407	0.00315118
171	0xbbd1b951	-0.0064002653
172	0x3b6a2878	0.0035729688
173	0xba9b0b14	-0.0011828863
174	0x3ca6ba68	0.020352557
175	0xbcd0ce3f	-0.02548897
176	0xbb4368ff	-0.0029817221
177	0x3aafb642	0.0013405757
178	0xbca678b4	-0.020321228
179	0x3c930fce	0.017951872
180	0x3d5d3740	0.05400777
181	0x3c819ab3	0.015820837
182	0x3b709175	0.0036707793
183	0xbc1b6369	-0.00948415
184	0x3d3c298e	0.045938067
185	0x3d0942ce	0.033510976
186	0x3d40fdbc	0.04711698
187	0xbd2084d1	-0.039189164
188	0x3c4dd07b	0.012561913
189	0xbd62eb85	-0.05540039
190	0x3cdbe190	0.026840955
191	0xbd6c3a40	-0.05767274
192	0x3b7fa78d	0.003900978
193	0xb8f8573f	-0.000118418124
194	0xbba693e9	-0.0050835502
195	0x3c1d5cd0	0.009604648
196	0x3c9c144e	0.01905265
197	0x3c4a9f08	0.012367018
198	0x3d686088	0.056732684
199	0x3b5d277f	0.0033745465
200	0xbcbc1bd1	-0.022962483
201	0x3d545e2f	0.051847633
202	0x3d218d72	0.039441533
203	0xbce7d641	-0.028300406
204	0x3cc93c43	0.024564868
205	0xbc96e12f	-0.018417923
206	0x3d4abc0c	0.04949574
207	0xbc15648c	-0.0091182105
208	0x3c2f75f4	0.010709275
209	0xbb9dfdda	-0.004821521
210	0x3d64f23a	0.055895068
211	0x3d05e8ef	0.032692846
212	0x3c9bb984	0.01900936
213	0x3c8131ca	0.015770812
214	0x3beb75bb	0.0071856654
215	0xbcb83dca	-0.0224904
216	0xbc9e7d11	-0.019346746
217	0x3cbc154b	0.022959372
218	0xbae456d5	-0.0017420897
219	0x3c87d4d2	0.016580973
220	0x3d7fd089	0.062454734
221	0xbbee2556	-0.0072676344
222	0x3cbca11f	0.023026047
223	0x3c13c897	0.009019992
224	0x3c8000ac	0.01562532
225	0x3d1134a6	0.0354506
226	0x3d254e4b	0.04035787
227	0x3d0d6b5b	0.03452621
228	0xbc120896	-0.00891318
229	0x3d061ab0	0.032740295
230	0xbb984987	-0.004647437
231	0x3c6e698a	0.01455153
232	0xbbd14d39	-0.0063873795
233	0xbc6e87e8	-0.01455877
234	0x3d1f9592	0.038961
235	0x3cc76639	0.024340736
236	0x3cee62e7	0.029099895
237	0xbd1769a3	-0.036965977
238	0x3c217d54	0.009856541
239	0xbcd813c3	-0.02637661
240	0x3cdba330	0.026811212
241	0xbd19250b	-0.037388843
242	0xbb16ca58	-0.002300879
243	0x3cf0b74d	0.02938428
244	0x3d51b8bf	0.05120158
245	0x3ca8bd2f	0.020598022
246	0x3c57d9b0	0.013174459
247	0x3d17600b	0.036956828
248	0x3a5bb428	0.00083810324
249	0xbc3cf59f	-0.01153317
250	0x3d5c4a85	0.053782005
251	0x3b8d272a	0.0043076472
252	0x3c216fb5	0.009853293
253	0xbb287b83	-0.0025708384
254	0x3cc8bc66	0.024503898
255	0xbb797364	-0.0038063163

action_model._continuous_distribution.mu.bias f4 [2]
0	0x3c26c10d	0.010177863
1	0xbc9c1292	-0.019051824

action_model._discrete_distribution.branches.0.weight f4 [1, 128]
0	0xbb205803	-0.0024466522
1	0xbbcb28bb	-0.006199924
2	0xbb7151d3	-0.0036822453
3	0xbae26033	-0.0017271101
4	0x3b769bb2	0.0037629423
5	0x3c1f3999	0.009718322
6	0xbbd528d7	-0.0065051126
7	0xbbccbff8	-0.0062484704
8	0x3ba85a3b	0.0051377094
9	0xbc8cc25f	-0.017182527
10	0x3cabd894	0.020977296
11	0x3b61611f	0.0034390164
12	0xbbc47967	-0.0059959176
13	0xbc86c7ed	-0.016452754
14	0xbb560f10	-0.0032662787
15	0xbc5c4e13	-0.013446349
16	0x38a0286b	7.636923e-05
17	0x3ad81c42	0.0016487914
18	0xbc1cbe9e	-0.009566931
19	0xbc09485b	-0.008379067
20	0xbc893f8c	-0.016753934
21	0x3b8ce6a0	0.0042999536
22	0xbbd6ac30	-0.006551288
23	0x3a8c5053	0.0010705091
24	0xbc2a5dab	-0.010398309
25	0x3bea4d62	0.007150338
26	0xbc26d7ba	-0.010183269
27	0xbc570a3b	-0.013124998
28	0xbb9916fb	-0.004671929
29	0x3bc886f1	0.006119602
30	0xba8ef9d6	-0.0010908197
31	0x3c6b6590	0.014367476
32	0x3b330da8	0.0027321372
33	0x3c561e3a	0.01306873
34	0xbc3c51be	-0.011494098
35	0x3be08c8b	0.0068526915
36	0x3b0a5763	0.0021109215
37	0x3c4570cd	0.01205082
38	0x3bcda1db	0.006275398
39	0x3b3bdfe7	0.0028667392
40	0xbc650d15	-0.01398017
41	0x3b21b32b	0.0024673443
42	0xbbc4f3f5	-0.0060105273
43	0x3c407e07	0.011748797
44	0xbc303b9f	-0.010756402
45	0xbc3e956f	-0.011632307
46	0xb9c73495	-0.00037995414
47	0xbb98450d	-0.0046469034
48	0x3bfc7725	0.007704633
49	0xbadeacda	-0.001698877
50	0x3cb38117	0.02191214
51	0xbc7b102f	-0.015323683
52	0x3c350b8f	0.011050119
53	0x3c280287	0.010254509
54	0xbcacca87	-0.021092666
55	0xba824f49	-0.0009941842
56	0xbc3ed065	-0.011646365
57	0x3bafb72c	0.005362412
58	0xbad63dda	-0.0016345337
59	0xbc29c07d	-0.010360834
60	0x3b90333f	0.0044006403
61	0xbc6081f2	-0.013702856
62	0x3b5bee9a	0.0033558966
63	0x3bc93c8c	0.006141251
64	0xbb872487	-0.0041242274
65	0xbc7ec438	-0.015549712
66	0x3b4112ae	0.0029460597
67	0x3a0c871c	0.0005360709
68	0xbb8329ef	-0.0040028016
69	0x3cb2406f	0.02175924
70	0xb8e2d317	-0.00010815838
71	0x3a30f85b	0.0006750875
72	0xbb5427aa	-0.0032372274
73	0x3b7b8bfb	0.0038382995
74	0x3c197eaa	0.009368578
75	0x3c182a08	0.009287365
76	0x3baf0ac1	0.005341858
77	0xbb7d0d93	-0.0038612827
78	0x3a690f7b	0.00088905514
79	0xba7fe21a	-0.000976117
80	0x3c8154ff	0.0157876
81	0xbb40d306	-0.0029422655
82	0x38b283d9	8.51226e-05
83	0x3abd2f94	0.0014433735
84	0xbc364a8e	-0.011126174
85	0x3b9655e9	0.004587878
86	0x3b918022	0.0044403234
87	0xbbf36797	-0.0074281204
88	0xbc341bb2	-0.010992931
89	0x3c8ad908	0.016949192
90	0xbc2ac444	-0.01042277
91	0xbb9e5773	-0.004832202
92	0x3c53e025	0.012931858
93	0xbc9fd0a5	-0.01950867
94	0x3b1127f0	0.0022149049
95	0xbad8bba5	-0.0016535415
96	0xbc11466b	-0.008866887
97	0x3cc1505e	0.023597892
98	0x3c164783	0.009172323
99	0x3b9e16f3	0.004824513
100	0xbc881816	-0.016613048
101	0x3c7212e2	0.01477501
102	0x3bf8c2c0	0.0075915754
103	0x3c7e6dfd	0.015529153
104	0xbc4754ad	-0.012166184
105	0x3c86b7ec	0.016445123
106	0xbb922aa5	-0.00446065
107	0xba91e897	-0.0011131939
108	0xbc9bc5b4	-0.01901517
109	0x3c41ccc6	0.011828607
110	0xba188604	-0.000581831
111	0xbc530fb2	-0.01288216
112	0x3a424857	0.0007411292
113	0xbb1aaad1	-0.002360035
114	0x3480acd3	2.3967604e-07
115	0xbb5ab575	-0.0033372317
116	0xb9e092e7	-0.0004283406
117	0xbc48b38b	-0.012249838
118	0x3c166a40	0.009180605
119	0xb902989f	-0.00012454622
120	0xbbe2c4e2	-0.006920443
121	0xbb3e5edc	-0.002904824
122	0x3a1cf8bb	0.00059879915
123	0xbabef733	-0.0014569521
124	0xbbeacef3	-0.0071657836
125	0xbc8ede5c	-0.017440014
126	0x3a5d3e75	0.0008439788
127	0x3a1ee869	0.00060618535

exp_avg f4 [128, 12]
0	0x3a8a5f39	0.0010556943
1	0x3882dbb2	6.2398045e-05
2	0x3a0e6e3a	0.0005433295
3	0x38c19b9f	9.231944e-05
4	0x3882db6e	6.239755e-05
5	0x39a29253	0.00031008068
6	0x3978ef41	0.00023740252
7	0xb9dcc543	-0.0004210864
8	0x39344964	0.00017193478
9	0x3931caee	0.00016955633
10	0x39b17217	0.00033845074
11	0xb972ca22	-0.00023154219
12	0x37a42e1f	1.95718e-05
13	0xb6a065f4	-4.7802405e-06
14	0xb91b8e2c	-0.00014834915
15	0xb7ee7d8c	-2.8430273e-05
16	0xb6a339aa	-4.8644915e-06
17	0x3820428b	3.8208946e-05
18	0xb8c81231	-9.5401316e-05
19	0x3856f292	5.1247487e-05
20	0xb87693b4	-5.878853e-05
21	0xb88c8a5c	-6.701492e-05
22	0xb89b181c	-7.395467e-05
23	0x38bced31	9.008719e-05
24	0x3b5d27ca	0.003374564
25	0xb981b82a	-0.0002474201
26	0x3b70d22e	0.003674637
27	0x3a22d043	0.0006210843
28	0xb98ddc6a	-0.00027057837
29	0x3b9d4e4a	0.0048005925
30	0xba519b90	-0.0007995898
31	0x3b67c56e	0.003536548
32	0xba8eedcb	-0.0010904608
33	0x3a28ba46	0.00064364483
34	0xbac95635	-0.0015360775
35	0xb9916a0a	-0.0002773556
36	0x3b078c00	0.0020682812
37	0x3926a71b	0.00015893245
38	0x3ae29a92	0.0017288497
39	0x3a0a0fae	0.00052666187
40	0x392710ce	0.00015932621
41	0x3a92a414	0.0011187815
42	0x39b26088	0.00034022727
43	0x391d0c51	0.00014977275
44	0x399c8db0	0.00029860204
45	0x38b135e1	8.4500534e-05
46	0x39956a4c	0.00028498692
47	0xb99af442	-0.00029555155
48	0xbafbcdba	-0.0019211092
49	0xb93b4d68	-0.00017862546
50	0xbace0434	-0.0015717805
51	0xba05f04d	-0.0005109355
52	0xb938c054	-0.00017619255
53	0xbabc0730	-0.0014345404
54	0xb970ecfa	-0.00022976464
55	0xb94b5d43	-0.00019394331
56	0xb9a40c21	-0.00031289554
57	0x391f0cc1	0.00015168173
58	0xba316f77	-0.0006768624
59	0x39ac5df1	0.00032876388
60	0xb82cd302	-4.1204512e-05
61	0x36c9941d	6.0075095e-06
62	0x39e9b3a2	0.0004457506
63	0x38daa1de	0.000104252
64	0x36e3691e	6.7773644e-06
65	0x39bf2dc1	0.00036464448
66	0xb794d2c0	-1.7741113e-05
67	0x3999d1de	0.00029338797
68	0xb77cceb6	-1.5068499e-05
69	0x37ad817a	2.06835e-05
70	0xb926cebc	-0.00015908008
71	0xb8c31565	-9.3023096e-05
72	0x3b376c36	0.0027988083
73	0x38a894d9	8.038589e-05
74	0x3b15246c	0.0022757305
75	0x3ad0bfed	0.0015926339
76	0x38277aad	3.9930153e-05
77	0x3b85f8c7	0.0040884945
78	0x3a1eb979	0.0006054859
79	0x3ab85c44	0.0014065583
80	0xb8520a5b	-5.0077546e-05
81	0xbaf6b39f	-0.0018821842
82	0x3aaf3f84	0.001337037
83	0x3ac2f9ec	0.0014875508
84	0x39a4a7bc	0.0003140549
85	0x38dc76a6	0.000105125175
86	0x39cd676e	0.00039177708
87	0xb9b36316	-0.00034215365
88	0x38f8bee8	0.000118611206
89	0xba5afbb8	-0.0008353549
90	0x3917d716	0.00014480608
91	0xba734232	-0.0009279578
92	0x392834bc	0.00016041374
93	0xb83fd0f4	-4.573255e-05
94	0x3a2e2a79	0.0006643902
95	0xb96a2ea1	-0.0002233335
96	0x39e8f596	0.00044433464
97	0x38de4a2a	0.00010599599
98	0xba1cc5f6	-0.0005980426
99	0xb920d5b0	-0.00015338394
100	0x38de4227	0.00010598107
101	0x3a27587b	0.0006383729
102	0xb98bfdbc	-0.00026701193
103	0xb8d41014	-0.000101119425
104	0x391a4382	0.00014711733
105	0xb93361c8	-0.00017107197
106	0xb99ed8c8	-0.00030297623
107	0x3845e701	4.71836e-05
108	0x3a376daf	0.000699724
109	0xb90852e2	-0.00013000847
110	0xba4291fc	-0.0007422266
111	0xb902df88	-0.00012481038
112	0xb91a8d6b	-0.00014739267
113	0x3b4c7c0e	0.0031201872
114	0xba8fa8a8	-0.0010960298
115	0x3ae8f557	0.0017773312
116	0xba08099b	-0.00051894196
117	0x393ae1a2	0.00017822397
118	0xba0e6d5f	-0.00054331677
119	0x367ee700	3.798341e-06
120	0xbafe2dee	-0.001939235
121	0xb91c08b7	-0.00014880566
122	0xbadc498e	-0.0016806589
123	0xba85bf1c	-0.001020405
124	0xb906190a	-0.00012788564
125	0xbafe67e4	-0.0019409624
126	0xb9ddacb6	-0.00042281084
127	0xba12f8b2	-0.00056065165
128	0xb96cc740	-0.0002258094
129	0x3a26e561	0.00063665776
130	0xb9a77cea	-0.0003194579
131	0xba1837fd	-0.0005806683
132	0xba70bbe8	-0.00091832737
133	0xb8eeb2e2	-0.00011382044
134	0xbaacfd37	-0.0013198022
135	0x39261be2	0.00015841381
136	0xb90cf317	-0.00013441998
137	0x3917b930	0.0001446947
138	0xb8fff5f2	-0.000122051584
139	0x3982d14a	0.00024951465
140	0xb98c6ef4	-0.00026785547
141	0xba5bd228	-0.0008385503
142	0x3a0d4e20	0.00053903647
143	0x3a9106a7	0.0011064605
144	0x3b4a4902	0.003086627
145	0x390953d6	0.0001309657
146	0x3b0cca50	0.0021482892
147	0x3a6705f6	0.0008812839
148	0x38fbbb22	0.00012003469
149	0x3b3d4d2f	0.0028885116
150	0x396bfd9f	0.00022505828
151	0x3ab4f125	0.0013804777
152	0x391e0d4b	0.00015073006
153	0xb8756855	-5.850972e-05
154	0xba473434	-0.00075990264
155	0xb8af6adc	-8.3645544e-05
156	0xbae54ce2	-0.0017494226
157	0xb8c967d6	-9.603768e-05
158	0xbab325bc	-0.0013667862
159	0xb9f7fe90	-0.00047301175
160	0xb8c9696f	-9.6040654e-05
161	0xba8be6ae	-0.0010673606
162	0xb958d9bd	-0.00020680479
163	0xb9f1b410	-0.0004610126
164	0xb93507c8	-0.00017264404
165	0xb986fa0b	-0.00025744768
166	0x38ba2998	8.8769186e-05
167	0x38fe61e2	0.00012129896
168	0x3ab9cd3e	0.0014175547
169	0x36d449c4	6.32668e-06
170	0x3a9132ad	0.0011077725
171	0x3a3de9a8	0.00072445953
172	0x342a8ec0	1.5884416e-07
173	0x3ace52d4	0.0015741237
174	0x39cd6f3f	0.00039183532
175	0x3a094c22	0.000523748
176	0xb892e067	-7.003621e-05
177	0xba288d10	-0.00064297114
178	0x3ab4725d	0.0013766993
179	0x397c3d2e	0.00024055384
180	0x3b3c53e9	0.0028736538
181	0x39c71297	0.00037970088
182	0x3aea43b0	0.0017872956
183	0x3a59e6ee	0.0008312304
184	0x39bf1729	0.00036447615
185	0x3b068671	0.002052691
186	0x3a2d470d	0.00066100137
187	0xb90af406	-0.00013251611
188	0x3a531868	0.0008052648
189	0xbaa3ae1d	-0.0012487803
190	0x3a185051	0.0005810308
191	0x3a1886fb	0.00058184535
192	0xba2780a8	-0.00063897157
193	0x39a867e8	0.00032120873
194	0xba8b699f	-0.0010636336
195	0xb950e5a2	-0.0001992197
196	0x39a91229	0.00032247722
197	0xba5551e6	-0.0008137509
198	0x39ca7b9f	0.00038620547
199	0xbb16879d	-0.0022969015
200	0x3a4caeac	0.00078080106
201	0xbaa7eda4	-0.0012811911
202	0x3b346324	0.0027524913
203	0x3910cfb4	0.00013810286
204	0x3a1c3c9e	0.00059599604
205	0x38d397f7	0.0001008957
206	0xba34259c	-0.00068720593
207	0xb98767c2	-0.00025826512
208	0x38d39b78	0.00010090222
209	0x39df7bbd	0.00042626067
210	0xb8fd95c3	-0.000120918754
211	0xb93eba84	-0.00018189294
212	0x3959c0c6	0.00020766546
213	0x3a0099c8	0.00049057277
214	0xb8f08930	-0.00011469645
215	0xb9a5e3b3	-0.00031640902
216	0x3b0dea39	0.00216545
217	0xb7a00410	-1.9075378e-05
218	0x3a891767	0.0010459245
219	0x38341c44	4.294167e-05
220	0xb76db81c	-1.4169167e-05
221	0x3b01e8ad	0.0019822523
222	0xb995bc6b	-0.00028559877
223	0x3a4825da	0.0007635035
224	0xb9595f78	-0.00020730298
225	0x39e31f3f	0.00043320094
226	0xba65245a	-0.00087410735
227	0xb95c7705	-0.00021025173
228	0xbb74e9a0	-0.0037370697
229	0xb91f1f8d	-0.00015175175
230	0xbb21c4a5	-0.002468386
231	0xbaafcff6	-0.0013413418
232	0xb91a4621	-0.0001471271
233	0xbb7453d6	-0.0037281415
234	0xb909c2dc	-0.00013137929
235	0xbabf2faa	-0.0014586349
236	0xb949490a	-0.00019196063
237	0xba718ca3	-0.0009214377
238	0x39d764c1	0.00041083063
239	0x3a9148e5	0.0011084346
240	0x3a069ee9	0.0005135374
241	0x3732cac8	1.06568405e-05
242	0xb9e31bac	-0.0004331743
243	0x3709c000	8.21054e-06
244	0x3769e0d0	1.39402255e-05
245	0xb85f0a80	-5.3177122e-05
246	0xb9b3cdc3	-0.00034294845
247	0x39aaac78	0.00032553426
248	0x382d5a38	4.1330437e-05
249	0x3ab94b0e	0.0014136748
250	0xb964cfb0	-0.00021821144
251	0xba65eb5a	-0.0008770727
252	0xb9b31814	-0.0003415948
253	0xb823ae16	-3.902436e-05
254	0x390fd1b2	0.0001371566
255	0x390ce6f8	0.00013437483

exp_avg_sq f4 [128, 12]
0	0x3905d511	0.00012763242
1	0x34b79f4d	3.4202313e-07
2	0x38ae59b5	8.313676e-05
3	0x3837ed27	4.3851465e-05
4	0x34af7af6	3.2685756e-07
5	0x386f24b4	5.7016223e-05
6	0x36f86bed	7.40354e-06
7	0x3799000f	1.8239049e-05
8	0x35479975	7.4356586e-07
9	0x36acb2c2	5.1468096e-06
10	0x373c1516	1.1210583e-05
11	0x36b2e86f	5.331872e-06
12	0x390db117	0.00013512779
13	0x34d9a65b	4.054044e-07
14	0x3912a4dc	0.0001398506
15	0x3835640e	4.3246946e-05
16	0x34d2237f	3.9141375e-07
17	0x38e8421d	0.000110749366
18	0x378adff1	1.6555163e-05
19	0x3822b488	3.8791943e-05
20	0x3583c855	9.818565e-07
21	0x37159092	8.9147525e-06
22	0x3733e836	1.0723297e-05
23	0x3720caf6	9.583999e-06
24	0x3ab0fe93	0.0013503603
25	0x36a85417	5.0165795e-06
26	0x3ac327ea	0.0014889215
27	0x39b1e272	0.00033928786
28	0x36a60ae0	4.9484515e-06
29	0x3aa57000	0.001262188
30	0x3908d4a0	0.0001304918
31	0x39cac643	0.0003867616
32	0x37161aa3	8.946899e-06
33	0x38c05f26	9.172996e-05
34	0x38ceedc9	9.8671364e-05
35	0x38d6a1c1	0.00010234444
36	0x38679074	5.5209224e-05
37	0x34332e67	1.6687555e-07
38	0x383161cd	4.2291173e-05
39	0x380d32a7	3.3664193e-05
40	0x34288837	1.5695774e-07
41	0x3865d77d	5.4798544e-05
42	0x36489b74	2.9892808e-06
43	0x3777e6c4	1.4776077e-05
44	0x348b8707	2.5989013e-07
45	0x369c3485	4.6552764e-06
46	0x37090d48	8.168929e-06
47	0x36bde758	5.659571e-06
48	0x38ff08cf	0.00012160988
49	0x34ee0213	4.4332464e-07
50	0x38ff83f9	0.00012183929
51	0x3844492d	4.679819e-05
52	0x34e73426	4.3065046e-07
53	0x391d2ddc	0.0001498977
54	0x377a371e	1.4913994e-05
55	0x3849f4d1	4.8150137e-05
56	0x3533e346	6.701342e-07
57	0x3746bfe5	1.1846399e-05
58	0x375be186	1.3105926e-05
59	0x376a80c6	1.3977469e-05
60	0x3954dfd9	0.00020301285
61	0x359bf727	1.1620331e-06
62	0x39f01b45	0.00045796685
63	0x3880c730	6.140617e-05
64	0x359ac842	1.1532177e-06
65	0x39bd811f	0.00036145092
66	0x381038a0	3.438501e-05
67	0x38f32f57	0.00011595961
68	0x3562b498	8.445436e-07
69	0x37bf0d73	2.2775237e-05
70	0x37df6370	2.6629976e-05
71	0x37e62d6b	2.7439286e-05
72	0x39714a3e	0.00023011208
73	0x35422993	7.233113e-07
74	0x3959d772	0.00020774992
75	0x388f01e1	6.819121e-05
76	0x353df9ab	7.07713e-07
77	0x399367e7	0.00028115438
78	0x37facd4e	2.9897925e-05
79	0x38c8e583	9.579493e-05
80	0x35af045f	1.3039788e-06
81	0x37b044f6	2.1012947e-05
82	0x3794519d	1.7680979e-05
83	0x37bd8540	2.2592605e-05
84	0x395cfa22	0.00021074017
85	0x355314fd	7.863417e-07
86	0x396e238f	0.00022710695
87	0x3874a79f	5.8330243e-05
88	0x354e1a28	7.677904e-07
89	0x395e5f3c	0.00021207047
90	0x37a0332a	1.9097311e-05
91	0x388882ea	6.50937e-05
92	0x35af4553	1.3058692e-06
93	0x377e5cb2	1.5161162e-05
94	0x37a76c53	1.9958394e-05
95	0x3791fe88	1.7403872e-05
96	0x391f0fcf	0.00015169311
97	0x34de9f4f	4.1466635e-07
98	0x39015532	0.00012334136
99	0x38c610e3	9.444521e-05
100	0x34db9c0d	4.090547e-07
101	0x38623c13	5.3938547e-05
102	0x371b0376	9.239526e-06
103	0x37ab9e87	2.0458609e-05
104	0x3571b8a8	9.0048206e-07
105	0x36a08354	4.78366e-06
106	0x3729d16a	1.0121943e-05
107	0x36bce110	5.6290373e-06
108	0x399ac843	0.00029522376
109	0x35bdda6b	1.4145165e-06
110	0x39e98361	0.00044539108
111	0x389903d0	7.296319e-05
112	0x35ba672d	1.3888108e-06
113	0x39e70762	0.00044065254
114	0x38207e86	3.8264807e-05
115	0x3912fc23	0.00014017573
116	0x3608f6c0	2.0409207e-06
117	0x381be48c	3.716773e-05
118	0x37ecc395	2.8224467e-05
119	0x380e4540	3.3919932e-05
120	0x38b4c7f1	8.620311e-05
121	0x34776d89	2.3043516e-07
122	0x38ae2b21	8.305e-05
123	0x381a22d3	3.6748894e-05
124	0x3473004f	2.2631251e-07
125	0x381eab75	3.7829817e-05
126	0x36acb00c	5.146494e-06
127	0x372bfbb6	1.0251e-05
128	0x3509bf24	5.1314623e-07
129	0x3654c6bf	3.1706147e-06
130	0x3642d27c	2.903077e-06
131	0x3729471c	1.0089741e-05
132	0x3948897c	0.00019124703
133	0x354c91f3	7.6208306e-07
134	0x397989e5	0.0002379786
135	0x3866a817	5.499282e-05
136	0x3547da19	7.445065e-07
137	0x397e53a4	0.00024254486
138	0x37bb56b0	2.2332504e-05
139	0x38a9b955	8.093069e-05
140	0x35817fbd	9.648426e-07
141	0x37a0ecc3	1.9183737e-05
142	0x379ca72c	1.8674495e-05
143	0x37ada09c	2.0697997e-05
144	0x39846814	0.00025254546
145	0x35bba149	1.3979526e-06
146	0x39e62f78	0.00043904386
147	0x38873d23	6.448689e-05
148	0x35b67cae	1.3596343e-06
149	0x39d71a34	0.00041027518
150	0x380a9b25	3.3046254e-05
151	0x39046d75	0.00012629277
152	0x35c69be8	1.4797524e-06
153	0x380fd637	3.429336e-05
154	0x380baba5	3.330004e-05
155	0x38101b29	3.435757e-05
156	0x38e3b323	0.0001085757
157	0x353bc1e4	6.9945077e-07
158	0x398e0dbf	0.00027094592
159	0x383767f4	4.3727414e-05
160	0x35396ee2	6.9079226e-07
161	0x394b8b97	0.0001941159
162	0x36f4a4c8	7.2909497e-06
163	0x385a32fa	5.2022726e-05
164	0x3516d182	5.618423e-07
165	0x37556e4b	1.2721469e-05
166	0x37b9ce97	2.214992e-05
167	0x37afde44	2.0965126e-05
168	0x38c97cc4	9.607666e-05
169	0x34b1f55b	3.314734e-07
170	0x38856b93	6.3619715e-05
171	0x381840a8	3.629984e-05
172	0x34acf74f	3.2217437e-07
173	0x38c30ad6	9.300343e-05
174	0x36e548ae	6.833193e-06
175	0x37c815a1	2.385193e-05
176	0x3531bb7c	6.6210464e-07
177	0x370aed32	8.280667e-06
178	0x370f6cbf	8.548784e-06
179	0x373a7275	1.1113113e-05
180	0x396aec4d	0.00022404008
181	0x354c2c31	7.606023e-07
182	0x39639d5b	0.00021707026
183	0x3884907b	6.321162e-05
184	0x3548f68c	7.486458e-07
185	0x38d1c1c5	0.00010001989
186	0x3771da35	1.4415525e-05
187	0x37cd29e7	2.4457417e-05
188	0x360f4cae	2.1353294e-06
189	0x372b8434	1.0223175e-05
190	0x37460219	1.1802208e-05
191	0x37670e96	1.3772069e-05
192	0x39f81563	0.0004731818
193	0x35fdd97b	1.8913264e-06
194	0x39e368f2	0.00043375004
195	0x394a8b0d	0.00019316022
196	0x35f9fa34	1.8624764e-06
197	0x39cd8ff2	0.00039207895
198	0x37f8022b	2.9564913e-05
199	0x38d6a237	0.0001023453
200	0x36856f33	3.976654e-06
201	0x380e52fe	3.393273e-05
202	0x38306470	4.205521e-05
203	0x383b37e9	4.4636345e-05
204	0x3995e691	0.0002859128
205	0x3576f13c	9.1993184e-07
206	0x39906df2	0.00027547736
207	0x3882ec90	6.242946e-05
208	0x3576ab8c	9.1891775e-07
209	0x386ef024	5.696727e-05
210	0x379679c3	1.7938093e-05
211	0x37a60c80	1.9794563e-05
212	0x361ed5b5	2.3668229e-06
213	0x36f85459	7.4007953e-06
214	0x370cc283	8.389939e-06
215	0x3702384e	7.761713e-06
216	0x39ddeefa	0.00042330456
217	0x36074093	2.0154155e-06
218	0x3a21b1f6	0.0006168181
219	0x3950d953	0.00019917385
220	0x3602b403	1.947629e-06
221	0x3a52d2ec	0.0008042294
222	0x38843b98	6.305351e-05
223	0x39877329	0.00025835008
224	0x36263438	2.4766323e-06
225	0x3890e0c6	6.9083224e-05
226	0x387eb3d2	6.072579e-05
227	0x38962fac	7.161437e-05
228	0x39a50da4	0.00031481415
229	0x359c017b	1.1623337e-06
230	0x399fc866	0.00030476152
231	0x38ec790c	0.00011275904
232	0x359af107	1.1544042e-06
233	0x390c69d0	0.00013390859
234	0x37904e4d	1.72026e-05
235	0x38353542	4.3203363e-05
236	0x36194cf7	2.2843576e-06
237	0x379a6d0f	1.8409015e-05
238	0x378f622a	1.709264e-05
239	0x376a1c38	1.3954057e-05
240	0x39b91c8f	0.00035307228
241	0x359dc0cb	1.1753522e-06
242	0x3993621c	0.00028111122
243	0x38c4ed24	9.390179e-05
244	0x359c6396	1.1651889e-06
245	0x38e3a27c	0.000108544686
246	0x37893e7f	1.6360775e-05
247	0x381a2269	3.6748508e-05
248	0x36250e76	2.4595333e-06
249	0x378da571	1.688555e-05
250	0x3765493a	1.3666513e-05
251	0x37546c27	1.2661366e-05
252	0x38e96ad3	0.00011130203
253	0x349e7c50	2.9520243e-07
254	0x39061891	0.00012788388
255	0x3861ac51	5.3804662e-05

exp_avg f4 [128]
0	0x3902dbb2	0.00012479609
1	0xb72065f4	-9.560481e-06
2	0xba01b82a	-0.0004948402
3	0x39a6a71b	0.0003178649
4	0xb9bb4d68	-0.00035725092
5	0x3749941d	1.2015019e-05
6	0x392894d9	0.00016077179
7	0x395c76a6	0.00021025035
8	0x395e4a2a	0.00021199198
9	0xb98852e2	-0.00026001694
10	0xb99c08b7	-0.00029761132
11	0xb96eb2e2	-0.00022764088
12	0x398953d6	0.0002619314
13	0xb94967d6	-0.00019207536
14	0x375449c4	1.265336e-05
15	0x3a471297	0.00075940177
16	0x3a2867e8	0.00064241746
17	0x395397f7	0.0002017914
18	0xb8200410	-3.8150756e-05
19	0xb99f1f8d	-0.0003035035
20	0x37b2cac8	2.1313681e-05
21	0xb8a3ae16	-7.804872e-05
22	0x3a3e78f7	0.000726595
23	0x3a135ac4	0.000562113
24	0x3a92c524	0.0011197669
25	0xb8427320	-4.6360423e-05
26	0xb8d1f4ac	-0.0001001147
27	0x3a3da23c	0.00072339526
28	0xb9d76a75	-0.00041087312
29	0x38d5d99d	0.00010197165
30	0x3a2af24d	0.0006521091
31	0xb90df9bf	-0.00013539846
32	0xb985bceb	-0.00025508492
33	0xb86575b8	-5.470749e-05
34	0x38e8365e	0.00011072749
35	0x392b1ab6	0.00016317781
36	0x38d316b8	0.00010065496
37	0xb8c19f88	-9.232672e-05
38	0x385664d6	5.1115487e-05
39	0x397ee73d	0.0002430947
40	0x384e0ec5	4.9127982e-05
41	0x39988111	0.0002908786
42	0x39666593	0.00021972349
43	0xb9b8bce4	-0.0003523595
44	0x39cb40e9	0.0003876754
45	0xb95b841c	-0.00020934682
46	0x384b7140	4.8504444e-05
47	0xb9865434	-0.00025621208
48	0x39bf4903	0.00036484757
49	0x396cdcf5	0.00022589027
50	0x39908fab	0.0002757286
51	0x39783860	0.00023672124
52	0x39844f25	0.0002523597
53	0x39e76207	0.0004413279
54	0x389510d8	7.108011e-05
55	0xb7cdaa52	-2.4517216e-05
56	0x38cd2480	9.7819604e-05
57	0x35b8bd80	1.376422e-06
58	0xb85219a5	-5.0091785e-05
59	0x391c7b4a	0.00014923248
60	0xb73e4e0a	-1.1343052e-05
61	0x38c219c8	9.255443e-05
62	0xb7afa650	-2.0939071e-05
63	0x3736181c	1.0853659e-05
64	0xb8c2d566	-9.2903894e-05
65	0x3891f8b2	6.960462e-05
66	0x37af8c40	2.0926935e-05
67	0x390fd682	0.00013717453
68	0xb8c3fdb8	-9.3455834e-05
69	0x3993e88e	0.00028211292
70	0x3943b860	0.00018665334
71	0x382d5c36	4.1332292e-05
72	0x39bd56b5	0.0003611349
73	0xb9c805de	-0.00038151344
74	0x39aa3477	0.00032464016
75	0x3926789c	0.00015875924
76	0xb9f26f8f	-0.00046240955
77	0x39c4e9c0	0.0003755819
78	0x3920f562	0.00015350201
79	0xb80aec85	-3.312204e-05
80	0x39679f38	0.0002208919
81	0xb8e274fd	-0.000107983105
82	0x37c495a8	2.343471e-05
83	0x38dbc287	0.00010478967
84	0x377ebd74	1.518369e-05
85	0xb75400d6	-1.2636379e-05
86	0x392da404	0.00016559666
87	0x3830718e	4.2067426e-05
88	0x38df1972	0.00010638208
89	0xba04c604	-0.0005064907
90	0x3a73aa24	0.0009295067
91	0xba1e568a	-0.0006040117
92	0xb9f6f43e	-0.0004710275
93	0x39791d70	0.00023757457
94	0x3a0c015a	0.00053407776
95	0xb704c1c2	-7.912926e-06
96	0xb8a70af0	-7.965218e-05
97	0xb9e8540f	-0.00044313117
98	0xb7261a80	-9.900541e-06
99	0x3914c6b9	0.0001418841
100	0xb859b943	-5.190937e-05
101	0x39483720	0.00019094022
102	0xb9777bca	-0.0002360187
103	0x38ed7bac	0.00011324076
104	0x38248f22	3.923395e-05
105	0x39129a83	0.00013981205
106	0xb9b526f9	-0.00034552047
107	0xba18337f	-0.00058060134
108	0xb95403e3	-0.00020219343
109	0xb8782ea8	-5.917126e-05
110	0xba33e35c	-0.00068621873
111	0x38e69356	0.00010994698
112	0xb712a3a4	-8.740379e-06
113	0x38aad6d4	8.1462465e-05
114	0x398d030e	0.00026895892
115	0xb76a8d98	-1.3980454e-05
116	0xb9025dae	-0.00012432665
117	0xb8d22121	-0.00010019751
118	0x39b3d212	0.00034298055
119	0x389e7d77	7.557397e-05
120	0xb9e65793	-0.00043934266
121	0xb99a7695	-0.0002946152
122	0x396b8558	0.00022461021
123	0xb90bd184	-0.00013334124
124	0x393388bc	0.00017121708
125	0x39821e10	0.0002481793
126	0xb90d439c	-0.00013471994
127	0x386de84b	5.6721543e-05
