ML Agents tutorial/Assets/results/RollerBall2/RollerBall/RollerBall-2005028.pt (torch, 459081 bytes, 39 tensors)

network_body._body_endoder.seq_layers.0.weight f4 [128, 12]
0.18351784 0.18873143 0.12913437 0.23148008 0.022186402 -0.095060505 -0.22705609 -0.1826759
-0.26641536 -0.009539434 0.511739 0.12084332 -0.07247916 -0.18718667 0.299232 3.2930486e-05
-0.24457265 -0.2365783 -0.12404263 0.20781831 -0.044431716 -0.22438613 0.14757545 0.3430153
0.34205467 0.18164444 0.19527291 0.23086233 0.010240972 -0.22975643 -0.16495371 0.19955625
-0.19339277 -0.084730126 0.2213533 0.28069445 0.34922907 -0.5582359 0.14398797 0.14185727
-0.032851186 -0.353014 0.010233397 -0.16625677 -0.015744096 -0.21238858 -0.2729654 -0.29247755
0.15339248 -0.1145438 -0.34733343 0.076982155 0.0068438924 0.068757154 -0.28599736 0.5108307
-0.33533713 -0.009143076 -0.19481656 -1.3087219 -0.2280479 0.22410963 0.028558284 -0.016566757
-0.111051604 -0.09040524 0.35854682 -0.3711833 0.021786561 0.002141961 0.08537309 0.60172796
-0.033568334 -0.04394421 -0.079636104 -0.43252006 0.14592919 0.15374564 0.0819086 0.08172753
-0.90920967 -0.012308938 -0.72912276 0.042931013 -0.0181897 -0.10649421 -0.06610208 -0.39019373
-0.37140256 0.13780366 0.011828592 0.30687436 0.007151308 0.068574674 0.28145573 -0.06979763
-0.37132403 -0.18032198 -0.117756255 0.534055 -0.4021118 -0.48268032 0.170896 -0.23144901
-0.06907684 -0.19300456 -0.522971 -0.8966616 0.34944427 0.34889165 0.067671105 0.21289334
0.043603282 -0.4452193 0.07159233 0.06805679 -0.059248175 -0.09807522 0.5821643 0.64558697
0.08562815 -0.43524107 0.30436575 -0.019439094 0.21394283 -0.086072154 -0.012998387 0.08963533
-0.25149372 0.106099844 0.15937574 0.47268888 -0.043688618 -0.44372904 -0.102713354 0.0785524
0.03821331 0.294372 -0.68499166 0.25883988 -0.3439827 0.24763775 -0.5482535 -0.4278035
-0.61829185 -0.33366314 -0.18050863 0.3787694 0.12038469 0.32757407 0.5838814 -0.48014814
-0.05471765 -0.017145328 0.055630926 -0.06767009 0.06427194 -0.5288129 -0.50677025 -0.58622974
-0.41127914 -0.07056637 -0.2753566 -0.10443388 0.24224545 0.0070916247 -0.40693521 0.1321312
-0.31819874 -0.47051328 0.048284512 -0.091134295 -0.35452485 0.09581416 0.035843093 0.5973179
0.0053845323 0.33354366 0.19784492 -0.6528255 0.24122268 -0.47021663 0.09037493 -0.22734629
-0.28539938 -0.24767755 -0.057373255 -0.26792005 -0.14757736 -0.27896887 -0.08018333 0.71362555
0.41711727 -0.07584804 -0.37625426 -0.032497145 0.11854078 -0.3695523 0.48526338 0.047805462
-0.6130907 -0.113709256 0.12627292 -0.0023405275 -0.017189752 0.30496606 -0.3958356 0.50022435
-0.1482374 -0.083782844 0.4692995 -1.0230466 0.8985808 -0.50024587 -0.44525933 -0.17834784
0.008270124 0.10215943 -0.030351387 -0.56614745 -0.44383872 0.46091276 0.13119285 0.20680381
-0.10162877 0.25940683 -0.6607534 -0.30473912 0.13913612 -0.19530149 -0.0027466419 0.022423962
-0.75598764 0.008834616 -0.3921842 0.36333948 -0.22634271 -0.18731174 -0.48024583 0.3874686
-0.34628752 -0.36921057 0.031409826 -0.031855315 0.369159 0.013235881 0.50624555 0.3069948
-0.6639641 0.2554835 -0.28557378 -0.80445653 0.5798998 -0.20845397 -0.008927069 -0.11124231
00000000: 1aec 3b3e d042 413e cd3b 043e 1d09 6d3e
00000010: 42c0 b53c 15af c2bd 6481 68be 640f 3bbe
00000020: 9867 88be 494b 1cbc 5401 033f b47c f73d
00000030: f46f 94bd ddad 3fbe f034 993e d71e 0a38
00000040: 4171 7abe 9541 72be 100a febd 53ce 543e
00000050: 08fe 35bd 7ac5 65be 051e 173e b49f af3e
00000060: ca21 af3e 0001 3a3e 9ff5 473e 2d67 6c3e
00000070: c0c9 273c 4545 6bbe a0e9 28be 7958 4c3e
00000080: c108 46be fd86 adbd 71aa 623e 2fb7 8f3e
00000090: 27ce b23e 8ce8 0ebf 9571 133e 0843 113e
000000a0: f78e 06bd 40be b4be faa9 273c 373f 2abe
000000b0: c3f9 80bc 647c 59be 1fc2 8bbe 9ebf 95be
000000c0: eb12 1d3e f195 eabd b0d5 b1be d2a8 9d3d
000000d0: bb42 e03b 8dd0 8c3d 3f6e 92be cdc5 023f
000000e0: 4fb1 abbe d7cc 15bc fe7d 47be 3384 a7bf
000000f0: 6485 69be ff7c 653e 10f3 e93c 02b7 87bc
00000100: 066f e3bd 6226 b9bd 7393 b73e bd0b bebe
00000110: bb79 b23c 2460 0c3b 16d8 ae3d d80a 1a3f
00000120: f37e 09bd d8fe 33bd 4118 a3bd 4573 ddbe
00000130: 766e 153e 7f6f 1d3e b2bf a73d c360 a73d
00000140: f7c1 68bf 6eab 49bc caa7 3abf 6ed8 2f3d
00000150: 9102 95bc a319 dabd 8760 87bd 79c7 c7be
00000160: 7a28 bebe 671c 0d3e b6cc 413c a31e 9d3e
00000170: 8555 ea3b e170 8c3d f71a 903e 0ff2 8ebd
00000180: 2f1e bebe 53a6 38be 312a f1bd d4b7 083f
00000190: 99e1 cdbe e021 f7be 5cff 2e3e f800 6dbe
000001a0: 2978 8dbd fda2 45be 6de1 05bf 9d8b 65bf
000001b0: 5cea b23e eda1 b23e 2697 8a3d b600 5a3e
000001c0: 5b99 323d c9f3 e3be 009f 923d 5c61 8b3d
000001d0: 37ae 72bd a9db c8bd b808 153f 3045 253f
000001e0: d05d af3d ebd7 debe d4d5 9b3e bc3e 9fbc
000001f0: d413 5b3e 9946 b0bd 30f7 54bc ba92 b73d
00000200: c9c3 80be e04a d93d 6533 233e 4704 f23e
00000210: d6f2 32bd 7430 e3be 615b d2bd 15e0 a03d
00000220: 8f85 1c3d edb7 963e 9d5b 2fbf a986 843e
00000230: 801e b0be c094 7d3e 575a 0cbf 0f09 dbbe
00000240: 6048 1ebf e5d5 aabe 41d7 38be 10ee c13e
00000250: 408c f63d cab7 a73e 4079 153f fad5 f5be
00000260: 9d1f 60bd 5c74 8cbc 41dd 633d 9e96 8abd
00000270: 02a1 833d 4860 07bf b2bb 01bf 2713 16bf
00000280: 2e93 d2be 1a85 90bd 8afb 8cbe 6ee1 d5bd
00000290: 310f 783e dc60 e83b d059 d0be 674d 073e
000002a0: f2ea a2be 1ee7 f0be fbc5 453d 9ea4 babd
000002b0: 4884 b5be 373a c43d 35d0 123d d3e9 183f
000002c0: bb70 b03b 3cc6 aa3e dc97 4a3e 921f 27bf
000002d0: 1403 773e 3cc0 f0be 7e16 b93d 77cd 68be
000002e0: de1f 92be 2f9f 7dbe 3800 6bbd d12c 89be
000002f0: 851e 17be 02d5 8ebe 2837 a4bd 2ab0 363f
00000300: 6590 d53e 3856 9bbd 66a4 c0be ba1b 05bd
00000310: 82c5 f23d f635 bdbe 7174 f83e a9cf 433d
00000320: 83f3 1cbf 66e0 e8bd b04d 013e 8963 19bb
00000330: 86d1 8cbc 8324 9c3e f7aa cabe b40e 003f
00000340: 8ccb 17be 5796 abbd 0648 f03e 31f3 82bf
00000350: 6409 663f 1d10 00bf 08f9 e3be d1a0 36be
00000360: 6a7f 073c f738 d13d 79a3 f8bc 0aef 10bf
00000370: d43e e3be c2fc eb3e 6b57 063e 61c4 533e
00000380: bf22 d0bd f9d0 843e 2327 29bf c406 9cbe
00000390: b379 0e3e 1dfd 47be 0101 34bb 75b2 b73c
000003a0: 6888 41bf 11bf 103c 5ecc c8be a207 ba3e
000003b0: 62c6 67be a6ce 3fbe c8e2 f5be 4962 c63e
000003c0: 994c b1be 2b09 bdbe 97a7 003d b87a 02bd
000003d0: 6902 bd3e 4fdb 583c 4f99 013f 6c2e 9d3e
000003e0: 8df9 29bf bcce 823e ba36 92be ddf0 4dbf
000003f0: 5074 143f f574 55be d742 12bc 02d3 e3bd

network_body._body_endoder.seq_layers.0.bias f4 [128]
0.035398554 -0.053253565 -0.0019178601 -0.16870369 -0.033452004 0.011635609 0.14240347 -0.22838944
0.10303119 -0.08985762 -0.1517709 -0.15066263 -0.2071249 -0.16907027 -0.15767899 -0.08500305
0.02610112 0.1568258 -0.008004555 -0.12104291 -0.056744963 -0.1751301 0.014515021 -0.31135315
-0.19207086 -0.098042786 -0.14436054 0.08589314 0.14574039 -0.23387332 -0.19354378 -0.26112792
0.057213664 0.08986127 -0.17703739 -0.041038353 -0.05036067 -0.15173598 0.044656035 -0.12311757
0.107002266 0.064870864 0.059192248 -0.12717125 -0.08473783 -0.17084342 0.029722804 -0.0063055903
0.0018549081 -0.011182455 -0.057793997 0.018226117 -0.15931092 -0.13783446 -0.13864009 -0.0066847666
0.12263318 0.19886371 -0.08780437 -0.15795495 0.0882192 -0.13965246 -0.08892978 0.12734021
-0.12479494 -0.093908936 -0.15017028 -0.24599268 -0.22928956 -0.074380174 0.009682314 -0.13486463
-0.10169052 -0.0056067114 0.005467396 -0.21717237 0.03797253 -0.0013134629 -0.24280277 -0.14001696
-0.10900739 -0.01593072 -0.16967578 -0.10430727 -0.11109185 0.07274707 -0.22353242 -0.050060194
-0.20346533 0.16281083 0.04629351 -0.11517906 0.025141668 -0.111997515 -0.1875962 -0.2045986
-0.20719817 -0.07378411 -0.058282223 0.13819051 -0.0033412161 -0.037448213 -0.13198899 -0.06767581
-0.12223162 0.0084470445 0.077176735 0.15299754 -0.093168996 0.12938815 0.040898006 0.120558634
-0.027607454 -0.032281086 -0.06402446 0.20990063 0.123233095 -0.039989207 0.024512392 -0.2808497
-0.09687647 -0.16455555 -0.34675425 -0.17714675 -0.0283082 -0.041013073 -0.059517883 0.019121833
00000000: 13fe 103d 6920 5abd b560 fbba a9c0 2cbe
00000010: f804 09bd 48a3 3e3c 37d2 113e ecde 69be
00000020: 0402 d33d 4607 b8bd d569 1bbe 4e47 1abe
00000030: 8d18 54be c220 2dbe 9a76 21be 1416 aebd
00000040: 04d2 d53c f196 203e 8925 03bc 58e5 f7bd
00000050: 686d 68bd 4e55 33be 69d0 6d3c ae69 9fbe
00000060: 39ae 44be a8ca c8bd 40d3 13be bee8 af3d
00000070: f83c 153e 7d7c 6fbe 5730 46be 8fb2 85be
00000080: e058 6a3d 2f09 b83d 4a49 35be d517 28bd
00000090: fd46 4ebd ad60 1bbe 3fe9 363d 1125 fcbd
000000a0: 0124 db3d 04db 843d 9273 723d 2e39 02be
000000b0: 078b adbd 94f1 2ebe 3d7d f33c 209f cebb
000000c0: 6320 f33a 9e36 37bc 66b9 6cbd f04e 953c
000000d0: 6722 23be 7a24 0dbe abf7 0dbe e30b dbbb
000000e0: 1b27 fb3d eea2 4b3e c7d2 b3bd f1be 21be
000000f0: 45ac b43d 0e01 0fbe d120 b6bd 7965 023e
00000100: 7d94 ffbd 5453 c0bd 3dc6 19be 81e5 7bbe
00000110: e2ca 6abe a254 98bd 91a2 1e3c f419 0abe
00000120: 1f43 d0bd 81b8 b7bb d827 b33b 6f62 5ebe
00000130: 1589 1b3d 8028 acba 4aa1 78be 9b60 0fbe
00000140: 443f dfbd 2481 82bc 7dbf 2dbe 0d9f d5bd
00000150: 2084 e3bd 6afc 943d afe5 64be eb0b 4dbd
00000160: 3759 50be e2b7 263e 439e 3d3d 00e3 ebbd
00000170: e6f5 cd3c f45e e5bd 3819 40be 4c82 51be
00000180: c22b 54be 201c 97bd 57b9 6ebd d081 0d3e
00000190: 4ef8 5abb 4c63 19bd 1f28 07be 9d99 8abd
000001a0: 9254 fabd 7965 0a3c d60e 9e3d 63ab 1c3e
000001b0: 63cf bebd 547e 043e ab84 273d 72e7 f63d
000001c0: 0729 e2bc 2c39 04bd 421f 83bd 31f0 563e
000001d0: a261 fc3d b9cb 23bd 36ce c83c 88cb 8fbe
000001e0: 2c67 c6bd 4081 28be c689 b1be f565 35be
000001f0: 99e6 e7bc 53fd 27bd 06c9 73bd 64a5 9c3c

network_body._body_endoder.seq_layers.2.weight f4 [128, 128]
-0.25908223 0.28760132 -0.15079401 0.029234 -0.4536915 0.039916977 -0.09734095 0.02566499
-0.42954147 -0.09595918 0.030876538 0.01984765 0.099609576 -0.22142844 -0.07218034 -0.121225655
0.027248418 -0.010423654 0.09881045 -0.149531 0.10189912 0.05030278 0.206982 0.1536323
-0.059240602 0.0005007452 -0.21914412 0.06893798 -0.24827065 -0.1011181 -0.32078066 -0.08208761
0.14483723 -0.12585098 0.08202067 -0.18787126 -0.049432077 -0.036852203 -0.14369553 0.06033911
-0.1665749 -0.047891628 -0.029000448 -0.16083744 -0.07761128 -0.18270646 0.19834386 -0.027314581
-0.28249553 -0.15746199 0.16252711 0.037234228 0.006250552 0.03436442 0.057048608 -0.18151443
-0.19623968 0.23097852 -0.17683458 -0.055161458 -0.08436407 0.3939609 0.075943306 -0.22177207
-0.15369424 -0.045657367 0.035170667 0.015483859 -0.29004622 -0.15787977 -0.03181117 0.15495844
-0.1761041 0.12925784 -0.23585449 -0.0075863726 -0.067231886 -0.06930561 -0.101897866 0.052909683
-0.002044963 0.021140575 0.14440776 -0.3245124 -0.27372253 -0.1948211 -0.12153897 -0.12152049
-0.18273342 -0.013740829 -0.4064068 -0.20786141 -0.1391921 -0.026887024 -0.021560317 0.019948622
-0.091756664 0.06051197 -0.037900385 0.0595583 -0.142831 -0.11898714 0.07046021 0.019905547
-0.020931982 0.023219204 -0.5254587 0.1454854 0.15088847 0.16541605 -0.16053991 -0.010166664
0.024240019 -0.2289751 -0.20234811 -0.018867237 -0.07981661 0.21395032 -0.14908275 0.030878322
-0.020841552 -0.23462734 0.068569325 -0.22413234 -0.024214402 -0.22896689 0.082643256 -0.15046483
-0.2324315 -0.16272826 -0.1639513 0.06741335 -0.19935237 -0.013383228 -0.24171951 -0.08864436
-0.11951009 -0.3928978 0.039719142 0.065013215 0.114580765 0.18768536 0.09264916 -0.15693028
-0.089015245 -0.19578855 0.07937162 0.082880445 -0.21972527 0.03967087 -0.45914933 0.012603911
-0.17736934 0.0064522363 0.05089312 -0.10445675 0.10527464 -0.20518318 -0.12997411 -0.045856
-0.08623106 -0.18392862 -0.13342495 -0.07654654 -0.101698875 -0.3297169 -0.21825121 -0.065388285
-0.038947746 -0.064037435 -0.23720387 0.05669244 -0.17009975 0.08264279 -0.22785719 0.046624593
-0.12166778 -0.18610619 0.20167172 -0.0065768883 0.05997551 -0.12085649 0.16271426 -0.287066
-0.07582144 0.064239405 -0.22556719 -0.22109306 -0.12730522 -0.19398074 -0.058804363 0.17290156
-0.07728269 -0.14101063 0.17026897 0.068308316 -0.16396621 -0.061900284 0.00097428483 -0.0045242044
0.131286 0.045860328 -0.060866192 -0.060967855 0.21615204 -0.012622802 0.14811881 -0.07125392
-0.18777291 0.120549 -0.03196954 -0.20825924 -0.02240593 -0.021804163 -0.034521975 0.15033543
-0.1604037 -0.32601723 -0.17202 0.027321437 -0.05162321 0.027434275 -0.1397268 -0.15387926
-0.3097429 -0.21777676 0.079979695 -0.3492455 -0.4380146 -0.031013317 -0.078466356 -0.15803808
0.23235795 -0.09878169 -0.119875245 -0.23113662 0.01509299 -0.31708035 -0.1330492 -0.28939006
0.21719319 -0.014873794 0.12782489 -0.00245515 -0.099764146 0.08506986 -0.20017354 0.012170241
0.116133936 0.13032633 -0.45875508 -0.07053874 -0.06690033 -0.15334627 -0.2338693 -0.03476098
00000000: 6da6 84be 7b40 933e bf69 1abe 247c ef3c
00000010: 414a e8be fc7f 233d b15a c7bd 633f d23c
00000020: dcec dbbe 3f86 c4bd cbf0 fc3c 8a97 a23c
00000030: 1b00 cc3d 23be 62be 49d3 93bd 2845 f8bd
00000040: 1338 df3c f9c7 2abc 225d ca3d a81e 19be
00000050: 7cb0 d03d 4a0a 4e3d 17f3 533e c951 1d3e
00000060: 46a6 72bd 7144 033a 5167 60be 5b2f 8d3d
00000070: a93a 7ebe 0217 cfbd 5d3d a4be 8d1d a8bd
00000080: 3650 143e 14df 00be 74fa a73d 5361 40be
00000090: 4a79 4abd 56f2 16bd ec24 13be 2526 773d
000000a0: 9c92 2abe 032a 44bd 5992 edbc 92b2 24be
000000b0: aaf2 9ebd 6717 3bbe a71a 4b3e d4c2 dfbc
000000c0: 41a3 90be b73d 21be 826d 263e eb82 183d
000000d0: 6ed1 cc3b b5c1 0c3d cdab 693d ebde 39be
000000e0: 0ef3 48be a285 6c3e 2014 35be fbf0 61bd
000000f0: 12c7 acbd 3eb5 c93e 2a88 9b3d 3818 63be
00000100: 0662 1dbe 3803 3bbd 1e0f 103d 03b0 7d3c
00000110: f080 94be 3cab 21be 6e4c 02bd 6dad 1e3e
00000120: a254 34be 2b5c 043e d783 71be 1b97 f8bb
00000130: dfb0 89bd 1af0 8dbd d4af d0bd d3b7 583d
00000140: c904 06bb 002f ad3c a1df 133e 7d26 a6be
00000150: 5c25 8cbe 2f7f 47be 6ce9 f8bd bcdf f8bd
00000160: 781e 3bbe 3721 61bc 8d14 d0be 9fd9 54be
00000170: 6088 0ebe 2d42 dcbc 439f b0bc 4b6b a33c
00000180: ebea bbbd 66db 773d 6f3d 1bbd 67f3 733d
00000190: 4a42 12be 88af f3bd 714d 903d f510 a33c
000001a0: 8c79 abbc 3336 be3c 7684 06bf 20fa 143e
000001b0: 8282 1a3e d362 293e 9364 24be 1492 26bc
000001c0: 0193 c63c 7378 6abe 5834 4fbe 778f 9abc
000001d0: e476 a3bd cb15 5b3e 26a9 18be 89f4 fc3c
000001e0: e7bb aabc 2642 70be 136e 8c3d f382 65be
000001f0: 485d c6bc 4c76 6abe de40 a93d 7413 1abe
00000200: 8602 6ebe 3da2 26be d9e2 27be 0310 8a3d
00000210: 0723 4cbe 5445 5bbc 5285 77be 2d8b b5bd
00000220: b5c1 f4bd e729 c9be 8ab0 223d a625 853d
00000230: 52a9 ea3d 9730 403e d8be bd3d 55b2 20be
00000240: a04d b6bd cb7c 48be 978d a23d 39bd a93d
00000250: a9ff 60be ec7d 223d 9f15 ebbe a280 4e3c
00000260: 4fa0 35be 486d d33b 4e75 503d 6ced d5bd
00000270: 3b9a d73d 8a1b 52be ef17 05be 80d3 3bbd
00000280: e999 b0bd c957 3cbe 8da0 08be 6fc4 9cbd
00000290: 8047 d0bd a7d0 a8be 3f7d 5fbe 4bea 85bd
000002a0: ac87 1fbd 0f26 83bd 92e5 72be 5536 683d
000002b0: a12e 2ebe a040 a93d 6553 69be 6ef9 3e3d
000002c0: f52c f9bd 9f92 3ebe 0883 4e3e f082 d7bb
000002d0: e1a8 753d 9c83 f7bd 919e 263e 51fa 92be
000002e0: 4548 9bbd f38f 833d 16fb 66be 3866 62be
000002f0: 4d5c 02be e3a2 46be d8dc 70bd 1b0d 313e
00000300: 6346 9ebd 1765 10be fd5a 2e3e 3be5 8b3d
00000310: c2e6 27be 278b 7dbd 2667 7f3a c73f 94bb
00000320: d66f 063e 0ad8 3b3d d44e 79bd 6eb9 79bd
00000330: f656 5d3e decf 4ebc 75ac 173e 93ed 91bd
00000340: 8b47 40be 65e2 f63d 7ef2 02bd e941 55be
00000350: a48c b7bc a59e b2bc ea66 0dbd 88f1 193e
00000360: de40 24be bbeb a6be 0326 30be 35d1 df3c
00000370: dc72 53bd d8bd e03c 8b14 0fbe 8692 1dbe
00000380: 9f96 9ebe df00 5fbe 65cc a33d 4ed0 b2be
00000390: 7343 e0be a40f febc f8b2 a0bd bcd4 21be
000003a0: 3eef 6d3e 0e4e cabd 2781 f5bd 14af 6cbe
000003b0: 9748 773c 5b58 a2be 0d3e 08be ef2a 94be
000003c0: e467 5e3e 37b1 73bc 87e4 023e 95e6 20bb
000003d0: 2551 ccbd 1b39 ae3d 4bfa 4cbe b165 473c
000003e0: a1d7 ed3d 4474 053e f2e1 eabe 9d76 90bd
000003f0: 0a03 89bd ce06 1dbe 6f7b 6fbe 8861 0ebd

network_body._body_endoder.seq_layers.2.bias f4 [128]
-0.038692895 -0.06301038 -0.07687628 -0.031969856 0.022361644 -0.10230314 -0.19120926 -0.07882733
-0.14209951 -0.11519763 -0.04788107 0.0022751614 -0.033135463 -0.09489196 -0.041144326 -0.14236674
-0.07200508 -0.14771895 -0.01055345 0.06047179 -0.25253344 -0.18367425 -0.09658229 -0.034208465
-0.07497688 0.112210155 -0.10957425 -0.10338432 -0.1122393 -0.22266877 0.008971607 -0.025010949
-0.1095814 0.20869508 0.0058099334 0.07769449 -0.01274827 -0.0151046105 -0.09534798 -0.19606623
-0.09793688 -0.19722523 -0.07737967 -0.11005517 -0.14318076 -0.24348854 -0.049700413 -0.10824157
-0.018636959 -0.120618366 -0.019106938 -0.16872057 -0.08335134 -0.3230828 0.05671323 -0.12793176
-0.0106614875 -0.21267213 -0.05057064 0.07325748 0.17606968 -0.0876613 0.026952604 0.06352181
-0.100092575 -0.014215904 -0.023763273 -0.09666128 0.070770346 -0.09960631 0.005241509 -0.1311662
-0.07791415 -0.14803904 -0.023144212 -0.12169157 -0.09217246 0.10484715 -0.08644002 -0.16299386
0.0682702 -0.037900556 -0.022640122 0.058168866 0.023467973 0.059674527 -0.031920314 -0.19793577
-0.12639818 -0.0261772 -0.22732672 -0.15080741 -0.11904452 -0.029956304 -0.107511505 -0.037170455
-0.042305008 -0.029289853 -0.08161799 -0.15117487 -0.01583364 -0.014403526 -0.09302802 0.0737413
-0.09513079 0.023936393 0.06477648 -0.05577807 -0.19477032 0.09594139 -0.14769424 -0.12112103
-0.02317694 -0.088593125 -0.0106975855 -0.16873229 -0.065039925 -0.09942995 -0.07149302 -0.2303931
-0.087634034 -0.12676887 -0.029198678 -0.096202545 -0.08731345 -0.09513502 -0.022986215 -0.05713631
00000000: 717c 1ebd 960b 81bd 5071 9dbd d3f2 02bd
00000010: c42f b73c 4f84 d1bd 5ccc 43be 3970 a1bd
00000020: 8982 11be bcec ebbd f11e 44bd e01a 153b
00000030: 0db9 07bd b756 c2bd f486 28bd 96c8 11be
00000040: 6677 93bd a343 17be 61e8 2cbc 45b1 773d
00000050: 104c 81be 1a15 3cbe f0cc c5bd 2d1e 0cbd
00000060: 7a8d 99bd 70ce e53d 7768 e0bd 29bb d3bd
00000070: b8dd e5bd 4803 64be a6fd 123c c3e3 ccbc
00000080: 376c e0bd 2ab4 553e 4161 be3b 4a1e 9f3d
00000090: 1fde 50bc 5479 77bc cd45 c3bd 96c5 48be
000000a0: 2293 c8bd 69f5 49be 3c79 9ebd 9b64 e1bd
000000b0: fa9d 12be 0f55 79be a992 4bbd c2ad ddbd
000000c0: 89ac 98bc c306 f7bd 2786 9cbc 16c5 2cbe
000000d0: 1bb4 aabd 1c6b a5be 224c 683d 8b00 03be
000000e0: 85ad 2ebc b9c6 59be 2923 4fbd 0508 963d
000000f0: 9c4b 343e c587 b3bd b5cb dc3c b917 823d
00000100: 56fd ccbd d3e9 68bc 32ab c2bc 59f6 c5bd
00000110: 0bf0 903d 65fe cbbd f7c0 ab3b 6f50 06be
00000120: 7491 9fbd 8c97 17be ee98 bdbc 6e39 f9bd
00000130: eac4 bcbd 1aba d63d 7707 b1bd dde7 26be
00000140: 3fd1 8b3d 9d3d 1bbd c777 b9bc 7a42 6e3d
00000150: e83f c03c 476d 743d e0be 02bd adaf 4abe
00000160: 866e 01be 9171 d6bc 56c8 68be 426d 1abe
00000170: 9dcd f3bd ec66 f5bc fe2e dcbd 0c40 18bd
00000180: 0448 2dbd 46f1 efbc 5527 a7bd 96cd 1abe
00000190: 8db5 81bc c4fc 6bbc 7985 bebd ae05 973d
000001a0: eed3 c2bd 4116 c43c 88a9 843d 8c77 64bd
000001b0: df71 47be eb7c c43d 293d 17be 4d0e f8bd
000001c0: 91dd bdbc 5070 b5bd ed44 2fbc 28c8 2cbe
000001d0: a733 85bd eea1 cbbd ef6a 92bd 2bec 6bbe
000001e0: 7979 b3bd b3cf 01be 1132 efbc d705 c5bd
000001f0: 65d1 b2bd 26d6 c2bd 964d bcbc c307 6abd

action_model._continuous_distribution.log_sigma f4 [1, 2]
-0.9561292 -0.8976468
00000000: e2c4 74bf 2ecc 65bf

action_model._continuous_distribution.mu.weight f4 [2, 128]
-0.03530887 0.117278144 0.0814968 0.0650216 -0.062357116 0.035926104 -0.008174138 -0.12208704
-0.06942892 -0.1438795 0.26825634 0.02148538 -0.099083856 0.040364504 0.053053197 0.07416614
0.09561255 -0.13518237 0.2488513 0.010423359 -0.041292068 0.13811016 -0.027458277 0.08668702
0.12885071 -0.16025886 -0.10667129 0.03353687 -0.01872631 0.1095361 0.19931482 0.17878634
-0.013758522 -0.044667438 0.0676378 0.06279103 0.0031723615 0.17538303 0.041647647 0.003759732
0.0029554318 0.008759509 0.02539373 0.00280929 0.076750055 0.05488126 0.10086938 -0.12248033
-0.053379584 -0.061537545 -0.21523859 0.016946021 0.12830886 -0.024163837 0.079569355 0.1198577
-0.12648918 -0.023515938 -0.20443952 0.04072514 0.023801195 0.113006 -0.039154757 0.05863122
-0.07585305 0.13667187 0.17717025 -0.024172865 -0.048431434 -0.14033881 0.01129472 -0.048741966
0.07928617 0.10380099 0.077521145 0.003609835 -0.0049495813 0.043174986 -0.023271464 -0.011386892
0.22999378 0.13115959 -0.048199926 -0.106861636 -0.054515086 0.054554358 0.010675921 -0.016974645
-0.050412264 0.020360893 -0.086566396 0.11969521 0.11183584 0.08868056 0.12691878 0.10477345
-0.09202293 0.098919556 0.13410366 -0.09922062 -0.11233145 0.008202704 0.041006487 -0.0031553844
-0.055358134 0.043954924 0.068875685 -0.029089063 0.012691421 0.07623857 -0.1174274 -0.042021133
0.011185882 0.10272554 0.08901527 -0.010843622 -0.031242553 0.013040646 -0.064745165 0.008500084
0.11462187 0.15911451 -0.06011254 0.093443155 -0.08954371 0.19907998 -0.111437894 -0.1093536
-0.08917989 -0.08221511 -0.020903708 -0.19063221 0.14669903 0.10998615 -0.1306621 0.079493694
-0.041269317 0.06870006 -0.041484255 -0.049363673 0.039214965 -0.07162555 -0.07900013 0.0031134258
-0.2611495 0.08008472 -0.050669875 0.057389125 0.09947488 -0.25705537 -0.1436839 -0.0154039785
-0.083736904 -0.058944322 -0.06477843 -0.22397222 0.1019233 -0.08574062 -0.18708798 -0.13696867
-0.11546792 0.17216486 0.0890352 0.13440111 -0.09748062 0.00030638138 -0.3118279 -0.22358514
-0.12899143 -0.18163686 -0.17525338 -0.061964866 -0.1374497 0.08056844 0.032084316 -0.06280649
0.059352428 -0.10815363 0.14852533 -0.1235767 0.14982344 -0.0031016762 0.020467054 -0.17540099
0.1458308 -0.11414154 0.15214795 0.15529163 0.02400444 0.151935 0.21014489 0.038118895
0.040670432 0.024038145 -0.16372147 -0.08322676 0.0771528 0.11469298 0.101175115 -0.15900736
-0.15201287 -0.06257139 -0.024611972 -0.0375562 -0.05440925 0.17416619 -0.1762483 -0.07497668
0.03286269 -0.12320531 0.09405292 -0.13661267 -0.102819666 0.019600341 -0.12647885 -0.0771315
-0.2046074 0.17314242 -0.0032985325 -0.08299829 -0.31866834 -0.012616509 -0.102222934 -0.08613393
0.017869866 -0.05397979 -0.07660272 -0.056699272 0.015663004 -0.17510168 0.05780225 -0.053607628
-0.014522881 -0.011183792 0.020269608 -0.11724189 0.025110628 0.11991849 -0.1040283 -0.21067616
0.025482982 -0.00069838745 0.03791683 -0.31042933 -0.23182374 -0.123410515 -0.035321116 -0.09614262
-0.1119444 -0.2106436 -0.034116693 -0.03188933 -0.084986776 -0.04347831 -0.028316354 -0.007057823
00000000: 09a0 10bd 862f f03d cbe7 a63d 0b2a 853d
00000010: 2d6a 7fbd 4027 133d d2ec 05bc c508 fabd
00000020: c030 8ebd 2655 13be e558 893e 1c02 b03c
00000030: 7aec cabd 4055 253d 4f4e 593d 6be4 973d
00000040: 83d0 c33d 3f6d 0abe e0d2 7e3e bdc6 2a3c
00000050: df21 29bd c06c 0d3e 2ef0 e0bc f788 b13d
00000060: 71f1 033e e61a 24be 7a76 dabd f55d 093d
00000070: eb67 99bc 7654 e03d 2f19 4c3e c413 373e
00000080: 6d6b 61bc 34f5 36bd b085 8a3d 9598 803d
00000090: 65e7 4f3b 9c97 333e b996 2a3d d665 763b
000000a0: ebaf 413b 0b84 0f3c 8306 d03c 111c 383b
000000b0: 222f 9d3d 2ccb 603d 9b94 ce3d f8d6 fabd
000000c0: 8da4 5abd cb0e 7cbd 8167 5cbe 62d2 8a3c
000000d0: 6663 033e 3df3 c5bc 42f5 a23d f477 f53d
000000e0: 6186 01be 7fa4 c0bc 9858 51be 68cf 263d
000000f0: b9fa c23c b16f e73d bd60 20bd 4a27 703d
00000100: d858 9bbd b6f3 0b3e 1e6c 353e 2c06 c6bc
00000110: 0a60 46bd fab4 0fbe 7d0d 393c a8a5 47bd
00000120: ca60 a23d 9d95 d43d 68c3 9e3d fb92 6c3b
00000130: 1930 a2bb 41d8 303d cca3 bebc 1690 3abc
00000140: 7d83 6b3e b34e 063e 496d 45bd 46da dabd
00000150: 364b 5fbd 6474 5f3d 0fea 2e3c 690e 8bbc
00000160: 177d 4ebd e3cb a63c b949 b1bd c322 f53d
00000170: 300a e53d 279e b53d fff6 013e 7693 d63d
00000180: 8576 bcbd 5696 ca3d 7852 093e 2e34 cbbd
00000190: 080e e6bd a264 063c 6bf6 273d 91ca 4ebb
000001a0: 36bf 62bd 140a 343d b20e 8d3d 304c eebc
000001b0: aeef 4f3c f822 9c3d c77d f0bd 5a1e 2cbd
000001c0: fd44 373c c561 d23d a34d b63d 72a9 31bc
000001d0: 62f0 ffbc 6fa8 553c 1d99 84bd f043 0b3c
000001e0: dfbe ea3d eaee 223e 9138 76bd 205f bf3d
000001f0: b162 b7bd 9fdb 4b3e 8d39 e4bd c8f4 dfbd
00000200: f2a3 b6bd 6560 a8bd 413e abbc 1735 43be
00000210: 4538 163e 6b40 e13d 49cc 05be 97cd a23d
00000220: 040a 29bd 9eb2 8c3d 65eb 29bd 9031 4abd
00000230: df9f 203d 6bb0 92bd d2ca a1bd 9e0a 4c3b
00000240: 63b5 85be 7503 a43d 378b 4fbd dc10 6b3d
00000250: 7cb9 cb3d c39c 83be df21 13be f860 7cbc
00000260: 417e abbd 9a6f 71bd 8eaa 84bd f958 65be
00000270: 2abd d03d c798 afbd fe93 3fbe 8441 0cbe
00000280: 727a ecbd fc4b 303e 1658 b63d 72a0 093e
00000290: eba3 c7bd d0a1 a039 e8a7 9fbe 81f3 64be
000002a0: 5416 04be 03ff 39be 9f75 33be dfce 7dbd
000002b0: 9dbf 0cbe 1101 a53d d86a 033d b0a0 80bd
000002c0: 881b 733d a67f ddbd 0617 183e c815 fdbd
000002d0: 516b 193e 7e45 4bbb 86aa a73c 519c 33be
000002e0: ab54 153e 0ac3 e9bd accc 1b3e c504 1f3e
000002f0: f6a4 c43c d994 1b3e 3930 573e 8f22 1c3d
00000300: 0a96 263d a5eb c43c 9aa6 27be cb72 aabd
00000310: 4a02 9e3d 27e4 ea3d e634 cf3d d3d2 22be
00000320: 43a9 1bbe 6e25 80bd 0c9f c9bc 88d4 19bd
00000330: 3cdc 5ebd 9f58 323e 6f7a 34be 608d 99bd
00000340: 079b 063d 1153 fcbd d19e c03d 31e4 0bbe
00000350: 1e93 d2bd e590 a03c ac83 01be 1ff7 9dbd
00000360: 9a84 51be 3f4c 313e 312c 58bb 02fb a9bd
00000370: 7f28 a3be 79b5 4ebc 425a d1bd fc66 b0bd
00000380: d363 923c ea19 5dbd e3e1 9cbd 7f3d 68bd
00000390: b34f 803c db4d 33be 0dc2 6c3d ac93 5bbd
000003a0: 61f1 6dbc 393c 37bc 730c a63c 841c f0bd
000003b0: ceb4 cd3c d397 f53d ca0c d5bd 7ebb 57be
000003c0: b0c1 d03c fd13 37ba ae4e 1b3d 98f0 9ebe
000003d0: 3463 6dbe a7be fcbd e0ac 10bd 6ce6 c4bd
000003e0: 1b43 e5bd f5b2 57be f2bd 0bbd 639e 02bd
000003f0: 8c0d aebd 5016 32bd b3f7 e7bc 4f45 e7bb

action_model._continuous_distribution.mu.bias f4 [2]
-0.060070276 0.16595887
00000000: 400c 76bd 1ff1 293e

action_model._discrete_distribution.branches.0.weight f4 [1, 128]
-0.006121356 -0.0046019624 0.013640751 0.004438417 -0.0048701484 0.002344632 0.0041891374 0.000543526
-0.0006058374 0.0032331327 -0.00856894 -0.0029516437 0.0076072775 -0.0006390651 -0.008865568 -0.00057904614
-0.019119525 -0.0025266015 0.02288902 -0.0074044266 -0.0028934442 0.018453078 0.002347725 0.010955467
0.0025322554 -0.00056195783 -0.011446395 -0.00013375127 -0.011452423 -0.017900718 0.0014154073 0.0033884512
-0.0008948759 -0.0033006433 0.0004379747 -0.0002308997 0.0016986689 -0.0074197683 0.006364986 0.0062843426
-0.017025487 0.008227208 0.012709674 -0.0041753845 0.009555659 0.01496803 0.006325116 -0.01219138
-0.012389657 0.0021136669 0.010850622 0.0034159254 -0.00020665007 0.0020232734 0.010132605 0.0033560165
-0.01397036 -0.017352005 0.0025810446 0.0015488534 -0.0032376256 -0.009353904 -0.012245165 0.0012829329
0.011067851 -0.0057558836 0.009041549 -0.004174748 -0.00014406852 -0.007288617 -0.000277725 0.014499935
0.025533915 -0.014193333 -0.0033267501 0.008524759 0.0022414508 -0.011515616 0.013900873 0.0015092634
0.000691942 0.0027406085 -0.0001914774 -0.00016195707 -0.006174853 0.002348672 -0.0025262767 0.0020645473
-0.008723925 0.0056114024 -0.0046889232 0.014712145 0.00177236 -0.0022846113 -0.0009816919 0.014091442
0.0027797658 0.004659962 0.002026815 -0.0060669673 0.00959428 -0.004190854 0.0074541667 -0.0027731797
0.011031173 -0.0017510653 0.0045110015 -0.0030114448 -5.0153507e-05 -0.00029653506 0.017829953 0.0038074304
-0.0050561996 0.010101719 -0.011085953 0.008049738 0.0011585082 -0.0075883227 -0.0009472132 -0.0077007385
-0.0075438893 0.0024466987 -0.0067542675 -0.003504904 -0.007274383 -0.012652519 -0.0032479882 0.002074563
00000000: a895 c8bb 0fcc 96bb 757d 5f3c 2470 913b
00000010: c495 9fbb 66a8 193b 0845 893b 6a7b 0e3a
00000020: 0fd1 1eba f7e2 533b bd64 0cbc 5d70 41bb
00000030: 7846 f93b ef86 27ba e340 11bc 21cb 17ba
00000040: 8da0 9cbc 5795 25bb c181 bb3c d5a0 f2bb
00000050: f09f 3dbb e92a 973c 4adc 193b 8f7e 333c
00000060: 32f4 253b 5a50 13ba a989 3bbc 953f 0cb9
00000070: f2a2 3bbc 87a4 92bc 3085 b93a c710 5e3b
00000080: 1b96 6aba 9b4f 58bb f89f e539 ab1d 72b9
00000090: dfa5 de3a 8721 f3bb 5f91 d03b e3ec cd3b
000000a0: 0979 8bbc 69cb 063c 3d3c 503c aad1 88bb
000000b0: 578f 1c3c 783c 753c eb42 cf3b 5bbe 47bc
000000c0: fdfd 4abc 7285 0a3b cfc6 313c b8dd 5f3b
000000d0: 35b0 58b9 e598 043b 3a03 263c 9df0 5b3b
000000e0: f0e3 64bc cb25 8ebc be26 293b e502 cb3a
000000f0: 582e 54bb 1e41 19bc f29f 48bc 1628 a83a
00000100: ef55 353c da9b bcbb 0123 143c 53cc 88bb
00000110: 1911 17b9 5ad5 eebb 9e9b 91b9 2391 6d3c
00000120: 802c d13c 278b 68bc 9b05 5abb 6eab 0b3c
00000130: 4ee5 123b ffab 3cbc 7dc0 633c 7ad2 c53a
00000140: 7163 353a c89b 333b 53c7 48b9 05d3 29b9
00000150: 6c56 cabb 2dec 193b e48f 25bb 5b4d 073b
00000160: cbee 0ebc dbdf b73b 8aa5 99bb 350b 713c
00000170: 884e e83a 6bb9 15bb 1dac 80ba cbdf 663c
00000180: bb2c 363b 98b2 983b 50d4 043b 69cd c6bb
00000190: 5431 1d3c 6e53 89bb 1542 f43b 3cbe 35bb
000001a0: 18bc 343c 0084 e5ba 06d1 933b a95b 45bb
000001b0: eb5b 52b8 4378 9bb9 1f10 923c 1586 793b
000001c0: 7aae a5bb ae81 253c dba1 35bc 0ce3 033c
000001d0: 16d9 973a 77a7 f8bb 674e 78ba 7a56 fcbb
000001e0: bb32 f7bb cb58 203b e752 ddbb 88b2 65bb
000001f0: f35d eebb 834c 4fbc 33dc 54bb 64f5 073b

exp_avg f4 [128, 12]
-0.00070525095 0.00014928661 -0.0008246384 -0.0003464684 0.00014928586 0.002279906 -0.0004103692 0.00013165158
0.0002108959 0.0002498022 0.0004845859 0.00029090067 0.00047615473 -7.7221535e-05 0.00037227452 0.00031542956
-7.722103e-05 -0.0009578908 9.795294e-05 -0.000104763705 -7.354838e-05 0.00020754094 -0.00033771084 -0.00019816463
-0.0001874492 6.284262e-05 -0.00044854876 -0.00011984304 6.284245e-05 0.0010166251 6.32862e-05 -0.00019310733
0.00012424085 -4.054069e-06 0.00027022025 4.4615786e-05 -7.2893876e-05 3.778004e-05 -0.00028752047 -0.00013511746
3.7780173e-05 0.0004997466 -4.2507294e-05 -0.000102592785 9.0242625e-05 0.00021389833 -0.00015413553 -6.0910315e-05
-0.013960002 0.0021043974 -0.009437065 -0.0100072585 0.0021043948 0.016353935 -0.004305591 -0.0014971864
0.0015804934 0.005957378 -0.0002539145 -0.004768766 0.0031627067 0.00038286307 -0.005426654 0.0020896667
0.0003828638 0.013405132 -0.0028354742 -0.0015789361 0.0022253273 -0.0033080687 0.0043322695 0.0042999047
-0.01113686 0.0013123162 -0.0045114793 -0.008191024 0.0013123121 0.0072502065 0.0035438833 0.0022247368
0.00022350252 0.0030640203 -0.002232073 -0.0021985383 0.010978262 -0.0038435478 0.026535558 0.0074147643
-0.003843535 -0.0662186 -0.0031895614 -0.006991246 -0.007919802 0.012089023 -0.011579933 -0.019800754
-0.0007225245 6.738985e-05 -9.355268e-05 -0.0005101315 6.73895e-05 0.00051993097 0.00041010333 -0.00016993973
-4.5018947e-05 0.00024291618 0.0002655357 -0.00012450703 -8.295088e-05 4.0938867e-05 -0.00029267053 -9.143563e-05
4.0938732e-05 0.0008476621 0.000368003 0.000120192504 9.643257e-05 -0.00039775038 9.2669405e-05 0.00022119112
-0.00035869528 6.627058e-05 -0.0003466868 -0.00026525886 6.627042e-05 0.00039265264 -0.0003473353 -0.00019297036
7.9048375e-05 0.00054487557 -9.810421e-05 6.516058e-05 -0.013730203 0.0023054173 -0.012271004 -0.010997297
0.002305414 0.024311906 0.0012119545 0.0010739483 0.0023524594 0.0020398982 -0.0005466924 -0.001571076
0.0026454674 0.0018056086 -0.017775886 0.0028276257 0.0018056076 0.044473074 -0.005964979 0.0019017806
0.00629681 -0.0072219498 0.010177642 0.016503692 -0.008528605 0.0018107232 -0.010488372 -0.005857204
0.0018107193 0.025219578 0.0039008886 0.004791582 0.0026106876 -0.003635818 -0.000358621 0.0044365088
-0.004296668 0.0010984458 -0.0071230987 -0.0031411652 0.0010984463 0.014642695 -0.004052111 0.0007228389
0.0018364146 0.00064843753 0.0003472229 0.0008600126 -0.0005691061 3.7332946e-05 4.0406943e-05 -0.00046716718
3.733275e-05 -0.0005549383 0.00011883489 -0.0003519408 -7.819281e-05 0.0011976766 -0.00040620126 -0.0005374552
0.0016173143 -0.0006786864 0.004879564 0.0010034586 -0.00067868445 -0.012165772 0.00075303344 -0.0009135201
-0.0015055626 0.0018480844 -0.0024315445 -0.0037017982 -0.0052063223 0.0014544997 -0.009611897 -0.0022413426
0.0014544881 0.028187536 -0.0027551758 0.005376135 0.0026547117 -0.008240007 0.009497931 0.010375189
-0.010811362 0.00024391255 0.003999927 -0.008703738 0.00024390988 -0.014830609 0.0038139871 5.1537034e-05
-0.0028776093 0.0088502485 -0.007969879 -0.010445616 0.0040628333 -0.0012689452 0.00817511 0.003066809
-0.001268937 -0.020249095 0.004295019 -9.705749e-06 -0.00244934 0.0018080062 -0.0062492657 -0.005510411
-0.009427661 0.0013133388 -0.005244667 -0.005895132 0.0013133362 0.010309063 -0.0021402747 0.0032932907
0.0006596592 0.0029858765 0.0004262461 0.00026991684 -0.00080107094 5.328549e-05 -5.397915e-05 -0.0006079032
00000000: 97e0 38ba d289 1c39 8c2c 58ba 34a6 b5b9
00000010: 9e89 1c39 7a6a 153b d226 d7b9 f40b 0a39
00000020: f023 5d39 e2f7 8239 0510 fe39 0784 9839
00000030: 68a4 f939 fff1 a1b8 d72d c339 3d60 a539
00000040: baf1 a1b8 f71a 7bba 166c cd38 96b4 dbb8
00000050: fc3d 9ab8 599f 5939 c80e b1b9 6aca 4fb9
00000060: 038e 44b9 60ca 8338 322b ebb9 3e54 fbb8
00000070: 49ca 8338 4740 853a 85b8 8438 db7c 4ab9
00000080: a646 0239 3008 88b6 59ac 8d39 d621 3b38
00000090: 9ade 98b8 0276 1e38 58be 96b9 51ae 0db9
000000a0: 2776 1e38 6d01 033a dc49 32b8 1527 d7b8
000000b0: a440 bd38 e549 6039 719f 21b9 f479 7fb8
000000c0: 7eb8 64bc eee9 093b eb9d 1abc 7cf5 23bc
000000d0: e3e9 093b b0f8 853c ea15 8dbb 3d3d c4ba
000000e0: 8f28 cf3a 1c36 c33b d41f 85b9 4f43 9cbb
000000f0: 6a45 4f3b 03bb c839 13d2 b1bb caf2 083b
00000100: 1cbb c839 33a1 5b3c 5dd3 39bb 4ef4 ceba
00000110: ccd6 113b 2fcc 58bb b6f5 8d3b 37e6 8c3b
00000120: 6077 36bc 0602 ac3a 08d5 93bb a533 06bc
00000130: e301 ac3a 2493 ed3b 7f40 683b e4cc 113b
00000140: 005c 6a39 bbcd 483b f947 12bb 5a15 10bb
00000150: 2bde 333c 08e4 7bbb 1961 d93c 8df7 f23b
00000160: d1e3 7bbb 9e9d 87bd f607 51bb d216 e5bb
00000170: 0fc2 01bc 0a11 463c c2b9 3dbc 3135 a2bc
00000180: cc67 3dba a653 8d38 b631 c4b8 58ba 05ba
00000190: 7653 8d38 fa4b 083a 2303 d739 d931 32b9
000001a0: bad2 3cb8 51b7 7e39 9937 8b39 1a8e 02b9
000001b0: eaf5 adb8 c6b5 2b38 9371 99b9 21c1 bfb8
000001c0: a1b5 2b38 a435 5e3a 87f0 c039 dc0f fc38
000001d0: d83b ca38 2789 d0b9 8257 c238 8aef 6739
000001e0: 440f bcb9 bffa 8a38 84c3 b5b9 7112 8bb9
000001f0: a9fa 8a38 f2dc cd39 8e1a b6b9 1658 4ab9
00000200: c6c6 a538 fbd5 0e3a 4cbd cdb8 d2a6 8838
00000210: a5f4 60bc 7c16 173b 520c 49bc 022e 34bc
00000220: 6e16 173b c329 c73c 72da 9e3a bac3 8c3a
00000230: b82b 1a3b d0af 053b e84f 0fba 90ec cdba
00000240: 945f 2d3b 2caa ec3a bc9e 91bc b04f 393b
00000250: 23aa ec3a 6629 363d df75 c3bb 2b45 f93a
00000260: 7955 ce3b 1ba6 ecbb 20c0 263c c032 873c
00000270: 90bb 0bbc ca55 ed3a 6cd7 2bbc caed bfbb
00000280: a855 ed3a 4a99 ce3c 0da6 7f3b b402 9d3b
00000290: 1218 2b3b e746 6ebb 4c05 bcb9 2260 913b
000002a0: 10cb 8cbb baf9 8f3a e268 e9bb 02dc 4dbb
000002b0: bef9 8f3a eae7 6f3c 92c7 84bb e67c 3d3a
000002c0: d9b3 f03a e8fb 293a 780b b639 7872 613a
000002d0: 1030 15ba f295 1c38 a07a 2938 1eee f4b9
000002e0: bc95 1c38 4779 11ba ff36 f938 b284 b8b9
000002f0: 72fb a3b8 5cfb 9c3a 69f7 d4b9 02e4 0cba
00000300: 10fc d33a e0e9 31ba c0e4 9f3b 7c86 833a
00000310: bee9 31ba f252 47bc 3867 453a 4c79 6fba
00000320: 4c56 c5ba 6c3b f23a 8c5a 1fbb de99 72bb
00000330: cc99 aabb e9a4 be3a 387b 1dbc 7de3 12bb
00000340: 86a4 be3a 8ce9 e63c 2e90 34bb 4a2a b03b
00000350: acfa 2d3b 1801 07bc 369d 1b3c b2fc 293c
00000360: 2422 31bc c7c2 7f39 d211 833b 209a 0ebc
00000370: 0fc2 7f39 15fc 72bc 16f4 793b 7829 5838
00000380: 4696 3cbb a200 113c 1894 02bc 1724 2bbc
00000390: 8421 853b bc52 a6ba e6f0 053c 84fc 483b
000003a0: 7652 a6ba 6ee1 a5bc 3bbd 8c3b e0d5 22b7
000003b0: 1b85 20bb 9ffa ec3a a4c6 ccbb ae90 b4bb
000003c0: 7a76 1abc 5624 ac3a 75db abbb f42b c1bb
000003d0: 4024 ac3a 58e7 283c da43 0cbb 40d4 573b
000003e0: fbec 2c3a b2ae 433b c879 df39 a083 8d39
000003f0: f6fe 51ba dc7e 5f38 ac67 62b8 b15b 1fba

exp_avg_sq f4 [128, 12]
0.010310753 6.731326e-05 0.018703043 0.0049621672 6.6804845e-05 0.021237865 0.0026706222 0.0019232846
7.485681e-05 0.0016909507 0.0013016891 0.0023887374 0.014254268 6.4991254e-05 0.025670841 0.0034963149
6.479268e-05 0.027619425 0.0027613193 0.0037640212 4.1976997e-05 0.0018463008 0.0018846102 0.0021492685
0.014302556 7.2338924e-05 0.022192243 0.014261369 7.002865e-05 0.030757578 0.0055828714 0.00430143
8.785521e-05 0.00303526 0.0034091098 0.0029424692 0.0014682014 4.629557e-06 0.0014037526 0.00040527215
4.461777e-06 0.001431429 0.00046092682 0.00023184305 1.0200653e-05 0.00012042422 9.948908e-05 0.00016618769
0.049425922 0.00022889696 0.07011715 0.011681919 0.00022721196 0.08658013 0.0066951346 0.0073562954
0.00052209187 0.0052237855 0.005291269 0.006620928 0.008849009 3.9034207e-05 0.007449229 0.0018685391
3.897895e-05 0.010257946 0.00058055983 0.0004348018 8.0638005e-05 0.00058685127 0.0004889079 0.0009901264
0.038888443 0.00019789198 0.036561627 0.00727301 0.00019753605 0.066194475 0.002559854 0.002987968
0.00032413297 0.0034834952 0.002828711 0.0045926385 0.03836745 0.00024036346 0.05198543 0.013920577
0.00023993642 0.08127855 0.003948554 0.007172031 0.00030040255 0.00393703 0.0032689967 0.006233527
0.012974252 3.4081575e-05 0.005501502 0.0021769607 3.272174e-05 0.008504992 0.0011599921 0.0010701987
4.582076e-05 0.0007937758 0.0008758554 0.0012834868 0.0019536975 9.904692e-06 0.003058851 0.00087784836
9.877382e-06 0.0028521705 0.00054574717 0.00040934255 9.124252e-06 0.00024145254 0.00022648495 0.00036610878
0.028551698 0.00011701554 0.031278845 0.0120834075 0.000115628296 0.06094997 0.007261486 0.0048833913
0.00013054741 0.004378706 0.0048837564 0.0038544484 0.048629284 0.0002327983 0.06135382 0.012207325
0.00023252319 0.09290454 0.0037504511 0.005281359 0.00046287116 0.005456624 0.00459662 0.00575682
0.016452955 8.7381704e-05 0.019022143 0.0060276636 8.672684e-05 0.035621308 0.0020385908 0.0010638447
0.0001378605 0.0021564947 0.002733783 0.0020911216 0.0060549746 3.7737274e-05 0.0068209353 0.00090234634
3.7736787e-05 0.0095966 0.00027468643 0.00029336347 9.779333e-05 0.00041703533 0.0006192214 0.0008156613
0.028247898 0.00013680378 0.027274763 0.007982349 0.00013573466 0.058323104 0.0034832635 0.003289004
0.00015900329 0.0032009494 0.0035390723 0.0041880272 0.0021043257 8.674741e-06 0.0026990164 0.0002832438
8.672538e-06 0.0027206745 0.000118382675 9.47576e-05 2.4440711e-05 0.000102919636 8.155102e-05 0.00026876663
0.011472652 3.7797425e-05 0.013515178 0.002388995 3.7728998e-05 0.015688915 0.0019605283 0.0010558156
0.00011291572 0.0007369301 0.0010778653 0.00089449104 0.016631566 7.254825e-05 0.020793928 0.0026390033
7.248757e-05 0.018883627 0.0006939612 0.00048917136 0.00022683699 0.0010489343 0.0009693022 0.0011413352
0.059560414 0.000240012 0.05091843 0.008847831 0.00023965695 0.07882926 0.0049769375 0.003786949
0.0004057659 0.0050315745 0.0048167217 0.005470856 0.015265833 7.767899e-05 0.02119126 0.0042304583
7.630194e-05 0.034945164 0.0016990877 0.0027501434 0.00015647017 0.0012184916 0.0018627385 0.002626818
0.036955006 0.0001590793 0.034796927 0.008809613 0.00015814528 0.042759184 0.0030190619 0.0034556135
0.00023451041 0.0032113057 0.0029789484 0.0027696234 0.010680783 4.41681e-05 0.014883236 0.0057749897
00000000: 6fee 283c 882a 8d38 2037 993c ad99 a23b
00000010: 9419 8c38 08fb ad3c 9b05 2f3b b916 fc3a
00000020: 72fc 9c38 e4a2 dd3a 709d aa3a 5d8c 1c3b
00000030: bc8a 693c ea4b 8838 a84b d23c 6e22 653b
00000040: 4ee1 8738 2242 e23c 40f7 343b ccad 763b
00000050: 7510 3038 93ff f13a 0605 f73a beda 0c3b
00000060: 4555 6a3c aab4 9738 82cc b53c 84a8 693c
00000070: 58dc 9238 51f7 fb3c 85f0 b63b 03f3 8c3b
00000080: e83e b838 36eb 463b 5f6b 5f3b 71d6 403b
00000090: aa70 c03a 9857 9b36 1ffe b73a b57a d439
000000a0: 5fb6 9536 c99e bb3a 8da8 f139 e51a 7339
000000b0: 7923 2b37 438c fc38 cba4 d038 ab42 2e39
000000c0: d672 4a3d 0f04 7039 9599 8f3d 8565 3f3c
000000d0: bf3f 6e39 ec50 b13d dc62 db3b 140d f13b
000000e0: fedc 083a 4a2c ab3b 6262 ad3b 5ff4 d83b
000000f0: 6ffb 103c a9b8 2338 a918 f43b c5e9 f43a
00000100: 547d 2338 f210 283c b630 183a 1cf6 e339
00000110: 331c a938 ecd6 193a 0e2a 003a 21c7 813a
00000120: 7d49 1f3d 3981 4f39 a5c1 153d 6e52 ee3b
00000130: ae21 4f39 f890 873d 39c3 273b c9d1 433b
00000140: 64f0 a939 5a4b 643b e561 393b d87d 963b
00000150: 3027 1d3d 130a 7c39 adee 543d 2213 643c
00000160: 7197 7b39 5e75 a63d df62 813b 5b03 eb3b
00000170: 597f 9d39 3402 813b aa3c 563b 9d42 cc3b
00000180: f591 543c d0f2 0e38 f245 b43b 57ab 0e3b
00000190: b33e 0938 8658 0b3c e00a 983a e945 8c3a
000001a0: ab2f 4038 6415 503a a999 653a ac3a a83a
000001b0: 9b09 003b 542c 2637 0177 483b 681f 663a
000001c0: 08b7 2537 7beb 3a3b 7910 0f3a 079d d639
000001d0: 5d14 1937 6c2e 7d39 977c 6d39 4af2 bf39
000001e0: 40e5 e93c 3d66 f538 3f1e 003d 7cf9 453c
000001f0: 787d f238 ada6 793d c2f1 ed3b db04 a03b
00000200: 8ee3 0839 407b 8f3b eb07 a03b ea9a 7c3b
00000210: 802f 473d 511b 7439 254e 7b3d 3b01 483c
00000220: 78d1 7339 bc44 be3d 21ca 753b 400f ad3b
00000230: 84ad f239 7bcd b23b 3e9f 963b b5a3 bc3b
00000240: 59c8 863c b240 b738 53d4 9b3c b583 c53b
00000250: 1ee1 b538 a6e7 113d e199 053b b470 8b3a
00000260: a58e 1039 fa53 0d3b 4529 333b 330b 093b
00000270: cf68 c63b 1748 1e38 2782 df3b 708b 6c3a
00000280: 9147 1e38 0f3b 1d3c ca03 9039 94ce 9939
00000290: 6516 cd38 89a5 da39 3f53 223a 1ad2 553a
000002a0: 2368 e73c fc72 0f39 536f df3c 66c8 023c
000002b0: ff53 0e39 35e4 6e3d 7747 643b 558c 573b
000002c0: 1fba 2639 05c7 513b c8ef 673b b83b 893b
000002d0: bae8 093b bb89 1137 fbe1 303b 5780 9439
000002e0: 4480 1137 584d 323b 3744 f838 99b8 c638
000002f0: 0706 cd37 8fd6 d738 5f06 ab38 3fe9 8c39
00000300: caf7 3b3c ad88 1e38 c46e 5d3c af90 1c3b
00000310: 343f 1e38 0a86 803c 357c 003b 4b63 8a3a
00000320: 2acd ec38 8b2e 413a 2847 8d3a 477c 6a3a
00000330: ec3e 883c 0c25 9838 0758 aa3c 21f3 2c3b
00000340: 7804 9838 d6b1 9a3c f3ea 353a bc3b 003a
00000350: 17db 6d39 657c 893a c518 7e3a db98 953a
00000360: 9ff5 733d bbab 7b39 d88f 503d 7ef6 103c
00000370: 6c4c 7b39 3c71 a13d 9415 a33b 762e 783b
00000380: fabc d439 e8df a43b 97d5 9d3b de44 b33b
00000390: 8b1d 7a3c 97e7 a238 4b99 ad3c a89f 8a3b
000003a0: 4b04 a038 a922 0f3d ecb3 de3a c03b 343b
000003b0: 2412 2439 cbb5 9f3a 2227 f43a b126 2c3b
000003c0: 225e 173d 86ce 2639 3987 0e3d 3256 103c
000003d0: cdd3 2539 4124 2f3d 74db 453b 9377 623b
000003e0: e9e6 7539 c574 523b 763a 433b 9282 353b
000003f0: 73fe 2e3c 2341 3938 d1d8 733c 203c bd3b

exp_avg f4 [128]
0.00029857323 -0.00015444307 0.00012568524 7.556008e-05 0.004208795 0.00076572614 0.0026246323 -0.0076870956
0.0001347797 8.187773e-05 0.00013254116 0.0046108346 0.0036112173 0.0036214464 0.0021968917 7.466589e-05
-0.0013573729 0.0029089993 0.0004878251 -0.0025378903 0.0026266775 0.00010657098 -0.0036660244 -0.00033804702
-0.000946564 0.0029769205 0.00048915006 0.0002911857 -0.0007777295 -0.0007984599 -1.0465301e-05 -0.00084596744
0.0050637573 -0.00048516254 -0.009489612 -0.00070346706 -0.0005705665 0.000714981 0.0066962484 -0.0021223787
-0.0011222776 -0.0021017892 -0.00069674355 0.0010255115 4.9565893e-05 0.00039160083 -0.002464749 0.0019950168
-0.00079878105 -0.00049945293 -0.00019491429 0.0012895665 -0.005776463 0.00017159332 -0.002268962 -7.7080396e-05
0.003923638 -0.0045117773 0.0016375869 -0.00045786033 -0.00040986348 0.00019578022 -0.0022572968 0.00022734518
9.224161e-05 -2.4243855e-06 -0.0004862799 -0.003454219 0.00027695356 0.0003167343 -0.0034646997 -0.0010480399
0.0014124103 0.0015652935 0.0010417535 -0.0006405242 0.004179326 0.006070233 -0.0007456382 -0.012536954
0.0024617782 -0.0033585683 0.00045085486 -0.00020462484 0.0004389483 -0.00022527794 0.00075843855 -0.00058159936
5.125395e-05 0.0011161789 -0.00025224284 -0.002058833 0.0017846955 0.00046031736 0.00033615815 0.0011938838
-0.0007830074 -0.0072113485 0.00016908442 0.0077763456 3.7367696e-05 -0.00035994055 -0.0018532817 0.0014085604
-0.00046470494 -0.002433117 -0.0003364098 -0.0005764008 0.0011138138 -0.0017880801 -1.3554352e-05 -0.00027007447
-0.0024105557 0.0025515892 0.0015476856 0.0033224912 0.007760396 -0.0026725514 -6.938869e-05 -0.0005372454
-5.3739175e-05 2.0094798e-05 -0.006170005 0.0003615413 -0.00024458172 0.0008745579 0.0003323825 0.0031664826
00000000: d289 9c39 fff1 21b9 60ca 0339 0276 9e38
00000010: eee9 893b 03bb 483a 0602 2c3b 08e4 fbbb
00000020: a653 0d39 c6b5 ab38 bffa 0a39 7c16 973b
00000030: 2caa 6c3b ca55 6d3b baf9 0f3b f295 9c38
00000040: e0e9 b1ba e9a4 3e3b c7c2 ff39 bc52 26bb
00000050: 5624 2c3b dc7e df38 af41 70bb e73b b1b9
00000060: d622 78ba 7018 433b 4e3a 003a 48aa 9839
00000070: 8be0 4bba bd4f 51ba 2094 2fb7 eac3 5dba
00000080: e0ed a53b 6a5d feb9 517a 1bbc e068 38ba
00000090: 1292 15ba 906d 3b3a 346c db3b 9b17 0bbb
000000a0: 6319 93ba 2cbe 09bb aba5 36ba 756a 863a
000000b0: f9e4 4f38 c64f cd39 a087 21bb d4be 023b
000000c0: 4a65 51ba b8ed 02ba e861 4cb9 ac06 a93a
000000d0: 7c48 bdbb bbed 3339 deb2 14bb 39a6 a1b8
000000e0: dc91 803b 88d7 93bb 4ca4 d63a f90c f0b9
000000f0: f2e2 d6b9 5a4a 4d39 28ef 13bb 8263 6e39
00000100: d671 c138 a0b2 22b6 62f3 feb9 2e60 62bb
00000110: 1434 9139 5c0f a639 0410 63bb 625e 89ba
00000120: a020 b93a 892a cd3a 728b 883a dae8 27ba
00000130: baf2 883b cee8 c63b ef76 43ba cc67 4dbc
00000140: c955 213b 6d1b 5cbb b760 ec39 9090 56b9
00000150: a522 e639 9638 6cb9 f3d1 463a 7976 18ba
00000160: 82f9 5638 c04c 923a 763f 84b9 7ced 06bb
00000170: 72ec e93a c056 f139 623e b039 187c 9c3a
00000180: bd42 4dba 2d4d ecbb 414c 3139 b7d0 fe3b
00000190: 42bb 1c38 67b6 bcb9 d1e9 f2ba 729f b83a
000001a0: a4a3 f3b9 ee74 1fbb 2960 b0b9 9a19 17ba
000001b0: 64fd 913a 035e eaba 8067 63b7 c898 8db9
000001c0: 6afa 1dbb 9038 273b b6db ca3a 27be 593b
000001d0: ec4a fe3b f925 2fbb c584 91b8 eed5 0cba
000001e0: 0066 61b8 4091 a837 c12d cabb 408d bd39
000001f0: 343b 80b9 9642 653a a043 ae39 c384 4f3b

exp_avg_sq f4 [128]
0.00026925304 0.00025996502 0.0002893557 1.8518229e-05 0.0009155878 0.00015613683 0.0007915679 0.0009614538
0.0001363263 3.9618768e-05 0.00046806215 0.0009311932 0.00034952682 0.0001509491 0.0005472151 3.4698965e-05
0.0001511897 0.000290193 0.000960048 0.00031071596 0.0006363172 0.0001766724 0.0002924533 0.00016215241
0.0001550627 0.00032194512 0.00034377648 0.0006622343 0.00094009994 0.00024488862 0.00016081356 7.6918994e-05
0.00045602478 0.00014260394 0.0010024694 0.00030117587 0.0001514032 9.8376775e-05 0.0007396723 0.00032681663
0.00020988648 0.00023849968 0.0003014924 0.00026497876 0.00041408534 0.00011453593 0.00022966525 0.00028616723
0.0002671615 0.00013380584 0.0004058519 0.00079931016 0.00019853708 3.8153947e-05 8.895088e-05 0.00024075006
0.00051943806 0.0004997596 0.00046187342 0.00035216566 0.0010432514 5.4725597e-06 0.00019040622 0.0014913986
0.00018021735 1.5201548e-05 4.8263402e-05 0.00023379043 4.6794925e-05 0.000115908326 0.00042902268 0.00018644845
0.00025368165 0.0002938362 9.8624645e-05 0.00039788464 0.00047870242 0.0011887545 3.9256927e-05 0.0010375505
0.0001648784 0.0006387402 0.00048311244 0.00020304015 0.00012947129 0.00076766545 0.0009231115 0.00037997332
1.6338809e-05 0.00068606576 0.0005212756 0.00015598055 0.00033028272 4.767336e-05 0.00022354914 0.0005457583
0.00025329634 0.00043805747 0.00043904525 0.00066193554 0.0005715647 0.00017903758 0.0002126852 0.00036923683
8.6341344e-05 0.0008730897 0.00017993845 0.000763431 0.00022980596 0.00025747676 0.00020919713 5.317138e-05
0.00078246556 0.00029667752 6.5635126e-05 0.00018933039 0.00042306504 0.00025520177 0.00036811188 4.1168565e-05
1.553803e-05 8.4568506e-05 0.0013310259 0.00015487972 8.192912e-05 0.00015080906 0.00024959547 0.00024305988
00000000: 882a 8d39 ea4b 8839 aab4 9739 9857 9b37
00000010: 0f04 703a a9b8 2339 3981 4f3a 130a 7c3a
00000020: d0f2 0e39 542c 2638 3d66 f539 511b 743a
00000030: b240 b739 1748 1e39 fc72 0f3a bb89 1138
00000040: ad88 1e39 0c25 9839 bbab 7b3a 97e7 a239
00000050: 86ce 263a 2341 3939 6b54 9939 7507 2a39
00000060: 5498 2239 beca a839 e63c b439 cb99 2d3a
00000070: 0a71 763a 6564 8039 10a0 2839 924f a138
00000080: 9c16 ef39 f487 1539 4b65 833a 24e7 9d39
00000090: fdc1 1e39 a14f ce38 91e6 413a 9658 ab39
000000a0: f914 5c39 c515 7a39 a011 9e39 d9ec 8a39
000000b0: 9819 d939 0233 f038 4cd2 7039 b708 9639
000000c0: cf11 8c39 3b4e 0c39 85c8 d439 cc88 513a
000000d0: 642e 5039 7d07 2038 248b ba38 da71 7c39
000000e0: e62a 083a 4d02 033a 9a27 f239 e0a2 b839
000000f0: b5bd 883a eea0 b736 c8a7 4739 087b c33a
00000100: baf8 3c39 270a 7f37 6f6e 4a38 a425 7539
00000110: ab45 4438 cf13 f338 73ee e039 6081 4339
00000120: 9300 8539 070e 9a39 b4d4 ce38 2c9b d039
00000130: 5afa fa39 fbcf 9b3a cea7 2438 6bfe 873a
00000140: 35e3 2c39 2171 273a 414a fd39 2de7 5439
00000150: afc2 0739 283d 493a f7fc 713a 2837 c739
00000160: 530f 8937 18d9 333a 37a6 083a b68e 2339
00000170: cc29 ad39 e1f4 4738 8468 6a39 3811 0f3a
00000180: dccc 8439 14ab e539 a82f e639 be85 2d3a
00000190: 0fd5 153a 09bc 3b39 4004 5f39 2196 c139
000001a0: 2812 b538 0fe0 643a dcad 3c39 fd20 483a
000001b0: 11f8 7039 f2fd 8639 ed5b 5b39 5604 5f38
000001c0: 601e 4d3a 628b 9b39 97a5 8938 fd86 4639
000001d0: d4ce dd39 9acc 8539 24ff c039 69ac 2c38
000001e0: aa57 8237 5f5a b138 d175 ae3a 3567 2239
000001f0: 5dd1 ab38 8022 1e39 23dc 8239 e4dd 7e39
