ML Agents tutorial/Assets/results/RollerBall2/RollerBall/RollerBall-1999990.pt (torch, 459081 bytes, 39 tensors)

network_body._body_endoder.seq_layers.0.weight f4 [128, 12]
0	0x3e3c0ea2	0.18364957
1	0x3e3fec7b	0.18742554
2	0x3e0488ce	0.12942812
3	0x3e6c0785	0.23049743
4	0x3caa6ac6	0.020802867
5	0xbdc4527e	-0.09586047
6	0xbe6b544f	-0.2298138
7	0xbe38aae7	-0.18033944
8	0xbe89d498	-0.2692001
9	0xbc2a4d34	-0.010394383
10	0x3f0252e9	0.5090776
11	0x3df166c5	0.1178718
12	0xbd93ab92	-0.07210459
13	0xbe40d8e2	-0.18832734
14	0x3e98a994	0.29816878
15	0x3ab5a0ec	0.0013857163
16	0xbe7b9870	-0.24569869
17	0xbe72a76c	-0.23696679
18	0xbdff3164	-0.124605924
19	0x3e53d3c8	0.20686257
20	0xbd34aba0	-0.044108987
21	0xbe6257ba	-0.22103778
22	0x3e19119b	0.14948122
23	0x3eb0d0b1	0.3453422
24	0x3eaf75b9	0.34269503
25	0x3e3a227a	0.18177214
26	0x3e496910	0.19668984
27	0x3e6aad08	0.22917569
28	0x3c26ac1d	0.010172871
29	0xbe6b2388	-0.22962773
30	0xbe29330a	-0.16523376
31	0x3e4e521b	0.20148508
32	0xbe484cd9	-0.19560565
33	0xbdabcbd0	-0.083884835
34	0x3e5ed1c1	0.21759702
35	0x3e8f782e	0.28021377
36	0x3eb3670c	0.35039556
37	0xbf0e6d02	-0.5563508
38	0x3e1259a2	0.14292005
39	0x3e147b2b	0.1450011
40	0xbcfd44c8	-0.030916587
41	0xbeb42c66	-0.35190123
42	0x3c6ce2f0	0.014458403
43	0xbe2b21af	-0.16712068
44	0xbc5a0f8e	-0.013309373
45	0xbe5eba69	-0.21750797
46	0xbe892489	-0.26785687
47	0xbe941263	-0.28920278
48	0x3e1a12fb	0.15046303
49	0xbde58407	-0.11206823
50	0xbeb0a1e8	-0.34498525
51	0x3d948123	0.072511934
52	0x3c1ce467	0.00957594
53	0x3d8d590d	0.06901751
54	0xbe936de3	-0.28794774
55	0x3f028725	0.50987464
56	0xbead90f7	-0.33899662
57	0xbc0447d8	-0.0080737695
58	0xbe42f335	-0.19038089
59	0xbfa7fa18	-1.3123198
60	0xbe670fef	-0.22564672
61	0x3e642a4c	0.2228176
62	0x3ccda797	0.025104327
63	0xbc89da77	-0.016827805
64	0xbde60d81	-0.112330444
65	0xbdbce384	-0.09223083
66	0x3eb6d632	0.35710293
67	0xbebfd4b7	-0.37466976
68	0x3cbd42aa	0.023103077
69	0x3b6254bc	0.003453537
70	0x3db21584	0.0869551
71	0x3f1908e0	0.5977917
72	0xbd0512f7	-0.03248879
73	0xbd30e453	-0.043186497
74	0xbda99f02	-0.082822815
75	0xbedda7da	-0.43292123
76	0x3e15f937	0.14645849
77	0x3e1ed570	0.15511107
78	0x3da682b1	0.08130396
79	0x3da6aea1	0.081387766
80	0xbf67f0d4	-0.9060185
81	0xbc16933c	-0.009190377
82	0xbf3ad44e	-0.729802
83	0x3d36fe76	0.044676267
84	0xbca3ac69	-0.019979673
85	0xbdde1f4e	-0.10845815
86	0xbd8623da	-0.06549807
87	0xbec839ff	-0.39106748
88	0xbebf2bca	-0.37338096
89	0x3e0b1ec2	0.13585952
90	0x3bc3f8be	0.00598058
91	0x3e9c229e	0.3049516
92	0x3b381618	0.002808934
93	0x3d8bbdc4	0.06823304
94	0x3e927187	0.2860224
95	0xbd946b21	-0.07246996
96	0xbebffb02	-0.3749619
97	0xbe36932e	-0.17829582
98	0xbdf0c2cd	-0.11755905
99	0x3f0862cd	0.5327576
100	0xbecc7faf	-0.39941165
101	0xbef73a1b	-0.48286518
102	0x3e27bf9d	0.16381688
103	0xbe6d6c1f	-0.23185776
104	0xbd8a2b62	-0.06746556
105	0xbe4aeb46	-0.19816312
106	0xbf065775	-0.524772
107	0xbf653bf6	-0.8954462
108	0x3eb08360	0.3447523
109	0x3eb06b93	0.34457073
110	0x3d83cbde	0.06435369
111	0x3e572fdd	0.21014352
112	0x3d20a25b	0.039217334
113	0xbee628c8	-0.4495299
114	0x3d89f5a0	0.067363024
115	0x3d8298ed	0.063768245
116	0xbd78eb23	-0.06077112
117	0xbdd1b879	-0.102402635
118	0x3f13ef68	0.5778718
119	0x3f243bc0	0.6415367
120	0x3db05996	0.08610837
121	0xbedf64c2	-0.4363156
122	0x3e9b7215	0.30360475
123	0xbc89dd11	-0.016829045
124	0x3e59e760	0.21279669
125	0xbdaf3398	-0.085547626
126	0xbc4753ba	-0.012165958
127	0x3db86efa	0.09005542
128	0xbe81d180	-0.25355148
129	0x3ddfd193	0.10928645
130	0x3e23d274	0.1599825
131	0x3ef24d62	0.47324663
132	0xbd36ab91	-0.044597212
133	0xbee3f6a5	-0.44524112
134	0xbdd6dc2c	-0.10491213
135	0x3d9aec45	0.07564596
136	0x3d1668b3	0.036720943
137	0x3e94cd45	0.29062858
138	0xbf2fb58c	-0.68636394
139	0x3e83ecfd	0.25766745
140	0xbeb13131	-0.34607843
141	0x3e7dffe7	0.2480465
142	0xbf0cae49	-0.5495344
143	0xbedab158	-0.42713428
144	0xbf1ec276	-0.62015474
145	0xbea9b7e9	-0.33148125
146	0xbe3791e2	-0.17926744
147	0x3ec19ea7	0.37816355
148	0x3dfb077c	0.12257287
149	0x3ea7c172	0.32764775
150	0x3f16213e	0.58644474
151	0xbef64202	-0.48097235
152	0xbd615a1d	-0.05501758
153	0xbcaca50e	-0.021074798
154	0x3d6fe61c	0.05856906
155	0xbd895305	-0.06705288
156	0x3d7e8f7d	0.06214856
157	0xbf06efd6	-0.5270971
158	0xbf01459a	-0.5049683
159	0xbf163d66	-0.58687437
160	0xbed1b1ca	-0.40955955
161	0xbd8a9e04	-0.0676842
162	0xbe8a3baf	-0.2699866
163	0xbdd6f5c1	-0.104960926
164	0x3e7626bd	0.24038215
165	0x3c5fc9fe	0.0136589985
166	0xbed2ed1e	-0.4119653
167	0x3e07d377	0.13264261
168	0xbea425c3	-0.3206006
169	0xbef116e9	-0.47087792
170	0x3d4164e5	0.04721536
171	0xbdbcad41	-0.09212733
172	0xbeb58e32	-0.3546005
173	0x3dbfecd3	0.093713425
174	0x3d1338fc	0.035943016
175	0x3f19389d	0.5985201
176	0x3b06bf5f	0.0020560843
177	0x3ea858f7	0.32880375
178	0x3e4eba16	0.20188174
179	0xbf26a4e2	-0.6509534
180	0x3e79e5c7	0.2440406
181	0xbeef0917	-0.46686623
182	0x3db668c3	0.089067005
183	0xbe6a7f08	-0.22900021
184	0xbe90695c	-0.28205383
185	0xbe7c142e	-0.24617073
186	0xbd65e29c	-0.056124315
187	0xbe89e0d4	-0.26929343
188	0xbe134d73	-0.14385013
189	0xbe8d7255	-0.2762629
190	0xbda7f60c	-0.082012266
191	0x3f36e82f	0.71448034
192	0x3ed4ce0d	0.41563454
193	0xbda05acd	-0.07829819
194	0xbebdf7ee	-0.37103218
195	0xbcfb0e41	-0.030646445
196	0x3ded58b9	0.11589188
197	0xbebe7181	-0.37195972
198	0x3ef9461b	0.486863
199	0x3d497216	0.049181066
200	0xbf1ddc75	-0.61664516
201	0xbdeb29e9	-0.11482603
202	0x3e02de6e	0.12780163
203	0xbab6f9a9	-0.0013959903
204	0xbc8dd3c4	-0.017312892
205	0x3e9d7d51	0.3075967
206	0xbeca8e26	-0.39561576
207	0x3f00301d	0.50073415
208	0xbe151fe6	-0.1456295
209	0xbda9d640	-0.08292818
210	0x3eeed177	0.46644184
211	0xbf82fee6	-1.0234039
212	0x3f664057	0.89941925
213	0xbf0277d0	-0.5096407
214	0xbee4ede8	-0.44712758
215	0xbe37c19e	-0.17944953
216	0x3c062744	0.008188073
217	0x3dcefedc	0.10107204
218	0xbcf9b147	-0.03048004
219	0xbf110a68	-0.56656504
220	0xbee3c70a	-0.44487792
221	0x3eebe21a	0.4607094
222	0x3e060b00	0.13090134
223	0x3e50fac3	0.20408158
224	0xbdd2b225	-0.102878846
225	0x3e85dc5c	0.26144683
226	0xbf291086	-0.6604084
227	0xbe9a81dc	-0.301772
228	0x3e115d58	0.14195764
229	0xbe47db5b	-0.19517271
230	0xbb865caa	-0.004100402
231	0x3cc88328	0.024476603
232	0xbf419758	-0.7562156
233	0x3c2b7b9a	0.010466481
234	0xbec81e8e	-0.3908581
235	0x3eba67cb	0.36407313
236	0xbe66692e	-0.2250106
237	0xbe3f6d01	-0.18693925
238	0xbef69326	-0.4815914
239	0x3ec6e986	0.3885004
240	0xbeb233fa	-0.3480528
241	0xbebe715b	-0.37195858
242	0x3cec165e	0.02881926
243	0xbd0a4610	-0.033758223
244	0x3ebbbb7e	0.36666483
245	0x3c18451d	0.009293822
246	0x3f01344d	0.5047043
247	0x3e9db8e5	0.30805126
248	0xbf2ae7c7	-0.66759914
249	0x3e7fc878	0.24978817
250	0xbe90b6af	-0.28264377
251	0xbf4dbc4b	-0.8036544
252	0x3f144f0a	0.57933104
253	0xbe561de5	-0.20909841
254	0xbc0a0a58	-0.008425318
255	0xbde9a67a	-0.11408706

network_body._body_endoder.seq_layers.0.bias f4 [128]
0	0x3d0ba4ed	0.034092832
1	0xbd5ecca9	-0.054394398
2	0xbaeaa2d4	-0.001790131
3	0xbe2ad239	-0.16681756
4	0xbcfdc20c	-0.030976318
5	0x3c297870	0.010343656
6	0x3e1298c8	0.14316094
7	0xbe6be1b9	-0.23035325
8	0x3dd7283d	0.10505722
9	0xbdc0e0a0	-0.09417844
10	0xbe1c8374	-0.1528452
11	0xbe1bd383	-0.15217404
12	0xbe51dc5f	-0.20494221
13	0xbe2b5ef2	-0.16735438
14	0xbe21d639	-0.15804376
15	0xbda739e4	-0.08165339
16	0x3cc1bf8a	0.023650903
17	0x3e234841	0.15945531
18	0xbc14f6c1	-0.009092034
19	0xbdf7a19d	-0.12091372
20	0xbd73aeac	-0.059492752
21	0xbe33fe3f	-0.17577456
22	0x3c873ab4	0.016507484
23	0xbea03169	-0.31287697
24	0xbe43cde4	-0.1912151
25	0xbdcf7437	-0.10129588
26	0xbe12689a	-0.14297715
27	0x3daceaa2	0.0844319
28	0x3e1342cc	0.1438095
29	0xbe6eeb6d	-0.23331995
30	0xbe46cfcf	-0.1941521
31	0xbe856c33	-0.26059112
32	0x3d6aa71d	0.057288278
33	0x3db1b229	0.086765595
34	0xbe36c88b	-0.17849939
35	0xbd173bba	-0.036922194
36	0xbd5127e8	-0.05106345
37	0xbe1b262e	-0.15151283
38	0x3d4664ed	0.048436094
39	0xbdf94a5a	-0.121723846
40	0x3ddb2491	0.10700334
41	0x3d82c4e0	0.06385207
42	0x3d6be8a5	0.057594914
43	0xbe058b3a	-0.13041392
44	0xbdab3ea7	-0.08361559
45	0xbe2dd581	-0.16975977
46	0x3d00c5ff	0.031438824
47	0xbbea15aa	-0.007143696
48	0x3b3d0eeb	0.0028848003
49	0xbc6e95b7	-0.014562062
50	0xbd6fd943	-0.058556806
51	0x3c8f1916	0.017468017
52	0xbe228c5e	-0.15873858
53	0xbe0cf643	-0.13765816
54	0xbe0cbd0a	-0.13743988
55	0xbbb1fce0	-0.0054317564
56	0x3dfd1a0b	0.12358483
57	0x3e474f57	0.1946386
58	0xbdb9203a	-0.0903935
59	0xbe233fe6	-0.15942344
60	0x3db4ebcb	0.088340364
61	0xbe0f6886	-0.14004716
62	0xbdc66665	-0.09687499
63	0x3e01e851	0.12686278
64	0xbdffc6eb	-0.124891125
65	0xbdcaab65	-0.09895972
66	0xbe18dee6	-0.14928779
67	0xbe7a97e9	-0.24472012
68	0xbe6edfbc	-0.23327535
69	0xbd9652a8	-0.07339984
70	0x3c14a659	0.0090728635
71	0xbe0dbc77	-0.13841425
72	0xbdc428e5	-0.095781125
73	0xbb859894	-0.0040770266
74	0x3be512db	0.006990773
75	0xbe590c32	-0.21196058
76	0x3d27ea37	0.04099485
77	0x3b1874da	0.0023263008
78	0xbe79b887	-0.24386798
79	0xbe1044f2	-0.140888
80	0xbddd0dda	-0.107936576
81	0xbc6a1f08	-0.014289625
82	0xbe2e39e5	-0.17014273
83	0xbdd6c38a	-0.10486515
84	0xbddda0d6	-0.10821693
85	0x3d965ede	0.07342313
86	0xbe67a439	-0.2262124
87	0xbd4d6851	-0.050148312
88	0xbe525e17	-0.20543705
89	0x3e26f85e	0.16305682
90	0x3d36b0f6	0.044602357
91	0xbde62768	-0.11237985
92	0x3ceb0bb7	0.02869211
93	0xbdf01b8b	-0.117240034
94	0xbe3e79fc	-0.18601221
95	0xbe524480	-0.20533943
96	0xbe55b7c2	-0.2087088
97	0xbda053bb	-0.0782847
98	0xbd727041	-0.059189085
99	0x3e0de06b	0.1385514
100	0xbab724fb	-0.0013972813
101	0xbd28193c	-0.04103969
102	0xbe0945d0	-0.13405538
103	0xbd8c76b6	-0.0685858
104	0xbdf1d59b	-0.1180832
105	0x3c174d87	0.009234793
106	0x3da42555	0.08014933
107	0x3e19815a	0.1499075
108	0xbdbfef65	-0.09371833
109	0x3e05a4f9	0.13051213
110	0x3d2aa87e	0.041664593
111	0x3df46ae6	0.11934452
112	0xbce5f134	-0.028069116
113	0xbcfe7096	-0.031059545
114	0xbd81bb5b	-0.06334563
115	0x3e571aaf	0.21006273
116	0x3dfeddda	0.124446586
117	0xbd1b20b8	-0.037873
118	0x3cc7dfba	0.024398673
119	0xbe8ee986	-0.2791254
120	0xbdbeffe0	-0.09326148
121	0xbe2702f3	-0.16309719
122	0xbeb21df9	-0.34788492
123	0xbe35b42e	-0.17744514
124	0xbd00ea3f	-0.031473394
125	0xbd330b34	-0.043711856
126	0xbd7f57b2	-0.062339492
127	0x3c877a24	0.016537733

network_body._body_endoder.seq_layers.2.weight f4 [128, 128]
0	0xbe830b6e	-0.25594658
1	0x3e93b3c6	0.28848094
2	0xbe1a8234	-0.15088731
3	0x3d036280	0.03207636
4	0xbeedb7ec	-0.46429384
5	0x3d338320	0.043826222
6	0xbdd04c10	-0.10170758
7	0x3cda9cdc	0.026686125
8	0xbede21c7	-0.43385145
9	0xbdc5684a	-0.09639032
10	0x3d021e82	0.031767376
11	0x3c3bbd91	0.01145877
12	0x3dcd2a1a	0.10017796
13	0xbe6a2952	-0.22867325
14	0xbd90f9bb	-0.07078882
15	0xbdf54b54	-0.11977258
16	0x3cbb9472	0.022897933
17	0xbc826f58	-0.015922233
18	0x3dc5227b	0.09625717
19	0xbe1cf808	-0.15328991
20	0x3dcd6b8e	0.1003028
21	0x3d50f904	0.05101873
22	0x3e559436	0.20857319
23	0x3e1f3864	0.15548855
24	0xbd62cc53	-0.05537064
25	0x3b93595d	0.004496737
26	0xbe5f247a	-0.21791258
27	0x3d8e0fc0	0.06936598
28	0xbe7b94d0	-0.24568486
29	0xbdcf2698	-0.10114783
30	0xbea3694c	-0.31916273
31	0xbda4fd49	-0.08056123
32	0x3e132c89	0.14372458
33	0xbdfd88f7	-0.123796396
34	0x3da85fee	0.08221422
35	0xbe40307e	-0.18768498
36	0xbd49e27d	-0.04928826
37	0xbd1004a6	-0.035160683
38	0xbe168eba	-0.14702883
39	0x3d806bb0	0.0627054
40	0xbe2c6f28	-0.16839278
41	0xbd3ef453	-0.046619724
42	0xbce3f608	-0.027827278
43	0xbe26011b	-0.16211359
44	0xbd9b5e22	-0.07586314
45	0xbe3861d9	-0.18006076
46	0x3e4cf9dc	0.20017189
47	0xbccb7541	-0.024836184
48	0xbe8fd1bf	-0.2808971
49	0xbe25f739	-0.16207589
50	0x3e27189f	0.16317986
51	0x3d0da943	0.03458525
52	0x3bee630e	0.007274992
53	0x3d12879e	0.035773866
54	0x3d782b42	0.06058813
55	0xbe36e352	-0.17860153
56	0xbe46346e	-0.19355938
57	0x3e6b0df3	0.2295454
58	0xbe373753	-0.17892198
59	0xbd5cf9c0	-0.053949118
60	0xbdac5950	-0.084154725
61	0x3ec9d963	0.39423665
62	0x3d8e7199	0.06955261
63	0xbe616369	-0.22010578
64	0xbe21b3b9	-0.15791215
65	0xbd2f7233	-0.04283352
66	0x3d0af618	0.0339261
67	0x3c53bbc6	0.012923187
68	0xbe92b731	-0.2865539
69	0xbe270506	-0.1631051
70	0xbd0cfe38	-0.03442213
71	0x3e204e66	0.15654907
72	0xbe32c5d0	-0.17458272
73	0x3e061f38	0.13097847
74	0xbe70b6ff	-0.23507307
75	0xbc1249c8	-0.008928724
76	0xbd97d0e4	-0.074128896
77	0xbd9129ad	-0.07088027
78	0xbdcf70aa	-0.10128911
79	0x3d566cee	0.052349977
80	0xbb0d8ab8	-0.0021597575
81	0x3cb8facd	0.022580529
82	0x3e1642e5	0.14673956
83	0xbea946c3	-0.330618
84	0xbe8ed2b2	-0.27895123
85	0xbe46b32d	-0.19404288
86	0xbdfb88a9	-0.12281925
87	0xbdee3def	-0.11632907
88	0xbe3b5156	-0.18292746
89	0xbc4bb1d0	-0.0124325305
90	0xbece5bf0	-0.40304518
91	0xbe53bb21	-0.20676853
92	0xbe0dfbae	-0.1386554
93	0xbcf82fd2	-0.03029624
94	0xbcc97e47	-0.024596347
95	0x3c90ed75	0.017691353
96	0xbdbe5360	-0.09293246
97	0x3d6ffafe	0.058588974
98	0xbd13269a	-0.035925485
99	0x3d6ab623	0.057302605
100	0xbe0cd18a	-0.13751808
101	0xbdf182ce	-0.11792527
102	0x3d909f09	0.070615835
103	0x3ca52bce	0.02016249
104	0xbc78a196	-0.015175244
105	0x3c96f0df	0.018425403
106	0xbf066671	-0.52500063
107	0x3e14c1c2	0.14527038
108	0x3e1cab2e	0.15299675
109	0x3e26c194	0.16284782
110	0xbe201c1e	-0.15635726
111	0xbc1d940b	-0.009617816
112	0x3cc25a5d	0.02372473
113	0xbe6a29ee	-0.22867557
114	0xbe511d15	-0.2042125
115	0xbc9eea89	-0.019398944
116	0xbda88f9f	-0.082305185
117	0x3e5795c0	0.21053219
118	0xbe18081a	-0.1484684
119	0x3cf62cce	0.030050661
120	0xbca95e09	-0.020674722
121	0xbe730cee	-0.23735401
122	0x3d8d3e79	0.06896681
123	0xbe62e029	-0.22155823
124	0xbca46291	-0.020066531
125	0xbe666793	-0.22500448
126	0x3dab3dc9	0.08361394
127	0xbe18419f	-0.14868782
128	0xbe682191	-0.22669055
129	0xbe24ac1c	-0.1608128
130	0xbe238271	-0.15967728
131	0x3d8cb94d	0.06871281
132	0xbe4f8d5b	-0.20268767
133	0xbc591df5	-0.013251771
134	0xbe71e4f9	-0.23622502
135	0xbdb96dbe	-0.09054135
136	0xbdf7485f	-0.120743506
137	0xbec60291	-0.38673833
138	0x3d24f6f0	0.04027456
139	0x3d8d997f	0.06914043
140	0x3deddf97	0.11614912
141	0x3e3c1ae6	0.18369636
142	0x3dc17ab3	0.09447231
143	0xbe19c546	-0.1501666
144	0xbd9ca564	-0.07648733
145	0xbe4a54df	-0.19758938
146	0x3dae95de	0.08524679
147	0x3db77d9f	0.08959507
148	0xbe5de367	-0.21668778
149	0x3d5017fa	0.050804116
150	0xbeedbfd2	-0.4643541
151	0x3c966acc	0.018361472
152	0xbe3a74be	-0.18208596
153	0x3b9bc71c	0.0047539603
154	0x3d5caddf	0.053876754
155	0xbdc9f751	-0.09861625
156	0x3de26b3b	0.11055609
157	0xbe485b2c	-0.1956603
158	0xbe0157a3	-0.12631087
159	0xbd2a1df2	-0.041532464
160	0xbdaff8c7	-0.085923724
161	0xbe3718f4	-0.17880613
162	0xbe066383	-0.13123898
163	0xbd9be749	-0.076124735
164	0xbdc5367e	-0.09629534
165	0xbea3e1dd	-0.32008258
166	0xbe5c0410	-0.21485925
167	0xbd85b051	-0.0652777
168	0xbd13bbd3	-0.036067795
169	0xbd743b45	-0.059626836
170	0xbe701401	-0.23445131
171	0x3d88b73b	0.066755734
172	0xbe2a5a89	-0.16636099
173	0x3db1e8fa	0.08687015
174	0xbe6d0107	-0.23144923
175	0x3d4c6976	0.049905263
176	0xbdf624a1	-0.12018705
177	0xbe3ed3f8	-0.18635547
178	0x3e517254	0.20453769
179	0x3bf8727d	0.0075820074
180	0x3d7e8f12	0.06214816
181	0xbdf24236	-0.11829035
182	0x3e229d79	0.15880384
183	0xbe91a366	-0.28444976
184	0xbd907b87	-0.07054811
185	0x3d779b15	0.060450632
186	0xbe691ba3	-0.22764449
187	0xbe6458cd	-0.222995
188	0xbe02c27e	-0.12769505
189	0xbe41fbd4	-0.18943721
190	0xbd7d99aa	-0.061914124
191	0x3e381bd2	0.17979363
192	0xbd93ea7b	-0.07222458
193	0xbe096422	-0.13417104
194	0x3e297522	0.16548589
195	0x3d8c8e0f	0.06863033
196	0xbe205093	-0.15655737
197	0xbd86c25a	-0.06580038
198	0x3beed5e6	0.0072886823
199	0x3b483596	0.0030549518
200	0x3e0bf9d7	0.13669525
201	0x3d5d4ecf	0.054030236
202	0xbd55257b	-0.052037697
203	0xbd62bbd4	-0.055354908
204	0x3e5b6ed7	0.21429001
205	0xbb6348a3	-0.0034680746
206	0x3e155710	0.14583993
207	0xbd97fe45	-0.07421545
208	0xbe3bdd60	-0.18346167
209	0x3dfbffa6	0.123046204
210	0xbcf4ffa4	-0.029907055
211	0xbe5b1c2f	-0.2139747
212	0xbce61554	-0.028086342
213	0xbc895f16	-0.016768973
214	0xbd19d7fe	-0.0375595
215	0x3e1b43c5	0.15162571
216	0xbe211b49	-0.15733065
217	0xbea495d3	-0.32145557
218	0xbe2d5de6	-0.1693035
219	0x3ccf977a	0.025340784
220	0xbd4bdd78	-0.049771756
221	0x3cbb8904	0.022892483
222	0xbe11f540	-0.14253712
223	0xbe177e51	-0.1479428
224	0xbe9aabcf	-0.30209205
225	0xbe58633e	-0.21131608
226	0x3dabd573	0.083903216
227	0xbeb08b43	-0.34481248
228	0xbee18f77	-0.44054767
229	0xbcc87d00	-0.024473667
230	0xbd8fb087	-0.07016092
231	0xbe1e6c1b	-0.15470926
232	0x3e6d5dd1	0.2318032
233	0xbdca9ed8	-0.09893578
234	0xbdf0fc91	-0.11766923
235	0xbe68a5be	-0.22719476
236	0x3ca60e1f	0.020270405
237	0xbea7937b	-0.32729706
238	0xbe08da3d	-0.13364501
239	0xbe9245c8	-0.28568864
240	0x3e63828f	0.22217773
241	0xbca3d16f	-0.019997327
242	0x3e03bb1a	0.12864342
243	0xbb15813f	-0.0022812632
244	0xbdd0a560	-0.10187793
245	0x3da72787	0.08161836
246	0xbe4b5ac2	-0.1985884
247	0x3c5c135c	0.01343235
248	0x3de4a501	0.111642845
249	0x3e0087bb	0.12551777
250	0xbee872fc	-0.45400226
251	0xbd8622e8	-0.065496266
252	0xbd7d2ed1	-0.061812226
253	0xbe186532	-0.14882353
254	0xbe6dea65	-0.23233946
255	0xbd0f83d6	-0.035037838

network_body._body_endoder.seq_layers.2.bias f4 [128]
0	0xbd1fbba0	-0.038997293
1	0xbd801c47	-0.062553935
2	0xbd9c2a75	-0.076252855
3	0xbd09c95f	-0.033639308
4	0x3ce192f3	0.027535891
5	0xbdcd2001	-0.1001587
6	0xbe46250d	-0.19350071
7	0xbda80f1c	-0.08206007
8	0xbe12e8bc	-0.14346594
9	0xbdf407eb	-0.11915573
10	0xbd47910b	-0.048722308
11	0xbb4a0a71	-0.0030828977
12	0xbd0ffecd	-0.035155106
13	0xbdc83112	-0.097749844
14	0xbd220d8f	-0.03956371
15	0xbe131b89	-0.14365973
16	0xbd967464	-0.073464185
17	0xbe18b1e7	-0.14911614
18	0xbc172c4b	-0.009226869
19	0x3d5c4d42	0.053784616
20	0xbe8204de	-0.25394338
21	0xbe3eae43	-0.18621163
22	0xbdd07fa1	-0.10180593
23	0xbd05602b	-0.032562416
24	0xbd9cf62f	-0.07664143
25	0x3de3632b	0.11102899
26	0xbdec5581	-0.11539746
27	0xbddbc06c	-0.10730061
28	0xbde25018	-0.11050433
29	0xbe678e76	-0.22612938
30	0x3bfb4876	0.00766855
31	0xbcd52747	-0.026019705
32	0xbdd6848a	-0.104744986
33	0x3e58d457	0.21174751
34	0x3b204b30	0.0024458878
35	0x3d968061	0.07348705
36	0xbca324ba	-0.019914974
37	0xbc34e516	-0.0110409465
38	0xbdc69eef	-0.09698283
39	0xbe488818	-0.19583166
40	0xbdcead45	-0.10091642
41	0xbe47fb03	-0.19529347
42	0xbda33e23	-0.07970836
43	0xbdde2cf8	-0.10848421
44	0xbe12c098	-0.14331281
45	0xbe7a708d	-0.24456997
46	0xbd546ffa	-0.0518646
47	0xbde0c77a	-0.10975547
48	0xbc7e11b3	-0.0155071495
49	0xbdf84788	-0.121230185
50	0xbc8f28c1	-0.017475488
51	0xbe2cde59	-0.16881694
52	0xbdafc359	-0.085821815
53	0xbea67e05	-0.3251802
54	0x3d68c467	0.05682793
55	0xbe02f930	-0.1279037
56	0xbbca7d50	-0.006179489
57	0xbe59fef1	-0.21288659
58	0xbd506702	-0.050879486
59	0x3d981379	0.07425589
60	0x3e347de5	0.1762615
61	0xbdb135ee	-0.086528644
62	0x3cf6f103	0.03014422
63	0x3d83cdcd	0.06435738
64	0xbdcc2fc4	-0.09970048
65	0xbc6e3564	-0.0145390965
66	0xbcc635d0	-0.024195582
67	0xbdc84701	-0.09779168
68	0x3d971539	0.07377095
69	0xbdc840a0	-0.09777951
70	0xba2650d2	-0.00063444406
71	0xbe0ca13b	-0.1373338
72	0xbda3cdf5	-0.079982676
73	0xbe187136	-0.14886937
74	0xbcb1c15a	-0.021698643
75	0xbe0037cf	-0.1252129
76	0xbdb818d1	-0.08989108
77	0x3dd50af7	0.10402482
78	0xbdb34f8c	-0.08755407
79	0xbe2606af	-0.16213487
80	0x3d8ff73f	0.0702958
81	0xbd2ed4c3	-0.042683374
82	0xbc9f03dd	-0.019411022
83	0x3d6d6bb8	0.057964057
84	0x3cb0f3b8	0.02160059
85	0x3d742cff	0.059613224
86	0xbd092cca	-0.03348998
87	0xbe4da080	-0.20080757
88	0xbe0701cc	-0.13184279
89	0xbcbfc994	-0.02341155
90	0xbe715e52	-0.23571137
91	0xbe192b59	-0.14957942
92	0xbdf1ab8f	-0.118003
93	0xbce4b8f5	-0.027920226
94	0xbde0e584	-0.10981277
95	0xbd2d10fd	-0.04225253
96	0xbd1bc9fd	-0.038034428
97	0xbcf59a52	-0.029980812
98	0xbda57dfd	-0.08080671
99	0xbe1e5cbf	-0.15465067
100	0xbc6b763d	-0.014371452
101	0xbc599c2c	-0.013281863
102	0xbdb843f2	-0.089973345
103	0x3da821d5	0.08209578
104	0xbdc33674	-0.095318705
105	0x3cc55165	0.024086663
106	0x3d787b3f	0.06066441
107	0xbd64f671	-0.055899087
108	0xbe45465e	-0.19265124
109	0x3dbb9d6b	0.091608845
110	0xbe17f412	-0.14839199
111	0xbdf9557c	-0.12174508
112	0xbc9520a0	-0.018204033
113	0xbda4191a	-0.080126
114	0xbbd962e6	-0.006634104
115	0xbe2a52dd	-0.16633172
116	0xbd85b45c	-0.065285414
117	0xbdccdb9f	-0.10002827
118	0xbd8fe46f	-0.07025992
119	0xbe6c3ccb	-0.23070066
120	0xbdafece6	-0.08590107
121	0xbdfd4ced	-0.12368188
122	0xbcee1748	-0.029063836
123	0xbdc0a529	-0.09406502
124	0xbdb638ed	-0.088975765
125	0xbdbf95a6	-0.09354715
126	0xbcc8ef9a	-0.024528313
127	0xbd41640a	-0.047214545

action_model._continuous_distribution.log_sigma f4 [1, 2]
0	0xbf74eacb	-0.95670766
1	0xbf65bed9	-0.89744335

action_model._continuous_distribution.mu.weight f4 [2, 128]
0	0xbd1210ce	-0.035660557
1	0x3deae871	0.11470116
2	0x3da7255b	0.08161422
3	0x3d85cda4	0.065333635
4	0xbd8053ef	-0.06266009
5	0x3d19251d	0.03738891
6	0x3bd43d08	0.006477002
7	0xbdf6d60a	-0.120525435
8	0xbd8ffb5e	-0.07030366
9	0xbe0efcac	-0.13963574
10	0x3e88d2ad	0.26723233
11	0x3cac90c3	0.021065122
12	0xbdc67676	-0.096905634
13	0x3d1fd31c	0.03901969
14	0x3d5e59a7	0.054284718
15	0x3d9628cf	0.07332002
16	0x3dd5a1d5	0.10431258
17	0xbe0b4484	-0.13600355
18	0x3e80f9d5	0.25190607
19	0x399a72b8	0.0002945864
20	0xbd20275f	-0.039100047
21	0x3e0d60f9	0.13806523
22	0xbcc60840	-0.024173856
23	0x3db69bb5	0.089164175
24	0x3e08898d	0.13333721
25	0xbe2475df	-0.16060589
26	0xbdd70232	-0.104984656
27	0x3cb85e40	0.02250588
28	0xbcaf3726	-0.021388602
29	0x3dd84d58	0.10561627
30	0x3e4ec6ed	0.20193072
31	0x3e33b1ec	0.1754834
32	0xbc99179a	-0.018688012
33	0xbd4e896f	-0.050424036
34	0x3d84a343	0.06476452
35	0x3d83b61a	0.064312175
36	0x3be8e6e0	0.0071076006
37	0x3e39d1cc	0.18146437
38	0x3d1b9273	0.03798146
39	0x3c197cc9	0.00936813
40	0x3c2f7042	0.010707917
41	0x3bfd6cb9	0.007733908
42	0x3ccab8a6	0.02474625
43	0x3c30fd4a	0.010802576
44	0x3da0308d	0.0782176
45	0x3d69859d	0.05701219
46	0x3dd0f4cd	0.10202942
47	0xbdf7c914	-0.120988995
48	0xbd4d2672	-0.050085492
49	0xbd7133a1	-0.058887128
50	0xbe5c1433	-0.2149208
51	0x3cb1dc47	0.021711482
52	0x3dfba149	0.12286622
53	0xbcaaee8d	-0.020865703
54	0x3da20c8f	0.079125516
55	0x3e008d2a	0.1255385
56	0xbe026893	-0.12735204
57	0xbc950f41	-0.01819575
58	0xbe4f1637	-0.20223318
59	0x3d1f4021	0.038879517
60	0x3cae1b9d	0.021253401
61	0x3de0044f	0.10938322
62	0xbd1a98b9	-0.037743304
63	0x3d6e6e7e	0.058210842
64	0xbd98aac9	-0.0745445
65	0x3e0e1a38	0.13877189
66	0x3e3781d5	0.1792062
67	0xbc8f258b	-0.017473957
68	0xbd5d8e46	-0.05409076
69	0xbe10cf39	-0.14141549
70	0x3bf98a57	0.0076153683
71	0xbd28d9b6	-0.04122325
72	0x3da25caa	0.079278305
73	0x3dce7152	0.10080208
74	0x3d9dcf88	0.07705599
75	0x3c07f67e	0.008298514
76	0xbc232605	-0.009957795
77	0x3d2d3e00	0.042295456
78	0xbcb18c09	-0.02167322
79	0xbc274b59	-0.010210835
80	0x3e6ba980	0.23013878
81	0x3e036b3a	0.12833872
82	0xbd508a5b	-0.050913196
83	0xbdde31ee	-0.10849367
84	0xbd5adc30	-0.053432643
85	0x3d63d3e1	0.055621985
86	0x3c257b1f	0.010100155
87	0xbc6f471d	-0.014604357
88	0xbd33aab4	-0.043863967
89	0x3c8b2634	0.01698599
90	0xbdaaf0fa	-0.08346744
91	0x3dfe1205	0.12405781
92	0x3df3b3ad	0.11899505
93	0x3db79e77	0.08965772
94	0x3e004a08	0.1252824
95	0x3dd01a09	0.10161216
96	0xbdc313c5	-0.09525255
97	0x3dcbcdf1	0.099513896
98	0x3e0d683b	0.13809292
99	0xbdb8a4a6	-0.09015779
100	0xbde6a17e	-0.11261271
101	0x3bdc7e1e	0.0067289015
102	0x3d2e357a	0.042531468
103	0xbbbcba5a	-0.0057595195
104	0xbd5a0e9f	-0.0532366
105	0x3d25b557	0.040456142
106	0x3d82d29e	0.06387828
107	0xbcf6d09d	-0.030128771
108	0x3c867e15	0.016417542
109	0x3d9951d2	0.07486309
110	0xbde7e9d0	-0.11323893
111	0xbd19d8b9	-0.0375602
112	0x3c4aced5	0.012378414
113	0x3ddf4742	0.10902263
114	0x3db7be99	0.089719005
115	0xbbd7a0a9	-0.0065804315
116	0xbcfffd5a	-0.031248737
117	0x3cba733a	0.022760022
118	0xbd8b06ff	-0.06788444
119	0x3c612642	0.0137420315
120	0x3deefef8	0.11669725
121	0x3e275cbf	0.16343974
122	0xbd700cdb	-0.05860601
123	0x3dca8b97	0.09889906
124	0xbdb5da93	-0.0887958
125	0x3e52da8b	0.2059118
126	0xbde1e497	-0.11029928
127	0xbde43be8	-0.11144239
128	0xbdb8efde	-0.09030126
129	0xbdad2b07	-0.084554724
130	0xbc99cb17	-0.018773599
131	0xbe44554c	-0.19173163
132	0x3e175939	0.1478013
133	0x3dded05c	0.10879585
134	0xbe03c3ce	-0.12867662
135	0x3d99e888	0.07515055
136	0xbd28f42f	-0.041248497
137	0x3d854d4f	0.06508886
138	0xbd2994dd	-0.041401733
139	0xbd4d3474	-0.05009885
140	0x3d2fd456	0.04292711
141	0xbd8f7b70	-0.07005966
142	0xbd9fafc5	-0.07797197
143	0x3b69ccc4	0.0035675028
144	0xbe84f48d	-0.25967827
145	0x3d9d98e7	0.076951794
146	0xbd4241f7	-0.04742619
147	0x3d5e493c	0.05426906
148	0x3dc805b6	0.09766714
149	0xbe834ce7	-0.2564461
150	0xbe171dc6	-0.14757451
151	0xbc57db60	-0.013174862
152	0xbdae62ed	-0.08514962
153	0xbd75ecaf	-0.060040172
154	0xbd8367ca	-0.064162806
155	0xbe5fef55	-0.21868642
156	0x3dcb5b12	0.0992948
157	0xbdb5e3ab	-0.08881315
158	0xbe3d117c	-0.18463701
159	0xbe0f8d5e	-0.14018771
160	0xbdf346f2	-0.11878766
161	0x3e2fbdc6	0.17162237
162	0x3dad6d11	0.084680684
163	0x3e09c36c	0.13453454
164	0xbdbad935	-0.0912346
165	0xbbaaf69d	-0.005217387
166	0xbe9f2163	-0.3108016
167	0xbe64a7ea	-0.22329679
168	0xbe05b46a	-0.13057104
169	0xbe3bec24	-0.18351799
170	0xbe33b345	-0.17548855
171	0xbd8287c3	-0.06373551
172	0xbe0b5829	-0.13607849
173	0x3d9f3c14	0.07775131
174	0x3cf9f87d	0.030513996
175	0xbd81b3c9	-0.063331194
176	0x3d7c6a40	0.061624765
177	0xbdee1003	-0.11624148
178	0x3e1986f4	0.14992887
179	0xbdff2d1f	-0.12459778
180	0x3e153deb	0.14574401
181	0xbb2add57	-0.002607187
182	0x3cb36b9c	0.021901898
183	0xbe2f13f0	-0.1709745
184	0x3e17f6be	0.14840218
185	0xbde9066c	-0.11378178
186	0x3e1c7440	0.15278721
187	0x3e1ebf7e	0.15502736
188	0x3ccfe4bd	0.025377626
189	0x3e1f8906	0.15579614
190	0x3e562679	0.20913114
191	0x3d13d132	0.036088176
192	0x3d24f7e6	0.040275477
193	0x3cd6bc6b	0.026212892
194	0xbe26eb71	-0.16300751
195	0xbda50807	-0.08058172
196	0x3d9df48f	0.077126615
197	0x3decb751	0.11558402
198	0x3dc55151	0.096346505
199	0xbe20a492	-0.15687779
200	0xbe1ae6fc	-0.15127176
201	0xbd81b9ba	-0.06334253
202	0xbcd45edb	-0.025924137
203	0xbd1423e7	-0.03616705
204	0xbd62fae6	-0.055415057
205	0x3e32ce84	0.17461592
206	0xbe359840	-0.1773386
207	0xbd9c8408	-0.076423705
208	0x3d0170bb	0.03160165
209	0xbdf97664	-0.12180784
210	0x3dc16333	0.09442749
211	0xbe0c88b0	-0.13724017
212	0xbdccd317	-0.100012
213	0x3ca28b86	0.01984192
214	0xbe0078e5	-0.12546118
215	0xbd8ec90b	-0.0697194
216	0xbe5324c1	-0.20619489
217	0x3e363418	0.1779331
218	0xbbb133a2	-0.0054077664
219	0xbdadf0db	-0.08493205
220	0xbea33163	-0.31873617
221	0xbc734aa5	-0.01484934
222	0xbdd1f75a	-0.10252257
223	0xbdb1aab3	-0.086751364
224	0x3cb4ba16	0.022061389
225	0xbd64d9e8	-0.055871874
226	0xbd9d3d98	-0.07677764
227	0xbd730a90	-0.059336245
228	0x3c76f221	0.0150723765
229	0xbe373f53	-0.1789525
230	0x3d701a01	0.05861855
231	0xbd84e2b7	-0.06488555
232	0xbc89db61	-0.01682824
233	0xbc2fb3fc	-0.010724064
234	0x3caffd5a	0.021483112
235	0xbdee006c	-0.11621174
236	0x3cb23f42	0.02175868
237	0x3df3ca54	0.119038254
238	0xbdd53a55	-0.104115166
239	0xbe5723f1	-0.21009804
240	0x3cda91b6	0.026680809
241	0xbb6e8d4c	-0.0036400137
242	0x3d1b3c2c	0.03789918
243	0xbea04244	-0.31300557
244	0xbe6b89b9	-0.23001756
245	0xbdf805e8	-0.121105015
246	0xbd024198	-0.031800836
247	0xbdc2f4df	-0.09519362
248	0xbde87015	-0.11349503
249	0xbe5efc3d	-0.21775909
250	0xbd074050	-0.033020318
251	0xbd0f53da	-0.034992076
252	0xbdadadf5	-0.08480445
253	0xbd38b109	-0.04509071
254	0xbcf88480	-0.030336618
255	0xbc04a7d5	-0.008096655

action_model._continuous_distribution.mu.bias f4 [2]
0	0xbd7b0bd6	-0.061290585
1	0x3e2c09f4	0.16800672

action_model._discrete_distribution.branches.0.weight f4 [1, 128]
0	0xbbc895a8	-0.006121356
1	0xbb96cc0f	-0.0046019624
2	0x3c5f7d75	0.013640751
3	0x3b917024	0.004438417
4	0xbb9f95c4	-0.0048701484
5	0x3b19a866	0.002344632
6	0x3b894508	0.0041891374
7	0x3a0e7b6a	0.000543526
8	0xba1ed10f	-0.0006058374
9	0x3b53e2f7	0.0032331327
10	0xbc0c64bd	-0.00856894
11	0xbb41705d	-0.0029516437
12	0x3bf94678	0.0076072775
13	0xba2786ef	-0.0006390651
14	0xbc1140e3	-0.008865568
15	0xba17cb21	-0.00057904614
16	0xbc9ca08d	-0.019119525
17	0xbb259557	-0.0025266015
18	0x3cbb81c1	0.02288902
19	0xbbf2a0d5	-0.0074044266
20	0xbb3d9ff0	-0.0028934442
21	0x3c972ae9	0.018453078
22	0x3b19dc4a	0.002347725
23	0x3c337e8f	0.010955467
24	0x3b25f432	0.0025322554
25	0xba13505a	-0.00056195783
26	0xbc3b89a9	-0.011446395
27	0xb90c3f95	-0.00013375127
28	0xbc3ba2f2	-0.011452423
29	0xbc92a487	-0.017900718
30	0x3ab98530	0.0014154073
31	0x3b5e10c7	0.0033884512
32	0xba6a961b	-0.0008948759
33	0xbb584f9b	-0.0033006433
34	0x39e59ff8	0.0004379747
35	0xb9721dab	-0.0002308997
36	0x3adea5df	0.0016986689
37	0xbbf32187	-0.0074197683
38	0x3bd0915f	0.006364986
39	0x3bcdece3	0.0062843426
40	0xbc8b7909	-0.017025487
41	0x3c06cb69	0.008227208
42	0x3c503c3d	0.012709674
43	0xbb88d1aa	-0.0041753845
44	0x3c1c8f57	0.009555659
45	0x3c753c78	0.01496803
46	0x3bcf42eb	0.006325116
47	0xbc47be5b	-0.01219138
48	0xbc4afdfd	-0.012389657
49	0x3b0a8572	0.0021136669
50	0x3c31c6cf	0.010850622
51	0x3b5fddb8	0.0034159254
52	0xb958b035	-0.00020665007
53	0x3b0498e5	0.0020232734
54	0x3c26033a	0.010132605
55	0x3b5bf09d	0.0033560165
56	0xbc64e3f0	-0.01397036
57	0xbc8e25cb	-0.017352005
58	0x3b2926be	0.0025810446
59	0x3acb02e5	0.0015488534
60	0xbb542e58	-0.0032376256
61	0xbc19411e	-0.009353904
62	0xbc489ff2	-0.012245165
63	0x3aa82816	0.0012829329
64	0x3c3555ef	0.011067851
65	0xbbbc9bda	-0.0057558836
66	0x3c142301	0.009041549
67	0xbb88cc53	-0.004174748
68	0xb9171119	-0.00014406852
69	0xbbeed55a	-0.007288617
70	0xb9919b9e	-0.000277725
71	0x3c6d9123	0.014499935
72	0x3cd12c80	0.025533915
73	0xbc688b27	-0.014193333
74	0xbb5a059b	-0.0033267501
75	0x3c0bab6e	0.008524759
76	0x3b12e54e	0.0022414508
77	0xbc3cabff	-0.011515616
78	0x3c63c07d	0.013900873
79	0x3ac5d27a	0.0015092634
80	0x3a356371	0.000691942
81	0x3b339bc8	0.0027406085
82	0xb948c753	-0.0001914774
83	0xb929d305	-0.00016195707
84	0xbbca566c	-0.006174853
85	0x3b19ec2d	0.002348672
86	0xbb258fe4	-0.0025262767
87	0x3b074d5b	0.0020645473
88	0xbc0eeecb	-0.008723925
89	0x3bb7dfdb	0.0056114024
90	0xbb99a58a	-0.0046889232
91	0x3c710b35	0.014712145
92	0x3ae84e88	0.00177236
93	0xbb15b96b	-0.0022846113
94	0xba80ac1d	-0.0009816919
95	0x3c66dfcb	0.014091442
96	0x3b362cbb	0.0027797658
97	0x3b98b298	0.004659962
98	0x3b04d450	0.002026815
99	0xbbc6cd69	-0.0060669673
100	0x3c1d3154	0.00959428
101	0xbb89536e	-0.004190854
102	0x3bf44215	0.0074541667
103	0xbb35be3c	-0.0027731797
104	0x3c34bc18	0.011031173
105	0xbae58400	-0.0017510653
106	0x3b93d106	0.0045110015
107	0xbb455ba9	-0.0030114448
108	0xb8525beb	-5.0153507e-05
109	0xb99b7843	-0.00029653506
110	0x3c92101f	0.017829953
111	0x3b798615	0.0038074304
112	0xbba5ae7a	-0.0050561996
113	0x3c2581ae	0.010101719
114	0xbc35a1db	-0.011085953
115	0x3c03e30c	0.008049738
116	0x3a97d916	0.0011585082
117	0xbbf8a777	-0.0075883227
118	0xba784e67	-0.0009472132
119	0xbbfc567a	-0.0077007385
120	0xbbf732bb	-0.0075438893
121	0x3b2058cb	0.0024466987
122	0xbbdd52e7	-0.0067542675
123	0xbb65b288	-0.003504904
124	0xbbee5df3	-0.007274383
125	0xbc4f4c83	-0.012652519
126	0xbb54dc33	-0.0032479882
127	0x3b07f564	0.002074563

exp_avg f4 [128, 12]
0	0xbc61c35f	-0.01377949
1	0xbb773776	-0.0037722266
2	0xbd3b8e59	-0.04579005
3	0x3b445250	0.0029956289
4	0xbb773809	-0.0037722609
5	0xbd679947	-0.05654266
6	0xbba71868	-0.005099345
7	0x3b967440	0.004591495
8	0xb6d17dba	-6.243322e-06
9	0xbc05e2c0	-0.008171737
10	0xbbded526	-0.0068003116
11	0x3c99592e	0.018719282
12	0x3b49ad20	0.0030773357
13	0x3aa81042	0.0012822228
14	0x3c6d5b99	0.014487171
15	0xbb39dba6	-0.002835968
16	0x3aa80f52	0.0012821949
17	0x3cc5d448	0.024149075
18	0x3bbcbc3e	0.005759745
19	0x3aa9cb9f	0.001295436
20	0x392923e8	0.00016130472
21	0xbc13fe1b	-0.009032751
22	0x3c0c137e	0.008549569
23	0xbb7d430e	-0.0038644704
24	0x3bea9dc5	0.007159921
25	0x3b01fba9	0.001983384
26	0x3cc50a5b	0.02405279
27	0xbbdfdf4f	-0.0068320404
28	0x3b01fbd3	0.0019833937
29	0x3cd69045	0.02619184
30	0xbc535ffd	-0.012901303
31	0x3b8629dc	0.0040943455
32	0x37858b15	1.59196e-05
33	0xbc6a4639	-0.014298969
34	0xbbacfb96	-0.005279015
35	0xbb9a4a8a	-0.004708593
36	0x3aad488a	0.0013220471
37	0x39bc1b7e	0.00035878638
38	0x3b8e3720	0.0043400675
39	0xbaff2464	-0.0019465801
40	0x39bc1b94	0.00035878702
41	0x3b3db09c	0.0028944379
42	0xbba4b484	-0.005026402
43	0x3a60b354	0.0008571644
44	0x3562620b	8.433423e-07
45	0x3a640525	0.00086982764
46	0xbb7dfde6	-0.0038756072
47	0xba3f8e3c	-0.00073072664
48	0xbd28189c	-0.041039094
49	0xbc2ccaa1	-0.010546357
50	0xbe02c380	-0.1276989
51	0x3d16a639	0.036779616
52	0xbc2cd0b4	-0.010547806
53	0xbdcef8c0	-0.10106039
54	0x3d91b6fd	0.0711498
55	0x3c34fadc	0.011046138
56	0x396014ec	0.00021370099
57	0xbcddcdd5	-0.027075687
58	0x3d7a3564	0.061086074
59	0x3d5ef39a	0.054431535
60	0xbbe87478	-0.0070939623
61	0xbaade45d	-0.001326691
62	0xbc76056e	-0.015015943
63	0x3b194e22	0.0023392518
64	0xbaade47a	-0.0013266944
65	0xbc8e9ba6	-0.017408203
66	0xbb4a868b	-0.0030902948
67	0x3b017d85	0.0019758653
68	0xb7fdca5e	-3.0254185e-05
69	0xbbc955f7	-0.006144281
70	0xb9ded17a	-0.00042499212
71	0x39dded9d	0.0004232944
72	0x3c815adb	0.015790394
73	0x3a8cf46a	0.0010753993
74	0x3c358bb0	0.011080667
75	0x3ad472d7	0.0016208541
76	0x3a8cfe3c	0.001075692
77	0x3bea12c2	0.0071433494
78	0x3ad8f988	0.0016553858
79	0xbc43d082	-0.011951568
80	0xba6e4321	-0.00090889825
81	0x3c1a9862	0.009435745
82	0xbbda50f6	-0.0066624833
83	0xbc3abe00	-0.011397839
84	0x3a0a6ea0	0.00052807666
85	0xbb202694	-0.0024437057
86	0xbcf3e3d9	-0.029771732
87	0x3bd41ffa	0.0064735385
88	0xbb2038b5	-0.0024447863
89	0xbcfabeb9	-0.030608522
90	0xbb3c7296	-0.0028754822
91	0x3b640878	0.0034795087
92	0xb9ed9ab0	-0.00045319414
93	0x3bcae58d	0.0061919154
94	0x3b6aaf77	0.0035810152
95	0x3c27e320	0.010247022
96	0x3a9f4836	0.0012152258
97	0x3a96d48b	0.0011507435
98	0x3c628d22	0.013827594
99	0xbb34d493	-0.0027592524
100	0x3a96d4d8	0.0011507524
101	0x3c571cc9	0.0131294215
102	0xbba50ecb	-0.005037164
103	0xba8bbc23	-0.0010660928
104	0x3963241e	0.00021661862
105	0x3a9ad960	0.001181405
106	0xbb6b8ca5	-0.0035941985
107	0xbbae7ff1	-0.0053253104
108	0x399ad13f	0.0002952907
109	0x38d34c69	0.000100754965
110	0x3a96feda	0.0011520043
111	0xb8335a28	-4.276089e-05
112	0x38d34cde	0.00010075582
113	0x3acc8ce9	0.0015605959
114	0x3aa351f0	0.0012460332
115	0xb982ef51	-0.00024973837
116	0x372e5346	1.0390597e-05
117	0xba746984	-0.00093235844
118	0x39908704	0.00027566415
119	0xba87344d	-0.001031527
120	0xbc00f24d	-0.007870269
121	0xbb26d3f7	-0.002545593
122	0xbd00c814	-0.03144081
123	0x3929c3a0	0.00016189972
124	0xbb26d37a	-0.002545564
125	0xbd263cc2	-0.040585287
126	0xbc7f52c3	-0.015583697
127	0x3baa014b	0.0051881424
128	0x3874bed2	5.835185e-05
129	0xbc83c173	-0.016083455
130	0xbb591864	-0.003312611
131	0xbaf0dc5e	-0.0018376221
132	0xbc0df482	-0.008664252
133	0xbb55e3e0	-0.0032637045
134	0xbd25579d	-0.040366758
135	0x3c32bcea	0.010909298
136	0xbb55e516	-0.0032637767
137	0xbd30001d	-0.042968858
138	0x3c6cd5fc	0.014455315
139	0xbb47e5ac	-0.0030501885
140	0xb985192c	-0.0002538649
141	0xbb4012de	-0.002930812
142	0xbaa273a9	-0.0012394089
143	0x3afd680c	0.0019333377
144	0x3c038af2	0.008028733
145	0x3b897cb8	0.004195776
146	0x3d565d56	0.052335106
147	0xbb11e3e5	-0.002226108
148	0x3b897b0d	0.004195577
149	0x3d90936b	0.07059368
150	0x3c8b0824	0.016971655
151	0xbb8247ba	-0.0039758356
152	0x39d6af74	0.00040947984
153	0x3c0234bf	0.007947146
154	0x3c9952b5	0.018716196
155	0xbc837a71	-0.016049596
156	0x38257f5c	3.945768e-05
157	0x388bac72	6.660157e-05
158	0x3a5c0569	0.000839314
159	0xb9b1bf7a	-0.00033902732
160	0x388ba808	6.659335e-05
161	0x3a8e9e59	0.0010880932
162	0xba7a0441	-0.0009537377
163	0x3a0b0550	0.0005303221
164	0x37593bbd	1.2948117e-05
165	0x38e70805	0.00011016432
166	0x38c0bcd4	9.1904454e-05
167	0x3a01006e	0.00049210235
168	0xbc1aa824	-0.009439502
169	0x3a32084f	0.0006791399
170	0x3c1e6420	0.009667426
171	0x3c6ffbf8	0.014647476
172	0x3a31c38e	0.0006781154
173	0x3d4fa64a	0.050695695
174	0x3d41568d	0.047201682
175	0x3a1a21ec	0.00058796885
176	0x3a80b608	0.0009819875
177	0xbc21343b	-0.009839113
178	0x3d5c595c	0.053796157
179	0x3c049394	0.008091826
180	0x38ae4158	8.309138e-05
181	0xb806a380	-3.210036e-05
182	0xb9f9a560	-0.00047616195
183	0xb8e647ec	-0.00010980651
184	0xb806a530	-3.2101932e-05
185	0xba3699ec	-0.0006965685
186	0xb922083b	-0.0001545259
187	0xb8c7cf00	-9.527616e-05
188	0xb7357079	-1.0814628e-05
189	0x3927e4ba	0.00016011568
190	0xba58a56e	-0.0008264397
191	0xb68f3180	-4.2674947e-06
192	0xbaf65868	-0.0018794658
193	0xba068036	-0.0005130799
194	0xbbcbc384	-0.0062183756
195	0x39113c7b	0.00013850808
196	0xba06804d	-0.00051308126
197	0xbc1213ed	-0.0089158835
198	0xbb2e5f8b	-0.002660724
199	0x3a017296	0.0004938034
200	0xb4dfef64	-4.1711166e-07
201	0x3a8d77ca	0.0010793146
202	0xbb311114	-0.0027018236
203	0x3a913d27	0.0011080847
204	0xb9a5028a	-0.00031473144
205	0xb994eede	-0.0002840673
206	0xbb5d4d4d	-0.0033767999
207	0x38c74ede	9.5037496e-05
208	0xb994ef08	-0.00028406852
209	0xbb88a4b8	-0.0041700266
210	0xba2e31c4	-0.0006644989
211	0x3a56ed2d	0.0008198794
212	0xb88bbaf0	-6.662856e-05
213	0xba3c10ae	-0.00071741163
214	0xba53ee96	-0.00080845633
215	0x3a7f8a9e	0.00097481336
216	0x3b8af7f9	0.0042409864
217	0xba90ef38	-0.0011057621
218	0xbc4da256	-0.012550911
219	0x3c5281f8	0.01284837
220	0xba90f638	-0.0011059707
221	0xbae19d20	-0.0017212965
222	0x3d14ddaa	0.036344208
223	0xbb4f662a	-0.0031646588
224	0xb9cd214f	-0.00039125464
225	0x3c93f397	0.018060489
226	0x3c88f4f0	0.016718358
227	0x3bde0677	0.006775673
228	0x3c653cf6	0.013991585
229	0x3b5d8d14	0.0033806013
230	0x3d26a54e	0.04068499
231	0xbc29b654	-0.010358412
232	0x3b5d9783	0.0033812232
233	0x3d2a25f3	0.041540097
234	0xbc8356c3	-0.016032582
235	0x3b688212	0.0035477919
236	0xb8e2dcf2	-0.00010817674
237	0xbad5b11c	-0.0016303393
238	0xbc7081c9	-0.014679381
239	0xbc4efd65	-0.012633656
240	0xbcdc29e8	-0.026875451
241	0xbb4145d1	-0.0029491077
242	0xbd030ecc	-0.031996533
243	0x3c8c9d44	0.017164834
244	0xbb41560a	-0.0029500746
245	0xbbbe1870	-0.005801253
246	0x3d3649e3	0.044504058
247	0x3c02451d	0.007951048
248	0x3aae4ac9	0.0013297434
249	0xbc19eaa6	-0.009394323
250	0x3d315145	0.043290395
251	0x3cc4116c	0.023934089
252	0xbb8627cd	-0.0040941
253	0xba92406b	-0.0011158114
254	0xbc5da74e	-0.013528658
255	0x3a8eab2b	0.0010884752

exp_avg_sq f4 [128, 12]
0	0x3c809fe8	0.01570125
1	0x39269b0f	0.00015888757
2	0x3d581241	0.052751783
3	0x3bd2cdab	0.006433209
4	0x3925ad74	0.00015800243
5	0x3d18d237	0.03730985
6	0x3b9494d5	0.0045343437
7	0x3b710137	0.0036774406
8	0x3936b7c3	0.00017425329
9	0x3b3b1802	0.0028548245
10	0x3adceb15	0.0016854728
11	0x3bb81e2a	0.00561883
12	0x3d1a9462	0.037739165
13	0x39405426	0.00018341895
14	0x3da75335	0.08170167
15	0x3c20222d	0.009773773
16	0x393f9387	0.00018270138
17	0x3da80b9b	0.082053386
18	0x3be40bab	0.0069593987
19	0x3c290a70	0.01031743
20	0x3903b468	0.0001256034
21	0x3b9cfefa	0.0047911378
22	0x3bd6cc83	0.0065551414
23	0x3bb7d418	0.0056100003
24	0x3cb382af	0.0219129
25	0x3929a5f4	0.00016178918
26	0x3d7da907	0.061928775
27	0x3c7c97dd	0.015417066
28	0x3925a96e	0.00015798744
29	0x3d565ae9	0.052332792
30	0x3c34bbac	0.011031073
31	0x3c38b5ad	0.011273784
32	0x3924b174	0.00015706365
33	0x3b5dc464	0.0033838982
34	0x3b59f8d9	0.0033259897
35	0x3bc7e23e	0.006099968
36	0x3aca47d4	0.0015432783
37	0x36d6b923	6.3992497e-06
38	0x3b13b4b5	0.002253813
39	0x39e137b8	0.00042956858
40	0x36d4c33a	6.3408197e-06
41	0x3ab11410	0.0013510007
42	0x39955322	0.00028481433
43	0x395bd99a	0.0002096653
44	0x36fcbd86	7.5322487e-06
45	0x393b3344	0.00017852808
46	0x38ddf4f8	0.0001058373
47	0x391f2238	0.00015176169
48	0x3d7996c8	0.06093481
49	0x39a7bfbf	0.00031995584
50	0x3de3b952	0.111193314
51	0x3c951bff	0.018201826
52	0x39a6ac55	0.00031790385
53	0x3dffe4be	0.12494801
54	0x3c11fc4f	0.008910253
55	0x3c81f028	0.015861586
56	0x3a15af00	0.0005709976
57	0x3bdbdcc6	0.006709668
58	0x3be92020	0.0071144253
59	0x3c13051c	0.008973386
60	0x3c43308d	0.011913431
61	0x385e1199	5.2945314e-05
62	0x3c55bf17	0.013046048
63	0x3b4cf355	0.0031272967
64	0x385db9f2	5.286368e-05
65	0x3c8037c9	0.0156516
66	0x3acb3b5b	0.001550536
67	0x3a1df6ad	0.0006025832
68	0x38c9f2e6	9.62967e-05
69	0x3a82d0a6	0.0009980395
70	0x3a6904b9	0.00088889484
71	0x3accd0b6	0.0015626166
72	0x3d5e212a	0.054230846
73	0x39725c74	0.0002311336
74	0x3d6a84be	0.0572555
75	0x3c1212bc	0.008915599
76	0x39722cdb	0.00023095628
77	0x3db05ba4	0.08611229
78	0x3b760936	0.0037542111
79	0x3b93bb69	0.004508425
80	0x39a811cb	0.00032056714
81	0x3bb37062	0.0054760436
82	0x3b5d393e	0.0033756043
83	0x3bc60bf2	0.0060439045
84	0x3d8ff028	0.07028228
85	0x39c534d0	0.00037614116
86	0x3dca3084	0.09872535
87	0x3d157e75	0.036497552
88	0x39c4aeb1	0.00037514188
89	0x3e06a229	0.13147797
90	0x3bdac125	0.0066758567
91	0x3c834d23	0.016027993
92	0x399ad9e6	0.00029535516
93	0x3c0b862a	0.008515874
94	0x3bd901db	0.0066225356
95	0x3c355b41	0.01106912
96	0x3c6c72f8	0.014431708
97	0x38153f23	3.558317e-05
98	0x3bdc30b8	0.006719675
99	0x3acff0a0	0.0015864559
100	0x3814a823	3.544254e-05
101	0x3c15711a	0.009121204
102	0x3a3c52e8	0.0007183985
103	0x39cf94b1	0.000395929
104	0x384dbbd2	4.905073e-05
105	0x3a5160f8	0.0007987167
106	0x3a450b64	0.0007516651
107	0x3aa7c2aa	0.0012799103
108	0x3b722f0e	0.0036954316
109	0x37d469a4	2.5321562e-05
110	0x3c0bf647	0.008542604
111	0x3aad96cf	0.0013243797
112	0x37d562a4	2.5437512e-05
113	0x3bd59862	0.0065184096
114	0x3ab22989	0.0013592701
115	0x3a4e8797	0.0007878481
116	0x377a608a	1.4923638e-05
117	0x3a0dd3d2	0.0005410287
118	0x39d1703d	0.0003994721
119	0x3a873f73	0.0010318592
120	0x3d607bc8	0.054805547
121	0x39844d24	0.00025234476
122	0x3db2181f	0.08696007
123	0x3c94fa57	0.018185778
124	0x398353c2	0.00025048672
125	0x3df72626	0.12067823
126	0x3c6c4d49	0.014422723
127	0x3c35fe30	0.011107966
128	0x394c822c	0.00019503449
129	0x3c0e0f3a	0.0086706225
130	0x3c1149f5	0.00886773
131	0x3c184a10	0.009295002
132	0x3d6c85a6	0.057744645
133	0x398d4dde	0.0002695163
134	0x3dbae21d	0.09125159
135	0x3c571a43	0.01312882
136	0x398d31de	0.0002693077
137	0x3de597ab	0.11210569
138	0x3bb4c707	0.00551689
139	0x3c4549fc	0.012041565
140	0x39db7b11	0.00041862627
141	0x3bf87fac	0.007583579
142	0x3baff530	0.005369805
143	0x3c06c7dd	0.008226362
144	0x3d077782	0.033072956
145	0x3916795a	0.00014350322
146	0x3d37e202	0.044893272
147	0x3bff474f	0.007790483
148	0x3915701c	0.00014251511
149	0x3d93a6b2	0.07209529
150	0x3b805102	0.003915907
151	0x3b01db17	0.0019814426
152	0x39667d8e	0.00021981282
153	0x3b8618b7	0.0040923017
154	0x3bb3d190	0.0054876283
155	0x3b8d1987	0.0043060216
156	0x3c09f3bb	0.008419926
157	0x37fffbdf	3.0515655e-05
158	0x3bce0354	0.006287018
159	0x3aad021c	0.0013199481
160	0x37fffc91	3.051598e-05
161	0x3c19ce76	0.009387603
162	0x3994f8e6	0.00028414204
163	0x39dad342	0.000417376
164	0x389ed4b4	7.573646e-05
165	0x3a055be9	0.0005087243
166	0x3a5a4300	0.0008326024
167	0x3a37c0a1	0.00070096
168	0x3d2d4950	0.042306244
169	0x3961ac84	0.00021521939
170	0x3d804f38	0.0626511
171	0x3c6ea4f9	0.0145657
172	0x3960dafa	0.0002144388
173	0x3dd2d615	0.10294739
174	0x3baa866a	0.0052040117
175	0x3bd9a5e5	0.0066420906
176	0x396b20f3	0.00022423621
177	0x3bcbfcfe	0.0062252274
178	0x3bb7fa67	0.005614567
179	0x3bd275af	0.0064227204
180	0x3abc382c	0.0014360002
181	0x3715cd9a	8.928962e-06
182	0x3b219917	0.00246579
183	0x39a7fcaf	0.00032040986
184	0x3715b9bd	8.924338e-06
185	0x3b1d8ebe	0.002404138
186	0x3934bb1b	0.0001723584
187	0x391b5f13	0.0001481737
188	0x3743725f	1.1649535e-05
189	0x390e1d26	0.00013553034
190	0x38f40dae	0.00011637375
191	0x3991ea4b	0.00027831117
192	0x3c74d24a	0.014942715
193	0x38442b48	4.677035e-05
194	0x3c4822c3	0.012215319
195	0x3b90bd4b	0.0044170967
196	0x38436316	4.6583904e-05
197	0x3ca0553c	0.019571893
198	0x3b4fc0d0	0.0031700619
199	0x3adf3da0	0.0017031915
200	0x390165f1	0.00012340375
201	0x3a7e58a4	0.00097025395
202	0x3adef7c2	0.0017011093
203	0x3ab79d98	0.0014008759
204	0x3c7230e0	0.0147821605
205	0x38816036	6.16912e-05
206	0x3c96d702	0.01841307
207	0x3b2b25c2	0.0026115035
208	0x38811fb2	6.157103e-05
209	0x3c907382	0.017633203
210	0x3a672ac1	0.00088183215
211	0x3a0848f2	0.0005198858
212	0x394a2e0a	0.00019281372
213	0x3a8b0d8a	0.0010608893
214	0x3a9f2739	0.0012142427
215	0x3aa90b04	0.001289696
216	0x3daa167b	0.08305069
217	0x39b02493	0.00033596586
218	0x3dc0a792	0.094069615
219	0x3c45d781	0.012075306
220	0x39afaa34	0.00033505412
221	0x3df9189a	0.121628955
222	0x3c07074a	0.008241484
223	0x3bf38f67	0.0074328664
224	0x39e2c376	0.0004325171
225	0x3c078ea3	0.008273753
226	0x3c0271e7	0.007961727
227	0x3c150c76	0.009097209
228	0x3c986aa6	0.018605541
229	0x38b97741	8.8437e-05
230	0x3ce7d1dc	0.028298311
231	0x3b84d1d0	0.004053332
232	0x38b8033c	8.774406e-05
233	0x3d29b7b1	0.041434947
234	0x3b0fd8f6	0.0021949387
235	0x3b8e3190	0.0043394044
236	0x391c3b6d	0.00014899457
237	0x3b08f430	0.00208975
238	0x3b437766	0.0029825806
239	0x3b2fc9a4	0.0026823068
240	0x3d45ac6f	0.04826015
241	0x396baba1	0.00022475283
242	0x3d96cf8f	0.073638074
243	0x3c6b9104	0.014377836
244	0x396a7ad5	0.00022361738
245	0x3db1d285	0.086827315
246	0x3bb472e4	0.00550686
247	0x3c05eb96	0.008173844
248	0x3989481e	0.00026184408
249	0x3ba6b892	0.0050879205
250	0x3bc449f0	0.0059902593
251	0x3ba6b8ad	0.005087933
252	0x3c540c11	0.01294233
253	0x388e7b42	6.794046e-05
254	0x3cc98ed2	0.024604235
255	0x3baf7a39	0.0053551462

exp_avg f4 [128]
0	0xbbf73776	-0.0075444533
1	0x3b281042	0.0025644456
2	0x3b81fba9	0.003966768
3	0x3a3c1b7e	0.00071757275
4	0xbcaccaa1	-0.021092715
5	0xbb2de45d	-0.002653382
6	0x3b0cf46a	0.0021507987
7	0xbba02694	-0.0048874114
8	0x3b16d48b	0.002301487
9	0x39534c69	0.00020150993
10	0xbba6d3f7	-0.005091186
11	0xbbd5e3e0	-0.006527409
12	0x3c097cb8	0.008391552
13	0x390bac72	0.00013320314
14	0x3ab2084f	0.0013582798
15	0xb886a380	-6.420072e-05
16	0xba868036	-0.0010261599
17	0xba14eede	-0.0005681346
18	0xbb10ef38	-0.0022115242
19	0x3bdd8d14	0.0067612026
20	0xbbc145d1	-0.0058982153
21	0xbb12406b	-0.0022316228
22	0x398c9bd0	0.0002681897
23	0x3bdaaacd	0.006673193
24	0x3be3d102	0.006952406
25	0x3c023a05	0.007948403
26	0xbbbf42f2	-0.005836838
27	0xbba86bfe	-0.005139827
28	0x3cb5c135	0.022186855
29	0x3bb4e27f	0.0055201645
30	0xb942a240	-0.00018561725
31	0xba9b248c	-0.0011836453
32	0xbb8c108a	-0.0042744325
33	0x3b31fc88	0.0027158577
34	0xbc2eebf0	-0.010676369
35	0x39eaa18e	0.00044752326
36	0xba302c8d	-0.0006720506
37	0x3c22a436	0.009926846
38	0x3abc7992	0.0014379492
39	0x3b43e409	0.0029890558
40	0x39be7954	0.0003633002
41	0xbbc89d47	-0.0061222645
42	0x3bdcf926	0.006743568
43	0xbbe5e3eb	-0.0070156953
44	0x3c09d5b3	0.008412766
45	0xba2e8e39	-0.0006658766
46	0x394cacdc	0.00019519351
47	0x3b1fe8ce	0.0024400237
48	0xba1092b9	-0.00055150274
49	0x3a0faad2	0.00054804713
50	0x3b8d161d	0.0043056146
51	0x3adda256	0.0016909342
52	0xba3f7af5	-0.0007304394
53	0xbb9e61ac	-0.0048334207
54	0x3983d168	0.00025142287
55	0x3c124bc6	0.008929199
56	0x3b617d6d	0.0034407035
57	0x39e743e0	0.00044110324
58	0xbc31fc8a	-0.010863433
59	0x3b0c26f1	0.0021385516
60	0x3ca0bbca	0.019620795
61	0xb8154476	-3.5588128e-05
62	0x38870c18	6.439554e-05
63	0x3ca555a2	0.020182434
64	0x39f61a33	0.00046940296
65	0x395aa162	0.0002085022
66	0x3820b8fa	3.8319246e-05
67	0x3bfbdf88	0.007686559
68	0xba1e2673	-0.0006032951
69	0xb8f248ce	-0.0001155302
70	0x3a89951d	0.001049671
71	0xbbffb073	-0.007803017
72	0xbaacf2fe	-0.0013194976
73	0x3a17ca54	0.0005790342
74	0x3c049ce6	0.008094048
75	0x3ba2199c	0.0049469005
76	0xba4c95e0	-0.00078043155
77	0x3c96d201	0.018410685
78	0xbac309ae	-0.0014880204
79	0xbc14e2d6	-0.009087285
80	0x3b4ddb86	0.0031411364
81	0x3b85251b	0.004063261
82	0xbb2815a4	-0.0025647664
83	0x3a859873	0.0010192528
84	0x3a27704a	0.0006387277
85	0x3c32d9f4	0.010916222
86	0xbb5ccd04	-0.0033691535
87	0xba687640	-0.0008867718
88	0x39bd320a	0.0003608617
89	0x3cb609ce	0.022221472
90	0x3c032ca1	0.008006246
91	0x3b693df0	0.0035589896
92	0x3b8009e1	0.0039074277
93	0x39a5c5f8	0.0003161875
94	0x3bc0a537	0.00587907
95	0xbc1525cf	-0.009103253
96	0x3a1d40ec	0.0005998749
97	0xbc4178c1	-0.011808575
98	0x3b87979c	0.0041379463
99	0xbbeeb637	-0.0072849053
100	0xbb5dfba6	-0.0033871918
101	0x3ab32426	0.0013667389
102	0x3b0cdb76	0.0021493114
103	0x3bbf5256	0.0058386726
104	0xba13ecfa	-0.0005642917
105	0xbc2b1442	-0.010441842
106	0x3a43b35a	0.0007465385
107	0xbc2b15b2	-0.010442184
108	0x3b59ebcb	0.0033252116
109	0x3bfd4a79	0.007729825
110	0x3b1bb55e	0.0023759226
111	0x3ad9f582	0.0016628953
112	0x38804be0	6.1176484e-05
113	0x395314b2	0.00020130238
114	0xbb546522	-0.0032408913
115	0xbafd3adc	-0.001931991
116	0x3bbbd7fd	0.005732535
117	0xb95ef2b8	-0.0002126199
118	0x3c1b3386	0.009472733
119	0xb7e830e0	-2.7679314e-05
120	0x398320b2	0.00025010627
121	0x38449683	4.6870216e-05
122	0xbc3992e3	-0.011326524
123	0x3a0b0608	0.0005303328
124	0x3bc444ba	0.005989638
125	0xbadd3862	-0.0016877765
126	0xba891dcc	-0.0010461151
127	0x3bfaea66	0.007657337
