ML Agents tutorial/Assets/results/RollerBall/RollerBall/RollerBall-65827.pt (torch, 446793 bytes, 39 tensors)

network_body._body_endoder.seq_layers.0.weight f4 [128, 8]
0	0x3ea134c3	0.31485566
1	0x3e15b622	0.1462026
2	0xbddfcbf8	-0.10927576
3	0xbeeb2fa2	-0.45934778
4	0x3d3ba5fb	0.04581259
5	0x3db9110f	0.09036457
6	0x3ed5ed35	0.41782537
7	0x3f55dbac	0.8353832
8	0x3ee2b512	0.4427877
9	0x3e843ecd	0.25829163
10	0x3d66567f	0.056234833
11	0x3d96fe13	0.073726796
12	0x3ee421cb	0.44557032
13	0x3e11856c	0.14211053
14	0xbf0c666c	-0.54843783
15	0xbdcc336e	-0.09970747
16	0xbea48898	-0.32135463
17	0xbe545e56	-0.20739111
18	0xbf81b4a3	-1.0133251
19	0xbf18d82e	-0.59704864
20	0xbe6160df	-0.2200961
21	0x3e38e850	0.1805737
22	0x3f9920a3	1.1963085
23	0x3eb487d4	0.3525988
24	0x3e879fa5	0.26488987
25	0x3cdc7f65	0.026916215
26	0x3eb2e6df	0.34941766
27	0xbea14fec	-0.31506288
28	0x3f46dc05	0.77679473
29	0xbe1f6238	-0.15564811
30	0x3e99ba25	0.3002483
31	0xbe436dc9	-0.19084848
32	0x3da7d2ac	0.08194479
33	0xbea89c80	-0.329319
34	0xbecf2921	-0.40461066
35	0xbe90357e	-0.2816581
36	0xbf1cafa7	-0.61205524
37	0x3e710cf6	0.235401
38	0x3eb5b129	0.35486725
39	0x3f241a2d	0.6410244
40	0x3e940c94	0.28915846
41	0x3e65240e	0.22377035
42	0xbe799b40	-0.2437563
43	0xbef93c36	-0.4867875
44	0xbdf898d9	-0.121385284
45	0x3eb0a16e	0.3449816
46	0xbde6d648	-0.1127134
47	0xbf0d3a01	-0.5516663
48	0xbd1899bc	-0.037255988
49	0x3e86cd1e	0.26328367
50	0x3e0b63db	0.1361231
51	0xbe55526f	-0.20832227
52	0x3ea3c99d	0.31989756
53	0x3ed87122	0.42273813
54	0x3efa310e	0.4886555
55	0xb9153bd9	-0.00014232042
56	0xbda7376f	-0.0816487
57	0x3dfa4303	0.12219813
58	0x3d5b49a7	0.053537037
59	0xbc52d222	-0.012867482
60	0xbf0511c1	-0.51980215
61	0xbe60177f	-0.21883963
62	0x3e658a97	0.22416149
63	0xbf3ba672	-0.7330085
64	0x3efcb234	0.49354708
65	0x3e4d10f7	0.20026003
66	0x3e9bf4d8	0.30460238
67	0xbda1916d	-0.07889066
68	0xbf2038ac	-0.62586474
69	0x3dfdd51c	0.12394163
70	0x3ef60e2e	0.48057693
71	0xbee445ac	-0.44584405
72	0xbada2339	-0.0016642577
73	0x3e127256	0.14301428
74	0x3e98f7a6	0.2987644
75	0x3e3f4d9e	0.18681952
76	0xbd9bcdbc	-0.076076
77	0x3f405e2a	0.7514368
78	0x3e80fd60	0.2519331
79	0xbe7ad381	-0.24494745
80	0xbe8db991	-0.27680638
81	0xbdcdb219	-0.10043735
82	0xbe37bd88	-0.17943394
83	0x3de16520	0.11005616
84	0x3e1cbe9b	0.15307085
85	0xbe37e381	-0.1795788
86	0x3e4948c5	0.19656666
87	0x3e1f5557	0.15559898
88	0x3de9bd86	0.11413102
89	0xbe04976e	-0.12948391
90	0xbd525747	-0.051352765
91	0x3ee2cd65	0.4429733
92	0xbe6bba73	-0.23020343
93	0xbd971652	-0.07377304
94	0xbe19356a	-0.14961782
95	0x3ec5407f	0.3852577
96	0x3e1a94d3	0.15095834
97	0xb9246f58	-0.00015681738
98	0x3d0d040a	0.03442768
99	0xbf2a2dcd	-0.66476136
100	0x3eb14937	0.3462617
101	0x3e6f7c0e	0.23387167
102	0x3e702e8e	0.23455259
103	0x3ea80d33	0.3282257
104	0xbf117c5a	-0.5683037
105	0xbd15f51f	-0.03661072
106	0x3eb5fc75	0.35544172
107	0xbcd76c94	-0.026296891
108	0xbee0e781	-0.43926623
109	0x3d9635c6	0.07334475
110	0xbebced86	-0.36899966
111	0x3f017247	0.50565
112	0x3e1d9068	0.15387118
113	0xbe36586d	-0.1780717
114	0xbe73b916	-0.23801073
115	0x3db874df	0.090066664
116	0xbd61b494	-0.055103853
117	0xbed11f1d	-0.4084405
118	0xbeeda54a	-0.46415168
119	0xbb9c211c	-0.004764689
120	0x3f35f14f	0.7107133
121	0x3e7b7756	0.24557242
122	0xbeb10dc6	-0.3458082
123	0xbe5f190e	-0.21786901
124	0x3dd41b66	0.10356788
125	0xbc82fde8	-0.015990213
126	0xbea5d8e1	-0.32392028
127	0xbcabc97d	-0.0209701
128	0x3e06f7dd	0.1318049
129	0xbef6dc07	-0.48214743
130	0xbedb5e04	-0.42845166
131	0xbef215db	-0.472823
132	0x3ee4719d	0.4461793
133	0x3ea3c7cc	0.3198837
134	0xbce39647	-0.027781619
135	0x3ebcfe26	0.3691265
136	0x3e8619d8	0.26191592
137	0x3e11143b	0.14167874
138	0x3e799f26	0.24377117
139	0x3ec74734	0.3892151
140	0x3c916947	0.017750395
141	0xbea57b72	-0.32320744
142	0xbdd3bc5a	-0.103386596
143	0xbe16dce0	-0.14732695
144	0xbc028eff	-0.007968663
145	0x3e0dd55a	0.13850918
146	0xbe49ada5	-0.19695146
147	0xbe9f9df4	-0.31175196
148	0xbeea7d7e	-0.45798868
149	0x3e4a9f9a	0.19787446
150	0xbe2ecf8e	-0.17071363
151	0x3f486268	0.78275156
152	0x3ec82986	0.3909418
153	0xbee084f1	-0.43851426
154	0xbedf01e6	-0.43556136
155	0xbf0aeaa9	-0.54264313
156	0x3e992505	0.29911056
157	0x3e92ba92	0.28657967
158	0x3c91266a	0.017718513
159	0x3e319eca	0.1734573
160	0xbe0a2516	-0.1349071
161	0xbe9760cb	-0.29566035
162	0xbe9764eb	-0.29569182
163	0x3f435f6f	0.76317495
164	0x3ef97a21	0.4872599
165	0xbea0603f	-0.3132343
166	0x3f09842b	0.537173
167	0xbe2a3600	-0.16622162
168	0x3e476130	0.19470668
169	0xbe0ff813	-0.14059477
170	0x3e3c78c4	0.18405443
171	0xbeaf5db4	-0.34251177
172	0x3ece714f	0.40320823
173	0x3dd0f7bb	0.10203501
174	0xbe9137c1	-0.2836285
175	0xbc6e6d32	-0.014552401
176	0x3dc37e9f	0.095456354
177	0x3e30c6e9	0.17263378
178	0x3f023d9e	0.5087527
179	0xbe39961b	-0.18123667
180	0xbed8160c	-0.4220432
181	0xbf17ca9b	-0.59293526
182	0xbf419862	-0.7562314
183	0x3d9a0581	0.07520581
184	0xbf00b4ff	-0.5027618
185	0xbcb0a97d	-0.021565193
186	0x3d50a284	0.050936237
187	0xbe509dc2	-0.2037268
188	0xbdda0a93	-0.10646548
189	0x3f58b9b0	0.84658337
190	0x3db248a0	0.08705258
191	0x3ef859f6	0.48506135
192	0x3ecbb89e	0.3978929
193	0xbede4d40	-0.43418312
194	0x3ea93585	0.33048645
195	0x3e7b9b26	0.24570903
196	0xbe30f3b1	-0.17280461
197	0xbc73b1bf	-0.014873921
198	0xbd88f951	-0.06688178
199	0xbec097ea	-0.376159
200	0x3ede0dc6	0.43369883
201	0x3e7fe49d	0.24989553
202	0x3e81fd71	0.25388673
203	0x3e716565	0.23573835
204	0xbd84d669	-0.06486208
205	0xbec7f2d3	-0.39052448
206	0x3ea7f941	0.32807353
207	0x3ebf0965	0.37311855
208	0x3e575a5c	0.21030563
209	0x3ef27a52	0.47358948
210	0x3aa9a26a	0.001294208
211	0xbd40e4c9	-0.047093187
212	0xbe5ed7bd	-0.21761985
213	0x3e55615a	0.20837918
214	0xbd8f425a	-0.069950774
215	0xbe071f9c	-0.13195652
216	0xbdb48425	-0.08814267
217	0x3ee580eb	0.4482492
218	0x3f39fd77	0.7265238
219	0x3e29f3c7	0.165969
220	0xbc704878	-0.014665715
221	0x3ee455a5	0.44596592
222	0x3ef19df3	0.47190818
223	0xbea629a7	-0.32453653
224	0xbe508e44	-0.2036677
225	0x3f5a0dc7	0.8517727
226	0xbe58f28a	-0.21186271
227	0xbdd892c7	-0.105748706
228	0xbe6dc3b2	-0.23219183
229	0x3e03ba4b	0.12864034
230	0xbea58ea1	-0.3233538
231	0x3e5e5543	0.21712212
232	0x3df8dd74	0.12151614
233	0x3df10d9b	0.11770173
234	0x3e8e3021	0.27771094
235	0x3ce966cc	0.0284914
236	0xbe4aac5c	-0.19792312
237	0x3e438cb8	0.19096649
238	0xbefe7011	-0.49694875
239	0xbe0fa091	-0.14026095
240	0xbeb38d67	-0.3506882
241	0x3d844a3e	0.06459473
242	0xbe285671	-0.16439225
243	0xbcddf384	-0.027093656
244	0xbe9b97e6	-0.30389327
245	0x3e2fccbc	0.17167944
246	0xbb7f827a	-0.0038987682
247	0xbddbb215	-0.10727326
248	0xbd547a2b	-0.05187432
249	0x3ec4c85f	0.3843412
250	0x3d4ac3b5	0.049503047
251	0xbe9ae651	-0.30253842
252	0x3e83d5d5	0.25749078
253	0xbe5bdc14	-0.21470672
254	0x3e3d528f	0.18488525
255	0xbec6f464	-0.3885833

network_body._body_endoder.seq_layers.0.bias f4 [128]
0	0xbd14e689	-0.036352668
1	0xbd195774	-0.037436917
2	0xbd411e83	-0.04714824
3	0xbcac66e7	-0.021045161
4	0x3b982e63	0.0046442016
5	0x3bafce18	0.0053651445
6	0xbd83181d	-0.064010836
7	0xbd097133	-0.03355522
8	0xbcc73050	-0.02431503
9	0xbc0dd53d	-0.008656797
10	0xbd7f8a53	-0.062387776
11	0x3d828d67	0.063746266
12	0xbbc3e702	-0.005978466
13	0xbcb15953	-0.021649038
14	0xbd13d370	-0.036090314
15	0xbcead49d	-0.028665835
16	0x3ceecef4	0.029151417
17	0xbbffde8b	-0.0078085116
18	0x3cbcfab9	0.023068773
19	0xbc61e9df	-0.013788669
20	0x3c9656f3	0.018352007
21	0xbd13d46f	-0.036091264
22	0xbd94b196	-0.07260434
23	0xbd5ef5b4	-0.05443354
24	0xbcb12de3	-0.021628326
25	0xbd642e7c	-0.055708393
26	0xbcbec848	-0.02328886
27	0xbd04a45c	-0.032383308
28	0xbc825f1f	-0.015914498
29	0xbc788481	-0.01516831
30	0xbd5fc1f1	-0.054628316
31	0xbbb22d85	-0.0054375553
32	0xbd223c64	-0.039608374
33	0x3bb0efee	0.0053996956
34	0xbd34c993	-0.04413755
35	0xbd0637ed	-0.03276818
36	0xbcaae6b3	-0.02086196
37	0xbc904940	-0.017613053
38	0xbd87f8d7	-0.06639259
39	0xbd3d15d1	-0.046163384
40	0xbc965f08	-0.018355861
41	0xbd227254	-0.039659813
42	0xbd0820b0	-0.0332343
43	0x3da9635b	0.08270904
44	0x3c9fa9ce	0.019490149
45	0xbbbc48ba	-0.0057459744
46	0xbcfd88e2	-0.03094906
47	0xbc66e78b	-0.01409329
48	0xbcb01d1f	-0.021498261
49	0xbd38c68a	-0.045111217
50	0xbc9c6649	-0.019091742
51	0xbd96a6e6	-0.07356052
52	0xbc1e9e4a	-0.009681294
53	0x3cb05ded	0.021529162
54	0x3cb286d2	0.021792803
55	0xbbed4d86	-0.0072419075
56	0xbb70ff8f	-0.0036773419
57	0xbb618b57	-0.0034415328
58	0x3cefffda	0.029296804
59	0xbbd8e235	-0.006618763
60	0xb912a232	-0.00013984067
61	0xbb0b84c6	-0.0021288856
62	0x3c437e07	0.011931903
63	0x3a9575e9	0.0011402938
64	0xbd4686f7	-0.048468556
65	0xbd9bce5f	-0.076077215
66	0xbb4f31fa	-0.0031615482
67	0xbc7931ff	-0.015209674
68	0xbc9815f2	-0.018565152
69	0xbd292efe	-0.04130458
70	0xbd1a61dc	-0.037690982
71	0x3cae6a36	0.02129088
72	0xbd040c83	-0.032238495
73	0xbc425c8e	-0.011862887
74	0xbcb8b488	-0.022547022
75	0xbd4f16ec	-0.05055897
76	0x3c51bc8f	0.0128013035
77	0xbd5468b8	-0.05185768
78	0xbd27738a	-0.04088167
79	0xbcf34f01	-0.029700758
80	0x3c6176e3	0.013761255
81	0xbd36daef	-0.044642385
82	0xbd2389a2	-0.03992618
83	0xbccf22c3	-0.02528513
84	0xbc156495	-0.009118219
85	0xbd340e05	-0.043958683
86	0xbd3e77e4	-0.046501055
87	0xbd294cf0	-0.04133314
88	0x3c99bf55	0.018767992
89	0xbb71ad85	-0.0036877107
90	0xbcd557fd	-0.026042933
91	0x3d07a09c	0.033112153
92	0xbd570239	-0.052492354
93	0xbd05a06a	-0.032623686
94	0x3cb483e2	0.022035543
95	0xbca94a8f	-0.020665435
96	0xbd01ff1c	-0.031737432
97	0xbc86217c	-0.016373388
98	0xbd8b0011	-0.06787122
99	0xba988c2e	-0.0011638456
100	0xbaa514d4	-0.0012594708
101	0x3c89bbf8	0.016813263
102	0xbbfc0a24	-0.0076916385
103	0x3d0b33c3	0.03398491
104	0x3c192717	0.009347699
105	0xbd4aa44f	-0.049473103
106	0xbcdc2b04	-0.02687598
107	0xbd0389a8	-0.0321137
108	0x3cfb8f4b	0.030707976
109	0xbcbf7fd1	-0.023376377
110	0x3b151bfa	0.002275227
111	0xbd2601bb	-0.040528994
112	0xbdae4b3f	-0.08510446
113	0xbd128d86	-0.0357795
114	0xbd4ef52c	-0.050526783
115	0xbd077189	-0.03306726
116	0x3b80aabc	0.003926603
117	0x3d1b74ae	0.03795307
118	0xbd2ea7fe	-0.04264068
119	0xbcb01212	-0.021492992
120	0xba356271	-0.0006919271
121	0xbce6fd81	-0.028197052
122	0xbd5163b7	-0.051120486
123	0xba941ebb	-0.0011300662
124	0x3ca32364	0.019914337
125	0x3cceaf83	0.025230175
126	0xbd0265c1	-0.03183532
127	0xbc82d2c5	-0.015969643

network_body._body_endoder.seq_layers.2.weight f4 [128, 128]
0	0x3cb94731	0.022616955
1	0xbc9afbfa	-0.01891898
2	0xbd801590	-0.06254113
3	0xbdbc6c62	-0.0920036
4	0xbbe2fd6b	-0.0069271824
5	0xbd49e64b	-0.04929189
6	0xbdd5f05f	-0.10446238
7	0xbd2dc822	-0.04242719
8	0xbd405693	-0.046957564
9	0xbe1b5ea8	-0.15172827
10	0x3d8f71e3	0.07004144
11	0xbc5facdc	-0.013652053
12	0x3daaf10b	0.083467565
13	0x3c927a0c	0.017880462
14	0xbc7dd004	-0.015491489
15	0xbd38b8c7	-0.045098092
16	0x3bfd3a1b	0.007727874
17	0xbe650524	-0.22365242
18	0x3d5df418	0.054187864
19	0xbe7bc697	-0.24587475
20	0x3b210531	0.0024569745
21	0xbcf0b035	-0.029380897
22	0xbc79c997	-0.015245817
23	0x3d844726	0.06458883
24	0xbd10da2d	-0.03536432
25	0xbdc5bcaf	-0.09655129
26	0x3d91057c	0.07081124
27	0xbe5652e8	-0.20930064
28	0xbb474bc3	-0.0030410148
29	0xbe1f267a	-0.15542021
30	0xbd02a4b0	-0.03189534
31	0xbe43d3ba	-0.19123736
32	0x3d39a11b	0.045319658
33	0x3a769250	0.00094059575
34	0xbd3c7869	-0.04601327
35	0x3b7e549e	0.003880776
36	0xbc1d3916	-0.00959613
37	0xbdae407b	-0.085083924
38	0x3cd3802c	0.025817953
39	0x3c585c76	0.013205638
40	0xbdabe4d9	-0.083932586
41	0x3c8bf222	0.017083231
42	0xbe2864be	-0.1644468
43	0x3d95f3f7	0.07321923
44	0x3bd46211	0.006481417
45	0xbe28079b	-0.16409151
46	0xbd5abece	-0.05340462
47	0xbbc92f13	-0.006139645
48	0xbdf17b55	-0.11791102
49	0xbc7906dc	-0.015199389
50	0xbd055862	-0.03255499
51	0x3c6eb326	0.0145690795
52	0x3c4a6914	0.012354154
53	0x3d23bb02	0.039973266
54	0xbcdd1855	-0.026989141
55	0x3d1fde5d	0.03903042
56	0xbddaec53	-0.106896065
57	0xbdd143b9	-0.10217995
58	0xbcd01cec	-0.025404416
59	0xbe20e8e4	-0.1571384
60	0x3bd770e8	0.006574739
61	0x3db78548	0.08960968
62	0x3e07bbb7	0.13255201
63	0xbc222158	-0.009895645
64	0x3d9b45ff	0.0758171
65	0xbbeb78a6	-0.0071860133
66	0x3da1b3f0	0.078956485
67	0x3e11e34f	0.14246868
68	0x3ced4be8	0.028966859
69	0xbe090cae	-0.13383743
70	0xbde96f68	-0.11398202
71	0x3d890a14	0.066913754
72	0xbd7ad6c7	-0.061239984
73	0xbbe936cd	-0.0071171285
74	0xbd6bda15	-0.057581026
75	0x3d214655	0.039373714
76	0xbd250dec	-0.04029648
77	0xbd07ca93	-0.033152174
78	0xbe0e3c29	-0.13890137
79	0x3d8d44f5	0.06897918
80	0x3de36751	0.111036904
81	0xbdb547d1	-0.088515885
82	0x3b8a16fe	0.0042141667
83	0xbe58b066	-0.2116104
84	0x3d3f4ecb	0.046706002
85	0x3d67809b	0.056519132
86	0x3d2d9e86	0.042387508
87	0xbde1e2d1	-0.1102959
88	0xbdccd68b	-0.10001858
89	0xbe0453b8	-0.12922561
90	0xbcbec31a	-0.023286391
91	0x3db5ef48	0.0888353
92	0x3d961ca7	0.07329684
93	0x3ce1963a	0.027537454
94	0x3e22c680	0.15896034
95	0x3d7d4ace	0.061838917
96	0x3d51b0a3	0.051193845
97	0xbdb0f6f0	-0.086408496
98	0x3da38662	0.07984616
99	0xbd83dd9f	-0.06438755
100	0xbd679697	-0.056540098
101	0xbdc554bd	-0.09635303
102	0x3c4325f4	0.011910904
103	0x3dd6dc9f	0.10491299
104	0x3d29c1e5	0.041444678
105	0xbd3c1b9a	-0.04592476
106	0x3e226fd2	0.15862969
107	0x3d87f82f	0.06639134
108	0xbe7a4247	-0.24439345
109	0xbe0ac207	-0.13550578
110	0x3bd65064	0.006540345
111	0xbe0362de	-0.12830684
112	0x3da0dc25	0.07854489
113	0x3ac1aa3a	0.0014775463
114	0x3abef526	0.001456891
115	0x3dc07c25	0.09398679
116	0x3e216e11	0.15764643
117	0x3d5a608c	0.05331473
118	0xbca32bfe	-0.019918438
119	0x3c380c19	0.011233353
120	0x3cb53344	0.022119172
121	0xbda9509c	-0.08267328
122	0x3db3ea91	0.08784974
123	0x3e56b4cb	0.20967405
124	0xbd7e0d97	-0.06202468
125	0x3d0546d4	0.03253825
126	0x3b8d8d24	0.004319804
127	0x3cf56706	0.029956352
128	0x3b36fb24	0.0027920688
129	0x3cf4a76e	0.029864993
130	0xbd58a6ef	-0.052893575
131	0xbd90d015	-0.070709385
132	0xbd0772ec	-0.033068582
133	0x3d2bd1dc	0.041948184
134	0x3c2efd4c	0.010680508
135	0x3d7e6581	0.06210852
136	0x3de9b2e6	0.11411075
137	0xbd962d66	-0.07332878
138	0x3da8b678	0.08237928
139	0xbc25022b	-0.010071318
140	0x3d90bd09	0.070673056
141	0x3c54f990	0.012998953
142	0x3d271625	0.040792603
143	0x3d9d21c0	0.07672453
144	0x3de77735	0.11302034
145	0x3d3cecb8	0.04612419
146	0xbd1c9e9b	-0.038237195
147	0x3cb3c2f4	0.021943547
148	0xbd046e96	-0.032332025
149	0xbd16d9e9	-0.03682891
150	0xbdac84cd	-0.08423767
151	0xbd440882	-0.047859676
152	0x3cb973b8	0.022638187
153	0x3e30f731	0.17281796
154	0x3d7428b8	0.059609145
155	0xbdcdcaf5	-0.100484766
156	0x3dbd1a8e	0.092335805
157	0xbe03e0c9	-0.12878717
158	0xbdb0178e	-0.08598243
159	0xbcdccf12	-0.026954208
160	0x3c474375	0.012162079
161	0x3de1f123	0.11032321
162	0xbceb940d	-0.02875712
163	0x3d81501c	0.06314108
164	0x3d27e2e6	0.04098787
165	0xbd227fa2	-0.0396725
166	0xbe375185	-0.17902191
167	0x3df7c544	0.12098172
168	0xbc586a7a	-0.01320898
169	0x3ceeeac8	0.029164687
170	0xbd98872d	-0.07447658
171	0x3dbfe287	0.093693785
172	0x3cb29f0d	0.021804357
173	0x3c571510	0.01312758
174	0x3d9b2ef4	0.07577315
175	0xbd9a07a3	-0.07520988
176	0xbc895541	-0.016764285
177	0xbcc7a25f	-0.024369417
178	0x3e0e3d23	0.1389051
179	0xbcef2d47	-0.029196395
180	0xbd8b1222	-0.06790568
181	0x3d4b5896	0.04964503
182	0x3cd40a21	0.025883736
183	0xbc1abb57	-0.009444079
184	0x3d521d49	0.05129746
185	0xbd5edda7	-0.054410603
186	0x3da8de36	0.082455084
187	0xba8b8130	-0.0010643359
188	0x3e2257ab	0.15853755
189	0x3d4b9597	0.049703207
190	0xbc3bf505	-0.011471991
191	0xbdf2a30b	-0.11847504
192	0xbe80a896	-0.2512862
193	0xbe5e06e6	-0.21682319
194	0xbdf0ec00	-0.117637634
195	0x3d19b508	0.03752616
196	0xbd23d3ac	-0.039996788
197	0xbba435c6	-0.005011293
198	0xbe2d75bf	-0.16939448
199	0xbd759045	-0.05995204
200	0xbe104e69	-0.14092411
201	0xbcec851d	-0.028872067
202	0xbaff0829	-0.0019457388
203	0xbdbd641a	-0.092476085
204	0xbd87eb19	-0.06636638
205	0xbbd5028f	-0.006500549
206	0xbc41571e	-0.0118005555
207	0x3d800c72	0.06252374
208	0x3e08c56c	0.1335656
209	0x3e19aec0	0.15008068
210	0xbc57a7b3	-0.013162541
211	0x3d678165	0.056519885
212	0xbc4ad921	-0.012380869
213	0xbc3b05f9	-0.011414998
214	0xbdbc162d	-0.09183917
215	0xbda06bb4	-0.07833043
216	0xbe09d3dc	-0.13459724
217	0xbcc05a84	-0.023480661
218	0xbe213e93	-0.15746526
219	0xbd36ab40	-0.04459691
220	0xbdbc1e08	-0.091854155
221	0xbc035afb	-0.008017297
222	0x3e17f46a	0.1483933
223	0x3c229ba1	0.0099248
224	0xbdeee0b3	-0.11663952
225	0xbb64b1cc	-0.0034896014
226	0xbbe14727	-0.006874937
227	0xbe0b447b	-0.13600342
228	0x3d8c0f2e	0.06838833
229	0x3d66ca93	0.056345534
230	0xbcb40d98	-0.021979138
231	0x3d7481c9	0.059694085
232	0x3d88358b	0.066508375
233	0xbe2a85c1	-0.16652586
234	0x3d021eea	0.031767763
235	0xbd3acad3	-0.045603584
236	0x3e06d965	0.13168867
237	0x3d1579cc	0.036493108
238	0x3d82315d	0.063570715
239	0x3d8696d7	0.06571739
240	0xbe071c52	-0.13194397
241	0xbdc9f6f0	-0.09861553
242	0x3c14d568	0.009084083
243	0xbdad405f	-0.084595434
244	0xbbeb8124	-0.0071870256
245	0x3d9035d3	0.07041516
246	0xbcee7185	-0.029106865
247	0xbde08597	-0.1096298
248	0xbd695699	-0.05696735
249	0xbdb36de2	-0.08761193
250	0xbda6e96b	-0.0814999
251	0xbcf7623a	-0.030198205
252	0x3dabd973	0.083910845
253	0xbd44b03d	-0.048019636
254	0xbc9690ba	-0.018379558
255	0xbd04c9f9	-0.03241918

network_body._body_endoder.seq_layers.2.bias f4 [128]
0	0xbd6c80c6	-0.057739995
1	0xbd036e28	-0.032087475
2	0xbd306b65	-0.04307117
3	0xbcb9a052	-0.022659454
4	0x3c328e47	0.010898179
5	0xbceeabc6	-0.029134642
6	0xbd7245ff	-0.059148785
7	0xbd27c173	-0.040955972
8	0x3d02a903	0.031899463
9	0x3c1ae555	0.009454091
10	0xbb912759	-0.0044297394
11	0xbd3d5dc1	-0.04623199
12	0xbc770c67	-0.015078641
13	0xbd1202dc	-0.03564726
14	0xbd94cd62	-0.07265736
15	0x3c8d9000	0.017280579
16	0xbd1d3d90	-0.03838879
17	0xbcbb4472	-0.022859786
18	0xbc84f907	-0.016232027
19	0xbd1b4d67	-0.037915614
20	0xbd054bc7	-0.03254297
21	0xbd1944e6	-0.037419222
22	0xbb8e007c	-0.004333554
23	0xbd1a752b	-0.037709396
24	0xbbfd4c73	-0.0077300607
25	0xbd2b5922	-0.04183305
26	0xbcb04bf8	-0.0215206
27	0x3b93ac6f	0.0045066397
28	0xbcbaac05	-0.022787103
29	0xbca50fd7	-0.020149155
30	0xbd219401	-0.03944779
31	0xbd508b14	-0.050913885
32	0xbd096934	-0.033547595
33	0x3c0e7052	0.008693771
34	0xbd8419ca	-0.064502314
35	0xbca7dc67	-0.020490838
36	0x3b9e43a2	0.00482984
37	0x3cae0c2b	0.021246037
38	0xbcb868cc	-0.022510909
39	0xbc26776b	-0.010160307
40	0xbd5cca8f	-0.053904112
41	0xbca2f37b	-0.019891491
42	0xbd586d97	-0.052838888
43	0xbc984925	-0.018589566
44	0xbd5041f8	-0.050844163
45	0xbd069140	-0.032853365
46	0x3bb670e7	0.005567658
47	0xbbce0e4d	-0.006288326
48	0x3c13544f	0.008992269
49	0xbafd97d1	-0.0019347613
50	0xbd01d46a	-0.031696714
51	0xbd1c0c79	-0.038097832
52	0xbceb4118	-0.028717563
53	0xbcfc0ead	-0.030768717
54	0xbd92cced	-0.07167993
55	0xbd074a7a	-0.03303001
56	0xbd480816	-0.048835836
57	0xbd721985	-0.05910637
58	0xbc817f52	-0.015807781
59	0xb93ac979	-0.00017813397
60	0xbd712988	-0.058877498
61	0xbcf3f59d	-0.029780203
62	0xbd07546e	-0.033039503
63	0xbcf45d3c	-0.029829614
64	0x3cae33cc	0.021264933
65	0xbd70591c	-0.05867873
66	0xbd49cba7	-0.049266484
67	0xbc52093f	-0.012819587
68	0xbc1a13bd	-0.00940412
69	0xbcb6f4b8	-0.022333488
70	0xbcfbda86	-0.030743849
71	0xbd33b346	-0.04387214
72	0x3d04f9c6	0.032464765
73	0x3b89f7e2	0.004210458
74	0xbd52fa66	-0.05150833
75	0xbd3c2c8e	-0.04594093
76	0xbc76974e	-0.015050722
77	0xbd14bac5	-0.03631093
78	0xbd66a171	-0.056306306
79	0x3b05d967	0.0020423771
80	0xbd0f611b	-0.035004716
81	0xbc7c9c22	-0.015418084
82	0xbd5ca7f1	-0.0538711
83	0xbce836dc	-0.028346471
84	0xbd129003	-0.03578187
85	0xbcd39d07	-0.025831712
86	0xbb85b946	-0.004080924
87	0xbc695708	-0.014241941
88	0xbc72304e	-0.014782025
89	0xbd14a15a	-0.03628669
90	0xbd0907b5	-0.033454616
91	0xbd0927c4	-0.03348519
92	0xbd2cf646	-0.042227052
93	0xbd40991d	-0.04702102
94	0xbd0438d9	-0.032280777
95	0xbb9f4af8	-0.004861232
96	0xbccde86f	-0.025135247
97	0xbb011888	-0.001969846
98	0xbcae79d6	-0.02129833
99	0xbbcde76c	-0.006283691
100	0x3c2c3921	0.0105116675
101	0xbdbbff99	-0.09179611
102	0xbc86162b	-0.016367992
103	0xbd6e6b5f	-0.058207866
104	0xbd472a94	-0.04862459
105	0xbd0eb1f9	-0.034837697
106	0xbc5317ac	-0.012884062
107	0xbaafa7b0	-0.0013401415
108	0xbcc35c20	-0.02384764
109	0xbd2c3662	-0.04204405
110	0xbd2c64b4	-0.042088225
111	0xbd2b27f7	-0.04178616
112	0xbd009a5a	-0.0313972
113	0x3bdd47ca	0.0067529427
114	0xbc81e218	-0.01585488
115	0xbc9215df	-0.017832695
116	0xbc9f8abe	-0.019475337
117	0xbd4bcb18	-0.049754232
118	0xbd504756	-0.05084928
119	0xbbee70e7	-0.0072766426
120	0xbcb2e72b	-0.021838745
121	0x3c48d13d	0.012256918
122	0xbcf38e0c	-0.02973082
123	0xbc815f0f	-0.015792398
124	0xbc8d631f	-0.017259179
125	0x3cd2ae10	0.025717765
126	0xbd30ab31	-0.04313201
127	0xbcda3e5b	-0.026641062

action_model._continuous_distribution.log_sigma f4 [1, 2]
0	0xbda002ef	-0.078130595
1	0xbda97b93	-0.08275523

action_model._continuous_distribution.mu.weight f4 [2, 128]
0	0x3c32f24d	0.010922027
1	0x3cba63bb	0.022752633
2	0x3c204a3e	0.009783326
3	0x3ca83bfd	0.020536417
4	0x3cfd6e80	0.03093648
5	0x3c27875c	0.010225143
6	0x3c75a7a1	0.014993579
7	0xba13a9ac	-0.0005632888
8	0x3d00d24d	0.03145056
9	0x3d03421b	0.032045465
10	0x3d78a4b7	0.06070396
11	0x3d0746b9	0.03302643
12	0x3d057818	0.032585233
13	0x3ca3617f	0.01994395
14	0x3bba60f5	0.0056878277
15	0x3b86ae6a	0.0041101472
16	0x3b93bf13	0.004508862
17	0x3ce0893d	0.02740919
18	0x3d092acb	0.033488076
19	0x39219af7	0.00015411885
20	0x3c93e285	0.018052349
21	0x3c339836	0.010961583
22	0x3d4ac10f	0.04950052
23	0x3c3c4bc3	0.011492672
24	0x3bdac534	0.0066763405
25	0x3c543bba	0.012953693
26	0xbb91ea7d	-0.004453002
27	0x3ce22bc9	0.027608769
28	0x3d09ccef	0.033642706
29	0xbc57dd82	-0.01317537
30	0xbbdde5c5	-0.0067717754
31	0x3b5ac9a7	0.0033384354
32	0xbad05764	-0.0015895185
33	0xbb913fc5	-0.0044326507
34	0xbbec5d7a	-0.0072132917
35	0x3cd70636	0.026248079
36	0x3d72d0b1	0.059281055
37	0xbca5b144	-0.020226128
38	0x3bf64a64	0.0075161923
39	0x3d3ce3ed	0.046115804
40	0x3ca5eb8d	0.02025392
41	0xbb341e09	-0.0027483723
42	0x3c32c27c	0.0109106265
43	0xbb9b9bc5	-0.004748794
44	0x3a893b41	0.001046993
45	0x3cec0d38	0.028814897
46	0xbc8a1252	-0.016854439
47	0x3cd138fe	0.025539871
48	0xbca7b70b	-0.020473024
49	0xbc7672f4	-0.015042055
50	0xbc3dc565	-0.011582707
51	0xbacdd295	-0.0015703017
52	0x3d05b3fb	0.032642346
53	0x3cd3e92a	0.025868017
54	0x3b946177	0.0045282203
55	0x3c1a3e24	0.00941423
56	0x3b3e0210	0.0028992929
57	0x3c7a52f9	0.015278571
58	0x3d599a1e	0.053125493
59	0xbdcb55bc	-0.09928462
60	0x3c95b2b3	0.018273687
61	0x3a6582dd	0.0008755157
62	0xbb308520	-0.0026934817
63	0x3c9d6a41	0.019215705
64	0xbbb32fad	-0.00546833
65	0x3be089ca	0.0068523632
66	0x3bcf7ab1	0.0063317646
67	0xbd09daa8	-0.033655792
68	0x3c8d66eb	0.01726099
69	0xbd3cdb87	-0.046107795
70	0x3b2dc3a1	0.002651431
71	0xbca5006c	-0.020141803
72	0xbadc9cf8	-0.0016831448
73	0x3cf4a38b	0.02986314
74	0x3c3cff15	0.011535426
75	0x3c1579d6	0.009123286
76	0x3c4fce1e	0.0126834195
77	0xbbb6951c	-0.0055719744
78	0x3c8a3eec	0.016875707
79	0x3d601b8b	0.054713767
80	0x3bf09589	0.0073420447
81	0x3b72f127	0.0037070008
82	0x3b023b55	0.001987179
83	0x3c2cae51	0.010539607
84	0x3d18878b	0.03723864
85	0x3ce7132f	0.02820739
86	0x3d173bca	0.036922254
87	0xb9e01dfb	-0.00042746947
88	0x3d0c0bb9	0.034190867
89	0xbc23db67	-0.01000104
90	0xbb962d4e	-0.0045830375
91	0xbc928f3d	-0.017890567
92	0x3c85e95b	0.016346624
93	0xbba0d6bc	-0.004908411
94	0x3c5fc2fb	0.013657327
95	0xbc351fd8	-0.011054955
96	0x3a209172	0.00061251887
97	0xbc49b105	-0.012310271
98	0xb90e2bcf	-0.00013558495
99	0xbcdf01b4	-0.027222492
100	0xbcf9c95d	-0.030491525
101	0xba3a26ba	-0.00071011076
102	0xbccb6254	-0.02482716
103	0x3a4b98c0	0.0007766597
104	0xbaf94c5f	-0.0019019953
105	0x3c0404e6	0.0080578085
106	0xb9ebdcbb	-0.0004498715
107	0xbd01412a	-0.031556286
108	0x3d1b3108	0.037888557
109	0x3bd3b7c9	0.006461118
110	0xbc388e8a	-0.011264453
111	0xbb789928	-0.0037933085
112	0xbc2847dd	-0.01027104
113	0x3d8ee1e2	0.069766775
114	0x3d2fb8be	0.042900793
115	0xbb6a7ae8	-0.0035778824
116	0xbc97e1c4	-0.01854027
117	0x3c3a53fc	0.0113725625
118	0x3bb7a22c	0.005604049
119	0x3bf1948d	0.007372445
120	0xbcb53262	-0.022118751
121	0x3c8561fb	0.016282072
122	0xbbb5f0d7	-0.005552392
123	0xbc395f1f	-0.011314183
124	0xbd32d514	-0.04366024
125	0x3dafce3c	0.08584258
126	0x3c48b814	0.012250919
127	0xbb00ecdc	-0.001967243
128	0x3bfc5daa	0.0077015953
129	0xbc176ba6	-0.009241974
130	0xbca16f8f	-0.019706516
131	0xbd016d1e	-0.031598203
132	0xbc0ad6f7	-0.008474103
133	0xbcc86615	-0.024462739
134	0x3b65501d	0.0034990378
135	0xbcf3be67	-0.029753877
136	0xbd61665f	-0.05502927
137	0x3cae5f55	0.021285692
138	0xbc94857d	-0.018130058
139	0x3b80a5d0	0.0039260164
140	0xbd120461	-0.035648707
141	0x3c6c46ba	0.014421159
142	0xbbb19f44	-0.0054205973
143	0x3dae2c01	0.08504487
144	0x381f007f	3.7909016e-05
145	0x3ba3bfe5	0.004997241
146	0xbcb1525d	-0.02164572
147	0x3d2c9afc	0.042139992
148	0x3ba35611	0.004984625
149	0x3c72aeff	0.01481223
150	0x3bedf49b	0.0072618253
151	0xbd14ad0b	-0.03629784
152	0x3d3004f8	0.04297349
153	0x3b0c30d0	0.00213914
154	0x3c490c5e	0.012271015
155	0xbc9bc6b6	-0.019015651
156	0xbc6cba4a	-0.014448712
157	0x3c0c4bb7	0.008562974
158	0xbc0136c6	-0.007886594
159	0xbb85cd52	-0.004083314
160	0x3b9f1a68	0.004855443
161	0xbd2e4b74	-0.042552426
162	0x3c07a162	0.008278223
163	0x3cda5b6d	0.026654923
164	0x3d14a042	0.036285646
165	0xbd579a12	-0.052637167
166	0xbc9fa1a0	-0.019486248
167	0x3d3c985a	0.04604373
168	0x3bef9d54	0.007312456
169	0xbc178829	-0.009248772
170	0x3cfeaf09	0.031089323
171	0x3cf005dd	0.02929967
172	0x3c21a431	0.009865806
173	0x3c1764ca	0.009240339
174	0xbc19c08b	-0.009384285
175	0x3b3d8b27	0.0028922053
176	0xbcc45d0c	-0.02397015
177	0xbcf4075e	-0.02978867
178	0x3bc201c4	0.0059206206
179	0xbba99361	-0.0051750396
180	0x3c14d6ff	0.009084462
181	0xbbb54d2f	-0.0055328826
182	0xbca7086f	-0.020389764
183	0x3c80df04	0.015731342
184	0x3c95fccb	0.018309018
185	0x3bca56cd	0.0061748982
186	0x3c243c4d	0.010024142
187	0xbca3cdfe	-0.019995686
188	0x3c3d7fbb	0.011566098
189	0xbca62c3c	-0.020284764
190	0xbbd4d2dd	-0.0064948634
191	0x3d111557	0.035420742
192	0x3d268b5f	0.04066026
193	0xb9b740ad	-0.00034952667
194	0x3bb6f6f7	0.0055836397
195	0x3d00a49e	0.03140699
196	0xbd2a66ae	-0.04160183
197	0x3c9efa55	0.019406477
198	0x3caa0c15	0.020757714
199	0x3c643d5a	0.013930643
200	0xbcc5c74a	-0.02414288
201	0xbc7af743	-0.015317741
202	0x3c018dd2	0.007907348
203	0x3a324fc2	0.0006802046
204	0x3d135710	0.0359717
205	0xbc414b79	-0.011797779
206	0x3b4d3314	0.0031310963
207	0x3d22d380	0.039752483
208	0x3c8e238e	0.017350938
209	0xbd253852	-0.040336914
210	0x3c722814	0.014780063
211	0xbba6bd57	-0.005088489
212	0x3cc12b75	0.023580292
213	0x3bbbfd41	0.0057369773
214	0x3d39da98	0.045374483
215	0x3d235f63	0.03988589
216	0x3c78412e	0.015152259
217	0xbd259013	-0.040420603
218	0xbc697822	-0.014249833
219	0xbb3a4f00	-0.0028428435
220	0x3ba23d7e	0.004951178
221	0x3b374ad1	0.0027968178
222	0x3d60e5ee	0.054906778
223	0xbc28c02a	-0.010299722
224	0xbd07a70f	-0.033118304
225	0xbc22ed79	-0.009944313
226	0xbc9f940e	-0.019479778
227	0xbb384380	-0.0028116405
228	0xbbe6e6a7	-0.007046539
229	0xbc536874	-0.012903322
230	0xbbd1aa97	-0.0063985097
231	0xb9f2821c	-0.00046254776
232	0x3b824c81	0.003976405
233	0x3cf18c12	0.029485736
234	0x3c7fc79a	0.015611554
235	0xbb952762	-0.004551814
236	0xbb8a8156	-0.004226844
237	0x3c1f12d1	0.009709076
238	0x3c785163	0.015156123
239	0x3c15ccb6	0.009143045
240	0x3c6cd277	0.014454476
241	0x3c8cbc94	0.017179765
242	0xbc4ad079	-0.012378805
243	0x3cffa880	0.031208277
244	0xbc7a4374	-0.015274871
245	0xbc7d7718	-0.015470289
246	0xbb36f909	-0.0027919433
247	0xbcebbc6d	-0.028776372
248	0xbd5fa0da	-0.05459676
249	0x3ce5769a	0.028010655
250	0xbcd7fac9	-0.0263647
251	0xbb2974b7	-0.002585692
252	0xba1833cc	-0.0005806058
253	0x3d1af1a2	0.037828095
254	0x3c549088	0.012973912
255	0x3c5894ae	0.013219042

action_model._continuous_distribution.mu.bias f4 [2]
0	0xbbc10f54	-0.00589172
1	0xbd04b401	-0.032398228

action_model._discrete_distribution.branches.0.weight f4 [1, 128]
0	0x3c496e14	0.012294311
1	0xbc065d23	-0.008200916
2	0x3b07d22b	0.0020724635
3	0x3ba3c23c	0.00499752
4	0xbc090e9c	-0.0083653
5	0xbc1d8b6a	-0.009615758
6	0xbb92197b	-0.004458604
7	0x3b6fb445	0.0036575955
8	0x3c0fbc4d	0.008772922
9	0xbbe0b28a	-0.006857221
10	0x3b799bf5	0.0038087342
11	0xb92f966f	-0.00016745341
12	0x3c46e13f	0.012138664
13	0xbbe8a943	-0.0071002557
14	0x3c41f069	0.011837103
15	0xbc1de9df	-0.009638279
16	0xbbbf44da	-0.005837065
17	0xbc0e548e	-0.008687152
18	0x38c8b1d7	9.5698684e-05
19	0x3bd1d2a5	0.0064032846
20	0x3b8b50c7	0.004251573
21	0x3b5cdf45	0.0033702415
22	0x3b065c79	0.0020501895
23	0xbc5a4607	-0.01332236
24	0x3b83dedd	0.00402437
25	0x3aba0e6f	0.0014194975
26	0x3c099877	0.008398167
27	0xbb0c15f4	-0.002137539
28	0x3b6c75d8	0.0036080983
29	0xbbdebcd8	-0.0067974143
30	0xbc0156b5	-0.007894208
31	0x3c55b113	0.013042706
32	0x39e89195	0.00044358955
33	0x3c1f535f	0.009724467
34	0x3aaf543c	0.0013376544
35	0x3bdc267b	0.0067184544
36	0xbbc8b4a4	-0.0061250497
37	0x3c0d5f8b	0.008628736
38	0xba079c57	-0.0005173138
39	0x3b2c636d	0.002630438
40	0x3caaa8fb	0.02083253
41	0x3b044c0b	0.0020186927
42	0xbc193a18	-0.00935223
43	0xbb53fcc8	-0.0032346714
44	0xbb51e345	-0.0032026332
45	0xbb1046c7	-0.0022014843
46	0xbbf37c7f	-0.0074306126
47	0xbb461121	-0.0030222612
48	0xbc0a0681	-0.008424402
49	0xbb9fbf17	-0.0048750746
50	0xbac403c7	-0.0014954739
51	0x3b938b65	0.004502701
52	0xbad6d6ff	-0.0016390978
53	0x3b65039a	0.0034944774
54	0xbbd01ca8	-0.0063510723
55	0xbc08ad1c	-0.008342054
56	0xbb7ef81f	-0.0038905216
57	0xb9ede987	-0.00045378154
58	0x3bac8741	0.005265147
59	0xbbbc1fd4	-0.005741099
60	0xbc7ed65f	-0.01555404
61	0xbb54bfb7	-0.0032462904
62	0xbb0902bb	-0.0020906169
63	0xbbba9a94	-0.0056946967
64	0x3a4674f1	0.0007570526
65	0x3ba0ce93	0.004907438
66	0xbc10891e	-0.008821754
67	0xbb18310b	-0.0023222591
68	0x3aaf32b6	0.0013366553
69	0xbad68697	-0.0016367015
70	0xbb959a3e	-0.0045655062
71	0xbab58263	-0.0013848062
72	0xba057c6c	-0.00050920877
73	0xbacdfeb8	-0.0015716171
74	0xbc478813	-0.012178439
75	0xbc8156d8	-0.01578848
76	0xbc0191c4	-0.007908288
77	0x3ae1fa05	0.0017240649
78	0xbb5349f7	-0.0032240131
79	0xbb8ddb3c	-0.0043291133
80	0xbc498083	-0.012298706
81	0x3c6bfb87	0.0144032305
82	0x3c08e6ba	0.008355791
83	0xbbcbe973	-0.0062228977
84	0x3c5eefe2	0.013606997
85	0xbb9045a7	-0.0044028345
86	0x3a6166da	0.0008598395
87	0x3c3d8e7a	0.011569614
88	0xbac9f733	-0.0015408754
89	0xbc071dbd	-0.008246836
90	0x3aced897	0.0015781102
91	0x3ca58360	0.020204246
92	0xbab418e1	-0.0013740325
93	0x3ab41c3f	0.0013741328
94	0x3c147168	0.009060241
95	0x3affc487	0.0019513526
96	0xbbab19c8	-0.005221579
97	0x3c089690	0.008336678
98	0x3c6ea338	0.014565282
99	0xbc0c552f	-0.008565231
100	0xbb8fd127	-0.0043889466
101	0xb9dc6840	-0.00042039342
102	0x3c2b6756	0.010461649
103	0xbbd68bc5	-0.0065474235
104	0xbca38ca7	-0.01996453
105	0xbb7d3e87	-0.0038642006
106	0x3c1d007d	0.009582636
107	0x3c593a20	0.013258487
108	0xbbbfd6bc	-0.0058544558
109	0x3c64b328	0.01395873
110	0xbc6868aa	-0.01418511
111	0xbbd0ac5d	-0.0063682036
112	0xbb593e22	-0.0033148606
113	0x3c1eec1e	0.009699849
114	0x3c647a0d	0.013945115
115	0x3bf9967a	0.007616815
116	0xbabf3a39	-0.0014589495
117	0x3c519230	0.0127912015
118	0x3bb623cd	0.005558467
119	0xbb2f70c3	-0.0026770092
120	0xbafb282b	-0.0019161751
121	0x3b78a010	0.0037937202
122	0x3b1b7b1f	0.002372451
123	0x3aef5dfd	0.0018262264
124	0xbb91a6c2	-0.004444928
125	0x3c02eea2	0.007991465
126	0x3bddbf2f	0.0067671756
127	0xbc2ce80d	-0.010553372

exp_avg f4 [128, 8]
0	0x3b1966db	0.0023407254
1	0x3906bca8	0.00012849516
2	0x3b5ef936	0.0034023053
3	0x39f91c65	0.00047514137
4	0x3906bca8	0.00012849516
5	0x3b23d51e	0.0024998854
6	0x3aa569a9	0.001261999
7	0xb9c66df8	-0.00037847436
8	0x3ac6e09e	0.0015173142
9	0x38aeae02	8.329378e-05
10	0x3b108976	0.002205459
11	0x3a567a1c	0.0008181648
12	0x38aeae02	8.329378e-05
13	0x3b220f5c	0.0024728393
14	0x3a1fd714	0.0006097418
15	0x392650ad	0.00015861048
16	0x31d3feef	6.169891e-09
17	0x2fb9e060	3.3810732e-10
18	0x3219d147	8.953356e-09
19	0x31a7aed6	4.8802162e-09
20	0x2fb9e09a	3.3810893e-10
21	0x32449119	1.1441693e-08
22	0x31358ccc	2.6419e-09
23	0xb0d8c84d	-1.5772997e-09
24	0xb9ec4eb2	-0.0004507206
25	0xb7cfa5a6	-2.4753459e-05
26	0xba2bcf88	-0.0006554057
27	0xb9a9e131	-0.00032401973
28	0xb7cfa7ca	-2.4754456e-05
29	0x3a581144	0.0008242319
30	0xba814d02	-0.0009864869
31	0x390e3e50	0.00013565389
32	0x3891118b	6.9174064e-05
33	0x367ed5d3	3.7973412e-06
34	0x38d2dc5e	0.00010054627
35	0x386bae6e	5.6190816e-05
36	0x367ed5d3	3.7973412e-06
37	0xb7958c08	-1.7827391e-05
38	0x37f599d2	2.9277904e-05
39	0x37e8baad	2.7743483e-05
40	0xba36ae64	-0.0006968735
41	0xb8207420	-3.8255122e-05
42	0xba84c40d	-0.0010129228
43	0x386cd648	5.646635e-05
44	0xb8207420	-3.8255122e-05
45	0xb9f422e0	-0.0004656529
46	0xba1ae7dc	-0.00059091835
47	0x3a319899	0.0006774753
48	0xb9c84f3c	-0.00038206007
49	0xb7afefc2	-2.0973272e-05
50	0xba1193b4	-0.00055533205
51	0xb982190e	-0.000248142
52	0xb7afefc2	-2.0973272e-05
53	0xb7a724c0	-1.9925064e-05
54	0xbaa575eb	-0.0012623643
55	0x3931b7a6	0.0001694845
56	0xba524d41	-0.0008022376
57	0xb838b421	-4.4036777e-05
58	0xba98d4ea	-0.0011660133
59	0xb899d5da	-7.3354415e-05
60	0xb838b4c7	-4.403738e-05
61	0xbaa88eec	-0.0012859977
62	0xb9428c8d	-0.00018553641
63	0x3983844d	0.0002508484
64	0xba9a96c8	-0.0011794204
65	0xb887c7b7	-6.4745014e-05
66	0xbae0b31e	-0.0017143225
67	0xb91a7883	-0.00014731479
68	0xb887c7b1	-6.474497e-05
69	0xba316549	-0.0006767107
70	0xba813391	-0.0009857287
71	0x393b0529	0.00017835632
72	0xba8794fc	-0.0010344083
73	0xb86e2bcf	-5.678442e-05
74	0xbac51285	-0.0015035426
75	0xb9f2d57b	-0.00046316892
76	0xb86e2bcf	-5.678442e-05
77	0xbade826a	-0.0016976122
78	0x371e97e6	9.4529005e-06
79	0xb9eaba68	-0.00044770841
80	0xb7874e5b	-1.6129741e-05
81	0xb56ad964	-8.748814e-07
82	0xb7c2763e	-2.3181663e-05
83	0xb6b6b894	-5.4455104e-06
84	0xb56aabdf	-8.74219e-07
85	0xb78263e1	-1.5543717e-05
86	0xb614586e	-2.2105191e-06
87	0xb67afb97	-3.7399348e-06
88	0x3a541514	0.0008090299
89	0x383a5e38	4.4433604e-05
90	0x3a9a343c	0.0011764835
91	0x3a3db870	0.0007237261
92	0x383a6054	4.443557e-05
93	0xb9cbd020	-0.00038874242
94	0x3a639eb1	0.00086830097
95	0x39d160eb	0.00039935796
96	0xbb645cfb	-0.003484546
97	0xb94893d5	-0.00019128558
98	0xbba5f741	-0.0050648754
99	0xbab919b5	-0.0014122041
100	0xb94893d5	-0.00019128558
101	0xbb7f4aaf	-0.0038954427
102	0xbacfe219	-0.0015860229
103	0xb7881140	-1.6220496e-05
104	0xb9d40160	-0.00040436815
105	0xb7ba3598	-2.2197884e-05
106	0xba1a13c4	-0.0005877579
107	0xb9dde019	-0.0004231937
108	0xb7ba34a4	-2.219744e-05
109	0x3a9c7a76	0.0011938352
110	0xba1d1795	-0.00059925887
111	0xb85a0748	-5.198203e-05
112	0x38645bef	5.4445056e-05
113	0x3648b12e	2.9905455e-06
114	0x38a60e13	7.918118e-05
115	0xb78dd9bc	-1.69099e-05
116	0x3648b38c	2.9906832e-06
117	0x379e0f37	1.8842153e-05
118	0xb6f8b734	-7.4123036e-06
119	0xb704e197	-7.920337e-06
120	0xb9be209f	-0.0003626393
121	0xb7a6fe72	-1.9907227e-05
122	0xba0a2d6b	-0.000527105
123	0xb9d970eb	-0.00041473596
124	0xb7a6fe72	-1.9907227e-05
125	0xba5c3372	-0.00084
126	0xb9d36854	-0.00040322787
127	0xb8bc2c5c	-8.972801e-05
128	0x3aaff2d5	0.001342381
129	0x389a8a54	7.369058e-05
130	0x3affbee4	0.0019511846
131	0x3924cc01	0.00015716256
132	0x389a8a54	7.369058e-05
133	0x3b270f78	0.0025491398
134	0xba15e234	-0.0005717606
135	0x3935f9bc	0.00017354538
136	0x3af301c6	0.0018539957
137	0x38d57917	0.00010179186
138	0x3b30a267	0.0026952268
139	0x3a939256	0.0011258821
140	0x38d57998	0.0001017928
141	0x3a5f7630	0.0008524386
142	0xb9b267fc	-0.0003402828
143	0x3a996e3f	0.001170583
144	0x3895c210	7.1410206e-05
145	0x368388b0	3.9200168e-06
146	0x38d9ac50	0.00010379462
147	0xb9b2f9c4	-0.00034136896
148	0x368388b0	3.9200168e-06
149	0x3949f970	0.00019261776
150	0xb880d384	-6.1429135e-05
151	0xb9317358	-0.00016923004
152	0x3a172511	0.0005765716
153	0x3804c12c	3.1651158e-05
154	0x3a5bb166	0.00083806214
155	0x3991375e	0.00027697807
156	0x3804c12c	3.1651158e-05
157	0x3ab45973	0.0013759568
158	0xba03bf59	-0.00050257664
159	0x39eab67e	0.00044767925
160	0xb95707be	-0.00020506882
161	0xb73c89e1	-1.1237776e-05
162	0xb99c0537	-0.00029758524
163	0xb8d6b672	-0.00010238298
164	0xb73c831d	-1.12362e-05
165	0xb94377ec	-0.00018641324
166	0xb86efd5b	-5.6979577e-05
167	0xb5efceac	-1.7867037e-06
168	0xb8ac2dc0	-8.210121e-05
169	0xb69730b0	-4.5058187e-06
170	0xb8fa3400	-0.00011930615
171	0xba48696d	-0.0007645104
172	0xb6973030	-4.5057604e-06
173	0x3aab3de2	0.0013064707
174	0xb9995f5e	-0.00029253488
175	0xba473c56	-0.00076002383
176	0xb8e165e0	-0.00010747812
177	0xb6c6392c	-5.9075155e-06
178	0xb9240172	-0.00015640797
179	0x3a414064	0.00073719607
180	0xb6c63c9e	-5.9079166e-06
181	0xb92b956d	-0.00016363496
182	0x39cb9d02	0.00038836157
183	0x39b5c0e4	0.00034666725
184	0x3b4832aa	0.0030547776
185	0x392fd6d0	0.00016769324
186	0x3b917f0e	0.004440195
187	0x3a2e239a	0.0006642878
188	0x392fd6d0	0.00016769324
189	0x3b8a3349	0.0042175394
190	0x3a8191b2	0.000988534
191	0x3821ce92	3.8577775e-05
192	0x3afc49b6	0.0019248042
193	0x38dd96d7	0.00010566197
194	0x3b375a15	0.0027977277
195	0x3a53c177	0.000807784
196	0x38dd96b3	0.00010566171
197	0x3ad7dec1	0.0016469584
198	0xb9ce81cf	-0.00039388097
199	0x3a3b9f46	0.00071572175
200	0x3a2193d8	0.0006163693
201	0x380dedc3	3.3838453e-05
202	0x3a6adfc6	0.00089597364
203	0x39be1112	0.00036252342
204	0x380dee04	3.383869e-05
205	0xb7db93c0	-2.6175636e-05
206	0x3a4e8a31	0.00078788685
207	0x38a44248	7.832475e-05
208	0x39639314	0.00021703198
209	0x3747e254	1.191402e-05
210	0x39a56460	0.00031546038
211	0xb957d778	-0.00020584266
212	0x3747e244	1.1914006e-05
213	0x396dd168	0.00022680091
214	0x3a49d5d8	0.00076994067
215	0xba0b75c7	-0.00053199794
216	0xb9eaa150	-0.00044752145
217	0xb7ce2564	-2.4574525e-05
218	0xba2a9201	-0.00065067416
219	0xb9f03250	-0.00045813853
220	0xb7ce26ec	-2.4575238e-05
221	0xba194dd1	-0.00058480824
222	0x38941576	7.061187e-05
223	0xb97e1784	-0.00024232088
224	0x394e7b4e	0.00019691625
225	0x37355d22	1.0810125e-05
226	0x39961140	0.00028623082
227	0x385d621e	5.2781885e-05
228	0x37355d43	1.0810155e-05
229	0x3984b3f2	0.00025311072
230	0xb8541f3e	-5.0573835e-05
231	0x37ec2650	2.8151233e-05
232	0x3ad8240e	0.0016490237
233	0x38bddabe	9.052966e-05
234	0x3b1d17b2	0.0023970422
235	0x3a5d8f14	0.0008451801
236	0x38bddabc	9.052965e-05
237	0x3aae49b9	0.0013297118
238	0x3a10e260	0.00055268966
239	0x399b0b63	0.00029572388
240	0xb8a9e967	-8.1020225e-05
241	0xb6953cb9	-4.447615e-06
242	0xb8f6f83d	-0.00011776432
243	0xb729a6f0	-1.0112053e-05
244	0xb6953cb9	-4.447615e-06
245	0xb90dcd58	-0.00013523304
246	0xb7cb6b23	-2.4249375e-05
247	0xb5da61a0	-1.6270678e-06
248	0xb86b0dd0	-5.604123e-05
249	0xb64f8cda	-3.092739e-06
250	0xb8abae7e	-8.186417e-05
251	0xb9875eaa	-0.00025819737
252	0xb64fa3ea	-3.0940814e-06
253	0xba245f24	-0.00062702806
254	0x385d3b7b	5.27459e-05
255	0x389bfc97	7.4380245e-05

exp_avg_sq f4 [128, 8]
0	0x3974b67f	0.00023337638
1	0x34ec88f9	4.4058086e-07
2	0x39281dca	0.00016032826
3	0x3754b3f7	1.2678086e-05
4	0x34ec0706	4.3963536e-07
5	0x38cf27df	9.877956e-05
6	0x37856383	1.5901174e-05
7	0x36fb551f	7.4902923e-06
8	0x3a9ad504	0.0011812751
9	0x3611a57d	2.170301e-06
10	0x3a3c5fb2	0.00071858906
11	0x38a5b86e	7.902166e-05
12	0x361067ae	2.1518022e-06
13	0x3a5c7875	0.00084102835
14	0x387b03a0	5.984644e-05
15	0x3830df87	4.2169846e-05
16	0x372fcf48	1.0479074e-05
17	0x32fae6aa	2.9208724e-08
18	0x36c4e9cf	5.868474e-06
19	0x362d72f8	2.584593e-06
20	0x32e53a80	2.6685711e-08
21	0x37837b8e	1.5673952e-05
22	0x35217e9f	6.016143e-07
23	0x355bc114	8.1864823e-07
24	0x39fb3f77	0.00047921736
25	0x358adf4d	1.034679e-06
26	0x39eaba93	0.00044770967
27	0x38a0b47b	7.663012e-05
28	0x358a77b0	1.0316635e-06
29	0x39dda7e4	0.00042277493
30	0x37cbe6ff	2.4307052e-05
31	0x37389702	1.1002414e-05
32	0x36757961	3.6578497e-06
33	0x333d0444	4.400887e-08
34	0x3749a66c	1.2019282e-05
35	0x359db097	1.1748806e-06
36	0x333cd1f4	4.3963112e-08
37	0x364a6f1d	3.0165022e-06
38	0x354b7cf6	7.5805235e-07
39	0x3476a007	2.2968753e-07
40	0x3a12a41c	0.0005593912
41	0x3595cc0b	1.1160749e-06
42	0x39c5719d	0.00037659417
43	0x3801d586	3.0954856e-05
44	0x3594fa67	1.1099736e-06
45	0x39383dd8	0.00017570646
46	0x37da6c3a	2.6038022e-05
47	0x37bc353c	2.2436136e-05
48	0x3881e36b	6.193559e-05
49	0x342468da	1.5311835e-07
50	0x388d78a2	6.7458735e-05
51	0x36eef159	7.1210493e-06
52	0x342466e4	1.5311122e-07
53	0x37802ec9	1.5280575e-05
54	0x36a0d388	4.792997e-06
55	0x36240d8d	2.4445792e-06
56	0x3a9f619b	0.0012159826
57	0x361f3c09	2.3727791e-06
58	0x3a64b479	0.0008724402
59	0x39288e0c	0.00016074645
60	0x361d5221	2.3442628e-06
61	0x3a7101ad	0.000919367
62	0x3875c551	5.8596317e-05
63	0x3825f14b	3.9563787e-05
64	0x3a06a254	0.0005135883
65	0x357f4d99	9.510782e-07
66	0x39a87a90	0.00032134773
67	0x381a2fb0	3.6760874e-05
68	0x357d4647	9.435211e-07
69	0x39b2865d	0.00034050914
70	0x37fc3907	3.0067296e-05
71	0x378c1226	1.6697752e-05
72	0x38dd037a	0.00010538749
73	0x348db586	2.6395372e-07
74	0x39030029	0.00012493193
75	0x37775a93	1.4743436e-05
76	0x348d9383	2.6370626e-07
77	0x38090b03	3.26736e-05
78	0x36fee162	7.596028e-06
79	0x369073a2	4.304996e-06
80	0x393be11b	0.00017917568
81	0x34d4cb63	3.963606e-07
82	0x3953ee9d	0.00020211418
83	0x38b620fb	8.6845794e-05
84	0x34d22220	3.9140377e-07
85	0x39187b6e	0.00014541831
86	0x36a6d645	4.97213e-06
87	0x366958f8	3.4771492e-06
88	0x3a9379fc	0.0011251564
89	0x36195f89	2.2854385e-06
90	0x3a7642a2	0.00093940843
91	0x395f7e04	0.00021313882
92	0x3618ff38	2.2798322e-06
93	0x3a530832	0.00080502324
94	0x388ac886	6.617703e-05
95	0x37a2cc62	1.9407078e-05
96	0x3a98fb28	0.001167153
97	0x3613ab33	2.2004358e-06
98	0x3a529084	0.0008032399
99	0x38849b0d	6.323131e-05
100	0x3613332f	2.19345e-06
101	0x3a15fef0	0.00057218876
102	0x388fa882	6.8501584e-05
103	0x381b3f1a	3.7013648e-05
104	0x3a517127	0.00079895783
105	0x35ff37ba	1.9015199e-06
106	0x3a793380	0.000950627
107	0x398df777	0.0002707799
108	0x35fddaa4	1.8913602e-06
109	0x3a499028	0.00076890225
110	0x37d6f907	2.562675e-05
111	0x37a82b93	2.0047451e-05
112	0x3a72a9c8	0.0009256867
113	0x35de0235	1.6540931e-06
114	0x3a04427a	0.0005045306
115	0x38c48937	9.3715666e-05
116	0x35dc827e	1.6429256e-06
117	0x3a45d1dd	0.00075462257
118	0x381f766b	3.801884e-05
119	0x37e9d610	2.7875445e-05
120	0x38b497c9	8.611341e-05
121	0x342f07d9	1.6301e-07
122	0x386e99a0	5.6886696e-05
123	0x36fb6470	7.4920754e-06
124	0x342d3891	1.6132459e-07
125	0x38407ee8	4.5894558e-05
126	0x36ad0e29	5.1574502e-06
127	0x36185c93	2.270365e-06
128	0x37330ac5	1.0671739e-05
129	0x33479c2a	4.647533e-08
130	0x378bf523	1.6684242e-05
131	0x3549e33e	7.5209016e-07
132	0x33474a17	4.6400682e-08
133	0x3781d4d8	1.5477111e-05
134	0x357b9c71	9.373244e-07
135	0x349496a3	2.767675e-07
136	0x3b0b23e5	0.0021231112
137	0x369434ea	4.4169037e-06
138	0x3af43a3e	0.001863308
139	0x3a20bdd4	0.0006131802
140	0x36939270	4.397989e-06
141	0x3ab66e40	0.0013918355
142	0x38cd4db6	9.7896365e-05
143	0x385aa761	5.2131134e-05
144	0x36f4cbef	7.2955077e-06
145	0x32e5c7d4	2.674998e-08
146	0x374ad62d	1.2090005e-05
147	0x35874159	1.0077302e-06
148	0x32e574d3	2.6712234e-08
149	0x3749428b	1.1996027e-05
150	0x3537d100	6.847695e-07
151	0x349f0969	2.9622905e-07
152	0x388695b3	6.4175016e-05
153	0x34143e89	1.3806324e-07
154	0x38501ddc	4.9618873e-05
155	0x3659fe5c	3.2483576e-06
156	0x3413895e	1.3740416e-07
157	0x37d55874	2.5432768e-05
158	0x364e9f41	3.078909e-06
159	0x36111764	2.16203e-06
160	0x3a59953c	0.0008300131
161	0x35f73b3b	1.8420172e-06
162	0x3a677079	0.00088287104
163	0x398c8b3d	0.00026806621
164	0x35f66ec9	1.8360671e-06
165	0x3a3ddb1d	0.0007242428
166	0x38177235	3.610757e-05
167	0x376e4990	1.4203033e-05
168	0x3a4ab915	0.0007733268
169	0x35c8dad0	1.4964844e-06
170	0x3a066820	0.000512721
171	0x3857ec70	5.1480194e-05
172	0x35c8874c	1.4940538e-06
173	0x39e56eb6	0.0004376077
174	0x384d3914	4.8928967e-05
175	0x37bb25d2	2.2309749e-05
176	0x396caa81	0.00022570232
177	0x34fc99f3	4.705067e-07
178	0x394cda30	0.00019536237
179	0x386d87b0	5.6631572e-05
180	0x34faaeff	4.6693455e-07
181	0x39263745	0.00015851583
182	0x37161429	8.945391e-06
183	0x36e7319c	6.8901118e-06
184	0x38c05196	9.17047e-05
185	0x34a0035e	2.9804772e-07
186	0x392497e0	0.00015696837
187	0x37f6d8eb	2.9426496e-05
188	0x349ffcf9	2.980012e-07
189	0x38c21b51	9.255729e-05
190	0x36b637d1	5.4305206e-06
191	0x36807938	3.828809e-06
192	0x3a3816b0	0.00070224237
193	0x35c5730e	1.4711129e-06
194	0x3a21bb32	0.0006169557
195	0x392603ca	0.00015832405
196	0x35c4ed9d	1.4672293e-06
197	0x39deac43	0.00042471485
198	0x3819b4bc	3.6646365e-05
199	0x37bda371	2.2606664e-05
200	0x39ea0eb3	0.0004464291
201	0x356cb651	8.8182156e-07
202	0x399e71da	0.00030220934
203	0x38888eb2	6.5115644e-05
204	0x3569d96e	8.7115666e-07
205	0x3998ca56	0.0002914245
206	0x37c362cf	2.3291823e-05
207	0x37554460	1.2711709e-05
208	0x395e0549	0.00021173539
209	0x34e8db38	4.337287e-07
210	0x39308ee0	0.00016837893
211	0x374f2ade	1.2348142e-05
212	0x34e8bfdb	4.335296e-07
213	0x38c54397	9.4062816e-05
214	0x37759b94	1.4639361e-05
215	0x36f56ef5	7.314486e-06
216	0x3960c1e4	0.00021434535
217	0x34f298cf	4.5187195e-07
218	0x3952c8c1	0.00020101947
219	0x38826e6b	6.21945e-05
220	0x34f26ae7	4.5153794e-07
221	0x391ffae6	0.00015256889
222	0x371b6647	9.262533e-06
223	0x369d84bd	4.6944174e-06
224	0x36f7e41c	7.387729e-06
225	0x3308f5e1	3.1888593e-08
226	0x371fcd1d	9.524895e-06
227	0x36257958	2.4657547e-06
228	0x33052155	3.099679e-08
229	0x36cf3f33	6.176438e-06
230	0x34e8a9f4	4.3337025e-07
231	0x35165f7e	5.6018314e-07
232	0x39f21256	0.00046171498
233	0x35838010	9.797532e-07
234	0x39da78a0	0.00041670073
235	0x38af4d20	8.359016e-05
236	0x35837cc5	9.796573e-07
237	0x395d8da6	0.0002112897
238	0x37ad4680	2.0656036e-05
239	0x37844742	1.5768808e-05
240	0x381c3c28	3.7249323e-05
241	0x33d4c427	9.907699e-08
242	0x383095f9	4.2101343e-05
243	0x37baaa97	2.2252365e-05
244	0x33d4efc4	9.9156324e-08
245	0x375587ef	1.2727439e-05
246	0x359cbf2e	1.1678546e-06
247	0x359a5ad2	1.1500326e-06
248	0x3af0931b	0.0018354388
249	0x36772f5e	3.683344e-06
250	0x3abd08f6	0.0014422226
251	0x39301f97	0.00016796436
252	0x36767009	3.672207e-06
253	0x3a99a567	0.0011722267
254	0x38ca7307	9.653536e-05
255	0x38785236	5.9204373e-05

exp_avg f4 [128]
0	0x3986bca8	0.00025699032
1	0x392eadfe	0.0001665875
2	0x3039e060	6.7621464e-10
3	0xb84fa5b6	-4.9506976e-05
4	0x36fed5d3	7.5946823e-06
5	0xb8a07428	-7.65103e-05
6	0xb82fefbe	-4.194653e-05
7	0xb8b8b422	-8.807356e-05
8	0xb907c7b5	-0.00012949
9	0xb8ee2bce	-0.000113568836
10	0xb5ead964	-1.7497628e-06
11	0x38ba5e43	8.886729e-05
12	0xb9c893d8	-0.00038257125
13	0xb83a358c	-4.4395725e-05
14	0x36c8b12e	5.981091e-06
15	0xb826fe76	-3.981447e-05
16	0x391a8a54	0.00014738116
17	0x39557914	0.00020358368
18	0x370388d0	7.840063e-06
19	0x3884c12b	6.330231e-05
20	0xb7bc89e0	-2.247555e-05
21	0xb7173060	-9.0115645e-06
22	0xb7463926	-1.1815026e-05
23	0x39afd6ce	0.00033538643
24	0x395d96de	0.00021132405
25	0x388dedc9	6.767695e-05
26	0x37c7e25c	2.3828055e-05
27	0xb84e255f	-4.9149032e-05
28	0x37b55d22	2.162025e-05
29	0x393ddabc	0.0001810593
30	0xb7153cb6	-8.895227e-06
31	0xb6cf8c85	-6.1854394e-06
32	0xb726515b	-9.913313e-06
33	0x38d64b1e	0.00010218307
34	0x3985f46b	0.00025549842
35	0xb934cedc	-0.00017243199
36	0xb3a1912b	-7.5235526e-08
37	0xb8b32e85	-8.54405e-05
38	0x37ba57b4	2.2213768e-05
39	0x391058a6	0.00013765934
40	0xb8df39e7	-0.00010644254
41	0x37dfe080	2.6688213e-05
42	0x380cf7d7	3.360942e-05
43	0x384379e4	4.6605142e-05
44	0x393213b7	0.00016982747
45	0xb9f0a981	-0.00045902657
46	0xb922b2fe	-0.00015516204
47	0xb7310950	-1.055219e-05
48	0x35340e7c	6.7076303e-07
49	0x380d3d47	3.367409e-05
50	0xb98012fc	-0.00024428207
51	0x39aea17e	0.00033308187
52	0xb9ca7f46	-0.00038623268
53	0xb9e94c3a	-0.00044498016
54	0x3944d85e	0.0001877262
55	0xb8f96f74	-0.00011894005
56	0xb740a396	-1.148218e-05
57	0x38ea26e1	0.00011165231
58	0xb89abd02	-7.378498e-05
59	0x3925cb80	0.00015811436
60	0x3810e913	3.4549343e-05
61	0xb6444700	-2.9247603e-06
62	0xb770aba8	-1.4345082e-05
63	0x35c74794	1.4847487e-06
64	0xb9b4bae3	-0.00034471517
65	0x396c367f	0.00022527015
66	0xb8c0ec1a	-9.199251e-05
67	0x397e8661	0.00024273388
68	0xba04462f	-0.00050458586
69	0xb447a67b	-1.8593884e-07
70	0x39389909	0.00017604617
71	0x38c031de	9.164562e-05
72	0x38c62c5a	9.449637e-05
73	0xb9dbf726	-0.00041955075
74	0x35986494	1.1354155e-06
75	0xb9925b75	-0.0002791543
76	0xb980ff70	-0.00024604378
77	0x363482e5	2.689828e-06
78	0xb8e69407	-0.00010994827
79	0x394c9d3d	0.00019513532
80	0x383436cc	4.2966378e-05
81	0xb7171112	-9.004276e-06
82	0xb9deff11	-0.0004253318
83	0x396d14b4	0.00022609794
84	0x39880ed5	0.00025950992
85	0x3452680d	1.9595628e-07
86	0xb92eebd4	-0.00016681786
87	0xb53b46c9	-6.9765935e-07
88	0xb52df9a6	-6.481081e-07
89	0x386509cd	5.4606982e-05
90	0x379e0948	1.883939e-05
91	0xb6fe6b7e	-7.5823036e-06
92	0x37f28b30	2.8913462e-05
93	0xb98b0265	-0.0002651393
94	0x38bdbb1c	9.047074e-05
95	0x38faef78	0.000119655335
96	0xb890b9c4	-6.9010566e-05
97	0x390872cf	0.0001301274
98	0xb4063f76	-1.250281e-07
99	0xb97d5a9e	-0.00024161718
100	0x3912c17f	0.00013995728
101	0x37a79ef0	1.9981962e-05
102	0x39136da6	0.0001405986
103	0xb82a7d46	-4.064783e-05
104	0xb9b14e14	-0.00033818244
105	0x390b7c66	0.00013302415
106	0x39db2218	0.00041796337
107	0x3970cc38	0.00022964261
108	0x391a0d33	0.00014691502
109	0xb8097555	-3.277262e-05
110	0xb8189c5c	-3.6385245e-05
111	0xb2880c00	-1.583794e-08
112	0xaf2435d7	-1.4934841e-10
113	0xb6e2770e	-6.7491846e-06
114	0x37181dc0	9.066833e-06
115	0xb5557034	-7.951196e-07
116	0xb50d9a02	-5.2750704e-07
117	0xb8fa1e45	-0.00011926567
118	0x37a607b9	1.9792338e-05
119	0xb386875c	-6.264483e-08
120	0xb835c67c	-4.3338616e-05
121	0x38b9bcca	8.856652e-05
122	0x3981d368	0.00024762307
123	0x39b969b4	0.00035364705
124	0xb7842f55	-1.5757667e-05
125	0xb841a8e2	-4.617207e-05
126	0x3189e9d5	4.0138084e-09
127	0x3984298a	0.0002520795
