ML Agents tutorial/Assets/results/RollerBall/RollerBall/RollerBall-11150.onnx (onnx, 75769 bytes, 8 tensors)

network_body._body_endoder.seq_layers.0.weight f4 [128, 8]
000000 2e 85 bd 3e 45 d6 e7 3d e5 36 27 bf 83 80 33 bf
       0.3701567 0.113201655 -0.6531814 -0.7011797
000010 12 8f 1b bd 22 08 a5 3e d3 98 8e 3e cb 1b 8e 3e
       -0.03797824 0.32232767 0.2785097 0.2775558
000020 e3 60 63 bd 82 6f 1f 3f 38 11 3e 3f 99 5c e2 bd
       -0.05551232 0.6227952 0.74245024 -0.11052818
000030 82 b3 a0 bd 7f 84 c2 bd ca 1e 10 3f 43 40 a5 3d
       -0.078467384 -0.09497928 0.5629698 0.080688976
000040 35 7b a5 3c a7 66 64 3b cb 22 ab bd b2 08 2e bd
       0.020200351 0.0034851225 -0.083562456 -0.04248876
000050 d3 71 00 bf ea e3 df 3e b8 7d b5 be af 79 d3 3e
       -0.5017368 0.43728572 -0.35447478 0.41303775
000060 91 42 68 be 12 8c 42 3f 0d a7 fa bd 4a cd a3 3e
       -0.22681643 0.7599498 -0.12238894 0.3199256
000070 73 4a 62 3e e7 4b 5a 3e 6a ec f9 bd ca 03 ca be
       0.22098713 0.21318017 -0.122032955 -0.39456016
000080 c1 a6 fd be 7b 28 08 bf 7a c0 42 be 00 80 f4 3e
       -0.49541286 -0.5318677 -0.19018736 0.47753906
000090 c7 52 0f bf 78 9e 89 bc a1 4c 7c be 3b b2 87 be
       -0.55985683 -0.016799197 -0.24638607 -0.26503167
0000a0 5f fc ee 3d 93 a1 d9 3e 33 50 20 3f 6b ff 79 be
       0.1166923 0.42506084 0.62622374 -0.2441384
0000b0 9c 50 da 3e 6a e4 2a 3e ae 53 45 be d1 aa 01 3e
       0.42639625 0.16688696 -0.19270203 0.12662818
0000c0 31 38 02 be 4d 69 22 bf 3b d5 af 3e 0d e0 0e be
       -0.12716748 -0.63441926 0.3434237 -0.13952656
0000d0 ad 45 b1 3e d4 90 57 bd 55 5c e3 3d 4e 0d 26 be
       0.3462347 -0.052628353 0.11101595 -0.16216013
0000e0 46 0f 16 bf 9c aa c7 bd 64 26 d4 bd 3b ba 94 3d
       -0.58617055 -0.09749338 -0.10358885 0.07262083
0000f0 0e 67 16 be 1b ed 4b bf 41 a2 8d bd fb 08 1f be
       -0.1468775 -0.7965867 -0.06915713 -0.1553077
000100 ff c3 66 be f8 7b a9 3e e2 00 41 3e e9 b1 83 3e
       -0.22535704 0.33102393 0.18847993 0.25721672
000110 b8 cf 22 3f 95 33 3c 3e ab b4 37 bf 10 66 2f bf
       0.63598204 0.18379052 -0.7176005 -0.6851511
000120 af 68 85 3d e0 6c 98 bd 83 57 59 3d e1 f8 36 bd
       0.065141074 -0.07442641 0.053061973 -0.044670943
000130 30 8e 06 3f 97 00 99 bd b6 06 0c bf 79 cf ac 3e
       0.5256071 -0.07470816 -0.5469774 0.3375204
000140 a8 90 54 be ed da 37 bf f9 af d5 bd 8e 8f ae 3e
       -0.20758307 -0.7181843 -0.10433955 0.340939
000150 06 3c 2f be 66 8b cb be 10 0b 24 be 1d 92 76 bc
       -0.17112741 -0.3975479 -0.16019845 -0.015049485
000160 bb e8 c1 3e 1c 38 99 3e f1 20 cb be c3 61 b4 3e
       0.37872872 0.2992562 -0.3967357 0.35230836
000170 e1 b1 01 3d c9 ed 23 be e7 8d 8a 3e 3c 78 04 bf
       0.03166378 -0.16008677 0.27061388 -0.51745963
000180 7d b2 59 3e 87 37 19 3d 23 43 9c 3e d9 f7 0f 3d
       0.21259494 0.03740647 0.3051997 0.035148475
000190 cd f0 10 3f 33 64 d3 bc 00 b9 45 bf fe ce 54 3e
       0.5661743 -0.025804615 -0.7723541 0.20782086
0001a0 93 ae 1f bf 05 b3 34 be 72 56 7a bd f7 0b 7f bd
       -0.62375754 -0.17646416 -0.061117597 -0.06226727
0001b0 8c d3 85 3e 34 0d 1f 3f 2f a1 88 3e 34 63 1a bd
       0.2613796 0.6212952 0.26685473 -0.037692264
0001c0 7b 0b 00 3f 58 d7 0c 3f 01 7c 24 be 7a f4 57 be
       0.5001752 0.5501609 -0.16062929 -0.21089354
0001d0 4e 07 b0 be 64 59 0c 3f 80 6e 0c be 77 4f 95 be
       -0.34380573 0.548239 -0.13714027 -0.2916219
0001e0 30 cf a7 3d 3a 62 7b 3e 76 3c de 3d 88 8f 07 3f
       0.08193815 0.24549189 0.10851376 0.52953386
0001f0 e4 14 1b be ef d8 b0 be 3c bf 46 3e 00 59 96 be
       -0.15144688 -0.34540507 0.19408888 -0.29364777
000200 b2 4d c5 3e 7e 27 9f 3e e3 5e 5f 3d 9e a0 1f 3f
       0.3853584 0.31084818 0.05453385 0.6235446
000210 5e 05 ec 3e f4 7e 83 be 74 fb 37 bf d7 0b ef be
       0.46097845 -0.25682795 -0.7186806 -0.4668872
000220 8f 19 6f 3e 97 c4 b4 3e f2 c1 90 be f8 3a 94 3d
       0.23349594 0.35306236 -0.2827297 0.0723781
000230 6f 49 64 3e 15 c7 cc 3e 9c 7c 23 be 79 9e eb 3e
       0.22293638 0.39995638 -0.15965503 0.46019343
000240 2f 8a 1d 3e 45 10 ba 3e 53 3f a0 3d 75 30 cc be
       0.15384744 0.36340538 0.07824578 -0.3988072
000250 8d 58 cf 3e 38 b4 9c 3e 42 47 c6 bd 13 7f e8 be
       0.40497246 0.30606246 -0.0968156 -0.4540945
000260 48 c2 ea 3e f5 2b 63 be b4 fe 96 be a5 24 cf 3e
       0.4585135 -0.22184737 -0.29491198 0.40457645
000270 3e ec 20 3e e4 43 3a 3e f8 1b 91 be 53 0a 97 bd
       0.15715119 0.1818996 -0.2834165 -0.07375016
000280 7b a9 86 3e b1 94 26 3e 62 25 f4 3e 93 92 f7 3b
       0.26301178 0.16267659 0.4768477 0.007555315
000290 df 13 41 3f a6 2c 54 ba ee 77 85 be 73 2c 0a 3f
       0.75420946 -0.00080938113 -0.26068062 0.53974074
0002a0 4e 4b 2b bf 55 74 3f be 98 3d cd 3d e6 00 5d be
       -0.6691178 -0.18696721 0.10021514 -0.21582374
0002b0 2e 03 89 3f 88 9a 93 be 07 d9 11 bc 70 11 50 3e
       1.0704095 -0.28828835 -0.008901841 0.20319152
0002c0 3d b1 0a 3e e4 17 01 3f f4 e4 06 3f 12 4c 70 bd
       0.13544174 0.5042708 0.52693105 -0.058666296
0002d0 d7 c0 ed be 98 8d 96 3e 3f 5f ea bd d6 d9 11 3f
       -0.46436188 0.29404902 -0.11443948 0.56973016
0002e0 10 75 d5 3d 4e a0 f5 be 9b 4d 92 3e 0a 41 b0 3d
       0.104227185 -0.47973865 0.28574833 0.08606155
0002f0 a2 e7 51 3e df a2 43 3e fe 8d 0e 3f 12 5a 78 3e
       0.20498517 0.19105099 0.5568541 0.24253109
000300 c6 30 64 be b2 1c a8 be f2 0c a2 3e 25 84 06 bf
       -0.2228423 -0.32834393 0.316505 -0.52545387
000310 ae 98 f5 3d 4d 78 de 3d ef 29 98 bd c2 98 67 3e
       0.11992012 0.10862789 -0.07429873 0.22616866
000320 b8 56 13 bf 4d 89 14 3f c9 4b 8b bc 8e e9 f1 bb
       -0.575542 0.58022004 -0.01700391 -0.007382578
000330 1b 00 ad be f5 e9 d3 3e 04 77 03 be b5 c4 be bd
       -0.33789143 0.41389433 -0.1283837 -0.09314863
000340 e0 1a ce bd 96 69 a6 3d 64 1c 29 3d c2 5b 33 3e
       -0.1006372 0.08125608 0.04128684 0.17515472
000350 ee c8 a4 be 6a 65 41 be 55 06 85 bd d3 67 c1 be
       -0.32184547 -0.18886343 -0.06495348 -0.37774524
000360 82 52 61 be d0 6f 47 3d a0 ba 2b bf 4d 00 83 be
       -0.2200413 0.048690617 -0.6708164 -0.25586167
000370 72 6d 8e be 81 21 30 3f e3 bf 11 bf ae 85 04 bd
       -0.27817875 0.6880112 -0.5693342 -0.03235405
000380 56 df 9d 3e e8 9e e8 3e 17 b2 22 3e 98 02 da be
       0.30834454 0.45433736 0.15888248 -0.42580104
000390 69 83 b1 3e ba 8b 50 3e 37 15 45 be bd 76 6d be
       0.3467057 0.20365801 -0.19246374 -0.23189826
0003a0 60 19 c5 3e 26 c6 0e 3f 9c dd e7 3e 85 cf 58 be
       0.38495922 0.557711 0.45286262 -0.21172912
0003b0 04 e5 ee be 35 21 9f bd c3 b5 17 be 45 b3 20 3e
       -0.466591 -0.077700056 -0.1481543 0.15693386
0003c0 63 ee 3c 3e 18 cb 95 3e cb ac 14 3d 95 f4 30 3e
       0.18450312 0.2925651 0.0362976 0.172808
0003d0 2e a3 eb 3d f4 87 43 3f 67 96 a7 be ad 5c 41 3e
       0.115057334 0.76379323 -0.32731935 0.18883009
0003e0 7a 6e 3c 3e 9d bf 74 be cd 28 b1 be a8 c2 22 3f
       0.18401518 -0.2390122 -0.3460144 0.6357827
0003f0 92 29 98 3e 81 6f 12 be 6e 6c e6 be 76 30 ad be
       0.29719216 -0.14300348 -0.450046 -0.33826035

network_body._body_endoder.seq_layers.0.bias f4 [128]
000000 fc 62 76 3c fd f0 ca 3b f5 23 24 ba 0b 64 23 3b
       0.015038248 0.006193279 -0.00062614615 0.0024931456
000010 bf 25 9b 3c cb 7d 0d bc f0 07 14 bc a5 4e f8 bc
       0.018938897 -0.008635948 -0.009035096 -0.030310938
000020 2c 63 a8 bc 4f 43 56 ba 16 be 3c bc 6c 9a 06 bc
       -0.020555101 -0.0008173482 -0.011519929 -0.008215528
000030 8c ea 1d 3c 5a d5 82 3b de 03 b2 bc 2e ff 5c bc
       0.00963844 0.0039927186 -0.02173036 -0.013488574
000040 6f 35 09 bc ed 02 25 bb 40 6a f8 ba 31 3d 28 bc
       -0.008374556 -0.0025178746 -0.0018952563 -0.010268495
000050 7d 02 87 bb 2c 62 8c bc 4e 56 0a bd 98 9a 8c bc
       -0.0041201697 -0.017136656 -0.033773713 -0.01716356
000060 33 5e 13 38 2c 14 00 b9 94 18 cd bc bb 01 59 3c
       3.513526e-05 -0.00012214546 -0.025036134 0.0132450415
000070 af 92 66 bc fc 31 80 3c 8b 35 77 bc 78 65 a5 bc
       -0.014073058 0.015648834 -0.015088449 -0.020189986
000080 cf ed 11 bc 02 d0 66 bc 3b 27 31 bc a0 a1 84 ba
       -0.008906796 -0.014087679 -0.010812576 -0.0010118969
000090 27 4c 2f bc 7f e9 a3 bc 96 1f ac bc 86 16 cb bb
       -0.0106993085 -0.0200088 -0.021011155 -0.0061977534
0000a0 43 ff bb bc 30 ae 11 bb 4f c0 ff 3c ea 80 a9 3b
       -0.022948867 -0.0022229068 0.03121963 0.0051728385
0000b0 7f ec 9d bc a6 99 14 bd 92 ff 2b 3c ab 13 5e bc
       -0.01927781 -0.036279343 0.010497944 -0.013554494
0000c0 e1 bc 19 bc 1e 29 fa 3b eb 5a b1 3b d8 2a 4a 3c
       -0.009383411 0.007634296 0.0054124496 0.012339316
0000d0 61 9e 0c bc a0 8a 23 bc 4a 96 34 bc 01 37 0a 3c
       -0.008582682 -0.009981781 -0.01102216 0.0084359655
0000e0 7f bd a8 bc 08 c8 e7 b8 ff 5e 4b 3c 99 d0 9f 3c
       -0.020598171 -0.00011052197 0.012412786 0.019508647
0000f0 b0 e7 cf bb 26 94 de bb b0 62 f2 3b 66 33 8a bb
       -0.006344758 -0.006792563 0.0073970184 -0.004217553
000100 14 d6 f7 3b 47 8b 2d bc 8a 10 25 bd 63 17 8b 3b
       0.007563362 -0.010592288 -0.040298976 0.0042447313
000110 30 24 f8 bb d5 13 a1 bc 59 05 6d b8 ea df d7 bc
       -0.0075726733 -0.019662777 -5.6510184e-05 -0.026351888
000120 67 6a 3f 3c 3f ff 02 3c 24 4f ce bc 28 4b 35 bb
       0.011683083 0.007995426 -0.025184222 -0.0027663205
000130 22 58 1b 3c 61 83 40 bb f0 ef 02 bc 44 ac 03 bc
       0.009481462 -0.0029375183 -0.007991776 -0.008036677
000140 fa 2e 87 bb 0a 21 28 bc 55 4c 07 bd 57 10 23 bc
       -0.004125473 -0.010261783 -0.03303178 -0.009952626
000150 58 b7 99 bc a7 5d 05 bd 7f b5 ce bb a4 fe 22 bc
       -0.018764183 -0.032560017 -0.006308257 -0.009948406
000160 ba 0d 93 bc a2 34 14 bc 9c b3 f2 bc a8 66 c8 bb
       -0.017950881 -0.009045752 -0.02962666 -0.006115753
000170 9b d6 92 3b b3 b5 66 3c fa 09 03 3b fc fa 4a bb
       0.0044811494 0.014081406 0.001999496 -0.0030972352
000180 65 f7 93 ba da b8 bb bc a5 b4 59 3c dd 7d 89 bc
       -0.0011288939 -0.022915293 0.013287698 -0.01678365
000190 c7 a7 34 bc 56 45 6f bc 81 86 07 bd 23 cf e9 bb
       -0.011026329 -0.014603933 -0.033087257 -0.0071352883
0001a0 91 b7 d0 b9 a0 94 49 bc 59 ab 7a bb a8 45 05 3c
       -0.0003980962 -0.012303501 -0.0038249104 0.008134283
0001b0 74 6b 5a 3c 34 a4 06 bd 21 7b bc bb 84 e3 32 bc
       0.013331283 -0.03287144 -0.005751983 -0.010918502
0001c0 78 f2 94 3b 2c 04 9c bc 22 f0 99 bc f7 21 9d bb
       0.004545506 -0.019044958 -0.018791262 -0.0047953087
0001d0 bc 60 f9 bb 83 a5 11 3c 83 25 8b bb cf 52 45 bc
       -0.0076104086 0.008889559 -0.004246415 -0.012043669
0001e0 a3 6a 1a bb 15 80 51 bc 96 8f bd 3b c2 79 da bc
       -0.0023562096 -0.012786885 0.005784939 -0.026669387
0001f0 8a eb 0d 3c 71 85 1c bd 06 4c 35 bc df 58 c4 bb
       0.008662114 -0.038213197 -0.011065489 -0.0059920396

network_body._body_endoder.seq_layers.2.weight f4 [128, 128]
000000 bc 21 7a 3d 59 7c 51 3d 06 e8 83 bd 7f f7 b6 3d
       0.061067328 0.051143978 -0.06440739 0.08933925
000010 d8 98 41 3d 42 96 36 bd 94 25 82 3c 4a 4b c8 3c
       0.047264904 -0.04457689 0.01588706 0.024449963
000020 da 37 2b 3c 3c 0c db bd 2d 4c 43 bd 11 d7 66 3d
       0.010450328 -0.10695693 -0.04768007 0.056357447
000030 36 2a 0b be b0 58 15 3e 54 1f 94 3d ec a8 10 be
       -0.13590321 0.14584613 0.07232538 -0.14126939
000040 e2 e8 9a bc 99 b2 54 3e 8a 0f 9c 3c 00 20 13 bd
       -0.018909875 0.20771255 0.019050378 -0.03591919
000050 d2 b5 2d be 9b c7 b8 bd 25 71 8c 3c 94 25 2a 3d
       -0.1696389 -0.09022447 0.017143795 0.041539744
000060 9e 19 09 3d d5 8b c5 bc 70 04 a5 bd ee 60 52 be
       0.033471696 -0.024114529 -0.08057487 -0.20544788
000070 dc 27 95 3d 13 8b c1 bc 0b 4e 41 be 35 d5 8a 3e
       0.07282993 -0.023625886 -0.18877427 0.2711579
000080 c8 3f 7d bc be b6 27 3d 9e e2 b1 bd f4 04 50 bd
       -0.015457101 0.04094576 -0.08685802 -0.050785974
000090 dd d7 d4 bd f6 26 ce 3d 4c b4 40 bd 82 b6 2e bc
       -0.10392735 0.10066025 -0.047046944 -0.01066363
0000a0 98 06 9d 3d 76 fd 9c bc 7f 39 d5 bd 22 25 b0 3d
       0.07667273 -0.019163828 -0.10411357 0.086008325
0000b0 94 26 e1 bd b4 23 1b 3d 50 9f 18 3e e7 a8 09 be
       -0.10993686 0.037875846 0.14904523 -0.13443337
0000c0 c3 8c 0f 3d f4 92 34 3d 0b 0f 74 3d f1 e8 52 3e
       0.03504635 0.044085458 0.05958466 0.20596673
0000d0 53 34 8d bd 6a 67 56 bd 5d 98 0a be 66 89 7c 3e
       -0.06894746 -0.052344717 -0.13534684 0.24661788
0000e0 e6 f2 9c 3d 02 ec 20 3d e1 0b 42 bd a3 36 9c 3d
       0.07663517 0.039287575 -0.04737461 0.076276086
0000f0 e8 94 6a bc 58 37 14 3d 28 2d a7 3d d3 f3 0e 3e
       -0.014317729 0.036185592 0.0816291 0.13960199
000100 3f 72 21 bd 4d b9 12 3d 74 7c f3 bc ea b0 cc bd
       -0.039415594 0.035821248 -0.02972243 -0.09994681
000110 38 a0 f5 bc 04 f5 06 be 93 d5 02 bd 3d 4d a1 3c
       -0.029983625 -0.13179404 -0.03194196 0.01969015
000120 ea 52 8c 3d e8 1b 95 3d af 6d 08 3d cd b8 57 bb
       0.06851752 0.07280713 0.033307727 -0.0032916546
000130 dd 02 20 bc 9b c3 c1 3d 65 08 88 3d c3 29 58 3e
       -0.009766308 0.09461137 0.06642226 0.21109681
000140 25 d4 8d bd 8e 0d 89 bd 25 0c 88 3d 57 ae aa bd
       -0.06925229 -0.066920385 0.066429414 -0.08334034
000150 da 42 3c 3d d0 66 fe bc 04 08 86 3d 39 0a 1a 3e
       0.045962192 -0.031054884 0.065444976 0.15042962
000160 fd 70 38 3d b1 1c bb 3b 30 dd e0 bb 75 c3 9f 3d
       0.04502963 0.0057102074 -0.006862305 0.07800952
000170 de ec f6 3d e3 b7 55 3c 17 71 a7 3d a5 e4 8f bd
       0.120568976 0.01304433 0.08175867 -0.07026032
000180 39 c5 20 3c 3b 95 e0 3d 30 56 63 3c ad 96 be 3d
       0.009812647 0.109659635 0.013875529 0.09306083
000190 11 5a b6 bc 8e 3b ae bd 24 19 a0 bc 8b 90 b3 3c
       -0.022259744 -0.08507453 -0.019543238 0.02191951
0001a0 e3 31 d7 bd 20 a8 63 3d 3f 07 99 3c 4b 15 21 be
       -0.10507562 0.05558026 0.018680213 -0.15730779
0001b0 fe 22 52 3e 73 eb ce bc e3 a3 51 3d ef 38 8c bd
       0.20521161 -0.025258755 0.051181685 -0.06846797
0001c0 a9 69 be bd 36 2a 28 3c c5 48 58 3c 4f 80 88 bd
       -0.09297497 0.01026397 0.013200943 -0.06665098
0001d0 16 94 9a bd f7 e9 40 3e ae ec 9e 3d a3 a2 f6 3d
       -0.075477764 0.1883925 0.07759987 0.12042739
0001e0 08 09 ae bc 40 5b 30 3c 0f a5 3c bc 2d 41 31 bc
       -0.02124454 0.010763943 -0.011513962 -0.010818762
0001f0 d4 d6 97 bc 67 71 ae bd 13 52 d0 bd 45 36 2a bd
       -0.018535055 -0.085177235 -0.101719044 -0.04155566
000200 2d 8e 1d be d5 b5 e5 3c a5 e5 d2 3b 67 37 fd 3d
       -0.15386267 0.028040806 0.006436067 0.12364083
000210 59 55 f5 bd 94 7f fe bc 25 85 58 3d e6 93 3f bd
       -0.119791694 -0.031066693 0.05286135 -0.046771906
000220 d9 2a 7b 3d a3 2b 4b bd b6 22 09 be de a6 06 be
       0.06132016 -0.049602162 -0.13392147 -0.13149592
000230 54 ed 7d 3d e1 c4 b1 bd a0 13 22 3d 52 11 cb 3c
       0.06199391 -0.0868013 0.039569497 0.024788532
000240 4b 88 e6 b7 53 fe f6 bd 57 57 43 3d d9 84 51 bd
       -2.7481603e-05 -0.12060227 0.047690716 -0.051152084
000250 c1 16 14 3d 25 1c ae bb 76 e9 9c 3d c8 55 8e 3d
       0.036154512 -0.0053134137 0.07661717 0.06949955
000260 10 4d 4f bd cb 0f 54 3e 7a 8e b0 3d 0c 48 74 3c
       -0.050610602 0.2070915 0.08620925 0.014909755
000270 1b 34 fb bc 8e e7 0b 3d 9c 59 8e bd 87 e1 a2 3d
       -0.030664494 0.034156375 -0.069506854 0.07953172
000280 0f c9 2c 3d a0 cc ec 3c 41 b0 4d be a5 43 af 3d
       0.042183932 0.028906167 -0.20086767 0.08557824
000290 8d 41 0f 3d cf 26 40 3b 3f 44 6b 3d 15 3f 9e bd
       0.034974623 0.0029320007 0.05743813 -0.07726876
0002a0 c1 e6 8b 3c 44 b6 ab 3d 3e 32 b7 3b 39 09 7b bc
       0.017077805 0.08384374 0.005590706 -0.015322023
0002b0 a5 53 83 bd f0 98 4c bd 26 a7 a3 bd f4 ce 02 3c
       -0.06412438 -0.04995054 -0.079908654 0.007983912
0002c0 1f fe c6 3b d2 29 f4 bd e5 f7 a6 3c 6e 14 2c bd
       0.006072774 -0.11922039 0.020381877 -0.04201167
0002d0 73 c7 96 bc c2 01 ad bb 8f 31 5e 3d ab 2f b5 bd
       -0.018405652 -0.0052797506 0.05424648 -0.088469826
0002e0 ed 97 c8 3d 71 2e 1f 3e dd c4 b1 3c 35 52 56 bc
       0.097946025 0.1554506 0.021700317 -0.013081123
0002f0 7f c2 f7 bd df 29 02 bd e0 37 33 be f1 e0 a7 bd
       -0.12097644 -0.031778213 -0.17501783 -0.08197201
000300 35 4d 55 bd da d5 67 3d ba 27 ee bd 94 4d ef 3d
       -0.052075583 0.05660043 -0.11628671 0.11684719
000310 9d cd c9 bd c9 64 9a 3d 3b 38 ae 3c 06 86 e8 bb
       -0.09853671 0.075387545 0.021267047 -0.007096055
000320 3b 0b 20 bd ea dd 65 bd 1f 67 95 bb 48 a8 65 3d
       -0.03907321 -0.056119837 -0.004559412 0.05606869
000330 7b bc 64 bd 00 61 0a bd 71 3e 15 be 0f 66 75 bd
       -0.05584381 -0.033783913 -0.14574601 -0.059911784
000340 0a a7 f0 3d 72 1c 06 be f2 20 19 3d ee 29 e6 bd
       0.1175061 -0.13096789 0.037384935 -0.11238466
000350 9d bd 3e 3e 05 c9 95 39 21 0b ea bd bf 7d 27 3d
       0.18627019 0.00028569266 -0.11427904 0.040891405
000360 25 4b 16 3d ef b7 04 be 1b 89 1b bc 34 ba 6c 3e
       0.036692757 -0.1296079 -0.009493138 0.23117906
000370 cb 1f 2b bb 31 c7 3a bb fa 5d 1f be fd dd 95 bd
       -0.002611148 -0.0028500075 -0.15563193 -0.073177315
000380 d3 5d 5b 3d 13 3b f1 bd 1e 81 2a bd 96 8f f7 3d
       0.053556275 -0.11778846 -0.041627042 0.12087934
000390 2e b3 8d 3d 27 e3 27 3b 7b dc 9f 3b c4 e4 ac 3d
       0.069189414 0.002561757 0.0048785782 0.08442071
0003a0 40 6b 20 be 4a 7a 84 3d 8d 0f 6e 3c 54 6c 54 3d
       -0.15665913 0.06468637 0.014530075 0.051861122
0003b0 df 84 7e bd ca 8c 3d 3d 16 88 8c bd 81 81 57 bc
       -0.062138434 0.046276845 -0.06861894 -0.013153435
0003c0 13 c4 fb bc 17 6d 52 3d 33 6f cb bd f2 1d a7 3d
       -0.030733144 0.051373567 -0.09933319 0.081600085
0003d0 ce b6 13 bd cf fd 39 bd 03 e5 a8 3d 19 cb 18 3e
       -0.036063008 -0.045408066 0.082468055 0.14921226
0003e0 64 96 b3 bd d6 df 0a 3e c3 6b 84 bb e3 dc d7 3d
       -0.08768919 0.13561949 -0.0040411665 0.10540178
0003f0 7b aa 07 be 82 d4 76 bd f3 9d c9 3d 7e b6 ac bd
       -0.13248627 -0.060261257 0.098445795 -0.08433245

network_body._body_endoder.seq_layers.2.bias f4 [128]
000000 2e fa 00 bc bf 8c 5f bc 58 81 9d bc 95 65 a0 bc
       -0.0078721475 -0.013644396 -0.019226715 -0.019579688
000010 ba 4d b3 ba 74 bd ed 3a 1d a8 e3 bb 57 35 1a 3c
       -0.001367978 0.0018138126 -0.006947531 0.009412131
000020 ef 9e ae 3b 35 5d 84 bb 94 87 c2 bc 7c 27 87 bc
       0.005329005 -0.0040394315 -0.02374629 -0.01649832
000030 0d f4 4e bc fa de 72 bb 07 5f 2c bc 07 ce 4e ba
       -0.012631428 -0.0037059174 -0.010520703 -0.0007888977
000040 17 aa 8b bc 2a 5d 5f bc 07 02 7f bc be 5b b9 3b
       -0.017048879 -0.013633052 -0.015564448 0.0056566885
000050 ed 8f 84 bc 80 ef d7 3b 1b 63 0c 3b fa 3e 03 bc
       -0.01618191 0.00658983 0.0021421376 -0.00801062
000060 75 03 00 3c b2 a9 24 ba 92 66 2e bc e5 6e 68 bc
       0.007813324 -0.000628139 -0.010644572 -0.014186596
000070 c4 d5 ce bb 78 f0 92 bb 30 ce 40 bc 7e 5d 9d ba
       -0.006312104 -0.0044842325 -0.011767909 -0.0012006012
000080 d2 65 02 ba f8 08 25 3b 4a 9a b0 b9 77 ed 9a 3b
       -0.0004974279 0.0025182348 -0.0003368429 0.004728015
000090 a3 85 cf bb e1 e7 ee bb 04 02 a8 3a 8e 60 6a bc
       -0.0063330694 -0.0072908257 0.0012817984 -0.014305247
0000a0 f2 bb 63 bc a6 a1 4a bb ce 7a 42 bc 56 73 1c bd
       -0.01389979 -0.0030919104 -0.011870099 -0.03819593
0000b0 f0 fc c1 3c 48 c1 50 bc 4d e9 9e bb 32 ce 5e 3b
       0.02368018 -0.012741394 -0.004849589 0.0033997414
0000c0 46 ad 17 3b fb 66 09 bc 44 b4 bf b9 2f 7f 4d bb
       0.002314405 -0.008386369 -0.00036564667 -0.0031356325
0000d0 b7 c4 72 bc 73 e8 b8 bb e0 9e 2a bc 12 a0 a4 3c
       -0.014817408 -0.0056429445 -0.010413855 0.020095859
0000e0 d0 28 a2 bb 96 cf 86 bb 0d e7 cb bb 5d 54 8f bb
       -0.004948713 -0.0041141016 -0.0062226118 -0.0043740706
0000f0 7c 52 7c bc a0 3f 54 bc 1f 3d c1 bc 25 fb 9d bc
       -0.015400525 -0.0129546225 -0.023588715 -0.019284794
000100 ee ec c6 bb ca 3a 5e bc ed d5 92 3c 17 6a aa ba
       -0.0060707247 -0.013563821 0.017924273 -0.0013001588
000110 43 3f 31 bc 7e b6 4b bc 90 cf af bc be 95 8b bc
       -0.010818305 -0.012433646 -0.021461278 -0.017039176
000120 cc 3a 93 bc 52 71 c0 bb 32 1a 40 bc 87 4d 1e bc
       -0.017972372 -0.005872884 -0.011724995 -0.009662039
000130 92 71 a4 ba 28 d3 72 bc fe 87 84 bb ef c8 7a bb
       -0.0012546054 -0.014820851 -0.004044532 -0.0038266738
000140 95 54 bd bb 32 0d 6c bc 5c 0d 29 bc 33 15 5f bc
       -0.005777905 -0.014407443 -0.0103181265 -0.013615894
000150 bf fd aa bb 8f 11 f2 bb c0 22 83 bc 27 13 73 3c
       -0.005218237 -0.007387347 -0.016007781 0.014836109
000160 a9 5c d6 bb dc 1e d4 bb 54 70 f4 bc 4f b7 5d bc
       -0.0065418077 -0.0064734053 -0.029838718 -0.013532474
000170 61 32 c3 b9 50 65 08 bc 23 4b 99 bb ff 5d e7 3b
       -0.00037230834 -0.008324936 -0.0046781464 0.0070607658
000180 66 5c 7a bb a1 c7 a5 bb f6 a6 ad bc 55 17 c1 bb
       -0.0038202046 -0.005059198 -0.021197777 -0.005892674
000190 58 48 e7 b8 0e 81 9c bb 4d 14 cf bb f4 4c 1c bc
       -0.000110284134 -0.0047761267 -0.0063195587 -0.009539831
0001a0 91 1c 26 bb 47 3e 1c 3c 34 eb b5 3c f3 c5 9a bc
       -0.0025346617 0.009536332 0.02220688 -0.018893218
0001b0 81 11 a4 bc bb 04 5c bc 95 fb 52 bc dc ed 9f bc
       -0.020027878 -0.013428862 -0.012877365 -0.0195226
0001c0 69 c1 01 3b 1a 11 4b 3c 28 ff d7 bb 6d 69 b8 3b
       0.001979912 0.012394214 -0.0065916963 0.005627802
0001d0 8e 04 8e bc 78 db 17 bc b6 f8 ff bb a6 80 fc bb
       -0.017336156 -0.009268634 -0.007811631 -0.007705766
0001e0 8d d9 09 3c 0f bf 4d bc e9 a7 0c bc c3 67 4b bc
       0.008413685 -0.012557759 -0.008584955 -0.012414875
0001f0 a0 7b c2 3b 17 b8 ce bc 5f 83 33 3c 55 86 60 bc
       0.0059351474 -0.025234265 0.010956614 -0.013703902

action_model._continuous_distribution.log_sigma f4 [1, 2]
000000 37 27 91 3c 92 16 3b bb
       0.017718894 -0.0028547389

action_model._continuous_distribution.mu.weight f4 [2, 128]
000000 24 41 3b 3b 19 b8 b7 3a 13 bc 6c 3c 3d 31 fb bb
       0.0028572762 0.0014016657 0.014449137 -0.007665782
000010 09 64 bc bc ea 19 f5 3b 13 0a 04 3b 24 51 b8 bc
       -0.02299692 0.007479896 0.0020147606 -0.022499628
000020 a1 f7 bc 3c 89 ca ae 3a 5b c6 83 3b ea 9c 9f bc
       0.023067297 0.0013335507 0.0040214485 -0.019484002
000030 ce 40 60 bc 71 57 90 bc 0f 29 0e 3c a0 47 0d 3d
       -0.013687326 -0.01761982 0.008676781 0.034492135
000040 d1 b0 92 3b 6d 49 79 3b da 5f 64 bb cf 3f 40 3d
       0.0044766446 0.003803815 -0.003484717 0.046935853
000050 61 c8 5b bb 36 0f 0a 3c a1 7b 05 bd 79 10 2a 3c
       -0.0033536183 0.008426478 -0.032588605 0.010379904
000060 bc 9b 51 bd bd b0 bb 3c 38 e6 39 bb 33 bd 83 3b
       -0.05117391 0.022911424 -0.002836598 0.004020357
000070 b7 2a 65 bb 64 69 a9 3a a0 8d 74 bb 2a b6 85 3c
       -0.0034968087 0.0012925086 -0.003731586 0.016322214
000080 bd 07 2f 3c 84 da 3f 3c da 5a a8 bc c2 d4 45 3c
       0.010682997 0.011709813 -0.020551134 0.012074651
000090 a4 15 41 bc 92 4e ac bc 8c 4b 42 39 fb 47 27 bb
       -0.011784945 -0.021033559 0.00018529425 -0.0025525081
0000a0 0e 1f 62 bb b6 c9 05 3c 8f fd a8 bc 58 c2 0e bc
       -0.0034503373 0.008165767 -0.020628719 -0.008713327
0000b0 3f c4 a1 bc 1d c1 c5 bb be ae 3f bc 63 d0 19 3c
       -0.019746898 -0.006034984 -0.011699377 0.009388062
0000c0 70 73 16 bd cb 94 9a bc d8 a7 1f ba f6 50 75 bc
       -0.036731184 -0.018869778 -0.00060903793 -0.014972916
0000d0 c4 cc 8f 3c 99 5b 2b 3a 62 b1 0b bb a3 85 81 3c
       0.017553695 0.00065367814 -0.0021315445 0.015810793
0000e0 74 c0 1e 3c f6 9b 79 3b 0b d9 ec 38 b5 96 79 3b
       0.009689439 0.0038087345 0.00011293784 0.0038084213
0000f0 32 18 29 3c ef cc 0c ba ac 2e e1 bb d3 38 39 ba
       0.01032071 -0.00053711137 -0.006872019 -0.00070656574
000100 f9 35 2e bc fc 82 0f 3c fc 57 fd bb 64 32 52 3c
       -0.010632985 0.008759256 -0.007731436 0.012829397
000110 1c f9 89 bb e5 62 07 3b bd bb 5a 3c ad 10 90 bb
       -0.0042106044 0.002065831 0.013350424 -0.004396519
000120 48 02 a3 bb e7 6b dc bc fb 77 9f 3c ea ff 54 3c
       -0.004974637 -0.02690692 0.01946639 0.013000468
000130 ed 3a 9f 3b d5 aa 04 bc d0 aa fa bc ed a3 2a 3c
       0.0048593194 -0.00809737 -0.030599028 0.0104150595
000140 d1 cd 31 3c 51 ae e4 ba 0a 73 01 bc 3a d3 28 3b
       0.010852293 -0.001744697 -0.007900963 0.0025760666
000150 77 ad 38 bc 8a 46 75 3c df 57 88 3a ec 9b 02 bc
       -0.011271826 0.014970431 0.0010402164 -0.007971745
000160 3b c2 99 bb 29 71 af b9 6c 35 c7 bc 0a f1 ca 3b
       -0.0046923435 -0.00033462912 -0.024317466 0.006193285
000170 87 e8 33 3c af f6 18 bb a5 23 2c bb 4f 38 be 3c
       0.010980732 -0.0023340394 -0.0026266363 0.02322021
000180 e1 5f 4d 3c ff 44 d9 3b 2c 0c 60 ba 6a 8a c2 3b
       0.012535066 0.0066305394 -0.00085467356 0.0059369104
000190 90 79 0c bc ab a4 93 3b 6c 0a 32 bc 1a 23 56 bc
       -0.008573905 0.004505714 -0.010866743 -0.013069892
0001a0 e7 80 81 bb e7 bc 91 ba 44 75 01 bd a1 1d 5a bc
       -0.003952134 -0.0011118919 -0.031605974 -0.013312728
0001b0 d7 4e a2 ba ca 23 0a 3d 05 d2 9c 3b 8d 9c 18 bc
       -0.0012383115 0.033725537 0.0047857785 -0.009314668
0001c0 08 45 85 bc f2 43 34 bc 35 80 24 3b 2f 23 14 bd
       -0.016268268 -0.011002528 0.0025100831 -0.036166366
0001d0 bb 17 76 3b 09 6b cf bb af 81 f5 bc a1 40 2e bc
       0.0037550766 -0.0063298983 -0.029969065 -0.010635526
0001e0 7f 72 3e bc 8f ec 29 3b 38 2d 60 3c d6 fe 17 bb
       -0.011623978 0.0025928353 0.013682656 -0.0023192666
0001f0 84 13 b7 bc 69 51 84 b8 c3 3f 19 bd 8c 1a 4f 3c
       -0.022348173 -6.309414e-05 -0.037414324 0.012640607
000200 93 d6 46 bc 09 e5 13 3c 15 d3 a4 ba eb cb 04 3b
       -0.012136119 0.009026774 -0.0012575114 0.0020263146
000210 91 7a f0 3c 35 0a c9 bc c8 7f 2a 3c d6 f3 8c bc
       0.02935532 -0.024541 0.010406442 -0.017206114
000220 bc 73 98 bc cf 90 c5 3c 9f 09 cc bb 41 53 a3 bc
       -0.018609874 0.024116902 -0.006226733 -0.01993716
000230 5d 6a 0b 3c 5d 25 11 3d a5 f5 30 3b 1d 89 0a 3c
       0.008509246 0.035436023 0.0027001884 0.008455542
000240 89 19 8c bc 36 9d ab ba 49 8d 5d bb a3 8c c1 3b
       -0.01710202 -0.0013093117 -0.0033806136 0.005906658
000250 a6 2e a5 b9 b6 f7 13 3d 82 55 20 bc 5d 53 24 bc
       -0.00031506008 0.036124907 -0.009786012 -0.010029641
000260 b7 c2 82 bc 7e f1 ce 3c f4 61 1a 3b d1 32 7f bb
       -0.015961988 0.025261637 0.002355692 -0.00389402
000270 2d 76 15 bd e6 af a9 bc d0 73 64 bc 13 cd a2 3c
       -0.036489654 -0.020713758 -0.0139436275 0.019873178
000280 6b 1a 8c 3a c3 60 96 bc cd 7b 8a 3c b9 a1 fc ba
       0.0010689026 -0.018356686 0.016904736 -0.0019274271
000290 43 af 82 ba bb 31 3d 3c 07 84 4d 3c 4b e8 5c bc
       -0.0009970445 0.011547501 0.012543685 -0.013483117
0002a0 dc c9 b4 3a c5 47 c7 bc ad cc 5a bc 79 03 de bc
       0.0013793069 -0.024326215 -0.013354463 -0.027101265
0002b0 22 64 f0 bb bc b3 1f bc 89 2a 4f bc 95 c0 e7 bc
       -0.0073361555 -0.009747442 -0.0126444185 -0.028290072
0002c0 d9 2a f0 3a 7b b5 25 3b 04 c7 88 3c a5 d6 1c 3b
       0.0018323316 0.0025285173 0.01669646 0.002393165
0002d0 da a8 39 3b dd bc 37 3d d5 c4 92 3c 7d 86 9c 3c
       0.0028329403 0.04485785 0.017916122 0.019107098
0002e0 ca 83 8c bb f1 eb ee ba c5 c2 fb bb 7d 3d 8f 3c
       -0.0042881714 -0.0018228275 -0.0076831304 0.017485375
0002f0 a6 ed 61 bb 0b ad 73 bb 7c ed 53 bb 9b e0 97 bb
       -0.0034473925 -0.0037182 -0.0032337597 -0.0046349294
000300 f2 96 fb 3a 3e 86 08 3c 9e 5e e7 bc c1 de c8 bc
       0.0019194765 0.008332787 -0.02824336 -0.02452028
000310 46 23 87 3c db 50 82 bb 05 3a fd 3b 1c b4 a6 3b
       0.016496312 -0.003976924 0.0077278637 0.0050873887
000320 81 62 06 bc 8f ee 91 bc 04 db d4 bb b6 97 a1 3c
       -0.008202196 -0.017813949 -0.0064958353 0.019725662
000330 c0 0b eb 3c 04 08 bf 3b b2 37 53 3c 39 9f a2 3c
       0.028692126 0.005829813 0.012891697 0.019851314
000340 ba e5 95 bc d0 46 a4 3b 81 1d c7 3c a5 5b 9d bb
       -0.018298019 0.0050133243 0.02430606 -0.0048021846
000350 e6 03 92 bc 5a 3c a1 bc e2 11 4c 3a 17 74 13 bc
       -0.017824125 -0.019682098 0.0007784647 -0.008999846
000360 c3 13 10 bb 5d 64 d7 3b c8 8c ca 3a ef 84 d6 bb
       -0.0021984435 0.0065732435 0.0015453333 -0.0065466086
000370 ca 5a 8d bc 11 78 01 3c 7b 83 34 3c 5b fc b3 3c
       -0.017255206 0.007902161 0.0110176755 0.021970918
000380 67 df bb bc d8 59 be bc 04 30 21 bc 63 ba 34 bc
       -0.022933675 -0.0232362 -0.009838108 -0.011030766
000390 05 d1 b6 bc 5a aa 73 3b e9 ea 10 bc 04 f0 fa 3b
       -0.022316465 0.0037180395 -0.008845069 0.0076580066
0003a0 31 7b b3 3c 74 2e bf 3c 30 30 4b 3d 52 01 24 bc
       0.021909328 0.02333758 0.049606502 -0.01001008
0003b0 d3 35 be bb 56 31 72 bc e2 bc bd ba 71 6c 8d 3c
       -0.005804756 -0.01478227 -0.0014475847 0.017263623
0003c0 6a 5b 2c bc 18 c4 b9 bc 6c 99 0e bc b6 93 2d 3c
       -0.010519842 -0.022676513 -0.008703571 0.010594299
0003d0 6a 84 22 bb f8 25 24 3c ea 3d d4 3c 4d 0d 02 3c
       -0.0024798163 0.010018818 0.02590843 0.0079377415
0003e0 df 3c ca 3b ab 21 81 3b d2 28 0a bb 67 e4 31 3c
       0.006171807 0.003940781 -0.002108146 0.010857678
0003f0 1c 96 34 3c df a2 4c ba 02 65 05 bc 1e 35 f8 3b
       0.011022117 -0.0007806252 -0.008141758 0.0075746914

action_model._continuous_distribution.mu.bias f4 [2]
000000 c4 20 7a bb 5a 8f c4 3a
       -0.0038166502 0.0014996335

action_model._discrete_distribution.branches.0.weight f4 [1, 128]
000000 4f c8 d5 bb 33 b0 a6 bb 0b e1 99 bc c4 ff 9d bb
       -0.006524123 -0.0050869226 -0.018784067 -0.0048217494
000010 5b b0 94 39 37 e1 d1 bc ae 0e 29 bc cb 79 05 3c
       0.00028360155 -0.025620086 -0.010318441 0.0081467135
000020 00 09 36 bb 83 4c 9f ba 07 bc 01 bb d5 07 1b 3b
       -0.002777636 -0.001215354 -0.001979591 0.0023655791
000030 ff 56 8a bb c3 8e 47 bc 49 89 4b 39 c7 15 e8 3b
       -0.0042217965 -0.012180033 0.00019410731 0.007082674
000040 e1 c1 21 bc 20 79 3b bc fa 2b f5 bb 21 07 84 3a
       -0.0098728845 -0.011442453 -0.007482049 0.0010072925
000050 f0 0e cb 3b d0 f9 7b 3c 9b 14 76 bc b5 60 93 3c
       0.006196849 0.015379384 -0.015019561 0.01799045
000060 9b a9 29 39 c4 f1 b9 3a 5d e4 c5 bb 5e 9d 95 3a
       0.00016180279 0.0014186432 -0.006039186 0.0011414697
000070 95 94 87 3a bb 89 9c 3b 07 79 8b bc 57 55 d4 3b
       0.0010343964 0.004777161 -0.017025484 0.0064799
000080 4b 71 f9 39 40 18 df bb 87 4d 6e bb bd ed 4e bc
       0.0004757739 -0.0068083107 -0.0036362128 -0.012629923
000090 04 b8 8b 3b 00 7f 78 bc 70 4c dc 3b 50 1a f7 3b
       0.0042638797 -0.015166998 0.0067229792 0.0075409785
0000a0 c4 9c 4b bc ef 0b 5e 3b a6 61 4a bc 4b 48 bc ba
       -0.012427513 0.0033881625 -0.012352383 -0.0014364807
0000b0 47 92 51 3b 8d c6 9c 3b 33 3f 5c bb d7 0c 8e 3b
       0.0031978057 0.0047844113 -0.0033607006 0.0043350267
0000c0 d1 9f 98 bc 00 d2 7e bb d6 69 2d bb 22 51 8e bc
       -0.018630894 -0.0038882494 -0.0026460788 -0.017372672
0000d0 48 9b 14 bc 2d 24 27 3c 9f ea 0e 3b 5b 5d 44 3b
       -0.009070225 0.010201496 0.0021807326 0.002996287
0000e0 6b 26 72 3c 53 f9 8d 3b 13 37 e7 39 35 c9 ce ba
       0.014779667 0.0043327003 0.00044100787 -0.0015776517
0000f0 c8 f5 b6 bc 2d a9 06 bc 87 9d f2 ba 66 47 32 3c
       -0.022333995 -0.008219046 -0.0018510082 0.0108812805
000100 d2 b2 3e bc 70 8d f1 3b fb 4d 26 3b 56 ef 85 bb
       -0.011639314 0.007371597 0.002537607 -0.004087369
000110 aa bb 00 bc 0b b7 9e bb 9e 2e 30 bc 29 1a 02 bc
       -0.007857243 -0.0048435978 -0.010753302 -0.007940807
000120 fb e9 a7 3b a3 8b 54 3a 5b a1 fa 3b f9 22 a2 ba
       0.005124328 0.00081079657 0.0076486296 -0.0012370042
000130 fc d3 43 bc 1e 34 93 bb 87 76 6a 3b 88 f8 d4 3b
       -0.0119523965 -0.004492297 0.0035776214 0.006499354
000140 18 b9 e5 3b ef b9 8d 3c 5f 86 97 3b 4a c1 39 3c
       0.0070105903 0.017300574 0.0046241726 0.011337588
000150 4d e3 4c bc 3f e0 dd 3b 12 85 87 bb 45 b6 72 bc
       -0.012505365 0.006771117 -0.0041357363 -0.014813964
000160 db 6e bf bb e3 33 04 bc f2 47 29 3c c3 78 d5 3b
       -0.0058420724 -0.008069011 0.0103320945 0.00651464
000170 02 82 6a bb 2f 52 17 bc db eb d1 ba 83 44 ac 3a
       -0.0035783057 -0.009235903 -0.0016015725 0.0013142977
000180 7d 38 b7 3b da 22 9b 3b 36 2a a6 bc e3 18 ba bb
       0.0055914507 0.0047343792 -0.0202838 -0.0056792363
000190 98 2c 5c bc 08 37 ba 3b df aa 15 bc 85 68 e9 ba
       -0.013438366 0.00568283 -0.009134977 -0.0017807639
0001a0 4c 3b 1d bc ba c3 f4 3a 1b 50 3b 3a a7 05 98 ba
       -0.009596657 0.0018674054 0.00071454205 -0.0011598364
0001b0 97 cd 10 3c c3 1b 0a 3c 73 43 8b bc d9 35 25 bc
       0.008838079 0.0084294705 -0.016999936 -0.010083639
0001c0 c8 12 59 ba a5 5b 3b 3a 1b ae 26 bc 03 35 a1 bc
       -0.00082806917 0.000714714 -0.010173346 -0.019678598
0001d0 60 29 4f bb bf fd d4 3a 5f fa dc 38 c7 f2 9e bb
       -0.0031610355 0.0016249939 0.00010537053 -0.0048507187
0001e0 8f eb 6d bc a6 a3 19 3a ef b1 7f 3c 15 28 9c 3a
       -0.014521494 0.00058608723 0.0156063875 0.0011913801
0001f0 3f 66 b9 ba bf 09 7d bb 93 bf 34 bc df 40 57 3b
       -0.0014144852 -0.0038610545 -0.011032003 0.0032845063
