ML Agents tutorial/Assets/results/RollerBall/RollerBall/RollerBall-166755.onnx (onnx, 75769 bytes, 8 tensors)

network_body._body_endoder.seq_layers.0.weight f4 [128, 8]
000000 0d 1c ab 3e 77 81 ea 3d 4a f5 23 bf 18 ad 32 bf
       0.3341984 0.11450475 -0.64046156 -0.6979537
000010 c7 95 02 bd 22 80 c0 3e a8 a9 a2 3e 38 04 b0 3e
       -0.03188112 0.37597758 0.31770062 0.3437822
000020 99 5e 55 bd 75 62 27 3f 2b 96 3c 3f b9 06 f1 bd
       -0.05209217 0.6538461 0.7366664 -0.1176886
000030 d2 03 26 bd dd 7b 22 be 1b ff 15 3f 17 99 5f 3d
       -0.040530987 -0.15867563 0.58592385 0.054589357
000040 38 57 8b 3d 66 88 48 bd be 33 46 be e7 6e 32 bd
       0.06803745 -0.048958205 -0.19355676 -0.043562796
000050 16 b5 0c bf d1 46 a2 3e 1e b3 92 be e1 64 e2 3e
       -0.54963815 0.31694654 -0.2865228 0.4421759
000060 de 7f 4f be 61 d2 38 3f ce 7f f9 bd 13 13 a4 3e
       -0.20263621 0.7219601 -0.1218258 0.32045802
000070 8c d5 36 3e 47 b9 76 3e 60 85 af bd a6 d2 b1 be
       0.17854899 0.24094115 -0.08570361 -0.34731025
000080 23 79 e5 be e3 a7 07 bf 7c 5a 46 be 66 2f f7 3e
       -0.44818982 -0.5299055 -0.19370455 0.4827835
000090 ea fc 0d bf 7d cf 13 3c 6f 89 3e be a6 d5 6e be
       -0.5546404 0.009021637 -0.18607114 -0.23323688
0000a0 59 fa 05 3e 72 4f da 3e 8b a0 18 3f e5 a9 93 be
       0.13083781 0.42638737 0.5961997 -0.28840557
0000b0 46 d7 dd 3e 78 11 c2 3d 28 0c 7b be 3c 8a 67 3d
       0.43328303 0.09475988 -0.24516356 0.056528315
0000c0 e6 cd f1 bd 91 5f 23 bf 07 65 a8 3e 81 08 09 be
       -0.1180685 -0.638177 0.32889578 -0.1338215
0000d0 82 21 b5 3e 6a 34 89 bd 74 81 28 3e 44 6c 27 be
       0.35377127 -0.0669945 0.16455632 -0.16349894
0000e0 8c 29 15 bf 14 49 08 be d4 04 90 bd d6 40 b6 3b
       -0.5826652 -0.13309127 -0.07032171 0.0055619283
0000f0 87 45 34 be 4b 9b 3b bf 7f 71 da bd 0a f0 d6 bd
       -0.17604648 -0.73283833 -0.10666179 -0.104950026
000100 3e 23 11 be 65 ae 87 3e 1d 43 13 3e 1f 24 8e 3e
       -0.141736 0.2650024 0.1438107 0.27761933
000110 bc 65 0e 3f a3 37 3f 3e a0 f2 3e bf 25 49 23 bf
       0.55623984 0.18673567 -0.74588966 -0.63783485
000120 ec b5 a7 3d 9a 92 82 bd b6 9c 1c 3d 86 97 a8 bd
       0.08188996 -0.06375618 0.03823539 -0.08232026
000130 7f 72 06 3f 56 29 91 bd 4e 65 1f bf f9 9a 83 3e
       0.5251846 -0.07087962 -0.62263954 0.25704172
000140 e5 f9 11 be 02 fa 4d bf 61 68 8b bd c9 17 ba 3e
       -0.14255483 -0.80459607 -0.06807018 0.36346272
000150 25 91 7e be 71 03 b2 be f5 ca 43 be 7d fd 5f bb
       -0.24860056 -0.3476825 -0.1912039 -0.003417819
000160 5d 5b c7 3e 8a 8f 92 3e 1b 27 b1 be 02 db a0 3e
       0.38936892 0.28625137 -0.34600148 0.3141709
000170 a7 22 9f 3c 44 90 11 be b0 4d 77 3e 2b 16 0c bf
       0.019425703 -0.14215189 0.24150729 -0.54721326
000180 11 7d 5c 3e 4f 01 ec 3c 42 d5 a3 3e b3 4a a4 bc
       0.21532084 0.028809218 0.3199864 -0.02005515
000190 0a 68 0f 3f 5a 5b 86 bd 6a 9a 50 bf 87 a6 4e 3e
       0.56018126 -0.06560393 -0.8148562 0.20180713
0001a0 da 75 0f bf de 31 6a be 06 9b eb bd 05 6c bd bc
       -0.560392 -0.22870585 -0.11504178 -0.023122797
0001b0 1a 56 58 3e 56 3b 14 3f 59 dc a1 3e e6 77 b9 bc
       0.21126595 0.5790304 0.31613424 -0.02264018
0001c0 11 43 f8 3e 8a 9e 08 3f b4 bc 45 be e1 b0 57 be
       0.48488668 0.5336691 -0.19310266 -0.21063568
0001d0 81 78 be be 12 de 08 3f df 70 33 be c2 1d a3 be
       -0.37201312 0.5346385 -0.17523526 -0.3185864
0001e0 1e ff 24 3d 20 74 3d 3e 0b ca 30 3e d7 ab 02 3f
       0.04028236 0.1850133 0.17264573 0.51043457
0001f0 c5 82 59 be 8d b6 b4 be cb 6e 45 3e ea 07 8d be
       -0.21241291 -0.35295525 0.19280545 -0.275451
000200 bc b3 af 3e 41 eb 94 3e a1 c3 ad 3d 35 a8 2b 3f
       0.34316814 0.29085734 0.08484579 0.6705354
000210 34 85 df 3e fa 0d 63 be 0a 0a 40 bf 79 79 c1 be
       0.43656313 -0.221733 -0.7501532 -0.3778799
000220 99 73 36 3e 36 89 91 3e c2 d7 8c be e9 4d 4f bc
       0.17817535 0.28424996 -0.2750836 -0.012652853
000230 f3 69 1a 3e ed 79 ae 3e 19 58 3c be 48 18 05 3f
       0.15079479 0.34077397 -0.18392982 0.51990175
000240 00 ca 14 3e 4e 75 a5 3e 28 36 01 3d 79 dc b3 be
       0.14530182 0.3231606 0.031545788 -0.35129145
000250 f5 0d b7 3e 42 2b b9 3e 88 59 64 be 42 19 fb be
       0.35752836 0.36165816 -0.22299778 -0.49042708
000260 4f f2 ca 3e 35 4d a5 be e9 a1 9d be 00 9b b7 3e
       0.39637992 -0.32285467 -0.3078759 0.35860443
000270 f1 6b 63 3d b9 f7 36 3e 33 e0 98 be e9 7e 95 bd
       0.055522863 0.17867936 -0.2985855 -0.07299597
000280 c6 96 75 3e 9d 2f 20 3e 68 15 eb 3e c8 50 ca bc
       0.23983297 0.15643163 0.4591477 -0.024696723
000290 d9 6f 41 3f c7 c8 58 bd 4b f6 94 be 23 f1 08 3f
       0.7556129 -0.05292585 -0.29094157 0.53492945
0002a0 f4 2a 23 bf 42 d6 8d be 44 fa 00 3e 8d 1d 78 be
       -0.63737416 -0.27702528 0.12595469 -0.24230023
0002b0 b9 d0 7b 3f 92 29 91 be 21 cd bf bc b6 47 24 3e
       0.9836536 -0.28352028 -0.023413243 0.1604298
0002c0 dd fe bb 3d 17 45 e6 3e 06 c8 e4 3e 6a 66 7b bd
       0.09179471 0.44974586 0.44683856 -0.061376967
0002d0 19 3d 05 bf 96 25 84 3e 29 bb 9a bd 37 46 08 3f
       -0.5204635 0.25809926 -0.07555229 0.5323214
0002e0 bd 70 12 3d dd cf 0f bf c1 f7 67 3e c8 4a 80 3c
       0.035752047 -0.5617655 0.22653104 0.015660658
0002f0 20 55 f9 3d 68 ac fc 3d e3 ea 04 3f f2 50 51 3e
       0.121744394 0.123375714 0.5192091 0.20441034
000300 62 7b 6f be 16 39 a1 be 3e cd ab 3e 53 2b 01 bf
       -0.2338691 -0.31488866 0.33555025 -0.5045673
000310 0a 5a 0e 3e 5a d5 dc 3d 23 64 4b bd 18 77 84 3e
       0.13901535 0.10782881 -0.049656045 0.2587211
000320 fa b5 06 bf 29 ac 1a 3f 25 a7 48 bd 13 07 24 3d
       -0.52621424 0.60418946 -0.048987526 0.04004581
000330 60 87 9f be 18 a9 df 3e fe 58 da bd e3 d5 df bd
       -0.3115797 0.43683696 -0.10661505 -0.109294675
000340 84 10 fd bc f4 ef e6 3c b8 4b 91 3d 4a 8f 7c 3e
       -0.030891664 0.02819059 0.0709452 0.24664035
000350 f8 58 c5 be 79 a8 26 be bd 72 b7 bc 16 f4 b5 be
       -0.3854444 -0.16275205 -0.022393579 -0.35537785
000360 a3 6c 66 be 64 b0 b1 3d e5 d0 33 bf e6 ac 77 be
       -0.22502379 0.08676222 -0.7024062 -0.2418705
000370 4c f7 6b be 76 8a 37 3f aa f1 0a bf 93 9b d4 3a
       -0.23043555 0.7169565 -0.54275 0.0016220681
000380 53 3a a1 3e 58 a9 f3 3e 5d df c4 3d 60 28 d5 be
       0.3148981 0.47590137 0.09612916 -0.41632366
000390 4d c5 b5 3e da d7 5c 3e b6 7a 3b be f8 85 86 be
       0.3550209 0.21566716 -0.1830853 -0.26274085
0003a0 a3 46 bc 3e c1 18 07 3f 36 da ce 3e c6 b4 79 be
       0.36772642 0.52772146 0.40400857 -0.24385366
0003b0 5c 68 00 bf e8 ea a4 bd b5 83 32 be 2b 4d 1d 3e
       -0.5015924 -0.08052617 -0.17433055 0.15361468
0003c0 ce c7 3e 3e 3e 93 8a 3e 0c bf c4 bc 2f 5b 51 3e
       0.18630907 0.27065462 -0.02401688 0.2044494
0003d0 93 89 b0 3d 02 f4 45 3f 5c bf a4 be 1a e1 28 3e
       0.0861999 0.7732545 -0.32177246 0.1649212
0003e0 a0 d9 04 3e 72 13 a2 be 38 e2 97 be ec ad 12 3f
       0.12973642 -0.3165546 -0.2966478 0.57296634
0003f0 14 85 5a 3e e5 54 eb bd 62 1a d7 be 89 7b 7f be
       0.21339828 -0.11490802 -0.42012316 -0.24949469

network_body._body_endoder.seq_layers.0.bias f4 [128]
000000 65 df 85 3c ce 92 18 3d 58 60 59 bd 33 6a 11 bd
       0.016341874 0.03724938 -0.053070396 -0.03550167
000010 81 3d ab 3c 0b 90 ef bb fe 99 51 bc 1d fb 86 bd
       0.02090335 -0.0073108724 -0.012793062 -0.06590865
000020 d0 50 b1 bd 22 6d 21 3c 0a 92 c8 bd 3b d3 ad bc
       -0.08657992 0.009852679 -0.0979348 -0.021218887
000030 7d 6e 88 3a b3 a0 45 bd 72 90 1c bd 2a 7b 97 bd
       0.0010408905 -0.048248958 -0.03822369 -0.073965386
000040 17 65 e8 bc c0 15 92 bd 6b 9e 2c bd 5b e6 e3 bd
       -0.028368516 -0.07133055 -0.042143267 -0.11127921
000050 e9 d0 29 bc 40 89 db bd a8 d6 b4 bd 37 24 cb bd
       -0.0103647495 -0.10719538 -0.08830005 -0.09919017
000060 cd 01 5d 3c 38 59 c3 3c ef f3 9f bd f6 30 52 3d
       0.013489199 0.023846254 -0.078101985 0.051316224
000070 40 64 f5 3b 23 f9 6a bc 7e 8f 17 bd 73 25 c8 bd
       0.0074887574 -0.014341625 -0.03700208 -0.09772768
000080 c3 e8 69 bc b1 de a4 bc 95 98 fd 3b 6a 64 00 bd
       -0.014276686 -0.020125719 0.0077391365 -0.031345762
000090 9d 8c 69 bc 18 b1 8d bd 77 51 a3 bd c5 bf 97 bd
       -0.014254716 -0.069185436 -0.079745226 -0.07409624
0000a0 e9 5a eb bd 33 7f dc bd 04 4a a9 3d 02 0e a3 bd
       -0.11491949 -0.10766449 0.082660705 -0.07961656
0000b0 bf 8b 0d bd 05 26 14 be 8a 45 f6 bc fe eb 98 bc
       -0.0345571 -0.14467628 -0.030062456 -0.018667217
0000c0 05 0b eb bd f4 b4 a2 3d d0 d8 85 3c cb 58 3e 3d
       -0.11476711 0.0794467 0.016338736 0.0464714
0000d0 a0 63 33 bd b5 b7 a9 bd c4 1d 13 bd ea 60 02 bd
       -0.04379618 -0.082869925 -0.03591706 -0.031830706
0000e0 8c df 8c bc 1a 63 90 bc 59 d4 02 bb f9 43 3a 3d
       -0.01719644 -0.01762538 -0.0019962995 0.04547498
0000f0 62 a8 48 bd 0b 77 4a 3c 30 59 ed bd 27 e8 fb bb
       -0.048988707 0.012357484 -0.11589277 -0.007687587
000100 2a b1 9c 3d 94 92 b1 3d 89 cf 05 be b0 4c e6 3c
       0.07650979 0.08670536 -0.1306745 0.02811274
000110 c9 47 67 bd 0b 0e 30 bd 7e c4 48 3d 2a 47 bd bd
       -0.056464944 -0.042982142 0.049015515 -0.09242089
000120 27 90 cd bc 56 a4 84 3d 4d 0c a0 bd 87 4b 67 39
       -0.025093151 0.06476657 -0.07814846 0.00022058013
000130 40 1f a7 3c 29 e3 52 3c f4 79 f6 bd 17 f4 0d bd
       0.020400643 0.012871542 -0.120349795 -0.03465661
000140 2c 21 0a 3c fb f7 c2 3d 85 76 40 bd 7b e7 05 bd
       0.00843076 0.09519955 -0.04698803 -0.03269146
000150 3c d3 66 bd 0e b8 8d bd aa 7b 5e 3d 8b f3 ab 3c
       -0.056353793 -0.06919871 0.054317154 0.020990154
000160 e7 90 b6 3c ac 33 a3 bd 0a 51 7e bd d6 05 c3 bd
       0.022285892 -0.0796884 -0.062089004 -0.095225975
000170 09 f4 7c bc aa 70 16 bc 70 d6 ce bc bd a1 92 3c
       -0.015439042 -0.009182135 -0.025248736 0.017899388
000180 d0 6c a5 3b 77 01 4b bd 9a 29 ad bc 1d ec c1 bd
       0.005048372 -0.049561944 -0.021138001 -0.09468863
000190 d2 ef 43 bd f0 86 11 bd de b8 9f bd 50 15 24 bd
       -0.047836132 -0.035529077 -0.077989325 -0.040059388
0001a0 ec 7d 88 bc d6 39 54 bd 11 e7 2d bc f5 87 5c ba
       -0.016661607 -0.05181297 -0.010614173 -0.0008412593
0001b0 5c 77 e2 3c 42 44 ed bd e4 0d 7c bd 43 90 3e bd
       0.027644806 -0.11585285 -0.061536685 -0.046524297
0001c0 52 35 30 3c 33 72 fe bc 40 20 85 bd de 0d ce bc
       0.0107549 -0.031060314 -0.06500292 -0.025153097
0001d0 3c 84 53 3d 68 1a 09 bd e9 bd 08 bd 72 85 13 3d
       0.05163978 -0.03347245 -0.033384237 0.036015935
0001e0 14 43 49 bc 4f 6d 1b bd 3d 0a 13 3c 78 67 1b be
       -0.012284059 -0.03794604 0.008974609 -0.15176189
0001f0 55 13 ab 3d 31 f9 e6 bd 27 a5 cd bb 1c ed 94 bd
       0.08353297 -0.11277998 -0.006275791 -0.072717875

network_body._body_endoder.seq_layers.2.weight f4 [128, 128]
000000 1b ee 87 3d 3a 83 0c 3d 92 9a 01 be 80 a2 70 3d
       0.06637212 0.034304835 -0.1265662 0.058748722
000010 aa 2d 8a bc da 53 ad bd 44 79 68 bb ed fc 87 bd
       -0.016867477 -0.08463259 -0.003547267 -0.06640039
000020 d2 b2 33 3d 72 f1 ae bd c3 1f c3 bd 6a 5e 09 3d
       0.04387171 -0.08542146 -0.095275424 0.033537306
000030 75 16 1d be f4 69 58 3d 8d 0f 8f 3d ac 82 48 be
       -0.15340598 0.05283542 0.06985388 -0.19581097
000040 76 60 8a bd fe fe 47 3e 73 99 5c 3c ba 92 4e bd
       -0.0675668 0.19530866 0.0134643195 -0.050432898
000050 01 29 35 be a6 d4 ed bd 90 ac 1b 3b 9b b7 8e 3d
       -0.17691423 -0.11612825 0.0023753978 0.06968614
000060 b4 36 7a bb 18 93 e1 bd 90 11 eb bd 29 f2 91 be
       -0.0038179578 -0.11014384 -0.11477959 -0.28505066
000070 37 29 85 3d a2 3b 25 bd ee a8 66 be 82 6f 6b 3e
       0.06502002 -0.040340073 -0.22525379 0.22991756
000080 1b 5e a9 bd ad 64 37 bc 0b e2 3a be 93 52 c1 bd
       -0.08269902 -0.011193437 -0.18250291 -0.09439578
000090 27 80 e4 bd dc a0 2f 3d ce bf b5 bd 43 dd 65 bd
       -0.111572556 0.042878017 -0.088744745 -0.056119215
0000a0 b6 3c 21 3d 74 b0 aa bb c2 4c 34 be f7 60 b5 3d
       0.03936454 -0.005209023 -0.17607406 0.08856385
0000b0 c3 c8 ec bd 32 40 23 3b 06 b1 0b 3e 3c d9 1c be
       -0.1156173 0.002491009 0.13641748 -0.15317243
0000c0 c5 b4 8a bc 6d 06 5d bc 9f 82 80 3d 4b 84 f5 3d
       -0.0169319 -0.013490302 0.06274914 0.119881235
0000d0 a3 a4 a1 bd 2d e3 87 bd 00 c8 30 be 0a 50 4e 3e
       -0.0789273 -0.06635127 -0.17263794 0.2014772
0000e0 df a9 96 3d 0c 08 15 3d 67 d7 98 bd 21 f2 b9 3d
       0.07356619 0.036384627 -0.0746296 0.090793855
0000f0 5b da 0f bd e7 ea 04 3d 54 bd 89 3d 96 a7 fd 3d
       -0.03512035 0.032450583 0.067255646 0.1238548
000100 d9 25 6a bd e9 48 1e bd 87 15 65 bd 2d ac 1c be
       -0.057165 -0.03864375 -0.055928733 -0.15300055
000110 f8 05 a4 bd d9 f4 32 be 3d 25 5a bd 88 41 54 bc
       -0.08008951 -0.17476214 -0.05325817 -0.012955077
000120 b3 b9 63 3d 7c cd 87 3d a8 bd 0d 3c f9 cd 94 bc
       0.05559702 0.0663099 0.008651175 -0.018164622
000130 96 02 b2 bd 86 33 d1 3d e2 20 3d 3d b0 70 1a 3e
       -0.086918995 0.102149054 0.046173938 0.1508205
000140 1c d8 d8 bd 01 51 19 be 69 0f 8e 3d e3 7a 2d be
       -0.105880946 -0.14972307 0.06936533 -0.16941409
000150 79 53 cd 3c 27 08 4d bd 99 e2 6f 3d 5f 3e e9 3d
       0.025064217 -0.050056603 0.05856571 0.113888495
000160 f8 19 75 bb 0e 8c 80 bc 6b 9e 16 bd 97 6e ac 3d
       -0.0037399512 -0.015691783 -0.036772173 0.08419531
000170 c6 c8 9e 3d ed 15 b3 3a 47 e1 e3 3d 69 22 00 be
       0.07753138 0.0013663151 0.111269526 -0.12513126
000180 be 38 7d bc a2 2b d4 3d c1 80 b1 bc 82 e1 bb bb
       -0.015455423 0.10359885 -0.02166784 -0.0057336697
000190 5a 44 33 bc 56 ac b8 bd 93 df d4 bd e0 3d 9d 3d
       -0.010941589 -0.090172455 -0.10394206 0.07677817
0001a0 ff e1 8f bd e5 fd 06 bd b4 e5 30 bc 12 1d 23 be
       -0.07025527 -0.032956976 -0.010796953 -0.15929058
0001b0 c2 3d 28 3e 2e cb 9a bd 49 27 94 bc ea 2c f7 bd
       0.16429809 -0.07558285 -0.018085139 -0.120691136
0001c0 e6 21 09 be ce 48 58 bc 1a 23 a2 3b 5f 0f aa bd
       -0.13391837 -0.013200952 0.004948032 -0.08303713
0001d0 6b 18 f5 bd 9c 2a 47 3e 4e 7a 2e 3d 12 2a 00 3e
       -0.11967548 0.19449848 0.042597108 0.12516049
0001e0 77 75 bd bc 79 90 78 3b 21 40 b3 bc 44 45 cf ba
       -0.0231273 0.003792791 -0.021881165 -0.001581349
0001f0 b9 80 68 bd 3e f9 f7 bd 81 03 26 be 22 7a 77 bd
       -0.056763384 -0.12108086 -0.16212274 -0.06041921
000200 d9 eb 3f be ec bc 36 3d 6d 31 bd bd d1 7b a3 3d
       -0.18742312 0.044613764 -0.09237943 0.079826005
000210 7f 9f 0a be 94 c4 22 bd d7 11 64 3d 25 c3 c7 bc
       -0.13537405 -0.039738253 0.055681076 -0.024385044
000220 21 24 fc 3b 90 4b df bd f4 92 e9 bd 36 e8 b7 bd
       0.0076947366 -0.10903084 -0.11404982 -0.089798376
000230 cc 7c d6 3c ee 97 d1 bd e0 d2 ee 3c bf cf 93 3d
       0.026182555 -0.102340564 0.029153287 0.07217359
000240 af 77 70 3b 99 bd 59 be b4 43 d2 3c 68 b3 a7 bd
       0.003669243 -0.21263732 0.025667049 -0.08188516
000250 87 a0 df 3c e5 8f 4b 3c e3 5e 5f 3d fd 29 94 3d
       0.027298225 0.012424444 0.05453385 0.07234571
000260 f4 81 85 bd 46 c3 44 3e 10 b1 0f 3e 2b 12 05 bd
       -0.06518927 0.19215116 0.14032388 -0.03248803
000270 49 66 8b bc 23 06 16 3d 6c 1c 01 be 89 f9 6a 3d
       -0.017016547 0.036626946 -0.12608498 0.05736688
000280 f7 1c 25 3d d1 23 ac bd 00 b8 27 be 2c ed c0 3d
       0.040310826 -0.08405269 -0.16378784 0.09420237
000290 c3 4d 34 bc ee 12 21 bd fe 87 23 3d 1b 80 a9 bd
       -0.011004868 -0.039324693 0.039924614 -0.08276387
0002a0 34 e5 59 3d 54 c6 ec 3d 8b 80 cd bc c0 86 bb 3c
       0.0531971 0.115612656 -0.025085708 0.022891402
0002b0 fd dc 2f bd 88 9a fc 3c 37 24 d0 bd ea 81 c0 bb
       -0.04293536 0.030835405 -0.101631574 -0.005874862
0002c0 9c 47 fe b9 19 b0 69 be 72 39 3a 3d 4a 4d c2 3c
       -0.00048500008 -0.22821082 0.04546494 0.023718495
0002d0 6a 3f 10 bd 8c ab 51 bc 19 d6 ba 3d 17 8b ba bd
       -0.035216726 -0.012797248 0.09122867 -0.091085605
0002e0 2c 09 0b 3e 99 17 15 3e 06 7b 57 bb 7c 7b cf bc
       0.13577718 0.14559783 -0.0032879724 -0.025327437
0002f0 34 37 29 bd 31 70 59 bd 8f b0 0f be a3 63 74 bc
       -0.04131241 -0.05308551 -0.14032196 -0.014916333
000300 90 86 ce bd a7 fa fe 3d 23 23 00 be 2a 5c 47 3d
       -0.100842595 0.12450152 -0.12513404 0.04867188
000310 aa 48 98 bd cb cf f8 3d 72 f0 7d 3d a7 f7 21 bd
       -0.074357346 0.12149008 0.061996885 -0.03954282
000320 3e 53 93 bd e4 e9 15 be bb 64 29 bd ce 42 ac 3d
       -0.071936116 -0.14640003 -0.04135583 0.084111795
000330 d6 5e c5 bd 32 58 0b bd a6 be d0 bd 89 35 32 be
       -0.09637229 -0.034019656 -0.10192613 -0.17403235
000340 2c e0 d4 3d 15 b6 d6 bd 02 08 53 bd b5 e9 32 be
       0.1039432 -0.10483948 -0.05152131 -0.17471965
000350 a5 e9 77 3e f0 c8 9f bc a5 27 09 be ef 6d b1 bc
       0.24210222 -0.019504994 -0.1339403 -0.021658866
000360 2a cc 67 3d dd 82 38 be d1 95 b5 3c f6 b3 67 3e
       0.05659119 -0.1801867 0.022166165 0.22627243
000370 8d 68 10 bc 5e 34 b9 bd ac 5e 18 be c8 0a b7 bc
       -0.008813989 -0.090431914 -0.14879864 -0.022344008
000380 10 01 cb bc 99 3f 2a be 91 eb 0d be 8f ff a0 3d
       -0.02478078 -0.16625823 -0.13859393 0.07861244
000390 c6 1f 19 3c 7a 6a f5 3a 51 77 d5 bc 39 c5 a1 3d
       0.009345954 0.0018723749 -0.026057871 0.07898945
0003a0 03 15 22 be c6 8c d7 3d be ff 1d 3c 02 b4 40 3d
       -0.15828328 0.10524897 0.009643493 0.04704667
0003b0 e4 61 f6 bd 0c 99 cd 3c d4 52 dd bd 00 f8 13 bd
       -0.1203039 0.025097392 -0.10806814 -0.036125183
0003c0 4e f3 91 bd 1f af bb 3d 5c db ae bd 99 96 bd 3d
       -0.07126485 0.09164261 -0.08537933 0.0925724
0003d0 ab 94 22 bd 39 e8 48 3d 0c 7c 45 3d 91 a2 08 3e
       -0.039692562 0.04904959 0.048214003 0.13343264
0003e0 d1 f9 86 bd 5b b1 3b 3e a7 da cf bd b4 ac f6 3d
       -0.065906174 0.18329374 -0.101491265 0.12044659
0003f0 e5 6e 62 be d1 73 94 3c 68 78 66 3d e7 2b bb bd
       -0.22112615 0.018121632 0.056267172 -0.09139233

network_body._body_endoder.seq_layers.2.bias f4 [128]
000000 47 73 8b bd e5 57 b9 3c 17 c0 ff bd ec 85 26 bd
       -0.06809097 0.02262492 -0.1248781 -0.04065506
000010 bb c8 81 3c 37 5c 75 3a 9a 06 0f bd 1f 7f 47 3d
       0.015842786 0.00093597494 -0.034918405 0.048705216
000020 ab 32 bd 3c 63 78 a7 3b 28 1e 69 3d 53 12 00 be
       0.02309545 0.0051107868 0.056913525 -0.1250699
000030 ff 0f 9d 3d 28 6b e9 bd 4c 93 f6 bb 94 39 7c 3d
       0.07669067 -0.113973916 -0.0075248834 0.06157835
000040 0f 1f 2f bd 38 30 ca bd 3d 92 a1 bd db 9e 15 bc
       -0.04275423 -0.09872478 -0.07889221 -0.009132112
000050 87 c3 d0 3c df d2 16 3c 4f 78 ff 3c bd 26 84 bd
       0.02548386 0.009205549 0.031185297 -0.06452701
000060 cd 43 c3 bc 27 c8 b1 3a 4e ce 15 3c d8 7e 9f 3d
       -0.02383604 0.0013563678 0.009143425 0.077878654
000070 24 d4 b5 3c c7 ac 6d b9 ee 31 5e 3d 87 52 67 3c
       0.022195883 -0.00022666446 0.054246835 0.014118797
000080 ec 6d 08 bd c2 17 6d bd 2b 92 13 3b c6 d3 d4 3c
       -0.033307955 -0.057883985 0.0022517543 0.025979888
000090 19 23 cc bd 72 25 47 3a 33 f0 60 3c de 1e 4b bd
       -0.09967632 0.00075968273 0.013729143 -0.049589984
0000a0 f3 1a ea 3c 27 f6 d2 bd 0e c9 1a bd e8 0c 26 bc
       0.028577304 -0.10300856 -0.037789397 -0.010134913
0000b0 46 cd d5 3d 07 d6 a2 3c 15 3a 9b 3b 35 7d 48 bd
       0.104395434 0.019877447 0.0047371485 -0.04894753
0000c0 74 a1 9f bc ad 44 45 bd 4d 8f da bc 7b d6 d8 bd
       -0.019486167 -0.048161197 -0.02667966 -0.10587784
0000d0 12 ff f0 bc ca 04 4b 3c 01 80 25 bd 08 37 76 3a
       -0.029418502 0.0123912785 -0.040405277 0.00093923556
0000e0 cd 99 80 bd 37 b2 2c bc 20 30 2a bd 6b 86 ed bc
       -0.06279335 -0.010540537 -0.0415498 -0.02899476
0000f0 4e 18 6f bd 97 85 23 bd a3 ce 2b bd fc 35 30 3d
       -0.058372788 -0.039922323 -0.04194511 0.043020234
000100 0b 7f 65 bd 2a 5b 33 bd 17 bc af 3d 91 c3 02 3d
       -0.05602936 -0.043788113 0.08580797 0.031924788
000110 8b 80 9d bd 6b 58 71 3d d4 90 43 bd ea 78 57 bd
       -0.07690533 0.058922213 -0.04774554 -0.052605547
000120 1a 49 b2 bd 1b 0a ab 3c 23 8c 68 bd f9 0b 9a 3c
       -0.08705349 0.020878842 -0.05677427 0.018804537
000130 70 27 92 bd b7 c0 3b bd 4c 36 c3 bc aa d4 e4 bc
       -0.07136428 -0.045838084 -0.023829602 -0.027933437
000140 1c 75 02 3d 94 85 c7 bd b2 3b 84 3d 4f e9 75 3c
       0.031849965 -0.09742275 0.064566985 0.015009238
000150 5c db 10 3b 8f e0 74 3b 33 0f 25 3d 89 87 6a 3d
       0.0022103405 0.0037365293 0.0402977 0.057258163
000160 9d 20 fa 3c 76 47 cf 3c 7b 76 ca bc 62 6a 5d 3d
       0.03053313 0.02530263 -0.024714699 0.054056533
000170 fd 89 05 bc 15 51 c6 3a 97 8c 30 bc 4f 61 f6 3c
       -0.008150575 0.0015130366 -0.010775707 0.030075697
000180 5d 9f 0d bd 99 fb 6d ba 93 90 4e 3d 0f c6 85 bc
       -0.03457581 -0.00090783235 0.050430845 -0.016329793
000190 3d 74 ce bc 26 f2 1c 3d fa 78 72 bc 77 82 88 3b
       -0.025201911 0.03831687 -0.014799351 0.0041659432
0001a0 d9 f9 99 3d 11 fc 9f bc dc 98 02 bd d2 a9 a9 bd
       0.07518358 -0.019529374 -0.03188406 -0.08284344
0001b0 04 e9 96 3a 55 07 8d bd 84 6d 47 3d c8 12 a6 3b
       0.0011513536 -0.06886164 0.048688427 0.005068157
0001c0 2a 04 52 bd 75 a2 47 3d 85 31 c5 bc b0 14 25 3d
       -0.051273502 0.048738915 -0.024071464 0.040302932
0001d0 72 e6 5e 3c 61 94 41 bb e3 b1 28 3c d6 f1 20 bd
       0.013604747 -0.0029537904 0.010296318 -0.039293133
0001e0 bc ad e3 bc a1 2a ee bc b6 57 ec bd d3 18 72 3b
       -0.027792804 -0.029073061 -0.11540167 0.0036941066
0001f0 ba 0a 22 3d 92 92 24 bd 2b 81 d6 3b 1b cf 2b bd
       0.03956101 -0.040178843 0.0065461597 -0.041945558

action_model._continuous_distribution.log_sigma f4 [1, 2]
000000 3f c1 06 bc 60 cd 4b be
       -0.008224784 -0.19902563

action_model._continuous_distribution.mu.weight f4 [2, 128]
000000 d7 c3 36 3d da a8 83 bc 80 10 bd 3d ea be a7 bc
       0.04462036 -0.016071726 0.09231663 -0.020476777
000010 f0 fc bb 3a c2 2f 61 bd 1e 52 b7 bc df 8b 82 bc
       0.0014342349 -0.054977186 -0.022378024 -0.015935836
000020 2a 6f b1 3c df d3 fe bc 22 b3 71 bd 83 d9 22 3c
       0.021659452 -0.031106887 -0.059008725 0.009939554
000030 bb 38 2b bc 48 80 7d 3d bc c1 84 3c e1 bd 5a 3d
       -0.010450537 0.061889917 0.016205661 0.05340374
000040 11 94 ff bc 51 f2 2f 3d 69 0e a0 bb 7b c2 05 3d
       -0.031198533 0.0429557 -0.0048845303 0.032656174
000050 f9 95 88 3b a9 16 89 3c 70 c9 08 bd 6f ca 38 3d
       0.0041682688 0.016734438 -0.03339523 0.04511493
000060 c9 b3 c7 3c d2 2a de 3b ae 72 2c bd 5d 62 92 bc
       0.02437772 0.006780007 -0.042101555 -0.017869169
000070 2d 49 bc bc 0c 68 4c bc 21 31 85 bd 34 d9 2f 3c
       -0.022984112 -0.012475979 -0.06503511 0.010732938
000080 a9 21 07 bd 5c 12 36 3b fd ad b9 3b 49 a6 63 3b
       -0.032991085 0.002778194 0.005666493 0.0034736565
000090 f2 89 a5 ba 6f 41 9d 3d 5b 84 ba 3c 61 2f 06 3d
       -0.0012629612 0.07678496 0.02276819 0.032760028
0000a0 b5 77 36 bc 52 ce 28 3d 45 b1 5e 3c a2 b8 02 3e
       -0.011136939 0.041212387 0.013592069 0.12765744
0000b0 98 79 97 bd 76 98 53 3d 6c ca 0f 3d 84 54 ca bc
       -0.07396239 0.05165907 0.035105154 -0.024698503
0000c0 fe 73 84 bc 72 e6 55 bc a1 a0 58 3c 94 60 01 3c
       -0.01616859 -0.013055431 0.013221891 0.007896561
0000d0 10 12 9a bc bb 78 12 bd d2 71 13 3e 4e 1a 01 bd
       -0.018807441 -0.03575967 0.14398888 -0.031519227
0000e0 31 94 ab bc 7a ac 9c 3d dc 7f 64 bd 2e 02 29 3c
       -0.020944687 0.07650085 -0.055786 0.010315461
0000f0 0a 07 89 3c e6 4a 90 3d e7 32 cc ba e8 a5 3d bd
       0.01672699 0.07045536 -0.0015579135 -0.0463008
000100 40 a0 d8 3c e2 9c 3a bc 6b 46 56 bc 1b 09 bb 3d
       0.0264436 -0.011389943 -0.013078312 0.09132596
000110 71 85 e6 bb 21 39 48 bb 83 a5 19 bc 7a 60 8c bc
       -0.0070349504 -0.003055163 -0.00937784 -0.017135847
000120 54 6d 2b bc a7 19 49 bd e9 99 2c bc db fc a6 3c
       -0.010463078 -0.04909673 -0.010534742 0.020384243
000130 b1 eb a4 3d cd 3f 31 bd 3e 1f 14 3d 3c b2 46 3c
       0.08052767 -0.043273736 0.036162607 0.012127455
000140 88 9e 46 3d 34 37 4e 3c f5 f8 c9 bb 87 6d 56 3c
       0.04849103 0.012586404 -0.006163711 0.013087637
000150 3e e5 14 bd 6a 93 e0 3c 5a 77 b3 3c 45 2c 23 bd
       -0.036351435 0.027414043 0.021907497 -0.03983714
000160 bb 4b 27 3b 78 b4 ea 3c 61 73 9c bc 58 ac 9e bd
       0.0025527317 0.028650507 -0.019097986 -0.07747716
000170 e3 33 32 bb 9a 2d 10 bd 89 1e d4 3c a0 98 0d 3d
       -0.0027191571 -0.03519974 0.025893467 0.034569383
000180 90 7c e9 3b 6b 8b ec 3c 21 f8 78 bd 4c 92 d3 3c
       0.0071254447 0.028875073 -0.06078351 0.025826596
000190 88 e0 0d bd 00 f7 85 3d 85 67 81 3b 06 5e 54 3b
       -0.034637958 0.06541252 0.003949108 0.0032404675
0001a0 94 4c ea bb 4c d1 30 bc fd 84 83 3c fd dc 97 bc
       -0.007150242 -0.010792088 0.016054625 -0.018537993
0001b0 02 70 80 bd 02 3a 9b 3c 1a 18 8c bc 55 68 f9 bb
       -0.06271364 0.018948559 -0.017101336 -0.0076113143
0001c0 5f e8 55 bb 0b 7d 36 bd 51 31 18 3d a9 99 4c bd
       -0.0032639725 -0.044552844 0.037156407 -0.04995123
0001d0 2d 79 d6 bc f4 30 36 bd 62 21 ff bc 4e 78 b7 3c
       -0.026180828 -0.04448028 -0.031143848 0.022396233
0001e0 c6 01 2f 3c b7 04 89 3b 35 05 0b 3d 25 ae 2d bd
       0.010681575 0.0041814703 0.033940513 -0.042402405
0001f0 e8 55 56 bd 5b 72 8a 3c a0 15 62 3c f7 d5 09 3d
       -0.05232802 0.016900232 0.013799101 0.03365132
000200 5e df 1d 3c bf 3a 2b 3d 05 d2 db bc 58 66 c2 3b
       0.009635774 0.04180407 -0.026833544 0.0059326105
000210 bd 5d 87 3c 75 26 86 3c d3 c0 9b 3c b6 0d 3e bd
       0.01652419 0.01637576 0.019012844 -0.046399795
000220 3b a3 a6 bb 83 e2 ce 3c 83 90 f9 bc 9f fb 74 3b
       -0.0050853766 0.025254494 -0.030464416 0.0037381423
000230 16 d3 0e 3d 9e cb 56 3c a5 f6 ee 3c 68 8c 09 3d
       0.034869276 0.01311007 0.029170344 0.033581167
000240 27 2a d3 3c f0 5b b4 3b 0d 8a d1 bb 64 41 9f 3b
       0.025776936 0.005504124 -0.0063946308 0.00486009
000250 29 74 53 3d 3e 3b 17 3d d9 fe e9 3b d0 fb 98 3c
       0.05162445 0.036921732 0.007140976 0.018674761
000260 6e f9 12 bd 74 22 10 3c 31 45 81 3d 72 1f 31 3d
       -0.035882406 0.008797277 0.06312025 0.04324288
000270 0f 0e 79 bd c3 0c 01 3d 50 0d 62 3c 71 e9 44 bd
       -0.060804423 0.03150631 0.013797119 -0.04807419
000280 98 be 4b bc 98 f8 b4 3b c1 75 9f 3c 91 8b 00 3c
       -0.012435578 0.0055227987 0.01946533 0.007845775
000290 4f d7 b5 bc 8a b1 24 bd 59 9e 0f 3c 16 2d d9 39
       -0.022197394 -0.040208377 0.00876578 0.00041423057
0002a0 ea 1a 0d 3d 4f 13 43 bc 85 02 77 3c 0c fd 21 be
       0.034449495 -0.011906459 0.015076284 -0.15819186
0002b0 f1 cb a3 bc 4e 2f cb bc 23 86 06 bc 98 d4 7f bb
       -0.019994708 -0.02480283 -0.008210692 -0.0039036628
0002c0 bf 72 29 bc fb d7 8e 3c 9c 4d 41 bc 9f 01 bc 3a
       -0.010342299 0.017436972 -0.011798289 0.0014343745
0002d0 5f 7a 9e bb 38 d5 99 3d bc 02 40 bd 83 74 71 bc
       -0.004836365 0.075113714 -0.046877608 -0.014737251
0002e0 75 1a a1 bd bd f8 62 bc 03 37 0d bd d9 91 32 bb
       -0.078663744 -0.013853249 -0.03447629 -0.0027247577
0002f0 f3 06 6b bd 00 dd 46 bd b8 07 17 3d 61 e2 cb bc
       -0.057379674 -0.048550606 0.036872596 -0.02488822
000300 7d ed 20 bd 30 80 d9 bc e4 6f 85 bd 2d bd c7 bd
       -0.039288986 -0.026550382 -0.06515482 -0.09752879
000310 57 ad 92 3c 37 e4 45 3d d3 17 6f bc 6e 22 c4 3b
       0.01790492 0.048313346 -0.0145930825 0.0059855497
000320 fc b7 b5 bc 64 3f 76 bd c8 4b 9b bb d2 2a 3b 3d
       -0.022182457 -0.060119048 -0.0047392584 0.045695134
000330 78 90 a2 3c e9 c8 b2 3c be 67 6a bd c6 22 62 3c
       0.019844279 0.021824317 -0.057227843 0.013802236
000340 68 f6 c1 bc d7 0f c0 bc 8f ed 2b 3d af c3 4f bd
       -0.023677066 -0.023445053 0.0419746 -0.050723728
000350 a6 3a 34 bd a6 75 ad bc fa bf 35 3d 85 44 cf bc
       -0.044001244 -0.021174263 0.044372536 -0.025301227
000360 dc 59 29 bd 20 10 3e bd 95 84 43 bc 68 89 cf 3c
       -0.041345462 -0.046402097 -0.0119334655 0.025334075
000370 6f a8 11 3d ff e2 2f 3a 27 b8 3b bd 31 fb 17 3d
       0.03556102 0.0006709545 -0.04582992 0.03710479
000380 bb 27 09 bb d4 5c a5 bc e0 85 08 bd dc e5 0b bc
       -0.0020928222 -0.020185865 -0.0333308 -0.008538689
000390 fc 70 04 3d 34 b5 a4 bc a9 d9 bf bc ce 28 66 3d
       0.032334313 -0.020105936 -0.023419218 0.056191258
0003a0 dd 0f 9b 3d 41 ba 76 3c 36 ad 0b 3b 60 e6 b6 3b
       0.07571385 0.015059055 0.0021312959 0.005581662
0003b0 a9 c9 cb 3c b2 51 62 bb f0 69 83 bd bd a8 e9 3c
       0.024876432 -0.0034533557 -0.0641669 0.028522843
0003c0 7d 52 97 b7 4d 77 86 bc d2 88 23 bc b7 c2 92 bc
       -1.8039014e-05 -0.016414309 -0.009981351 -0.017915113
0003d0 9b 6c c3 3c 3f 8c dd 3c 43 14 46 3d 5b 9c 0a 3b
       0.023855498 0.027044414 0.048359167 0.0021150324
0003e0 4a 9d be bb 02 30 96 bc 49 4d f9 bc 4d 73 26 bb
       -0.00581709 -0.018333439 -0.03043236 -0.0025398314
0003f0 d4 1c 8a bc f5 5c ce bc 99 d7 18 bd 3c ed e3 3c
       -0.01685945 -0.02519081 -0.037314985 0.027823083

action_model._continuous_distribution.mu.bias f4 [2]
000000 4b b8 5a 3b a5 39 2d 3c
       0.0033374007 0.010572826

action_model._discrete_distribution.branches.0.weight f4 [1, 128]
000000 4f c8 d5 bb 33 b0 a6 bb 0b e1 99 bc c4 ff 9d bb
       -0.006524123 -0.0050869226 -0.018784067 -0.0048217494
000010 5b b0 94 39 37 e1 d1 bc ae 0e 29 bc cb 79 05 3c
       0.00028360155 -0.025620086 -0.010318441 0.0081467135
000020 00 09 36 bb 83 4c 9f ba 07 bc 01 bb d5 07 1b 3b
       -0.002777636 -0.001215354 -0.001979591 0.0023655791
000030 ff 56 8a bb c3 8e 47 bc 49 89 4b 39 c7 15 e8 3b
       -0.0042217965 -0.012180033 0.00019410731 0.007082674
000040 e1 c1 21 bc 20 79 3b bc fa 2b f5 bb 21 07 84 3a
       -0.0098728845 -0.011442453 -0.007482049 0.0010072925
000050 f0 0e cb 3b d0 f9 7b 3c 9b 14 76 bc b5 60 93 3c
       0.006196849 0.015379384 -0.015019561 0.01799045
000060 9b a9 29 39 c4 f1 b9 3a 5d e4 c5 bb 5e 9d 95 3a
       0.00016180279 0.0014186432 -0.006039186 0.0011414697
000070 95 94 87 3a bb 89 9c 3b 07 79 8b bc 57 55 d4 3b
       0.0010343964 0.004777161 -0.017025484 0.0064799
000080 4b 71 f9 39 40 18 df bb 87 4d 6e bb bd ed 4e bc
       0.0004757739 -0.0068083107 -0.0036362128 -0.012629923
000090 04 b8 8b 3b 00 7f 78 bc 70 4c dc 3b 50 1a f7 3b
       0.0042638797 -0.015166998 0.0067229792 0.0075409785
0000a0 c4 9c 4b bc ef 0b 5e 3b a6 61 4a bc 4b 48 bc ba
       -0.012427513 0.0033881625 -0.012352383 -0.0014364807
0000b0 47 92 51 3b 8d c6 9c 3b 33 3f 5c bb d7 0c 8e 3b
       0.0031978057 0.0047844113 -0.0033607006 0.0043350267
0000c0 d1 9f 98 bc 00 d2 7e bb d6 69 2d bb 22 51 8e bc
       -0.018630894 -0.0038882494 -0.0026460788 -0.017372672
0000d0 48 9b 14 bc 2d 24 27 3c 9f ea 0e 3b 5b 5d 44 3b
       -0.009070225 0.010201496 0.0021807326 0.002996287
0000e0 6b 26 72 3c 53 f9 8d 3b 13 37 e7 39 35 c9 ce ba
       0.014779667 0.0043327003 0.00044100787 -0.0015776517
0000f0 c8 f5 b6 bc 2d a9 06 bc 87 9d f2 ba 66 47 32 3c
       -0.022333995 -0.008219046 -0.0018510082 0.0108812805
000100 d2 b2 3e bc 70 8d f1 3b fb 4d 26 3b 56 ef 85 bb
       -0.011639314 0.007371597 0.002537607 -0.004087369
000110 aa bb 00 bc 0b b7 9e bb 9e 2e 30 bc 29 1a 02 bc
       -0.007857243 -0.0048435978 -0.010753302 -0.007940807
000120 fb e9 a7 3b a3 8b 54 3a 5b a1 fa 3b f9 22 a2 ba
       0.005124328 0.00081079657 0.0076486296 -0.0012370042
000130 fc d3 43 bc 1e 34 93 bb 87 76 6a 3b 88 f8 d4 3b
       -0.0119523965 -0.004492297 0.0035776214 0.006499354
000140 18 b9 e5 3b ef b9 8d 3c 5f 86 97 3b 4a c1 39 3c
       0.0070105903 0.017300574 0.0046241726 0.011337588
000150 4d e3 4c bc 3f e0 dd 3b 12 85 87 bb 45 b6 72 bc
       -0.012505365 0.006771117 -0.0041357363 -0.014813964
000160 db 6e bf bb e3 33 04 bc f2 47 29 3c c3 78 d5 3b
       -0.0058420724 -0.008069011 0.0103320945 0.00651464
000170 02 82 6a bb 2f 52 17 bc db eb d1 ba 83 44 ac 3a
       -0.0035783057 -0.009235903 -0.0016015725 0.0013142977
000180 7d 38 b7 3b da 22 9b 3b 36 2a a6 bc e3 18 ba bb
       0.0055914507 0.0047343792 -0.0202838 -0.0056792363
000190 98 2c 5c bc 08 37 ba 3b df aa 15 bc 85 68 e9 ba
       -0.013438366 0.00568283 -0.009134977 -0.0017807639
0001a0 4c 3b 1d bc ba c3 f4 3a 1b 50 3b 3a a7 05 98 ba
       -0.009596657 0.0018674054 0.00071454205 -0.0011598364
0001b0 97 cd 10 3c c3 1b 0a 3c 73 43 8b bc d9 35 25 bc
       0.008838079 0.0084294705 -0.016999936 -0.010083639
0001c0 c8 12 59 ba a5 5b 3b 3a 1b ae 26 bc 03 35 a1 bc
       -0.00082806917 0.000714714 -0.010173346 -0.019678598
0001d0 60 29 4f bb bf fd d4 3a 5f fa dc 38 c7 f2 9e bb
       -0.0031610355 0.0016249939 0.00010537053 -0.0048507187
0001e0 8f eb 6d bc a6 a3 19 3a ef b1 7f 3c 15 28 9c 3a
       -0.014521494 0.00058608723 0.0156063875 0.0011913801
0001f0 3f 66 b9 ba bf 09 7d bb 93 bf 34 bc df 40 57 3b
       -0.0014144852 -0.0038610545 -0.011032003 0.0032845063
