ML Agents tutorial/Assets/results/RollerBall/RollerBall/RollerBall-46147.onnx (onnx, 75769 bytes, 8 tensors)

network_body._body_endoder.seq_layers.0.weight f4 [128, 8]
0.1846009 0.6516594 -0.25680572 -0.021347044 0.12313604 -0.04882299 -0.50787085 -0.20713903
-0.17200539 0.07337369 0.134342 0.0749861 -0.15372127 -0.3627892 0.10836503 0.7414156
0.036682207 0.24157047 -0.47760502 0.5423806 0.43607414 0.569899 0.037281223 0.17014343
0.3339193 -0.41951585 -0.3394766 -0.24121 -0.18382107 0.18412903 -0.024439244 0.19309877
-0.084387474 -0.009268245 -0.55689746 -0.48966628 0.23713629 0.10014595 -0.008568073 0.24544458
0.047109254 0.24758886 0.0848371 0.13797761 -0.1265734 -0.2400768 0.24140216 -0.19984876
0.63206327 -0.33307645 -0.1298615 0.04057886 -0.19661167 -0.14307463 -0.082276486 -0.45781317
0.09997346 -0.19664562 -0.1379446 0.6186372 -0.35044664 -0.16330403 -0.72488165 0.5738209
-0.47640747 -0.3452967 -0.27220756 0.15149094 0.375134 0.0055712424 -0.4062831 -0.10375014
-0.07694104 0.081100106 -0.6660899 -0.29619586 0.08400003 -0.73565465 -0.048481867 0.12458778
0.31940413 0.34978703 -0.16974454 0.90606624 -0.63044363 0.15645753 0.067407124 0.18809764
-0.56123334 -0.51958627 -0.69059044 -0.1562315 0.18695933 -0.07724917 0.10588789 -0.02704
0.47215876 0.047453586 -0.5800362 0.03489819 1.0010525 -0.21927643 -0.15910584 -0.07407888
-0.30506936 -0.09275666 -0.45624295 0.09751121 -0.2547971 0.07462633 0.25232 -0.1393524
-0.33782488 0.104853675 -0.101289414 -0.25797814 -0.34612256 0.13340616 -0.011385131 -0.004158219
0.22074798 0.12059536 -0.06278298 -0.20642115 -0.090152815 0.2273129 -0.7718801 -0.05514822
-0.22979425 -0.30676827 0.19742694 -0.16645801 -0.48117793 0.41560027 0.27100134 0.41897935
0.7240167 -0.24703923 -0.55451924 0.15127504 -0.28247362 -0.6699255 0.23912866 -0.8656006
-0.48803955 0.075680114 -0.2988304 -0.01600762 -0.11357823 -0.15186104 0.61525536 -0.14923765
-0.92338693 -0.28725475 0.100668095 0.27729088 0.07776535 -0.5566745 -0.1853249 0.19202858
0.25078225 -0.4422739 0.009871552 0.5439876 -0.13685846 0.081328884 -0.0741787 -0.3866791
0.017172642 -0.24551256 -0.27803156 0.39538643 -0.7710894 -0.17760009 -0.4355442 0.056836773
0.22886044 -0.32382804 0.20547657 -0.6844422 -0.44601294 -0.34567764 -0.13543375 -0.028835084
-0.6414637 0.42509258 -0.5300304 -0.3094243 -0.224014 0.45934632 0.29919726 0.32434368
0.23305184 0.06910523 0.09087899 -0.04986263 -0.035004314 -0.39023605 -0.12526682 0.13469325
0.25143516 0.024717331 0.020030715 -0.03561836 -0.11172814 -0.060757607 -1.1107407 -0.49987075
-0.22579132 0.21385431 -0.02992234 0.11005659 0.68353295 0.32440725 -0.52864105 0.266035
-0.33666795 0.24472542 -0.047316086 -0.49934357 0.24938414 -0.30040672 0.18791756 -0.41578186
-0.30032644 -0.036042757 -0.068345025 0.27419335 -0.4031013 -0.20150271 0.16699505 -0.14054415
-0.33268103 0.08816259 0.07797657 -0.01896826 -0.008923022 -0.23103234 0.09947974 -0.38211802
-0.36631373 -0.31128892 0.1472192 -0.6431645 -0.4550656 -0.24498953 0.3664216 0.12233623
0.05600296 0.129566 -0.38226697 0.2297383 0.32114896 0.3401734 0.02900191 0.24707621
00000000: 0508 3d3e 27d3 263f 0a7c 83be ffdf aebc
00000010: c02e fc3d 9efa 47bd d303 02bf 411c 54be
00000020: 2e22 30be f244 963d f390 093e 5092 993d
00000030: 1c69 1dbe 82bf b9be 7cee dd3d 6acd 3d3f
00000040: 1540 163d 405e 773e a588 f4be 74d9 0a3f
00000050: 1c45 df3e e7e4 113f 32b4 183d 143a 2e3e
00000060: 78f7 aa3e c8ca d6be e0cf adbe c1ff 76be
00000070: 973b 3cbe 528c 3c3e cf34 c8bc afbb 453e
00000080: 57d3 acbd d6d9 17bc d590 0ebf 8ab5 fabe
00000090: dbd3 723e 5219 cd3d 1a61 0cbc d355 7b3e
000000a0: a2f5 403d ef87 7d3e 13bf ad3d 014a 0d3e
000000b0: 759c 01be b1d6 75be 2132 773e 27a5 4cbe
000000c0: e6ce 213f ff88 aabe 6afa 04be 0536 263d
000000d0: 9254 49be 2882 12be 9380 a8bd 7d66 eabe
000000e0: e3be cc3d 785d 49be 5941 0dbe 025f 1e3f
000000f0: be6d b3be 2c39 27be d891 39bf ede5 123f
00000100: aeeb f3be bbca b0be ca5e 8bbe 7120 1b3e
00000110: 9011 c03e f88e b63b 5704 d0be f47a d4bd
00000120: 4493 9dbd d017 a63d de84 2abf fca6 97be
00000130: 3508 ac3d dd53 3cbf ec94 46bd e127 ff3d
00000140: f088 a33e 4917 b33e 83d1 2dbe f5f3 673f
00000150: c164 21bf 6736 203e bf0c 8a3d ab9c 403e
00000160: fdac 0fbf 9b03 05bf 89ca 30bf 26fb 1fbe
00000170: 4472 3f3e d034 9ebd c0db d83d fd82 ddbc
00000180: cbbe f13e b15e 423d 417d 14bf 68f1 0e3d
00000190: 7d22 803f 008a 60be a4ec 22be abb6 97bd
000001a0: 0d32 9cbe 34f7 bdbd ad98 e9be f5b3 c73d
000001b0: c474 82be b0d5 983d 1630 813e 65b2 0ebe
000001c0: 62f7 acbe 86bd d63d d370 cfbd b615 84be
000001d0: fa36 b1be a09b 083e b388 3abc ab41 88bb
000001e0: c20b 623e b3fa f63d 5d94 80bd 1160 53be
000001f0: 0aa2 b8bd b6c4 683e ef99 45bf 1ae3 61bd
00000200: 2f4f 6bbe bb10 9dbe 4a2a 4a3e f873 2abe
00000210: f45c f6be 8fc9 d43e b0c0 8a3e 7684 d63e
00000220: 2959 393f daf7 7cbe f9f4 0dbf d8e7 1a3e
00000230: 62a0 90be 3d80 2bbf 25de 743e 0098 5dbf
00000240: 52e0 f9be 2dfe 9a3d 4c00 99be 6a22 83bc
00000250: b49b e8bd 7681 1bbe 6081 1d3f c1d1 18be
00000260: 1663 6cbf 0e13 93be 132b ce3d 12f9 8d3e
00000270: 7143 9f3d 3882 0ebf d0c5 3dbe 24a3 443e
00000280: 8866 803e ba71 e2be 4abc 213c c542 0b3f
00000290: a024 0cbe c28f a63d 01eb 97bd cefa c5be
000002a0: a4ad 8c3c a567 7bbe 275a 8ebe 1770 ca3e
000002b0: 1d66 45bf ccdc 35be a6ff debe adcd 683d
000002c0: 645a 6a3e cacc a5be 7368 523e 9b37 2fbf
000002d0: cf5b e4be a9fc b0be 25af 0abe 8e37 ecbc
000002e0: f736 24bf bca5 d93e 13b0 07bf dd6c 9ebe
000002f0: ed63 65be 712f eb3e 6230 993e 6010 a63e
00000300: 24a5 6e3e 0b87 8d3d c41e ba3d c23c 4cbd
00000310: af60 0fbd 05cd c7be f245 00be 07ed 093e
00000320: 1cbc 803e 007c ca3c 7417 a43c 8fe4 11bd
00000330: b9d1 e4bd f8dc 78bd c02c 8ebf 0fef ffbe
00000340: d735 67be a0fc 5a3e b21f f5bc 5965 e13d
00000350: 04fc 2e3f b518 a63e 0555 07bf bd35 883e
00000360: be5f acbe 4d99 7a3e 83ce 41bd f6a9 ffbe
00000370: 8e5e 7f3e e9ce 99be 766d 403e 5ce1 d4be
00000380: 63c4 99be 92a1 13bd 7af8 8bbd 1263 8c3e
00000390: 4b63 cebe ba56 4ebe c000 2b3e ceea 0fbe
000003a0: 2b55 aabe 978e b43d 2eb2 9f3d 5363 9bbc
000003b0: de31 12bc be93 6cbe 09bc cb3d f9a4 c3be
000003c0: 798d bbbe 4361 9fbe a1c0 163e 6ea6 24bf
000003d0: 5cfe e8be 89de 7abe 9d9b bb3e 6b8b fa3d
000003e0: 5c63 653d f3ac 043e 7fb8 c3be 8440 6b3e
000003f0: a36d a43e 352b ae3e 6a95 ed3c 8c01 7d3e

network_body._body_endoder.seq_layers.0.bias f4 [128]
0.0028497358 -0.04440616 -0.040762093 -0.013188551 -0.06776373 0.038064845 -0.08354094 -0.05082979
0.003531149 -0.0026576112 0.040879995 -0.016788358 0.012753113 0.014747077 -0.005726478 -0.043123133
-0.00030908838 -0.007999547 -0.011712284 -0.031232046 -0.02120498 -0.0278802 -0.047024243 -0.025973585
0.04856908 0.022615364 -0.036095876 -0.060658928 -0.07320674 -0.04104421 -0.048437197 -0.042071134
-0.022027396 -0.037556402 0.012947299 -0.002559725 -0.05210475 0.036108278 -0.008255565 -0.0517025
0.030593254 -0.028492551 -0.035048824 -0.012190595 -0.043037184 -0.02389837 -0.022208788 0.005595729
-0.044189055 -0.0075711906 -0.02091729 0.00048620393 -0.0086989105 -0.011179119 0.016707912 -0.046353772
-0.0050344463 -0.057653137 0.039013967 0.015369854 0.018906202 -0.055102855 -0.03572725 0.022327615
0.0041944175 0.009170776 0.051617745 0.029958975 -0.06271571 -0.029431595 -0.053122405 -0.011735827
0.031169342 0.01284463 -0.012198192 0.056225203 -0.0057479893 -0.025438208 -0.051072404 -0.0601132
-0.05539191 -0.037265345 -0.03636618 0.04428227 -0.03837409 -0.031239884 -0.023522392 -0.017758956
-0.05793072 -0.0019056918 0.0109442985 -0.020038867 -0.03808708 -0.020700103 -0.012981017 0.05326897
0.005299289 -0.029378287 -0.009302039 -0.023608228 0.040773984 -0.06615796 0.036160752 -0.042324584
-0.014474747 -0.05345629 -0.041609984 0.004051794 -0.07652381 0.054542255 0.04455402 0.04549428
-0.055670302 0.007013591 0.031025952 -0.0795717 -0.014919634 0.009841943 -0.033034 -0.020808991
0.015243732 -0.045591615 0.031811714 -0.06379617 -0.017941156 -0.0035152975 -0.0039303685 -0.0062671904
00000000: a2c2 3a3b 3ce3 35bd 27f6 26bd cb14 58bc
00000010: b6c7 8abd e2e9 1b3d 8317 abbd e632 50bd
00000020: d96a 673b 512b 2ebb c871 273d bd87 89bc
00000030: 6ff2 503c b99d 713c 2ea5 bbbb e2a1 30bd
00000040: 240d a2b9 8810 03bc e1e4 3fbc 59da ffbc
00000050: 11b6 adbc 0465 e4bc 7e9c 40bd 8ec6 d4bc
00000060: 5ff0 463d db43 b93c 45d9 13bd 7f75 78bd
00000070: 6aed 95bd f91d 28bd 1566 46bd c852 2cbd
00000080: cc72 b4bc bed4 19bd e820 543c 0fc1 27bb
00000090: ca6b 55bd 46e6 133d 5942 07bc 00c6 53bd
000000a0: b49e fa3c 3669 e9bc 5b8f 0fbd 10bb 47bc
000000b0: c247 30bd 84c6 c3bc 34ef b5bc 615c b73b
000000c0: 95ff 34bd c017 f8bb bd5a abbc 30e9 fe39
000000d0: e085 0ebc a028 37bc 08df 883c 74dd 3dbd
000000e0: fff7 a4bb b225 6cbd 1ccd 1f3d d7d1 7b3c
000000f0: 2ee1 9a3c 88b3 61bd bd56 12bd 67e8 b63c
00000100: 5371 893b 0641 163c 216d 533d 866c f53c
00000110: 1871 80bd 871a f1bc e196 59bd a047 40bc
00000120: d956 ff3c 4872 523c edda 47bc 664c 663d
00000130: a159 bcbb ca63 d0bc 4c31 51bd 4239 76bd
00000140: a1e2 62bd 8ca3 18bd b4f4 14bd 5361 353d
00000150: 262e 1dbd c9ea ffbc 08b2 c0bc 3b7b 91bc
00000160: c348 6dbd 68c8 f9ba b74f 333c 8d28 a4bc
00000170: 3301 1cbd 4393 a9bc 55ae 54bc 9030 5a3d
00000180: a8a5 ad3b bcaa f0bc 9467 18bc 0b66 c1bc
00000190: 9f02 273d d37d 87bd 4c1d 143d 8b5c 2dbd
000001a0: 7d27 6dbc fcf4 5abd 3b6f 2abd e9c4 843b
000001b0: 84b8 9cbd b367 5f3d 477e 363d 3658 3a3d
000001c0: 8b06 64bd 44d2 e53b 232a fe3c 7df6 a2bd
000001d0: 7b71 74bc 1a40 213c a94e 07bd 9e77 aabc
000001e0: d9c0 793c 46be 3abd 004d 023d 91a7 82bd
000001f0: 55f9 92bc e860 66bb 52ca 80bb 015d cdbb

network_body._body_endoder.seq_layers.2.weight f4 [128, 128]
-0.1653245 0.11722111 -0.049365774 0.030600095 -0.010855727 -0.005392637 -0.19805571 -0.16596922
0.02737608 0.057935998 -0.05496446 0.0499356 -0.016147733 0.11643533 0.025450842 0.02296193
-0.14726828 0.017359518 0.14122336 0.1460569 0.028965529 -0.073331885 -0.011797424 -0.011118126
0.08953705 -0.0010284578 -0.17834166 0.050859325 0.0042377925 0.093517885 -0.0452094 0.0016687445
0.046985324 0.079060785 0.023930622 -0.018002445 -0.03554033 -0.0821722 -0.17447424 0.09087856
0.05870639 -0.055312064 0.086179584 0.05395342 -0.039186507 0.010287604 -0.00020352009 0.012773391
0.024639394 -0.049895193 0.13318625 -0.039297704 -0.009231991 0.052004095 0.08158596 -0.18464321
0.21236591 0.098909445 0.021877812 -0.035008974 0.15031597 0.0029867261 -0.036490038 -0.006144431
-0.091715306 0.00072193844 -0.28105003 0.16104305 0.20494147 -0.059689187 0.12136303 0.037218872
-0.04518371 -0.04575764 -0.06982401 0.09157881 -0.040757883 0.06491352 0.16511051 0.1681932
-0.086166464 0.015322972 -0.04128417 0.021604508 0.019090222 -0.09197766 -0.18536007 -0.025008697
-0.061848015 0.03516721 -0.016599018 -0.046301577 0.046219826 -0.08235503 -0.15696272 0.088398166
0.10690746 0.038382255 0.05621865 -0.05598382 0.009173741 -0.08898786 -0.009277107 0.06880427
0.13006867 -0.035393324 -0.020947011 -0.032583352 -0.049713876 0.03432523 -0.07936152 -0.15704395
-0.07048383 0.029949583 -0.16743368 0.11383387 -0.104452156 -0.24900055 -0.00042115315 0.044259313
0.09296857 -0.09841394 0.008532238 -0.17321132 -0.09411866 -0.18443325 -0.08109168 -0.034333568
-0.050890453 0.010688704 -0.09618817 0.008403497 -0.040183306 0.1121636 0.15587267 -0.046353634
0.075174704 -0.07589508 -0.0024416733 -0.062669754 -0.015744913 0.013943899 -0.08538399 -0.103031866
-0.23736133 -0.0040085404 -0.025545618 -0.05596684 -0.021363867 -0.028282885 0.113297075 0.039731946
0.029638011 0.028217632 -0.12523234 0.046134684 -0.07911113 0.18154092 -0.029028203 -0.13740048
-0.008427884 -0.093578905 -0.02178002 -0.0779207 0.06086177 -0.052766252 -0.09193016 0.07813263
0.082264714 -0.07793835 0.19339113 -0.053839635 0.09062066 -0.060328353 -0.04746304 -0.13256013
-0.05372469 -0.052964155 0.06459444 0.17856947 -0.12860578 0.0056231287 0.14227214 0.037191734
0.007334738 0.00045908015 -0.13130142 0.0047876006 -0.04578351 -0.004562321 -0.08005864 -0.089926355
0.087582394 0.0553551 -0.0031198051 -0.00902748 -0.063655764 -0.12901932 -0.047518395 0.030834746
-0.044739027 0.007976747 -0.004206966 0.06390124 0.01443015 0.07131472 -0.039347537 0.0659848
0.045431122 0.27136758 0.062354073 -0.076629475 0.056694064 -0.2120775 -0.0208187 -0.050917022
-0.1286513 -0.13316005 0.05387102 -0.057067987 -0.010912209 -0.1263505 -0.12168233 0.21362314
0.109217726 0.028465627 0.05202428 -0.0815225 -0.09557786 0.15852492 -0.0035405247 -0.05651454
-0.03455061 -0.012944672 0.0074322484 -0.022450121 -0.021577109 -0.024775555 0.1017452 -0.02368249
-0.18252605 0.13643269 -0.1712505 -0.13552485 -0.011905096 -0.0038862373 0.04496568 -0.01711668
-0.1415869 -0.07314253 -0.050434846 -0.01872418 -0.11628943 -0.07655507 0.05456381 0.04312133
00000000: d34a 29be 9f11 f03d c433 4abd 0dad fa3c
00000010: 38dc 31bc b8b4 b0bb 1ecf 4abe d6f3 29be
00000020: cd43 e03c 4c4e 6d3d 6a22 61bd 4689 4c3d
00000030: 4048 84bc a575 ee3d 497e d03c a81a bc3c
00000040: 7fcd 16be 8c35 8e3c db9c 103e f18f 153e
00000050: 1e49 ed3c 072f 96bd fc49 41bc cd28 36bc
00000060: 335f b73d 51cd 86ba 329f 36be de51 503d
00000070: 2edd 8a3b 4e86 bf3d 7e2d 39bd c6b9 da3a
00000080: af73 403d 9fea a13d 270a c43c dd79 93bc
00000090: bd92 11bd e649 a8bd 60a9 32be 8a1e ba3d
000000a0: 1d76 703d e78e 62bd ec7e b03d 43fe 5c3d
000000b0: 0882 20bd 578d 283c 0268 55b9 7c47 513c
000000c0: 8ed8 c93c e75e 4cbd fa61 083e a1f6 20bd
000000d0: c741 17bc 3f02 553d 8a16 a73d 1c13 3dbe
000000e0: 7376 593e 0991 ca3d 1939 b33c 9265 0fbd
000000f0: 6eec 193e f3bc 433b 9476 15bd 3957 c9bb
00000100: 3cd5 bbbd 7840 3d3a cae5 8fbe 78e8 243e
00000110: 2ddc 513e a67c 74bd 2e8d f83d d172 183d
00000120: 8e12 39bd 5d6c 3bbd e4ff 8ebd ac8d bb3d
00000130: bdf1 26bd 61f1 843d bb12 293e d73a 2c3e
00000140: 0b78 b0bd 340d 7b3c 9719 29bd f0fb b03c
00000150: 1963 9c3c c95e bcbd 08cf 3dbe 0adf ccbc
00000160: 5854 7dbd 7e0b 103d aafa 87bc b9a6 3dbd
00000170: 0051 3d3d c1a9 a8bd d6ba 20be 190a b53d
00000180: 4cf2 da3d b636 1d3d 8745 663d 4a4f 65bd
00000190: 754d 163c 443f b6bd 02ff 17bc 41e9 8c3d
000001a0: b930 053e 97f8 10bd 1199 abbc 1f76 05bd
000001b0: c7a0 4bbd 9d98 0c3d 4b88 a2bd 21d0 20be
000001c0: d459 90bd d458 f53c bc73 2bbe bb21 e93d
000001d0: 03eb d5bd 00fa 7ebe 38ce dcb9 4149 353d
000001e0: 4e66 be3d 3f8d c9bd cdca 0b3c 4f5e 31be
000001f0: 49c1 c0bd 12dc 3cbe 6513 a6bd 5ba1 0cbd
00000200: 8272 50bd ad1f 2f3c 4efe c4bd d2ae 093c
00000210: 4097 24bd 08b6 e53d 169d 1f3e 4fdd 3dbd
00000220: 32f5 993d e16e 9bbd 7b04 20bb 0059 80bd
00000230: 7afb 80bc f474 643c cddd aebd 5f02 d3bd
00000240: d90e 73be 135a 83bb 0b45 d1bc 7c3d 65bd
00000250: 4703 afbc 82b1 e7bc 4c08 e83d f7bd 223d
00000260: 6acb f23c aa28 e73c e83c 00be b9f7 3c3d
00000270: 0405 a2bd dde5 393e 8ecc edbc b6b2 0cbe
00000280: 1c15 0abc 4ca6 bfbd 036c b2bc e394 9fbd
00000290: 314a 793d 6d21 58bd e145 bcbd 0004 a03d
000002a0: 677a a83d 249e 9fbd 5308 463e f386 5cbd
000002b0: 5397 b93d dd1a 77bd 9b68 42bd d8bd 07be
000002c0: 6c0e 5cbd f1f0 58bd 174a 843d eada 363e
000002d0: 3cb1 03be 3942 b83b caaf 113e 5c56 183d
000002e0: 3e58 f03b b2b0 f039 e173 06be 4ee1 9c3b
000002f0: 7d87 3bbd 867f 95bb c9f5 a3bd 4f2b b8bd
00000300: 665e b33d 08bc 623d a575 4cbb ffe7 13bc
00000310: f45d 82bd a41d 04be a6a2 42bd 2699 fc3c
00000320: 4540 37bd e7b0 023c 97da 89bb a7de 823d
00000330: 706c 6c3c 740d 923d e22a 21bd 0a23 873d
00000340: fc15 3a3d b1f0 8a3e fc66 7f3d eaef 9cbd
00000350: 0938 683d d82a 59be fa8b aabc 5e8e 50bd
00000360: 2bbd 03be 1c5b 08be dca7 5c3d 1fc0 69bd
00000370: 1fc9 32bc 0762 01be 9634 f9bd 06c0 5a3e
00000380: 8bad df3d bf30 e93c 6917 553d 45f5 a6bd
00000390: 53be c3bd 5b54 223e 2608 68bb ca7b 67bd
000003a0: f184 0dbd e415 54bc 388a f33b 51e9 b7bc
000003b0: 7ac2 b0bc 1bf6 cabc ca5f d03d c801 c2bc
000003c0: 1ce8 3abe 03b5 0b3e 4b5c 2fbe 07c7 0abe
000003d0: 970d 43bc 3eb0 7ebb ef2d 383d 4838 8cbc
000003e0: 28fc 10be c0cb 95bd c594 4ebd 7463 99bc
000003f0: 2729 eebd e8c8 9cbd 4d7e 5f3d fe9f 303d

network_body._body_endoder.seq_layers.2.bias f4 [128]
0.03408041 -0.055949237 0.05208842 0.048130013 0.020941399 -0.035500545 -0.033399004 -0.03695693
-0.047818214 -0.041429136 0.012219071 -0.020296553 -0.038102753 -0.05146345 -0.032497052 -0.017630674
-0.022817777 -0.025208434 -0.027178412 -0.007288754 -0.07640372 -0.027879834 -0.0042788666 -0.035486072
-0.020738658 0.020328004 -0.054139018 -0.022816958 0.022555431 -0.04130874 0.044001974 -0.025276467
-0.02329871 0.06811093 -0.040118493 -0.020294953 -0.030031506 -0.027708568 -0.028366564 -0.01986498
-0.006561114 -0.044656325 -0.021171624 -0.046831205 -0.04172611 -0.049711216 0.038648874 -0.0073734703
-0.040014613 -0.09076259 -0.007540028 0.020710172 -0.055596206 0.014864675 -0.041957952 -0.0045527513
-0.041210413 -0.013812209 -0.030214388 -0.08507434 -0.06599761 -0.018417574 -0.018610353 -0.015494757
-0.010794661 -0.010760655 -0.044247713 -0.047561064 -0.016470082 -0.06842439 -0.0151902875 -0.018666597
-0.050481282 -0.015341585 -0.033754975 -0.046693657 -0.02404913 -0.0033282838 0.008150926 -0.025024362
0.116795614 -0.036490712 -0.057995293 -0.0052371304 -0.024040945 -0.03700601 -0.03861399 -0.02195573
-0.005347026 -0.05198887 -0.026338832 0.027430508 0.0125585655 -0.07176985 0.00041106722 0.029729718
-0.01582064 0.020576006 -0.034777477 -0.018384641 0.018496616 0.006161391 -0.015587054 -0.0022839382
0.06820837 0.016761634 -0.040977105 -0.0049935887 -0.015844433 -0.030975275 -0.00574124 -0.03128222
-0.032886703 -0.0002859851 -0.03222774 0.009187462 -0.044198535 -0.023648541 0.018323129 -0.025093665
-0.058456082 -0.047778193 0.0073470767 -0.053522 -0.020400748 -0.021186901 0.012187688 0.024913354
00000000: e697 0b3d 072b 65bd ab5a 553d fa23 453d
00000010: 4c8d ab3c 0569 11bd 65cd 08bd 2660 17bd
00000020: 08dd 43bd 99b1 29bd 8032 483c f544 a6bc
00000030: a211 1cbd 57cb 52bd a11b 05bd 346e 90bc
00000040: 59ec babc eb81 cebc 43a5 debc 80d6 eebb
00000050: 8e79 9cbd 4064 e4bc bc35 8cbb d859 11bd
00000060: 1ee4 a9bc ea86 a63c e0c0 5dbd a1ea babc
00000070: 2bc6 b83c 5a33 29bd 6a3b 343d 9810 cfbc
00000080: f0dc bebc be7d 8b3d 4a53 24bd 9a41 a6bc
00000090: a204 f6bc 14fd e2bc ff60 e8bc e2bb a2bc
000000a0: 9dfe d6bb 8de9 36bd 1d70 adbc 14d2 3fbd
000000b0: ffe8 2abd fd9d 4bbd 484e 1e3d 279d f1bb
000000c0: 5de6 23bd bde1 b9bd 5712 f7bb 61a8 a93c
000000d0: d9b8 63bd f78a 733c 1adc 2bbd 3f2f 95bb
000000e0: 40cc 28bd 9a4c 62bc 2a84 f7bc 753b aebd
000000f0: c129 87bd 74e0 96bc bd74 98bc b9dd 7dbc
00000100: 17dc 30bc 754d 30bc 173d 35bd 64cf 42bd
00000110: 44ec 86bc 1622 8cbd afe0 78bc b1ea 98bc
00000120: 76c5 4ebd 455b 7bbc a842 0abd d941 3fbd
00000130: ae02 c5bc 561f 5abb 768b 053c e4ff ccbc
00000140: 8a32 ef3d 4977 15bd 798c 6dbd 3c9c abbb
00000150: 84f1 c4bc 9d93 17bd b429 1ebd 81dc b3bc
00000160: 1b36 afbb 48f2 54bd 89c4 d7bc f2b5 e03c
00000170: 71c2 4d3c 12fc 92bd 8284 d739 bd8b f33c
00000180: 499a 81bc 038f a83c d472 0ebd 639b 96bc
00000190: 3786 973c 7ee5 c93b d860 7fbc 20ae 15bb
000001a0: d4b0 8b3d b24f 893c 9cd7 27bd 42a1 a3bb
000001b0: 2fcc 81bc dcbf fdbc 0321 bcbb c921 00bd
000001c0: 35b4 06bd 45f0 95b9 3c01 04bd 0287 163c
000001d0: 8609 35bd 96ba c1bc 631a 963c 3b91 cdbc
000001e0: a56f 6fbd 11b3 43bd bfbf f03b e239 5bbd
000001f0: 781f a7bc 2790 adbc deae 473c 1717 cc3c

action_model._continuous_distribution.log_sigma f4 [1, 2]
0.06207556 -0.04346835
00000000: f142 7e3d de0b 32bd

action_model._continuous_distribution.mu.weight f4 [2, 128]
0.019738788 -0.024896774 0.03272813 0.019606782 -0.0100468565 0.00034818333 -0.05727843 -0.0007994929
-0.029962616 -0.025734212 0.014126847 -0.001957586 0.0150627 -0.040609527 -0.029822089 -0.031516306
-0.0017606432 -0.049955662 -0.03204821 -0.022317829 -0.039343577 -0.03116036 -0.046609115 -0.041734055
-0.07501386 0.033006113 -0.016815655 -0.009667328 -0.020435043 0.0049151713 0.04901985 -0.008550309
-0.0056259837 -0.014232267 -0.08749842 -0.0068556303 -0.04038094 -0.07505332 -0.006901104 -0.0014828846
0.0076625 -0.045522824 -0.002073231 -0.011785023 -0.017586779 -0.014255823 -0.046890285 -0.045706693
0.0133421235 -0.037606604 -0.029786767 -0.02908844 -0.031058658 -0.026589291 -0.029327206 -0.04353355
-0.024329292 -0.013358905 -0.036886573 -0.02079563 -0.062254425 0.0047807437 -0.008752579 -0.0049851825
-0.018680329 0.0029519708 0.001261469 -0.046419907 -0.038734622 -0.011609452 0.0049968297 -0.016389374
-0.0064111864 -0.046034712 -0.035770476 -0.069516666 -0.029303858 -0.056563716 -0.0014811605 -0.027520895
0.07668995 -0.00068085635 -0.0771182 -0.012960811 -0.05100677 -0.014791044 -0.0049630827 -0.05690914
0.002357052 -0.041246064 0.0017593511 0.0035569707 0.004453284 -0.08035921 0.008102274 -0.015286203
-0.0012463419 0.002482129 0.0004162282 -0.011533437 0.0054716174 0.009334234 0.01255453 -0.014800197
0.038901016 0.016087359 -0.010861647 -0.004610048 0.007820297 -0.0054919394 -0.020203061 -0.008478966
-0.033994947 -0.032215133 -0.043457925 -0.012670704 -0.011210697 0.01850584 0.062309664 -0.025960386
-0.06328866 -0.025878387 0.004230597 -0.049784705 -0.024066838 0.0023610855 -0.018128844 0.008062997
0.012855576 -0.001557929 -0.052014627 0.031324036 0.03427711 0.032364897 0.012979323 0.018980334
0.0095233675 0.006439643 -0.021113034 0.0030701119 0.030384086 -0.004373048 0.023706645 0.006534387
0.026451748 0.02936836 -0.04666906 0.0077708364 0.025533436 -0.00799024 -0.035983607 -0.013084703
-0.021491645 0.0068945563 0.009156497 0.04878989 -0.010095684 0.011658938 -0.0015974581 0.008054497
0.013398489 -0.0374755 -0.0044828006 -0.027245417 -0.004879565 0.03753919 0.0049074003 0.029154003
0.020872822 -0.0009373735 -0.0068500503 0.0070438366 -0.0073812143 0.018379113 -0.044875294 -0.029682273
0.0056418087 0.01356753 -0.0060034674 -0.016483592 -0.0032216762 -0.012694154 0.042457953 0.0019945067
0.0019376479 -0.0043837703 0.017616495 0.009986426 0.015389228 -0.028676031 0.036570933 0.04679503
-0.0044602742 -0.012939118 0.0073532388 -0.0017335789 -0.019984808 0.007840579 -0.005493515 0.044971794
0.0018615237 0.05709441 0.024526784 -0.005087318 0.029742824 -0.014688745 0.031264674 0.01425327
-0.003644242 -0.015724683 -0.0013824818 -0.0062262723 -0.0063037896 -0.0042966697 0.0054767947 0.021456914
0.00990752 -0.004467265 -0.0044832295 -0.04073437 0.02492777 0.011071547 0.009968922 0.054049965
0.057603914 0.02784604 0.0048557804 0.039922513 0.02740124 -0.016615933 -0.01854085 0.027563395
0.048557732 0.008472027 0.0016621021 0.015207038 -0.0030180218 -0.0024272273 0.033480465 0.018046232
0.021124395 0.003902322 0.004600834 0.0066052075 0.013210777 0.03682849 0.0008409656 0.016011313
-0.011132028 0.0017768886 0.023124078 0.03268205 0.058135275 -0.0057750633 -0.013463211 1.0973623e-05
00000000: 3db3 a13c 52f4 cbbc ef0d 063d 679e a03c
00000010: 929b 24bc 608c b639 c99c 6abd 0f95 51ba
00000020: 2974 f5bc 8ed0 d2bc 4a74 673c d84a 00bb
00000030: 8bc9 763c 2d56 26bd 744d f4bc 3e17 01bd
00000040: 62c5 e6ba 4f9e 4cbd fc44 03bd e1d3 b6bc
00000050: bb26 21bd 0344 ffbc 33e9 3ebd 54f1 2abd
00000060: dea0 99bd 6b31 073d fcc0 89bc b663 1ebc
00000070: 6467 a7bc 720f a13b 0ac9 483d 9816 0cbc
00000080: 2c5a b8bb 742e 69bc 5f32 b3bd 32a5 e0bb
00000090: 7c66 25bd 8eb5 99bd a822 e2bb 5a5d c2ba
000000a0: b515 fb3b 2476 3abd 0bdf 07bb f815 41bc
000000b0: 2612 90bc 4191 69bc 0710 40bd f136 3bbd
000000c0: ec98 5a3c 6209 1abd 6103 f4bc e14a eebc
000000d0: ba6e febc c9d1 d9bc 9c3f f0bc 3c50 32bd
000000e0: 394e c7bc 4fdf 5abc 6016 17bd 995b aabc
000000f0: 7ffe 7ebd c9a7 9c3b fa66 0fbc be5a a3bb
00000100: 7d07 99bc da75 413b e057 a53a cd22 3ebd
00000110: 32a8 1ebd 9235 3ebc 72bc a33b 0243 86bc
00000120: ee14 d2bb e58e 3cbd 1084 12bd c15e 8ebd
00000130: a50e f0bc 5baf 67bd 8023 c2ba 8073 e1bc
00000140: 9f0f 9d3d 7f7b 32ba 26f0 9dbd 9559 54bc
00000150: 7aec 50bd 2356 72bc 5ba1 a2bb 8f19 69bd
00000160: c578 1a3b a2f1 28bd 079a e63a 111c 693b
00000170: dbec 913b 5f93 a4bd 66bf 043c fb72 7abc
00000180: 4b5c a3ba 37ab 223b 3439 da39 bef6 3cbc
00000190: 414b b33b 9dee 183c 84b1 4d3c 877c 72bc
000001a0: ac56 1f3d a3c9 833c 0df5 31bc e30f 97bb
000001b0: b420 003c baf5 b3bb e480 a5bc 5ceb 0abc
000001c0: 493e 0bbd 04f4 03bd f000 32bd c998 4fbc
000001d0: 12ad 37bc 8f99 973c 6b38 7f3d e0aa d4bc
000001e0: 7c9d 81bd e9fe d3bc d2a0 8a3b 0ceb 4bbd
000001f0: d127 c5bc 71bc 1a3b f182 94bc a91a 043c
00000200: 32a0 523c 6c33 ccba 4a0d 55bd a24d 003d
00000210: 2866 0c3d 0e91 043d 3aa7 543c a57c 9b3c
00000220: e607 1c3c a403 d33b 3ef5 acbc ee33 493b
00000230: 0ce8 f83c c94b 8fbb 7034 c23c 691e d63b
00000240: 56b1 d83c ea95 f03c 0e28 3fbd 80a2 fe3b
00000250: 7f2b d13c 7fe9 02bc 8c63 13bd 3961 56bc
00000260: 3f0f b0bc bbeb e13b 2205 163c e8d7 473d
00000270: 5e68 25bc 2105 3f3c cd61 d1ba 02f7 033c
00000280: 5685 5b3c e97f 19bd 75e4 92bb c831 dfbc
00000290: c2e4 9fbb b2c2 193d 42ce a03b 60d4 ee3c
000002a0: 7bfd aa3c 12ba 75ba 6376 e0bb fccf e63b
000002b0: 1dde f1bb cb8f 963c 28cf 37bd 3d28 f3bc
000002c0: ecde b83b 584a 5e3c bcb8 c4bb 9908 87bc
000002d0: c222 53bb 24fb 4fbc 64e8 2d3d 45b6 023b
000002e0: adf8 fd3a bba5 8fbb 7850 903c 1b9e 233c
000002f0: 1a23 7c3c ffe9 eabc 67cb 153d 25ac 3f3d
00000300: 7e27 92bb 98fe 53bc 70f3 f03b 4139 e3ba
00000310: 2eb7 a3bc c675 003c f202 b4bb 5834 383d
00000320: 5ffe f33a d4db 693d 65ec c83c 84b3 a6bb
00000330: 39a7 f33c 10a9 70bc 630f 003d 8c86 693c
00000340: 3cd4 6ebb 0dd1 80bc 6434 b5ba c205 ccbb
00000350: 0590 cebb 14cb 8cbb af76 b33b 69c6 af3c
00000360: 2753 223c 2362 92bb 0ee8 92bb 15d9 26bd
00000370: 5335 cc3c 6f65 353c b054 233c 7f63 5d3d
00000380: 15f2 6b3d 611d e43c 3d1d 9f3b ca85 233d
00000390: 9178 e03c 231e 88bc fbe2 97bc a1cc e13c
000003a0: 79e4 463d 42ce 0a3c e4da d93a f126 793c
000003b0: 01ca 45bb 1e12 1fbb d022 093d b1d5 933c
000003c0: 110d ad3c 19be 7f3b 98c2 963b 7f70 d83b
000003d0: 0472 583c 79d9 163d 3f74 5c3a 282a 833c
000003e0: 1c63 36bc 7de6 e83a b56e bd3c 9ddd 053d
000003f0: 411f 6e3d be3c bdbb cd94 5cbc 5a1b 3837

action_model._continuous_distribution.mu.bias f4 [2]
0.033846438 0.023438474
00000000: 90a2 0a3d 0b02 c03c

action_model._discrete_distribution.branches.0.weight f4 [1, 128]
-0.013022301 -0.00664754 0.0081386585 0.01557378 -0.014565513 -0.0067470646 -0.0031978227 0.004021869
-0.0025177577 0.0032045327 0.0014473823 0.0053080185 0.009240675 0.0013503927 -0.00111773 0.007146755
-0.001077285 0.0012159793 0.0083607705 0.011845089 0.0020298564 0.0014898266 -0.009859566 -0.0026780358
0.005132371 -0.011095489 0.0027644252 0.008457631 -0.00939646 -0.010174223 -0.005915908 0.0044412063
-0.013052602 0.005417209 0.0031148407 -0.00038133943 0.0005597727 -0.0037509676 0.006012363 -0.0022955756
0.0017027626 7.094045e-05 -0.024871154 0.0051902514 0.008633465 -0.0047853943 0.0027207953 0.0010530798
0.011166756 0.008358811 0.0014805662 -0.0024017869 0.005639679 0.00015167125 -0.0023155322 0.002941492
0.00666572 -0.009202301 0.007933072 0.00040026713 0.0014414117 0.00656544 -0.0077701765 0.010489224
-0.0032385557 0.0046388055 0.0053596213 5.947841e-05 0.0022400268 -0.0009375548 0.0039590294 -0.009469783
-0.009582679 -0.0064182356 0.008880573 0.0075214193 -0.0018170199 -0.002864788 0.009318016 -0.006470801
-9.831357e-05 0.0025363532 -0.00035971956 0.0106220525 -0.0023259472 -0.005746207 0.00017615294 0.014617028
0.017812843 -0.014446563 -0.014547008 -0.007397467 -0.0034960133 0.00230333 -0.008940372 -0.013537848
0.007887484 -0.013302134 -0.0008824992 -0.0029968265 -0.0050808275 -0.016960587 -0.0006915556 -0.011720191
0.0030831161 -0.0006911221 -0.0044594775 -0.01177176 -0.00024711454 -0.0061600874 0.004190582 0.0028397508
0.004419159 -0.004323747 0.0062407665 -0.01352185 -0.00031704135 0.0010982014 0.003079281 0.0037733873
-0.013239289 -0.019204343 -0.0055178264 0.0071535804 0.00913672 0.004742513 -0.006280648 0.002209152
00000000: 7d5b 55bc 9bd3 d9bb 0258 053c 2b29 7f3c
00000010: 30a4 6ebc 7b16 ddbb 9092 51bb e2c9 833b
00000020: f700 25bb 2303 523b 17b6 bd3a e3ee ad3b
00000030: 3366 173c a9ff b03a cc80 92ba 532f ea3b
00000040: b033 8dba 7f61 9f3a 9dfb 083c e711 423c
00000050: 5707 053b 4946 c33a 048a 21bc fc81 2fbb
00000060: 732d a83b dbc9 35bc 5c2b 353b e091 0a3c
00000070: 9cf3 19bc c9b1 26bc 3cda c1bb 8a87 913b
00000080: 95da 55bc d882 b13b 5b22 4c3b 83ee c7b9
00000090: b6bd 123a cbd2 75bb 5b03 c53b 5e71 16bb
000000a0: 3b2f df3a ddc5 9438 97be cbbc fc12 aa3b
000000b0: 6073 0d3c ccce 9cbb 5f4f 323b 7f07 8a3a
000000c0: c5f4 363c 65f3 083c 8f0f c23a 4c67 1dbb
000000d0: 0ecd b83b f109 1f39 2fc0 17bb 0cc6 403b
000000e0: 1d6c da3b 3fc5 16bc b7f9 013c f2da d139
000000f0: c0ed bc3a e722 d73b f79c febb ffda 2b3c
00000100: f33d 54bb 1f01 983b c39f af3b 7578 7938
00000110: 6acd 123b 3dc6 75ba bfba 813b 2627 1bbc
00000120: ab00 1dbc 1050 d2bb d37f 113c 3d76 f63b
00000130: 1229 eeba 2bbf 3bbb 97aa 183c 0309 d4bb
00000140: b22d ceb8 f238 263b be98 bcb9 1e08 2e3c
00000150: eb6e 18bb ae4a bcbb b2b5 3839 427c 6f3c
00000160: 3dec 913c 47b1 6cbc 9356 6ebc 7366 f2bb
00000170: 5f1d 65bb 77f3 163b a37a 12bc dacd 5dbc
00000180: 813a 013c 32f1 59bc 8557 67ba 6866 44bb
00000190: 127d a6bb eef0 8abc 8349 35ba 0b06 40bc
000001a0: 1b0e 4a3b 6b2c 35ba cf20 92bb 57de 40bc
000001b0: 278f 81b9 8fda c9bb 2651 893b 1d1b 3a3b
000001c0: 98ce 903b 38ae 8dbb 587f cc3b c08a 5dbc
000001d0: 9238 a6b9 86f1 8f3a c3cd 493b ef4a 773b
000001e0: 9ae9 58bc 6d52 9dbc e2ce b4bb 9568 ea3b
000001f0: 2eb2 153c 1567 9b3b e5cd cdbb 6cc7 103b
