ML Agents tutorial/Assets/results/RollerBall/RollerBall/RollerBall-246121.pt (torch, 446793 bytes, 39 tensors)

network_body._body_endoder.seq_layers.0.weight f4 [128, 8]
0	0x3eabe471	0.33572724
1	0x3dfa0ce5	0.12209491
2	0xbf26967e	-0.6507338
3	0xbf30fe19	-0.6913772
4	0xbcd01ff9	-0.02540587
5	0x3ebd7568	0.37003636
6	0x3ea06145	0.3132421
7	0x3eb59970	0.35468626
8	0xbd2110fb	-0.039322834
9	0x3f2e4297	0.6807036
10	0x3f3c3329	0.73515564
11	0xbdd52cec	-0.10408959
12	0xbc757ca8	-0.014983334
13	0xbe293c87	-0.16526996
14	0x3f163d1d	0.58687
15	0x3d92607c	0.07147309
16	0x3d7f408c	0.062317416
17	0xbdba32ea	-0.09091742
18	0xbe2ca156	-0.1685842
19	0xbd1fc17d	-0.039002884
20	0xbf1697fe	-0.5882567
21	0x3ea9ceb9	0.3316553
22	0xbe9aab65	-0.3020889
23	0x3edee764	0.43535912
24	0xbe54f401	-0.20796205
25	0x3f3d6cfc	0.7399442
26	0xbde6aeeb	-0.11263832
27	0x3eb502e1	0.3535376
28	0x3e4ae232	0.19812849
29	0x3e792bcd	0.24333115
30	0xbd815b57	-0.0631625
31	0xbeac6376	-0.33669633
32	0xbee4114d	-0.4454445
33	0xbefe5dd5	-0.49680963
34	0xbe41bb81	-0.18919183
35	0x3f0019bd	0.50039274
36	0xbf06c0eb	-0.5263812
37	0x3c3b8387	0.011444933
38	0xbe3d4bf3	-0.18486004
39	0xbe500b7a	-0.20316878
40	0x3e0c516e	0.13702938
41	0x3eb90998	0.36140132
42	0x3f0f9715	0.5608991
43	0xbe9a101f	-0.30090424
44	0x3ebcd2eb	0.36879668
45	0x3dafb06b	0.08578571
46	0xbe70c2e4	-0.23511845
47	0x3cf52d82	0.029928926
48	0xbe0702e7	-0.13184701
49	0xbf1f2f59	-0.6218162
50	0x3e9f6041	0.31128123
51	0xbe1a4db8	-0.1506871
52	0x3ebe6b34	0.37191164
53	0xbdc8bc80	-0.098015785
54	0x3e18c09b	0.14917223
55	0xbe31247d	-0.17299075
56	0xbf0f4d8c	-0.559777
57	0xbe035714	-0.12826186
58	0xbd95f964	-0.07322958
59	0x3cd29832	0.025707338
60	0xbe300536	-0.17189488
61	0xbf435539	-0.76301914
62	0xbd975cd4	-0.073907524
63	0xbe203725	-0.15646036
64	0xbdedecf8	-0.11617464
65	0x3e75f63f	0.24019717
66	0x3e285a8b	0.1644079
67	0x3e97433b	0.2954348
68	0x3f07a5a2	0.5298711
69	0x3e519bce	0.20469591
70	0xbf3be560	-0.73396873
71	0xbf1ffb52	-0.6249286
72	0x3d97eba5	0.074179925
73	0xbd5d83cf	-0.05408078
74	0x3c95ea0f	0.018300084
75	0xbddb9808	-0.10722357
76	0x3f08d4dc	0.534498
77	0xbd8d4883	-0.06898596
78	0xbf25701a	-0.6462418
79	0x3e7fd9ff	0.24985503
80	0xbdedeb1b	-0.116171084
81	0xbf5c50fd	-0.8606108
82	0xbd1dd6ac	-0.038534805
83	0x3eafcf86	0.34338015
84	0xbe9be94b	-0.30451426
85	0xbeafedd6	-0.34361142
86	0xbe155df4	-0.14586622
87	0x3be7c10c	0.0070725735
88	0x3ec4cbc4	0.3843671
89	0x3e831fce	0.25610203
90	0xbea0df8d	-0.31420556
91	0x3e9268ba	0.28595525
92	0xbc252a2d	-0.010080856
93	0xbe013d3c	-0.12621015
94	0x3e5f1a28	0.21787322
95	0xbf05bdcc	-0.5224273
96	0x3e5a12a9	0.21296181
97	0x3bf80aca	0.0075696455
98	0x3e9df3a6	0.30849952
99	0xbd830d36	-0.06399004
100	0x3f09c4ee	0.53816116
101	0xbdbdd082	-0.09268285
102	0xbf4c312a	-0.7976252
103	0x3e47f4cd	0.19526978
104	0xbf0d949a	-0.55304873
105	0xbe796447	-0.24354659
106	0xbe00b14d	-0.12567635
107	0xbc6990e0	-0.014255732
108	0x3e49696c	0.19669122
109	0x3f126243	0.57181185
110	0x3e959869	0.29217842
111	0xbc4d9301	-0.0125472555
112	0x3ef5e3e3	0.48025426
113	0x3f0e5aaa	0.5560709
114	0xbe535b2f	-0.20640253
115	0xbe63e5c2	-0.22255614
116	0xbeb38aad	-0.3506674
117	0x3f0bb0e5	0.54566795
118	0xbe3f74ec	-0.18696946
119	0xbeb1f47b	-0.34756836
120	0x3d07df71	0.033172075
121	0x3e31e1f8	0.17371356
122	0x3e49ede7	0.19719659
123	0x3f0176b6	0.50571764
124	0xbe66ee2a	-0.2255179
125	0xbeb696c6	-0.35661906
126	0x3e45ec8e	0.1932852
127	0xbe7e938f	-0.24860977
128	0x3ea1edbc	0.3162669
129	0x3e86c89f	0.26324937
130	0x3da837ee	0.08213793
131	0x3f2b4727	0.66905445
132	0x3ecf2481	0.40457538
133	0xbe494dce	-0.19658586
134	0xbf420bed	-0.7579945
135	0xbec30ffe	-0.3809814
136	0x3e2164c0	0.1576109
137	0x3e8089c9	0.25105122
138	0xbe7948aa	-0.24344125
139	0xbd3216c3	-0.04347874
140	0x3df01b65	0.11723975
141	0x3eb16e20	0.3465433
142	0xbe47e33b	-0.19520275
143	0x3f0a2456	0.53961694
144	0x3e3fe728	0.18740523
145	0x3ea56091	0.32300237
146	0x3cfc18ee	0.030773606
147	0xbeb370db	-0.3504704
148	0x3eb57fdf	0.3544912
149	0x3ec1b9ff	0.37837216
150	0xbe6b5e95	-0.22985299
151	0xbefb727a	-0.49110776
152	0x3ebe2225	0.37135425
153	0xbeb4b061	-0.35290816
154	0xbe895e86	-0.26829928
155	0x3ebd3fb6	0.3696267
156	0x3cbd0092	0.023071561
157	0x3e499dae	0.19689056
158	0xbe903134	-0.2816254
159	0xbd0f7d1b	-0.03503142
160	0x3e7a4d61	0.2444358
161	0x3e3b5180	0.18292809
162	0x3ee1bea2	0.44090754
163	0xbd32a410	-0.043613493
164	0x3f489426	0.78351057
165	0xbd9055a2	-0.07047583
166	0xbe9c10f5	-0.30481687
167	0x3f042b58	0.5162864
168	0xbf2222ee	-0.6333455
169	0xbe8350ad	-0.25647488
170	0x3defdfaf	0.11712586
171	0xbe7b5ea4	-0.24547821
172	0x3f80b492	1.0055106
173	0xbe95966e	-0.2921633
174	0xbc006da2	-0.0078386385
175	0x3e0e85a9	0.13918175
176	0x3daba82f	0.08381688
177	0x3ee04d38	0.43808913
178	0x3edca021	0.4309092
179	0xbd5a01f2	-0.05322451
180	0xbf06e2e2	-0.52689946
181	0x3e86dd83	0.26340875
182	0xbdc25e6c	-0.09490666
183	0x3ef75f59	0.48314932
184	0x3d6807dd	0.056648124
185	0xbf155bb9	-0.5834308
186	0x3e4ce049	0.20007433
187	0x3d20f863	0.03929938
188	0x3dceca2d	0.10097156
189	0x3dbd7927	0.092516236
190	0x3f074491	0.52839
191	0x3e5de12a	0.21667925
192	0xbe72eb8f	-0.23722671
193	0xbe98e5e2	-0.29862887
194	0x3ea7928a	0.32728988
195	0xbf029c6b	-0.51019925
196	0x3e1f3c2f	0.15550302
197	0x3dc2e9c6	0.09517245
198	0xbd70576e	-0.05867713
199	0x3e8035fb	0.25041184
200	0xbf03ab80	-0.51433563
201	0x3f1d0950	0.61342335
202	0xbd8a5c71	-0.06755913
203	0x3d7befc8	0.06150797
204	0xbe9a6b8d	-0.3016018
205	0x3ed95204	0.42445385
206	0xbdd5be7e	-0.10436724
207	0xbdefe6d1	-0.117139466
208	0xbd2e2394	-0.0425144
209	0xbad723ab	-0.0016413828
210	0x3dd89df1	0.10577
211	0x3e83fb6e	0.25777763
212	0xbed6801c	-0.41894615
213	0xbe2bfccd	-0.16795655
214	0x3ae4704e	0.0017428489
215	0xbea349b3	-0.31892166
216	0xbe582961	-0.21109535
217	0x3da22202	0.07916643
218	0xbf32e713	-0.6988384
219	0xbe599634	-0.21248704
220	0xbe73b71d	-0.23800321
221	0x3f3cbd72	0.7372657
222	0xbf0c215b	-0.54738396
223	0x3d15e7e8	0.036598116
224	0x3eb3479e	0.35015577
225	0x3f06231d	0.5239733
226	0x3d83b431	0.06430853
227	0xbed7c4ad	-0.4214224
228	0x3ecdc8dc	0.40192306
229	0x3e4a2467	0.19740449
230	0xbe10ea25	-0.14151819
231	0xbe9c5d95	-0.30540147
232	0x3eb2018c	0.34766805
233	0x3f02de2d	0.51120263
234	0x3ec25052	0.37951905
235	0xbe86acef	-0.26303813
236	0xbf051d47	-0.519978
237	0xbdefa52b	-0.11701425
238	0xbe515733	-0.2044342
239	0x3e06c6a0	0.13161707
240	0x3e358aa2	0.17728665
241	0x3e8776fb	0.26457962
242	0xbcca7cf0	-0.024717778
243	0x3e54a5fe	0.20766446
244	0x3daae6d1	0.08344806
245	0x3f43e875	0.76526576
246	0xbeb7ce3e	-0.35899538
247	0x3e1647cf	0.1467583
248	0x3e0832bc	0.13300604
249	0xbe9016bb	-0.28142342
250	0xbe9bb5aa	-0.30412036
251	0x3f0fddce	0.5619782
252	0x3e7b3deb	0.24535339
253	0xbdda968d	-0.106732465
254	0xbee05439	-0.43814257
255	0xbe810229	-0.2519696

network_body._body_endoder.seq_layers.0.bias f4 [128]
0	0x3cc40cf2	0.023931954
1	0x3d834c23	0.06411006
2	0xbdc29ef3	-0.095029734
3	0xbc8f7b57	-0.017514868
4	0x3d5d2d77	0.053998437
5	0xbd9410cb	-0.072297655
6	0x3b69929f	0.0035640371
7	0xbd7a2db7	-0.061078753
8	0xbde41d45	-0.11138395
9	0x3c9ff951	0.019528063
10	0xbe1da39f	-0.15394448
11	0xbd52672a	-0.051367916
12	0xbca5780b	-0.020198843
13	0xbd813563	-0.06309011
14	0xbc819ad4	-0.015820898
15	0xbdae9fb8	-0.08526558
16	0xbd65489e	-0.055977456
17	0xbdd612ec	-0.10452828
18	0xbd2d4647	-0.04230335
19	0xbe10b96d	-0.14133234
20	0x3c842718	0.016131923
21	0xbdb17313	-0.08664527
22	0xbdccb507	-0.09995466
23	0xbdf783b5	-0.12085668
24	0x3cf3b1cb	0.029747864
25	0x3d07831a	0.033084013
26	0xbddd0cad	-0.10793433
27	0x3d331461	0.043720607
28	0x3d6394c6	0.055561803
29	0xbcfccee2	-0.030860368
30	0xbd30728a	-0.043077983
31	0xbd803206	-0.06259541
32	0xbcb2d22c	-0.021828733
33	0x3bb163f0	0.005413525
34	0x3c001a15	0.007818718
35	0xbd9238f4	-0.07139769
36	0x3c836b3a	0.01604234
37	0xbd8b5b92	-0.06804575
38	0xbd8871ec	-0.06662354
39	0xbd85ec19	-0.06539173
40	0xbdff521d	-0.12466834
41	0xbd8c3496	-0.068459675
42	0x3ddeaa86	0.108723685
43	0xbd6553eb	-0.055988234
44	0xbd4fac81	-0.050701622
45	0xbe1196f7	-0.14217745
46	0xbc814ef9	-0.015784727
47	0x3b79036f	0.0037996431
48	0xbde8c5b2	-0.113658324
49	0x3ddc0fdf	0.10745215
50	0x3d3b1777	0.045676675
51	0x3d8fa1d9	0.07013292
52	0xbd0a8bd0	-0.03382474
53	0xbda2be01	-0.079463966
54	0xbce91c9a	-0.028456021
55	0xbcc70ba5	-0.024297545
56	0xbc3f8866	-0.011690235
57	0xbc11fcb8	-0.0089103505
58	0xbc03af47	-0.008037395
59	0x3d3445a2	0.04401172
60	0xbd4f7a5d	-0.050653804
61	0x3bf5b637	0.0074985283
62	0xbdfd2ea7	-0.12362414
63	0x3c36ffee	0.011169417
64	0x3dedf3ce	0.11618768
65	0x3df8daf5	0.12151138
66	0xbe1773fe	-0.14790341
67	0x3d586a8f	0.052835997
68	0xbd52046c	-0.05127375
69	0xbbca70c9	-0.006177996
70	0x3da9b9cf	0.08287393
71	0xbd6945c2	-0.05695129
72	0xbc216420	-0.009850532
73	0x3ddc37c3	0.10752823
74	0xbd535ce7	-0.05160227
75	0xbb6047e7	-0.0034222545
76	0x3cef5269	0.0292141
77	0x3d0648eb	0.032784384
78	0xbe2d8f8d	-0.16949292
79	0xbd23fce4	-0.040036097
80	0x3cbae576	0.022814494
81	0x3e23bee2	0.15990785
82	0xbd9a84ec	-0.07544884
83	0xbb23dd12	-0.0025003594
84	0xbd996ce0	-0.074914694
85	0xbd6343ec	-0.055484697
86	0x3db7db9e	0.089774355
87	0x3cf60b6e	0.030034747
88	0x3cee8a52	0.02911869
89	0xbdb4a2b6	-0.08820097
90	0xbd8a8b10	-0.06764805
91	0xbdcb21cb	-0.09918555
92	0xbce58b9d	-0.028020674
93	0xbb39239d	-0.0028249987
94	0xbc9b43fe	-0.01895332
95	0xbc6d48d2	-0.014482694
96	0xbb831b77	-0.004001077
97	0xbd709777	-0.058738198
98	0xbd296f65	-0.041366
99	0xbdd31359	-0.10306425
100	0xbd0c8ec4	-0.03431584
101	0xbc336e09	-0.010951527
102	0xbdd6b780	-0.104842186
103	0xbd09533c	-0.033526644
104	0x3c8e7d45	0.017393718
105	0xbdbd0761	-0.09229923
106	0x3c6eb7e5	0.014570211
107	0x3cd884fd	0.026430601
108	0x3d2d2cfd	0.042279232
109	0xbe199558	-0.14998376
110	0xbdc479ec	-0.09593567
111	0xbdad4523	-0.084604524
112	0xbb92d2ea	-0.0044807093
113	0xbc85c20a	-0.016327877
114	0xbdbb6880	-0.09150791
115	0xbc76eed4	-0.0150715895
116	0x3d570c5d	0.052502025
117	0xbcd69ff9	-0.026199328
118	0xbcea8aec	-0.028630696
119	0x3d9488cf	0.07252657
120	0x3c444630	0.011979625
121	0xbd72a3a5	-0.059238095
122	0x3ab463e4	0.001376268
123	0xbe17ff29	-0.1484343
124	0x3dbfb1f3	0.09360113
125	0xbe01795f	-0.12643956
126	0xbce2b571	-0.027674409
127	0xbd970028	-0.07373077

network_body._body_endoder.seq_layers.2.weight f4 [128, 128]
0	0x3dcac7f3	0.099014185
1	0x3d819ff4	0.06329337
2	0xbe007ad5	-0.12546857
3	0x3da89ed7	0.08233421
4	0xbccd52dd	-0.025063926
5	0xbd813c03	-0.063102745
6	0xbbceb527	-0.006308216
7	0xbda2ce10	-0.079494596
8	0x3d83adb4	0.064296156
9	0xbda5db76	-0.080984995
10	0xbe30538c	-0.1721937
11	0x3d851145	0.064974345
12	0xbe098555	-0.13429768
13	0x3d2a00f8	0.04150483
14	0x3dd4251d	0.10358641
15	0xbe3dee87	-0.18548022
16	0xbcea366a	-0.0285904
17	0x3e69b741	0.22823812
18	0x3d2dfd5f	0.04247796
19	0xbc940a77	-0.018071396
20	0xbe172120	-0.1475873
21	0xbe04829e	-0.12940452
22	0x3cd34bd0	0.025792986
23	0x3dd8453b	0.1056008
24	0x3cb08bd0	0.021551043
25	0xbe148d12	-0.14506939
26	0xbdc61c47	-0.09673362
27	0xbe8868b2	-0.26642376
28	0x3dc134ce	0.094339
29	0xbc7cc03c	-0.015426692
30	0xbe5f35f5	-0.21797927
31	0x3e8161b1	0.25269845
32	0xbd7c9bfb	-0.061672192
33	0x3bd964bc	0.006634323
34	0xbe35baa3	-0.17746978
35	0xbd8a719b	-0.0675995
36	0xbdb83fee	-0.089965686
37	0x3d229d48	0.039700776
38	0xbd82d406	-0.063880965
39	0xbd58db38	-0.05294344
40	0x3d266b94	0.04062994
41	0x3cd7079b	0.026248744
42	0xbe29f645	-0.1659785
43	0x3df5141d	0.11966727
44	0xbd974e62	-0.07387997
45	0x3c95b788	0.018275991
46	0x3e187dea	0.14891782
47	0xbe07890a	-0.1323587
48	0xbcbbdea2	-0.022933308
49	0x3c523861	0.012830825
50	0x3dd688f8	0.104753435
51	0x3e002c72	0.12516955
52	0xbd76d740	-0.060263872
53	0xbd3d90ed	-0.04628079
54	0xbe2375ec	-0.15962952
55	0x3e5941c2	0.21216491
56	0x3dc5e61d	0.09663031
57	0xbd013313	-0.03154285
58	0xbd70d2dd	-0.058794845
59	0x3dfcbcc1	0.123406895
60	0xbcc7d1a9	-0.024391966
61	0x3d99a9bd	0.07503078
62	0x3db470f8	0.088106096
63	0x3e1791ac	0.14801663
64	0xbd06ac3f	-0.03287911
65	0xbd2a0c08	-0.04151538
66	0xbd32bb3e	-0.0436356
67	0xbdfc1b8e	-0.12309943
68	0xbd92b9c6	-0.0716434
69	0xbe2dd653	-0.1697629
70	0xbd19ddca	-0.03756503
71	0xbae3297a	-0.0017331087
72	0x3d9f7809	0.07786567
73	0x3dc17cc3	0.094476245
74	0x3cca7643	0.024714595
75	0x3cc1abc4	0.023641475
76	0xbdbbdf85	-0.09173492
77	0x3e07f6e5	0.13277777
78	0x3d5b705f	0.053573962
79	0x3e23716f	0.1596124
80	0xbdf07469	-0.117409535
81	0xbe1fad0d	-0.15593357
82	0x3d715513	0.058919024
83	0xbe03fe78	-0.12890041
84	0x3d4e8577	0.05042025
85	0xbd6f3b67	-0.05840626
86	0x3db3af7d	0.08773706
87	0x3e016c25	0.1263891
88	0x3cf3b3be	0.029748794
89	0xbc0f6a9c	-0.008753445
90	0xbca2bf8c	-0.019866727
91	0x3da67ea0	0.081296206
92	0x3d11f895	0.035637457
93	0x3c211b8b	0.009833227
94	0x3e070f69	0.13189472
95	0xbde9619e	-0.11395572
96	0xbb6cdec7	-0.0036143528
97	0x3e053149	0.13007082
98	0xbc151cf6	-0.009101143
99	0xbd138f63	-0.036025416
100	0x3c82695d	0.015919382
101	0xbd926148	-0.07147461
102	0xbda7c749	-0.081923075
103	0x3d3f045b	0.046635013
104	0xbda67d7d	-0.08129404
105	0xbbb54375	-0.005531723
106	0xbbab7faf	-0.005233727
107	0xbe264d3b	-0.16240399
108	0x3e3594ab	0.17732494
109	0xbda64067	-0.081177525
110	0xbc9696dd	-0.018382484
111	0xbde98098	-0.114014804
112	0xbe199e16	-0.15001711
113	0x3b9cd733	0.004786396
114	0x3d0adbf2	0.033901162
115	0xbda2c83d	-0.07948349
116	0xbdcdf309	-0.10056121
117	0x3e5f1bda	0.21787968
118	0x3d8b7b3b	0.06810614
119	0x3e1bebca	0.15226665
120	0xbae1a51e	-0.0017215346
121	0x3d0f515d	0.034989703
122	0x3bb67547	0.00556818
123	0x3ca7e67d	0.020495648
124	0xbd0c3c6c	-0.03423731
125	0xbdd804b0	-0.10547769
126	0xbe228877	-0.1587237
127	0xbd0167ce	-0.031593136
128	0xbe50d93a	-0.20395365
129	0x3d4270f5	0.047471005
130	0xbe0f723e	-0.14008424
131	0x3dca86c0	0.09888983
132	0xbe062e37	-0.13103567
133	0xbd618125	-0.055054802
134	0x3d3d0262	0.04614485
135	0xbd17efce	-0.03709393
136	0xb910571f	-0.00013765365
137	0xbdf85320	-0.1212523
138	0xbdedae82	-0.1160555
139	0xbdc776ae	-0.09739433
140	0x3cd1c1ff	0.0256052
141	0xbdc96681	-0.09834004
142	0x3ca64542	0.020296697
143	0x3d94709f	0.07248043
144	0xba9a4386	-0.0011769391
145	0xbe79b7d3	-0.2438653
146	0x3d31430f	0.043276843
147	0xbdbe365c	-0.09287712
148	0x3ceaa951	0.02864519
149	0xbb9ff5f7	-0.004881616
150	0x3d15d3f2	0.03657908
151	0x3d8ff75f	0.07029604
152	0xbdbc2feb	-0.09188827
153	0x3e39e090	0.1815207
154	0x3e0da2a1	0.13831569
155	0x3c9b1721	0.018931927
156	0xbc852ef0	-0.016257733
157	0x3d0caa1e	0.034341924
158	0xbe1d0e35	-0.15337451
159	0x3d501237	0.05079862
160	0x3d291bbd	0.04128622
161	0xbdc30cf0	-0.09523952
162	0xbe25c1a8	-0.16187155
163	0x3daee5b4	0.08539906
164	0xbce57c63	-0.028013414
165	0xbd2b550e	-0.04182916
166	0x3ceaeadd	0.028676445
167	0xbdbbff43	-0.09179547
168	0x3d30fd5e	0.04321038
169	0x3dda48bb	0.106584035
170	0xbcfc00e2	-0.03076214
171	0x3ca92879	0.020649182
172	0xbd1887ce	-0.03723889
173	0x3ce3b414	0.027795829
174	0xbd9f6f59	-0.0778491
175	0x3bbb9f36	0.0057257665
176	0xbc842d3c	-0.01613485
177	0xbe6ee1d3	-0.23328333
178	0x3d3a52a7	0.04548898
179	0x3cef94c1	0.029245736
180	0xbcac3036	-0.021019083
181	0xbc0759c7	-0.008261151
182	0x3da3321e	0.079685435
183	0xbdd5733b	-0.10422369
184	0x3e0aab16	0.13541827
185	0x3df4fd86	0.11962418
186	0xbd341441	-0.043964628
187	0xbd336b06	-0.043803237
188	0xbd1feeb1	-0.039045993
189	0xbd8bcc28	-0.06826049
190	0xbe1044e1	-0.14088775
191	0xbcb91476	-0.022592764
192	0xbde569ae	-0.112017974
193	0x3e0c5adc	0.13706535
194	0xbe1e29f7	-0.15445696
195	0x3d18a6ca	0.037268437
196	0xbda82e74	-0.08211985
197	0x3ddefce0	0.10888076
198	0x3d60dca4	0.05489792
199	0xbd29ac0d	-0.041423846
200	0xbdaebd0b	-0.08532151
201	0xbe17ca82	-0.14823344
202	0xbcf65f62	-0.030074779
203	0x3d9bedaa	0.0761369
204	0xbde46811	-0.111526616
205	0xbd144cc4	-0.036206022
206	0xbddd20a1	-0.10797239
207	0xbe288e85	-0.16460617
208	0x3db59a88	0.08867365
209	0xbdcc7711	-0.099836476
210	0xbd9cfe36	-0.076656744
211	0xbe34346c	-0.17598122
212	0x3e72e645	0.23720653
213	0xbd219448	-0.039448053
214	0xbe148f8f	-0.14507888
215	0x3b6ed56b	0.0036443125
216	0x3d070f4d	0.032973576
217	0xbe56cda5	-0.20976885
218	0x3c08ef46	0.0083578285
219	0x3e57a97c	0.21060747
220	0xbd045e42	-0.032316454
221	0xbdfd8268	-0.12378389
222	0xbe1ce758	-0.15322626
223	0xbcb5a6cf	-0.022174267
224	0xbc81eb7d	-0.01585936
225	0xbe401acf	-0.18760227
226	0xbe199a69	-0.15000309
227	0x3d8b331c	0.06796858
228	0x3d02a92b	0.031899612
229	0x3c1c618b	0.00954474
230	0xbd17993e	-0.037011378
231	0x3d89a88b	0.067216
232	0xbe0e7717	-0.13912617
233	0x3de2ae66	0.1106842
234	0x3d53a835	0.051674087
235	0x3cdd7107	0.027031435
236	0xbda5d494	-0.08097187
237	0x3c462e16	0.012095949
238	0xbdf2cfca	-0.11856039
239	0xbd8d56c1	-0.069013126
240	0xbddfb23e	-0.10922669
241	0x3daf48bb	0.08558794
242	0xbdc58aba	-0.096456006
243	0x3dbfcf1a	0.09365673
244	0xbd12a624	-0.035802975
245	0x3d2e85f5	0.04260822
246	0x3d227749	0.03966454
247	0x3e0cf878	0.13766658
248	0xbd86e0d1	-0.06585849
249	0x3e30cb15	0.1726497
250	0xbddf55df	-0.109050505
251	0x3e0635d3	0.1310647
252	0xbe4a72c5	-0.19770344
253	0x3cb1d682	0.02170873
254	0x3d33fcd8	0.043942302
255	0xbdccdf30	-0.10003507

network_body._body_endoder.seq_layers.2.bias f4 [128]
0	0xbc703912	-0.014662044
1	0x3d0339f4	0.03203769
2	0xbe27f3d0	-0.16401601
3	0xbccea49c	-0.025224976
4	0x3d5640a3	0.052307736
5	0x3cdd2ca2	0.026998822
6	0xbd20cfa2	-0.039260514
7	0x3d8f857f	0.07007884
8	0x3d98bea2	0.07458235
9	0x3cfea3c7	0.031083954
10	0x3d606a94	0.05478914
11	0xbde01915	-0.10942284
12	0x3dc806cc	0.097669214
13	0xbe051332	-0.12995604
14	0x3a22ea20	0.0006214697
15	0x3dbd5b53	0.09245934
16	0x3bf85b83	0.0075792684
17	0xbdefd317	-0.11710184
18	0xbd6721e3	-0.0564288
19	0xbc005129	-0.00783185
20	0x3cb856f9	0.02250241
21	0x3c9b713a	0.01897489
22	0x3cfda203	0.030961042
23	0xbce9649f	-0.028490363
24	0xbd54a1fb	-0.05191229
25	0x3cd91835	0.0265008
26	0x3b854815	0.0040674307
27	0x3db09566	0.086222455
28	0x3d1e0af9	0.038584683
29	0xbd0f17dd	-0.034934867
30	0x3ce6fddf	0.028197227
31	0xbac6352f	-0.0015122051
32	0xbd59282a	-0.05301682
33	0xbd6ced67	-0.057843592
34	0x3d288535	0.04114266
35	0xbb7e0b89	-0.00387642
36	0xbe19982b	-0.14999454
37	0x3cad8a2d	0.021184051
38	0x3c5b4d55	0.013385137
39	0xbc2b74f4	-0.0104648955
40	0x3d2da11f	0.042389985
41	0xbdb2bbb9	-0.087272115
42	0xbd2e6ed5	-0.042586166
43	0xbb8c9ec5	-0.0042913877
44	0x3dc12f0b	0.09432801
45	0x3d3a5572	0.045491643
46	0x3d3a6703	0.045508396
47	0xbd94944e	-0.072548494
48	0xbc8470e4	-0.016167112
49	0xbd40dc27	-0.047084954
50	0xb9b474e2	-0.0003441936
51	0xbdef3277	-0.11679547
52	0xbd2a4cf1	-0.041577283
53	0x3d1ca09e	0.038239114
54	0xbd2a470d	-0.041571666
55	0xbc54fdbd	-0.012999949
56	0xbda40f3f	-0.080107205
57	0xbd015cc1	-0.031582598
58	0xbda2dc66	-0.07952194
59	0x3c097715	0.008390208
60	0xbda64022	-0.08117701
61	0xbcdc07ac	-0.026859127
62	0xbbcd6dc8	-0.0062691905
63	0x3c793e75	0.015212645
64	0xbdac7394	-0.08420482
65	0xbd217185	-0.0394149
66	0x3dce683b	0.10078474
67	0x3cc4bc54	0.024015583
68	0xbd1a757b	-0.037709694
69	0x3dcaa865	0.098954
70	0xbdd56e79	-0.104214616
71	0xbd6b6228	-0.057466656
72	0xbd978789	-0.07398898
73	0x3caae689	0.02086188
74	0xbd66cd1b	-0.056347948
75	0x3d38fce3	0.045163047
76	0xbdb1641a	-0.08661671
77	0xbce4d82b	-0.027935108
78	0xbbe89d7d	-0.007098852
79	0xbc25d2cc	-0.010121059
80	0x3d823963	0.06358602
81	0xbdbb6346	-0.09149794
82	0x3daf3920	0.085558176
83	0x3c1c9d23	0.009558949
84	0xbd3225d6	-0.043493114
85	0x3c38405e	0.011245815
86	0x3d6f64a9	0.058445606
87	0x3dd0cae1	0.10194946
88	0x3d123c3f	0.035701986
89	0x3d4d0c81	0.050060753
90	0xbbea6d21	-0.0071541225
91	0x3d0bde40	0.0341475
92	0xbc87b87f	-0.016567467
93	0x3cb861dc	0.0225076
94	0xbd36915c	-0.04457222
95	0x3d7781d2	0.06042654
96	0xbd4c55df	-0.04988658
97	0x3d103107	0.035203006
98	0x3d8953f7	0.06705468
99	0xbcc1b30c	-0.023644947
100	0x3c0e504e	0.008686138
101	0x3dcc177f	0.09965419
102	0xbc49de58	-0.012321077
103	0x3cd3e5ff	0.025866507
104	0x3ddbb8b2	0.10728587
105	0xbb44d31a	-0.0030033053
106	0x3ab9f56e	0.0014187524
107	0xbd539e58	-0.05166468
108	0x3d164a69	0.036692057
109	0xbd315f9c	-0.04330407
110	0x3d71e80c	0.059059188
111	0x3c889c7d	0.016676182
112	0xbd83cd00	-0.06435585
113	0x3d912640	0.07087374
114	0xbbf7932d	-0.0075553865
115	0x3da12de2	0.078700796
116	0x3b4a90fd	0.0030909174
117	0x3b0699a9	0.0020538366
118	0x3b48797a	0.0030589984
119	0xbd6a7568	-0.057240874
120	0xbce1490f	-0.027500657
121	0xbc7c4a2f	-0.015398546
122	0xbd962acd	-0.07332382
123	0x3d1b8583	0.037969124
124	0x3d06fbeb	0.03295509
125	0xbc993c31	-0.01870546
126	0x3c8f52fe	0.017495628
127	0xbc938f43	-0.018012648

action_model._continuous_distribution.log_sigma f4 [1, 2]
0	0xbd1e992f	-0.038720306
1	0xbe634103	-0.22192769

action_model._continuous_distribution.mu.weight f4 [2, 128]
0	0x3d82f3ad	0.06394134
1	0xbc990009	-0.018676775
2	0x3d8f5899	0.069993205
3	0xbd53c841	-0.05170465
4	0xbd4589e2	-0.0482272
5	0xbd8f751e	-0.0700476
6	0x3d410326	0.047122143
7	0xbca0dae3	-0.019635623
8	0x3d4fa262	0.05069197
9	0xbd5bdde4	-0.05367841
10	0xbd68470d	-0.056708384
11	0xbcade61e	-0.021227892
12	0xbca2815b	-0.019837072
13	0x3db3a315	0.0877134
14	0xbb35ff60	-0.0027770624
15	0x3dab64a5	0.08368806
16	0xbd8d3192	-0.068942204
17	0x3d441ff0	0.04788202
18	0x3d150abf	0.0363872
19	0x3c0799cc	0.008276414
20	0xbc7271f8	-0.01479768
21	0x3c99caa3	0.018773383
22	0xbd25ac33	-0.040447425
23	0x3d943afb	0.07237812
24	0x3d07f529	0.033192787
25	0x3cd8590b	0.026409646
26	0xbd28ba30	-0.041193187
27	0xbc4a98df	-0.012365549
28	0xbcca6883	-0.024708038
29	0xbd346d23	-0.044049393
30	0xbd2dcf36	-0.04243394
31	0x3cb87174	0.022515036
32	0xbdc98e60	-0.09841609
33	0xbd1cc4cb	-0.038273614
34	0xbcd94fc8	-0.0265273
35	0xbc8e7d15	-0.017393628
36	0xbcfb9800	-0.030712128
37	0x3d6c6342	0.057711847
38	0xbb9b64ef	-0.004742257
39	0x3cda0f9a	0.026618768
40	0xbd8a938e	-0.06766425
41	0x3d93f639	0.072246976
42	0xbcebfc86	-0.028806936
43	0x3dbf378f	0.09336769
44	0xbd80dc3d	-0.06292007
45	0x3d8818a0	0.06645322
46	0x3d5cade9	0.05387679
47	0x3c83b8cd	0.01607933
48	0xbc740252	-0.014893131
49	0xbcdbdf48	-0.026839867
50	0x3ca13a08	0.019680992
51	0xbd39a551	-0.045323674
52	0xbd6aa79a	-0.057288744
53	0xbda44ad3	-0.08022084
54	0x3e3b652e	0.18300316
55	0xbd830803	-0.063980125
56	0xbd0c544f	-0.03426009
57	0x3d8c1681	0.0684023
58	0xbdd6292b	-0.10457071
59	0xbd1bb144	-0.03801085
60	0x3c477689	0.012174257
61	0x3d9c4e4d	0.07632122
62	0xbd27d482	-0.040974148
63	0xbd1faea7	-0.03898492
64	0x3d39c655	0.04535516
65	0xbd3429f8	-0.043985337
66	0xbc1b9ffd	-0.009498593
67	0x3df38570	0.118906856
68	0x3b9ad8f0	0.004725568
69	0x3d3aae75	0.04557653
70	0xbd107b93	-0.0352741
71	0xbd018c92	-0.0316282
72	0x3cce4b42	0.02518237
73	0xbd4e51a0	-0.050370812
74	0xbd0316bd	-0.032004107
75	0x3cadba7d	0.021207089
76	0x3d897c33	0.06713142
77	0xbc38cf11	-0.011279837
78	0x3d44e4ae	0.04806965
79	0xbbaa0bdf	-0.0051894034
80	0x3d9493ba	0.07254739
81	0x3c1bfd8a	0.009520898
82	0xbbf7d08c	-0.0075627025
83	0x3ce37bde	0.027769025
84	0xbd88f8b6	-0.06688063
85	0x3d726d63	0.05918635
86	0x3cc25cac	0.02372583
87	0xbdab7420	-0.083717585
88	0xbbf5cf4c	-0.0075015184
89	0x3d3d4004	0.04620363
90	0xbd28b4a3	-0.041187894
91	0xbd6b4de1	-0.057447318
92	0x3c82f096	0.015983861
93	0xbd30a6e2	-0.0431279
94	0x3c7d5811	0.015462891
95	0x3d1e7235	0.038683135
96	0xbc522565	-0.012826298
97	0x3d6baf09	0.057539973
98	0xbd883126	-0.06649999
99	0x3ca95b3f	0.020673392
100	0xbd42de1b	-0.047575098
101	0x3dc762bc	0.09735629
102	0xbbd07945	-0.0063621127
103	0xba6b51a8	-0.00089767063
104	0x3be39c93	0.0069461553
105	0xbd1a5e93	-0.03768785
106	0x3d68a354	0.056796387
107	0xbc9091b2	-0.017647598
108	0xbdb4cb95	-0.08827893
109	0x3c1ccd3c	0.009570416
110	0x3c90b670	0.017665118
111	0xbd3fdce7	-0.04684153
112	0x3cc69488	0.024240747
113	0xbdda0cf5	-0.106470026
114	0x3da2d096	0.07949941
115	0xbdc14ffd	-0.09439085
116	0xbd35c0c7	-0.0443733
117	0xbd5b1610	-0.053487837
118	0xbcad9cb7	-0.021192892
119	0x3cb1a404	0.021684654
120	0xbb190be3	-0.0023353032
121	0xbcb020a5	-0.021499941
122	0x3daf47b6	0.085586
123	0xbd74d158	-0.05976996
124	0xbc8a6a37	-0.01689635
125	0x3bdc35eb	0.0067202947
126	0x3cbaba4d	0.022793913
127	0x3d90db66	0.07073097
128	0xbc9f2006	-0.01942445
129	0x3cff1278	0.031136736
130	0xbd69a616	-0.057043158
131	0x3d196fc9	0.037460122
132	0x3cd73264	0.026269145
133	0x3cb22131	0.021744343
134	0xbca92885	-0.020649204
135	0xbd552a02	-0.052042015
136	0xbbc83ff1	-0.006111138
137	0x3ccab189	0.024742858
138	0xbd14c490	-0.03632027
139	0x3bcc32c1	0.0062316363
140	0x3d0b286b	0.033974092
141	0xbc821f97	-0.015884204
142	0x3d02b140	0.03190732
143	0x3d139496	0.036030374
144	0x3d6cfef3	0.057860326
145	0x3d3148c6	0.043282293
146	0xbd360fe4	-0.04444875
147	0x3d07f70c	0.033194587
148	0x3d07e6e0	0.033179164
149	0x3cae70ac	0.02129396
150	0x3cb70603	0.022341734
151	0xbb53d331	-0.0032321925
152	0x3b4a82ef	0.0030900796
153	0x3c803ade	0.01565307
154	0x3d94d3e7	0.0726698
155	0x3d018f8e	0.031631045
156	0xbd7febf7	-0.062480893
157	0x3c4f2cbe	0.012644945
158	0x3b2cbc24	0.0026357258
159	0xbd26fc15	-0.040767748
160	0xbc09f3fd	-0.008419988
161	0x3c31c6b2	0.010850595
162	0x3d54b00e	0.05192571
163	0xbc034d77	-0.0080140745
164	0xbc3cf008	-0.011531837
165	0xbda1e3cb	-0.07904776
166	0xba44ea5e	-0.000751173
167	0xbd960069	-0.07324297
168	0x3d6eb758	0.05828032
169	0xbc993233	-0.018700695
170	0x3ce1be69	0.027556615
171	0xbe5af751	-0.21383406
172	0xbc8085db	-0.015688827
173	0xbbab9590	-0.005236335
174	0xba53092d	-0.00080503785
175	0x3c09be24	0.008407149
176	0x3b77c542	0.0037806784
177	0x3b18e35d	0.0023328878
178	0xbd350b9e	-0.044200532
179	0x3c77e628	0.015130557
180	0xbbb6fac6	-0.0055840937
181	0x3d87be85	0.066281356
182	0xbbcbd64b	-0.006220614
183	0x3b4d66d3	0.0031341806
184	0xbe0fd421	-0.14045765
185	0xbc6d8c09	-0.014498719
186	0xbc9e6ced	-0.01933905
187	0x3c9f87ca	0.019473929
188	0xbd9cd06b	-0.0765694
189	0xbd776c19	-0.060405824
190	0x3d6c85b4	0.057744697
191	0xbd046660	-0.032324195
192	0xbdb1c1ff	-0.0867958
193	0xbc84867a	-0.016177405
194	0xbd8d2c72	-0.06893243
195	0xbe1ac99f	-0.15115975
196	0x3d01c035	0.031677444
197	0x3da23afe	0.07921408
198	0xbd8a6d5d	-0.06759141
199	0x3caf3e10	0.021391898
200	0xbd1d2527	-0.03836551
201	0xbd4cb4ce	-0.049977116
202	0xbd4576bb	-0.048208933
203	0x3d4063fc	0.046970353
204	0x3c3ce4b0	0.011529133
205	0x3cca19f6	0.024670582
206	0xbd91f651	-0.07127059
207	0x3c839212	0.016060863
208	0xbbf3ac45	-0.0074363076
209	0xbd0b0f52	-0.033950157
210	0x3d1efb94	0.038814142
211	0xbcf2db87	-0.029645694
212	0xbdd6755d	-0.10471604
213	0xbcda786c	-0.02666875
214	0x3d3636c3	0.04448582
215	0xbd062f06	-0.03275969
216	0xbd2d59a7	-0.042321827
217	0xbd3d74ea	-0.046254076
218	0xbcf6b66b	-0.03011628
219	0x3c6a706e	0.014309032
220	0x3c903e9d	0.017607981
221	0xbc95903a	-0.01825725
222	0xbd6632ac	-0.05620067
223	0x3d3d11be	0.0461595
224	0xbd01df92	-0.031707354
225	0xbc53694d	-0.012903524
226	0xbd331c36	-0.043728076
227	0xbcc0fa9a	-0.023556996
228	0x3d2901ed	0.041261602
229	0x3c8ea755	0.017413775
230	0xbcc0880e	-0.023502376
231	0x3d97e022	0.07415797
232	0x3da8d3f9	0.082435556
233	0x3cd4fae7	0.025998546
234	0x3d2a403d	0.04156517
235	0x3cccb107	0.024986757
236	0x3d48c248	0.049013406
237	0xbd07c444	-0.033146158
238	0xbd81ee4a	-0.06344278
239	0x3c963231	0.01833448
240	0xbcea85ee	-0.028628316
241	0xbc728163	-0.014801356
242	0xbcde1b9a	-0.02711277
243	0xbc65359f	-0.013989835
244	0xbc14ab78	-0.009074084
245	0x3c88397d	0.016628975
246	0x3d44435f	0.047915813
247	0xbae8f555	-0.001777331
248	0xbca0814a	-0.0195929
249	0xbc41fb24	-0.011839662
250	0xbd163713	-0.036673617
251	0x3cf6217e	0.030045267
252	0xbd0cd97a	-0.03438709
253	0xbc6c8ae4	-0.014437411
254	0xbc82591f	-0.015911637
255	0x3c820097	0.015869422

action_model._continuous_distribution.mu.bias f4 [2]
0	0x3cda9c74	0.02668593
1	0x3c8169f1	0.015797587

action_model._discrete_distribution.branches.0.weight f4 [1, 128]
0	0xbbd5c84f	-0.006524123
1	0xbba6b033	-0.0050869226
2	0xbc99e10b	-0.018784067
3	0xbb9dffc4	-0.0048217494
4	0x3994b05b	0.00028360155
5	0xbcd1e137	-0.025620086
6	0xbc290eae	-0.010318441
7	0x3c0579cb	0.0081467135
8	0xbb360900	-0.002777636
9	0xba9f4c83	-0.001215354
10	0xbb01bc07	-0.001979591
11	0x3b1b07d5	0.0023655791
12	0xbb8a56ff	-0.0042217965
13	0xbc478ec3	-0.012180033
14	0x394b8949	0.00019410731
15	0x3be815c7	0.007082674
16	0xbc21c1e1	-0.0098728845
17	0xbc3b7920	-0.011442453
18	0xbbf52bfa	-0.007482049
19	0x3a840721	0.0010072925
20	0x3bcb0ef0	0.006196849
21	0x3c7bf9d0	0.015379384
22	0xbc76149b	-0.015019561
23	0x3c9360b5	0.01799045
24	0x3929a99b	0.00016180279
25	0x3ab9f1c4	0.0014186432
26	0xbbc5e45d	-0.006039186
27	0x3a959d5e	0.0011414697
28	0x3a879495	0.0010343964
29	0x3b9c89bb	0.004777161
30	0xbc8b7907	-0.017025484
31	0x3bd45557	0.0064799
32	0x39f9714b	0.0004757739
33	0xbbdf1840	-0.0068083107
34	0xbb6e4d87	-0.0036362128
35	0xbc4eedbd	-0.012629923
36	0x3b8bb804	0.0042638797
37	0xbc787f00	-0.015166998
38	0x3bdc4c70	0.0067229792
39	0x3bf71a50	0.0075409785
40	0xbc4b9cc4	-0.012427513
41	0x3b5e0bef	0.0033881625
42	0xbc4a61a6	-0.012352383
43	0xbabc484b	-0.0014364807
44	0x3b519247	0.0031978057
45	0x3b9cc68d	0.0047844113
46	0xbb5c3f33	-0.0033607006
47	0x3b8e0cd7	0.0043350267
48	0xbc989fd1	-0.018630894
49	0xbb7ed200	-0.0038882494
50	0xbb2d69d6	-0.0026460788
51	0xbc8e5122	-0.017372672
52	0xbc149b48	-0.009070225
53	0x3c27242d	0.010201496
54	0x3b0eea9f	0.0021807326
55	0x3b445d5b	0.002996287
56	0x3c72266b	0.014779667
57	0x3b8df953	0.0043327003
58	0x39e73713	0.00044100787
59	0xbacec935	-0.0015776517
60	0xbcb6f5c8	-0.022333995
61	0xbc06a92d	-0.008219046
62	0xbaf29d87	-0.0018510082
63	0x3c324766	0.0108812805
64	0xbc3eb2d2	-0.011639314
65	0x3bf18d70	0.007371597
66	0x3b264dfb	0.002537607
67	0xbb85ef56	-0.004087369
68	0xbc00bbaa	-0.007857243
69	0xbb9eb70b	-0.0048435978
70	0xbc302e9e	-0.010753302
71	0xbc021a29	-0.007940807
72	0x3ba7e9fb	0.005124328
73	0x3a548ba3	0.00081079657
74	0x3bfaa15b	0.0076486296
75	0xbaa222f9	-0.0012370042
76	0xbc43d3fc	-0.0119523965
77	0xbb93341e	-0.004492297
78	0x3b6a7687	0.0035776214
79	0x3bd4f888	0.006499354
80	0x3be5b918	0.0070105903
81	0x3c8db9ef	0.017300574
82	0x3b97865f	0.0046241726
83	0x3c39c14a	0.011337588
84	0xbc4ce34d	-0.012505365
85	0x3bdde03f	0.006771117
86	0xbb878512	-0.0041357363
87	0xbc72b645	-0.014813964
88	0xbbbf6edb	-0.0058420724
89	0xbc0433e3	-0.008069011
90	0x3c2947f2	0.0103320945
91	0x3bd578c3	0.00651464
92	0xbb6a8202	-0.0035783057
93	0xbc17522f	-0.009235903
94	0xbad1ebdb	-0.0016015725
95	0x3aac4483	0.0013142977
96	0x3bb7387d	0.0055914507
97	0x3b9b22da	0.0047343792
98	0xbca62a36	-0.0202838
99	0xbbba18e3	-0.0056792363
100	0xbc5c2c98	-0.013438366
101	0x3bba3708	0.00568283
102	0xbc15aadf	-0.009134977
103	0xbae96885	-0.0017807639
104	0xbc1d3b4c	-0.009596657
105	0x3af4c3ba	0.0018674054
106	0x3a3b501b	0.00071454205
107	0xba9805a7	-0.0011598364
108	0x3c10cd97	0.008838079
109	0x3c0a1bc3	0.0084294705
110	0xbc8b4373	-0.016999936
111	0xbc2535d9	-0.010083639
112	0xba5912c8	-0.00082806917
113	0x3a3b5ba5	0.000714714
114	0xbc26ae1b	-0.010173346
115	0xbca13503	-0.019678598
116	0xbb4f2960	-0.0031610355
117	0x3ad4fdbf	0.0016249939
118	0x38dcfa5f	0.00010537053
119	0xbb9ef2c7	-0.0048507187
120	0xbc6deb8f	-0.014521494
121	0x3a19a3a6	0.00058608723
122	0x3c7fb1ef	0.0156063875
123	0x3a9c2815	0.0011913801
124	0xbab9663f	-0.0014144852
125	0xbb7d09bf	-0.0038610545
126	0xbc34bf93	-0.011032003
127	0x3b5740df	0.0032845063

exp_avg f4 [128, 8]
0	0xba7dfe36	-0.00096890645
1	0x38db9120	0.000104697654
2	0x38e0b950	0.000107156695
3	0xb9eeb516	-0.00045529817
4	0x389a9b4f	7.372221e-05
5	0xbac0dac2	-0.0014713632
6	0x3a26fafd	0.00063697976
7	0xba6a30b6	-0.000893365
8	0x3befd8ce	0.0073195463
9	0xb9baec60	-0.00035652798
10	0xbc2e7670	-0.010648355
11	0x3b9c7d70	0.0047756955
12	0xb9a22a7e	-0.00030930707
13	0xbbde34e0	-0.0067812055
14	0xb9c021a2	-0.00036646152
15	0xbb0c23b4	-0.0021383585
16	0xbb26b64f	-0.0025438254
17	0x387fdd8b	6.1003066e-05
18	0x3b0fee69	0.0021962172
19	0xbb1c48ca	-0.0023847097
20	0xb6985170	-4.5394336e-06
21	0x3b7673bd	0.0037605606
22	0x36d0a9b0	6.2186373e-06
23	0x3aa73701	0.0012757481
24	0xbaa01636	-0.0012213651
25	0x3948d04a	0.0001915108
26	0x3ae8ea8a	0.0017770093
27	0xb6dfee00	-6.6736247e-06
28	0x3940c992	0.00018385638
29	0x3b40bcfa	0.0029409514
30	0xb9874857	-0.00025803104
31	0xbb00b673	-0.0019639998
32	0xba584093	-0.00082493684
33	0x37295680	1.0093325e-05
34	0xba8cae9f	-0.0010733193
35	0xb9fe68e5	-0.00048524808
36	0x377efc58	1.5198333e-05
37	0xba992d80	-0.0011686534
38	0xb9d55f36	-0.00040697464
39	0xb6c37ca0	-5.825961e-06
40	0x3a9e3cb6	0.0012072537
41	0xb7128c7a	-8.734985e-06
42	0xba820999	-0.0009921073
43	0x3a308e9b	0.0006735117
44	0xb804243e	-3.1505006e-05
45	0x3b1408e2	0.0022588302
46	0xb896472d	-7.165815e-05
47	0xba633e5b	-0.00086686545
48	0x3b887005	0.0041637444
49	0xb99dd28f	-0.00030102252
50	0xbbaa0e49	-0.005189691
51	0x3b040f38	0.0020150673
52	0xb99e042e	-0.00030139223
53	0x39805c60	0.00024482887
54	0x39679544	0.00022085482
55	0xb9179c00	-0.00014458597
56	0x3b131587	0.0022443251
57	0xb9107f3d	-0.0001378031
58	0xbaff1a02	-0.0019462707
59	0x3ac49f7a	0.0015001141
60	0xb9107f30	-0.00013780291
61	0x3a87c692	0.0010358861
62	0x39f7e367	0.0004728094
63	0xba4a15ca	-0.00077089353
64	0xb985b930	-0.00025505712
65	0xb84627fc	-4.7244117e-05
66	0xbaa142ce	-0.0012303235
67	0x3aa2e784	0.0012428616
68	0xb7736110	-1.4506528e-05
69	0xbb83d7db	-0.0040235347
70	0xba1d4e83	-0.0006000774
71	0xbb02267a	-0.001985936
72	0xbb79acea	-0.003809745
73	0x384e2c45	4.9155457e-05
74	0x3a8d4fc6	0.0010781221
75	0xbabbb01a	-0.001431945
76	0x3896d4cc	7.192194e-05
77	0xbad8a740	-0.0016529337
78	0xba952b88	-0.0011380771
79	0x3a22fdca	0.0006217627
80	0x3abc3a06	0.0014360554
81	0x3879ade8	5.952819e-05
82	0xba3d3474	-0.0007217594
83	0x3a951b45	0.0011375925
84	0x3879b40a	5.95339e-05
85	0xb9a26f2a	-0.00030981872
86	0xb7c80446	-2.3843848e-05
87	0xb9bf82b8	-0.00036527752
88	0xba225c89	-0.00061935984
89	0xb7c40478	-2.3367102e-05
90	0x390d742d	0.00013490087
91	0xb990e074	-0.0002763305
92	0xb7c404fc	-2.3367342e-05
93	0x38dbcf44	0.0001048134
94	0x374a3eb3	1.20547365e-05
95	0x38c87694	9.55883e-05
96	0x3ab94a60	0.0014136545
97	0xb8768238	-5.8772246e-05
98	0xbb0c999e	-0.0021453868
99	0x3ac11534	0.001473105
100	0xb783f4ca	-1.5730406e-05
101	0xbb8fedd5	-0.0043923655
102	0xba366774	-0.0006958165
103	0x39eff88d	0.00045770817
104	0xbb28c29c	-0.0025750762
105	0x390d22d9	0.0001345979
106	0x3b15057e	0.002273887
107	0xbb1587df	-0.0022816581
108	0x38e5dc64	0.00010960622
109	0x3b4059c5	0.0029350382
110	0x397b0040	0.00023937318
111	0x395dac82	0.00021140467
112	0x3abeca80	0.0014556199
113	0xb98acf9a	-0.00026476086
114	0xbb1486ee	-0.0022663432
115	0x3acbf14d	0.0015559584
116	0xb97bafc8	-0.00024002709
117	0xbb7cdac9	-0.0038582555
118	0x3aa2ec58	0.0012430055
119	0xbb77e902	-0.0037828092
120	0x3aaaa072	0.0013017787
121	0x38f0be5f	0.00011479551
122	0xb980ce42	-0.00024567737
123	0x3a463e06	0.0007562343
124	0x38f0b798	0.00011478289
125	0xb9f8249d	-0.00047329525
126	0xb8d09842	-9.946573e-05
127	0xb8beee3f	-9.104283e-05
128	0xbaac317d	-0.0013137307
129	0x37da19a6	2.5999569e-05
130	0xb9f5d876	-0.00046891317
131	0xba7c1b07	-0.00096170645
132	0x37da11f6	2.5995989e-05
133	0xba3c18ca	-0.0007175325
134	0xb9f1556f	-0.00046030755
135	0x37800f92	1.526604e-05
136	0xbb524afc	-0.0032088151
137	0x38b73e71	8.7377506e-05
138	0x3b5ac717	0.0033382827
139	0xbb4c43b7	-0.003116829
140	0x37a42456	1.9567244e-05
141	0x3be5c1d2	0.0070116306
142	0x39f8d286	0.00047459098
143	0xb9113f66	-0.00013851895
144	0x3b907a46	0.0044091074
145	0xb98e31e4	-0.00027121522
146	0xbbd067e0	-0.006360039
147	0x3b96e26c	0.0046046283
148	0xb947babe	-0.00019047686
149	0xbc34a8c2	-0.011026563
150	0xba67aba4	-0.0008837527
151	0xb9bfee59	-0.00036607942
152	0x39eb8648	0.0004492274
153	0xb79cf430	-1.8710358e-05
154	0xb8956448	-7.1235525e-05
155	0x391cac3b	0.0001494148
156	0xb799868e	-1.8301678e-05
157	0x375c1b44	1.311937e-05
158	0x390c21e4	0.00013364066
159	0xb8b4cd19	-8.621271e-05
160	0x3ba4d1be	0.005029886
161	0xb960f396	-0.00021453048
162	0xbbd93342	-0.006628425
163	0x3b54b43e	0.0032456066
164	0xb9495d50	-0.00019203615
165	0xbbaa791e	-0.0052024266
166	0x391f0214	0.00015164196
167	0xbad50586	-0.0016252256
168	0x3bdab304	0.0066741724
169	0xb9ade995	-0.00033171164
170	0xbc027944	-0.007963482
171	0x3b82bd2c	0.003989836
172	0xb99d0f0e	-0.0002995659
173	0xbb22aaf0	-0.0024821125
174	0x3a0209f0	0.0004960587
175	0xbaebbed3	-0.0017985947
176	0xba9d6541	-0.0012008325
177	0x370ed010	8.512303e-06
178	0x3a85606d	0.0010175832
179	0xba97a446	-0.0011569343
180	0x36f9dd90	7.4465715e-06
181	0x3adb4a25	0.0016730471
182	0x38932542	7.016446e-05
183	0x39f450fb	0.00046599642
184	0xbacd4d7a	-0.0015663349
185	0x38a8f7f9	8.057053e-05
186	0x3b06bad7	0.0020558143
187	0xbad825b1	-0.0016490725
188	0x385db8d2	5.2862633e-05
189	0x3b65f030	0.003508579
190	0x3688d180	4.077505e-06
191	0x39b16703	0.0003383682
192	0x3c02d31b	0.007984902
193	0xb9d8de14	-0.00041364192
194	0xbc29be3a	-0.010360295
195	0x3bad8770	0.0052956864
196	0xb9db24dd	-0.000417984
197	0xbb887ac6	-0.0041650264
198	0x3a197c60	0.000585502
199	0xbb3996b6	-0.002831859
200	0xbbc301d2	-0.0059511447
201	0x39d248c4	0.00040108536
202	0x3bf2ec86	0.0074134497
203	0xbb64820e	-0.0034867558
204	0x39d66915	0.00040895553
205	0x3b1432d0	0.0022613294
206	0xb9f63f17	-0.00046967782
207	0x3b513481	0.0031922164
208	0x3a4188de	0.00073827605
209	0x388d085a	6.7249595e-05
210	0xba58c1a0	-0.00082685985
211	0x3a00110c	0.00048853527
212	0x388d7c60	6.7465706e-05
213	0xba2e5282	-0.0006649868
214	0xb9262858	-0.00015846023
215	0xb9b84624	-0.00035147474
216	0xbb92b8e1	-0.0044776057
217	0x39b9cdfc	0.0003543942
218	0x3a9fde84	0.0012197052
219	0xbb2d96cf	-0.0026487594
220	0x39b5b94f	0.00034661076
221	0xb9dbbf08	-0.00041913264
222	0xba72340c	-0.0009239323
223	0xb9d23ae5	-0.000400982
224	0x3b81f16a	0.0039655464
225	0xb9d40a58	-0.00040443498
226	0xbbd9367e	-0.0066288104
227	0x3b7235e3	0.0036958389
228	0xb9a04710	-0.00030570524
229	0xbc1d3a76	-0.009596458
230	0xb97333fe	-0.00023193654
231	0xbaa64db8	-0.0012687957
232	0x3b5e4b50	0.0033919401
233	0xb8aad956	-8.146714e-05
234	0xbb7e9b3b	-0.0038849849
235	0x3b08d0a4	0.0020876313
236	0xb8645324	-5.4436867e-05
237	0xbb3ae8eb	-0.0028520178
238	0xb9727ee4	-0.00023126189
239	0xbad4c5d1	-0.001623327
240	0xbc01f1ca	-0.007931182
241	0x39b480e6	0.00034428312
242	0x3c30db20	0.010794431
243	0xbbbf7c77	-0.005843695
244	0x39842c06	0.00025209802
245	0x3c5b9176	0.01340138
246	0x3a2a29ab	0.00064911944
247	0x3aff0256	0.0019455652
248	0xbb2f2feb	-0.0026731442
249	0xb8014a2a	-3.0825067e-05
250	0x39722fc3	0.00023096711
251	0xbac2085e	-0.0014803519
252	0xb8014a72	-3.082533e-05
253	0xb8f4cf24	-0.000116734096
254	0xb9da5fe1	-0.00041651636
255	0x39bbd017	0.00035822458

exp_avg_sq f4 [128, 8]
0	0x3b0d8383	0.002159328
1	0x36cd5932	6.11986e-06
2	0x3a871c43	0.0010308105
3	0x3abec413	0.0014554284
4	0x36cd1557	6.1119604e-06
5	0x3aa2d81b	0.0012424024
6	0x39e2687f	0.00043183935
7	0x39caf21a	0.00038708822
8	0x3af0b9fc	0.0018365975
9	0x36d6b9b8	6.3993175e-06
10	0x3abbfb51	0.0014341866
11	0x3a89846c	0.0010491735
12	0x36d62452	6.3819252e-06
13	0x3ae474c6	0.0017429821
14	0x39991791	0.00029199992
15	0x39f7b1a1	0.00047243855
16	0x39c20837	0.00037008684
17	0x35854ed6	9.932216e-07
18	0x39465f36	0.0001891822
19	0x396ac467	0.00022389145
20	0x358473fc	9.868522e-07
21	0x3989e21a	0.00026299135
22	0x38296a07	4.0391486e-05
23	0x38cd467c	9.7882905e-05
24	0x3a7396af	0.0009292168
25	0x3659d9ee	3.2462372e-06
26	0x3a1592c3	0.0005705768
27	0x3a1d790a	0.0006007111
28	0x3659bbb6	3.2444782e-06
29	0x3a1d9042	0.0006010571
30	0x39174b60	0.00014428562
31	0x3922cb9f	0.00015525379
32	0x39c01800	0.00036638975
33	0x35bbba54	1.3986814e-06
34	0x398a4f48	0.0002638048
35	0x399d7dcf	0.00030039108
36	0x35bba3e7	1.3980288e-06
37	0x3946bd0b	0.00018953175
38	0x3838cab6	4.4057808e-05
39	0x386d9556	5.6644283e-05
40	0x399d197e	0.00029964367
41	0x35954ea7	1.1124256e-06
42	0x39992631	0.0002921089
43	0x395c0a2c	0.00020984624
44	0x359480fa	1.1064396e-06
45	0x3949ef60	0.00019258028
46	0x3843720c	4.6597837e-05
47	0x38b21ac4	8.492687e-05
48	0x3a9050bc	0.0011010389
49	0x3655f08a	3.1879486e-06
50	0x3a1af2d8	0.00059108203
51	0x3a327120	0.0006807018
52	0x36558be4	3.18209e-06
53	0x3a4f2619	0.00079021003
54	0x38d22773	0.00010020928
55	0x392eef39	0.0001668305
56	0x39386ed1	0.0001758889
57	0x352d6068	6.458781e-07
58	0x3925d67c	0.00015815528
59	0x38da731e	0.00010416492
60	0x352d604b	6.4587647e-07
61	0x38e54764	0.000109328685
62	0x380deb9f	3.383646e-05
63	0x38259f1f	3.948726e-05
64	0x3a94de97	0.0011357841
65	0x36846f82	3.946888e-06
66	0x3a2e71aa	0.00066545105
67	0x3a371838	0.0006984505
68	0x36846d66	3.946642e-06
69	0x3a39513c	0.0007069295
70	0x38d78072	0.00010275924
71	0x3926eb24	0.0001591859
72	0x3b0ec3c0	0.0021784157
73	0x37085e4c	8.128187e-06
74	0x3abd0b53	0.001442293
75	0x3afb7b8f	0.0019186604
76	0x370858e5	8.126929e-06
77	0x3a8e0b58	0.0010837121
78	0x398cdfed	0.0002686972
79	0x39c57102	0.00037658965
80	0x395bc617	0.00020959262
81	0x356af830	8.7532953e-07
82	0x39238ada	0.00015596618
83	0x392a64d7	0.00016250029
84	0x356af483	8.7527604e-07
85	0x38d247c2	0.00010026946
86	0x3849bd71	4.8098565e-05
87	0x385854f3	5.157753e-05
88	0x396f8722	0.00022843157
89	0x359172e2	1.0836777e-06
90	0x39408b10	0.00018362352
91	0x39374e69	0.0001748145
92	0x35914837	1.0824359e-06
93	0x395466bb	0.00020256166
94	0x3897eb1e	7.244035e-05
95	0x3850b3d9	4.975856e-05
96	0x3a05d2e1	0.0005104971
97	0x3603ba01	1.962879e-06
98	0x3a104a81	0.0005504266
99	0x39a372d0	0.00031175325
100	0x36033ed7	1.9557099e-06
101	0x39bc1ce1	0.0003587967
102	0x3888d67c	6.524936e-05
103	0x390d2660	0.00013461104
104	0x3a198610	0.00058564637
105	0x35d8d1bc	1.6154295e-06
106	0x39b4b94c	0.00034470332
107	0x39bb643e	0.00035742106
108	0x35d89f06	1.6139536e-06
109	0x3989dbbd	0.00026294394
110	0x389fada4	7.614054e-05
111	0x391e33f7	0.00015087413
112	0x3acb3f45	0.0015506527
113	0x36c37d9c	5.8260757e-06
114	0x3a9eb50a	0.0012108397
115	0x3a7f35b6	0.00097354816
116	0x36c252f8	5.7913094e-06
117	0x3ab8aa12	0.0014088771
118	0x3993e7ce	0.00028210733
119	0x3998cfa7	0.00029146412
120	0x3a9d04d0	0.0011979584
121	0x3697edef	4.52785e-06
122	0x3a580872	0.00082410045
123	0x3a5c09a3	0.000839377
124	0x3697d71d	4.525193e-06
125	0x3a0d806b	0.0005397859
126	0x398b7c1d	0.00026604618
127	0x39758582	0.00023414756
128	0x3955b532	0.00020380763
129	0x35a06b8e	1.1952231e-06
130	0x398e47d2	0.0002713786
131	0x3914942d	0.0001416958
132	0x35a05558	1.1945767e-06
133	0x3954ec6f	0.00020305974
134	0x38501a01	4.9615282e-05
135	0x384e5910	4.9197173e-05
136	0x39c8e47f	0.00038317216
137	0x359abc17	1.1528635e-06
138	0x396a8b17	0.00022367794
139	0x394e2225	0.00019658411
140	0x359a04de	1.1475311e-06
141	0x39b8624d	0.00035168455
142	0x3838c48a	4.405206e-05
143	0x38b46430	8.60173e-05
144	0x3a99ef3d	0.0011744272
145	0x369e8452	4.724171e-06
146	0x3a67b41a	0.0008838788
147	0x3a552384	0.00081305974
148	0x369de756	4.7058957e-06
149	0x3a8717c3	0.0010306764
150	0x39187b74	0.0001454184
151	0x396336cb	0.00021668819
152	0x39bafb3e	0.00035663875
153	0x359ba962	1.1597697e-06
154	0x3935d362	0.00017340251
155	0x39acd89f	0.00032967792
156	0x359b9bc3	1.1593733e-06
157	0x391e78f4	0.00015113113
158	0x388165fd	6.170196e-05
159	0x38974d00	7.2145835e-05
160	0x39ed8f15	0.00045310767
161	0x35f35824	1.8130563e-06
162	0x39e72ad7	0.00044091672
163	0x399eb3ed	0.00030270164
164	0x35f34d3c	1.8127389e-06
165	0x3995251e	0.0002844715
166	0x38c9eff3	9.629121e-05
167	0x3928a33f	0.00016082542
168	0x3a124c18	0.0005580797
169	0x36144b55	2.2097568e-06
170	0x3a265215	0.00063446286
171	0x39ab351a	0.00032655225
172	0x3614449b	2.2093652e-06
173	0x39f5be89	0.00046872
174	0x385fb218	5.3333206e-05
175	0x38ce9ac9	9.8516764e-05
176	0x392c1aa0	0.00016413117
177	0x35226464	6.049579e-07
178	0x391bfa0a	0.00014875099
179	0x38f72bc3	0.00011786029
180	0x352107d7	5.998858e-07
181	0x393b1530	0.00017841603
182	0x37c78cb0	2.3788161e-05
183	0x3828ef4e	4.027719e-05
184	0x39e5854a	0.00043777592
185	0x35fa87d9	1.8665988e-06
186	0x3a241faa	0.0006260822
187	0x39882a64	0.00025971525
188	0x35f90ec4	1.8556243e-06
189	0x3a1e30fd	0.00060345215
190	0x38dc4511	0.00010503282
191	0x38fbe68b	0.00012011555
192	0x3a1eedc9	0.00060626544
193	0x36212db4	2.4017472e-06
194	0x3a270829	0.00063717604
195	0x39bc1260	0.00035871845
196	0x36211a74	2.4006267e-06
197	0x3a01dfa2	0.00049542834
198	0x38f5efae	0.00011727154
199	0x394903b6	0.00019170236
200	0x3a2447ab	0.0006266783
201	0x3609e8a8	2.0550015e-06
202	0x39e008c7	0.0004273115
203	0x39afb8cb	0.00033516283
204	0x3609b687	2.0520836e-06
205	0x39a3a4ab	0.0003121247
206	0x388e61fd	6.7893394e-05
207	0x38f3c2fe	0.00011623463
208	0x39e002c4	0.0004272667
209	0x35d985b2	1.620667e-06
210	0x3992dde7	0.0002801262
211	0x398af5d0	0.00026504556
212	0x35d98186	1.6205456e-06
213	0x397f0c55	0.00024323289
214	0x38d13663	9.976027e-05
215	0x38a1a149	7.70712e-05
216	0x3ad7eb68	0.0016473355
217	0x36b8e1f1	5.5099304e-06
218	0x3a9303b6	0.0011216316
219	0x3a7ba3a7	0.0009599276
220	0x36b875e2	5.4973507e-06
221	0x3ab5b96c	0.0013864464
222	0x39926ecf	0.0002792985
223	0x39cbc157	0.00038863227
224	0x3b07a546	0.0020697876
225	0x36ebeb9f	7.0309757e-06
226	0x3a974951	0.0011542236
227	0x3aa9943c	0.0012937854
228	0x36ead8ae	6.9989683e-06
229	0x3aa785ce	0.0012780966
230	0x39b28bd7	0.00034054994
231	0x39a71cce	0.00031874183
232	0x3992544b	0.00027910093
233	0x35932387	1.0962693e-06
234	0x39914d86	0.00027714315
235	0x3934e55a	0.00017251578
236	0x3592d696	1.09403e-06
237	0x394123d7	0.00018419266
238	0x38672f9d	5.5119035e-05
239	0x38fe8a16	0.00012137384
240	0x3ad6acaf	0.0016378368
241	0x36c3cf30	5.8355727e-06
242	0x3aa8a02e	0.001286512
243	0x3a89f49e	0.0010525172
244	0x36c2a0f5	5.8003884e-06
245	0x3ad22182	0.0016031715
246	0x39ad26f9	0.00033026168
247	0x39e1c194	0.0004305957
248	0x39e9a2d2	0.00044562534
249	0x360c3b24	2.089605e-06
250	0x39db0a17	0.00041778453
251	0x39b5eba8	0.00034698588
252	0x360c012c	2.0862308e-06
253	0x39d1897e	0.00039966026
254	0x38c49f53	9.375685e-05
255	0x38cf219d	9.87679e-05

exp_avg f4 [128]
0	0x395b9122	0.00020939534
1	0xba3aec60	-0.00071305595
2	0x38ffdd8d	0.000122006146
3	0x39c8d04a	0.0003830216
4	0x37a95680	2.018665e-05
5	0xb7928c69	-1.746994e-05
6	0xba1dd28e	-0.000602045
7	0xb9907f3c	-0.00027560617
8	0xb8c627f0	-9.448815e-05
9	0x38ce2c5e	9.8311095e-05
10	0x38f9ade8	0.00011905638
11	0xb8440477	-4.67342e-05
12	0xb8f68229	-0.00011754438
13	0x398d22d8	0.00026919576
14	0xba0acf96	-0.0005295215
15	0x3970be5e	0.00022959101
16	0x385a19a6	5.1999137e-05
17	0x39373e70	0.000174755
18	0xba0e31e4	-0.00054243044
19	0xb81cf42f	-3.7420712e-05
20	0xb9e0f395	-0.00042906092
21	0xba2de994	-0.0006634232
22	0x378ecfec	1.702454e-05
23	0x3928f7f9	0.00016114106
24	0xba58de14	-0.00082728383
25	0x3a5248c2	0.0008021706
26	0x390d085a	0.00013449919
27	0x3a39cdfc	0.0007087884
28	0xba540a5a	-0.00080887007
29	0xb92ad956	-0.00016293427
30	0x3a3480e6	0.00068856624
31	0xb8814a2a	-6.1650135e-05
32	0x39557ffc	0.00020360941
33	0x380f6a68	3.4192955e-05
34	0x39e0c89e	0.0004287408
35	0x3925103b	0.00015741673
36	0xba589faf	-0.0008263541
37	0x392b2521	0.00016321662
38	0x388ab7c2	6.61458e-05
39	0x39c4a9a4	0.00037510425
40	0x39340ad4	0.00017170171
41	0xb9435ee2	-0.00018631996
42	0x3a54b9fe	0.0008114873
43	0x395e58fc	0.00021204719
44	0xb95d9b30	-0.00021134014
45	0xb99ddc0c	-0.0003010932
46	0xb9c7525b	-0.00038017597
47	0xb9e1a5be	-0.00043038832
48	0x37834ba3	1.5651638e-05
49	0x394ebe30	0.00019716541
50	0x383334f4	4.2726242e-05
51	0xb9d040d1	-0.00039721144
52	0x380c1217	3.339545e-05
53	0xb935cd37	-0.00017337954
54	0xb868552f	-5.5392444e-05
55	0xba1cfdb6	-0.00059887336
56	0xba4abad0	-0.00077335257
57	0xba3c7e7d	-0.0007190479
58	0xb8e4f002	-0.00010916592
59	0x39383719	0.00017568133
60	0xb9c54de8	-0.00037632813
61	0x38a67bd6	7.938563e-05
62	0x374db828	1.2261829e-05
63	0xb9b76b27	-0.00034984315
64	0xb9fa378c	-0.00047725101
65	0xb962ce45	-0.00021629881
66	0xba054970	-0.00050844904
67	0x399f64c2	0.00030401914
68	0x397a80a9	0.00023889788
69	0xb8e55fc1	-0.000109374065
70	0xb93b9e8c	-0.00017892773
71	0xba8a6e2c	-0.0010561398
72	0xb9159c1b	-0.00014267901
73	0xba097500	-0.00052435696
74	0x379c4388	1.8628096e-05
75	0xb9252092	-0.0001574776
76	0x39bc9de5	0.00035975795
77	0xb9c79de8	-0.00038073887
78	0xb5382260	-6.8595364e-07
79	0x3a10a343	0.0005517492
80	0xb91f1b86	-0.00015173675
81	0x39fe36aa	0.00048487383
82	0x39bc151a	0.00035873876
83	0xb85f65d8	-5.3262193e-05
84	0x3930dff8	0.00016868103
85	0xba277071	-0.00063872995
86	0xba3b2cac	-0.00071401405
87	0x3a5a14e6	0.0008319154
88	0x37bbbdb8	2.2380482e-05
89	0xba1f63c2	-0.0006080234
90	0x39d8f538	0.00041381433
91	0x37db8cf2	2.6172467e-05
92	0xb90985d1	-0.00013115189
93	0xb9c063bf	-0.0003669541
94	0xb9e110fa	-0.00042927993
95	0x39c43126	0.00037420652
96	0x3a502a14	0.00079408404
97	0x39aa6e86	0.00032507273
98	0x393d4347	0.00018049507
99	0x39e40652	0.00043492258
100	0x39d90df6	0.00041399867
101	0xb9211828	-0.00015363155
102	0x399d81fb	0.00030042217
103	0x39324886	0.0001700242
104	0xb8d416c2	-0.00010113187
105	0x39338864	0.0001712158
106	0x376292a0	1.35047885e-05
107	0xbaa79a82	-0.0012787136
108	0xb9026564	-0.00012435537
109	0x39a0dfec	0.00030684413
110	0x398c381a	0.0002674468
111	0x38af28bc	8.352238e-05
112	0x3a23ac52	0.0006243634
113	0xb97a9df2	-0.00023900697
114	0xb8f7127a	-0.00011781319
115	0xb8a34fbd	-7.787298e-05
116	0x391fb913	0.00015232367
117	0x378e18b4	1.6939222e-05
118	0xb9a76fb7	-0.00031935956
119	0xb93e19fb	-0.0001812949
120	0xba872910	-0.001031192
121	0xb82bcbf4	-4.0959523e-05
122	0x3a056d2c	0.0005089815
123	0xb8c19679	-9.230985e-05
124	0x3a72efa9	0.00092672795
125	0xb9b914f6	-0.00035301567
126	0x390224c8	0.00012411468
127	0xb8c017a5	-9.1596776e-05
