ML Agents tutorial/Assets/results/RollerBall/RollerBall/RollerBall-3914.pt (torch, 446793 bytes, 39 tensors)

network_body._body_endoder.seq_layers.0.weight f4 [128, 8]
0	0x3d9220f3	0.07135191
1	0x3e8d99bf	0.2765636
2	0x3e03bc39	0.1286477
3	0xbec470b1	-0.38367227
4	0xbf1bab35	-0.60808116
5	0x3c9d9b21	0.01923901
6	0xbe927353	-0.2860361
7	0xbe8dc882	-0.27692038
8	0xbe3232c3	-0.17402177
9	0xbe5120c5	-0.20422657
10	0xbe40fef5	-0.18847258
11	0x3e96b72c	0.29436624
12	0xbcb29b59	-0.021802591
13	0xbed71d5d	-0.4201459
14	0xbe9a58b3	-0.30145797
15	0x3e51ab43	0.20475487
16	0x3e1e02f9	0.15430821
17	0xbee34c8e	-0.44394344
18	0x3e8e331a	0.27773362
19	0x3e5c692c	0.21524495
20	0xbc8cda34	-0.017193891
21	0x3e4b0858	0.19827402
22	0x3e06be73	0.13158588
23	0xbe8eab0f	-0.27864882
24	0xbec2fa1b	-0.3808144
25	0x3edcdbe6	0.4313652
26	0x3e60bc67	0.2194687
27	0x3d48e86d	0.049049783
28	0x3f084add	0.5323923
29	0xbe60b085	-0.21942337
30	0xbf0e647c	-0.55622077
31	0x3d26c83a	0.040718295
32	0x3da52e05	0.08065418
33	0xbeb134dd	-0.34610644
34	0xbead6e32	-0.33873135
35	0xbe35668c	-0.177149
36	0x3eb52ced	0.35385838
37	0xbe66ebc5	-0.22550876
38	0x3f003a36	0.5008882
39	0x3e8ac573	0.27103767
40	0x3f0af964	0.5428679
41	0xbe176fc9	-0.14788736
42	0x3d8c36b3	0.068463705
43	0xbe18150f	-0.14851783
44	0xbd694f00	-0.056960106
45	0xbefce298	-0.49391627
46	0x3edb4e65	0.42833248
47	0xbd046f40	-0.03233266
48	0xbe8cc0a2	-0.27490717
49	0xbe9b5ba8	-0.30343366
50	0x3eebd3ae	0.46059936
51	0xbe525cb7	-0.2054318
52	0xbf4235a7	-0.75863117
53	0x3db9005e	0.09033273
54	0xbca6ada1	-0.020346465
55	0xbeabf00d	-0.33581582
56	0x3eb9c632	0.36284024
57	0xbc031336	-0.008000186
58	0xbeb85806	-0.36004657
59	0xbe91c982	-0.2847405
60	0x3ec240bb	0.3794001
61	0xbf51f6e9	-0.8201738
62	0xbdd2320a	-0.102634504
63	0xbf01c992	-0.50698197
64	0x3e78b107	0.2428628
65	0x3e86f152	0.26355988
66	0xbf88f35c	-1.0699267
67	0x3c0db792	0.008649724
68	0x3f119b8f	0.5687799
69	0x3e957873	0.29193458
70	0x3ef0b198	0.47010493
71	0x3f074d5f	0.52852434
72	0xbd14775a	-0.036246635
73	0xbe751cf0	-0.2393682
74	0x3e5c0361	0.21485664
75	0x3d8b953d	0.06815574
76	0x3c14f5a1	0.009091766
77	0xbe1cb26f	-0.15302442
78	0xbd6fe3a4	-0.058566704
79	0x3d7f878f	0.062385138
80	0x3dc136b7	0.09434264
81	0x3c20feca	0.009826371
82	0x3d54647f	0.051853653
83	0x3ea2628f	0.3171582
84	0x3e995844	0.29950154
85	0x3e53af77	0.20672403
86	0xbe314b27	-0.17313825
87	0xbea62450	-0.3244958
88	0xbd4e90c2	-0.05043102
89	0x3e471029	0.19439758
90	0xbd812fa7	-0.06307917
91	0x3e5c9e6c	0.21544808
92	0x3ec49666	0.38395995
93	0xbde41192	-0.11136164
94	0x3e846cb3	0.2586418
95	0x3e42bf18	0.19018209
96	0xb8b3aef0	-8.56797e-05
97	0x3e5d1201	0.21588899
98	0x3d856855	0.065140404
99	0x3e94b598	0.29044795
100	0x3ebc2646	0.3674795
101	0x3ccb6916	0.024830382
102	0xbe7a158b	-0.2442228
103	0x3f065e2d	0.5248745
104	0x3f36313f	0.71168894
105	0x3e4d2f98	0.20037687
106	0x3efc932a	0.49331027
107	0xbf0fe002	-0.56201184
108	0xbeb532a6	-0.35390204
109	0xbe83885d	-0.25689974
110	0x3cb8fb05	0.022580633
111	0x3e05d33b	0.1306886
112	0xbeaae2be	-0.33376116
113	0x3e828d1b	0.2549828
114	0xbdda4fa2	-0.1065972
115	0x3ee80fe7	0.45324633
116	0x3d2692ae	0.04066723
117	0xbc4da97a	-0.012552613
118	0xbdfeb9a4	-0.12437752
119	0xbf2e76f1	-0.6815024
120	0x3da2d852	0.07951416
121	0xbe922001	-0.28540042
122	0x3f2469ed	0.6422413
123	0xbce3ec68	-0.027822688
124	0xbd124c2b	-0.03571717
125	0xbdeb4be2	-0.11489083
126	0xbe7ed81e	-0.2488713
127	0xbcb569dd	-0.022145206
128	0xbebd4a74	-0.36970866
129	0x3eb5d577	0.35514423
130	0xbe2cead7	-0.1688646
131	0xbe974d82	-0.2955132
132	0x3ea37a54	0.31929266
133	0xbd6ec8a1	-0.058296803
134	0xbef8905a	-0.48547632
135	0xbd9a3b40	-0.07530832
136	0x3bf5f426	0.0075059114
137	0x3c3cc3da	0.011521304
138	0xbeb48bf4	-0.35263026
139	0xbee288a0	-0.44244862
140	0x3c10a0f4	0.008827437
141	0x3e43e382	0.19129756
142	0xbe867c8b	-0.26266894
143	0x3dfdfbf2	0.124015704
144	0xbe46593b	-0.19369976
145	0x3e493eeb	0.19652908
146	0xbc9d08b7	-0.019169195
147	0x3ef655dc	0.4811238
148	0xbe40fb72	-0.18845919
149	0x3f4091c2	0.7522241
150	0x3f1dab6e	0.61589706
151	0xbb1744ab	-0.00230817
152	0x3de6ea34	0.112751395
153	0xbe8748ac	-0.26422632
154	0x3ed475f2	0.41496235
155	0x3e3fb8cf	0.18722843
156	0x3f064368	0.52446604
157	0x3d6e8588	0.058232814
158	0x3ddf8fa3	0.109160684
159	0x3e81bf13	0.2534109
160	0xbe7fdce1	-0.24986602
161	0xbdb8b4e5	-0.09018878
162	0xbea830a0	-0.32849598
163	0x3e48cf1f	0.1961026
164	0x3d0991e8	0.033586413
165	0x3e2465e5	0.16054495
166	0x3e350f13	0.17681532
167	0x3d3ec20c	0.046571776
168	0x3e8fdbb9	0.28097323
169	0x3df52a2f	0.119709365
170	0x3f0086d9	0.5020576
171	0xbec6abee	-0.38803047
172	0x3f041d0d	0.5160683
173	0x3e08c091	0.13354708
174	0x3e6a1139	0.22858132
175	0xbe57fcf9	-0.21092595
176	0xbe95fcae	-0.29294342
177	0xbf0d569f	-0.552103
178	0xbde9e9ee	-0.11421572
179	0xbe19e9b8	-0.15030563
180	0x3e059cb8	0.13048065
181	0xbe429149	-0.19000734
182	0xbdc30d5b	-0.09524032
183	0x3df792e8	0.12088567
184	0xbd058778	-0.032599896
185	0xbe442c3b	-0.19157498
186	0x3dee2ecf	0.11630022
187	0xbcb30943	-0.021855002
188	0xbf33eaef	-0.70280355
189	0xbf333ecc	-0.70017695
190	0x3ef0cf15	0.4703299
191	0x3d37f389	0.044909988
192	0xbe7e9f98	-0.24865568
193	0xbe26c970	-0.1628778
194	0x3ebbeb87	0.3670313
195	0x3e9c87f3	0.3057247
196	0x3c67e2a4	0.014153156
197	0xbf1510ae	-0.58228576
198	0xbeb2e9af	-0.3494391
199	0xbf303b11	-0.6884013
200	0x3f2d0d67	0.67598575
201	0xbeafd0e7	-0.34339067
202	0xbe9881f9	-0.2978666
203	0x3c7b0b1a	0.015322471
204	0x3de2b7e8	0.110702336
205	0xbed5f473	-0.41788062
206	0x3e3ce063	0.18444972
207	0x3e95831e	0.29201597
208	0xbe06b18a	-0.13153663
209	0xbf1f3502	-0.6219026
210	0xbd6623e5	-0.056186575
211	0x3e142604	0.14467627
212	0x3ea8cbd1	0.32968
213	0x3efd17fa	0.49432355
214	0x3e8884f0	0.26663923
215	0xbdd2316a	-0.10263331
216	0xbe317237	-0.17328726
217	0xbdd979ce	-0.106189355
218	0xbe887c61	-0.26657394
219	0x3d06dbba	0.03292439
220	0xbeaa178e	-0.33221096
221	0xbdb6bf33	-0.08923187
222	0xbecf166d	-0.40446797
223	0x3eca54eb	0.39517912
224	0xbeb3a5a5	-0.35087314
225	0xbeec3a47	-0.46138212
226	0x3f362f44	0.7116587
227	0x3e5fe0e3	0.21863131
228	0xbeded323	-0.4352046
229	0x3e80395e	0.25043768
230	0x3d3a29d5	0.04545005
231	0xbe0042e0	-0.12525511
232	0x3dc1c67c	0.09461686
233	0x3f397738	0.7244754
234	0x3e25f94d	0.16208382
235	0x3f0d66c9	0.5523496
236	0xbec214fd	-0.37906638
237	0x3eb36e71	0.35045198
238	0xbe8fa2a2	-0.28053766
239	0xbf0352d7	-0.5129828
240	0x3e9a3544	0.30118763
241	0xbe779796	-0.24178919
242	0xbef0f357	-0.47060654
243	0xbe8c5f1a	-0.27416307
244	0xbe7461ad	-0.23865385
245	0xbf4039b3	-0.7508804
246	0xbe8e232f	-0.27761218
247	0xbd2437fb	-0.04009245
248	0x3e35ede1	0.17766525
249	0x3e54f1c3	0.2079535
250	0xbe786805	-0.2425843
251	0x3e858fcc	0.2608627
252	0x3da90cdd	0.082544066
253	0xbb90c9bd	-0.0044185803
254	0xbd70b1c5	-0.058763284
255	0xbf342558	-0.7036948

network_body._body_endoder.seq_layers.0.bias f4 [128]
0	0x3b0277d3	0.0019907847
1	0xb97860d3	-0.00023687193
2	0x3b8ee315	0.0043605664
3	0x3c2eeb24	0.010676179
4	0xbb272698	-0.0025505181
5	0x3a2058ad	0.00061167293
6	0xbcae57bc	-0.02128207
7	0xbc77ef6c	-0.015132766
8	0xbba6226a	-0.0050700204
9	0x3bdebf5c	0.006797714
10	0x3b2573fe	0.0025246139
11	0xbcecbb98	-0.028898045
12	0xbbe7da48	-0.0070755817
13	0xbc3c48d1	-0.01149197
14	0x3bdabce9	0.006675352
15	0xbba0cfe2	-0.004907594
16	0xba6b3b51	-0.00089733774
17	0x3b7d9ac9	0.0038696995
18	0x3c530cde	0.012881486
19	0xbc1bb1e4	-0.009502862
20	0xbbc5dde9	-0.0060384166
21	0x3bafd01b	0.0053653843
22	0xbbac33d9	-0.005255204
23	0xbbb65eea	-0.005565514
24	0x3d0e9b28	0.034815937
25	0x3b33114f	0.002732355
26	0xbc0a7055	-0.008449634
27	0xbc1ddf4f	-0.00963576
28	0x3a9ce4a3	0.0011969995
29	0x3c01d40e	0.007924093
30	0x3c118118	0.008880876
31	0xbc520181	-0.012817741
32	0xbbcc95bd	-0.006243436
33	0x3b3606b3	0.002777499
34	0xba96bea1	-0.0011500904
35	0xb95e7638	-0.0002121561
36	0x3ba69216	0.005083333
37	0x3b615c65	0.0034387347
38	0x3c60eb93	0.01372804
39	0xbc4ed303	-0.012623551
40	0xbc3406e8	-0.010987975
41	0x3c075896	0.008260867
42	0x3aae6c6e	0.0013307461
43	0xbc1894d5	-0.009312828
44	0x3b14c844	0.0022702375
45	0xbbd826b8	-0.0065964125
46	0xbc573ac3	-0.0131365685
47	0x3b9a697e	0.0047122827
48	0x3b94d854	0.00454239
49	0x3b95a2a6	0.0045665083
50	0xbc676261	-0.014122576
51	0x3c80d80e	0.015728023
52	0xbc09740f	-0.008389487
53	0xbbb6c166	-0.005577254
54	0xbae062af	-0.0017119254
55	0xbb18ab99	-0.002329564
56	0xbc043686	-0.00806964
57	0x3b83dd64	0.0040241946
58	0xbbe22fe2	-0.0069026807
59	0x3c0e3ea8	0.008681931
60	0x3c2a5120	0.010395318
61	0xbc968537	-0.018374069
62	0x3b1d1bfb	0.0023972976
63	0xbc84bb1e	-0.016202506
64	0xbc9f2759	-0.019427942
65	0xbc238dc3	-0.009982529
66	0xbad3d67b	-0.0016161943
67	0xbb331f96	-0.002733206
68	0xbbde02e5	-0.0067752474
69	0x3b8dbf76	0.0043258024
70	0x3c72d2d1	0.01482077
71	0xbbb56979	-0.005536255
72	0xbb3e6f80	-0.0029058158
73	0xbb48cdcd	-0.0030640245
74	0x3be3de06	0.0069539575
75	0x3c6edbec	0.014578801
76	0xbbcb3741	-0.006201655
77	0xbbccbca4	-0.0062480737
78	0xbb8c732c	-0.0042861905
79	0x3839aef1	4.4270364e-05
80	0xbb8c23ab	-0.004276713
81	0x3bf13f99	0.0073623178
82	0xbc95a9dc	-0.018269472
83	0xbb260369	-0.0025331622
84	0xbc66d1b3	-0.014088082
85	0x3b0c0526	0.0021365373
86	0x3b808922	0.0039225975
87	0xbb31ca12	-0.00271285
88	0x3b8b3c81	0.004249156
89	0x3b2ea3b9	0.002664788
90	0xb9bb9e82	-0.00035785517
91	0x3ca571f1	0.020195933
92	0xbb2e4689	-0.0026592335
93	0xbafb6136	-0.0019178751
94	0xbbd89726	-0.006609815
95	0xbbbbc13f	-0.005729824
96	0xbba0779a	-0.00489707
97	0x3b684bc1	0.0035445543
98	0x3bba2d5f	0.005681678
99	0xbb908cbe	-0.004411309
100	0xbc42ad19	-0.01188209
101	0xbc928660	-0.01788634
102	0x3bf8245b	0.0075726933
103	0xbc4946c2	-0.012284936
104	0x39647bf5	0.00021789952
105	0x3b53b690	0.003230486
106	0x3ab8cef7	0.0014099766
107	0x3c67a792	0.014139073
108	0x3a08a05f	0.00052118854
109	0xba082735	-0.00051938306
110	0x3b416b24	0.0029513324
111	0xbbb9c3bf	-0.0056690867
112	0xbc460a98	-0.012087487
113	0xbc608407	-0.013703353
114	0x3bf761f0	0.007549517
115	0xbbdf71ff	-0.0068190093
116	0x3a82ee85	0.0009989297
117	0x3c0af495	0.008481164
118	0xbc080845	-0.008302753
119	0x3adf7528	0.0017048465
120	0xba899e79	-0.0010499499
121	0xbc0ebc62	-0.008711906
122	0xbb784904	-0.0037885318
123	0xbc34704f	-0.011013105
124	0xba1e5bd3	-0.00060409046
125	0xbbbbd3bf	-0.005732029
126	0xbbf5ec79	-0.0075049964
127	0xba3ef077	-0.0007283757

network_body._body_endoder.seq_layers.2.weight f4 [128, 128]
0	0x3e0c1793	0.13680868
1	0xbd188719	-0.037238214
2	0xbc83036a	-0.015992839
3	0xbd2ffa3f	-0.042963263
4	0xbd8810f9	-0.06643862
5	0xbca36440	-0.019945264
6	0xbcf2c381	-0.02963424
7	0xbb8bf1d4	-0.0042707715
8	0x3e16d36c	0.14729089
9	0x3ca40f14	0.020026721
10	0xbe43fde8	-0.19139826
11	0x3dda0edc	0.106473655
12	0x3d94f3c0	0.07273054
13	0xbdad0713	-0.08448615
14	0x3c43ce41	0.01195103
15	0xbdd9e507	-0.106393866
16	0x3bda8bde	0.0066695055
17	0x3d00e65a	0.03146968
18	0x3e4ea6b7	0.20180784
19	0x3d0cd963	0.034387004
20	0x3de1a635	0.110180296
21	0xbe5a31b2	-0.2130802
22	0x3c884629	0.016635017
23	0xbd992e28	-0.07479507
24	0x3b8f5013	0.0043735593
25	0x3cb15c0c	0.021650337
26	0x3d656d2e	0.056012325
27	0x3d01dfd8	0.031707615
28	0xbdff08b9	-0.124528356
29	0xbdf84d73	-0.12124147
30	0x3db4ac98	0.08821982
31	0xbd7c522e	-0.06160181
32	0x3db1cdfe	0.08681868
33	0x3d25e752	0.040503807
34	0xbd4f0c41	-0.050548796
35	0xbdc465ac	-0.09589705
36	0xbe5b3659	-0.2140745
37	0x3d6771bc	0.05650495
38	0x3cb5f29c	0.022210412
39	0x3d53f852	0.05175049
40	0xbd95b600	-0.07310104
41	0xbcd3fe67	-0.025878144
42	0x3e2af665	0.16695555
43	0xbb261935	-0.0025344614
44	0x3cd796cc	0.026317023
45	0xbc8d4f6f	-0.017249791
46	0x3d6b665a	0.057470657
47	0x3d934a43	0.07191899
48	0xbdfca142	-0.12335445
49	0x3dfcaf1e	0.123380885
50	0xbe05a2ad	-0.13050337
51	0x3b232c40	0.0024898201
52	0xbdf5bc36	-0.11998789
53	0x3dd129ff	0.10213088
54	0xbc896149	-0.016770022
55	0xbd67cfde	-0.056594722
56	0x3c959b66	0.018262576
57	0xbd8799c3	-0.066211246
58	0x3c364d1f	0.011126786
59	0x3bff2204	0.0077860374
60	0xbc5716f1	-0.013128028
61	0xbd863840	-0.065536976
62	0xbda6e695	-0.08149449
63	0xbe01c200	-0.12671661
64	0xbd6f05fd	-0.05835532
65	0x3d39b12d	0.045334984
66	0xbd77f568	-0.060536772
67	0x3d89c0c7	0.067262225
68	0xbe0134a1	-0.12617733
69	0xbdd05963	-0.10173299
70	0xbe107118	-0.14105642
71	0xbce3a8cf	-0.027790455
72	0xbda052dd	-0.07828305
73	0xbc75935a	-0.014988745
74	0xbd4cc770	-0.049994886
75	0xbd8305a0	-0.06397557
76	0xbda08eeb	-0.078397594
77	0xbd165e3e	-0.03671097
78	0x3dd2c0f4	0.10290709
79	0x3ccd83e6	0.025087308
80	0x3e4ac69b	0.19802324
81	0x3d928c71	0.07155693
82	0xbd5a2475	-0.053257424
83	0xbe3203d2	-0.1738427
84	0x3d0474a0	0.032337785
85	0xbd1e2e6f	-0.0386185
86	0x3d591486	0.05299809
87	0x3c5dfe2f	0.013549372
88	0xbdefc8fb	-0.11708256
89	0x3d4ff94e	0.050774865
90	0x3c898e7f	0.01679158
91	0x3be5c61e	0.007012143
92	0xbd62eab4	-0.05539961
93	0xbb731b34	-0.0037095072
94	0x3d57a929	0.052651558
95	0xbcf630de	-0.030052599
96	0xbdba9f60	-0.091124296
97	0x3d934d98	0.07192534
98	0xbd1a6f04	-0.03770353
99	0xbd65fc4f	-0.056148823
100	0x3d1dd6d1	0.038534943
101	0xbd85e051	-0.065369256
102	0xbdd49786	-0.10380463
103	0x3d4b7a0f	0.04967695
104	0xbd93c239	-0.072147794
105	0xbda3e151	-0.0800196
106	0x3cb1635f	0.02165383
107	0xbdea8f61	-0.114531286
108	0xbdd6b115	-0.104829945
109	0xbe509c3a	-0.20372096
110	0x3b3841f0	0.0028115474
111	0xbd4e1c7d	-0.050320137
112	0xbe0d326e	-0.13788769
113	0xbd329ad9	-0.043604705
114	0xbc55224b	-0.013008664
115	0xbcbd1dff	-0.023085592
116	0x3d5c15ca	0.053731717
117	0xbc032169	-0.008003571
118	0xbc5d921c	-0.013523605
119	0xbdf38fce	-0.11892663
120	0x3e3be690	0.18349671
121	0xbd086264	-0.033296958
122	0x3dc98186	0.09839158
123	0x3b6b7cb3	0.003593248
124	0x3dc219c4	0.09477571
125	0xbdb1fbff	-0.086906426
126	0xbd234baa	-0.03986708
127	0xbdeb0ee0	-0.114774466
128	0x3e16b081	0.14715768
129	0x3b3ce6ec	0.0028824164
130	0xbdf9e2ed	-0.12201486
131	0x3e23de1c	0.16002697
132	0x3e13e64e	0.14443323
133	0xbbd0b508	-0.006369237
134	0x3e371489	0.17878927
135	0xbd9b5e29	-0.07586319
136	0x3db7492a	0.08949502
137	0x3d748b57	0.059703197
138	0x3cbb158b	0.02283742
139	0x3e55d3a4	0.20881516
140	0xbc9a1e6f	-0.01881334
141	0x3d24e0b7	0.040253367
142	0xbd943a94	-0.072377354
143	0xbd75894c	-0.05994539
144	0xbe077ab8	-0.13230407
145	0x3c6e6651	0.014550761
146	0xbb0d649d	-0.0021574863
147	0x3e215c31	0.15757824
148	0xbded1d4f	-0.11577856
149	0xbdd8a981	-0.10579205
150	0xbdce1e51	-0.10064376
151	0xb9de107c	-0.00042355421
152	0xbd2f4859	-0.042793605
153	0x3cf9bb4d	0.03048482
154	0xbd02e2d8	-0.031954616
155	0x3d579ea2	0.05264152
156	0x3d0e73ae	0.03477829
157	0xbdccb7b0	-0.09995973
158	0xbd5091e3	-0.05092038
159	0x3e26a0e0	0.16272306
160	0xbd655d9a	-0.05599747
161	0x3d90afdb	0.07064792
162	0x3cbc8ef1	0.023017379
163	0xbcc803a2	-0.024415795
164	0x3c98fe43	0.018675929
165	0xbdb00f72	-0.08596696
166	0x3d1f2312	0.038851805
167	0xbdafeafb	-0.08589741
168	0xbd85b3f7	-0.06528466
169	0x3e8ee492	0.2790876
170	0xbe29c987	-0.16580783
171	0x3d653cce	0.05596619
172	0xbd3bd6e6	-0.04585924
173	0xbd880e14	-0.0664331
174	0xbcb2f697	-0.021846099
175	0x3b71a337	0.0036870965
176	0xbdeca261	-0.11554409
177	0x3da815ab	0.08207258
178	0x3d767ad0	0.060175717
179	0xbcf64b78	-0.030065283
180	0x3d94a4f1	0.072580226
181	0x3bee9496	0.0072808964
182	0xbe7e7847	-0.2485057
183	0x3dbfcc68	0.09365159
184	0x3d019d5c	0.03164421
185	0xbd18ea7c	-0.037332997
186	0x3e4100f2	0.18848017
187	0x3d614e49	0.0550063
188	0xbb955822	-0.0045576254
189	0x3de37e0c	0.11108026
190	0xbdd8fa25	-0.10594586
191	0x3d384c34	0.044994548
192	0x3e093fb2	0.13403204
193	0xbdf95c96	-0.121758625
194	0x3dc01c02	0.09380342
195	0xbe1223cb	-0.14271466
196	0x3d8b9399	0.068152614
197	0xbde30193	-0.11084285
198	0xbd6d3458	-0.057911247
199	0x3df5b7dc	0.11997959
200	0xbe4beb39	-0.19913949
201	0x3d3dd774	0.04634805
202	0xbe336f12	-0.17522839
203	0x3d69de38	0.05709669
204	0x3d1c08c1	0.038094286
205	0xbe691788	-0.22762883
206	0xbc226b42	-0.009913268
207	0x3d987b26	0.07445364
208	0xbea12081	-0.3147011
209	0xbdc3229d	-0.09528086
210	0x3d44bad7	0.048029747
211	0x3c7bd42a	0.015370408
212	0x3d506ccb	0.050885003
213	0x3b5658c2	0.0032706712
214	0x3d823a41	0.06358767
215	0xbc3757c2	-0.011190357
216	0xbdaca977	-0.0843076
217	0xbc2fb622	-0.010724576
218	0x3cf684ba	0.030092586
219	0x3b1d3574	0.002398816
220	0xbd10f9a3	-0.035394322
221	0xbd7b45a0	-0.061345696
222	0xbdbd9a74	-0.09257975
223	0x3d262c3f	0.04056954
224	0x3d756cd0	0.059918225
225	0xbd48a674	-0.048986867
226	0x3b9fba1c	0.004874481
227	0x3d9ce081	0.07660008
228	0xbd623892	-0.05522973
229	0xbdaa0ca7	-0.083031945
230	0xbd030195	-0.03198393
231	0xbd67a57a	-0.056554295
232	0x3d65babb	0.056086283
233	0xbb4d48af	-0.003132384
234	0x3c11dc71	0.008902655
235	0x3e091a7a	0.13389006
236	0xbdf1c075	-0.118042864
237	0xbd0fa732	-0.03507156
238	0x3dfed485	0.12442879
239	0xbc47382d	-0.012159389
240	0xbd148d46	-0.03626754
241	0x3d9f2e9b	0.07772561
242	0xbcdae8a1	-0.026722254
243	0x3e188a41	0.1489649
244	0xbc2c77da	-0.010526622
245	0xbd7e6f0f	-0.062117632
246	0x3dd52570	0.10407531
247	0x3e4a0947	0.19730102
248	0xbda651f0	-0.08121097
249	0xbcb8e21d	-0.022568757
250	0xbd9906d1	-0.07472003
251	0x3ce58c9e	0.028021153
252	0xbc6154fe	-0.013753174
253	0x3d44d4cd	0.048054505
254	0xbdde8c78	-0.10866636
255	0x3d37b34a	0.044848718

network_body._body_endoder.seq_layers.2.bias f4 [128]
0	0xbc2b7a1a	-0.010466123
1	0xbc3804fb	-0.011231656
2	0xbb158fee	-0.0022821384
3	0x3c0509e3	0.008120033
4	0xbc7a2a77	-0.0152689135
5	0xbc2fbe1e	-0.01072648
6	0x3a465bce	0.00075667806
7	0xbb106fd8	-0.002203932
8	0xbbcb79d8	-0.0062095933
9	0xbbb19a88	-0.005420033
10	0xbb4d91ad	-0.0031367347
11	0xbbd4b397	-0.0064911353
12	0x3b3aca4f	0.0028501933
13	0xbb3b2108	-0.0028553624
14	0x3c443999	0.011976623
15	0x3c051bbc	0.008124288
16	0xbb9b2d1a	-0.004735601
17	0xbc191913	-0.009344357
18	0xbb820724	-0.0039681364
19	0x3a4eba51	0.00078860397
20	0x3b103f98	0.002201056
21	0x3a424ec3	0.0007412249
22	0x3b4a4d7f	0.0030868945
23	0xbb11e2e0	-0.0022260472
24	0xbbc3de0a	-0.005977397
25	0xba8cdf6c	-0.0010747737
26	0xb9b9d18f	-0.00035442083
27	0x3babb499	0.005240035
28	0xbc413c5d	-0.011794177
29	0xbb10e4c4	-0.0022109011
30	0x3bc3e65f	0.00597839
31	0xbc20d570	-0.009816512
32	0xbb4b3c2a	-0.0031011202
33	0x3b190280	0.0023347437
34	0xbbf154d1	-0.007364847
35	0x3b576092	0.0032863957
36	0x3b02b293	0.0019942864
37	0xbb375026	-0.0027971356
38	0xbbf7e1e0	-0.007564768
39	0xbbc5ab64	-0.0060323942
40	0x3c40ddff	0.011771678
41	0xbbd40044	-0.006469758
42	0x3ba15205	0.0049231076
43	0x3ba87ef2	0.005142086
44	0x3bb7171e	0.0055874726
45	0x3b81cbdd	0.00396107
46	0x3b84ffa4	0.004058795
47	0x3c08e4e8	0.008355357
48	0xbc21781f	-0.009855299
49	0x3b6c2097	0.0036030167
50	0x3b9173fe	0.004438876
51	0xbc586375	-0.013207306
52	0xbbc30169	-0.005951096
53	0x3a3064f5	0.0006728911
54	0xbc50f9bf	-0.012754857
55	0x3aaf5c1d	0.0013378892
56	0xbc1d4381	-0.009598614
57	0x3c02b76b	0.007978301
58	0xbc2e087e	-0.010622142
59	0x3c4ec391	0.012619869
60	0xbbf7fc28	-0.007567901
61	0xbc41570c	-0.011800539
62	0x3bb5ed07	0.0055519375
63	0x3718a2ba	9.097794e-06
64	0x3c35dfd6	0.01110073
65	0xbb18f9db	-0.0023342285
66	0xbc2f4df3	-0.010699737
67	0xbb9581e6	-0.0045626042
68	0x3bc8d968	0.0061294325
69	0xbaa4b687	-0.0012566604
70	0xbae0cfc7	-0.0017151766
71	0xbb8f2bde	-0.004369243
72	0xbc2e388f	-0.010633602
73	0xbba27028	-0.0049572177
74	0xbbafdc72	-0.0053668553
75	0x3bddf7eb	0.006773939
76	0xb7233444	-9.727726e-06
77	0xbb90adfb	-0.0044152713
78	0x3a9b20f6	0.0011835385
79	0xbbe4f238	-0.0069868825
80	0xbc4aa0d0	-0.012367442
81	0x3b3f5f76	0.0029201186
82	0xbc364515	-0.011124869
83	0xbb324b03	-0.0027205355
84	0xb819e7f2	-3.669406e-05
85	0xbab3a723	-0.0013706427
86	0x3c058249	0.008148738
87	0xbc7484d5	-0.014924248
88	0x39603545	0.00021382149
89	0xbbe6930c	-0.0070365723
90	0x3b1cfbb2	0.0023953733
91	0xbbd5beea	-0.006523003
92	0x3bda06e4	0.0066536535
93	0x3c083737	0.0083139455
94	0xbaa6d004	-0.0012726788
95	0xba866680	-0.0010253936
96	0xbbc34c61	-0.005960033
97	0xbbabcd7f	-0.005243003
98	0xba228fb5	-0.00062012236
99	0x3b2a3ec3	0.002597735
100	0x3bf4f113	0.0074750273
101	0x3b5e7ebb	0.003395005
102	0xbc06037a	-0.00817954
103	0xbc100804	-0.008790974
104	0x3bdd76b4	0.0067585353
105	0x3bde0ee9	0.00677668
106	0x3b27e09e	0.002561606
107	0xbc40ae35	-0.011760284
108	0xbb85fcbc	-0.004088966
109	0x3ab5edba	0.0013880052
110	0x3b37a8aa	0.0028024116
111	0x3b637351	0.0034706185
112	0x3c3b00ee	0.011413796
113	0xbc0b637a	-0.008507604
114	0xbb06f52c	-0.0020592911
115	0xbc1e6154	-0.0096667595
116	0xbc90c3e2	-0.01767153
117	0xbbaa846d	-0.0052037747
118	0xbb4173b1	-0.002951842
119	0xbbf18da8	-0.007371623
120	0x3b19ccf4	0.002346811
121	0xbb761188	-0.003754707
122	0xba0695cd	-0.00051340164
123	0xbbc5f908	-0.0060416497
124	0xbc508f47	-0.0127294725
125	0x39c26feb	0.0003708595
126	0xbc21eb7b	-0.009882803
127	0xbb5b8a24	-0.0033499086

action_model._continuous_distribution.log_sigma f4 [1, 2]
0	0x3b2f122c	0.0026713712
1	0x3bc8f2b6	0.006132449

action_model._continuous_distribution.mu.weight f4 [2, 128]
0	0xbaec05bb	-0.0018007079
1	0xbcc29856	-0.02375428
2	0xbcb5b8cf	-0.02218285
3	0x3c01b9d2	0.007917838
4	0x3949def8	0.00019251916
5	0x3b6c6465	0.0036070582
6	0x3b398b61	0.0028311836
7	0xbb496b52	-0.0030734134
8	0xbd23b4af	-0.039967235
9	0x3c8cbebf	0.017180799
10	0x3c8e9cd4	0.017408766
11	0x3b477e18	0.0030440148
12	0xbd156d47	-0.036481168
13	0x3d0e5800	0.034751892
14	0x3b614900	0.0034375787
15	0x3d072125	0.032990593
16	0xbcea7de9	-0.028624492
17	0xbca5b31c	-0.020227008
18	0xbb36b9e5	-0.0027881798
19	0x3d19ea15	0.037576754
20	0xbb0b47bc	-0.0021252474
21	0xbbc01cbf	-0.005862802
22	0x3d0d031f	0.034426805
23	0xbbc555ec	-0.0060222056
24	0xbbb53b07	-0.0055307182
25	0x3cb24f7f	0.021766422
26	0x3c1f7a0f	0.009733691
27	0x3cf45797	0.029826922
28	0xbc642152	-0.01392396
29	0xbcd555a6	-0.026041817
30	0x3bee868f	0.007279224
31	0xbc3d2d56	-0.011546453
32	0xbd01d2ef	-0.031695303
33	0x3c30c7be	0.01078981
34	0xbc8434c0	-0.016138434
35	0xbc239e26	-0.009986436
36	0x3cb2c688	0.021823183
37	0x3d0e6fa7	0.03477445
38	0xbad9df0f	-0.0016622263
39	0x3bfa9f46	0.0076483814
40	0xbce0a9cf	-0.027424721
41	0xbbd8c5c4	-0.0066153724
42	0x3cec678f	0.028857974
43	0x3c57e5a5	0.01317731
44	0xb99b2041	-0.00029587935
45	0x3c3909c0	0.0112938285
46	0xbd3a290a	-0.045449294
47	0xbcc5ef1b	-0.024161866
48	0xbcabe947	-0.020985259
49	0x3cafed16	0.021475356
50	0xbc075dca	-0.008262107
51	0xbc0f59c6	-0.008749431
52	0xba8aca77	-0.0010588904
53	0xbc1098ca	-0.00882549
54	0xba110e44	-0.0005533437
55	0xbcdb59cb	-0.026776215
56	0x3bf0d2ed	0.007349363
57	0x3d24bf7b	0.040221673
58	0xbbc864d3	-0.006115535
59	0x3c43816c	0.011932712
60	0xbc911fb9	-0.017715322
61	0xbbb4bb51	-0.005515494
62	0x3d305b6c	0.043055937
63	0x3c623e9b	0.013808872
64	0x3c18e89d	0.009332803
65	0xbab99b9c	-0.0014160755
66	0xbc89abf4	-0.016805626
67	0xbc0bbaa2	-0.008528383
68	0x3bab1c1a	0.005221856
69	0xbcd91169	-0.02649756
70	0xbce0d48e	-0.027445104
71	0xbbf5eddf	-0.007505163
72	0x3b209ff9	0.0024509414
73	0xb9b5afec	-0.00034654082
74	0x3b8791ac	0.0041372385
75	0x3d410c28	0.047130734
76	0xbb09b88a	-0.0021014535
77	0xbb971ec6	-0.004611823
78	0x3c7f2743	0.015573326
79	0x3befd71c	0.007319344
80	0xbaaf7e43	-0.0013389069
81	0xbc88c810	-0.01669696
82	0xbbbfca23	-0.005852954
83	0xbc258bb3	-0.010104108
84	0xbabcf861	-0.0014417284
85	0xbc3f257d	-0.011666653
86	0x3cdcf03e	0.026970025
87	0xbd1f1138	-0.03883478
88	0x3bc10925	0.0058909827
89	0xbc2e50ee	-0.010639412
90	0x3cb85ee3	0.022506183
91	0x3a8163cf	0.0009871664
92	0x3c027b53	0.007963973
93	0xbbce3aa9	-0.006293614
94	0x3c252249	0.010078975
95	0xbd0b178f	-0.033958014
96	0xbc3e91fa	-0.011631483
97	0x3b2e1446	0.0026562377
98	0x3a98fedc	0.0011672634
99	0xbc225dd4	-0.009910066
100	0xbc9358c5	-0.017986665
101	0xbd002f67	-0.031295206
102	0x3c028e6a	0.0079685245
103	0xbc19d3b7	-0.009388856
104	0x3c95ad64	0.018271156
105	0x3d03a8b7	0.03214332
106	0xbc5ee2e5	-0.013603901
107	0xbca631b2	-0.020287368
108	0xbcc9a3fe	-0.02461433
109	0xbadb7f98	-0.00167464
110	0xbcf80cbd	-0.030279512
111	0xbc98a026	-0.018631052
112	0x3c4b9a4c	0.012426924
113	0xbb797444	-0.0038063684
114	0x3c7d29cf	0.0154518625
115	0xba84bb73	-0.0010126665
116	0xbc81153f	-0.015757201
117	0xbc25a528	-0.010110177
118	0x3ca5fc3d	0.020261878
119	0xb855545d	-5.0861727e-05
120	0xbcc72488	-0.024309412
121	0xbc450509	-0.012025126
122	0xbb48fc3c	-0.0030667922
123	0x3c446f5a	0.011989439
124	0xbbef541a	-0.007303727
125	0xbc5c36d9	-0.013440811
126	0xbc06126d	-0.008183104
127	0x3caf5829	0.021404343
128	0x3beed3a2	0.007288412
129	0x3b16a105	0.0022984159
130	0xbca917ea	-0.020641286
131	0xbcba1b82	-0.022718195
132	0xbbc9da76	-0.006160076
133	0x3cebf840	0.028804898
134	0xbc02782b	-0.007963221
135	0x3c8a8264	0.016907878
136	0x3c43b11d	0.011944083
137	0x3d0f97d3	0.0350569
138	0x3bb40bfd	0.005494593
139	0x3d35aebe	0.0443561
140	0x3d039336	0.032122813
141	0x3cfd763e	0.030940171
142	0xbd08e4c9	-0.03342131
143	0xbcb37552	-0.021906529
144	0x3bc63a7c	0.0060494523
145	0xbab04f26	-0.0013451322
146	0x3cd158b2	0.025554989
147	0xbc014a8d	-0.007891309
148	0x3cc0309c	0.023460679
149	0xbcc78344	-0.024354585
150	0x3984f1e4	0.00025357225
151	0xbc176e05	-0.009242539
152	0x3d216374	0.039401487
153	0xba53741a	-0.0008066312
154	0x3ae8b44a	0.0017753926
155	0x3b5ea0a2	0.0033970256
156	0x3b536b50	0.0032260008
157	0xbbb54a76	-0.005532558
158	0xbc82ed85	-0.015982399
159	0x3bc6f0c2	0.006071181
160	0x3ce36266	0.027756881
161	0xbcad2ebd	-0.02114045
162	0xbb2dba52	-0.002650876
163	0x3cd5650e	0.026049163
164	0x3b1f7dcc	0.0024336455
165	0x3caebe82	0.021331076
166	0xbae5e05c	-0.0017538178
167	0x3caac2ce	0.020844843
168	0x3c8be6e8	0.017077878
169	0xbbda586e	-0.0066633737
170	0xbcb0a228	-0.021561697
171	0x3bd2fc7c	0.00643879
172	0xbd568977	-0.05237719
173	0x3c5ef149	0.013607332
174	0x3aae4586	0.0013295866
175	0x3cc0a7f5	0.023517588
176	0x3b8c8736	0.0042885793
177	0x3c84bd07	0.016203417
178	0xbc9c38fb	-0.01907014
179	0x3bfb1033	0.007661843
180	0xba22cbd5	-0.0006210183
181	0xbd1b5940	-0.037926912
182	0x3b26ab9b	0.0025431875
183	0xbc4a182c	-0.012334865
184	0x3bdb38aa	0.0066901045
185	0xbc80518f	-0.01566389
186	0x3c319312	0.010838287
187	0x3ca1eff7	0.019767744
188	0xba5bc6a1	-0.0008383785
189	0x3c342e4d	0.010997367
190	0x3c75504b	0.014972757
191	0xb9ec6ec2	-0.0004509595
192	0xbcb8d92e	-0.022564497
193	0xbbcd784a	-0.006270443
194	0xbb5c78a6	-0.0033641248
195	0xbc707813	-0.014677065
196	0x3d0654c9	0.0327957
197	0x3c9077c3	0.017635232
198	0xbc89296e	-0.016743388
199	0x3b4f16dd	0.003159932
200	0xbacd6c2b	-0.0015672495
201	0x3d5cfa37	0.05394956
202	0xbbc6cba3	-0.006066756
203	0xbc48ae61	-0.012248606
204	0xbc2acf97	-0.01042547
205	0xbc920c81	-0.017828228
206	0x3c8c4d16	0.017126601
207	0xbb29fbf4	-0.002593753
208	0x3d28ee38	0.041242808
209	0x3cd6058f	0.026125697
210	0x3cb16285	0.021653423
211	0x3bc9955d	0.0061518387
212	0xbc2048a1	-0.009782941
213	0xbcd22e81	-0.02565694
214	0x3bf883b8	0.0075840615
215	0xbc95babb	-0.018277517
216	0xbba03509	-0.004889135
217	0xbbccae77	-0.006246384
218	0x3a3315f1	0.00068315776
219	0xbb9c9a64	-0.004779147
220	0xbcea7608	-0.028620735
221	0x3cd46565	0.025927255
222	0x3ba04472	0.004890972
223	0x3ce8c5fb	0.028414717
224	0xbc15f622	-0.009152921
225	0xbc984f52	-0.01859251
226	0x3cabfba2	0.020994011
227	0xbd1511f2	-0.036394067
228	0x3c987a93	0.018613135
229	0xbc5d66f0	-0.013513312
230	0x3ca07b95	0.019590179
231	0x3c9d53d4	0.019205011
232	0xbc43514e	-0.01192124
233	0x3cabb634	0.020960905
234	0x3d425ea2	0.04745353
235	0x3c476667	0.012170411
236	0x3cc5687a	0.02409767
237	0xbcebe100	-0.028793812
238	0x3d1dd1a6	0.038530014
239	0xbd0d8f93	-0.03456075
240	0x3cab59ff	0.020916937
241	0xbb798596	-0.0038074008
242	0x3bbba9f2	0.005727046
243	0x3c750807	0.014955527
244	0x3bfd5690	0.0077312663
245	0xbc83a5d7	-0.01607029
246	0xbb4b7227	-0.0031043382
247	0xbbd3ad8f	-0.006459899
248	0xbd12b82e	-0.03582018
249	0xbc890748	-0.016727105
250	0x3d0373cc	0.032092854
251	0x3c86989e	0.016430195
252	0x3c51c400	0.012803078
253	0x3d487746	0.048941873
254	0xb5f6d100	-1.8389255e-06
255	0xba10cc92	-0.00055236474

action_model._continuous_distribution.mu.bias f4 [2]
0	0x3bc06d7c	0.0058724266
1	0xbbf1492a	-0.007363458

action_model._discrete_distribution.branches.0.weight f4 [1, 128]
0	0xbb7f75d7	-0.003898015
1	0xbcad53c5	-0.021158108
2	0x3c0b2a10	0.008493915
3	0x3a866d7e	0.001025602
4	0x3c96c960	0.01840657
5	0x3bd04a73	0.0063565313
6	0x3c2b7e68	0.010467149
7	0x3ceb6352	0.028733883
8	0x3b8c93f4	0.0042900983
9	0xbc673c1f	-0.014113455
10	0x3ac2c6c9	0.0014860268
11	0x3b930f87	0.004487935
12	0x3bd3f363	0.006468223
13	0x3a7e5c8d	0.0009703122
14	0x3a6fc538	0.00091465143
15	0xbc90361c	-0.017603926
16	0xbb91bfe4	-0.004447924
17	0xbba14fef	-0.004922859
18	0xbc0a86f2	-0.008455025
19	0x3c900f92	0.01758555
20	0xbc2aad7f	-0.010417341
21	0xbb2fa513	-0.0026801273
22	0xbc849648	-0.016184941
23	0xbc892c0e	-0.01674464
24	0x3d03a717	0.03214177
25	0xbb6c3787	-0.003604384
26	0x3b852ff5	0.004064555
27	0xbca86483	-0.02055574
28	0xbc26bcdc	-0.0101768635
29	0xbc9901c0	-0.018677592
30	0xbc45eb22	-0.012079986
31	0x3abbe486	0.0014335073
32	0xb9c45a17	-0.00037451155
33	0xb95f288d	-0.00021282044
34	0xbcf083b8	-0.029359683
35	0xba7913c0	-0.0009501539
36	0x3c396afe	0.011317013
37	0x3a44adb7	0.0007502692
38	0x3ad46b3a	0.0016206272
39	0xbb090f90	-0.0020913817
40	0x3bde8028	0.0067901798
41	0xbb83fa76	-0.00402766
42	0x3b2a28db	0.0025964293
43	0xba921a93	-0.0011146836
44	0xbc151ffe	-0.009101866
45	0xbbcd1bda	-0.0062594237
46	0xbbd35100	-0.006448865
47	0x3b2b941f	0.0026180816
48	0x3c7dbca5	0.015486871
49	0x3be736d7	0.007056098
50	0x3c28d6ab	0.010305087
51	0x3c02c0fd	0.007980582
52	0x3c93b707	0.01803161
53	0x3b13f694	0.0022577392
54	0xbc1c4fe5	-0.009540533
55	0xbbd38072	-0.006454521
56	0xbb964af2	-0.004586571
57	0xbaaad364	-0.001303297
58	0x3c13a1c5	0.009010737
59	0xbbe51b8b	-0.006991809
60	0x3bf9c7b0	0.0076226816
61	0x3c394e7a	0.011310214
62	0xbb9e7d13	-0.0048366874
63	0x3bea2535	0.0071455487
64	0xbb82b10d	-0.0039883913
65	0xbbe64575	-0.007027323
66	0x3bea19a7	0.0071441713
67	0xbbaecbb7	-0.0053343433
68	0xbaeb2910	-0.0017941315
69	0xbbb7f523	-0.0056139394
70	0xbbe43f1b	-0.0069655306
71	0x3b86b1e1	0.0041105603
72	0x3b6fbd53	0.0036581352
73	0xbb628f4f	-0.0034570282
74	0xbc3fa89b	-0.0116979135
75	0xbc8678e4	-0.016415067
76	0xbb3c5be7	-0.0028741302
77	0xbb2a8571	-0.0026019479
78	0x3ae8bb33	0.0017755985
79	0xbb6fd527	-0.0036595555
80	0xbc9a461a	-0.018832255
81	0xbb9c1dcf	-0.0047642956
82	0x3b2d8ef4	0.0026482912
83	0xbc790853	-0.015199739
84	0xbb88485e	-0.0041590175
85	0xbb7cb3af	-0.0038559248
86	0xbc8101e8	-0.01574798
87	0x3b67d0fb	0.0035372365
88	0xbbabfcb5	-0.005248631
89	0xbb4017ef	-0.002931114
90	0xbbb4916a	-0.005510499
91	0xba2b4902	-0.00065340113
92	0xbc2066c0	-0.0097901225
93	0x3ab2bde4	0.0013636914
94	0x3b3e1e5e	0.00290098
95	0x3bdc3cbf	0.0067211087
96	0xbaf934da	-0.0019012943
97	0x3ab73f13	0.001398059
98	0x39097bb9	0.00013111428
99	0x3a7b5c60	0.0009588655
100	0xbb09fc7c	-0.0021055033
101	0x3c84b093	0.016197478
102	0xba3f1e55	-0.00072905916
103	0xbb28052e	-0.0025637853
104	0xbbc3f03f	-0.0059795673
105	0x3bb1c467	0.0054250243
106	0x3c2911e7	0.01031921
107	0xba904297	-0.0011006173
108	0xbbcafe97	-0.0061949003
109	0xbbd49bbf	-0.006488293
110	0x3b7d77a3	0.0038676045
111	0xba666c65	-0.0008789956
112	0xbb4ae634	-0.0030959966
113	0xbbbbd9c2	-0.005732746
114	0xbb407763	-0.0029368035
115	0x3b450807	0.00300646
116	0xbc49151d	-0.0122731
117	0x3c2503da	0.010071719
118	0xbb87370b	-0.0041264347
119	0xbaf9303f	-0.0019011571
120	0xbc5ff9da	-0.013670409
121	0xbbd6834f	-0.006546415
122	0x3c350b76	0.011050096
123	0xbc290d8f	-0.010318174
124	0x3be21c0d	0.0069003166
125	0xbae49250	-0.0017438624
126	0xbbbefdab	-0.0058285794
127	0x3af4a5fd	0.0018665191

exp_avg f4 [128, 8]
0	0x3a059fcf	0.00050973607
1	0x38811b06	6.156233e-05
2	0xb9fb1c3f	-0.00047895496
3	0x382156fa	3.8466394e-05
4	0x38828d71	6.2252286e-05
5	0xb9259214	-0.00015790045
6	0x38b030c8	8.40142e-05
7	0xb9a63c97	-0.0003170713
8	0x3b2289b6	0.002480132
9	0x399d0aa1	0.00029953293
10	0xbb18b90d	-0.0023303658
11	0x3b3f92f9	0.002923189
12	0x398f5df4	0.00027345086
13	0xbb3d2a76	-0.002886442
14	0x3a0a27bc	0.0005270203
15	0xba1379c1	-0.0005625748
16	0x3912dd00	0.00014005974
17	0x378de59c	1.691543e-05
18	0xb909fea4	-0.00013160199
19	0xba2827c2	-0.0006414616
20	0x3750b6a8	1.2440294e-05
21	0x3938ba7c	0.00017617078
22	0x38b5a908	8.662237e-05
23	0xba28a578	-0.0006433348
24	0x3941d066	0.00018483549
25	0x37bb428e	2.2323129e-05
26	0xb9361c40	-0.00017367397
27	0x390688b0	0.00012830156
28	0x37b713ea	2.1824573e-05
29	0xb9407032	-0.00018352343
30	0x383ff58c	4.5766632e-05
31	0xb8ef7c0c	-0.000114195136
32	0xb8ca1448	-9.635888e-05
33	0xb7433ed8	-1.1637538e-05
34	0x38bde060	9.0540154e-05
35	0xba805f0e	-0.0009793954
36	0xb6fbec20	-7.5078715e-06
37	0x3a600eb0	0.00085471105
38	0x37d1e8c0	2.5023124e-05
39	0xb9cd20d4	-0.00039125106
40	0x3a018a0b	0.00049415295
41	0x387a513a	5.9680293e-05
42	0xb9f36f00	-0.00046431273
43	0x3a09b10c	0.00052525173
44	0x386a1c36	5.581622e-05
45	0xba048177	-0.0005054692
46	0x39a5c5f7	0.00031618748
47	0xb9b924f7	-0.0003531349
48	0x391929a4	0.0001460673
49	0x3793fbb9	1.7640983e-05
50	0xb90fe9ec	-0.00013724685
51	0x37890526	1.633407e-05
52	0x3795a52a	1.7839095e-05
53	0xb83bfa57	-4.481742e-05
54	0x37ed056b	2.8255125e-05
55	0xb8bf6bc6	-9.127664e-05
56	0x3ac37bb3	0.0014914185
57	0x393cdf64	0.00018012297
58	0xbab7adba	-0.0014013567
59	0x3aad6422	0.0013228694
60	0x3944f772	0.00018784197
61	0xbaa8abe6	-0.0012868613
62	0x397c7ed6	0.00024079843
63	0xb97ea5f0	-0.00024285144
64	0xb8945cf0	-7.074501e-05
65	0xb70f58a0	-8.544099e-06
66	0x388b6760	6.6472916e-05
67	0xbb526d58	-0.003210863
68	0x37237070	9.741736e-06
69	0x3b1c4c2f	0.002384912
70	0xb756e2c0	-1.2808188e-05
71	0xbabce792	-0.0014412275
72	0x3a85c05c	0.0010204422
73	0x39013a79	0.00012324181
74	0xba7b596a	-0.0009588214
75	0x3a8588a9	0.0010187823
76	0x38fa96af	0.00011948996
77	0xba8e23a8	-0.0010844367
78	0xb79a23c0	-1.8374878e-05
79	0xb89d8492	-7.5110365e-05
80	0xb9cacc1a	-0.0003868051
81	0xb843f078	-4.6715577e-05
82	0x39be8d10	0.00036344724
83	0xbaf339a4	-0.0018556607
84	0xb7e26860	-2.6989903e-05
85	0x3ab4bb3a	0.0013788708
86	0xb85db808	-5.28619e-05
87	0xb9f0a6cc	-0.0004590064
88	0xb9590fba	-0.00020700591
89	0xb7d1b8a6	-2.5000725e-05
90	0x394bf430	0.00019450556
91	0xb885e7da	-6.38512e-05
92	0xb826f6da	-3.9807383e-05
93	0x38692e28	5.5594515e-05
94	0xb7cf5590	-2.4716166e-05
95	0x39153ff4	0.00014233572
96	0x3aaf7aa6	0.0013387993
97	0x39298b86	0.00016169072
98	0xbaa4e1ec	-0.0012579537
99	0x3ab42f41	0.0013746993
100	0x39131fde	0.00014030884
101	0xbab2f1f1	-0.0013652426
102	0x39b01c4e	0.00033590425
103	0xb9edb89f	-0.00045341716
104	0xb9773d56	-0.00023578605
105	0xb7eee0f4	-2.8476563e-05
106	0x39684f4e	0.00022154787
107	0xb5995580	-1.1424272e-06
108	0xb82212e4	-3.8641403e-05
109	0x39433671	0.0001861693
110	0xb9859717	-0.00025480308
111	0x39fde82c	0.00048428902
112	0x38d5d8ff	0.0001019705
113	0x374e9dc6	1.2315291e-05
114	0xb8c8ef32	-9.581297e-05
115	0xb91f694e	-0.0001520265
116	0x37bb2f20	2.2314081e-05
117	0x38a76789	7.9824655e-05
118	0x3924cfb4	0.00015717634
119	0xb96b4a18	-0.00022438949
120	0x382a6704	4.06271e-05
121	0x36a4a3da	4.9066557e-06
122	0xb8201cc4	-3.8173763e-05
123	0x386812b6	5.5330536e-05
124	0x36665436	3.4321688e-06
125	0xb888570b	-6.5011984e-05
126	0x383bace7	4.4745302e-05
127	0xb85d011a	-5.2691532e-05
128	0xb9b39603	-0.00034253308
129	0xb82d8355	-4.1368727e-05
130	0x39a8bdcc	0.00032184867
131	0xb63a4238	-2.7754704e-06
132	0xb827ee48	-4.003782e-05
133	0x38b6b08b	8.71132e-05
134	0xb8512b44	-4.9869777e-05
135	0x39693869	0.00022241626
136	0x3afa565e	0.0019099226
137	0x3971df33	0.00023066699
138	0xbaeb386c	-0.0017945892
139	0x37d28ec6	2.5100435e-05
140	0x39724890	0.0002310595
141	0xb9c22fb1	-0.00037038096
142	0x3960c277	0.00021434748
143	0xba74928d	-0.0009329699
144	0xb9f54cac	-0.00046787167
145	0xb86d011b	-5.6506233e-05
146	0x39e67c97	0.00043961845
147	0xba48bbff	-0.0007657408
148	0xb6d3b55b	-6.3094026e-06
149	0x39ea4bdd	0.0004468848
150	0xb9c686b7	-0.00037865873
151	0x3922a48b	0.00015510821
152	0xb8fafe76	-0.00011968326
153	0xb772819c	-1.4454501e-05
154	0x38ebd65f	0.00011245603
155	0xb9084f53	-0.00012999521
156	0xb709527c	-8.185041e-06
157	0x38eef7c4	0.00011394874
158	0xb841f4f1	-4.6242905e-05
159	0x38359b55	4.3298427e-05
160	0x3a181f2f	0.00058029866
161	0x3892fa44	7.008438e-05
162	0xba0eef88	-0.0005452563
163	0xb9e628b0	-0.00043899333
164	0x389806ca	7.2491894e-05
165	0x391279ac	0.00013968971
166	0xb83d3de6	-4.511876e-05
167	0xba0bc9e7	-0.0005332515
168	0xb99732cd	-0.00028838814
169	0xb81215e0	-3.4829485e-05
170	0x398e1170	0.00027097343
171	0xb844d894	-4.6931746e-05
172	0xb80f842c	-3.421695e-05
173	0x38f1800c	0.00011515626
174	0xb7f920a1	-2.9698307e-05
175	0x392489d4	0.00015691604
176	0x3871e0a8	5.7668105e-05
177	0x36e9b2b6	6.964746e-06
178	0xb863457a	-5.4185723e-05
179	0x386301bc	5.4122633e-05
180	0x362fe548	2.6210491e-06
181	0xb876b9b2	-5.8823913e-05
182	0x3718a217	9.0976455e-06
183	0xb61a85e0	-2.3025714e-06
184	0x3a7957e1	0.0009511691
185	0x38f0e952	0.00011487551
186	0xba6a494e	-0.0008937315
187	0x3ac17428	0.0014759349
188	0x38c21f35	9.2564536e-05
189	0xbaa102bd	-0.0012284141
190	0x394063e4	0.00018347759
191	0x391ba1c2	0.00014842211
192	0x3b1d41d8	0.0023995545
193	0x3997f078	0.00028980128
194	0xbb13c2cf	-0.0022546535
195	0x3b574a48	0.0032850672
196	0x398df69a	0.00027077348
197	0xbb4375f8	-0.0029824954
198	0x390504d0	0.00012685661
199	0x39d69de0	0.00040934887
200	0x3a94c736	0.0011350873
201	0x390fbf3c	0.00013708783
202	0xba8bcb41	-0.0010665433
203	0xb890e0de	-6.90834e-05
204	0x390d63f0	0.00013484037
205	0xb9951cf1	-0.00028441058
206	0xb766fd80	-1.3768091e-05
207	0xba260d1f	-0.00063343527
208	0x38f395e6	0.00011615064
209	0x376b592e	1.4027855e-05
210	0xb8e4e055	-0.00010913672
211	0x3794ef51	1.7754415e-05
212	0x376b2d05	1.4017573e-05
213	0xb8256979	-3.9437295e-05
214	0xb499d6b0	-2.8654676e-07
215	0xb89d7a1c	-7.509088e-05
216	0x399f120b	0.00030340286
217	0x3819b0fa	3.6642865e-05
218	0xb99576fe	-0.0002850815
219	0x38cd1a67	9.7800796e-05
220	0x3827bcce	3.999174e-05
221	0xb981ae49	-0.0002473465
222	0xb7f4d292	-2.9185121e-05
223	0xb8e9582e	-0.000111267305
224	0x389020f4	6.872593e-05
225	0x370b413c	8.300234e-06
226	0xb8876ce2	-6.457583e-05
227	0x382733ea	3.986425e-05
228	0x36f42dc4	7.2770945e-06
229	0xb81ef5ec	-3.7899168e-05
230	0x37ba1f2e	2.2187447e-05
231	0xb807e0d7	-3.2395907e-05
232	0xba0f584c	-0.00054681743
233	0xb88a7f5d	-6.604076e-05
234	0x3a06b058	0.00051379716
235	0xba89b7b4	-0.0010507018
236	0xb856599c	-5.110503e-05
237	0x3a449ae8	0.00074998895
238	0xb967eea7	-0.00022118782
239	0xb81d1900	-3.7455e-05
240	0x3b48bc9b	0.0030629996
241	0x39c1f2d4	0.0003699275
242	0xbb3c9d6d	-0.0028780357
243	0x3b4f9363	0.0031673543
244	0x39ad2bfe	0.00033029908
245	0xbb5982f2	-0.0033189622
246	0x3a8497fe	0.0010116098
247	0xbaca5396	-0.0015436288
248	0xba642946	-0.000870366
249	0xb8dc7215	-0.00010511667
250	0x3a566223	0.00081780757
251	0x39c4f037	0.00037563007
252	0xb8bc6510	-8.983363e-05
253	0xb9a907dd	-0.0003224005
254	0xb9314d70	-0.00016908883
255	0x3a2b59c9	0.00065365114

exp_avg_sq f4 [128, 8]
0	0x360d0e03	2.1018793e-06
1	0x3303ad0e	3.0658207e-08
2	0x35f91130	1.8556948e-06
3	0x35e6c208	1.7192806e-06
4	0x32e1a153	2.626681e-08
5	0x35e06f60	1.6721715e-06
6	0x344eb052	1.924939e-07
7	0x34df56fa	4.160027e-07
8	0x384bea9f	4.861748e-05
9	0x353e5baa	7.0913904e-07
10	0x38340847	4.2923053e-05
11	0x380c4723	3.3444852e-05
12	0x35285220	6.2704385e-07
13	0x385eb4ff	5.309749e-05
14	0x368c0372	4.172726e-06
15	0x36ec9b87	7.051454e-06
16	0x3712a513	8.7407125e-06
17	0x3408e4f8	1.2749285e-07
18	0x370177ff	7.716938e-06
19	0x370433b0	7.8798475e-06
20	0x33ee0de9	1.1085269e-07
21	0x36c357c4	5.82167e-06
22	0x35fc2fe5	1.8789402e-06
23	0x35d32d54	1.5733917e-06
24	0x34947d07	2.7658118e-07
25	0x318a9d86	4.034237e-09
26	0x348318b0	2.4418614e-07
27	0x3419d354	1.4326116e-07
28	0x317ae4ec	3.6509915e-09
29	0x34943ff1	2.7613672e-07
30	0x32a58d8c	1.9272896e-08
31	0x33040bfe	3.0744552e-08
32	0x37be7823	2.2705708e-05
33	0x34b1ce1d	3.3118786e-07
34	0x37a8290c	2.0046275e-05
35	0x37748e98	1.45767335e-05
36	0x34a013dd	2.9816775e-07
37	0x377b266e	1.4969713e-05
38	0x3649ef9d	3.0090807e-06
39	0x361ecb76	2.3662265e-06
40	0x37dd4fa9	2.6382348e-05
41	0x34ce98b8	3.8481608e-07
42	0x37c363ca	2.329228e-05
43	0x379911b2	1.8247261e-05
44	0x34b38a4f	3.344198e-07
45	0x3757a637	1.28536985e-05
46	0x367d01c5	3.7700968e-06
47	0x3623a090	2.4382352e-06
48	0x331715b9	3.5177184e-08
49	0x300d0a16	5.1309834e-10
50	0x33056388	3.1057e-08
51	0x327a7df9	1.4580558e-08
52	0x3000d865	4.6873644e-10
53	0x32286a8a	9.803111e-09
54	0x3173e839	3.5493157e-09
55	0x31b72bc8	5.3309783e-09
56	0x37307e2b	1.0519793e-05
57	0x3424c20d	1.5344285e-07
58	0x371bd222	9.287645e-06
59	0x36d6c477	6.4005685e-06
60	0x34137152	1.3731668e-07
61	0x372a1eaf	1.0139934e-05
62	0x35a7945b	1.2485647e-06
63	0x35ee680b	1.7762662e-06
64	0x388d1766	6.727762e-05
65	0x3583b5d2	9.813177e-07
66	0x387921ae	5.9397593e-05
67	0x38269995	3.972052e-05
68	0x357167a7	8.993033e-07
69	0x3880b2e7	6.136839e-05
70	0x36b57123	5.407391e-06
71	0x3728ab2e	1.0053436e-05
72	0x3770194d	1.43110055e-05
73	0x34602289	2.087419e-07
74	0x3753fa16	1.2634808e-05
75	0x372e6a8d	1.03960165e-05
76	0x344501a4	1.8347652e-07
77	0x37851462	1.5864327e-05
78	0x3560b7c7	8.3713934e-07
79	0x35e2bcae	1.6893225e-06
80	0x3826ea12	3.979548e-05
81	0x351bd0fa	5.80461e-07
82	0x38135d46	3.51344e-05
83	0x3805f576	3.1938274e-05
84	0x350775c0	5.046277e-07
85	0x37d69f21	2.5584888e-05
86	0x36c43b5d	5.848166e-06
87	0x36ace062	5.152121e-06
88	0x37489add	1.1956986e-05
89	0x343b4448	1.7440573e-07
90	0x37311bda	1.0556507e-05
91	0x37093104	8.177249e-06
92	0x3421d8e8	1.5073203e-07
93	0x37076d7b	8.072117e-06
94	0x359abcb5	1.1528815e-06
95	0x35b48947	1.3450998e-06
96	0x37cc3569	2.4343566e-05
97	0x34bea187	3.5507784e-07
98	0x37b44a66	2.1492317e-05
99	0x37bdd0a2	2.2627708e-05
100	0x34ac5d94	3.2105584e-07
101	0x377edebc	1.5191439e-05
102	0x3665e494	3.425671e-06
103	0x35e788ab	1.7250617e-06
104	0x3775fe8b	1.4662403e-05
105	0x3465a36b	2.1386738e-07
106	0x37592e94	1.2945053e-05
107	0x3634514b	2.686941e-06
108	0x345dfa2c	2.0673241e-07
109	0x36bb724c	5.58634e-06
110	0x356c619a	8.805888e-07
111	0x35ef6327	1.7835745e-06
112	0x37259ed5	9.871747e-06
113	0x341a9bc9	1.4399042e-07
114	0x371238c2	8.715493e-06
115	0x37292252	1.0081176e-05
116	0x33dff2f8	1.04284425e-07
117	0x36dd5d26	6.597157e-06
118	0x35552b9f	7.941216e-07
119	0x355e3473	8.277777e-07
120	0x3406519b	1.250941e-07
121	0x30fac6b9	1.8246374e-09
122	0x33ed2c61	1.1044245e-07
123	0x33b2a944	8.31956e-08
124	0x30e124ce	1.6381365e-09
125	0x334f628e	4.8285578e-08
126	0x32ad89e8	2.0202563e-08
127	0x3285bbac	1.5568581e-08
128	0x365ed55e	3.3204774e-06
129	0x33500474	4.8432824e-08
130	0x3644bbdd	2.9315627e-06
131	0x35ed1677	1.7664414e-06
132	0x3341c6a6	4.5116984e-08
133	0x35ec4651	1.7603835e-06
134	0x3492977f	2.7304847e-07
135	0x34e9e16d	4.356365e-07
136	0x36f44a22	7.280397e-06
137	0x33e40bfd	1.0619258e-07
138	0x36d7ad47	6.4276715e-06
139	0x357f7b25	9.51741e-07
140	0x33e16dbd	1.049734e-07
141	0x35a55c75	1.2320367e-06
142	0x34b77d3f	3.4177535e-07
143	0x356e965c	8.888071e-07
144	0x375ae0dd	1.3046168e-05
145	0x344c534b	1.9029282e-07
146	0x37413dfe	1.151813e-05
147	0x371bdf9b	9.290782e-06
148	0x343364e9	1.6707385e-07
149	0x3688c7f0	4.0763916e-06
150	0x3661303d	3.355569e-06
151	0x35b7a040	1.3681201e-06
152	0x355ac1d7	8.14934e-07
153	0x324c3659	1.188672e-08
154	0x35412290	7.19484e-07
155	0x35671599	8.6085635e-07
156	0x321fe15f	9.3062615e-09
157	0x35207d47	5.978695e-07
158	0x345f4aae	2.0795662e-07
159	0x34396081	1.7264576e-07
160	0x367d70f3	3.7765683e-06
161	0x336c971f	5.5085476e-08
162	0x365fc1bb	3.3342355e-06
163	0x360ec06d	2.1271655e-06
164	0x334d58d6	4.7811078e-08
165	0x35ee61c8	1.776084e-06
166	0x3534818d	6.7243747e-07
167	0x3549e156	7.520624e-07
168	0x355015da	7.7517836e-07
169	0x32424028	1.1306874e-08
170	0x3537b6aa	6.8438624e-07
171	0x3546e21c	7.408978e-07
172	0x3225c131	9.648191e-09
173	0x34fc1d9d	4.6960204e-07
174	0x33ae4fde	8.117034e-08
175	0x33a6513d	7.7447545e-08
176	0x35c53385	1.4692638e-06
177	0x32b816db	2.1430813e-08
178	0x35ae1a96	1.2971748e-06
179	0x355b0b9f	8.160077e-07
180	0x32a3d6fb	1.907346e-08
181	0x35bce6ee	1.4074301e-06
182	0x33c87393	9.3342486e-08
183	0x34458506	1.8395448e-07
184	0x374d2f6a	1.2229992e-05
185	0x343f8ae0	1.7838784e-07
186	0x3735270e	1.0797534e-05
187	0x370304f2	7.80936e-06
188	0x34324628	1.6603065e-07
189	0x372dd8b2	1.0362057e-05
190	0x35b0a108	1.3159888e-06
191	0x3606064c	1.9971221e-06
192	0x388a009d	6.580467e-05
193	0x3580d3a1	9.598335e-07
194	0x3873ad67	5.809721e-05
195	0x382987c6	4.041919e-05
196	0x35697a3b	8.697713e-07
197	0x38ad2448	8.256041e-05
198	0x36837ffc	3.9190036e-06
199	0x3743a276	1.1660732e-05
200	0x37ac4503	2.0536134e-05
201	0x34a0d0be	2.9954202e-07
202	0x379817a2	1.8130817e-05
203	0x37360caf	1.08509985e-05
204	0x3497179a	2.8143114e-07
205	0x36d76372	6.4190763e-06
206	0x367e9cbb	3.7940179e-06
207	0x361334ad	2.1935368e-06
208	0x3694bd16	4.432756e-06
209	0x338ad95b	6.4656625e-08
210	0x36835135	3.913558e-06
211	0x36b55dba	5.4051316e-06
212	0x33623cc7	5.2675002e-08
213	0x35f1212b	1.7965552e-06
214	0x35cdcdff	1.5333643e-06
215	0x3502026c	4.84323e-07
216	0x35cef024	1.5418086e-06
217	0x32c12dcc	2.2488983e-08
218	0x35b6b33f	1.3612224e-06
219	0x35870a76	1.0061328e-06
220	0x32aadcbb	1.9890981e-08
221	0x35ae1216	1.2969274e-06
222	0x339042be	6.717663e-08
223	0x3422ea40	1.5172645e-07
224	0x33319e76	4.1355143e-08
225	0x3025cf40	6.032117e-10
226	0x331cd0b9	3.6511413e-08
227	0x3319f33e	3.5844316e-08
228	0x3008a9c4	4.9717763e-10
229	0x32941a8f	1.7241545e-08
230	0x323af135	1.0881469e-08
231	0x31ba36cb	5.4195417e-09
232	0x36c7710f	5.943824e-06
233	0x33ba2e48	8.6697185e-08
234	0x36b014f4	5.247648e-06
235	0x36d0f559	6.2274453e-06
236	0x3399d448	7.1632314e-08
237	0x364c3e04	3.0434467e-06
238	0x3597938d	1.129332e-06
239	0x351e7a0b	5.903718e-07
240	0x38c65c25	9.458539e-05
241	0x35b92bd0	1.3796325e-06
242	0x38af2072	8.350694e-05
243	0x384f46bf	4.9418533e-05
244	0x35a97ddc	1.2628111e-06
245	0x386a2580	5.5824872e-05
246	0x372166d3	9.620288e-06
247	0x37291c54	1.0079781e-05
248	0x37aaf75d	2.0380767e-05
249	0x349f9950	2.9727607e-07
250	0x3796f10a	1.7993636e-05
251	0x378951ef	1.6369826e-05
252	0x3486f5f0	2.5138388e-07
253	0x37115af8	8.663854e-06
254	0x364323da	2.9078133e-06
255	0x35da149b	1.6248263e-06

exp_avg f4 [128]
0	0x39011b07	0.00012312467
1	0x3a1d0aa1	0.00059906585
2	0x380de598	3.3830845e-05
3	0x383b428e	4.4646258e-05
4	0xb7c33ed0	-2.327506e-05
5	0x38fa513c	0.0001193606
6	0x3813fbb8	3.5281962e-05
7	0x39bcdf64	0.00036024593
8	0xb78f58d0	-1.7088285e-05
9	0x39813a78	0.0002464836
10	0xb8c3f078	-9.3431154e-05
11	0xb851b8a2	-5.0001436e-05
12	0x39a98b86	0.00032338145
13	0xb86ee0f6	-5.6953133e-05
14	0x37ce9dc8	2.4630586e-05
15	0x3724a3da	9.813311e-06
16	0xb8ad8355	-8.273745e-05
17	0x39f1df30	0.0004613339
18	0xb8ed011a	-0.00011301246
19	0xb7f2819c	-2.8909002e-05
20	0x3912fa44	0.00014016876
21	0xb89215e0	-6.965897e-05
22	0x3769b2ba	1.3929495e-05
23	0x3970e953	0.00022975104
24	0x3a17f079	0.0005796026
25	0x398fbf3c	0.00027417566
26	0x37eb592c	2.8055707e-05
27	0x3899b0fa	7.328573e-05
28	0x378b413c	1.6600468e-05
29	0xb90a7f5d	-0.00013208152
30	0x3a41f2d3	0.00073985494
31	0xb95c7215	-0.00021023334
32	0xb6520260	-3.129382e-06
33	0x366e429d	3.5503538e-06
34	0xb8b70de5	-8.728708e-05
35	0x382de836	4.1462677e-05
36	0x37e2e3ff	2.7047468e-05
37	0xb8d7fead	-0.00010299436
38	0x39b1dc2e	0.00033924117
39	0x3947c11b	0.00019050056
40	0x391b59cf	0.00014815408
41	0xb722908c	-9.689607e-06
42	0x3626df76	2.4866e-06
43	0xb92f9182	-0.00016743506
44	0xb9654258	-0.00021863857
45	0xb8123ebd	-3.4867542e-05
46	0x38eb6588	0.00011224585
47	0x3a1f5a7e	0.0006078853
48	0x39249f18	0.00015699526
49	0xb67a2fbc	-3.7280688e-06
50	0xb6bfa718	-5.711696e-06
51	0x39eecbf4	0.00045546854
52	0xb80a810e	-3.3021955e-05
53	0x39be7489	0.0003632645
54	0x393b0cce	0.0001783848
55	0x399288ca	0.00027949206
56	0x388813d6	6.48868e-05
57	0xb93a67c7	-0.00017777002
58	0xb94cb000	-0.00019520521
59	0x3848897a	4.781175e-05
60	0x39f2f9a4	0.00046343834
61	0x3a26ba8a	0.0006360194
62	0x39474502	0.00019003826
63	0xb76f5487	-1.4265191e-05
64	0x3936c61e	0.00017430677
65	0xb730c07a	-1.0535232e-05
66	0xb92b8c3e	-0.00016360075
67	0x380fb860	3.426557e-05
68	0xb906b21c	-0.00012845587
69	0x3a3bb398	0.00071602454
70	0x38f18c68	0.00011517928
71	0x3a5bac77	0.0008379886
72	0x395cfe16	0.0002107549
73	0xb97a61a2	-0.00023878229
74	0x36aaf9b6	5.095465e-06
75	0x38baa842	8.9005116e-05
76	0xb601ed80	-1.936074e-06
77	0x35d1e2ab	1.5637683e-06
78	0x3900ca83	0.00012282473
79	0x3781b079	1.5460175e-05
80	0xb81c2610	-3.7228747e-05
81	0xba2380ae	-0.00062371313
82	0x3828b1fe	4.022009e-05
83	0x3908e1e2	0.00013054119
84	0xb86c5371	-5.6344496e-05
85	0x399c8534	0.00029853883
86	0xb7feedb4	-3.0389849e-05
87	0xb928813e	-0.00016069875
88	0xb8ba7572	-8.891047e-05
89	0x399ea409	0.00030258324
90	0x380a72f7	3.3008833e-05
91	0x3968887e	0.00022176091
92	0xb8179f30	-3.614946e-05
93	0xb8bcf5ee	-9.0103465e-05
94	0xb9477464	-0.00019021478
95	0x38caa6cc	9.663179e-05
96	0xb94083b6	-0.00018359613
97	0x391ae04a	0.00014770139
98	0xb97dc846	-0.00024202568
99	0xb8d4baae	-0.000101437196
100	0x36d4058e	6.318739e-06
101	0xb66599e8	-3.4213244e-06
102	0x3662e0bc	3.3807437e-06
103	0xb74ca6a0	-1.2198143e-05
104	0xb92fe577	-0.00016774783
105	0x36876e2d	4.0361397e-06
106	0x350415f0	4.9205755e-07
107	0x3a09ffb7	0.000526424
108	0x37fc78f0	3.0097057e-05
109	0x39b24194	0.00033999665
110	0xb98f2c20	-0.0002730796
111	0x395083c5	0.00019885514
112	0x3883aa33	6.278269e-05
113	0xb92e798e	-0.00016639216
114	0xb8cb782a	-9.7021766e-05
115	0xb955332c	-0.00020332326
116	0xb9381bbc	-0.0001755794
117	0x370872c0	8.132949e-06
118	0x39ba589b	0.000355427
119	0xb260ec00	-1.3092176e-08
120	0xb5bd1a08	-1.4089173e-06
121	0x378dd636	1.690826e-05
122	0xb95fdfca	-0.00021350305
123	0x38049bdc	3.1616408e-05
124	0x37f1f801	2.8844925e-05
125	0x380fd364	3.429073e-05
126	0x377fae95	1.52398325e-05
127	0xba144e81	-0.000565745
