ML Agents tutorial/Assets/results/RollerBall/RollerBall/RollerBall-2021268.pt (torch, 459081 bytes, 39 tensors)

network_body._body_endoder.seq_layers.0.weight f4 [128, 12]
0	0x3e0689fe	0.13138577
1	0xbee757f9	-0.45184305
2	0x3e849752	0.25896698
3	0x3d485cfc	0.0489168
4	0xbe12a186	-0.14319429
5	0x3f1a8b6c	0.6036899
6	0xbf45a4f8	-0.7720485
7	0xbe6ba6d6	-0.23012862
8	0x3eef4c3d	0.46737853
9	0xbe0244c1	-0.1272154
10	0xbf2d5ff1	-0.6772452
11	0xbeabf674	-0.33586466
12	0xbe03c013	-0.12866239
13	0x3e7475e8	0.23873103
14	0xbe8af390	-0.27138948
15	0x3e379174	0.1792658
16	0xbe2fd688	-0.17171681
17	0x3e06b35b	0.13154356
18	0xbf1fc421	-0.62408644
19	0x3d67e2d4	0.056612805
20	0x3da077b0	0.078353286
21	0xbf1c8c58	-0.6115165
22	0x3dd1e836	0.10249369
23	0xbefb4c6c	-0.49081743
24	0x3ddf62d6	0.10907523
25	0x3e21f16e	0.15814754
26	0x3c924d4c	0.017859124
27	0x3dd50177	0.1040067
28	0x3d2f3e13	0.042783808
29	0xbd9e3814	-0.0772554
30	0x3dcb34b3	0.09922161
31	0xbf0d34d9	-0.55158764
32	0x3f1b7d42	0.60738003
33	0x3e0887c7	0.13333045
34	0xbe8659d0	-0.26240396
35	0x3d0115c2	0.03151489
36	0x3e33c91e	0.17557189
37	0x3df0fa83	0.11766531
38	0x3ebadd19	0.3649681
39	0xbe78d78c	-0.24300975
40	0x3e431b15	0.190533
41	0x3db71e3f	0.08941316
42	0x3c7fa3e5	0.01560304
43	0xbed89bd3	-0.42306384
44	0x3ea9d798	0.33172297
45	0xbf59037b	-0.84770936
46	0xbee810da	-0.45325357
47	0xbef94c4b	-0.4869102
48	0x3e10c2c7	0.14136802
49	0xbe6a6499	-0.22889937
50	0xbd54a71e	-0.051917188
51	0x3d3e1581	0.046407226
52	0x3e3f9561	0.18709327
53	0x3e5c9bf5	0.21543868
54	0x3f276ef2	0.65403664
55	0xbed2db46	-0.41182917
56	0xbf1f0f91	-0.6213313
57	0x3d0561b9	0.0325639
58	0xbe9ff355	-0.31240335
59	0x3ec4a9f2	0.38410908
60	0xbe3c2f78	-0.18377483
61	0x3ce83fd8	0.028350756
62	0xbec0c231	-0.37648156
63	0xbda8aefd	-0.08236501
64	0xbe9bb939	-0.3041475
65	0xbce1f410	-0.027582198
66	0xbd98bdee	-0.07458101
67	0xbe971355	-0.29506937
68	0xbd90c4ab	-0.070687614
69	0xbf2cde34	-0.67526555
70	0x3b79b918	0.003810471
71	0xbc2aa56a	-0.010415414
72	0xbe86e7e1	-0.26348785
73	0xbe62b882	-0.22140697
74	0x3e560488	0.20900166
75	0x3d44de1c	0.048063383
76	0xbc4c4633	-0.012467909
77	0xbdaf7a98	-0.08568305
78	0xbf08dd43	-0.5346262
79	0xbf065130	-0.5246763
80	0xbe60a06b	-0.21936195
81	0x3efebb50	0.49752283
82	0xbdd2107d	-0.10257051
83	0xbf0d94fe	-0.5530547
84	0xbd223e31	-0.03961009
85	0xbef53237	-0.47889873
86	0xbde792fb	-0.11307331
87	0xbe14bf67	-0.14526139
88	0xbec3d9a8	-0.38251996
89	0x3d01fdfb	0.031736355
90	0xbe3c2570	-0.18373656
91	0xbe9f8169	-0.3115342
92	0x3df0717a	0.11740394
93	0x3db7b7a0	0.089705706
94	0x3e0fa904	0.14029318
95	0x3d346a23	0.044046532
96	0xbe2b4185	-0.16724212
97	0xbe178870	-0.1479814
98	0xbd620fcc	-0.055190846
99	0x3e83874a	0.25689155
100	0x3e6aab17	0.22916828
101	0x3dbd277f	0.09236049
102	0xbe9158d6	-0.2838809
103	0x3e5c7351	0.21528365
104	0xbe189681	-0.14901163
105	0xbe27e3ca	-0.16395488
106	0xbf3cbc29	-0.7372461
107	0x3ec27613	0.37980708
108	0xbc9d514f	-0.01920381
109	0x3ebe752d	0.37198773
110	0x3e19211e	0.1495404
111	0xbec266b7	-0.3796899
112	0x3db7f840	0.08982897
113	0x3e5d6f7c	0.21624559
114	0xbf08878b	-0.5333182
115	0xbd2cfeba	-0.042235114
116	0x3e955a71	0.29170564
117	0xbf233041	-0.63745505
118	0xbeecd769	-0.46258095
119	0xba8f1be2	-0.0010918344
120	0xbd63bb64	-0.05559863
121	0x3c8c6c5a	0.01714151
122	0x3dfda4fc	0.12384984
123	0x3e82a75a	0.25518304
124	0x3e5d729a	0.21625748
125	0x3f09aac9	0.5377622
126	0x3de8d3c4	0.11368516
127	0xbdb4c469	-0.08826525
128	0xbc148515	-0.009064932
129	0x3f067baf	0.52532476
130	0xbebc50ac	-0.36780298
131	0x3f05fe99	0.5234161
132	0x3e09f926	0.13473949
133	0xbe783413	-0.24238615
134	0x3e992659	0.2991207
135	0xbe90eb71	-0.28304628
136	0x3eb1d2d8	0.34731174
137	0x3c7506ca	0.014955232
138	0xbec4d864	-0.38446343
139	0x3f1a41f9	0.60256916
140	0x3eb943d6	0.36184567
141	0x3c721db0	0.014777586
142	0xbef88853	-0.48541507
143	0xbd2f40ae	-0.042786293
144	0x3d547054	0.051864937
145	0xbd0f2e13	-0.03495605
146	0x3d28d83c	0.041221842
147	0xbcac3bad	-0.02102455
148	0x3cff6c26	0.031179499
149	0x3d577224	0.052599087
150	0x3ebe0ab3	0.37117538
151	0xbeef9b6f	-0.46798274
152	0x3ddb6745	0.107130565
153	0x3f10266a	0.56308615
154	0x3da4096c	0.080096096
155	0x3db0aa06	0.086261794
156	0xbe030e77	-0.12798487
157	0x3e0ef615	0.1396106
158	0xbd88d875	-0.06681911
159	0x3e9e3ebd	0.3090724
160	0x3f0d1af9	0.5511928
161	0xbe8519f3	-0.2599636
162	0xbed30e8d	-0.4122204
163	0x3d993066	0.074799344
164	0x3d35446d	0.04425471
165	0x3caf5e92	0.0214074
166	0x3e24fa9c	0.16111225
167	0xbf8d4f5f	-1.1039847
168	0x3bcaad50	0.0061852112
169	0x3c10fa42	0.008848729
170	0xbe7c237e	-0.24622914
171	0xbe233669	-0.15938725
172	0xbf208164	-0.62697434
173	0xbe893782	-0.26800162
174	0x3c2b2719	0.010446333
175	0x3f20c62a	0.62802374
176	0xbf1ee10f	-0.6206216
177	0x3ea010d1	0.3126283
178	0x3e715c32	0.23570326
179	0x3e90c6fd	0.28276816
180	0xbe0c709c	-0.13714832
181	0x3f059a67	0.52188724
182	0x3db8c05c	0.09021065
183	0x3cd17d7e	0.025572535
184	0xbea3da77	-0.32002613
185	0xbe961233	-0.2931076
186	0x3eb21cb3	0.3478752
187	0xbf0fcc91	-0.5617152
188	0xbe7a7e61	-0.24462272
189	0xbeeef7f1	-0.4667354
190	0xbe9f6510	-0.31131792
191	0xbf0db34c	-0.5535171
192	0xbcc7dbad	-0.024396742
193	0x3f8ae785	1.0851904
194	0xbc6e4303	-0.014542344
195	0xbe23e75f	-0.1600623
196	0x3ecefa20	0.40425205
197	0x3e09b9dd	0.13449807
198	0xbd7c8144	-0.061646715
199	0x3f148c39	0.5802646
200	0xbe0431c9	-0.12909617
201	0xbe7deb30	-0.24796748
202	0xbf1027c4	-0.5631068
203	0xbe72e28f	-0.23719238
204	0x3ec99919	0.39374617
205	0xbe99afef	-0.3001704
206	0xbe1b3610	-0.15157342
207	0x3ceed617	0.02915482
208	0xbf192bdf	-0.59832567
209	0xbf011627	-0.50424427
210	0xbd808e2b	-0.062771164
211	0x3f0ef2a1	0.5583897
212	0xbe96f07d	-0.29480353
213	0x3ddeb99f	0.10875248
214	0x3edd361c	0.43205345
215	0x3e0f7a22	0.14011434
216	0x3e62dca0	0.22154474
217	0xbdb36c46	-0.08760886
218	0xbea9c9cf	-0.3316178
219	0xbe7702ee	-0.24122211
220	0xbcdbc9fd	-0.026829714
221	0xbde8cb49	-0.113668986
222	0xbd530f95	-0.051528532
223	0x3ba78629	0.0051124287
224	0xbed60e6a	-0.41807872
225	0x3decc00f	0.1156007
226	0x3e978469	0.29593208
227	0xbea71f52	-0.32641083
228	0xbb589c31	-0.0033052082
229	0x3d9cff5b	0.07665893
230	0xbd12086d	-0.035652567
231	0x3e294ba3	0.1653276
232	0x3f0206f6	0.5079187
233	0x3ec672bb	0.38759407
234	0xbf75abd5	-0.9596532
235	0x3e8da6f0	0.27666426
236	0xbe5c0b43	-0.21488671
237	0xbf04e21d	-0.5190752
238	0x3eb240fb	0.348152
239	0xbe7b7330	-0.2455566
240	0x3d5079b7	0.050897326
241	0x3da622ba	0.08112092
242	0xbe49143b	-0.19636624
243	0x3e6785ad	0.22609587
244	0x3d004bf5	0.03132244
245	0x3eebf1e8	0.46082997
246	0x3d60c4eb	0.054875296
247	0xbbb4e283	-0.0055201664
248	0xbee9c5cf	-0.45658728
249	0x3d42f858	0.04760012
250	0xbe30c230	-0.17261577
251	0x3caae1ba	0.020859588
252	0xbed4e0a1	-0.41577628
253	0xbd56f24d	-0.05247717
254	0x3e2f713b	0.17133038
255	0x3e8fe1f0	0.28102064

network_body._body_endoder.seq_layers.0.bias f4 [128]
0	0xbdbedc50	-0.09319365
1	0x3e32ca49	0.17459978
2	0x3d94670f	0.07246219
3	0x3dfe0340	0.12402964
4	0xbe69a018	-0.22814977
5	0xbe3acc4f	-0.18242
6	0x3d88dba0	0.06682515
7	0xbe4d418a	-0.20044532
8	0xbb7b3c84	-0.003833563
9	0x3d97d76d	0.07414136
10	0xbca732a0	-0.020409882
11	0xbe386348	-0.18006623
12	0x3e363bf8	0.17796314
13	0xbe0b64ce	-0.13612673
14	0xbe67d43b	-0.22639553
15	0x3d48e760	0.04904878
16	0x3c927e8c	0.017882608
17	0xbe59daaa	-0.2127482
18	0xbe4d17ba	-0.20028582
19	0x3dd9cee7	0.106351666
20	0xbe2278f8	-0.15866458
21	0x3b9f982d	0.0048704357
22	0xbcf68945	-0.030094752
23	0xbe466c74	-0.19377309
24	0xbe89257d	-0.26786414
25	0x3e1153a4	0.14192063
26	0xbccb803c	-0.02484142
27	0xbe0462ad	-0.12928267
28	0xbdb750d0	-0.08950961
29	0xbd48e414	-0.049045637
30	0xbdc6b3a6	-0.09702234
31	0x3e5ace04	0.21367651
32	0xbe11ea40	-0.14249516
33	0xbd355886	-0.044273876
34	0xbdcb04cd	-0.09913025
35	0xbe0b1b80	-0.13584709
36	0xbdc81968	-0.09770471
37	0x3e0faa8d	0.14029904
38	0x3b46fdf0	0.003036376
39	0xbe930fde	-0.28723043
40	0xbd7e6172	-0.06210465
41	0xbe48fd97	-0.19627987
42	0xbd06615d	-0.032807697
43	0xbeb2cb1a	-0.3492058
44	0x3b811381	0.0039390926
45	0xbe16e78c	-0.14736766
46	0xbcc4db7b	-0.024030438
47	0xbe8d0b0e	-0.27547497
48	0xbe0136e1	-0.12618591
49	0x3b855082	0.004068435
50	0x3e1b0c08	0.15141308
51	0xbe18d258	-0.1492399
52	0xbe14f186	-0.14545259
53	0x3da4d317	0.08048075
54	0xbd51d9fb	-0.051233273
55	0xbdcd5263	-0.1002548
56	0x3d949fdf	0.072570555
57	0xbd6e77cb	-0.058219712
58	0xbe209437	-0.1568154
59	0xbe1c46b0	-0.1526134
60	0xbdda7cb1	-0.10668314
61	0xbd1ce654	-0.038305596
62	0xbd3236ac	-0.04350917
63	0x3d8f4b58	0.069967926
64	0xbe614636	-0.2199944
65	0xbe905b99	-0.28194883
66	0x3bc140ce	0.005897618
67	0xbe4bf8b5	-0.19919093
68	0xbe50fe5b	-0.20409529
69	0xbdf67087	-0.12033182
70	0xbccd79be	-0.025082465
71	0x3d22f556	0.03978475
72	0xbe4e085b	-0.20120375
73	0xbe552513	-0.20814924
74	0xbdad1cb4	-0.0845274
75	0x3d268112	0.040650435
76	0xbe47145a	-0.19441357
77	0xbe19e570	-0.1502893
78	0xbd8920a7	-0.06695681
79	0xbe4b1c44	-0.19835001
80	0xbe522266	-0.20520934
81	0xbe575bdc	-0.21031135
82	0x3dcf96f9	0.101362176
83	0xbe1797c9	-0.14803995
84	0x3d2b68be	0.041847937
85	0x3da266cb	0.079297625
86	0xbc953146	-0.018211972
87	0xbe185d4d	-0.14879341
88	0xbe546475	-0.20741446
89	0xbe449120	-0.19195986
90	0xbde3cd39	-0.111231275
91	0xbdee2e51	-0.11629928
92	0xbd819b56	-0.06328456
93	0xbe7c2ee6	-0.24627265
94	0x3de2d0b6	0.11074965
95	0xbc1862f5	-0.009300937
96	0x3e2f41e0	0.17114973
97	0xbdc11e26	-0.094295785
98	0x3c7f604d	0.015586925
99	0xbe082f87	-0.1329938
100	0xbd39b0dd	-0.045334686
101	0x3d144ef1	0.036208097
102	0xbbcebb1d	-0.0063089267
103	0x3cb0f49e	0.021601018
104	0xbd51dd50	-0.05123645
105	0xbd1d2b4f	-0.03837138
106	0xbe286a56	-0.16446814
107	0xbe1a9f42	-0.15099815
108	0xbcfb7711	-0.030696424
109	0x3cc28489	0.023744838
110	0xbe752b2b	-0.23942249
111	0xbbf186ed	-0.0073708207
112	0x3deb5016	0.114898846
113	0xbdbd5690	-0.09245026
114	0xbd8ad5bd	-0.067790486
115	0x3cbdf318	0.023187205
116	0xbcb37cc3	-0.021910077
117	0xbd8af060	-0.06784129
118	0xbde0b332	-0.10971679
119	0xbe3f9e23	-0.18712668
120	0xbd8a52f5	-0.06754104
121	0xbe205e25	-0.15660913
122	0xbdc30109	-0.09521682
123	0xbe6b63c6	-0.2298728
124	0x3e184bb2	0.14872625
125	0xbe3167f9	-0.17324819
126	0xbd26f4db	-0.040760856
127	0x3d018741	0.03162313

network_body._body_endoder.seq_layers.2.weight f4 [128, 128]
0	0xbe209d25	-0.15684946
1	0x3ce17271	0.02752039
2	0x3d93cf23	0.072172426
3	0xbe25c0c3	-0.16186814
4	0x3c72077b	0.014772291
5	0xbe150b6f	-0.14555143
6	0xbe5ad987	-0.21372043
7	0x3da99350	0.08280051
8	0x3c2a3435	0.010388424
9	0xbe2535e6	-0.16133842
10	0xbe0f7d3d	-0.14012618
11	0xbe974fe2	-0.29553133
12	0x3c991d93	0.01869086
13	0xbe8f3646	-0.27971095
14	0x3db398ef	0.08769404
15	0xbe03dc46	-0.12876996
16	0xbf0b3257	-0.5437369
17	0xb9728a5b	-0.0002313046
18	0x3e746cfc	0.23869699
19	0xbdfc66a0	-0.12324262
20	0xbdb1fef2	-0.08691205
21	0x3d938026	0.07202177
22	0x3e44fd62	0.19237283
23	0xbe80d17c	-0.25159824
24	0xbe1560bc	-0.14587682
25	0x3c5e7548	0.013577767
26	0x3d06772d	0.0328285
27	0xbe69e953	-0.22842912
28	0xbe9b14a7	-0.30289194
29	0x3d2de998	0.0424591
30	0xbd8b3b59	-0.06798429
31	0xbcefcaa0	-0.029271424
32	0x3db6ef10	0.08932316
33	0xbdec5c09	-0.11540992
34	0x3c4f0938	0.012636475
35	0x3cfac8e2	0.030613367
36	0xbd630442	-0.055423982
37	0xbd8f4b9c	-0.06996843
38	0x3d8e3d62	0.069453016
39	0xbe70d00c	-0.23516864
40	0xbb30eb53	-0.0026995733
41	0x3de499a9	0.11162121
42	0xbe84b76a	-0.25921184
43	0x3e59883a	0.21243373
44	0xbdcf23b2	-0.1011423
45	0xbc377ff4	-0.01119994
46	0xbcb4088f	-0.021976737
47	0x3e0abaa5	0.13547762
48	0xbdf41d8b	-0.119196974
49	0x3e3241ea	0.17407957
50	0x3eae64ff	0.3406143
51	0x3b1a1168	0.002350891
52	0xbe9e5575	-0.30924574
53	0xbe54a13b	-0.2076463
54	0x3e08d363	0.13361888
55	0xbcac5238	-0.021035299
56	0xbda37ac5	-0.07982401
57	0x3c944b54	0.018102325
58	0x3ead739c	0.33877265
59	0x3e2dc35c	0.16969055
60	0xbe4e0463	-0.20118861
61	0xbe69eb26	-0.22843608
62	0xbd9506fe	-0.07276724
63	0x3c9f7ff0	0.019470185
64	0xbd597814	-0.05309303
65	0x3e4056f4	0.1878317
66	0x3dc53016	0.09628312
67	0x3e3b7cdd	0.1830935
68	0xbe7f5e30	-0.24938273
69	0xbde26122	-0.11053683
70	0x3e93ded5	0.28880945
71	0x3e942b5b	0.28939328
72	0xbe0ef486	-0.13960466
73	0xbeff6109	-0.4987872
74	0x3c9317c6	0.017955672
75	0x3e0ae6c5	0.13564594
76	0xbcf85f45	-0.030318866
77	0xbdbd91e0	-0.09256339
78	0xbd84f865	-0.0649269
79	0xbde8b6b7	-0.11362975
80	0xbe188da0	-0.14897776
81	0xbe429349	-0.19001497
82	0xbeb4ece1	-0.35336974
83	0xbe204b19	-0.15653647
84	0x3d90408c	0.07043561
85	0x3d337338	0.043811053
86	0x3c9bfa23	0.019040173
87	0xbea435b9	-0.32072237
88	0xbd26cd4f	-0.04072314
89	0xbe128ec2	-0.1431227
90	0xbd762632	-0.06009502
91	0xbe2d5b30	-0.16929317
92	0xbe57f103	-0.21088032
93	0xbc889441	-0.016672255
94	0xbd5edd46	-0.05441024
95	0xbe649bb1	-0.22325017
96	0x3cd1be6b	0.025603494
97	0xbeb3ed69	-0.35142067
98	0x3bcd7cff	0.006271004
99	0x3e0ca5d0	0.13735127
100	0xbe90601e	-0.28198332
101	0xbe880b42	-0.2657109
102	0xbe36108a	-0.17779747
103	0xbdb37354	-0.087622315
104	0xbd42318b	-0.04741053
105	0xbd9df487	-0.077126555
106	0xbd9c3283	-0.07626822
107	0x3dc3d50e	0.09562121
108	0xbd5b8583	-0.053594124
109	0x3dc542a1	0.09631849
110	0xbe1a6854	-0.1507886
111	0xbe868c53	-0.26278934
112	0xbd421b51	-0.047389332
113	0xbd4a9fd1	-0.04946882
114	0x3d8b6abd	0.06807468
115	0x3d4540a7	0.04815736
116	0xbda77c68	-0.081780255
117	0xbd98d448	-0.074623644
118	0xbe9e2d2a	-0.30893832
119	0xbecbdd10	-0.39817095
120	0xbde1c427	-0.11023741
121	0xbdec9b24	-0.11553028
122	0xbe10de7f	-0.14147376
123	0xbe3a8019	-0.18212928
124	0xbe21fd08	-0.1581918
125	0xbe4f55c1	-0.20247556
126	0x3cb3c739	0.021945583
127	0x3d9f1e7b	0.077694856
128	0xbc60a12e	-0.013710303
129	0xbdde6d3c	-0.108606786
130	0xbd56804d	-0.05236845
131	0xbedbd4e6	-0.42935866
132	0xbe06813e	-0.1313524
133	0xbebc6026	-0.36792105
134	0xbda67de3	-0.0812948
135	0xbe51769e	-0.20455405
136	0xbd8efebc	-0.069821805
137	0x3c811f57	0.015762014
138	0x3dcea539	0.100901075
139	0x3de87f13	0.113523625
140	0x3e296e35	0.16545947
141	0xbdf03922	-0.11729647
142	0xbdd848d4	-0.10560766
143	0xbe50b100	-0.2038002
144	0x3cc077b4	0.023494579
145	0xbe8939db	-0.26801953
146	0xbe95cd24	-0.29258072
147	0xbd906b99	-0.070517726
148	0x3d147d22	0.03625215
149	0x3e354d88	0.17705357
150	0xbe5b6b5f	-0.21427678
151	0xbd0e4a38	-0.03473875
152	0xbde78ead	-0.1130651
153	0x3d603610	0.054739058
154	0x3dfa0dc0	0.12209654
155	0xbdb46f3a	-0.08810277
156	0x3cb69fb4	0.02229295
157	0xbd25fefa	-0.040526368
158	0xbe92e7ba	-0.28692418
159	0xbd2d6413	-0.042331766
160	0xbe6357af	-0.22201417
161	0xbe1d8d93	-0.15386038
162	0xbcf5c5c6	-0.030001532
163	0x3d878718	0.06617564
164	0xbd205a3a	-0.039148547
165	0x3e3c788a	0.18405357
166	0x3d21dca2	0.039517052
167	0x3de798eb	0.11308464
168	0xbe1ac205	-0.15113075
169	0xbbdba0dd	-0.006702526
170	0xbcdd6f51	-0.027030619
171	0x3e8e032f	0.27736804
172	0xbdd1b380	-0.10239315
173	0xbe2568bd	-0.16153236
174	0x3dda4845	0.106583156
175	0x3ddacef3	0.10684004
176	0xbe1c72ee	-0.15278217
177	0xbe9bdc8a	-0.30441695
178	0x3e1c2059	0.15246715
179	0x3dc7edd3	0.09762158
180	0xbd8c84a5	-0.068612374
181	0x3d605f8a	0.054778613
182	0xbe5882d8	-0.21143663
183	0xbe22ecfd	-0.15910716
184	0x3e0a10cf	0.13482974
185	0xbeaae387	-0.33376715
186	0xbde78304	-0.11304286
187	0xbdb3186f	-0.08744895
188	0xbcb1cab2	-0.021703098
189	0xbe06624e	-0.13123438
190	0x3e63faf1	0.22263695
191	0x3d2ba8a3	0.04190887
192	0xbe39cfeb	-0.1814572
193	0xbd447d9b	-0.04797135
194	0xbe56588b	-0.20932214
195	0xbea148e7	-0.31500933
196	0xbdbd597e	-0.09245585
197	0xbe2d5cb1	-0.1692989
198	0xbe551a86	-0.20810899
199	0x3d08bfb0	0.033385932
200	0xbeb48cc4	-0.35263646
201	0xbe047c8b	-0.12938134
202	0xbe833e87	-0.25633642
203	0xbd035aa9	-0.032068882
204	0xbde0861f	-0.109630816
205	0x3e9daa28	0.3079388
206	0xbd985b0e	-0.07439242
207	0xbe98bec1	-0.29833034
208	0xbdc63cba	-0.096795514
209	0xbe5f7caa	-0.218249
210	0xbdf167c1	-0.117873676
211	0xbc8fa256	-0.017533462
212	0xbb3fb628	-0.002925286
213	0xbc0d2f45	-0.008617227
214	0x3e5be1fc	0.21472925
215	0xbe44cdfa	-0.19219199
216	0x3d820e46	0.06350379
217	0xbe59f666	-0.212854
218	0xbe4fec7f	-0.2030506
219	0xbec7ee13	-0.39048824
220	0x3d8dcd64	0.06923941
221	0x3c958151	0.01825014
222	0x3d518b4b	0.05115823
223	0x3c988ba1	0.018621268
224	0x3c74ca8e	0.014940871
225	0xbd5da366	-0.054110907
226	0xbe813b69	-0.2524064
227	0xbd022cd8	-0.031781048
228	0xbdbd4f07	-0.09243589
229	0x3d2fa884	0.04288532
230	0x3dcbf2d0	0.09958422
231	0xbdab5c13	-0.08367171
232	0xbbb5089f	-0.0055247094
233	0x3da7f293	0.08200564
234	0xbe203c8e	-0.156481
235	0xbe2124ed	-0.15736742
236	0xbe4f710d	-0.20257969
237	0xbddd0c0a	-0.10793312
238	0xbdfb64e0	-0.122751
239	0xbe069580	-0.13142967
240	0x3dc0d48f	0.09415542
241	0x3ceaca25	0.028660843
242	0xbe1e8f34	-0.15484315
243	0x3d7ffd03	0.06249715
244	0x3d6a88e4	0.057259455
245	0x3dc2f96a	0.09520228
246	0xbd7f31f4	-0.0623035
247	0xbdd12470	-0.10212028
248	0xbdf1139b	-0.117713176
249	0x3dfcd59b	0.123454295
250	0x3e3074fb	0.17232125
251	0xbd87f344	-0.06638196
252	0x3d912faa	0.07089169
253	0xbe1dfe2d	-0.15428992
254	0xbe2169b6	-0.15762982
255	0xbec87f01	-0.39159396

network_body._body_endoder.seq_layers.2.bias f4 [128]
0	0xbe332ae8	-0.17496836
1	0xbced6b04	-0.028981693
2	0xbd439598	-0.047750086
3	0x3df2905c	0.118439406
4	0xbde71ac3	-0.11284401
5	0xbdf10c1a	-0.11769886
6	0xbca8d9d5	-0.020611683
7	0xbe09fca2	-0.13475278
8	0xbcbd2fc0	-0.023094058
9	0xbd8ebf05	-0.06970028
10	0x3c844365	0.016145417
11	0xbe40b50f	-0.18819068
12	0xbdcd783f	-0.10032701
13	0xbdd4f810	-0.10398877
14	0xbdde38e0	-0.10850692
15	0xbd329e5d	-0.04360806
16	0xbddd2507	-0.10798078
17	0xbdaae2c2	-0.08344032
18	0xbe1264a5	-0.14296205
19	0xbd8153be	-0.06314801
20	0xbe08ce75	-0.13360007
21	0xbe185340	-0.14875507
22	0x3dde82cf	0.108647935
23	0xbd7c2ed1	-0.061568085
24	0xbb9f780a	-0.0048666047
25	0xbdb24def	-0.08706271
26	0xbe1a1f4e	-0.15051004
27	0xbdea8ce4	-0.11452654
28	0xbe148421	-0.14503528
29	0xbdcf31a5	-0.10116891
30	0xbd80b446	-0.062843844
31	0x3ca3f2cb	0.020013234
32	0xbdb9b8ac	-0.090684265
33	0xbcd60664	-0.026126094
34	0xbdbfc935	-0.09364549
35	0xbced2794	-0.028949536
36	0xbe805ebd	-0.2507228
37	0xbe20b42f	-0.15693735
38	0xbd2e13b3	-0.042499255
39	0xbd1d2196	-0.03836211
40	0xbe09a88d	-0.13443203
41	0xbdc70229	-0.09717209
42	0xbe128dcf	-0.14311908
43	0xbcd6305c	-0.026146106
44	0xbe596ed6	-0.21233687
45	0xbd82e8e2	-0.06392075
46	0xbd1c4f0b	-0.03816132
47	0xbe6384a4	-0.22218567
48	0xbd4b4ba7	-0.049632695
49	0xbe0331d8	-0.12811983
50	0xbe10b9d1	-0.14133383
51	0x3cee9207	0.029122366
52	0xbe1af7b3	-0.15133552
53	0xbe5babb4	-0.21452218
54	0xbc6618ad	-0.014043969
55	0xbe023772	-0.12716463
56	0xbdfa374c	-0.12217578
57	0xbd5babcb	-0.05363063
58	0x3c86cb2b	0.0164543
59	0xbd886883	-0.06660559
60	0xbd50f225	-0.051012177
61	0x3e12ca10	0.14334893
62	0x3c1ff1be	0.009762226
63	0xbe06c66b	-0.13161628
64	0xbe130a1c	-0.14359325
65	0xbdc5db53	-0.096609734
66	0xbe4f9c3d	-0.20274444
67	0xbe1e00b9	-0.15429963
68	0xbe1132ea	-0.14179578
69	0x3d5341a8	0.051576287
70	0x3d75183a	0.059837557
71	0xbd0393f6	-0.03212353
72	0xbe11e6f6	-0.14248261
73	0xbe65ef28	-0.22454512
74	0xbe18d746	-0.1492587
75	0xbbf4abef	-0.007466785
76	0x3db7748d	0.08957777
77	0xbc61c766	-0.01378045
78	0x3e1ea063	0.1549087
79	0xbea623ea	-0.32449275
80	0x3cc9caf8	0.024632916
81	0xbdd043cb	-0.101691805
82	0xbdb6c8d0	-0.08925021
83	0xbdaee2f1	-0.085393794
84	0xbe39ceb7	-0.18145262
85	0xbe331a4f	-0.17490505
86	0xbdcff7e3	-0.101547025
87	0xbd1962c1	-0.037447695
88	0xbd21ca24	-0.039499417
89	0xbd09210a	-0.033478774
90	0xbc91c5c8	-0.017794505
91	0xbe26bf40	-0.16283894
92	0xbcf531b9	-0.029930936
93	0xbdd77832	-0.10520972
94	0xbdc35ef3	-0.095395945
95	0xbe5e8579	-0.21730603
96	0xbe512261	-0.20423271
97	0xbe13e698	-0.14443433
98	0xbd8e8f48	-0.069609225
99	0xbd92024f	-0.071293466
100	0xbd3075db	-0.043081146
101	0xbdaf4efe	-0.085599884
102	0xbd3f5d7f	-0.046720024
103	0xbd80fe0f	-0.06298458
104	0xbe562645	-0.20913036
105	0xbd784cca	-0.060620107
106	0xbd991703	-0.07475092
107	0xbb9d61ae	-0.004802904
108	0xbd14a308	-0.03628829
109	0xbd565f2b	-0.052336853
110	0xbd59cc28	-0.053173214
111	0xbdf6cf13	-0.12051215
112	0xbd39103b	-0.045181494
113	0x3e3e2d63	0.18572001
114	0xbe06ea05	-0.13175209
115	0xbc3b37db	-0.011426891
116	0xbd8c293e	-0.06843804
117	0xbd9b140d	-0.07572184
118	0xbde9d544	-0.1141763
119	0xbe454127	-0.19263135
120	0xbd88bcc6	-0.06676631
121	0xbde957cb	-0.11393698
122	0xbd3a12a5	-0.045427937
123	0xbe07d07a	-0.13263121
124	0x3d94b21e	0.07260536
125	0xbd9ea7e3	-0.077468656
126	0xbddac294	-0.10681644
127	0xbdc762b0	-0.0973562

action_model._continuous_distribution.log_sigma f4 [1, 2]
0	0xbf8c21af	-1.094778
1	0xbf6c19e1	-0.9222699

action_model._continuous_distribution.mu.weight f4 [2, 128]
0	0xbbe382c3	-0.0069430782
1	0x3cb730b6	0.022362094
2	0x3d057ab2	0.032587714
3	0xbc3098ef	-0.01077865
4	0x3dea563b	0.114422284
5	0xbca8963b	-0.020579448
6	0xbdf8491f	-0.12123322
7	0xbd5692b5	-0.052386004
8	0xbd006ff5	-0.03135677
9	0xbd5a9348	-0.053363115
10	0xbd9b96f7	-0.07597154
11	0x3d8679ae	0.06566177
12	0x3e381c12	0.17979458
13	0x3d10126f	0.03517383
14	0x3db3f5bf	0.08787107
15	0xbdb46521	-0.08808351
16	0x3d274fbe	0.040847532
17	0x3d3cb349	0.046069417
18	0x3dd3b2c5	0.10336832
19	0x3d8d9dde	0.069148764
20	0x3db5e073	0.08880701
21	0x3e406f0e	0.18792364
22	0x3dd2e122	0.10296847
23	0xbb3d3e49	-0.0028876236
24	0xbd9d1426	-0.07669859
25	0x3c7a2ae6	0.015269017
26	0xbb86a92d	-0.004109523
27	0x3e0a01ca	0.13477245
28	0xbdabdb42	-0.083914295
29	0xbdda938a	-0.10672672
30	0xbddff9f6	-0.10936348
31	0x3dea34ac	0.114358276
32	0x3defbf76	0.1170644
33	0xbdab9c19	-0.08379383
34	0xbd1d0cce	-0.03834229
35	0x3d600498	0.05469188
36	0xbc5a01f9	-0.013306134
37	0x3db7c359	0.089728065
38	0x3d8aa776	0.06770222
39	0xbdf96d76	-0.12179081
40	0x3d90fc3a	0.070793584
41	0x3e07d797	0.13265835
42	0xbcff4375	-0.031160096
43	0x3df6ff7e	0.1206045
44	0x3d07b3e6	0.03313055
45	0xbe0841fb	-0.1330642
46	0x3e1cd490	0.15315461
47	0x3c9f7aa3	0.019467657
48	0x3d93d693	0.07218661
49	0xbd5e1276	-0.054216824
50	0xbc657a1d	-0.014006165
51	0xbdcf45e8	-0.101207554
52	0xbe058dd9	-0.13042392
53	0x3dac52bc	0.08414218
54	0x3e196476	0.14979729
55	0x3d365de2	0.044523127
56	0xbdcb710b	-0.099336706
57	0x3db26618	0.08710879
58	0xbcf4ac3a	-0.02986728
59	0x3e33ab55	0.17545827
60	0x3dc7c7da	0.097549155
61	0x3c6a1960	0.014288276
62	0xbcb59883	-0.02216745
63	0x3d226cf4	0.039654687
64	0xbdab62a0	-0.083684206
65	0x3cb43ab5	0.02200065
66	0x3c644d34	0.013934422
67	0xbd0c62f7	-0.034274068
68	0x3cdb7682	0.026789907
69	0x3c248db9	0.010043555
70	0x3da33f88	0.07971102
71	0xbc70374d	-0.014661622
72	0x3dfad12a	0.12246926
73	0x3d969ca1	0.07354093
74	0x3d8fe459	0.07025976
75	0xbdd6123b	-0.10452696
76	0x3da61955	0.081103005
77	0x3d007d02	0.031369217
78	0x3cdf29a6	0.02724154
79	0x3d1c8c35	0.03821965
80	0x3dc5e9a7	0.09663706
81	0x3d9efcaf	0.07763039
82	0x3e295cb8	0.16539276
83	0x3e284513	0.164326
84	0xbd98d5a3	-0.07462623
85	0x3d71e6be	0.059057944
86	0x3de9b26e	0.11410986
87	0x3e3168c2	0.17325118
88	0xbdf06d85	-0.11739639
89	0xbd516817	-0.05112466
90	0xbbb45d47	-0.0055042836
91	0x3c89d811	0.016826661
92	0xbc45c3c0	-0.012070596
93	0x3ddc6c45	0.10762838
94	0xbcd4fd42	-0.025999669
95	0x3dc025dd	0.09382222
96	0x3d8dbdfe	0.06921004
97	0x3e04ea0f	0.12979911
98	0xbd84a2c1	-0.06476355
99	0x3c8a7edc	0.016906194
100	0xbdbb24ac	-0.09137854
101	0xbcd1257d	-0.025530571
102	0xbdcdb6f5	-0.10044662
103	0xbe0f1105	-0.13971336
104	0xbc8112ac	-0.015755974
105	0x3cfdcc27	0.030981136
106	0x3d80f886	0.06297402
107	0x3c8bf041	0.017082335
108	0x3d409848	0.047020227
109	0xbcb85449	-0.022501128
110	0x3bbc3820	0.0057439953
111	0x3d6ac6a2	0.057318337
112	0x3bb98b8e	0.005662388
113	0xbc90824b	-0.017640254
114	0x3cab27bd	0.020892972
115	0x3d515e33	0.051115226
116	0x3dc22d07	0.094812445
117	0x3c89ccb8	0.01682125
118	0x3da0c53b	0.07850119
119	0x3e06c82f	0.13162301
120	0x3e115ddd	0.14195962
121	0x3de8700c	0.11349496
122	0xbd455130	-0.04817313
123	0x3cc97b66	0.024594974
124	0x3e2bcd90	0.16777635
125	0x3e1c3dd1	0.15257956
126	0xbd36de2c	-0.044645473
127	0x3e17e495	0.14833291
128	0xbeb6d938	-0.357126
129	0xbdf9128d	-0.121617414
130	0xbe8da0da	-0.27661783
131	0x3e0761ec	0.13220948
132	0xbca39b54	-0.019971527
133	0xbe362c6d	-0.17790385
134	0xbc2c1aaa	-0.010504404
135	0xbe30326a	-0.17206731
136	0xbda4d08a	-0.08047588
137	0xbd47da6e	-0.048792295
138	0x3e088191	0.13330676
139	0xbda12dcf	-0.078700654
140	0xbde414b6	-0.11136763
141	0xbdc111b6	-0.09427206
142	0xbdd347f8	-0.10316461
143	0xbd7312e4	-0.059344187
144	0xbd7b6d43	-0.061383497
145	0xbe1b13de	-0.15144297
146	0xbe088e1c	-0.1333546
147	0xbdccbd81	-0.099970825
148	0xbe16bdcd	-0.14720841
149	0xbd493f7c	-0.04913281
150	0x3d63ff12	0.055663176
151	0xbeb46651	-0.3523431
152	0x3b9cb508	0.004782323
153	0xbe0fa83d	-0.14029022
154	0xbdb3c034	-0.08776894
155	0xbdcca8f7	-0.09993165
156	0xbdd816ba	-0.1055121
157	0xbd14ea6d	-0.03635638
158	0xbd5eb694	-0.05437334
159	0x3dcc59a9	0.09978039
160	0xbe0992a6	-0.13434848
161	0xbe874388	-0.2641871
162	0xbe006daa	-0.12541834
163	0xbd68fed6	-0.056883655
164	0xbdffb790	-0.12486184
165	0xbdb6f40d	-0.08933268
166	0xbdd8d8a9	-0.105882
167	0x3dc0f88e	0.09422408
168	0x3d898b16	0.06715982
169	0xbd51c152	-0.051209755
170	0xbdcf3ecf	-0.10119402
171	0xbdac0acd	-0.084004976
172	0xbdc00483	-0.093758605
173	0xba0ab3a0	-0.00052910484
174	0x3e3d5810	0.18490624
175	0xbdee2df3	-0.11629858
176	0xbe69af9b	-0.22820894
177	0xbe619e2c	-0.22032994
178	0xbdbd5707	-0.09245115
179	0xbda20a43	-0.079121135
180	0xbca4ead0	-0.020131499
181	0xbdaab866	-0.083359525
182	0xbe1671d4	-0.1469186
183	0x3dc916da	0.09818812
184	0xbd905431	-0.07047308
185	0x3db6f35d	0.089331366
186	0x3d4229e4	0.04740323
187	0xbda7ced2	-0.08193745
188	0xbc2aaf14	-0.010417718
189	0x3dcf2707	0.10114866
190	0xbbbbc43b	-0.0057301796
191	0xbdf61526	-0.120157525
192	0xbd87d7a7	-0.06632929
193	0x3dc6efe0	0.09713721
194	0xbda305fd	-0.079601265
195	0x3d4cf3b1	0.05003709
196	0xbe20066a	-0.15627447
197	0x3dd43b35	0.10362855
198	0x3c4b0096	0.012390276
199	0xbe087204	-0.13324744
200	0xbd5b50d4	-0.05354388
201	0xbd820153	-0.06347909
202	0xbe171458	-0.14753854
203	0x3d4e07c1	0.050300363
204	0x3dff8e84	0.124783546
205	0x3c0a7600	0.008450985
206	0x3e1a9633	0.15096359
207	0xbc911b49	-0.017713206
208	0xbe017e22	-0.12645772
209	0xbbb0a785	-0.0053910636
210	0x3cd1b8a9	0.025600748
211	0x3d0552ae	0.032549553
212	0x3d4e7ad8	0.05041012
213	0xbe085834	-0.13314897
214	0xbd9484b3	-0.07251873
215	0x3b6645a2	0.003513672
216	0x3cd30c27	0.02576263
217	0x3d1eb862	0.03875006
218	0xbe7c7e8b	-0.24657647
219	0xbe014140	-0.12622547
220	0xbd75a569	-0.0599722
221	0xbd4c498b	-0.049874824
222	0xbd0206f7	-0.031744923
223	0xbe19ca0e	-0.15018484
224	0xbdbddd56	-0.09270732
225	0xbd488d0c	-0.048962638
226	0xbe285c87	-0.16441546
227	0xbe963794	-0.29339278
228	0xbdd59ddf	-0.10430502
229	0xbe17659a	-0.14784852
230	0xbdd7edb1	-0.10543383
231	0x3d4954df	0.049153205
232	0xbe27e500	-0.1639595
233	0xbd8340f1	-0.06408871
234	0xbe6ad44a	-0.22932544
235	0xbe518b43	-0.2046328
236	0xbe1c1982	-0.15244105
237	0x3d90e617	0.07075136
238	0xbca9f77a	-0.020747889
239	0xbd8ec2bc	-0.069707364
240	0x3e2ffd51	0.17186476
241	0x3dcef2ed	0.10104928
242	0xbe4bf476	-0.19917473
243	0xbd458711	-0.048224512
244	0x3d006a09	0.031351123
245	0xbdaf367a	-0.085553125
246	0xbc953ed5	-0.018218437
247	0xbe00dfdb	-0.12585394
248	0x3d1b67dc	0.037940845
249	0xbe1a6774	-0.15078527
250	0xbe9b4722	-0.30327708
251	0x3cf26bd4	0.029592432
252	0x3e062bd4	0.13102657
253	0x3d3c0b3d	0.045909155
254	0xbd104e4b	-0.035230916
255	0x3d02a9e4	0.0319003

action_model._continuous_distribution.mu.bias f4 [2]
0	0xbd35fa50	-0.04442817
1	0x3e44a13f	0.19202136

action_model._discrete_distribution.branches.0.weight f4 [1, 128]
0	0x3a74c17a	0.00093366916
1	0xbb5f2fb0	-0.0034055524
2	0xbafdfc7b	-0.0019377613
3	0x3b773678	0.0037721675
4	0xbaa3859a	-0.001247573
5	0x3b2faa13	0.0026804253
6	0x3c7b0150	0.015320137
7	0xbc56b7f3	-0.01310538
8	0x3b30c1f4	0.0026971074
9	0xbaea9b4d	-0.0017899066
10	0x3bc0a44c	0.0058789607
11	0x3a867bbb	0.0010260263
12	0x3c2e0a04	0.010622505
13	0x3b8b3445	0.0042481744
14	0x3a27fcd1	0.0006408217
15	0x3b9eaa3b	0.0048420704
16	0x3b20852e	0.0024493444
17	0xba2d0663	-0.0006600378
18	0xbc2d42a8	-0.010574974
19	0xbb1ca815	-0.0023903896
20	0x39f48423	0.00046637756
21	0x3c5a9aa5	0.013342534
22	0x3c01cb2b	0.007921974
23	0x3c10db5f	0.008841365
24	0x3b91e2fc	0.0044521075
25	0x3caff6fa	0.021480072
26	0xbcb2b390	-0.021814138
27	0x3c71a855	0.014749606
28	0xbc48052b	-0.012208263
29	0xbcc4ae77	-0.024008973
30	0xbb81d626	-0.003962296
31	0x3b24177c	0.0025038412
32	0x391e51b1	0.00015098487
33	0xbc684de7	-0.01417873
34	0xbc95fed5	-0.01830999
35	0x3aeaf505	0.0017925805
36	0xbcb68085	-0.02227808
37	0xbb5dcccd	-0.0033843995
38	0xbb3bb0eb	-0.0028639387
39	0xbc89bd06	-0.016813766
40	0xbbb61927	-0.0055571976
41	0xbb1c9852	-0.00238945
42	0xbb6c87bd	-0.0036091649
43	0xbbdebacf	-0.0067971717
44	0xbc0a2207	-0.008430964
45	0xbc645ba3	-0.0139378635
46	0x379afaae	1.8474962e-05
47	0xbaa3b51f	-0.0012489891
48	0x3beea2d5	0.0072825947
49	0x3c442cef	0.011973604
50	0xbb9f4ab7	-0.0048612016
51	0x3c84682f	0.01616296
52	0x3af54d7a	0.0018715106
53	0x3bd99358	0.006639879
54	0x3c7a08b3	0.015260863
55	0xbad82e83	-0.0016493354
56	0x3c169da4	0.009192858
57	0x3a81044b	0.0009843198
58	0x3c102ea0	0.008800179
59	0xbc50cd88	-0.012744315
60	0xbb211f23	-0.002458521
61	0xbaa65226	-0.0012689277
62	0xbbb6af63	-0.005575107
63	0x3b331d2e	0.0027330625
64	0xbc3fddab	-0.011710565
65	0x3bc34b7b	0.0059599257
66	0x3ca69d34	0.020338632
67	0xba38dff6	-0.0007052416
68	0x3b9ddfe0	0.0048179477
69	0xbb2bb24f	-0.002619881
70	0xbb5f6c48	-0.003409164
71	0xbc88e507	-0.016710771
72	0x3bf9e812	0.007626542
73	0xba1133ff	-0.0005539059
74	0x3c55e813	0.013055819
75	0x3b80758a	0.0039202617
76	0x3b19ba93	0.0023457154
77	0xbbdc1728	-0.0067166276
78	0x3b119473	0.0022213727
79	0x3c1ec1af	0.009689732
80	0x3c04dc45	0.008109157
81	0x3b54d2a7	0.0032474191
82	0xbc57dabf	-0.013174712
83	0x3bf1cbb3	0.007379019
84	0xbc4fa3e5	-0.012673353
85	0x3c004c1f	0.007830649
86	0x3bdd9bc3	0.006762953
87	0xbb451c89	-0.0030076823
88	0x3a9ee2f5	0.0012122082
89	0xbc5f92a3	-0.013645801
90	0xbb327b50	-0.0027234145
91	0x3c882d51	0.016623171
92	0xbbdce628	-0.006741304
93	0x3cccbb5f	0.02499169
94	0x3bca0747	0.0061654183
95	0x3ad1f10a	0.001601727
96	0xbc7688eb	-0.015047292
97	0x3b1a1ba5	0.0023515013
98	0x3c0eb49f	0.008710056
99	0xbc3ba6c5	-0.011453335
100	0xbbc3e0f7	-0.0059777456
101	0xbc06582b	-0.008199732
102	0xba92051b	-0.0011140438
103	0xbc29da83	-0.010367039
104	0x3c98bacb	0.018643757
105	0x3c3df36e	0.011593683
106	0x3ae72bb3	0.0017636925
107	0xbc24cc23	-0.010058436
108	0x3c2da8a9	0.010599294
109	0xbcb7b3c7	-0.022424592
110	0xbc0be619	-0.008538746
111	0xbc431f23	-0.011909279
112	0xbad698c0	-0.0016372427
113	0x3c04a801	0.008096696
114	0xbb34ae69	-0.0027569777
115	0xbc3a412c	-0.011368077
116	0xbb0c3105	-0.0021391523
117	0x3b8c0822	0.0042734304
118	0xbb01bcd9	-0.00197964
119	0xbb5c4c72	-0.00336149
120	0xb9f62308	-0.00046946877
121	0x3a70589b	0.00091684767
122	0xba01b327	-0.0004947655
123	0x3c4ef055	0.012630542
124	0x3b914ab4	0.004433954
125	0x3a15ba0c	0.0005711622
126	0x3b2819db	0.0025650177
127	0xbc380a93	-0.01123299

exp_avg f4 [128, 12]
0	0xbc30d867	-0.010793782
1	0x3a23c58d	0.0006247394
2	0x3b761750	0.0037550516
3	0x3a4651cb	0.00075652887
4	0x3a23c575	0.000624738
5	0x3c4294a2	0.011876257
6	0x39582d30	0.00020616199
7	0xbaef4df4	-0.0018257485
8	0x3aa3c20a	0.0012493741
9	0xba909816	-0.0011031653
10	0x3bbb1171	0.0057088663
11	0xba0c5888	-0.00053537684
12	0xbc8612de	-0.016366418
13	0x3a7cb33a	0.0009639744
14	0xbd177395	-0.036975462
15	0xbbbc1304	-0.0057395715
16	0x3a7cb314	0.0009639722
17	0x3c36ad7d	0.011149761
18	0xbaf5f286	-0.0018764294
19	0x3b43afad	0.002985935
20	0x3afcaf59	0.0019278332
21	0xbc2abd8f	-0.010421171
22	0x3b8cfa7e	0.004302322
23	0x3bec260f	0.0072066854
24	0xbba0fa42	-0.0049126456
25	0x3995852b	0.00028518712
26	0xbb6d2b3e	-0.0036189104
27	0xb9c58e20	-0.0003768066
28	0x39958504	0.000285186
29	0x3b8b2fae	0.004247627
30	0x3862a398	5.4034957e-05
31	0xb9e788ce	-0.0004416168
32	0x3a1584e4	0.0005703701
33	0xbb3e07fa	-0.0028996454
34	0xba8eabc4	-0.001088493
35	0x3a81046d	0.0009843238
36	0xbbfd70b2	-0.0077343816
37	0x39ea6a33	0.00044711083
38	0x3bfeef2e	0.0077799773
39	0xbad48622	-0.0016214291
40	0x39ea6a54	0.0004471118
41	0x3c0083a7	0.007843888
42	0xbb18fb32	-0.0023343083
43	0x3a80c8a0	0.0009825416
44	0x3a6a6a3b	0.0008942221
45	0x3a9b8872	0.0011866225
46	0x3b9a098a	0.004700844
47	0xba6065fd	-0.00085601193
48	0x3ad61564	0.0016333279
49	0xb8cc2f35	-9.736271e-05
50	0x3bf92c36	0.0076041473
51	0x3a018de6	0.0004942104
52	0xb8cc2e93	-9.736153e-05
53	0xba6d9532	-0.00090630644
54	0xb8963200	-7.1618706e-05
55	0xb9ec8d35	-0.00045118635
56	0xb94c2e55	-0.00019472216
57	0x3b88af8a	0.0041713165
58	0x39c8a088	0.00038266578
59	0xba1e5692	-0.00060401217
60	0x3cba00f8	0.02270554
61	0xbaad1754	-0.0013205805
62	0x3ce6207d	0.028091663
63	0xbc31217e	-0.010811208
64	0xbaad17da	-0.0013205961
65	0xbcc26a42	-0.023732308
66	0xbc153a62	-0.009108158
67	0xbb93889e	-0.00450237
68	0xbb2d1638	-0.0026410948
69	0x3c02b85c	0.007978525
70	0xbc05fe5f	-0.008178323
71	0x3b7d5356	0.0038654408
72	0xbc2d0898	-0.010561131
73	0x3a202581	0.0006109104
74	0x3c8a03bf	0.01684749
75	0x3adc709c	0.0016818228
76	0x3a2025dc	0.0006109157
77	0x3c207a39	0.009794765
78	0xbbec678a	-0.0072144913
79	0xb9455278	-0.00018818106
80	0x3aa02403	0.0012217764
81	0xbbb71768	-0.005587507
82	0xbbbfdd0c	-0.0058552083
83	0xbb36a26c	-0.0027867807
84	0xb9198b80	-0.00014643185
85	0x37329380	1.0643969e-05
86	0xbc73ed9c	-0.014888193
87	0xbbd3c21b	-0.006462348
88	0x37326e00	1.0635238e-05
89	0xbb46dc98	-0.0030343886
90	0xbb4f8f18	-0.0031670984
91	0x3a6d701a	0.0009057537
92	0x37b31880	2.1349872e-05
93	0x3bebbddc	0.007194264
94	0xbc088736	-0.008333018
95	0x3bd9ab9b	0.0066427714
96	0xbcaf12d4	-0.021371283
97	0x3aa33f6e	0.0012454817
98	0xbbcf65be	-0.0063292673
99	0x3aadf8bc	0.0013272981
100	0x3aa33fae	0.0012454891
101	0x3caf1450	0.02137199
102	0x3bca6a7e	0.0061772456
103	0x3b0c7466	0.0021431684
104	0x3b233e0c	0.002490881
105	0x39929dc4	0.00027964835
106	0x3ba48ed1	0.005021908
107	0x3a86e08a	0.0010290307
108	0xbc2f6afa	-0.010706658
109	0x3a24478b	0.0006266764
110	0xbc411bac	-0.011786383
111	0x3af994a9	0.0019041497
112	0x3a24476b	0.00062667456
113	0x3c12e415	0.008965512
114	0xbae09dcc	-0.0017136871
115	0xbacddbea	-0.0015705798
116	0x3aa44655	0.0012533168
117	0x3ad49798	0.0016219495
118	0x3bb1c96b	0.005425622
119	0x3a9663f4	0.001147388
120	0x3ca1f488	0.019769922
121	0xba97c1da	-0.0011578158
122	0x3cd87945	0.026425013
123	0xb915e2a0	-0.00014294172
124	0xba97c1fa	-0.0011578195
125	0xbc8d62bb	-0.017258992
126	0xbb240cd0	-0.002503205
127	0xbba1d6e4	-0.004938947
128	0xbb17bfb4	-0.0023155035
129	0x3be2dda4	0.0069233943
130	0xbc12bd16	-0.008956214
131	0xbb18d6a2	-0.002332129
132	0xbc3936ba	-0.011304552
133	0x3a2ad55b	0.0006516778
134	0x3c6eeff8	0.01458358
135	0xbbd3c61e	-0.0064628264
136	0x3a2ad4f8	0.000651672
137	0x3c3c8674	0.0115066655
138	0x3b826561	0.0039793705
139	0xb9c169f8	-0.00036890781
140	0x3aaad537	0.0013033514
141	0x3ac6f7da	0.0015180067
142	0xbb70fd5d	-0.003677211
143	0xbaa72a36	-0.0012753669
144	0x3d07dee7	0.03317156
145	0xbafb9f64	-0.0019197282
146	0xbc728fb0	-0.014804766
147	0x3a7eb405	0.0009716156
148	0xbafb9f45	-0.0019197246
149	0xbd00c33a	-0.031436183
150	0x3a56faa0	0.0008200798
151	0xbb01201d	-0.001970298
152	0xbb7b9f2c	-0.0038394434
153	0xbbe1c8fd	-0.0068904147
154	0x3917b90f	0.00014469422
155	0x397dafaa	0.000241934
156	0x3bffa9ca	0.007802223
157	0xb9ec1bea	-0.00045034225
158	0x39b542c0	0.00034572743
159	0xbb88d1e9	-0.004175414
160	0xb9ec1bde	-0.0004503419
161	0xbc042d74	-0.0080674775
162	0xbb18e0b5	-0.0023327295
163	0x3b0b4144	0.0021248618
164	0xba6c22ce	-0.0009007872
165	0xbc168c5c	-0.009188738
166	0xbb5764ab	-0.00328664
167	0x3b4e3acb	0.0031468149
168	0x3baf17fd	0.005343436
169	0xb9a345f0	-0.0003114189
170	0x3bfe4005	0.0077590966
171	0x3b18c33d	0.002330973
172	0xb9a3460e	-0.00031141978
173	0xbb1368d6	-0.0022492907
174	0x3a4d3b02	0.0007828922
175	0x3adfe699	0.0017082273
176	0xba23457c	-0.00062283105
177	0xbac54797	-0.0015051243
178	0x391a329f	0.00014705442
179	0xbb16acc0	-0.002299115
180	0xbbb38f60	-0.005479738
181	0x39a3a536	0.00031212874
182	0x3caea488	0.021318689
183	0x3a02be48	0.00049874606
184	0x39a3a558	0.00031212973
185	0x3b9ec5f0	0.0048453733
186	0xbb967c0e	-0.004592425
187	0xbb327491	-0.0027230124
188	0x3a23a884	0.00062430673
189	0x3b41d286	0.0029574945
190	0xbbd6497e	-0.0065395227
191	0xbabc26b6	-0.0014354798
192	0xbd869a56	-0.06572406
193	0x3b79c008	0.0038108844
194	0xbc77f928	-0.015135087
195	0x3ad816d1	0.0016486292
196	0x3b79c03e	0.003810897
197	0x3d864911	0.06556905
198	0x3c4bebe6	0.012446379
199	0x3bfa51f7	0.0076391655
200	0x3bf9be72	0.00762158
201	0xbc0b8174	-0.008514751
202	0x3c40d826	0.011770284
203	0xbb095f3c	-0.0020961305
204	0x38b7ec34	8.770116e-05
205	0xb6ab1a60	-5.0992676e-06
206	0x38e8f69f	0.00011108559
207	0xb7a0dfe5	-1.9177745e-05
208	0xb6ab1a4d	-5.099259e-06
209	0xb8bd4901	-9.02582e-05
210	0x38e0a8af	0.00010712572
211	0xb3fa0900	-1.1643169e-07
212	0xb72b1a82	-1.0198566e-05
213	0xb86fcd93	-5.7173496e-05
214	0x378ebe37	1.7016295e-05
215	0xb41f6a00	-1.4846592e-07
216	0x3bfb9156	0.0076772375
217	0xb9ea8fd1	-0.0004473911
218	0x3c23502e	0.009967847
219	0xbadd0a82	-0.0016864093
220	0xb9ea9064	-0.00044739537
221	0xbbec9c97	-0.0072208154
222	0xbb2a0a1b	-0.0025945965
223	0xbaacb613	-0.0013176821
224	0xba6a8ffc	-0.0008947847
225	0x3b8b1ef3	0.004245633
226	0xbb002067	-0.0019550563
227	0x3a84ad3c	0.0010122429
228	0xbcbb078b	-0.022830745
229	0x3aae1232	0.0013280569
230	0xbcb3bc37	-0.021940334
231	0xba511078	-0.00079751713
232	0x3aae1236	0.0013280574
233	0x3cab7947	0.020931853
234	0x3be3f528	0.006956715
235	0x3b01506a	0.0019731768
236	0x3b2e102e	0.0026559937
237	0xbbfd3ca1	-0.007728175
238	0x3bc977ce	0.006148315
239	0x37cdc118	2.452782e-05
240	0xba8922ac	-0.0010462604
241	0x3865dd58	5.4803997e-05
242	0x3c133913	0.0089857755
243	0xb9d632d8	-0.00040855142
244	0x3865d9a8	5.4800563e-05
245	0x3b2eff44	0.0026702443
246	0x3b76986a	0.0037627467
247	0x3a18328a	0.0005805871
248	0x38e5ff60	0.00010967138
249	0x3b1b9ec4	0.0023745755
250	0xbbfaee5c	-0.007657809
251	0xbae4c1ec	-0.0017452813
252	0x3d5a26e4	0.053259745
253	0xbb4ae0d7	-0.003095677
254	0x3d07e53c	0.0331776
255	0xbb5519ba	-0.0032516555

exp_avg_sq f4 [128, 12]
0	0x3cb77a7a	0.022397269
1	0x38dd7a5a	0.00010560891
2	0x3cb465ad	0.022021139
3	0x3c0e3e15	0.008681794
4	0x38dd0141	0.00010538335
5	0x3cf32570	0.029680938
6	0x3a8e5530	0.0010859128
7	0x3a3b6e86	0.0007149953
8	0x39366d46	0.0001739758
9	0x3b1d59ab	0.0024009745
10	0x3afd03a6	0.0019303455
11	0x3aeda934	0.0018132091
12	0x3c9d9d3d	0.019240016
13	0x38ac8c72	8.227759e-05
14	0x3c9bf2b3	0.019036626
15	0x3c20c251	0.009811954
16	0x38ac2797	8.208973e-05
17	0x3cd92a5e	0.02650946
18	0x3a9f94c4	0.0012175073
19	0x3a2b1099	0.00065256056
20	0x395e1167	0.00021178053
21	0x3b17bb00	0.0023152232
22	0x3afc10da	0.0019231096
23	0x3b166510	0.0022948422
24	0x3c375102	0.011188747
25	0x38497e09	4.8039514e-05
26	0x3c01c93a	0.007921511
27	0x3bc64fee	0.006052009
28	0x3848aaf6	4.7842936e-05
29	0x3c884677	0.016635163
30	0x3a7dd37a	0.00096826965
31	0x39d0f375	0.0003985424
32	0x38e78815	0.000110402856
33	0x3aa3b12d	0.0012488716
34	0x3abeb1e9	0.0014548871
35	0x3a9fa822	0.0012180845
36	0x3c881968	0.016613677
37	0x38b07143	8.4134306e-05
38	0x3c85f6b4	0.016352989
39	0x3bc89685	0.006121459
40	0x38b05a91	8.409203e-05
41	0x3cac8b05	0.021062383
42	0x3a47fe8c	0.0007629178
43	0x3a22a143	0.00062038394
44	0x39013960	0.00012323773
45	0x3ac12ed5	0.0014738688
46	0x3ad070ad	0.0015902721
47	0x3aa7f621	0.0012814441
48	0x3ba3aa39	0.0049946574
49	0x37e716bf	2.7547938e-05
50	0x3bcd2a67	0.0062611583
51	0x3b199824	0.002343663
52	0x37e6c74f	2.7510947e-05
53	0x3c0b7105	0.008510833
54	0x39f2cb6e	0.00046309404
55	0x39993e73	0.00029228962
56	0x38334d31	4.2748816e-05
57	0x3a863944	0.0010240455
58	0x3a2608f0	0.0006333729
59	0x3a301db6	0.00067182945
60	0x3c4c22bf	0.012459456
61	0x3850e327	4.9802617e-05
62	0x3c534a55	0.01289614
63	0x3bb00675	0.0053718635
64	0x385061ef	4.9682272e-05
65	0x3c498176	0.012298932
66	0x3a509840	0.00079572573
67	0x39dea016	0.00042462413
68	0x38f96cce	0.00011893512
69	0x3aa4a8bd	0.0012562495
70	0x3a80788a	0.0009801548
71	0x3a8c7ba0	0.0010717995
72	0x3c788dfe	0.015170572
73	0x388c8665	6.700753e-05
74	0x3c845bf0	0.01615712
75	0x3bb89dde	0.0056340536
76	0x388c7fcd	6.699525e-05
77	0x3ca20a8a	0.019780416
78	0x3a18b53c	0.0005825346
79	0x39e962c2	0.00044514803
80	0x38e4b48f	0.00010905519
81	0x3a9b78f5	0.001186161
82	0x3af6c09e	0.0018825715
83	0x3ab3ecc8	0.0013727183
84	0x3bc8e8a9	0.006131251
85	0x37cfeaf1	2.4785726e-05
86	0x3bbc0ea8	0.005739052
87	0x3b1e1086	0.0024118735
88	0x37cf67e4	2.47247e-05
89	0x3ba37221	0.0049879705
90	0x39a7fb98	0.00032040174
91	0x392e7b9b	0.0001663998
92	0x387a14ba	5.9623948e-05
93	0x3a11584a	0.0005544467
94	0x39f9f405	0.0004767479
95	0x39d7bac7	0.00041147156
96	0x3c830bcf	0.015996842
97	0x388e87b1	6.796362e-05
98	0x3c976848	0.018482342
99	0x3bcaf8c5	0.0061942064
100	0x388dfa14	6.7699846e-05
101	0x3ca9a9c7	0.020710839
102	0x3a9294b2	0.0011183231
103	0x3a141473	0.0005648799
104	0x391f427a	0.00015188186
105	0x3ae60f48	0.0017552162
106	0x3abf5420	0.0014597215
107	0x3af8c5c9	0.0018979843
108	0x3c2427a6	0.010019219
109	0x3842f0a5	4.6477322e-05
110	0x3c121fa7	0.008918679
111	0x3b42c406	0.002971889
112	0x3842d5d9	4.6452365e-05
113	0x3c269ece	0.010169698
114	0x39f47f11	0.00046633978
115	0x39a49fa5	0.00031399462
116	0x38b14ac3	8.453943e-05
117	0x3aa211ee	0.0012364963
118	0x3a373ab4	0.00069896434
119	0x3a6a7379	0.00089435984
120	0x3c8e8f2a	0.01740225
121	0x38aeecc6	8.341069e-05
122	0x3c90d93e	0.017681714
123	0x3c0d5a6f	0.008627518
124	0x38ae6d04	8.317272e-05
125	0x3ccf6074	0.025314547
126	0x3a8eb432	0.0010887443
127	0x3a536888	0.00080645876
128	0x39217f0a	0.00015401482
129	0x3b37f15a	0.002806744
130	0x3ad56717	0.0016281334
131	0x3b20bbbe	0.0024525966
132	0x3c2942e3	0.010330888
133	0x381b2005	3.69847e-05
134	0x3bc219db	0.0059234924
135	0x3b0b9b5f	0.0021302325
136	0x381b0090	3.6955404e-05
137	0x3c2d37ef	0.010572418
138	0x3a08c1e2	0.0005216879
139	0x398712bd	0.00025763168
140	0x38928623	6.9868074e-05
141	0x3a5d6b35	0.0008446456
142	0x3a51bb62	0.00080006395
143	0x3a1830e7	0.0005805627
144	0x3d063161	0.032761935
145	0x394af8f8	0.0001935697
146	0x3d20f8ce	0.03929978
147	0x3c702dc9	0.0146593535
148	0x394a6337	0.00019301182
149	0x3d6b003c	0.05737327
150	0x3b613963	0.003436648
151	0x3af3599e	0.0018566137
152	0x3997d6d5	0.00028961027
153	0x3b935857	0.004496615
154	0x3b8b1da1	0.0042454754
155	0x3b910e3d	0.004426746
156	0x3bdbe4ae	0.0067106104
157	0x37def663	2.6579195e-05
158	0x3be0e1a7	0.0068628374
159	0x3b6bd109	0.003598275
160	0x37dca337	2.6302047e-05
161	0x3c130bcf	0.008974983
162	0x39f072fe	0.00045862043
163	0x3990bf71	0.00027608455
164	0x38a07a7d	7.65221e-05
165	0x3a740394	0.00093083945
166	0x3a446c3e	0.0007492936
167	0x3a3ad980	0.0007127747
168	0x3adecfa3	0.0016999136
169	0x36e1dbbf	6.7311043e-06
170	0x3b090dfb	0.0020912874
171	0x39b8b2a9	0.00035228327
172	0x36e14f57	6.714759e-06
173	0x3b1116c9	0.0022138825
174	0x391289e7	0.00013975018
175	0x3913a106	0.00014078998
176	0x377ab481	1.4943188e-05
177	0x39614887	0.0002148469
178	0x38e0fecf	0.00010728614
179	0x391ad529	0.00014765993
180	0x3bc4ecb1	0.006009661
181	0x37c9671f	2.4009087e-05
182	0x3b9f93cf	0.004869915
183	0x3b2c0a1f	0.002625115
184	0x37c98dde	2.402713e-05
185	0x3be68076	0.0070343567
186	0x39a91686	0.00032250973
187	0x394ba8be	0.0001942245
188	0x382c12b8	4.102543e-05
189	0x3a4363b6	0.0007453518
190	0x3a23dfde	0.00062513154
191	0x3a40d8b9	0.0007356513
192	0x3d498362	0.049197562
193	0x3936660b	0.00017394887
194	0x3d1ef457	0.03880724
195	0x3c7d8b4c	0.0154751055
196	0x39353453	0.00017280997
197	0x3d61fa42	0.055170305
198	0x3b355dbe	0.0027674283
199	0x3aabb111	0.0013099035
200	0x39c821e6	0.0003817223
201	0x3b64f785	0.0034937572
202	0x3b72245b	0.003694794
203	0x3b85c54a	0.0040823566
204	0x3b09e88f	0.0021043157
205	0x36b40a3e	5.3656104e-06
206	0x3b0938e6	0.0020938455
207	0x399b51db	0.0002962489
208	0x36b438ea	5.3710437e-06
209	0x3ad86c7a	0.0016511821
210	0x38caa5f2	9.66302e-05
211	0x384ea930	4.9271795e-05
212	0x37651558	1.3654433e-05
213	0x38fb78dc	0.000119911245
214	0x38e25ea7	0.0001079415
215	0x39283434	0.00016041176
216	0x3b4b6da6	0.0031040697
217	0x37787176	1.4808369e-05
218	0x3b8de58c	0.0043303426
219	0x3ae4091a	0.0017397732
220	0x3775e80a	1.4657164e-05
221	0x3b8a0c36	0.0042128814
222	0x397fd7ac	0.00024399039
223	0x38ed4d48	0.000113154354
224	0x382aef21	4.0753865e-05
225	0x39c98bf1	0.00038441972
226	0x39c3e7d0	0.00037366012
227	0x39fedacb	0.0004860967
228	0x3d3b4bdc	0.045726642
229	0x39541934	0.00020227284
230	0x3d39cbb9	0.0453603
231	0x3cadeb92	0.021230493
232	0x395249ca	0.00020054649
233	0x3d8258da	0.06364603
234	0x3b2bc14f	0.002620775
235	0x3ad56e6d	0.001628352
236	0x39e2fa68	0.00043292646
237	0x3bc24cbc	0.0059295576
238	0x3b9aea23	0.0047276183
239	0x3ba0f30b	0.0049117855
240	0x3bfe0a48	0.0077526905
241	0x381811ba	3.6256133e-05
242	0x3c148b43	0.009066406
243	0x3b1e226a	0.00241294
244	0x3817d8bd	3.620306e-05
245	0x3c2f1a49	0.010687419
246	0x39df3bfb	0.00042578563
247	0x398c2002	0.00026726729
248	0x386ee162	5.6953526e-05
249	0x3a489205	0.0007651153
250	0x3a4194f3	0.0007384561
251	0x3a7a0de9	0.0009538816
252	0x3d04306b	0.032272737
253	0x38e06db0	0.00010701583
254	0x3cc5a4c8	0.024126425
255	0x3bf990af	0.0076161246

exp_avg f4 [128]
0	0x3aa3c58d	0.0012494788
1	0x3afcb33a	0.0019279488
2	0x3a15852b	0.00057037425
3	0x3a6a6a33	0.00089422165
4	0xb94c2f35	-0.00019472542
5	0xbb2d1754	-0.002641161
6	0x3aa02581	0.0012218208
7	0x37b29380	2.1287939e-05
8	0x3b233f6e	0.0024909633
9	0x3aa4478b	0.0012533528
10	0xbb17c1da	-0.0023156316
11	0x3aaad55b	0.0013033556
12	0xbb7b9f64	-0.0038394565
13	0xba6c1bea	-0.0009006845
14	0xba2345f0	-0.0006228378
15	0x3a23a536	0.0006242575
16	0x3bf9c008	0.007621769
17	0xb72b1a60	-1.0198535e-05
18	0xba6a8fd1	-0.0008947822
19	0x3b2e1232	0.0026561138
20	0x38e5dd58	0.000109607994
21	0xbbcae0d7	-0.006191354
22	0xb85b0bc1	-5.2224616e-05
23	0xba428a8a	-0.00074211566
24	0xb819612d	-3.6568545e-05
25	0xba2b3d09	-0.0006532227
26	0xb9bb6d0c	-0.00035748666
27	0x38b801a0	8.7741064e-05
28	0x3b9d1cfc	0.004794715
29	0xba41e295	-0.0007396129
30	0x3997e8ea	0.000289745
31	0xbac25662	-0.001482677
32	0xba5339b0	-0.00080576073
33	0x390a0c9c	0.00013165403
34	0xbb573cbf	-0.0032842604
35	0x39d23b7c	0.0004009864
36	0xbb04d454	-0.002026816
37	0x3a85157a	0.0010153495
38	0x38a8390f	8.021492e-05
39	0xbaa6f38e	-0.001273738
40	0xb8018ec7	-3.088897e-05
41	0xbb5dd422	-0.0033848365
42	0xbaa9e4d6	-0.0012961875
43	0xba4b763f	-0.00077614555
44	0xbb31bc35	-0.0027120237
45	0x3924aade	0.00015703912
46	0x3b166eff	0.0022954342
47	0xb8cb9da0	-9.709154e-05
48	0x3b50dce3	0.003186994
49	0x38260a0c	3.958684e-05
50	0xbaf7701a	-0.0018878013
51	0xbaa00373	-0.0012208059
52	0x3b1132ea	0.0022155591
53	0xbab6a3b1	-0.0013934282
54	0x385c0046	5.2452342e-05
55	0xba431f96	-0.00074433663
56	0xbb493cb4	-0.0030706348
57	0xba32a8c9	-0.0006815312
58	0xb855ff9c	-5.1021212e-05
59	0x3a32a7cd	0.00068151654
60	0x3b67ee7d	0.0035389953
61	0xba08a7a0	-0.00052129664
62	0xbb2d3cb4	-0.0026433887
63	0xbb828452	-0.003983059
64	0x366adb40	3.4996337e-06
65	0xb9651bfd	-0.00021849568
66	0x3a0207ee	0.0004960288
67	0xb94311c1	-0.00018603263
68	0x3a07330e	0.0005157449
69	0x3a43c4d6	0.00074679905
70	0xba11f31a	-0.0005567536
71	0x3a50286c	0.00079405936
72	0xb80a8730	-3.3027667e-05
73	0x3b10ab61	0.0022074806
74	0x3ab00e8e	0.0013432072
75	0x3925de48	0.00015818432
76	0xbaedf144	-0.0018153568
77	0xb954f388	-0.00020308618
78	0xb9e1db68	-0.00043078815
79	0x390ad54c	0.00013240165
80	0xba770ef0	-0.0009424528
81	0x3a76d4c2	0.00094158587
82	0x3b846a5a	0.0040409984
83	0xbafa7d72	-0.0019110872
84	0xbb81e186	-0.003963652
85	0xb7bf6a10	-2.2818364e-05
86	0xba278b8c	-0.00063913385
87	0xba1480e8	-0.00056649605
88	0xbb83f8f5	-0.0040274807
89	0x3af94d5d	0.0019020248
90	0x3abd552f	0.0014444942
91	0x37048999	7.89985e-06
92	0xbb6c8d94	-0.003609513
93	0xba0a4708	-0.00052748667
94	0xbb3b5b88	-0.0028588492
95	0x3b0bb46d	0.002131726
96	0xba6c5a3d	-0.0009016132
97	0x3b5cc901	0.0033689144
98	0xbbbc888e	-0.0057535833
99	0x39b6894e	0.00034816045
100	0x3b8d30da	0.004308802
101	0xba030d88	-0.000499927
102	0x3be28816	0.0069131954
103	0x398c6959	0.0002678137
104	0xbb7dca44	-0.0038725296
105	0x3af6f166	0.0018840253
106	0x3a237f65	0.000623694
107	0xb92c2c84	-0.00016419782
108	0xbb99e84f	-0.004696883
109	0x3aedbc97	0.0018137869
110	0xb7e33b5a	-2.7088146e-05
111	0x38cd5710	9.7913784e-05
112	0xb8a43022	-7.829095e-05
113	0x3a806efe	0.0009798703
114	0xbb044682	-0.0020183627
115	0x39a3d3c0	0.0003124755
116	0xb91ac378	-0.00014759402
117	0x3a198c30	0.00058573764
118	0x3ad92d7c	0.0016569342
119	0xbb0902ee	-0.0020906287
120	0xb8c7cc68	-9.527133e-05
121	0xb9f9bc3b	-0.00047633224
122	0x392dc650	0.00016572443
123	0xbaddf678	-0.0016934415
124	0xba78c982	-0.0009490476
125	0xb6baea50	-5.5705095e-06
126	0xbc2ee194	-0.010673899
127	0xbbb004d0	-0.0053716674
