ML Agents tutorial/Assets/results/RollerBall/RollerBall/RollerBall-14104.onnx (onnx, 75769 bytes, 8 tensors)

network_body._body_endoder.seq_layers.0.weight f4 [128, 8]
-0.30747336 0.09199989 0.10851236 0.04692001 -0.12848674 -0.13864999 0.44615147 0.3259976
0.6842426 -0.1317633 -0.049077705 -0.025188109 -0.1865539 0.12148602 0.36198965 0.30526757
-0.23906982 0.20486929 0.007660462 0.14936055 -0.36858937 0.2726584 0.36697435 0.12062391
0.088745385 -0.25476593 0.14987305 -0.100897074 -0.2317861 0.92115533 -0.07551053 -0.06532936
0.2931539 0.111246504 0.1034907 -0.6844693 -0.1499963 0.35039753 -0.34727466 -0.18698567
0.9852501 0.15655623 0.40442044 -0.41680372 -0.44207546 0.16170605 -0.012994001 0.49860847
-0.0845751 0.34908295 0.10904559 -0.49299574 0.23073086 0.19456492 0.936806 0.11241779
0.13321611 -0.14419451 0.08477491 -0.4202493 -0.07166424 -0.005615695 0.53445345 0.02392887
-0.6177828 -0.412554 -0.03485915 0.4898428 -0.3652975 0.2665875 0.17793891 0.229742
0.30561727 -0.19215666 -0.18117584 -0.21400064 0.049371846 0.2169266 0.022567436 -0.4372772
-0.033954598 -0.10174106 -0.43307686 0.7870057 -0.1830828 0.36801732 0.36714846 -0.1634853
0.3254618 0.109485775 -0.28147346 -0.10888019 -0.31798714 -0.7238896 -0.06780354 0.09911601
-0.01817869 -0.32757798 0.1901425 -0.26502845 0.64895535 0.11222434 0.01343289 0.49317273
-0.009095346 -0.5850361 -0.11708053 -0.67138696 0.96517676 -0.46882626 -0.109090395 0.6476496
0.06143816 -0.08987648 0.2169361 -0.57872 0.60746396 -0.028038057 0.5267979 -0.15237197
-0.31290886 -0.5451331 0.78438354 0.9085136 0.40933853 0.2942777 -0.35575202 0.25954238
-0.55879694 0.26768595 0.27589798 0.18863685 -0.5001593 -0.21605362 -0.24170788 0.24927142
0.08347339 -0.12555645 -0.14179921 -0.060316123 -0.82952005 -0.41710985 -0.27220672 -0.08055644
0.13858806 -0.16893129 -0.10724608 -0.5094247 -0.12919971 -0.64329267 -0.36792108 -0.09121297
-0.9182595 0.17140138 -0.44645965 0.20359145 -0.03581274 -0.67863697 -0.023933202 0.17125534
-0.12406271 -0.4489542 0.42134187 -0.027093533 0.63087773 0.12705065 -0.41657358 0.64918333
0.10931461 -0.39843526 -0.05086734 0.23718518 -0.24971564 -0.68139803 -0.48838308 0.36592755
-0.041576967 -0.14841218 0.3969431 -0.25101295 -0.39344868 -0.0004937899 -0.15147966 -0.042224154
0.02443439 0.5690016 -0.20714 0.25195777 0.13953336 0.38199514 0.27334398 0.14097069
-0.11012866 0.6126381 -0.3129524 -0.23410912 0.3588812 0.1926196 -0.6277307 -0.059046935
0.14943399 0.41237116 -0.6662066 -0.13984261 -0.49489143 -0.49234733 -0.3504754 -0.24567531
-0.19312441 0.26699135 0.24796368 0.08672542 0.03375046 0.43034688 0.69755375 0.10826675
-0.14339602 0.14799501 -0.46081638 0.0031265158 0.23324087 -0.010569213 0.64682406 0.07018095
-0.07584833 0.03574884 -0.45299247 0.15525335 0.08641291 -0.23193955 0.80743384 -0.32172042
-0.06690148 0.08853445 -0.18859471 -0.1959607 0.1809914 -0.14083567 -0.20829175 0.5435232
-0.15192004 -0.17558677 -0.40327913 -0.40376228 0.30083182 -0.4483366 0.0058837207 0.7900426
0.059889004 0.4333989 -0.10653202 0.12500022 -0.3680925 -0.122582614 0.84854734 0.48363245
00000000: 266d 9dbe 706a bc3d ba3b de3d 322f 403d
00000010: 0792 03be 43fa 0dbe f76d e43e 28e9 a63e
00000020: 862a 2f3f f5ec 06be b405 49bd 4b57 cebc
00000030: fc07 3fbe aacd f83d b556 b93e 084c 9c3e
00000040: b8ce 74be 41c9 513e 9d04 fb3b f9f1 183e
00000050: bfb7 bcbe e299 8b3e 10e4 bb3e ab09 f73d
00000060: 24c0 b53d ae70 82be 5278 193e 20a3 cebd
00000070: 5659 6dbe d6d0 6b3f 44a5 9abd 66cb 85bd
00000080: 4518 963e 35d5 e33d eff2 d33d 6139 2fbf
00000090: a198 19be 4e67 b33e fccd b1be 2c79 3fbe
000000a0: 5a39 7c3f 4750 203e 3210 cf3e 4c67 d5be
000000b0: b757 e2be 4596 253e cae4 54bc 9c49 ff3e
000000c0: b635 adbd 00bb b23e 4b53 df3d f069 fcbe
000000d0: b644 6c3e 073c 473e 85d2 6f3f 4c3b e63d
000000e0: ce69 083e baa7 13be 789e ad3d eb2a d7be
000000f0: b3c4 92bd dd03 b8bb f1d1 083f 7a06 c43c
00000100: 0327 1ebf 473a d3be 78c8 0ebd adcc fa3e
00000110: 4608 bbbe 287e 883e 9e35 363e 7d41 6b3e
00000120: de79 9c3e b7c4 44be 2986 39be fc22 5bbe
00000130: 223a 4a3d 0222 5e3e 58df b83c cce2 dfbe
00000140: fa13 0bbd 9e5d d0bd 40bc ddbe 3579 493f
00000150: 0f7a 3bbe c46c bc3e e2fa bb3e b168 27be
00000160: eea2 a63e 143a e03d 4a1d 90be 94fc debd
00000170: 36cf a2be d450 39bf 95dc 8abd 56fd ca3d
00000180: 7aeb 94bc 4db8 a7be b7b4 423e cfb1 87be
00000190: f021 263f e0d5 e53d a015 5c3c 2381 fc3e
000001a0: a504 15bc edc4 15bf ebc7 efbd 04e0 2bbf
000001b0: d315 773f ff09 f0be c96a dfbd 5dcc 253f
000001c0: 94a6 7b3d 2911 b8bd 7f24 5e3e fe26 14bf
000001d0: c282 1b3f 11b0 e5bc 3adc 063f 6607 1cbe
000001e0: 9735 a0be d88d 0bbf 5ccd 483f 5994 683f
000001f0: d294 d13e 91ab 963e 2125 b6be bde2 843e
00000200: 510d 0fbf 220e 893e 8042 8d3e 052a 413e
00000210: 710a 00bf 293d 5dbe 4582 77be 0241 7f3e
00000220: 19f4 aa3d df91 00be d033 11be 0a0e 77bd
00000230: 6d5b 54bf 6c8f d5be ae5e 8bbe c6fa a4bd
00000240: 07ea 0d3e 53fc 2cbe d5a3 dbbd a869 02bf
00000250: ee4c 04be d4ae 24bf 2760 bcbe decd babd
00000260: 0e13 6bbf d883 2f3e 5c96 e4be 477a 503e
00000270: 61b0 12bd 27bb 2dbf 900f c4bc 8f5d 2f3e
00000280: 9714 febd 53dd e5be 1fba d73e 42f3 ddbc
00000290: 3481 213f 9119 023e 2249 d5be e130 263f
000002a0: 57e0 df3d b5ff cbbe 465a 50bd ace0 723e
000002b0: 75b5 7fbe 1a70 2ebf 590d fabe db5a bb3e
000002c0: 9c4c 2abd 5df9 17be 203c cb3e c584 80be
000002d0: 1b72 c9be ae71 01ba 7c1d 1bbe 3cf3 2cbd
000002e0: a12a c83c 17aa 113f 821c 54be 9c00 813e
000002f0: d5e1 0e3e de94 c33e bef3 8b3e 9f5a 103e
00000300: 238b e1bd dad5 1c3f 4c3b a0be 4dba 6fbe
00000310: 47bf b73e 133e 453e f6b2 20bf 33db 71bd
00000320: 3905 193e 5022 d33e 848c 2abf e732 0fbe
00000330: 6962 fdbe f314 fcbe 8371 b3be 4f92 7bbe
00000340: 68c2 45be 17b3 883e 31ea 7d3e 199d b13d
00000350: ec3d 0a3d 6d56 dc3e e292 323f f5ba dd3d
00000360: 68d6 12be 018c 173e 20f0 ebbe 3be6 4c3b
00000370: b2d6 6e3e 7e2a 2dbc 4396 253f 08bb 8f3d
00000380: 5f56 9bbd 606d 123d a1ee e7be bcfa 1e3e
00000390: 40f9 b03d 9081 6dbe fcb3 4e3f 8ab8 a4be
000003a0: a503 89bd 8d51 b53d f91e 41be eca9 48be
000003b0: cf55 393e 3a37 10be 6f4a 55be 5624 0b3f
000003c0: ed90 1bbe 05cd 33be 9a7a cebe eeb9 cebe
000003d0: a106 9a3e 608c e5be 3acc c03b 3b40 4a3f
000003e0: 2c4e 753d 76e6 dd3e 762d dabd 0f00 003e
000003f0: 9f76 bcbe 980c fbbd 663a 593f ac9e f73e

network_body._body_endoder.seq_layers.0.bias f4 [128]
-0.02736537 -0.008623661 -0.031707775 -0.012363634 -0.010286605 -0.02023128 -0.012658426 -0.0057748784
-0.026504455 -0.0027844727 -0.014605409 -0.0031977124 -0.0021045147 0.008498394 -0.008385445 0.026651291
0.012769549 -0.004482461 0.007893305 -0.02900704 -0.004404894 0.0105794445 -0.003687271 -0.00029076939
0.034324326 -0.0036985201 -0.024476103 -0.022445044 -0.014153803 -0.023493009 0.0014787781 0.020225827
-0.017178344 -0.013657155 -0.042063944 0.02429698 0.014316646 0.012197508 -0.0039449534 -0.029594002
-0.01978712 -0.025207954 0.039426625 -0.015960833 -0.009325853 -0.007862485 0.0031005323 0.0046911696
-0.0048634643 0.008571324 -0.009732743 -0.00832994 0.01639012 0.018287875 0.002942048 -0.00775594
-0.022953428 -0.02700735 0.011352281 -0.0045768456 -0.010200925 0.024926743 -0.007825838 0.025382677
-0.004472323 0.0024491865 -0.0048834737 0.013203613 0.0337046 -0.015363521 0.008413285 0.011879206
0.005571169 -0.004493972 0.018726926 0.01699558 -0.027110277 0.00095814175 -0.0065558827 -0.035430968
-0.004220886 -0.016353572 0.0037975681 0.030460974 0.011284463 0.020596104 0.0005350926 -0.012669849
-0.011561582 0.030507274 0.008293453 -0.012699016 -0.0060234726 -0.003279344 0.018060768 0.0070738313
-0.029354014 -0.026168037 0.0025764597 -0.030172467 -0.012142994 0.022273352 0.0119743105 0.02246773
-0.0014108883 -0.022917438 0.020473147 0.025903521 -0.02004473 0.026849456 0.032680966 -0.019942876
-0.01340485 0.002469834 0.008627722 -0.025874402 0.02842465 0.014178646 0.013284797 -0.01961376
-0.0043333345 0.019874208 0.023676462 0.0031607011 -0.013092657 -0.042793438 -0.00802236 0.0282737
00000000: 572d e0bc 414a 0dbc 03e0 01bd d790 4abc
00000010: 2689 28bc 12bc a5bc 4965 4fbc 313b bdbb
00000020: df1f d9bc b37b 36bb 864b 6fbc b690 51bb
00000030: e6eb 09bb d93c 0b3c 1b63 09bc cf53 da3c
00000040: 5f37 513c 9ce1 92bb ec52 013c 2ca0 edbc
00000050: ee56 90bb 6855 2d3c 24a6 71bb 6872 98b9
00000060: aa97 0c3d df62 72bb 1c82 c8bc abde b7bc
00000070: 5ae5 67bc 6974 c0bc 8fd3 c13a a2b0 a53c
00000080: 99b9 8cbc 43c2 5fbc 3e4b 2cbd 760a c73c
00000090: 5e90 6a3c 0ed8 473c ab44 81bb 1f6f f2bc
000000a0: 9918 a2bc e980 cebc d07d 213d 4bc0 82bc
000000b0: 76cb 18bc a7d1 00bc 4d32 4b3b 62b8 993b
000000c0: b25d 9fbb bd6e 0c3c 1576 1fbc 4d7a 08bc
000000d0: 9344 863c 74d0 953c 60cf 403b 8a25 febb
000000e0: d408 bcbc 853e ddbc ebfe 393c 5df9 95bb
000000f0: c821 27bc 2b33 cc3c f237 00bc 55ef cf3c
00000100: 918c 92bb 8882 203b 8c05 a0bb f853 583c
00000110: d60d 0a3d 47b7 7bbc e0d7 093c 00a1 423c
00000120: 5a8e b63b 2b42 93bb 3669 993c 513a 8b3c
00000130: 5f16 debc ce2b 7b3a bbd2 d6bb 1020 11bd
00000140: 5c4f 8abb edf7 85bc 9fe0 783b 4b89 f93c
00000150: 78e2 383c 29b9 a83c 7545 0c3a 3395 4fbc
00000160: ca6c 3dbc 64ea f93c 43e1 073c 890f 50bc
00000170: 8d60 c5bb 43ea 56bb 2df4 933c 99cb e73b
00000180: d477 f0bc 5a5e d6bc d2d9 283b 402c f7bc
00000190: 69f3 46bc 9b76 b63c e62f 443c 3f0e b83c
000001a0: 8eed b8ba 5abd bbbc 4db7 a73c 9f33 d43c
000001b0: d834 a4bc 64f3 db3c 7adc 053d 3e5f a3bc
000001c0: 04a0 5bbc f0dc 213b 4a5b 0d3c 8ef6 d3bc
000001d0: d0da e83c 8d4d 683c 7aa8 593c 09ad a0bc
000001e0: a5fe 8dbb 3ccf a23c 24f5 c13c c423 4f3b
000001f0: 9582 56bc 2c48 2fbd 3770 03bc 3f9e e73c

network_body._body_endoder.seq_layers.2.weight f4 [128, 128]
0.04892725 -0.14065614 -0.048963297 0.11004877 -0.06612255 0.013763661 0.05882578 -0.033796247
0.008235113 0.09439978 0.11578822 -0.06974378 -0.030628469 0.05961016 0.118153974 0.078526676
-0.02184473 0.0007652859 -0.06881791 0.050783496 -0.017519297 0.084544696 -0.00298136 -0.14167465
0.037307248 0.030396214 0.046202272 -0.10120559 0.23075108 0.0037813778 0.14319366 0.006123051
-0.07902591 -0.07764994 -0.041631017 -0.053570274 -0.10401357 0.07806814 0.11207202 -0.11703684
-0.10537605 -0.18505983 0.024122404 0.27953836 -0.1879099 0.018333232 0.011545374 0.030787077
0.05886337 0.1637324 -0.03917673 -0.098368816 -0.072807804 -0.020106485 0.030837951 0.030056356
-0.036805063 -0.09526646 -0.15007176 -0.014890888 -0.0023389393 -0.0894583 0.0155505985 -0.11856246
0.07567064 0.116012536 -0.06253593 -0.0064382795 0.07043338 -0.041574422 0.06118888 0.2628818
-0.15781522 -0.02797642 -0.122329175 -0.103270315 0.008373484 -0.033311628 0.025706876 0.026717795
0.02411109 -0.02740172 0.0031733508 -0.02092128 -0.10953158 -0.03115139 -0.07614616 -0.0057822894
-0.17913255 0.12948543 -0.10806767 -0.12908888 -0.14347968 -0.09880955 -0.046728652 0.03944306
-0.035426248 -0.05485674 0.14517547 -0.06381053 -0.0782143 0.121304944 -0.13300405 0.007167128
-0.037244815 0.10068089 0.008170608 0.042597864 -0.09870173 -0.10075834 -0.042507432 -0.025479846
-0.01710796 -0.039668914 0.07960959 0.06470543 0.08403418 0.040440153 -0.07361206 0.097464606
-0.1063242 0.05334567 -0.17071871 -0.06232516 0.047455557 -0.11839309 0.043351788 -0.11204859
-0.10654915 0.10007509 -0.020919222 0.010618321 -0.064872935 -0.04903973 -0.044117536 0.00432989
-0.03759687 -0.04584587 0.101896755 -0.04042035 0.093399346 -0.11244249 0.03617815 0.048800647
0.001033678 -0.0032981872 0.08999016 0.0542056 0.10503986 0.006505871 0.16722363 0.009620526
-0.027844407 0.03789747 -0.05148955 0.04882839 0.08451445 -0.13151416 -0.16255212 0.10576903
-0.032731324 0.113245845 -0.02235525 -0.0041906983 0.008416669 0.055225283 -0.07975886 0.015611246
0.27159128 0.10482516 -0.06684652 -0.05292435 0.029215602 0.054263756 -0.031215759 0.027732892
-0.05959133 -0.0058279713 -0.017021922 -0.06907285 0.12457744 -0.07452722 -0.022032974 -0.030883497
-0.040270332 0.043593414 -0.0017127041 -0.07636557 0.03262915 -0.016305622 0.023814142 -0.04571243
-0.08027765 0.120919466 -0.061057307 -0.13189583 -0.0939662 0.054943644 -0.15841417 0.038132414
0.12013717 0.01085301 -0.12770097 -0.0714183 0.15448435 -0.14562216 0.08149333 -0.016379243
0.11902184 -0.13096283 -0.08962169 0.097184926 0.18241636 -0.08547162 0.02149023 -0.057486292
0.073695846 -0.14221404 -0.029539632 -0.019276634 -0.17314464 -0.079837084 -0.086796075 -0.05837535
0.1287487 -0.14015323 -0.055825092 0.0991662 0.16976523 -0.09680297 0.022542108 -0.041071232
-0.14867835 0.098754935 -0.1267212 -0.041464556 -0.0090234745 0.0853727 -0.03904103 -0.045887925
-0.03153645 -0.0620757 0.043905716 0.14508368 -0.10384521 0.21827284 -0.05061036 -0.035540354
-0.14656109 0.07424619 0.01516827 0.22166735 0.06702793 0.02004956 -0.222317 -0.10836774
00000000: f167 483d 2a08 10be bd8d 48bd 4061 e13d
00000010: 426b 87bd fa80 613c 4df3 703d ef6d 0abd
00000020: 91ec 063c ac54 c13d 6022 ed3d d4d5 8ebd
00000030: 8ee8 fabc c829 743d b6fa f13d 98d2 a03d
00000040: b8f3 b2bc 789d 483a 68f0 8cbd 5b02 503d
00000050: a184 8fbc c525 ad3d ec62 43bb 2913 11be
00000060: 7ccf 183d 7b01 f93c 983e 3d3d e044 cfbd
00000070: 034a 6c3e fed0 773b 5ca1 123e e0a3 c83b
00000080: 56d8 a1bd ef06 9fbd 4985 2abd 816c 5bbd
00000090: 1105 d5bd 30e2 9f3d 0486 e53d 03b1 efbd
000000a0: 66cf d7bd 5380 3dbe 599c c53c a71f 8f3e
000000b0: 746b 40be 932f 963c cf28 3d3c 2e35 fc3c
000000c0: b81a 713d 77a9 273e c777 20bd 9775 c9bd
000000d0: 421c 95bd 5bb6 a4bc df9f fc3c bf38 f63c
000000e0: e8c0 16bd 101b c3bd 69ac 19be e9f8 73bc
000000f0: e448 19bb ea35 b7bd f0c7 7e3c e0d0 f2bd
00000100: 35f9 9a3d fb97 ed3d d612 80bd 34f8 d2bb
00000110: 603f 903d f149 2abd 31a1 7a3d 7198 863e
00000120: 509a 21be ce2e e5bc b887 fabd 637f d3bd
00000130: f030 093c c671 08bd 3a97 d23c 47df da3c
00000140: 9f84 c53c 9279 e0bc fef7 4f3b 1b63 abbc
00000150: 1852 e0bd 3331 ffbc 85f2 9bbd 5c79 bdbb
00000160: 866e 37be d497 043e 9552 ddbd e02f 04be
00000170: 56ec 12be a95c cabd 8b66 3fbd 0c8f 213d
00000180: 1d1b 11bd 76b1 60bd e1a8 143e 18af 82bd
00000190: d22e a0bd ba6e f83d 3732 08be 3ada ea3b
000001a0: 058e 18bd c831 ce3d 04de 053c 197b 2e3d
000001b0: 2224 cabd 635a cebd 461c 2ebd 1cbb d0bc
000001c0: fe25 8cbc df7b 22bd 5a0a a33d 4884 843d
000001d0: 1d1a ac3d 93a4 253d ebc1 96bd 869b c73d
000001e0: 81c0 d9bd fd80 5a3d e3d0 2ebe ab48 7fbd
000001f0: c260 423d 1478 f2bd a591 313d bb79 e5bd
00000200: 7136 dabd 2bf4 cc3d ca5e abbc 77f8 2d3c
00000210: 1adc 84bd e2dd 48bd 97b4 34bd c0e1 8d3b
00000220: 2dff 19bd e1c8 3bbd 3faf d03d cf8f 25bd
00000230: 2848 bf3d 4048 e6bd 8a2f 143d 30e3 473d
00000240: 7a7c 873a 6626 58bb c34c b83d b106 5e3d
00000250: 231f d73d 342f d53b ac3c 2b3e 699f 1d3c
00000260: f419 e4bc 613a 1b3d b5e6 52bd 4700 483d
00000270: e915 ad3d a6ab 06be 1074 26be 6f9d d83d
00000280: 4811 06bd 70ed e73d 5b22 b7bc 2052 89bb
00000290: 12e6 093c e833 623d 9d58 a3bd 50c6 7f3c
000002a0: 030e 8b3e 93ae d63d d4e6 88bd 34c7 58bd
000002b0: 8f55 ef3c ac43 5e3d 31b8 ffbc 1730 e33c
000002c0: 0a16 74bd 91f8 bebb 8f71 8bbc 1176 8dbd
000002d0: 7522 ff3d baa1 98bd 7f7e b4bc 63ff fcbc
000002e0: 81f2 24bd 028f 323d d07c e0ba 8d65 9cbd
000002f0: 25a6 053d 5e93 85bc e015 c33c f53c 3bbd
00000300: 9c68 a4bd a0a4 f73d 3a17 7abd b30f 07be
00000310: 5a71 c0bd 960c 613d 5337 22be bc30 1c3d
00000320: 7a0a f63d d3d0 313c 0bc4 02be c243 92bd
00000330: 2531 1e3e fa1d 15be fae5 a63d c32d 86bc
00000340: b9c1 f33d 1f1b 06be 948b b7bd e408 c73d
00000350: 5bcb 3a3e bf0b afbd 470c b03c bf76 6bbd
00000360: d9ed 963d 8fa0 11be 19fd f1bc 08ea 9dbc
00000370: d44c 31be a081 a3bd 24c2 b1bd fe1a 6fbd
00000380: b3d6 033e 5484 0fbe daa8 64bd a617 cb3d
00000390: f0d6 2d3e a340 c6bd 3aaa b83c 4f3a 28bd
000003a0: 233f 18be 0740 ca3d 34c3 01be bdd6 29bd
000003b0: 32d7 13bc e2d7 ae3d 7de9 1fbd faf4 3bbd
000003c0: 5d2c 01bd 1743 7ebd 7bd6 333d d190 143e
000003d0: ccac d4bd ea82 5f3e cf4c 4fbd c392 11bd
000003e0: 1c14 16be 630e 983d 5684 783c c4fc 623e
000003f0: f045 893d fa3e a43c 11a7 63be e8ef ddbd

network_body._body_endoder.seq_layers.2.bias f4 [128]
-0.007143446 0.023796163 -0.006796704 0.0066010184 0.036171626 -0.014948763 -0.014437576 -0.01908674
0.0029670193 0.022769181 -0.025980556 -0.012746742 0.010400444 -0.014121853 -0.0030013376 0.010744901
-0.014692772 -0.016280545 -0.02949103 -0.00034898374 -0.023155551 -0.0056114476 -0.014200154 0.028858464
-0.004541668 -0.024355546 -0.0031213886 -0.025663586 -0.010871167 -0.014802339 0.005873126 0.024755485
0.022253413 -0.008414392 0.015135483 0.0028531796 -0.0121785775 -0.011668037 -0.0069519663 -0.010356572
-0.019727936 -0.013160301 -0.024287265 -0.014525069 -0.021137983 0.0005404137 0.012065162 -0.015922224
0.0012776162 -0.008995968 0.01686998 -0.025186855 -0.019414349 0.02213995 0.0010412199 -0.01856254
-0.008906654 0.017828874 -0.016413515 -0.003418646 -0.003110769 0.0009384281 -0.013478263 -0.008191136
-0.027518801 0.0310652 -0.021468718 0.00012424414 0.011902612 0.009940893 -0.020614238 -0.008743296
-0.009931871 -0.023932375 0.022921864 -0.013425697 0.0114474045 -0.008154939 -0.0023351612 0.013119516
0.00700876 0.008316721 0.008653859 0.010692162 0.010320912 -0.00027305883 0.0026051668 -0.01604473
-0.0033253175 -0.0016665366 0.005488524 -0.014011738 0.012946394 -0.009116277 -0.017153714 0.0086366255
0.016311238 -0.023340413 -0.02575341 -0.007665501 -0.017417645 0.03611181 -0.010926998 -0.011247501
-0.021352772 -0.02112145 -0.010940352 -0.014983981 -0.004027789 -0.020515021 0.0099037215 -0.016110424
-0.0047513884 -0.016715318 0.0035274127 -0.02053015 -0.004462315 0.0063977 -0.023959495 0.015384203
-0.015897298 -0.006087942 0.0065389927 -0.018163702 -0.0050047 0.004817688 0.011290707 -0.011462205
00000000: 9113 eabb 2cf0 c23c e3b6 debb 5b4d d83b
00000010: b328 143d a8eb 74bc 958b 6cbc cc5b 9cbc
00000020: 5372 423b 6f86 ba3c 2dd5 d4bc b6d7 50bc
00000030: a066 2a3c 585f 67bc 17b2 44bb 620b 303c
00000040: f4b9 70bc c75e 85bc 2c97 f1bc cef7 b6b9
00000050: b6b0 bdbc 3ce0 b7bb c3a7 68bc 9668 ec3c
00000060: 46d2 94bb 4885 c7bc 3690 4cbb 713c d2bc
00000070: fb1c 32bc 8285 72bc 5a73 c03b 04cc ca3c
00000080: ca4c b63c 85dc 09bc d1fa 773c 69fc 3a3b
00000090: a888 47bc 4b2b 3fbc 52cd e3bb 9dae 29bc
000000a0: 7b9c a1bc 4e9e 57bc 16f6 c6bc 8efa 6dbc
000000b0: 9029 adbc 8daa 0d3a f5ac 453c 536f 82bc
000000c0: b075 a73a d363 13bc ea32 8a3c aa54 cebc
000000d0: d70a 9fbc d75e b53c 8b79 883a 7810 98bc
000000e0: 37ed 11bc dc0d 923c a375 86bc 5d0b 60bb
000000f0: 0bde 4bbb d800 763a efd3 5cbc 1d34 06bc
00000100: 1c6f e1bc 727c fe3c 2adf afbc 8847 0239
00000110: 2c03 433c 21df 223c 31df a8bc 0b40 0fbc
00000120: 49b9 22bc d40d c4bc a2c6 bb3c 74f7 5bbc
00000130: e58d 3b3c 4b9c 05bc 8109 19bb 3df3 563c
00000140: bda9 e53b db42 083c eac8 0d3c 2e2e 2f3c
00000150: 0b19 293c 5629 8fb9 72bb 2a3b 3d70 83bc
00000160: 92ed 59bb b06f daba 14d9 b33b 7d91 65bc
00000170: 1d1d 543c 705c 15bc f285 8cbc a280 0d3c
00000180: 259f 853c 6534 bfbc d1f8 d2bc e22e fbbb
00000190: 73af 8ebc fae9 133d 2707 33bc 7047 38bc
000001a0: 02ec aebc e406 adbc 2a3f 33bc 5f7f 75bc
000001b0: 8bfb 83bb 1e0f a8bc 3843 223c 02fa 83bc
000001c0: 89b1 9bbb 90ee 88bc 2a2c 673b d82e a8bc
000001d0: 9c38 92bb cca3 d13b b446 c4bc 060e 7c3c
000001e0: 0d3b 82bc 5c7d c7bb 0c45 d63b 0bcc 94bc
000001f0: 77fe a3bb b2dd 9d3b a8fc 383c f9cb 3bbc

action_model._continuous_distribution.log_sigma f4 [1, 2]
-0.009001958 -0.050978348
00000000: f37c 13bc acce 50bd

action_model._continuous_distribution.mu.weight f4 [2, 128]
0.002629316 -0.035698984 0.004343127 -0.015510304 0.0273121 -0.0016894323 -0.013213547 0.021652961
-0.007392408 -0.041885093 0.0012716325 -0.0037430422 0.041582502 -0.0022805012 0.0047853612 -0.06048677
0.0015145381 -0.004297918 -0.010676107 -0.0019848833 -0.01582826 -0.01883697 -0.032397833 0.027715253
-0.0010432225 -0.011499701 -0.04669593 -0.0027465606 -0.0019751755 -0.016741337 -0.013089008 0.0017339512
0.03497324 -0.019380596 0.037261188 0.0023971996 0.025940837 -0.011075221 -0.007665351 -0.0014511116
-0.009042634 -0.005099505 -0.009109007 0.0043402584 -0.01235653 -0.017427944 0.03517466 -0.00324251
0.01213506 -0.010153493 -0.061092533 -0.0025343657 -0.01806168 0.018273778 0.01758282 0.014314029
-0.0045469133 0.02496829 -0.008888635 -0.03376801 0.01058627 0.03215098 -0.0398131 -0.044359807
0.006176253 -0.04506242 -0.005713059 0.04227459 0.02540894 0.028038256 -0.014522952 0.020746574
-0.01920301 -0.016495762 0.04760576 -0.00048491437 -0.005597545 -0.001827191 -0.036284517 0.05053614
0.05498817 0.0076543214 -0.031225951 0.0071904436 0.045408845 0.009831704 0.012659673 0.01010914
-0.008659535 0.010221461 -0.014556085 -0.007456927 0.030703805 -0.004974736 0.0006904939 0.019723509
-0.0030799757 -0.015835725 -0.004050155 0.0051549585 0.017582431 0.034670558 -0.00658551 -0.01754456
0.0023749508 0.017265102 -0.015137867 -0.0073398026 -0.028775105 -0.019376196 -0.047166258 -0.014957236
0.007939058 -0.024333183 -0.026178058 -0.0015054826 -0.0026608142 -0.008525524 -0.03981097 0.024159204
-0.016746363 -0.043098032 -0.014301234 0.0025694617 -0.01561033 0.015045419 0.011010825 0.010658403
0.02949174 -0.0010190238 0.013969745 -0.04607719 -0.047988407 -0.008893095 0.004703185 0.021698
-0.033312604 -0.039411403 0.024637703 -0.0017389827 0.01546263 -0.00058540894 -0.0064284904 -0.030103406
-0.008379952 -0.0048909234 0.0068654288 -0.01417063 0.002355061 0.035350755 0.029016187 -0.028645188
-0.021705698 0.010456913 -0.039390672 0.004496661 -0.006036816 -0.021879995 0.0016978924 -0.007912715
0.012481169 -0.007813611 0.0053863847 0.012272036 0.0054875393 -0.012785176 -0.0019876447 -0.009409767
-0.008073714 0.027580973 0.0004713234 -0.007925385 -0.008925182 -0.015005624 0.006739039 -0.024151944
0.036506135 0.010204392 -0.0105295135 0.0068013016 0.0008910033 0.046197396 0.029260525 0.029242005
-0.006649255 0.052555926 -0.0060890513 -0.00019386341 -0.014032611 0.007887058 0.020973725 -0.014019645
0.003972652 -0.053554345 -0.004334732 0.009393893 -0.032786604 0.0047479277 -0.0017060196 -0.0026378583
-0.0127913095 0.0053454307 0.049804505 0.00016139908 -0.06373642 -0.0014410083 -0.022697708 0.006358283
-0.046957754 0.022055423 -0.0006912113 -0.028833965 0.023512898 -0.004668022 -0.010627946 0.025823817
-0.03157615 0.02883665 -0.043350462 0.024779335 0.039905757 -0.011534684 -0.0039177816 -0.0012000875
0.07876667 0.020664306 0.019578407 -0.0042833025 0.023173952 0.04257092 -0.009808147 -0.00929197
0.036264617 0.016675323 0.014961693 -0.0012973103 -0.0060128435 0.002610108 0.0038144048 0.03199682
0.007054333 0.0055649914 0.012060637 -0.008853358 -0.008735591 -0.033693723 0.016517116 0.026402675
0.000624913 -0.0074992008 0.036535397 -0.0059776115 -0.02651697 -0.0017289133 -0.021478102 0.009289704
00000000: 9a50 2c3b 1939 12bd ca50 8e3b ee1e 7ebc
00000010: a0bd df3c f16f ddba a27d 58bc 8d61 b13c
00000020: 033c f2bb b48f 2bbd e8ac a63a d44d 75bb
00000030: 6a52 2a3d 7674 15bb 85ce 9c3b fac0 77bd
00000040: 7783 c63a 8dd5 8cbb d7ea 2ebc d114 02bb
00000050: 44aa 81bc fd4f 9abc 97b3 04bd 190b e33c
00000060: bdbc 88ba 3e69 3cbc 3b44 3fbd a4ff 33bb
00000070: f271 01bb 2125 89bc 4773 56bc bf45 e33a
00000080: 1a40 0f3d 0ec4 9ebc 309f 183d 561a 1d3b
00000090: e181 d43c d874 35bc a02d fbbb 3a33 beba
000000a0: 8e27 14bc c019 a7bb f23d 15bc ba38 8e3b
000000b0: 0b73 4abc 0cc5 8ebc 4e13 103d 4a80 54bb
000000c0: 21d2 463c d65a 26bc 2a3c 7abd 9a17 26bb
000000d0: 17f6 93bc e4b2 953c d909 903c 6485 6a3c
000000e0: 46fe 94bb 4d8a cc3c a3a1 11bc 5350 0abd
000000f0: 0972 2d3c bfb0 033d 1013 23bd a1b2 35bd
00000100: 2a62 ca3b 5f93 38bd 9d34 bbbb 1f28 2d3d
00000110: 6926 d03c 7cb0 e53c adf1 6dbc b8f4 a93c
00000120: a14f 9dbc 1f22 87bc 42fe 423d 1b3c feb9
00000130: 9c6b b7bb 5b7e efba 139f 14bd fcfe 4e3d
00000140: 463b 613d 1ad1 fa3b 91cd ffbc d09d eb3b
00000150: a0fe 393d 2815 213c 846a 4f3c cea0 253c
00000160: b9e0 0dbc ea77 273c a57c 6ebc 3d59 f4bb
00000170: 8c86 fb3c 1c03 a3bb 4302 353a 3293 a13c
00000180: 6bd9 49bb ecb9 81bc 2ab7 84bb edea a83b
00000190: 0809 903c b702 0e3d 43cb d7bb 9cb9 8fbc
000001a0: 10a5 1b3b 8b6f 8d3c d104 78bc ba82 f0bb
000001b0: c5b9 ebbc d4ba 9ebc 6831 41bd 320f 75bc
000001c0: d312 023c 6256 c7bc 5e73 d6bc 9d53 c5ba
000001d0: 0e61 2ebb a4ae 0bbc d410 23bd 86e9 c53c
000001e0: ab2f 89bc 9087 30bd b94f 6abc 6a64 283b
000001f0: 78c2 7fbc 1081 763c bf66 343c 95a0 2e3c
00000200: a998 f13c c490 85ba 5be1 643c 70bb 3cbd
00000210: 7e8f 44bd 58b4 11bc 2d1d 9a3b 01c0 b13c
00000220: cc72 08bd da6d 21bd 02d5 c93c 94ee e3ba
00000230: f956 7d3c 2176 19ba 16a6 d2bb 6b9b f6bc
00000240: 114c 09bc 0a44 a0bb 64f7 e03b ee2b 68bc
00000250: 5e57 1a3b f4cb 103d 5bb3 ed3c 50a9 eabc
00000260: 26d0 b1bc 7953 2b3c 1d58 21bd ba58 933b
00000270: 7cd0 c5bb ad3d b3bc d18b de3a 55a4 01bc
00000280: d17d 4c3c a904 00bc 4580 b03b a610 493c
00000290: d1d0 b33b ea78 51bc 2543 02bb 6c2b 1abc
000002a0: 9c47 04bc 7ef1 e13c f51b f739 79d9 01bc
000002b0: ed3a 12bc 26da 75bc 28d3 dc3b 4cda c5bc
000002c0: 7587 153d 5230 273c fb83 2cbc 74dd de3b
000002d0: 3892 693a 7b39 3d3d c5b3 ef3c ee8c ef3c
000002e0: fee1 d9bb e244 573d aa86 c7bb d047 4bb9
000002f0: 09e9 65bc b838 013c 17d1 ab3c a7b2 65bc
00000300: 052d 823b cd5b 5bbd 5e0a 8ebb d8e8 193c
00000310: 3f4b 06bd 8194 9b3b 859c dfba ebdf 2cbb
00000320: a492 51bc b928 af3b cfff 4b3d 3c3d 2939
00000330: 3d88 82bd 37e0 bcba 8bf0 b9bc 2559 d03b
00000340: c656 40bd 93ad b43c 6832 35ba 3535 ecbc
00000350: 1f9e c03c 35f6 98bb d620 2ebc 788c d33c
00000360: fe55 01bd d73a ec3c 4190 31bd 08fe ca3c
00000370: 3874 233d f9fb 3cbc bc60 80bb 414c 9dba
00000380: 6b50 a13d 3148 a93c e562 a03c f25a 8cbb
00000390: 4dd7 bd3c d85e 2e3d 5ab2 20bc 593d 18bc
000003a0: 358a 143d b09a 883c e421 753c 830a aaba
000003b0: 6307 c5bb 580e 2b3b 18fb 793b 190f 033d
000003c0: 0928 e73b 885a b63b fa99 453c ad0d 11bc
000003d0: b91f 0fbc 6e02 0abd e74e 873c 6c4a d83c
000003e0: 34d1 233a dbbb f5bb 24a6 153d d7df c3bb
000003f0: 1e3a d9bc b49c e2ba d8f2 afbc d833 183c

action_model._continuous_distribution.mu.bias f4 [2]
0.009913452 -0.0029380114
00000000: 086c 223c a78b 40bb

action_model._discrete_distribution.branches.0.weight f4 [1, 128]
-0.005783919 -0.008813159 -0.013256627 -0.0048872214 0.0031861502 -0.006331885 0.0072395965 0.009892962
0.02069884 0.003090803 -0.015085314 -0.00047730072 -0.0040017865 0.0058508813 0.011944397 -0.0026651833
-0.012133485 -0.009522012 -0.0020304061 -0.006721028 -0.0077801323 0.0012876991 -0.00013046137 0.014248761
0.0038505697 -0.0064814775 0.013210331 -0.003344822 -0.016422054 -0.005349242 0.014129253 -0.0035989587
0.012174852 -0.0023652473 0.004811622 0.011773041 0.0075566643 3.4824538e-05 -0.010128355 -0.008504549
-0.000533666 0.0033997488 -0.023253307 -0.010171121 0.007735939 0.002553763 -0.003923615 0.011271796
0.004075011 -0.002495162 0.013338379 0.0013060257 0.0049182125 0.0011628091 -0.0037797994 0.014747393
0.009475633 0.0015134282 -0.007974456 -0.015111002 0.0028597468 0.00091409957 0.006704341 -0.00299176
0.008444256 -0.010003595 0.00018535706 0.004349161 -0.0112961335 -0.014362367 -0.0044099404 -0.0057231886
0.004523654 -0.017189002 0.006237115 -0.00048690737 0.0019067562 0.015019727 -0.010503538 0.0010976902
-0.01081071 0.00015919718 -0.00039104978 0.012076384 0.005835693 0.0053410954 0.0066743866 -0.0060852966
0.012635903 -0.004918562 -0.004606924 -0.008961835 0.013205553 0.013576778 -0.0145499855 0.016303357
-0.005214377 0.0059870165 -0.0010274061 0.0006300162 0.0026020575 -0.0027376653 -0.008645847 0.006960442
-0.005091558 0.008409733 0.006099803 0.015043886 -0.0034858435 -0.008555795 -0.017478455 -0.0009481587
-0.0011325445 -0.011959235 -0.008618069 -7.83911e-06 0.015473309 0.0036780976 -0.0037751298 -0.0021298488
0.00933338 9.4441806e-05 -0.00050577533 0.006344739 0.01500237 0.004808301 0.008965748 -0.014045596
00000000: 0787 bdbb 1165 10bc 5332 59bc fc24 a0bb
00000010: bbce 503b b37b cfbb 233a ed3b 1716 223c
00000020: 9d90 a93c 128f 4a3b 6528 77bc 383e fab9
00000030: 6b21 83bb c0b8 bf3b 6fb2 433c 5baa 2ebb
00000040: 86cb 46bc 3702 1cbc 9010 05bb 123c dcbb
00000050: 7bf0 febb 03c8 a83a 75cc 08b9 a373 693c
00000060: d759 7c3b 9362 d4bb 2570 583c cd34 5bbb
00000070: 8b87 86bc b248 afbb 627e 673c 82dc 6bbb
00000080: 0879 473c 4402 1bbb d0aa 9d3b b7e3 403c
00000090: e59d f73b 9010 1238 66f1 25bc aa56 0bbc
000000a0: b8e5 0bba 52ce 5e3b b87d bebc c6a4 26bc
000000b0: c37d fd3b 095d 273b ab91 80bb 57ad 383c
000000c0: ab87 853b df85 23bb 3789 5a3c f32e ab3a
000000d0: f528 a13b 6669 983a 83b6 77bb 0d9f 713c
000000e0: af3f 1b3c 395e c63a 4ba7 02bc 2394 77bc
000000f0: 976a 3b3b 2fa0 6f3a 17b0 db3b 6711 44bb
00000100: c759 0a3c 1ee6 23bc 685c 4239 6883 8e3b
00000110: 6b13 39bc 2250 6bbc 4381 90bb 9689 bbbb
00000120: 293b 943b f3cf 8cbc b660 cc3b 9a47 ffb9
00000130: 1fec f93a 4d15 763c 0817 2cbc 5fe0 8f3a
00000140: 671f 31bc 2bee 2639 d005 cdb9 07dc 453c
00000150: 5739 bf3b 5b04 af3b d0b4 da3b 2b67 c7bb
00000160: d206 4f3c e32b a1bb aef5 96bb a9d4 12bc
00000170: 1b5c 583c 2271 5e3c 1063 6ebc 9e8e 853c
00000180: 5ddd aabb bc2e c43b 07aa 86ba ac27 253a
00000190: 4887 2a3b 676a 33bb 50a7 0dbc 6b14 e43b
000001a0: 16d7 a6bb fac8 093c dbe0 c73b a27a 763c
000001b0: c072 64bb 9b2d 0cbc fa2e 8fbc da8d 78ba
000001c0: e371 94ba abf0 43bc cd32 0dbc b984 03b7
000001d0: c383 7d3c 3d0c 713b 2b68 77bb ef94 0bbb
000001e0: 08eb 183c 0f0f c638 0296 04ba 87e7 cf3b
000001f0: 80cc 753c f48e 9d3b 13e5 123c 801f 66bc
