ML Agents tutorial/Assets/results/RollerBall_2walls_no_time/RollerBall/RollerBall-999952.pt (torch, 446793 bytes, 39 tensors)

network_body._body_endoder.seq_layers.0.weight f4 [128, 8]
000000 1f 00 0e be 47 f7 9f 3d d9 17 c0 be f5 d3 21 3f
       -0.13867234 0.07810836 -0.37518194 0.63214046
000010 b1 76 a9 be b4 84 b8 be 20 cc 6d 3f ce f7 18 bf
       -0.33098367 -0.36038744 0.92889595 -0.5975312
000020 4f c7 54 3d e2 11 21 3e ce 27 a8 be 80 55 98 bd
       0.051947888 0.15729478 -0.3284287 -0.07438183
000030 29 ad 59 be 40 fa eb 3e 66 a7 bb 3f 28 22 89 3c
       -0.21257462 0.46089363 1.4660461 0.01673992
000040 72 4c 36 bd 08 8f 20 3f 22 a9 ce bd eb 5c 29 3d
       -0.044506498 0.6271825 -0.10090853 0.04134838
000050 b8 13 62 bf 3c b6 07 bd bf 46 0e be c0 fe a1 3f
       -0.8831134 -0.033132777 -0.13894175 1.2655869
000060 3e 67 8a bd 13 cf b8 be b7 75 10 3e 93 f9 f2 bd
       -0.06757973 -0.36095485 0.14107405 -0.11864009
000070 11 7e 8b be d0 00 05 3f 03 cc 6f 3f 84 85 22 3f
       -0.2724462 0.51954365 0.9367067 0.6348498
000080 67 ef 8e be 31 eb d0 3d 9a ce 11 3f 58 a6 cd bb
       -0.27917024 0.10201109 0.56955874 -0.0062759332
000090 08 e0 4e 3d 70 69 a3 3b 88 19 3a 3f ed 4f 01 bf
       0.05050662 0.0049869344 0.7269521 -0.5051258
0000a0 c8 34 9a 3d c3 fb 22 3e ec 95 49 be 77 56 36 bf
       0.075295985 0.15916352 -0.19686097 -0.71225685
0000b0 07 04 e7 bd 36 2d 4d be b2 8b 3e bf 9b 13 06 bf
       -0.11280065 -0.20036778 -0.7443191 -0.52373666
0000c0 0a e3 64 3d e4 95 1f bd d8 b0 8f be 3d 18 00 3e
       0.055880584 -0.038961306 -0.2806461 0.12509246
0000d0 48 cf c8 3e a7 15 e1 bd 4a d3 c8 be 00 a6 89 3f
       0.39220643 -0.10990458 -0.392237 1.0753784
0000e0 66 9a a4 be 67 a5 7d 3d 05 97 c6 bc ed be f3 be
       -0.32149047 0.061925318 -0.024241934 -0.47606602
0000f0 3d 07 c3 3e 1b a5 da be 3a 07 2f 3e 3a 16 23 bf
       0.3809146 -0.4270409 0.170926 -0.6370579
000100 48 0c 00 3d c3 76 e3 bc e3 97 d4 be eb 94 2b be
       0.031261712 -0.027766591 -0.4152213 -0.16756026
000110 29 6f 69 3d 0e e4 f8 be 09 8a e9 be f5 32 7b be
       0.056990776 -0.48611492 -0.45613125 -0.24531157
000120 28 7a 82 bd fb 97 e6 be 4e c9 21 3d 47 a0 97 be
       -0.06370956 -0.45037827 0.03949862 -0.2961447
000130 24 b5 84 3e 35 a4 c1 3e 66 8e 52 bf cd 84 88 bf
       0.2591945 0.37820593 -0.8224853 -1.0665528
000140 8c b0 20 be 09 11 0e bd 24 37 08 3f c6 97 c7 3e
       -0.15692347 -0.034684215 0.5320914 0.3898298
000150 20 f1 25 3e a3 9b 63 be 43 32 3c bf df ec 59 3e
       0.16205263 -0.2222734 -0.73514193 0.21281765
000160 1e 0f 01 be f3 a4 53 bf 6f 40 41 3d 12 60 a3 3e
       -0.12603423 -0.8267357 0.04718059 0.31909233
000170 fd 6d 48 3d 45 d0 8d be aa 61 24 3f 5f 42 36 bf
       0.048933018 -0.2769796 0.64211524 -0.71195024
000180 00 43 25 bf 17 3b 90 be 90 93 cc 3e de 00 b1 3d
       -0.6455536 -0.28170082 0.3995633 0.086427435
000190 00 a6 c5 3e 4e ad b1 3c 32 11 4c 3f 39 2e 98 3e
       0.3860321 0.021689083 0.7971374 0.29722765
0001a0 8d cd d0 3e 70 b8 f3 3e 1a 5a 2f 3d 13 b6 9b 3e
       0.40781823 0.47601652 0.042810537 0.3041235
0001b0 f0 1f df 3e 8b ba af 3e 2e 81 93 3e d3 1c 53 3f
       0.43579054 0.34322008 0.28809494 0.8246586
0001c0 2a 09 8f bd b7 96 fa be ab 29 b4 be 9e 61 83 3e
       -0.0698417 -0.4894311 -0.3518804 0.25660414
0001d0 83 20 0e 3f e4 11 60 bf da fe 87 be ad f5 66 3e
       0.5551836 -0.875273 -0.26561624 0.22554655
0001e0 2b fc 06 3e 13 43 39 bf 3c b8 2a 3f 2a ba be 3e
       0.13182132 -0.7236797 0.6668737 0.37251407
0001f0 93 39 a3 be 91 e2 99 3e 56 b5 cd bb d5 64 16 3e
       -0.31879863 0.3005567 -0.0062777204 0.14686902
000200 34 bd 77 be 5e 62 49 be a1 cb ad 3d ab 28 9f 3d
       -0.24193269 -0.1966643 0.08486105 0.07771429
000210 1d ed 88 3e e5 eb ea 3d 39 45 39 be ba 46 bb 3f
       0.26743403 0.114707746 -0.18092813 1.4630959
000220 61 47 f7 be 39 c0 c1 3d 75 e2 13 3e 7b 1d cb bb
       -0.48296645 0.09460492 0.14441855 -0.0061985827
000230 4e 36 65 3f 93 be 68 bd d5 96 1e 3f 3d 22 d1 3f
       0.8953599 -0.05682237 0.619489 1.6338574
000240 cd 7f 94 3e 98 7b bf bd 09 8c bc 3e a0 67 f3 3e
       0.29003754 -0.093497455 0.36825588 0.47539997
000250 18 4d 06 be d4 12 b9 be 07 7a 82 be 97 55 8b 3d
       -0.13115346 -0.36147177 -0.25483724 0.06803434
000260 ce 54 34 3e 1f 52 d5 3e 7d 64 f7 bd ff eb a8 be
       0.17610475 0.41664216 -0.120797135 -0.3299255
000270 f5 71 a8 bd 7e 68 8f 3d 52 9c 55 bf 41 14 90 3f
       -0.082248606 0.07002352 -0.8344165 1.1256181
000280 b8 d0 84 3e 94 96 8a be aa 15 45 be 23 b4 60 be
       0.2594049 -0.27068007 -0.19246545 -0.21943717
000290 67 93 96 3e 9c f4 2b bd ba bc bd 3f ed 19 06 be
       0.29409334 -0.041981325 1.482322 -0.13095827
0002a0 28 ea 2c be c8 f0 83 3e c3 df a2 bc c5 ab e5 3e
       -0.16886199 0.2576964 -0.019882089 0.44857612
0002b0 06 51 61 bd 61 37 3a bc 8d bc f2 3e 54 88 76 bf
       -0.05500891 -0.011365742 0.47409478 -0.9630177
0002c0 fc 6a 5c 3d d1 cd 51 bd 7d de 9b be 40 c9 e2 3e
       0.053812966 -0.051221672 -0.30443183 0.44294167
0002d0 d8 f8 44 3d 97 39 2a be 26 17 b6 3f 15 14 4c 3e
       0.04808888 -0.16623531 1.4225814 0.19929536
0002e0 0f 8f 7a be 7b f5 e7 be 45 a3 a6 3d 60 8a 26 3e
       -0.24468635 -0.45304474 0.0813661 0.16263723
0002f0 94 1e 9e 3d 0a 61 ac 3e 35 68 c5 bf 1d d9 bc 3e
       0.07720676 0.33667785 -1.5422426 0.36884394
000300 c0 5c dd be d8 8c 1f bf c2 6e 7c 3d 82 97 46 3f
       -0.43234825 -0.62324286 0.061629064 0.7757493
000310 e8 89 67 bd d1 60 3a 3f c5 6a 38 3f 8c 11 37 3f
       -0.056528002 0.7280398 0.7203792 0.7151115
000320 8a a4 03 3f 40 c8 f5 be 7e 49 1b 3c 89 86 81 bc
       0.5142294 -0.4800434 0.009477971 -0.015811222
000330 01 d5 89 be 3e d8 1d bf 53 c5 28 3f e0 6f 2f bf
       -0.26920322 -0.61658084 0.6592609 -0.6853008
000340 7d a8 9a be d1 e0 2d be 5c 81 36 3f e2 8b f3 3d
       -0.3020667 -0.16980292 0.71291137 0.11891915
000350 23 85 2a be 6a c2 cb 3e 23 99 0e bd d1 d8 64 3f
       -0.1665235 0.39796764 -0.03481401 0.89393336
000360 db 92 82 3e 61 d6 14 3f 76 ce bd 3d 26 50 8c be
       0.25502667 0.58139616 0.09267895 -0.27404898
000370 be 81 2e be 75 4a 30 bf 0e ca 8e 3f 2a f7 b9 be
       -0.1704168 -0.6886361 1.1155412 -0.36321384
000380 7d f4 d1 bc 1c ed aa be 8f b8 80 3c f4 d9 cf 3e
       -0.025629276 -0.33384025 0.015713004 0.40595973
000390 3d 8e 6c bc 1a 22 45 bf 5d 78 e8 bd 23 3b e6 be
       -0.014438209 -0.7700516 -0.113510825 -0.44966993
0003a0 ee 0b 98 be ff 52 33 be 3c fc 80 be a4 78 9c be
       -0.29696602 -0.17512129 -0.2519244 -0.30560791
0003b0 ca 8d 3c 3e 5b 4f db be 4d e2 16 be 43 f2 4f bf
       0.18413463 -0.4283398 -0.14734764 -0.8122904
0003c0 5d 43 d9 3d 85 f8 a9 3c c0 e6 4b bd 8b 67 f4 3e
       0.10608552 0.020748386 -0.049780607 0.47735247
0003d0 6a da 1f be 93 e6 21 bf 3c b3 00 be 71 75 55 bf
       -0.15610662 -0.63242453 -0.12568372 -0.83382326
0003e0 71 4d 1b 3e 01 c4 fb be c3 07 09 3f 4a e4 e2 3e
       0.1516626 -0.49172977 0.5352747 0.44314796
0003f0 14 f6 f6 3c 51 3f a4 be 20 68 bf 3e 75 ae 27 3e
       0.030146636 -0.32079557 0.3738413 0.16375144

network_body._body_endoder.seq_layers.0.bias f4 [128]
000000 df 4b 87 bd c7 3c 2c be ea fc 3b 3d 70 3b f4 bd
       -0.06606268 -0.1682006 0.045895495 -0.11925399
000010 c8 2f b0 bd 0b c1 91 3d cd 5e 40 bd 7f 50 2b be
       -0.086028636 0.07116898 -0.04696541 -0.16729926
000020 90 92 e8 bc 4d d7 e3 bd 97 84 46 be 3f 28 48 be
       -0.028390199 -0.1112505 -0.19386517 -0.19546603
000030 f1 48 5e 3d 3b f6 8c 3d 2f 2b 8c bd 94 6a bc be
       0.05426878 0.06882902 -0.06844174 -0.36800063
000040 56 55 14 3e 5e 2f 8c 3d d2 53 7d be 9e f2 04 3c
       0.14485678 0.06844972 -0.24739006 0.008114485
000050 b9 c2 f5 bd 5d c9 e9 bd 1b 02 94 3c b0 71 11 3c
       -0.12000031 -0.1141536 0.01806741 0.008877203
000060 a5 71 b3 bd 60 d5 d9 bd e7 63 7d bd 1d c1 9a bd
       -0.0876191 -0.10636401 -0.061862852 -0.07556365
000070 5b c3 66 be 7b 0a 0f be 9e e8 3b be 19 ca d6 bd
       -0.2253546 -0.13968842 -0.18350455 -0.10487766
000080 42 cd 45 bd db ff 19 3d 05 cb cd bd ab d3 2e be
       -0.048291452 0.03759752 -0.100484885 -0.17072932
000090 45 44 a9 bd a7 eb 94 bd 65 1a ad 3c a2 07 12 be
       -0.082649745 -0.072715096 0.02113075 -0.14260724
0000a0 b8 8c e1 3d a2 19 c4 3d 61 fa 02 bd a7 42 9d bd
       0.11013168 0.095752016 -0.03197706 -0.076787286
0000b0 db d8 9f bc cb 30 3f bd c5 d1 14 bc da ad 6e be
       -0.019512584 -0.046677392 -0.009083216 -0.23308507
0000c0 6a f5 cd bd 9b 46 4e bd 2d 7a 29 3d c7 0e 40 be
       -0.10056575 -0.050360303 0.04137628 -0.18755637
0000d0 79 20 21 be d5 48 8b be ef 72 cf be 86 35 75 3d
       -0.15735044 -0.27204004 -0.40517375 0.059865497
0000e0 31 d6 b1 3b 69 1b 3c be 89 97 92 be 8f 1f a2 be
       0.005427145 -0.18369831 -0.28631237 -0.31664702
0000f0 bc 12 43 be be b3 49 3d 81 6d 19 bd 99 04 a5 be
       -0.19050115 0.04924368 -0.037457947 -0.3223007
000100 7a d0 98 bd 6c cc 5e be 9c 3e dc bd 2b 14 15 be
       -0.07461639 -0.21757668 -0.10754129 -0.14558475
000110 4a bd f0 bc 01 1c 69 3c 9b 73 54 3d 52 f9 02 be
       -0.029387135 0.014227868 0.051868062 -0.1279042
000120 a1 d2 6a be 0d 84 98 3c 4d 86 d0 be 63 4f f4 bd
       -0.22931911 0.018617654 -0.40727463 -0.11929204
000130 4f 73 11 3e 9a 26 04 be 82 e7 ed bd 66 0e 89 be
       0.14204143 -0.1290535 -0.11616422 -0.26768798
000140 d3 8d a1 3d b5 06 3a 3c 1f ef 2d 3d 5f c0 a2 bd
       0.07888379 0.011354138 0.04246437 -0.07946848
000150 76 de d0 3b 1f fc b2 3d 23 94 55 be c7 b1 59 3c
       0.0063741757 0.087394945 -0.20857291 0.013287014
000160 33 11 85 bd a4 b6 e3 3d b6 1b 59 3d 62 34 7b bd
       -0.06497421 0.1111882 0.053004943 -0.061329253
000170 c0 13 db bd 62 34 94 be 6e e0 f0 bd 35 6f 44 3e
       -0.106971264 -0.28946215 -0.117615566 0.19183047
000180 9e f7 25 be 7d 7b dc 3d af dc 12 be e9 4a 59 be
       -0.1620774 0.10765741 -0.14341997 -0.21219982
000190 dd 84 0d bd 4c b6 82 be ff 66 0e bc 4e 1d d7 bd
       -0.034550536 -0.25529706 -0.008691548 -0.10503636
0001a0 3a 3f 2b 3d 32 82 30 3d 95 cf a8 bd 1a 5e f5 bc
       0.041808344 0.043092914 -0.08242718 -0.029952098
0001b0 0c 46 4f be f6 fa be bd 92 1c ee bd 1f cd 94 3c
       -0.20241565 -0.09325211 -0.11626543 0.018164216
0001c0 52 6d 95 3d 3c 19 dc bd f0 d6 e6 3c ef 82 23 3d
       0.07296242 -0.107470006 0.028178662 0.03991979
0001d0 74 7e a3 be 8b f2 91 bd 9f 1e fe bd 9d 3a c7 bd
       -0.31932414 -0.071263395 -0.12408184 -0.097279765
0001e0 93 0e 37 3d 18 c8 2d be a1 b7 08 be ae 88 e5 bd
       0.044691633 -0.16970861 -0.13351299 -0.1120771
0001f0 aa f8 2d bd ed 0d 28 be 88 e7 35 be 49 cc 1d be
       -0.042473473 -0.16411562 -0.17764103 -0.1540996

network_body._body_endoder.seq_layers.2.weight f4 [128, 128]
000000 22 ff 75 bd dd 6f a6 be c1 13 50 3c 66 22 96 be
       -0.060057767 -0.3250722 0.012700022 -0.2932312
000010 e5 5e a2 bd f9 48 59 be c0 19 8e be fd 44 44 bd
       -0.07928256 -0.21219243 -0.2775402 -0.047917355
000020 36 dd 4b be 50 89 a4 be c3 0c 7c 3c f1 dc 33 bb
       -0.19908604 -0.3213601 0.015383902 -0.0027444924
000030 99 4d b8 bd d8 64 fc 3d d6 f0 4e 3d 1b 44 a0 bb
       -0.089991756 0.12323922 0.050522648 -0.0048909313
000040 8d 2c 04 bd 41 18 d5 bd f5 e9 f9 bd 5f 82 b2 bd
       -0.03226905 -0.10405017 -0.12202827 -0.087162726
000050 42 8b 1e ba 8c 0d 64 3d cf 04 b6 bd 4f fb 16 3d
       -0.0006047973 0.05567698 -0.08887636 0.03686076
000060 2a f7 cf bd 06 a2 09 be c1 45 81 bd a7 99 08 be
       -0.10154565 -0.13440713 -0.063121326 -0.13339864
000070 4a 88 01 be 82 21 20 be 3f 5c 4b bd ea 52 60 be
       -0.12649646 -0.15637782 -0.04964852 -0.21906629
000080 d5 75 a3 bd 1c 96 0f 3d c1 a4 dc bc 3b f0 08 3e
       -0.07981459 0.035055265 -0.02693403 0.1337289
000090 85 68 cf be 8e c8 e9 bc 88 02 99 be 36 32 04 3e
       -0.4050943 -0.028538015 -0.29884744 0.12909779
0000a0 8d 53 85 bb fc 60 0d be a9 1e 72 be 46 34 92 3d
       -0.004068798 -0.13806528 -0.23644508 0.071388766
0000b0 c2 e1 03 3d 53 fe 22 3d aa bb 0d be d1 df c5 bd
       0.03219772 0.039793324 -0.1384112 -0.0966183
0000c0 b4 01 00 be 74 6f 52 3c ca 9e a5 3c 92 f9 64 bd
       -0.1250065 0.012843955 0.020217318 -0.05590207
0000d0 96 6e 93 bd d8 4e f6 3c 89 0b ab bd 44 4e c3 bc
       -0.07198827 0.030066893 -0.083518095 -0.02384103
0000e0 fc d6 96 bd f3 50 f5 bd 26 7c cc 3d c2 04 7a be
       -0.07365224 -0.119783305 0.09984617 -0.24415877
0000f0 59 f9 a5 bd 11 4d ae bd 04 7e 24 3c eb 8e d6 bc
       -0.081042 -0.08510793 0.01003981 -0.026191195
000100 16 c8 97 bd cc c2 88 be 5c 42 fa bd 19 1d b7 bd
       -0.0741121 -0.26711118 -0.12219688 -0.08941097
000110 b4 df 4d be 13 48 bc bd c9 cf 39 bd 70 02 0e 3d
       -0.20104867 -0.091934346 -0.045364175 0.034670293
000120 b7 bb e0 bd c7 eb 99 3d 22 10 a4 bd 2e 8f c3 bd
       -0.10973304 0.07515674 -0.080108896 -0.09548794
000130 b2 54 26 be 2d 1f 04 3c 8a 46 15 be 8b c8 b9 bd
       -0.16243246 0.0080640735 -0.1457769 -0.09071454
000140 bc d3 0d be 78 4e aa bc a1 cf 87 be 61 f8 40 3e
       -0.13850302 -0.02078937 -0.26525596 0.18844749
000150 90 93 9a be 24 33 cc bd 1a ee 85 3c 7d 03 1b be
       -0.30190706 -0.09970692 0.016348887 -0.1513805
000160 27 31 42 be bf 35 ae 3c 57 12 2a be 63 d6 04 3c
       -0.18964063 0.021265863 -0.16608559 0.008107754
000170 4c ae 6b bd d3 8b 81 be 96 ba 6d bb 83 50 a8 bd
       -0.05753927 -0.2530199 -0.0036274544 -0.082184814
000180 c4 33 9f be 68 9f 82 bb 1d f4 6f be f7 66 21 be
       -0.31094182 -0.003986288 -0.23432966 -0.15761934
000190 a3 42 7d be 82 30 bc bd 8d 0d 87 bb 66 1e 0c be
       -0.24732451 -0.0918894 -0.0041214884 -0.13683471
0001a0 f7 ad 04 be 77 25 a7 bd c5 0a 77 be 6e 9f 13 be
       -0.12956987 -0.08161443 -0.24125202 -0.14416286
0001b0 e8 f1 5e bc 8f 6b 5a be d0 4a 54 3d 50 aa 3f bd
       -0.01360748 -0.21330093 0.05182916 -0.046793282
0001c0 4d b5 8f bd 1c 06 20 be 5c 73 fd 3c 18 43 81 be
       -0.07017002 -0.1562733 0.030938797 -0.252465
0001d0 42 ed 3e 3c 29 dc a1 bd 42 69 3f be d7 81 df bb
       0.011653246 -0.0790332 -0.18692496 -0.006820898
0001e0 be 0d 7d be 0c 56 b8 bd ac 7d 1f be 26 09 f9 3b
       -0.24712273 -0.09000787 -0.15575284 0.0075999675
0001f0 d1 ec 42 be bf a9 69 be 2c ac ab bd 79 ed ed bc
       -0.19035651 -0.22818659 -0.083824486 -0.0290439
000200 f8 f2 35 be e3 b5 af be 74 e6 79 ba 4f 6f f0 3c
       -0.17768466 -0.34318456 -0.00095329364 0.029349951
000210 48 21 82 3c 0e 66 de bd b9 1b 1b 3e 69 3b a6 3c
       0.01588501 -0.10859309 0.15147294 0.020292
000220 8d 13 3e bd 8c 08 a9 3b 0d 00 d6 bc b2 bc d2 bd
       -0.046405364 0.0051584896 -0.026123071 -0.10289897
000230 55 4f a2 bd 34 75 a6 bd de f6 a6 bd a3 89 05 3e
       -0.07925288 -0.081278235 -0.08152555 0.13040785
000240 6f 26 04 3e 4b 6a 38 3d 7a 35 c8 3d ca 9d f7 3d
       0.12905286 0.045023244 0.09775825 0.12090643
000250 42 c0 df be 2a fd 2b be f0 4a d7 be 61 6a 9a 3d
       -0.4370137 -0.16795793 -0.4204936 0.075398214
000260 65 ec 13 be c8 ee 40 3e 56 05 62 bc 0c d1 75 3e
       -0.14445646 0.18841088 -0.0137952175 0.24005526
000270 58 c4 7b 3e 51 40 13 bd 45 d0 97 bd ed 1e 3a 3c
       0.24586618 -0.03595001 -0.07412771 0.011359912
000280 d6 f3 c6 3d 69 75 d1 3d c8 11 60 bd a8 e0 82 3d
       0.09714477 0.10227472 -0.054704458 0.06390506
000290 8b 93 61 be a8 e9 95 3d d8 05 1a be fa 94 67 be
       -0.2202894 0.07319957 -0.15041292 -0.22615424
0002a0 7d 2a 52 be 69 5a 14 3e d2 3c 3c be b8 00 01 be
       -0.2052402 0.14487614 -0.18382576 -0.1259793
0002b0 1f c8 9b be ef 46 32 3c 05 ea d6 bc 2d 5e 00 be
       -0.30426118 0.01088117 -0.026234636 -0.12535925
0002c0 70 26 62 be 13 25 8a 3d 7a d1 bf be 50 c2 b1 bd
       -0.22084975 0.067453526 -0.37464505 -0.0867964
0002d0 eb 7f e0 3c 21 de 72 3c 86 f1 6a 3e e5 0b ce bd
       0.027404746 0.0148234675 0.22943696 -0.100608625
0002e0 5d c0 48 bd 2f a5 14 be b7 3a d7 3d 3d 22 a5 bd
       -0.049011577 -0.14516138 0.10509246 -0.08063171
0002f0 1a c2 dd bc 9d 1f e6 bc d2 12 74 3e d4 d2 b4 bd
       -0.027070094 -0.028091246 0.23835304 -0.08829275
000300 d8 53 30 be eb ec d5 3d 8e fb 45 3d 66 b3 47 be
       -0.17219484 0.10445579 0.048335604 -0.19502029
000310 48 b0 02 be e3 41 18 3d 98 c9 4f be b3 66 fb bc
       -0.12762558 0.03717221 -0.20291746 -0.03068862
000320 63 ba 80 be ed fe 2b be 09 d1 4b 3d e5 34 3b be
       -0.25142202 -0.16796465 0.0497599 -0.18281896
000330 94 33 37 be 22 27 15 bc 3b 52 85 bd 93 9a a7 3d
       -0.17890769 -0.009103568 -0.06509825 0.081837796
000340 27 33 3b bc ed 44 cf be 1b 5d 94 bd 30 00 4c 3b
       -0.01142577 -0.40482274 -0.07244321 0.0031128041
000350 eb 6b a9 3b 0d 25 11 be a9 0f e2 bd 4a 09 d3 be
       0.0051703355 -0.1417429 -0.11038143 -0.41218024
000360 80 9e 16 be da fb 85 3c ff da 8f 3b 53 96 76 be
       -0.147089 0.016355444 0.00439012 -0.24080782
000370 c5 c7 81 be 33 40 3a bd af d4 20 3d 54 70 1a 3e
       -0.25347725 -0.04547138 0.03926533 0.15081912
000380 8c 7e 9f 3d 27 b7 d5 3c b4 47 8b 3d 34 39 aa bd
       0.07787809 0.02608831 0.06800786 -0.08311692
000390 58 cb f2 bd d4 8d 97 bd c2 f5 1e be 87 cf 2f 3e
       -0.11855191 -0.074000984 -0.15523437 0.17169009
0003a0 c5 43 d4 3d 87 b0 9e be be 9e b1 bd 3e ad da 3a
       0.103644885 -0.30994055 -0.08672856 0.001668371
0003b0 d8 4d 01 bd 5f 2d ca 3c f4 0a 3b 3a 2d 7d 16 3c
       -0.03156838 0.024679838 0.0007135116 0.009185118
0003c0 bd f9 1e 3e f9 70 49 3c 4f 2d 1f be 4f 21 00 be
       0.15524955 0.012295001 -0.15544628 -0.12512706
0003d0 55 27 6f 3d e2 d9 6c 3c 81 35 d3 bd ee 6d f3 bd
       0.05838712 0.014456244 -0.103129394 -0.11886202
0003e0 76 12 51 be 62 19 4e bd a0 b4 c9 be 1e f2 02 be
       -0.20417199 -0.050317176 -0.39395618 -0.12787673
0003f0 86 c7 df bd 4d 2d 66 bd 30 4e 0a 3e 50 7a 41 be
       -0.10926728 -0.056195546 0.13506389 -0.18894315

network_body._body_endoder.seq_layers.2.bias f4 [128]
000000 88 62 e9 bd 16 a9 09 be bf d1 24 3d 2d 87 de bd
       -0.113957465 -0.13443407 0.040239092 -0.108656265
000010 66 53 8b bd 99 ed b3 bd 4d 23 70 be 8d 9b 1c be
       -0.06803016 -0.087855525 -0.23450966 -0.15293713
000020 0e 63 08 3d 43 c3 b9 bd d5 c0 26 be 68 05 8f bd
       0.03329759 -0.09070446 -0.16284497 -0.06983453
000030 96 da 10 bd e9 50 0f be 9b 33 67 be 38 e0 34 be
       -0.03536471 -0.13995709 -0.2257828 -0.17663658
000040 05 ce 8f bd f3 f3 9a bd 7f 11 80 bd 51 23 83 be
       -0.07021717 -0.07566061 -0.06253337 -0.25612882
000050 a3 e2 7a be dd 7e 83 be 9c 6f 49 be 34 87 66 be
       -0.24500518 -0.25682727 -0.19671482 -0.22512513
000060 19 0c 91 be 76 aa 00 be 6d 5e f5 bd bd eb 52 be
       -0.28329542 -0.12565026 -0.11980901 -0.2059774
000070 1e c5 44 be 51 47 0a be e5 b7 76 be 50 7c aa bb
       -0.19215819 -0.13503768 -0.24093588 -0.0052028075
000080 66 36 27 3d 8d fe d2 bd 2c 53 63 be 8c be 8c 3d
       0.040823363 -0.10302458 -0.22199696 0.068722814
000090 11 a3 8b bd 7f 7f 39 bd 3a 46 65 be 28 31 03 be
       -0.06818212 -0.045287605 -0.2239007 -0.1281172
0000a0 c1 aa f0 bc f5 24 06 be 72 ae b1 bd 59 9b 63 be
       -0.029378297 -0.13100035 -0.08675851 -0.22227229
0000b0 8b f9 0f bd 17 a9 4a be 04 f7 13 be 53 5f 37 bd
       -0.035150092 -0.19791065 -0.14449698 -0.044768643
0000c0 a5 63 71 be e2 4c f4 bb de b2 53 be 4c 89 6b be
       -0.23573168 -0.007455454 -0.20673701 -0.23001593
0000d0 9a 40 f7 bd 4f a0 4e 3c 9d 76 67 be 39 76 6a be
       -0.12072869 0.012611463 -0.22603841 -0.22896661
0000e0 75 e2 f7 bd 45 78 25 be 16 9b ca bd f4 4c f3 ba
       -0.1210374 -0.1615916 -0.098928615 -0.0018562363
0000f0 8d d3 2c be 60 e5 af bd d2 a4 98 bc b3 59 11 be
       -0.16877575 -0.08588672 -0.01863328 -0.14194374
000100 f5 c0 97 3c f5 56 be bd 50 e2 b6 bd 07 6c 4c be
       0.018524626 -0.092939295 -0.089298844 -0.19963084
000110 33 de ac 3c 44 27 aa bc f6 df 79 bd 0d e3 7d be
       0.021102047 -0.020770676 -0.0610046 -0.24793644
000120 df 7b ee bd c2 9e 4d be 7d 27 3a be 82 7c b6 bd
       -0.1164472 -0.20080093 -0.18179126 -0.08910467
000130 31 29 18 bd 06 7e 39 be 92 69 8d bd 54 c3 79 be
       -0.03714866 -0.1811448 -0.069049016 -0.24390918
000140 4f 74 3e 3d 97 e8 7a bd 20 48 12 be 64 e2 18 be
       0.04649764 -0.06125697 -0.14285326 -0.14930111
000150 d5 e5 84 be 4f 31 a3 bd 1c d8 88 bd 29 a5 f2 bc
       -0.25956598 -0.07968389 -0.066818446 -0.02961977
000160 ea 72 20 be a0 a6 ef bd 45 79 b1 bd 01 c3 23 be
       -0.15668836 -0.11701703 -0.086657085 -0.15992357
000170 f1 f6 e9 bd 59 4d 3d be 1b 69 c2 bd 12 e4 d4 3d
       -0.114240535 -0.18486537 -0.094927035 0.103950635
000180 74 ac 43 be 59 0b 3f be 33 90 7a bc 90 ce 09 3d
       -0.19108754 -0.18656673 -0.015293169 0.03364426
000190 bf 31 1a bd af 8a 7e bd 9e 69 e8 bd 4d ed b9 bd
       -0.037645098 -0.062143978 -0.1134827 -0.09078465
0001a0 c0 31 23 be cd 6d 6a bc 2d 01 3d 3d 48 b5 3d be
       -0.15936947 -0.014308405 0.0461437 -0.18526185
0001b0 62 1a e6 bd 5a 02 2d bd d5 0c 21 bd ac 0a 1b be
       -0.11235501 -0.04223857 -0.03931888 -0.1514079
0001c0 11 d0 c5 bd 1c da dc bd 7b b8 94 bd f4 ae bf 3d
       -0.09658826 -0.107837886 -0.07261749 0.093595415
0001d0 0b 0c 9f bd 29 63 14 be 8a 27 5f be 5d 41 05 be
       -0.07765969 -0.14490952 -0.21792427 -0.13013215
0001e0 92 9a 03 be 48 9d c1 bd 4b d3 39 be 20 a2 7f be
       -0.12851933 -0.09453827 -0.18147008 -0.2496419
0001f0 53 33 5d be dd 1f d8 bd a2 ce 13 be fe 6a 40 be
       -0.2160161 -0.105529524 -0.14434293 -0.18790814

action_model._continuous_distribution.log_sigma f4 [1, 2]
000000 bb 2b 89 bf 3f bd b6 bf
       -1.071647 -1.4276503

action_model._continuous_distribution.mu.weight f4 [2, 128]
000000 85 a4 18 bd 1b a3 a8 3c fd 9d 69 bd 7f a8 e6 bd
       -0.037266273 0.020585587 -0.057035435 -0.11262607
000010 a0 d4 6f bd c7 40 f7 bc 14 4f a5 bc ca a7 da 3d
       -0.058552384 -0.030182255 -0.020179309 0.106765345
000020 66 71 06 be 17 16 75 bd a8 6a 85 bb 2a 71 88 bd
       -0.13129196 -0.05983552 -0.0040715523 -0.06662209
000030 f7 72 ff bd 61 89 0a bd 96 b2 2b bb b1 b0 fb bd
       -0.124731 -0.03382242 -0.0026198975 -0.122895606
000040 7a 94 d9 bc 5e 52 d8 bd 80 19 d1 bd 81 0c 45 bd
       -0.026560057 -0.10562585 -0.10209942 -0.048107628
000050 2d 18 2c ba 72 78 0f bd b4 0c 86 bc ee 4e 2d bc
       -0.0006564882 -0.035026975 -0.01636348 -0.0105779
000060 67 1f 27 3b b2 e4 c6 bc ba 5e 59 bd 8b a8 33 bd
       0.0025500895 -0.024278972 -0.053068854 -0.043861907
000070 19 93 aa 3a dc 0d 6b bb a8 89 29 3b 6b b1 c4 bd
       0.0013013809 -0.0035866415 0.0025869403 -0.09604152
000080 73 4c 8f bd 04 9b 2e bd 2f 10 17 bc ce 3c af bd
       -0.069970034 -0.042628303 -0.009220167 -0.085565194
000090 61 a6 25 3c dc 4e da bd bc 8f 7e 3c 27 c6 8a bc
       0.010110469 -0.106595725 0.015537199 -0.01694019
0000a0 2b 7a 84 be 48 78 c0 bd 5d b7 b2 bd 99 24 bb bb
       -0.25874457 -0.09397942 -0.0872638 -0.00571115
0000b0 b6 8e ab 3c 4c ef 05 bb 85 9c 27 ba c0 54 60 3d
       0.020942073 -0.0020436822 -0.00063938677 0.054768324
0000c0 b3 2c 06 bb 3f 89 43 be 90 6c 05 bd af e0 48 bd
       -0.002047342 -0.19095324 -0.032574236 -0.0490424
0000d0 3b 26 30 bc 50 07 ea bd 30 91 f2 bc 33 ff 4e bc
       -0.010751302 -0.11427176 -0.029610246 -0.012634086
0000e0 76 22 00 be 7d e3 d6 3a 68 70 88 bd 20 c8 f6 bd
       -0.12513146 0.0016394701 -0.06662065 -0.120498896
0000f0 8e e4 e9 bc 02 00 fe 3c 1a 11 d8 bd d5 5d a6 3d
       -0.028551366 0.031005863 -0.10550137 0.08123366
000100 3a 3c 7f 3e 2c 32 2e be ce 3b ee 3c 78 96 db bc
       0.24925318 -0.17011327 0.029081251 -0.026805148
000110 32 77 bf bd a6 c9 ed bc d5 90 d1 bc e7 94 9e bc
       -0.093489066 -0.029026818 -0.025581757 -0.019358112
000120 a2 44 0e be 90 d7 23 3b 8e 83 92 bc 2d 79 db bc
       -0.13893369 0.0025000311 -0.017884996 -0.02679118
000130 e7 66 58 be eb 5f df ba 7c fb f0 bd 94 ef 25 bb
       -0.21133004 -0.0017042136 -0.11766717 -0.0025319802
000140 45 88 3d be 0f 30 4d bd cc 55 8d bb 79 19 c2 bd
       -0.18509014 -0.05009466 -0.0043132063 -0.09477515
000150 d4 ad 2f bc a0 af 12 be 65 bf 06 be 48 13 08 be
       -0.010722596 -0.14324808 -0.13158949 -0.13288605
000160 8f 0e cf 3c 3a 62 80 bd 3d c1 7e 3c 9e c4 97 3a
       0.025275497 -0.06268735 0.015549001 0.0011578982
000170 cd db ca 3d 4f 39 24 bd fc fd 8f 3d 90 18 0e be
       0.09905205 -0.040093716 0.070308656 -0.13876557
000180 3c 27 94 bb 95 17 44 bc 6a 3b 4c bc ea 61 50 3d
       -0.0045212787 -0.011968513 -0.012465337 0.050874628
000190 c6 49 d5 bd 87 fb a1 bd 2c 22 c2 3c 59 60 34 3a
       -0.10414462 -0.07909303 0.023697935 0.0006880812
0001a0 01 23 0b bc ff eb 07 be 0a d5 0b be eb 66 fb 3d
       -0.008492232 -0.13273619 -0.13655487 0.122754894
0001b0 31 72 04 3c e6 f4 d8 bd 59 0a 74 3d f0 6b 43 3c
       0.008083866 -0.10593586 0.05958018 0.01192759
0001c0 03 14 62 bd 34 7e c3 bb 10 8a c0 bd 51 8b a4 bd
       -0.055194866 -0.0059659723 -0.09401333 -0.08034385
0001d0 2a 8b ae bd c3 66 96 bb 25 f8 8a bc 15 41 86 bd
       -0.08522637 -0.004589887 -0.016964028 -0.06555382
0001e0 a4 0e 2c 3c 03 00 9b bd 28 c3 8d bc 11 4d 08 bc
       0.0105015375 -0.075683616 -0.017304972 -0.008319155
0001f0 7b 47 15 bd 60 9a 31 bc cb 1f 17 bc 31 67 24 bc
       -0.036445122 -0.0108400285 -0.009223889 -0.010034368
000200 2b cc ee 3b 33 b9 1c 3c ee 73 9f bd 21 cc 66 bd
       0.0072875223 0.009565639 -0.07785784 -0.056347016
000210 91 10 69 bc 07 6f db 3a a7 20 36 bc 7b af cc bc
       -0.014225141 0.0016741463 -0.011116183 -0.02498602
000220 4f 17 a8 3c 5b ec 8a bb 32 de 81 3b e4 2c 90 bd
       0.020518927 -0.0042396015 0.0039632553 -0.07039812
000230 5c d4 b6 bd c6 77 f8 ba 9a ab ae 3b fc 91 f1 bc
       -0.08927223 -0.0018956594 0.005330515 -0.029488556
000240 75 ce 88 bc 10 d9 5a 3c 37 fa d6 3c 0c 6c 73 3c
       -0.016700009 0.013357416 0.026242359 0.014857303
000250 9a 9c 89 3b 4c c5 43 ba a5 47 1f 3c eb 01 c7 3c
       0.0041995766 -0.0007468059 0.009721671 0.024292907
000260 69 4f dc 3a 3e 49 3f 3c 9e bf 1a bc 12 5c 9d ba
       0.0016808334 0.011675177 -0.009445099 -0.0012005589
000270 ac eb b2 3a 06 02 19 3a 1d 1e 74 3b f5 28 d2 3b
       0.0013650558 0.00058367883 0.0037249394 0.006413574
000280 4b 64 91 3d 1d e4 2a 3c f6 1a 10 3b 0f 44 72 3e
       0.070992075 0.010430363 0.0021988726 0.23658775
000290 71 0a 11 bc c1 bd cf 3c d4 80 21 3b 05 f5 5e ba
       -0.008852587 0.025359036 0.0024643438 -0.00085051387
0002a0 19 e6 77 3d c8 c2 8d 3d 1f cb 96 3c 70 ad b1 3b
       0.060522173 0.06921917 0.018407403 0.0054222867
0002b0 cd be fa bd e9 e8 2d 3c 68 b6 bf 3a 3e d8 ad bc
       -0.122434236 0.010614612 0.0014626505 -0.021221276
0002c0 33 fa e1 3b 36 19 82 3d e9 56 16 3c 43 7c a5 3b
       0.006896281 0.06352465 0.009175994 0.0050502135
0002d0 67 64 79 3a 1a 5a 3d 3c b8 e1 52 3b 79 9f 8b bb
       0.00095135573 0.011557126 0.0032177996 -0.004260954
0002e0 40 e7 73 bd 31 12 be bd b6 08 11 3c 94 11 54 3d
       -0.05954671 -0.092808135 0.0088521745 0.051774576
0002f0 b1 32 3a 3c 78 ff 25 bc 40 1a 07 3d 1c 49 86 bd
       0.011364625 -0.010131709 0.03298402 -0.06556913
000300 4d 5c c5 3c 9e 62 fb 3a cd b8 77 ba 61 74 b9 3b
       0.024091864 0.001917917 -0.00094498397 0.0056596254
000310 e2 7f 1c be 27 af 83 bd 63 64 9e 3b c0 02 d9 3b
       -0.15283158 -0.06429892 0.0048337444 0.0066226423
000320 eb 7a c7 bb 3e cb ab 3b 31 22 20 3c d2 2e 05 3b
       -0.006087651 0.005242734 0.009773777 0.0020322097
000330 ce c8 f1 bd 2b a1 80 bd bb 7b 9c 3d a9 fe 89 3b
       -0.118058786 -0.0628074 0.07640787 0.004211266
000340 37 f5 f6 bb 64 8e 8d bd 69 66 84 ba 60 d5 84 bb
       -0.007536556 -0.069119245 -0.0010101321 -0.0040537566
000350 2a 28 5f 3a 9c 14 8b 3c c4 5f 75 bd be d8 bd bc
       0.000851276 0.0169776 -0.059905782 -0.02317464
000360 fc 75 57 ba 22 a8 8a bd 70 f0 1c 3c 2c e8 31 ba
       -0.000821918 -0.0677035 0.009578809 -0.00067866105
000370 4d 9b 98 bd 36 05 b7 bc 3a 08 86 bb 03 2c 8d 3d
       -0.07451496 -0.022341352 -0.004090336 0.0689316
000380 76 70 69 3c 01 e7 80 3b b5 fa 9b bd 95 fc 8e 3c
       0.014248004 0.003933788 -0.07616178 0.017454425
000390 b0 75 4c 3d 45 9a c0 3c e9 66 bb bc f4 83 74 bb
       0.049916923 0.023511061 -0.02287622 -0.0037310096
0003a0 f0 e7 55 bb 2e b0 07 3d 16 b5 5e 3c c0 50 3e bd
       -0.0032639466 0.033127002 0.013592979 -0.046463728
0003b0 d4 f9 20 bc c9 33 b6 bd eb 19 3c 3d 79 d3 59 39
       -0.009825189 -0.08896596 0.045923155 0.00020773512
0003c0 64 4c 75 3c 27 bb 5c 3b 41 3a 80 38 71 1c 2f 3e
       0.014971826 0.0033680887 6.114366e-05 0.17100693
0003d0 63 c4 88 bb 41 c7 76 3b c0 10 55 3a b1 fe a5 bb
       -0.0041738017 0.0037655386 0.0008127801 -0.005065762
0003e0 c3 26 00 bd 2d 09 c0 3c 2d 40 88 3b 3b 50 69 bb
       -0.031286966 0.023441875 0.004158041 -0.00356008
0003f0 b3 66 a7 bd 19 41 2c be e2 8a 8c bb 6d 34 40 bb
       -0.08173885 -0.16821708 -0.004289017 -0.0029328123

action_model._continuous_distribution.mu.bias f4 [2]
000000 ae 7f 0b 3d c3 7d 1b 3b
       0.03405731 0.0023726083

action_model._discrete_distribution.branches.0.weight f4 [1, 128]
000000 0a 8b 47 3b 29 c9 c2 bb d0 75 69 3c 67 0a 10 3a
       0.0030447864 -0.0059443903 0.01424928 0.0005494714
000010 c5 d9 7f ba 45 c1 e8 bb 35 ce d6 3b 8c 48 09 bb
       -0.0009759928 -0.0071031176 0.0065553435 -0.0020947782
000020 a7 1f ee 3b 7c 64 00 bc 58 2b 76 3c fa e9 a2 bc
       0.007266957 -0.007836457 0.015024982 -0.01988696
000030 87 b1 d3 3b f0 a3 40 3b 3f e1 d1 bc 10 94 7d bc
       0.006460372 0.002939459 -0.025620101 -0.015477195
000040 26 4a 0c bc ab 24 12 3b 19 7d a8 3b bc 95 bd bb
       -0.0085626 0.0022299688 0.005141866 -0.005785672
000050 c0 a2 52 3b 27 6f 0f bc 94 d3 20 3c 30 05 40 3c
       0.0032140464 -0.008754528 0.009816069 0.011719987
000060 d7 5b 9d 3a 6d eb c8 b9 60 2b 68 3b 5f 20 33 3b
       0.001200552 -0.00038322379 0.0035426244 0.0027332527
000070 7b 53 aa bb c2 b2 86 3c 23 85 f3 3b df 9a 20 bc
       -0.00519794 0.01644266 0.0074316426 -0.009802549
000080 04 80 8b ba 8f a9 15 3b 6f 20 23 bb a1 be 0e 3c
       -0.001064301 0.002283666 -0.0024891158 0.008712442
000090 3c d7 a3 bb 7f 52 6c 3b 42 6c 05 3c 41 d3 a2 3c
       -0.005000023 0.0036059914 0.008143486 0.019876124
0000a0 d7 ed 95 3b fc ad aa 3b 69 2c c0 ba 30 f4 0e bb
       0.004575472 0.005208729 -0.0014661673 -0.0021813028
0000b0 39 ff a4 3c 09 34 93 bc 03 71 c7 ba 34 83 14 3c
       0.02014123 -0.017969148 -0.0015216175 0.009064484
0000c0 58 54 70 ba a0 b5 cd b9 1f 1a d2 bb e7 f7 2d 3b
       -0.00091678416 -0.00039235968 -0.0064118053 0.0026545466
0000d0 e5 3a 87 3a 35 7a 24 bc da f8 02 bc b7 59 82 b9
       0.0010317235 -0.010038902 -0.007993901 -0.00024862375
0000e0 ff 7f b3 34 a7 94 7e bc 78 2e 56 bc 9c 6c 0f bc
       3.3434478e-07 -0.015538371 -0.013072602 -0.008753922
0000f0 00 20 de 3b f5 f8 6f bc 72 9c f3 3a bc 2a 36 b9
       0.006778717 -0.014646758 0.0018586053 -0.00017372792
000100 8f 0e 23 bc b4 a8 32 3c e3 36 5f bc e9 e5 b5 bc
       -0.0099522015 0.01090448 -0.013623926 -0.022204356
000110 65 37 05 3b 06 32 4b 3c 1a 15 06 bc 38 ed 55 3b
       0.0020327207 0.012402063 -0.008183742 0.0032642614
000120 53 3e 84 bc a8 53 f0 3b da b1 5c 3c 5b ff e5 ba
       -0.016143 0.0073341914 0.0134701375 -0.0017547415
000130 65 54 99 ba f5 6d 1e b9 83 2e 0e bc e3 09 0c bc
       -0.0011698125 -0.00015109016 -0.008678081 -0.008547279
000140 7b d3 09 3c 65 87 f4 3a e8 02 8e bb 7f 05 8a 3c
       0.008412237 0.0018656073 -0.0043338425 0.016848324
000150 f0 6f 98 bb 88 4d 2e 38 3f d3 85 bc e3 f2 06 bb
       -0.004652016 4.155704e-05 -0.016336082 -0.002059155
000160 30 a6 51 3a c3 6f a7 bb f7 bc 11 3c f7 25 71 bc
       0.0007997481 -0.0051097586 0.00889515 -0.014718524
000170 df f5 22 3c be 22 a5 ba 70 2e e6 3b ad f6 77 3b
       0.009946316 -0.0012598855 0.0070245788 0.003783624
000180 1f be ee 3c e3 d3 ec 3b ef 5b 54 3b a7 3f e6 bb
       0.029143391 0.0072274073 0.003240343 -0.007026631
000190 58 09 ff bb 22 a4 b7 3c 58 88 0e 3b ab 63 5e 3b
       -0.0077830963 0.022417132 0.0021748748 0.0033933918
0001a0 c2 e5 58 bb e9 3b 23 bb 40 63 e8 3b cd f1 18 3c
       -0.003309593 -0.0024907535 0.0070919096 0.009334994
0001b0 2d 30 5e bc 37 5c 7b bb df d3 54 3c d5 fd a3 3b
       -0.013561291 -0.0038354525 0.012989967 0.0050046244
0001c0 3c a3 8d 3b ad 89 5b 3b 03 d1 b3 3b 43 0c 4c 3c
       0.0043224376 0.003349881 0.0054875626 0.012454095
0001d0 7f df 76 3b 92 8a b5 3a 58 25 89 bc 23 22 b6 ba
       0.0037669835 0.0013850501 -0.01674144 -0.0013895672
0001e0 b3 33 c7 bb db a4 88 3c 53 9b 06 3b 83 19 40 3c
       -0.006079161 0.016680172 0.0020539358 0.0117248325
0001f0 9f 65 52 bb 3b 9e 3b bb db d8 09 bc ae 0a a8 3b
       -0.0032104028 -0.0028628248 -0.008413519 0.0051282262

exp_avg f4 [128, 8]
000000 7c 38 02 ba 7f 9c 18 38 8f 4c 06 3a 09 5c 9c b9
       -0.0004967523 3.6385372e-05 0.00051231025 -0.0002982321
000010 7f 9c 18 38 c5 17 01 3a 7a 6f c3 34 c4 c6 bd 34
       3.6385372e-05 0.00049245014 3.640269e-07 3.5348614e-07
000020 f9 b9 10 3d 6e 35 2a bb 05 80 15 bd 24 84 ae 3c
       0.035333607 -0.0025971788 -0.036499042 0.021303244
000030 6e 35 2a bb 0f ea 0f bd b8 a9 75 b8 0e f4 6d b8
       -0.0025971788 -0.035135325 -5.8570615e-05 -5.6732497e-05
000040 d4 5e 58 bc ae b4 77 3a 04 c8 5c 3c c8 80 fd bb
       -0.013206203 0.00094492256 0.013475422 -0.007736299
000050 ae b4 77 3a be ac 51 3c e9 9a 8e 37 e3 9c 87 37
       0.00094492256 0.012797533 1.6999855e-05 1.616631e-05
000060 53 de 47 3c d6 91 6a bb 68 fa f4 bc 64 80 fb 3c
       0.012199002 -0.0035792491 -0.02990456 0.03070087
000070 d6 91 6a bb 1c d6 40 bd 80 04 a9 b8 42 0a a7 b8
       -0.0035792491 -0.04707919 -8.059386e-05 -7.965091e-05
000080 64 a5 6f bd 12 cf fb 3a a9 af 38 3d 6f 46 6e bc
       -0.05850734 0.0019211492 0.045089398 -0.01454316
000090 12 cf fb 3a 10 dd de 3c 8c 2b 78 b8 86 11 71 b8
       0.0019211492 0.02720502 -5.9168364e-05 -5.7475198e-05
0000a0 b0 11 07 3d b5 5d 3b 3b 00 88 4b 37 6c d2 d5 bc
       0.032975852 0.002858979 1.2131408e-05 -0.026101314
0000b0 b5 5d 3b 3b 0e 91 13 3d b2 f1 cb 38 58 5b cc 38
       0.002858979 0.036027007 9.7248136e-05 9.744492e-05
0000c0 f2 61 c2 3a 68 d0 88 b8 cc c9 a3 ba c5 7c 06 3a
       0.0014830215 -6.523804e-05 -0.0012496053 0.00051302864
0000d0 68 d0 88 b8 66 24 6d ba d7 76 44 b6 f3 8f 3a b6
       -6.523804e-05 -0.00090462563 -2.927545e-06 -2.779995e-06
0000e0 6b a5 b0 3d 00 ef a3 bb 18 cf a4 bd 4e 36 25 3d
       0.08625301 -0.0050028563 -0.080473125 0.040334992
0000f0 00 ef a3 bb 56 0b 8c bd 98 8c 38 b7 ec 26 36 b7
       -0.0050028563 -0.068381 -1.0999989e-05 -1.0857108e-05
000100 6f 6e 22 39 57 cc 30 b8 ea ef bb b9 47 5f bd 39
       0.00015490664 -4.2151976e-05 -0.0003584617 0.00036119876
000110 57 cc 30 b8 8d 6f 11 ba c2 80 05 b6 91 d3 01 b6
       -4.2151976e-05 -0.00055479334 -1.9893491e-06 -1.9345646e-06
000120 6c e2 08 3d 6d 17 21 3a 4e 0e 71 bc 5e d0 d7 bb
       0.033419058 0.00061451533 -0.014712883 -0.0065861186
000130 6d 17 21 3a cc c6 dd 3b d6 00 50 38 65 78 52 38
       0.00061451533 0.006768083 4.9591843e-05 5.0180028e-05
000140 3a ce 67 bd b0 72 61 3b 35 6f 5c 3d 34 06 e4 bc
       -0.056593157 0.0034400634 0.053816993 -0.02783499
000150 b0 72 61 3b 88 2f 40 3d bc 25 b1 36 45 fa b3 36
       0.0034400634 0.04692033 5.279404e-06 5.363751e-06
000160 df c9 86 3c 18 dd 3f ba 1c 01 64 bc 06 af bc 3b
       0.016453682 -0.00073190173 -0.01391628 0.005758169
000170 18 dd 3f ba 00 3e 26 bc 5e 3c a2 36 8b cd a0 36
       -0.00073190173 -0.010146618 4.835004e-06 4.7923e-06
000180 ef dc 49 be 29 7e 1e 3c 54 b5 30 3e 34 6f 9d bd
       -0.19713186 0.009673634 0.17256671 -0.07687226
000190 29 7e 1e 3c 20 8b 08 3e e4 c7 84 b6 74 e4 94 b6
       0.009673634 0.13334322 -3.957177e-06 -4.437339e-06
0001a0 7d 8b 10 bc 42 47 de ba 24 e0 c4 bb 60 0e 77 3c
       -0.008822319 -0.0016958492 -0.006008165 0.015079111
0001b0 42 47 de ba ea 5d b2 bc 47 f0 0c b8 f4 c5 0f b8
       -0.0016958492 -0.021773297 -3.3602377e-05 -3.4278215e-05
0001c0 4e 73 12 b7 fe 67 00 36 3f 74 90 37 bf fb 88 b7
       -8.729125e-06 1.9134018e-06 1.7220269e-05 -1.6329692e-05
0001d0 fe 67 00 36 50 d0 d3 37 4d 5c 25 33 b7 ae 24 33
       1.9134018e-06 2.5250163e-05 3.8501003e-08 3.8343128e-08
0001e0 22 c8 c4 bc cf b9 2b 3a ae 96 90 3c 82 94 9d bb
       -0.024021212 0.000655082 0.017649975 -0.0048089633
0001f0 cf b9 2b 3a 53 71 1a 3c 96 b0 5a b7 88 a7 59 b7
       0.000655082 0.009426433 -1.3034927e-05 -1.2973214e-05
000200 c7 1e 84 be 25 94 61 3c 1e 9d 6e 3e 3c d1 e1 bd
       -0.2580473 0.013768231 0.23302123 -0.110262364
000210 25 94 61 3c 40 77 41 3e 5a 19 dd 38 e5 e8 d1 38
       0.013768231 0.18893147 0.00010542823 0.000100092766
000220 02 6a fd bd 8d b3 ab 3b da d7 d2 3d 4a 04 28 bd
       -0.12373735 0.00523991 0.10295077 -0.041019715
000230 8d b3 ab 3b f7 30 95 3d 83 38 27 37 c6 16 0b 37
       0.00523991 0.0728473 9.967133e-06 8.290348e-06
000240 a1 eb 0c bb ef 3a 5a 39 7d bb 26 3b 5b fa e2 ba
       -0.002150275 0.00020812055 0.0025441342 -0.0017317043
000250 ef 3a 5a 39 c6 e7 36 3b 8b 8d 97 36 f4 35 94 36
       0.00020812055 0.0027909144 4.5166285e-06 4.4170247e-06
000260 d8 1a 8c bc 1a 9a 48 3b 60 0a f0 3c 12 2e d5 bc
       -0.017102644 0.003060943 0.029301822 -0.026022945
000270 1a 9a 48 3b 67 dc 25 3d b4 f5 1b 39 e0 03 17 39
       0.003060943 0.040493395 0.00014873483 0.00014401926
000280 89 77 5d bc e9 dd 63 ba 2c 42 ff 3a 52 2b 04 3c
       -0.013517269 -0.000869243 0.0019474677 0.008066969
000290 e9 dd 63 ba 85 50 31 bc 44 c0 3c b8 8e a6 39 b8
       -0.000869243 -0.01082242 -4.5001754e-05 -4.4262553e-05
0002a0 df 5e d5 3c 74 d3 b2 ba 2d 56 bf bc 42 a7 32 3c
       0.026046215 -0.001364334 -0.023356522 0.010904135
0002b0 74 d3 b2 ba e6 8c 99 bc 93 38 11 37 2e 3f 0b 37
       -0.001364334 -0.018743943 8.655846e-06 8.299756e-06
0002c0 ce b7 b5 b9 d8 5b ce 39 c6 13 33 3b 16 9d 5f bb
       -0.00034659955 0.0003935981 0.0027325018 -0.003412073
0002d0 d8 5b ce 39 09 77 a8 3b 82 9c 1b 37 90 b5 19 37
       0.0003935981 0.005141143 9.27516e-06 9.161784e-06
0002e0 ec 02 5a be 50 0d 59 3c 30 57 51 3e 23 f6 db bd
       -0.21290177 0.013247803 0.20443416 -0.10740306
0002f0 50 0d 59 3c 30 d0 38 3e 3b b4 0d 39 55 70 09 39
       0.013247803 0.18048167 0.00013513949 0.00013107185
000300 5d c7 da bd 9a ff 89 3b 5c e6 b1 3d 44 f4 05 bd
       -0.10682557 0.0042113783 0.08686516 -0.032703653
000310 9a ff 89 3b 40 e5 70 3d 8a 4e f3 37 5d af da 37
       0.0042113783 0.05881238 2.900443e-05 2.6069285e-05
000320 48 3f 31 b8 50 8f 83 b4 9e da b8 37 c0 ad 61 36
       -4.2259024e-05 -2.4504925e-07 2.203631e-05 3.3628748e-06
000330 50 8f 83 b4 10 71 04 b6 a2 ef ec 35 fb 2a e1 35
       -2.4504925e-07 -1.9735344e-06 1.7653113e-06 1.6776315e-06
000340 d5 2d 4d be d9 4d 32 3c 5a 8c 3a 3e 68 c7 b2 bd
       -0.20037015 0.010882818 0.18217602 -0.0872944
000350 d9 4d 32 3c 22 c7 18 3e 9b 8a 04 39 c0 1b fe 38
       0.010882818 0.14919713 0.00012640136 0.00012116833
000360 81 fd f2 ba 1e 8d 2f 39 b2 ab 0a 3b ce 09 b6 ba
       -0.0018538685 0.00016741871 0.0021159467 -0.001388842
000370 1e 8d 2f 39 a0 68 13 3b 15 d4 cb 36 d0 9d c4 36
       0.00016741871 0.0022492781 6.074561e-06 5.859627e-06
000380 56 9f f7 b9 bf 8f 03 38 4e 76 f4 39 de f4 85 b9
       -0.00047230226 3.1366708e-05 0.0004662745 -0.00025550177
000390 bf 8f 03 38 cb 68 df 39 a6 94 06 35 4c b7 01 35
       3.1366708e-05 0.0004261195 5.01352e-07 4.8322977e-07
0003a0 d4 c5 85 b9 bc ec 62 b8 86 68 58 b9 8b 96 fb 39
       -0.0002551513 -5.4103075e-05 -0.00020638303 0.00047986614
0003b0 bc ec 62 b8 fd 69 36 ba d3 21 59 35 42 de 3b 35
       -5.4103075e-05 -0.00069585425 8.088802e-07 6.9986356e-07
0003c0 ea 01 f2 38 20 35 17 37 70 55 d5 b6 77 8f ad b8
       0.00011539816 9.0126705e-06 -6.357841e-06 -8.276005e-05
0003d0 20 35 17 37 22 2c ed 38 57 5f 14 35 4f c5 11 35
       9.0126705e-06 0.00011309261 5.5273034e-07 5.430383e-07
0003e0 ae 17 43 ba 00 68 65 36 be 9e e5 39 00 ef 6a b6
       -0.0007442188 3.4184195e-06 0.00043796556 -3.5007834e-06
0003f0 00 68 65 36 80 5e 94 38 26 19 bd 36 06 be b3 36
       3.4184195e-06 7.074792e-05 5.6355666e-06 5.3567373e-06

exp_avg_sq f4 [128, 8]
000000 ef ea 91 36 0d b2 8e 32 48 bd 7f 36 eb ba 93 35
       4.3486866e-06 1.6611944e-08 3.8108137e-06 1.1006754e-06
000010 fd b1 8e 32 9c 10 4e 36 5d 3f c2 2d 43 24 c2 2d
       1.6611915e-08 3.070606e-06 2.2083385e-11 2.207135e-11
000020 95 3b a0 3c 7d 53 0d 39 bc f6 95 3c 64 56 1b 3c
       0.01955966 0.0001347791 0.018306129 0.009481046
000030 38 53 0d 39 bb e5 c4 3c c8 68 41 35 0d dc 40 35
       0.00013477809 0.024035325 7.205058e-07 7.184579e-07
000040 aa 9b 51 3b b7 c3 ac 37 83 7a 42 3b ff 44 bd 3a
       0.0031983652 2.0595135e-05 0.0029675073 0.0014440118
000050 7a c3 ac 37 12 36 71 3b 7d 1f dc 33 b1 a4 dc 33
       2.0595024e-05 0.003680591 1.0250276e-07 1.02745055e-07
000060 9d 86 2d 3c df 0f ff 38 c4 84 30 3c c8 d8 10 3c
       0.010591176 0.00012162304 0.010773841 0.008840747
000070 52 0f ff 38 85 fa ad 3c 2f b7 6e 35 7a 6a 6e 35
       0.00012162201 0.021237621 8.8928476e-07 8.8816853e-07
000080 03 3d 61 3d 88 d9 5e 39 5c bb 43 3d 59 da 67 3c
       0.054989826 0.00021252607 0.0477861 0.014151179
000090 77 d9 5e 39 fc 76 20 3d 20 c6 be 34 8f b1 be 34
       0.00021252582 0.039175972 3.5534413e-07 3.551945e-07
0000a0 63 96 09 3c c7 ff b7 39 b8 20 54 3c ac 7d d7 3c
       0.008397671 0.0003509505 0.012947254 0.026305042
0000b0 4e ff b7 39 f9 d4 75 3d 0e f2 59 36 12 aa 59 36
       0.00035094697 0.06001756 3.2476414e-06 3.2434514e-06
0000c0 85 13 e1 37 af c5 fd 34 38 09 fe 37 74 54 12 38
       2.683118e-05 4.7268756e-07 3.0283452e-05 3.4887766e-05
0000d0 1c c5 fd 34 ce 57 ab 38 ae 0e 82 31 7e 7f 81 31
       4.7268338e-07 8.17027e-05 3.785167e-09 3.7688883e-09
0000e0 bb f3 b8 3d 61 e1 9b 39 8f 98 9f 3d 19 e0 9d 3c
       0.09030863 0.00029731824 0.0779277 0.019271897
0000f0 61 e1 9b 39 b5 e5 63 3d e6 34 09 31 b9 97 08 31
       0.00029731824 0.055638988 1.9966193e-09 1.987685e-09
000100 ab 33 85 35 da 92 54 33 53 cc dc 35 48 d2 79 36
       9.92431e-07 4.9493657e-08 1.6450743e-06 3.7226291e-06
000110 55 92 54 33 61 ac 0d 37 06 7f 0d 30 a2 fe 0c 30
       4.9493185e-08 8.44439e-06 5.147601e-10 5.129356e-10
000120 1a a5 6f 3c c5 13 35 39 44 45 77 3c 69 59 4d 3c
       0.014626766 0.0001726887 0.015092198 0.012533524
000130 75 13 35 39 bd 40 f7 3c 02 98 a7 35 26 67 a7 35
       0.00017268753 0.030182237 1.248671e-06 1.247249e-06
000140 ec 03 53 3d bb 4a 32 39 bc f3 35 3d 33 b2 34 3c
       0.051517412 0.00017003242 0.044421896 0.011028814
000150 b9 4a 32 39 a7 48 02 3d 28 71 22 32 e8 38 22 32
       0.00017003239 0.031807568 9.45537e-09 9.44258e-09
000160 8e 50 55 3b 04 f4 3d 37 5b 25 39 3b 7c 08 42 3a
       0.0032549235 1.1322092e-05 0.0028251025 0.0007401777
000170 fc f3 3d 37 a3 32 0a 3b 5e c8 c2 31 72 7f c2 31
       1.1322085e-05 0.002108731 5.668922e-09 5.660632e-09
000180 6c cc 05 3f 01 62 ea 3a 09 06 e8 3e 3c bb ee 3d
       0.5226505 0.0017881991 0.45317104 0.11656806
000190 f7 61 ea 3a 5c cb aa 3e d4 70 1c 35 f5 8b 1c 35
       0.0017881979 0.33358276 5.8278715e-07 5.8318193e-07
0001a0 28 f7 4f 3a 75 99 a2 38 43 10 ff 3a 19 9a bf 3b
       0.00079332525 7.7533456e-05 0.0019459802 0.0058472273
0001b0 00 99 a2 38 9f 4d 58 3c 26 be 4a 35 c8 cb 4a 35
       7.7532604e-05 0.0132021 7.5527566e-07 7.5547405e-07
0001c0 ec f3 80 31 82 13 35 2e 1c 17 7b 31 f5 66 4e 31
       3.753021e-09 4.117196e-11 3.6538443e-09 3.003547e-09
0001d0 29 13 35 2e a1 7c f6 31 d2 32 bc 2a 64 8a bb 2a
       4.1171653e-11 7.173711e-09 3.3430772e-13 3.33139e-13
0001e0 d4 4f 2a 3c af 36 2b 38 f5 f7 14 3c ef 36 32 3b
       0.010395009 4.0820505e-05 0.009092321 0.0027193388
0001f0 9d 36 2b 38 78 7d f6 3b 05 31 8a 33 e2 ba 89 33
       4.082044e-05 0.0075222813 6.4350424e-08 6.4135534e-08
000200 05 01 68 3f ab 1a 6c 3b 46 47 4c 3f 71 a3 75 3e
       0.90626556 0.0036026638 0.79796255 0.23988129
000210 89 1a 6c 3b ad fe 29 3f b7 22 bc 36 bc f2 bb 36
       0.0036026558 0.6640423 5.606878e-06 5.6012923e-06
000220 ee b3 52 3e 93 4a 55 3a 5d 70 39 3e d0 c5 5d 3d
       0.2057645 0.00081364176 0.1810927 0.054143727
000230 7d 4a 55 3a 37 9f 19 3e 5a a6 ae 35 d9 02 af 35
       0.0008136405 0.15002142 1.3012425e-06 1.3039345e-06
000240 a7 23 b7 38 90 d6 e9 34 cf cd a3 38 0e 72 fa 37
       8.732761e-05 4.3555747e-07 7.8107805e-05 2.9855433e-05
000250 51 d6 e9 34 72 86 a5 38 bd 85 de 30 20 e9 dd 30
       4.3555568e-07 7.8928555e-05 1.6190637e-09 1.6146124e-09
000260 6f 96 2d 3c 6d fd b4 39 14 91 70 3c aa 4c d3 3c
       0.010594948 0.00034521092 0.014683027 0.025793392
000270 ff fc b4 39 c4 59 72 3d b7 af 5a 36 20 36 5a 36
       0.00034520772 0.05916764 3.258681e-06 3.2516036e-06
000280 cb b6 dd 3a f9 51 20 38 a2 24 02 3b 54 2c 3a 3b
       0.0016915438 3.8223316e-05 0.001985826 0.002840777
000290 81 51 20 38 00 78 d7 3b 99 bf c0 34 67 c1 c0 34
       3.822288e-05 0.0065755844 3.5902193e-07 3.5903506e-07
0002a0 6b 76 e9 3b 52 f9 d2 37 32 87 c9 3b 99 6e d8 3a
       0.007124712 2.515005e-05 0.0061501497 0.0016512453
0002b0 4b f9 d2 37 25 21 99 3b f3 10 b3 32 c4 af b2 32
       2.5150037e-05 0.0046731406 2.084605e-08 2.0801856e-08
0002c0 ec 91 23 38 12 ba da 35 38 b1 76 38 ec 01 00 39
       3.899813e-05 1.6296419e-06 5.881602e-05 0.00012207747
0002d0 6f b9 da 35 f9 2b 92 39 3b d1 8a 32 98 05 8b 32
       1.6296234e-06 0.00027880052 1.6160461e-08 1.6184273e-08
0002e0 99 14 27 3f 84 c1 21 3b 11 53 12 3f 3e 28 27 3e
       0.65265805 0.0024681995 0.57158 0.16323945
0002f0 6f c1 21 3b 47 d4 e9 3e cd 68 4a 36 02 b8 49 36
       0.0024681946 0.45669767 3.0161348e-06 3.005844e-06
000300 a4 38 1a 3e 16 ae 4e 3a e3 ac 0b 3e a4 a9 5d 3d
       0.15060669 0.0007884217 0.1364017 0.05411686
000310 d8 ad 4e 3a 09 29 12 3e 75 6c 36 36 60 52 36 36
       0.0007884181 0.14273466 2.7183244e-06 2.7168062e-06
000320 d2 18 93 35 b2 a8 0b 34 29 72 4d 36 0a 21 25 37
       1.0959577e-06 1.3006755e-07 3.061383e-06 9.842459e-06
000330 55 a8 0b 34 e3 5c b9 37 b4 48 ba 30 0c 9b b9 30
       1.3006623e-07 2.2096972e-05 1.3553945e-09 1.3504589e-09
000340 42 ef 11 3f f3 e3 1f 3b b9 58 01 3f 8e f1 27 3e
       0.57005703 0.0024397343 0.50526005 0.1640074
000350 d6 e3 1f 3b cc f8 e4 3e 06 bc b0 36 44 41 b0 36
       0.0024397275 0.44721067 5.2670975e-06 5.2528067e-06
000360 e4 95 8a 38 d9 1b 5f 35 34 38 8f 38 2e 45 7e 38
       6.608272e-05 8.31145e-07 6.82924e-05 6.0622748e-05
000370 5f 1b 5f 35 65 d7 17 39 c2 42 d8 31 15 a7 d7 31
       8.3113804e-07 0.00014480723 6.294017e-09 6.2763186e-09
000380 9a d9 82 36 33 28 99 32 b9 43 69 36 ba 5a a2 35
       3.899634e-06 1.7829825e-08 3.4759125e-06 1.2096345e-06
000390 13 28 99 32 b5 28 5a 36 ae e3 55 2e 46 1d 55 2e
       1.7829768e-08 3.2508226e-06 4.8632813e-11 4.8456593e-11
0003a0 7a c6 7d 36 67 56 ba 34 83 8b 16 37 1f 02 dc 37
       3.7815466e-06 3.4708066e-07 8.973179e-06 2.6227031e-05
0003b0 de 55 ba 34 74 8f 77 38 4f 45 5d 31 a5 ce 5c 31
       3.4707676e-07 5.902299e-05 3.219913e-09 3.2131677e-09
0003c0 a4 14 bf 33 3f 12 45 31 64 b9 01 34 00 b4 66 34
       8.897885e-08 2.8677645e-09 1.2081506e-07 2.1485903e-07
0003d0 c5 11 45 31 bc b3 03 35 52 70 ef 2d 1b 03 ef 2d
       2.8677374e-09 4.906285e-07 2.7221034e-11 2.7172533e-11
0003e0 39 09 e3 37 d6 2a de 35 4b 6e 54 38 12 73 02 39
       2.7064803e-05 1.6552756e-06 5.0647457e-05 0.00012440633
0003f0 38 2a de 35 2a 21 94 39 e0 4d 88 32 f0 ee 87 32
       1.6552576e-06 0.0002825347 1.5867897e-08 1.5824725e-08
