ML Agents tutorial/Assets/results/RollerBall_2walls_between_time_col/RollerBall/RollerBall-1247.pt (torch, 542025 bytes, 39 tensors)

network_body._body_endoder.seq_layers.0.weight f4 [128, 39]
0.21247552 0.27093658 0.38767055 0.26594073 0.20098004 0.035077017 0.018832562 -0.07189487
0.14304766 0.0039644837 -0.21998052 -0.110360436 0.21511436 0.10685893 0.09456497 0.062012445
0.17597868 0.016980113 -0.039328095 -0.3163799 -0.105733715 -0.11808381 -0.24668792 0.18081279
0.04628489 -0.06722906 0.0057899887 -0.04304767 0.043431252 -0.018093709 -0.182975 -0.0999604
-0.03901991 -0.09707052 -0.18580092 0.101652 -0.09828194 0.20726228 -0.041824702 -0.10600022
0.04194822 0.10878327 -0.14411426 -0.13065018 -0.1164136 -0.18017823 -0.035541058 -0.02521023
0.23360328 -0.02548375 0.26443952 -0.36413693 -0.16106984 0.20173907 -0.077831775 0.092422396
-0.12201328 0.0054074856 -0.08653866 -0.03512942 -0.061048295 -0.12632716 0.09470165 -0.27959517
-0.24436276 0.037693605 -0.07148386 -0.20254947 0.32052654 -0.16887154 -0.2907617 0.08496004
0.01755084 0.2233869 -0.07004793 -0.036190066 -0.027055291 -0.04715792 -0.26354796 -0.05257791
0.09864179 -0.033485677 0.21313782 -0.10786317 -0.22136606 -0.09557001 -0.1144309 -0.3242283
0.031234613 0.08547504 -0.024277544 0.28285444 0.2023807 0.3300846 -0.09553351 0.27879736
0.07353701 -0.04335488 -0.04804796 0.0026646878 -0.038483027 0.106386185 0.15990156 0.13398866
0.24679017 -0.096839555 -0.2050634 0.2308387 -0.19760787 0.33428353 -0.22595014 -0.121032044
0.107507326 0.063058116 -0.049452003 -0.13646087 0.09056857 -0.21070875 -0.023801517 0.09432993
0.0703864 -0.10290651 0.18439478 -0.13112739 0.06052249 0.028740635 -0.16082335 0.06278215
-0.09124451 0.344422 0.033060778 0.10846344 -0.25904807 -0.07991904 0.08102376 -0.095088445
-0.1181692 0.21063454 0.11591434 0.07074836 -0.28444666 0.24885687 0.09624731 -0.016721763
-0.085981116 0.21137689 -0.0815204 -0.115347 -0.042167827 -0.2200007 0.21060641 0.12128817
-0.000908128 -0.03831988 0.037030157 0.20851387 -0.032481853 0.14835906 -0.019197788 0.17310342
0.11577132 -0.096442044 0.085802056 0.1059501 0.027953766 -0.14409365 -0.16515054 -0.19420123
0.14610478 0.12151587 0.009304459 -0.22579427 -0.107181296 -0.03241601 -0.10978255 -0.18381748
-0.16357568 0.15239833 -0.16573024 0.11115929 -0.08049258 0.14116229 -0.25888953 0.10678339
0.04105496 0.07180825 -0.22371791 0.09982521 -0.039280962 0.087911 -0.21706186 0.097453095
-0.13753745 0.05335626 -0.13991971 0.29321277 0.13539217 0.022815943 -0.26239753 -0.015347556
0.16119288 -0.04806617 0.120049834 -0.2776157 -0.08282343 0.15782583 -0.08972265 -0.11092171
0.17519914 0.11234116 -0.212918 0.24217755 -0.03873994 -0.20402013 -0.17933738 -0.05971091
0.15258794 0.1472349 -0.21786682 0.26921466 -0.12929264 -0.05987364 0.14359674 -0.061310317
0.13455182 -0.25621426 -0.11840872 -0.11611872 -0.038004622 -0.22214986 0.1350357 0.13869506
-0.12383343 -0.062369447 -0.044827048 0.45013952 -0.0025695 -0.23983553 -0.22039598 0.16791211
0.08410632 -0.051223304 0.04810931 0.20536985 -0.16152266 0.09854053 0.019122027 -0.064339116
-0.15247436 0.29324841 0.04670862 -0.14871365 0.028316375 0.17207551 0.07214083 -0.3540377
00000000: 2f93 593e 33b8 8a3e c17c c63e 6229 883e
00000010: b6cd 4d3e ebac 0f3d bf46 9a3c 9e3d 93bd
00000020: 167b 123e 80e8 813b 9342 61be a704 e2bd
00000030: f046 5c3e dbd8 da3d 47ab c13d c300 7e3d
00000040: c133 343e e119 8b3c 7f16 21bd 8cfc a1be
00000050: eb8a d8bd edd5 f1bd c29b 7cbe fd26 393e
00000060: 3a95 3d3d 64af 89bd f2b9 bd3b c152 30bd
00000070: f8e4 313d 4239 94bc cc5d 3bbe 0ab8 ccbd
00000080: 57d3 1fbd e9cc c6bd 9942 3ebe ec2e d03d
00000090: 0b48 c9bd 903c 543e 6150 2bbd a516 d9bd
000000a0: e6d1 2b3d c3c9 de3d b092 13be 29c9 05be
000000b0: 416a eebd a480 38be 8093 11bd af85 cebc
000000c0: b335 6f3e 4cc3 d0bc 9e64 873e 2870 babe
000000d0: 7eef 24be b094 4e3e 4466 9fbd f447 bd3d
000000e0: 19e2 f9bd 4731 b13b 2e3b b1bd dee3 0fbd
000000f0: c70d 7abd e85b 01be f0f2 c13d 1927 8fbe
00000100: 3b3a 7abe 9c64 1a3d 2166 92bd 2169 4fbe
00000110: 0e1c a43e a9ec 2cbe b8de 94be 88ff ad3d
00000120: c7c6 8f3c 89bf 643e 4a75 8fbd 093c 14bd
00000130: 0fa3 ddbc aa28 41bd c2ef 86be ef5b 57bd
00000140: b504 ca3d 4728 09bd cd40 5a3e 5ee7 dcbd
00000150: c9ad 62be 36ba c3bd bf5a eabd 4001 a6be
00000160: bbdf ff3c 8a0d af3d b3e1 c6bc 4cd2 903e
00000170: e33c 4f3e d900 a93e 13a7 c3bd 87be 8e3e
00000180: 929a 963d e394 31bd f0cd 44bd 0ba2 2e3b
00000190: 61a0 1dbd 00e1 d93d 3cbd 233e 5334 093e
000001a0: 90b6 7c3e d153 c6bd 24fc 51be fb60 6c3e
000001b0: b859 4abe 3627 ab3e 795f 67be a6df f7bd
000001c0: cd2c dc3d 9d24 813d 2f8e 4abd 66bc 0bbe
000001d0: 047c b93d 09c4 57be 66fb c2bc 0d30 c13d
000001e0: bf26 903d a6c0 d2bd fcd1 3c3e 4246 06be
000001f0: 6ee6 773d 7b71 eb3c e0ae 24be ee93 803d
00000200: 67de babd 1558 b03e bd6a 073d 1422 de3d
00000210: f3a1 84be 98ac a3bd c9ef a53d bbbd c2bd
00000220: b202 f2bd 95b0 573e 7f64 ed3d 84e4 903d
00000230: fea2 91be 56d4 7e3e 4f1d c53d 14fc 88bc
00000240: de16 b0bd 2f73 583e 2bf4 a6bd 0c3b ecbd
00000250: 2cb8 2cbd dd47 61be 35a9 573e ef65 f83d
00000260: 700f 6eba 4ef5 1cbd efac 173d a984 553e
00000270: b10b 05bd 70eb 173e ae44 9dbc 0642 313e
00000280: 8419 ed3d 6883 c5bd fdb8 af3d 5efc d83d
00000290: 4cff e43c 498d 13be 391d 29be b0dc 46be
000002a0: 7e9c 153e 50dd f83d bb71 183c 9d36 67be
000002b0: de81 dbbd a6c6 04bd acd5 e0bd a63a 3cbe
000002c0: 6280 27be 4f0e 1c3e 30b5 29be 7ba7 e33d
000002d0: 4bd9 a4bd d98c 103e 2b8d 84be 40b1 da3d
000002e0: 3f29 283d 3410 933d 4f16 65be 2971 cc3d
000002f0: 13e5 20bd af0a b43d 7745 5ebe 7d95 c73d
00000300: 9ed6 0cbe 188c 5a3d 1d47 0fbe fc1f 963e
00000310: 3fa4 0a3e 80e8 ba3c f858 86be 5174 7bbc
00000320: bf0f 253e 08e1 44bd b0dc f53d a523 8ebe
00000330: 559f a9bd 189d 213e 82c0 b7bd ec2a e3bd
00000340: 6767 333e 1f13 e63d 2d07 5abe 64fd 773e
00000350: c5ad 1ebd a7ea 50be 38a4 37be 6d93 74bd
00000360: 0340 1c3e bfc4 163e 7b18 5fbe 81d6 893e
00000370: 4a65 04be 103e 75bd 060b 133e 8720 7bbd
00000380: f4c7 093e 842e 83be 4580 f2bd a7cf edbd
00000390: bcaa 1bbd 417b 63be cc46 0a3e 1406 0e3e
000003a0: 629c fdbd 1b77 7fbd 919c 37bd b078 e63e
000003b0: 0e65 28bb 7297 75be 7caf 61be 27f1 2b3e
000003c0: ef3f ac3d 87cf 51bd 450e 453d 794c 523e
000003d0: 3266 25be 9ecf c93d cca5 9c3c 3ac4 83bd
000003e0: 3d22 1cbe a824 963e 8a51 3f3d 6448 18be
000003f0: bef7 e73c 9034 303e 92be 933d 6e44 b5be

network_body._body_endoder.seq_layers.0.bias f4 [128]
-0.0044652997 0.0066606333 0.0028133476 0.000250526 0.00955609 -0.0039480827 -0.00055466697 0.0064643226
0.0005671496 0.0016440797 0.00053361786 -0.0010929111 0.005720817 0.0038977435 -0.011559884 -0.0009063247
-0.0024623065 -0.0001946949 -0.00085503864 -0.0022357374 -0.0019195452 -0.0075360457 -0.00017204537 0.005041359
0.007994689 -0.0038192794 0.0021956814 -0.0041480013 0.006568192 -0.007768874 -3.580064e-05 -0.00523585
-0.00088569906 -0.0035772745 -0.0042069377 0.00038196874 -0.0023504933 -0.003701629 0.0016403082 0.0005648146
-0.0021133758 -0.0040847985 -0.0010575913 -0.00762194 0.007989704 -0.014538992 0.004103668 -0.006342903
0.0029940295 0.008232351 0.0017686223 -0.0010160498 0.00934625 -0.0029104282 -0.00525155 0.0056109386
-0.0044568446 0.0008705406 -0.0045396998 0.0068850126 -0.0043764682 0.0009785054 -0.009276217 0.0038905228
-0.00012771346 -0.003604138 0.0069145933 -0.010083889 -0.0031440756 0.0016550748 0.0013341339 0.001550168
-0.0129104825 0.0050209835 0.0012835099 -3.2002263e-05 -0.0018918209 0.0047724517 0.0058981576 0.0038186198
-3.1887415e-05 0.00050792366 0.0012701924 -0.0021399972 -0.006272331 0.006608314 -0.003617545 -0.004620691
-0.01201023 -0.0025445698 -0.010421037 0.003460227 -0.012035994 0.0070984745 0.0042413278 -0.0041191997
-0.0009943701 -0.0030001972 -0.0026401102 -0.00048427365 -0.004712091 0.0012813433 -0.0062493198 -0.006009687
0.00046795423 -0.008483917 0.0012533097 -0.0067758113 0.0039250124 -0.005719454 0.0012449737 0.0004804159
0.011548102 -0.007833063 -0.0004809869 -0.0038101177 -0.0019349848 -0.006913563 -0.0081011085 0.0027574415
-0.0027885395 -0.0004413073 0.0011202226 0.0035349617 0.00020325294 -0.00018245143 0.0028431348 -0.0033821613
00000000: a651 92bb 7141 da3b 2460 383b 0859 8339
00000010: 2691 1c3c eb5e 81bb 1267 11ba abd2 d33b
00000020: c4ac 143a 297e d73a 7de2 0b3a 0340 8fba
00000030: b175 bb3b 4971 7f3b ab65 3dbc 6c96 6dba
00000040: a65e 21bb 0427 4cb9 ac24 60ba 7385 12bb
00000050: 4099 fbba eff0 f6bb 1467 34b9 fc31 a53b
00000060: 28fc 023c e04c 7abb 6ce5 0f3b f5eb 87bb
00000070: fd39 d73b 0a92 febb a528 16b8 7e91 abbb
00000080: 422e 68ba b570 6abb 5ada 89bb fa42 c839
00000090: bc0a 1abb 0797 72bb 9cff d63a 1110 143a
000000a0: 9080 0abb c6d9 85bb e09e 8aba 78c1 f9bb
000000b0: 3fe7 023c f434 6ebc 1078 863b 20d8 cfbb
000000c0: 7b37 443b fce0 063c 1ed1 e73a f92c 85ba
000000d0: 0421 193c e2bc 3ebb 3215 acbb f7db b73b
000000e0: b90a 92bb fe34 643a c3c1 94bb ac9b e13b
000000f0: 7a68 8fbb 3141 803a 46fb 17bc 24f8 7e3b
00000100: d2ea 05b9 6733 6cbb d093 e23b e536 25bc
00000110: d60c 4ebb 18ef d83a 1bde ae3a 022f cb3a
00000120: 7d86 53bc 1087 a43b 723b a83a 2b3a 06b8
00000130: faf6 f7ba 3a62 9c3b 5545 c13b cf41 7a3b
00000140: dabe 05b8 2e26 053a 967c a63a 323f 0cbb
00000150: 2088 cdbb 8e8a d83b 5514 6dbb 2a69 97bb
00000160: 8ec6 44bc ccc2 26bb ffbc 2abc fac4 623b
00000170: 9e32 45bc 529a e83b d6fa 8a3b 5afa 86bb
00000180: 8655 82ba f59e 44bb b305 2dbb 1ce6 fdb9
00000190: e267 9abb bff2 a73a 18c7 ccbb e9ec c4bb
000001a0: c157 f539 2100 0bbc 1846 a43a a007 debb
000001b0: 649d 803b 426a bbbb 632e a33a 55e0 fb39
000001c0: 4034 3d3c 3f56 00bc f82c fcb9 2bb3 79bb
000001d0: 519f fdba 2b8b e2bb 83ba 04bc 31b6 343b
000001e0: eebf 36bb 435f e7b9 6fd4 923a d1aa 673b
000001f0: 4c20 5539 6f50 3fb9 e353 3a3b 40a7 5dbb

network_body._body_endoder.seq_layers.2.weight f4 [128, 128]
-0.14081293 0.14404477 -0.04280142 -0.10587015 -0.13207713 0.047356833 0.1473903 0.20241663
-0.09555801 0.115183555 0.058257997 -0.12974444 0.050830297 0.057704303 -0.115203746 -0.062637135
-0.03471269 -0.038095046 0.10390828 -0.100227274 -0.14674994 0.008597168 -0.13111009 -0.029170241
-0.030091155 0.060583938 0.0629531 0.1180444 0.074014775 0.016326318 0.052987836 0.044519212
-0.12211002 -0.025847824 -0.07603102 0.13721372 0.1263477 0.04227396 -0.16732255 0.07456639
0.09194527 -0.16835475 -0.04372241 -0.04850879 0.0068471273 -0.1327963 -0.08716621 0.04822135
0.1777229 -0.03832953 -0.018289104 0.08289782 -0.110772096 0.067778565 0.055325232 -0.07847496
0.03234121 -0.031632617 0.0112307295 -0.06742141 -0.042712398 -0.15509847 0.05327946 0.11663377
0.10701711 0.016149035 -0.0870023 0.01564868 0.009032426 -0.025373591 0.04215046 0.007858014
0.059751008 0.14017347 -0.069064505 -0.0023090139 0.018489426 -0.06283523 0.10474224 -0.075400986
0.06427918 -0.0748661 -0.010202088 -0.1414931 -0.074281216 0.046217192 -0.049464487 -0.07736565
-0.12596989 0.11700794 0.015913924 0.024755754 -0.09904776 0.04252634 -0.009685494 0.022979409
-0.11302991 0.011346964 0.073730305 -0.08530204 0.023734884 -0.112808816 -0.14077722 0.11378673
0.033408433 0.033426665 -0.11150428 -0.07261464 0.004075755 -0.027231235 -0.05876819 -0.042784836
-0.015140917 0.050247595 0.19025518 0.074906684 -0.04004911 -0.116356134 -0.11936505 -0.08768653
0.02197405 -0.04003711 0.1346721 -0.03175381 -0.048196368 0.031257495 0.10830401 0.23137586
-0.00171913 0.05959995 0.10925134 0.07120427 -0.040308625 0.03774965 0.07107574 0.08826048
0.067861706 -0.030986447 0.0534006 -0.11618278 -0.092060864 -0.047382083 -0.041467443 -0.06895213
0.056172602 0.12362634 0.20335655 -0.033776745 0.16663055 0.080853306 -0.08083765 0.14948219
0.14053877 -0.046368614 0.042602997 -0.15640326 -0.06699767 0.06718763 -0.091822416 0.0677704
-0.051630236 -0.00046897776 -0.038698483 0.15902022 0.14094377 -0.012208955 0.14025436 -0.14911075
0.116863556 0.043735392 -0.04942101 -0.1252309 0.025762638 0.1682851 0.043932248 0.01237531
0.044708546 0.08921889 0.08105938 0.036280815 -0.0057887477 0.002080311 -0.059923425 0.16219185
0.11420487 0.0069741537 -0.19204432 -0.08540481 -0.016653802 0.0061230636 -0.06928575 -0.08199921
-0.0010783104 -0.062185798 -0.04825085 -0.039734025 -0.0072798734 0.038537756 0.17043383 -0.019628039
0.0006182163 -0.02645902 0.08919759 0.029193157 0.09744304 0.05175755 -0.058714088 -0.09883151
-0.13621517 -0.09500883 -0.053070772 -0.016485559 0.00065696624 0.06207693 -0.08831884 0.043237366
-0.04485238 0.08386142 0.058352415 0.14359078 0.1970032 0.010217711 -0.11571219 0.006949875
-0.044209115 0.12024119 0.10944837 -0.07858403 0.00084190833 -0.13390072 0.083343305 -0.16334444
-0.03890181 0.12515011 -0.17547005 -0.118973926 0.112619676 -0.004737507 -0.052984014 -0.14608893
0.10811371 -0.0776825 0.042179585 -0.14598367 -0.20730017 -0.12350787 0.078482114 0.20248255
0.013992683 0.04107217 -0.16369979 0.023000196 -0.0688485 -0.010870541 -0.03474807 -0.055944372
00000000: 4431 10be 7980 133e 8b50 2fbd 73d2 d8bd
00000010: 3a3f 07be 3df9 413d 7ced 163e 4e46 4f3e
00000020: ebb3 c3bd 5be5 eb3d f09f 6e3d badb 04be
00000030: 6e33 503d 595b 6c3d f1ef ebbd e647 80bd
00000040: e52e 0ebd 8d09 1cbd ddcd d43d f543 cdbd
00000050: 9e45 16be 23db 0c3c b941 06be 6ef6 eebc
00000060: ba81 f6bc dd26 783d 8eed 803d 43c1 f13d
00000070: 0f95 973d c5be 853c c609 593d c759 363d
00000080: d114 fabd d1be d3bc 27b6 9bbd c181 0c3e
00000090: 4b61 013e 7627 2d3d 9a56 2bbe 43b6 983d
000000a0: cd4d bc3d 3065 2cbe 4516 33bd 27b1 46bd
000000b0: de5d e03b c1fb 07be 3384 b2bd c083 453d
000000c0: fefc 353e 6dff 1cbd 08d3 95bc 55c6 a93d
000000d0: 7bdc e2bd 7dcf 8a3d b69c 623d 7bb7 a0bd
000000e0: 3778 043d 3491 01bd 1801 383c 3c14 8abd
000000f0: 32f3 2ebd 22d2 1ebe 903b 5a3d b0dd ee3d
00000100: c92b db3d fb4a 843c 432e b2bd a931 803c
00000110: befc 133c 47dc cfbc f6a5 2c3d e6be 003c
00000120: 79bd 743d a289 0f3e b171 8dbd d352 17bb
00000130: 2377 973c c2af 80bd 1983 d63d d56b 9abd
00000140: cda4 833d 6653 99bd a926 27bc 91e3 10be
00000150: c020 98bd 3d4e 3d3d 469b 4abd e271 9ebd
00000160: 40fe 00be dca1 ef3d eb5d 823c 94cc ca3c
00000170: 8dd9 cabd 1930 2e3d e8af 1ebc 503f bc3c
00000180: 3a7c e7bd 9ee8 393c eaff 963d d6b2 aebd
00000190: a96f c23c 4f08 e7bd e727 10be 0409 e93d
000001a0: 48d7 083d 66ea 083d 5b5c e4bd fcb6 94bd
000001b0: e98d 853b 0a14 dfbc eab6 70bd 273f 2fbd
000001c0: 9c11 78bc 6cd0 4d3d 41d2 423e ad68 993d
000001d0: 890a 24bd 204c eebd aa75 f4bd ff94 b3bd
000001e0: ec02 b43c f4fd 23bd 7ce7 093e 4810 02bd
000001f0: 8e69 45bd dc07 003d 7ece dd3d cbed 6c3e
00000200: 6e54 e1ba 141f 743d 2bbf df3d 8bd3 913d
00000210: a81a 25bd 619f 1a3d 2890 913d e9c1 b43d
00000220: 14fb 8a3d 4ad7 fdbc 96ba 5a3d 3df1 edbd
00000230: 688a bcbd b713 42bd c4d9 29bd c636 8dbd
00000240: 3e15 663d ce2f fd3d b33c 503e 7c59 0abd
00000250: 33a1 2a3e 6b96 a53d 368e a5bd dc11 193e
00000260: 65e9 0f3e 04ed 3dbd 7b80 2e3d 2d28 20be
00000270: 1336 89bd ab99 893d 640d bcbd 35cb 8a3d
00000280: 3a7a 53bd 21e1 f5b9 4d82 1ebd 32d6 223e
00000290: 9053 103e 1208 48bc d79e 0f3e 7db0 18be
000002a0: 2956 ef3d e223 333d af6d 4abd 873c 00be
000002b0: 2b0c d33c ee52 2c3e 4df2 333d d0c1 4a3c
000002c0: 4f20 373d 65b8 b63d 7602 a63d 319b 143d
000002d0: 89af bdbb d455 083b 4472 75bd 9f15 263e
000002e0: 3ee4 e93d 7187 e43b 44a7 44be b8e8 aebd
000002f0: 8e6d 88bc fba3 c83b b0e5 8dbd 34ef a7bd
00000300: 1856 8dba 89b6 7ebd afa2 45bd 25c0 22bd
00000310: 018c eebb c4d9 1d3d 3586 2e3e fbca a0bc
00000320: cb0f 223a 96c0 d8bc 3aad b63d 7d26 ef3c
00000330: 3790 c73d baff 533d 2f7e 70bd 2d68 cabd
00000340: fd7b 0bbe fd93 c2bd bd60 59bd b90c 87bc
00000350: 4238 2c3a 6144 7e3d 82e0 b4bd aa19 313d
00000360: 21b7 37bd 89bf ab3d f102 6f3d 7609 133e
00000370: 35bb 493e 3068 273c 83fa ecbd c7bb e33b
00000380: 9e14 35bd 0341 f63d 7826 e03d aaf0 a0bd
00000390: 83b3 5c3a 451d 09be e5af aa3d c443 27be
000003a0: 8157 1fbd 5a27 003e 6cae 33be 9aa8 f3bd
000003b0: 25a5 e63d 173d 9bbb c405 59bd 5698 15be
000003c0: b96a dd3d 0118 9fbd 80c4 2c3d be7c 15be
000003d0: 7f46 54be b2f1 fcbd 3bbb a03d 9657 4f3e
000003e0: 9141 653c 4b3b 283d eba0 27be e86a bc3c
000003f0: 7100 8dbd 5b1a 32bc fe53 0ebd ed25 65bd

network_body._body_endoder.seq_layers.2.bias f4 [128]
0.0037358948 -0.0051865326 0.005566836 -0.0071280734 0.0021539065 -0.0057449625 0.0026855376 0.0024950893
-0.0077720927 -0.0029541296 0.0044206386 0.0014296761 -0.0025521517 0.0015343549 0.010606141 -0.0010726281
0.0034069803 -0.003018379 0.00042932382 -0.000114214294 -0.0005110173 -0.0022294405 0.0009554521 -0.001966714
0.0036549666 0.0007146496 0.0032793174 0.008742976 -0.00034834 0.00031217304 0.0023521741 0.002412246
-0.0073341713 -0.0028536252 -0.0029391267 -0.00032760215 -3.5616446e-05 -0.00092630554 0.00023458275 0.007181257
-0.012598916 -0.0035817046 -0.003366751 -0.0045898077 -0.007667143 -0.0046666428 -0.005202002 -0.0048580654
0.0020389738 -0.0028711455 0.00021133559 -0.00083679287 -0.0077448026 0.004017541 0.01202824 0.0018935133
-0.0004841829 0.00067177933 -0.009839108 0.007066099 -0.001734715 0.0043208753 0.0033351893 0.004325621
-0.0023577062 -0.002098027 -0.0071493173 -0.0047564837 0.0015783322 -0.0031551183 -0.0036442708 -0.0017918905
-0.0072840443 0.0037535797 -0.00045965117 -0.006389816 0.004938922 0.0014752974 -0.0038315014 0.00083765027
-0.0074423477 -0.004069241 -0.007428898 -0.0051491437 0.000111651854 -0.0027731126 -0.0025930873 -0.0021071322
-0.0011414522 0.00013709332 -0.0024032728 0.0018128661 0.0021446305 0.0014724159 -0.0025357457 0.006181622
-0.0061708367 -0.0013084457 0.0007456768 0.00017967694 -0.0011060002 -0.0013137015 0.005845556 -0.0024205025
0.00039511497 -0.0010085761 0.0007254024 0.0013381148 -0.015991211 -0.0012393824 -0.0037096033 0.0034787448
-0.0070200344 -0.0002895099 0.0016824689 -0.0073868628 -0.009977208 0.0040963995 0.002200528 -0.008239461
0.012469512 0.001406566 0.0017105408 -4.2568783e-05 -0.010760556 -0.0047134254 -0.0016456336 0.004452143
00000000: ead5 743b caf3 a9bb 016a b63b 9d92 e9bb
00000010: 8e28 0d3b 3d40 bcbb d8ff 2f3b a784 233b
00000020: 0aad febb 129a 41bb 01db 903b f863 bb3a
00000030: 0042 27bb 681c c93a 61c5 2d3c 6d97 8cba
00000040: a547 5f3b ffcf 45bb de16 e139 5586 efb8
00000050: caf5 05ba ce1b 12bb 4e77 7a3a fce3 00bb
00000060: 2a88 6f3b 5357 3b3a d1e9 563b b33e 0f3c
00000070: 67a1 b6b9 28ab a339 ef26 1a3b c616 1e3b
00000080: 7d53 f0bb e303 3bbb 5d9e 40bb 04c2 abb9
00000090: de62 15b8 50d3 72ba 54fa 7539 c050 eb3b
000000a0: af6b 4ebc 08bb 6abb b5a4 5cbb 1966 96bb
000000b0: a83c fbbb a3ea 98bb 8e75 aabb 6830 9fbb
000000c0: 4ea0 053b d429 3cbb f799 5d39 385c 5bba
000000d0: 1dc8 fdbb 94a5 833b 1812 453c c32f f83a
000000e0: eed9 fdb9 591a 303a 3634 21bc bc8a e73b
000000f0: 605f e3ba 2196 8d3b 3193 5a3b f0bd 8d3b
00000100: bf83 1abb 0d7f 09bb d244 eabb 47dc 9bbb
00000110: 0ae0 ce3a 1ac6 4ebb b8d4 6ebb dedd eaba
00000120: feae eebb 9efe 753b 56fd f0b9 a961 d1bb
00000130: aed6 a13b c45e c13a ed19 7bbb c295 5b3a
00000140: f0de f3bb 4557 85bb 1d6e f3bb 26ba a8bb
00000150: a226 ea38 1cbd 35bb c9f0 29bb d017 0abb
00000160: c89c 95ba b5c0 0f39 3a80 1dbb b19d ed3a
00000170: ee8c 0c3b 14fe c03a c12e 26bb 348f ca3b
00000180: bb34 cabb 2780 abba 8679 433a a967 3c39
00000190: 35f7 90ba 8230 acba 148c bf3b 4ba1 1ebb
000001a0: 6f27 cf39 3332 84ba ee28 3e3a af63 af3a
000001b0: 0000 83bc c672 a2ba d11c 73bb a7fb 633b
000001c0: 5108 e6bb 5cc9 97b9 4a86 dc3a 7f0d f2bb
000001d0: 7277 23bc 173b 863b bc36 103b cefe 06bc
000001e0: ed4c 4c3c 865c b83a 3a34 e03a e28b 32b8
000001f0: 0b4d 30bc 1473 9abb 4db2 d7ba 48e3 913b

action_model._continuous_distribution.log_sigma f4 [1, 2]
0.010735434 0.012422127
00000000: ace3 2f3c 2d86 4b3c

action_model._continuous_distribution.mu.weight f4 [2, 128]
-0.013735417 -0.0061886976 -0.017140424 0.019985639 -0.01700093 0.0021506094 -0.01907454 0.030840507
-0.0014278605 0.028937995 -0.01734304 0.023083648 0.0064752777 -0.0039164424 -0.039898317 -0.008336212
-0.012462334 0.021786084 -0.01969024 -0.022989716 0.0069985995 -8.270594e-05 -0.010350865 -0.017388608
-0.007269701 0.0020039016 -0.020412605 -0.008485104 -0.019491624 -0.015065072 -0.01233301 0.004531438
0.016005259 0.010276586 -0.01422964 -0.002025939 -0.030644197 0.025050525 -0.004961223 -0.028666297
0.0064903395 0.018126816 -0.013393039 -0.0020167318 0.006967175 0.011604956 0.032545507 0.008257264
-0.023748692 -0.0075580254 -0.03405117 0.013035026 0.036795814 -0.0063488637 -0.026765522 0.0026848791
0.00947375 0.018860057 0.0011235693 -0.016230159 0.014184818 -0.0023699915 0.008639462 0.034276787
0.01179235 -0.00808884 0.012156867 0.019741518 -0.02465603 -0.002469144 0.033252876 0.01075355
0.031757303 -0.0043938854 -0.00802464 -0.003846707 -0.022926068 -0.015481217 0.002089746 -0.00676167
0.01512389 0.016390854 0.020588 -0.012199433 0.002221248 0.03004092 0.015518954 0.0077051786
0.0354902 -0.039194297 -0.014970129 -0.015542867 -0.008500893 -0.0067614894 -0.0027231332 -0.050587896
-0.0026279804 -0.0008393 -0.0023595311 -0.0006090813 -0.0037310948 0.0057814526 -0.014279607 0.004657768
-0.0043133707 0.0035021044 0.011262591 0.016249068 0.02053397 -0.011083075 -0.0032998128 -0.014866368
0.0089946 -0.0071806237 -0.012246107 0.002265021 0.03747824 -0.015482763 -0.006918197 0.013709866
-0.019835979 -0.05083013 -0.0021801412 0.017099053 0.0042367955 0.038272478 0.0019157308 -0.010223163
-0.01358901 0.023866303 0.016258607 0.022213608 -0.017232554 -0.0008269517 -0.005169081 -0.005475339
0.005868153 0.0068557262 0.010539608 -0.011256773 0.021399943 0.05142993 -0.00019755212 -0.0037119172
-0.022672381 -0.031117106 0.030843263 0.014630991 0.028116291 0.044639923 0.0024729676 -0.011725575
-0.011464848 -0.008579902 -0.01968485 0.0005326012 -0.020170175 0.053974852 0.011962688 -0.026826456
0.005600391 0.0030152474 0.021411337 0.01967564 0.028708734 -0.017015424 0.0033293252 -0.012814074
0.012856819 -0.011228817 0.008095007 0.0057297996 0.0006428454 -0.017383628 -0.014136216 -0.0019292219
0.0010472385 0.0082156705 -0.005697412 -0.016131863 0.016378688 0.0063938713 -0.019854669 0.022270743
0.013903209 0.016839663 -0.0065816753 -0.009041553 0.014751431 0.0031842121 0.02474481 -0.00092710904
0.038638704 0.01047579 0.011442479 -0.0009816041 0.0038094306 0.0011270114 0.030300371 -0.0074822893
0.026072625 0.0009655377 0.006677294 -0.0011990016 -0.0035548094 -0.014578398 -0.0047576935 0.00650614
-0.0109955855 -0.03018898 0.02676569 0.009683494 0.03149161 -0.022067234 -0.0037979682 0.007938658
0.0039590388 0.0031118493 0.017315429 0.01723217 -0.041896377 0.014174003 0.017210808 0.012853851
-0.00020700952 0.001651285 -0.00062760833 -0.014386711 -0.0048274747 -0.018842326 0.002911899 0.0124245025
-0.040954344 -0.014454987 -0.00091617426 -0.01585203 0.006365122 0.046646193 0.026213989 -0.0035779362
0.030464562 -0.00091840676 -0.007885139 0.020693924 0.01707099 -0.028696656 -0.01941594 -0.0057635177
-0.007735978 0.024481133 -0.019260738 0.009957478 0.0033439277 -0.0168527 -0.009320652 -0.012693003
00000000: 840a 61bc 8fca cabb 136a 8cbc ecb8 a33c
00000010: 8945 8bbc 3df1 0c3b 3642 9cbc 3ba5 fc3c
00000020: 0c27 bbba 600f ed3c fe12 8ebc eb19 bd3c
00000030: 912e d43b 8055 80bb 6b6c 23bd 9b94 08bc
00000040: d12e 4cbc bb78 b23c 6d4d a1bc ee54 bcbc
00000050: 8254 e53b 6a72 adb8 ad96 29bc 8e72 8ebc
00000060: ac36 eebb e453 033b 5638 a7bc 1b05 0bbc
00000070: e6ac 9fbc 7ed3 76bc 6510 4abc 757c 943b
00000080: 761d 833c 205f 283c 7023 69bc 9ec5 04bb
00000090: 8a09 fbbc c236 cd3c c191 a2bb 95d5 eabc
000000a0: eaac d43b b07e 943c 7a6e 5bbc 252b 04bb
000000b0: e64c e43b b722 3e3c 704e 053d 7a49 073c
000000c0: 9e8c c2bc 50a9 f7bb 3d79 0bbd dd90 553c
000000d0: 35b7 163d 210a d0bb 5e43 dbbc ccf4 2f3b
000000e0: ca37 1b3c 6880 9a3c bb44 933a 1cf5 84bc
000000f0: 7067 683c dc51 1bbb 888c 0d3c d165 0c3d
00000100: b334 413c 0e87 04bc 992d 473c f7b8 a13c
00000110: 71fb c9bc 5dd1 21bb 2b34 083d a82f 303c
00000120: f213 023d 95fa 8fbb c879 03bc 0919 7cbb
00000130: 73cf bbbc eea4 7dbc 1ff4 083b 0091 ddbb
00000140: 31ca 773c 1d46 863c 2aa8 a83c 21e0 47bc
00000150: 5c92 113b 6018 f63c 3643 7e3c b97b fc3b
00000160: 2c5e 113d 338a 20bd 4645 75bc 82a7 7ebc
00000170: 5447 0bbc 7c8f ddbb 9876 32bb 4135 4fbd
00000180: 323a 2cbb 7804 5cba 5da2 1abb c1aa 1fba
00000190: 6285 74bb 5772 bd3b 03f5 69bc 31a0 983b
000001a0: 2d57 8dbb 9083 653b bb86 383c c41c 853c
000001b0: db36 a83c c995 35bc ac41 58bb 1192 73bc
000001c0: 165e 133c 704b ebbb e5a3 48bc bf70 143b
000001d0: c882 193d 6aab 7dbc 0bb2 e2bb 599f 603c
000001e0: 107f a2bc 4133 50bd b3e0 0ebb 5013 8c3c
000001f0: d1d4 8a3b 9ac3 1c3d 4219 fb3a 0e7f 27bc
00000200: 70a4 5ebc 4483 c33c c530 853c 50f9 b53c
00000210: 492b 8dbc cac7 58ba 6561 a9bb 796a b3bb
00000220: a349 c03b 00a6 e03b 52ae 2c3c 546e 38bc
00000230: ef4e af3c 31a8 523d fe25 4fb9 a343 73bb
00000240: 6ebb b9bc 4de9 febc 03ab fc3c d3b6 6f3c
00000250: 2354 e63c 5ad8 363d 8311 223b a01c 40bc
00000260: 0fd7 3bbc b892 0cbc 1f42 a1bc 439e 0b3a
00000270: ec3b a5bc bc14 5d3d 26ff 433c 28c3 dbbc
00000280: 7c83 b73b 759b 453b d466 af3c cf2e a13c
00000290: 942e eb3c ee63 8bbc cf30 5a3b 1ff2 51bc
000002a0: 68a5 523c 12f9 37bc eca0 043c 0bc1 bb3b
000002b0: a084 283a 1c68 8ebc 969b 67bc f2dd fcba
000002c0: 7e43 893a 059b 063c 5bb1 babb f826 84bc
000002d0: 992c 863c ae83 d13b 42a6 a2bc 2271 b63c
000002e0: 49ca 633c 55f3 893c 18ab d7bb 0623 14bc
000002f0: fcaf 713c 37ae 503b a1b5 ca3c 3c09 73ba
00000300: 9e43 1e3d a6a2 2b3c 3c79 3b3c 2ba9 80ba
00000310: a4a7 793b 3ab8 933a 7c38 f83c fe2d f5bb
00000320: 4296 d53c 231c 7d3a 34cd da3b d127 9dba
00000330: cef7 68bb 3cda 6ebc 6de6 9bbb 7531 d53b
00000340: d426 34bc e14e f7bc b843 db3c 85a7 1e3c
00000350: 59fd 003d 58c6 b4bc 55e7 78bb 2511 023c
00000360: d3ba 813b 2bf0 4b3b 16d9 8d3c 7b2a 8d3c
00000370: 899b 2bbd 143a 683c aefd 8c3c f598 523c
00000380: b210 59b9 ee6f d83a 1586 24ba 3db6 6bbc
00000390: cb2f 9ebb 395b 9abc 8fd5 3e3b 2490 4b3c
000003a0: bebf 27bd 9cd4 6cbc 6a2b 70ba 1edc 81bc
000003b0: 8392 d03b 1410 3f3d b8be d63c cf7b 6abb
000003c0: d190 f93c 3cc1 70ba ac30 01bc 4e86 a93c
000003d0: 76d8 8b3c 4015 ebbc 2d0e 9fbc e4db bcbb
000003e0: 167e fdbb a88c c83c b2c8 9dbc b124 233c
000003f0: cc25 5b3b ac0e 8abc a6b5 18bc 50f6 4fbc

action_model._continuous_distribution.mu.bias f4 [2]
-0.0046809814 -0.0015924063
00000000: eb62 99bb 4ab8 d0ba

action_model._discrete_distribution.branches.0.weight f4 [1, 128]
-0.010714853 -0.007934435 0.00046782685 -0.0049117194 -0.0010696411 0.0038794694 0.0077263727 0.0016851655
0.004491889 -0.014652173 -0.003928747 -0.008547315 -0.006128438 0.010395099 -0.0021585575 -0.0060285307
0.0060396753 -0.009279994 0.0062314244 0.0075871856 -0.0018522049 -0.005137854 0.0041297106 0.0005541341
0.009544032 -0.00386016 0.01611009 0.0042921593 0.00041079833 -0.0044710664 -0.011540484 -0.0009030217
0.0034995128 -0.008975379 -0.010525511 -0.001974057 0.0002810594 0.0022995386 0.0013660537 0.0038123117
-0.01686836 0.017577844 -0.0076336907 -0.003400158 -0.0028187425 -0.0007862961 -0.0022514241 -0.0030074639
-0.011411029 -0.016035838 -0.0033641083 0.00022881842 0.0070707784 -0.0087575475 0.0027097128 -0.00049316755
0.011024147 0.0050870734 -0.008268189 0.0030438541 -0.0022985195 -0.0037094974 0.010483689 -0.010559893
0.005456367 0.006818128 -0.004187297 0.008070153 -0.0028853489 -0.008074165 0.013721168 0.0103333
-0.008881451 0.0050882995 0.010725854 0.018679207 0.009642204 -0.019026503 0.021258773 0.0010973228
-0.0061391867 0.008192502 0.004722362 -0.019523507 -0.003675277 0.012602629 0.019424187 -0.014267054
0.012309506 0.0014494323 -0.01087982 -0.0006944317 0.003780226 -0.0042927465 0.012034781 -0.0009659569
0.008866287 -0.0030116448 -0.0047539924 0.00856355 0.007010296 -0.0035541602 0.0015760082 -0.013813107
-0.02016207 -0.00049847784 -0.0058753644 0.0024620988 0.012115854 0.000105334155 0.007554608 0.008233996
0.004083628 -0.0070592756 -0.0077938936 0.008497175 -0.0019964897 -0.008386328 0.0023538906 0.0018779235
-0.001339963 0.003397713 -6.332056e-05 0.0040486637 0.0037582372 0.00656284 0.010013856 -0.005290111
00000000: 5a8d 2fbc 6fff 01bc a846 f539 7df2 a0bb
00000010: 3333 8cba b23e 7e3b 832d fd3b c5e0 dc3a
00000020: b230 933b ab0f 70bc b8bc 80bb 0a0a 0cbc
00000030: 10d1 c8bb 3550 2a3c 9676 0dbb fb8a c5bb
00000040: 78e8 c53b 1e0b 18bc fa30 cc3b ed9d f83b
00000050: afc5 f2ba 715b a8bb 8652 873b 4f43 113a
00000060: 925e 1c3c bdfa 7cbb 4ff9 833c 3ea5 8c3b
00000070: 6b60 d739 0682 92bb 4c14 3dbc c3b8 6cba
00000080: 1558 653b 780d 13bc 3173 2cbc 2e5f 01bb
00000090: 275b 9339 dbb3 163b 280d b33a fad7 793b
000000a0: 842f 8abc 69ff 8f3c 0a24 fabb 2fd5 5ebb
000000b0: a7ba 38bb 701f 4eba a18c 13bb df18 45bb
000000c0: 53f5 3abc 975d 83bc 5f78 5cbb faee 6f39
000000d0: fdb1 e73b d17b 0fbc 7095 313b ea47 01ba
000000e0: a09e 343c 77b1 a63b 4c77 07bc 667b 473b
000000f0: c2a2 16bb 0a1b 73bb c7c3 2b3c 6703 2dbc
00000100: 53cb b23b 9a6a df3b 9835 89bb ad38 043c
00000110: 1f18 3dbb 8149 04bc c0ce 603c 004d 293c
00000120: 8183 11bc c0bb a63b 7ebb 2f3c 2305 993c
00000130: 56fa 1d3c 78dd 9bbc e126 ae3c 0bd4 8f3a
00000140: 3b2b c9bb d839 063c 0bbe 9a3b c3ef 9fbc
00000150: ebdc 70bb 427b 4e3c 791f 9f3c 5dc0 69bc
00000160: cfad 493c e1fa bd3a 4641 32bc 860a 36ba
00000170: abbd 773b 2baa 8cbb 882d 453c 4538 7dba
00000180: e743 113c 045f 45bb 61c7 9bbb 224e 0c3c
00000190: a0b6 e53b eaec 68bb 0f92 ce3a 5f50 62bc
000001a0: ed2a a5bc 48ac 02ba 2186 c0bb 2a5b 213b
000001b0: 9381 463c d8e6 dc38 a58c f73b e2e7 063c
000001c0: f4cf 853b 7f51 e7bb eb63 ffbb bc37 0b3c
000001d0: 8ad7 02bb cf66 09bc bb43 1a3b a824 f63a
000001e0: b3a1 afba 2aac 5e3b f7ca 84b8 a7aa 843b
000001f0: c24c 763b 180d d73b 2811 243c ab58 adbb

exp_avg f4 [128, 39]
-0.0029641816 0.00012483247 0.0023827758 0.0006098208 0.00013574267 0.0023858615 0.00026178072 0.0009066936
-5.233952e-06 0.00024966494 0.00024966494 0.00024966494 0.00024966494 0.00024966494 0.0 0.0
0.0 0.0 0.0 0.0 0.0 0.0 0.0 0.0
0.0 0.0 0.0 0.0 0.0 0.0 0.0 0.0
0.0 0.0 0.0 0.0 0.0 0.0 0.0 -0.0018084046
0.000106312895 0.0005292926 0.00042463746 0.00011888566 0.0004809589 0.00040605938 -0.00011620992 3.827561e-05
0.00021262579 0.00021262579 0.00021262579 0.00021262579 0.00021262579 0.0 0.0 0.0
0.0 0.0 0.0 0.0 0.0 0.0 0.0 0.0
0.0 0.0 0.0 0.0 0.0 0.0 0.0 0.0
0.0 0.0 0.0 0.0 0.0 0.0 0.002857554 -0.00022317516
-0.0025648626 -0.00026203447 -0.00022968819 -0.0023915856 -0.00027390267 -0.0009970595 -1.4835549e-05 -0.0004463503
-0.0004463503 -0.0004463503 -0.0004463503 -0.0004463503 0.0 0.0 0.0 0.0
0.0 0.0 0.0 0.0 0.0 0.0 0.0 0.0
0.0 0.0 0.0 0.0 0.0 0.0 0.0 0.0
0.0 0.0 0.0 0.0 0.0 0.0049591325 -0.00046030938 -0.0064390586
-0.0016258531 -0.00047800044 -0.010851992 -0.0010352564 -0.001987521 -4.5974164e-05 -0.00092061877 -0.00092061877
-0.00092061877 -0.00092061877 -0.00092061877 0.0 0.0 0.0 0.0 0.0
0.0 0.0 0.0 0.0 0.0 0.0 0.0 0.0
0.0 0.0 0.0 0.0 0.0 0.0 0.0 0.0
0.0 0.0 0.0 0.0 0.0013047601 -9.4106246e-05 -0.0013421706 -0.00043976103
-9.294771e-05 -0.0019559439 -0.00012395502 -0.00059320586 1.846498e-05 -0.00018821249 -0.00018821249 -0.00018821249
-0.00018821249 -0.00018821249 0.0 0.0 0.0 0.0 0.0 0.0
0.0 0.0 0.0 0.0 0.0 0.0 0.0 0.0
0.0 0.0 0.0 0.0 0.0 0.0 0.0 0.0
0.0 0.0 0.0 -0.0010526928 7.7720746e-05 0.0011111489 0.00014756914 8.262279e-05
0.000476351 5.0977123e-05 0.00045436173 8.075592e-06 0.00015544149 0.00015544149 0.00015544149 0.00015544149
0.00015544149 0.0 0.0 0.0 0.0 0.0 0.0 0.0
0.0 0.0 0.0 0.0 0.0 0.0 0.0 0.0
0.0 0.0 0.0 0.0 0.0 0.0 0.0 0.0
0.0 0.0 -0.0026304258 0.00013621502 0.0020688013 0.00042767194 0.00014259122 0.0014291127
0.000100980695 0.00095431536 -4.114089e-06 0.00027243004 0.00027243004 0.00027243004 0.00027243004 0.00027243004
0.0 0.0 0.0 0.0 0.0 0.0 0.0 0.0
00000000: b742 42bb 76e5 0239 5828 1c3b 62dc 1f3a
00000010: 2556 0e39 1d5c 1c3b 9d3f 8939 2daf 6d3a
00000020: 4e9f afb6 76e5 8239 76e5 8239 76e5 8239
00000030: 76e5 8239 76e5 8239 0000 0000 0000 0000
00000040: 0000 0000 0000 0000 0000 0000 0000 0000
00000050: 0000 0000 0000 0000 0000 0000 0000 0000
00000060: 0000 0000 0000 0000 0000 0000 0000 0000
00000070: 0000 0000 0000 0000 0000 0000 0000 0000
00000080: 0000 0000 0000 0000 0000 0000 0000 0000
00000090: 0000 0000 0000 0000 0000 0000 fd07 edba
000000a0: 4df4 de38 3ac0 0a3a e0a1 de39 4152 f938
000000b0: 3629 fc39 5ee4 d439 bab5 f3b8 208a 2038
000000c0: 4df4 5e39 4df4 5e39 4df4 5e39 4df4 5e39
000000d0: 4df4 5e39 0000 0000 0000 0000 0000 0000
000000e0: 0000 0000 0000 0000 0000 0000 0000 0000
000000f0: 0000 0000 0000 0000 0000 0000 0000 0000
00000100: 0000 0000 0000 0000 0000 0000 0000 0000
00000110: 0000 0000 0000 0000 0000 0000 0000 0000
00000120: 0000 0000 0000 0000 0000 0000 0000 0000
00000130: 0000 0000 0000 0000 cd45 3b3b 2004 6ab9
00000140: 4117 28bb ac61 89b9 74d8 70b9 26bc 1cbb
00000150: 989a 8fb9 c4af 82ba 33e6 78b7 2004 eab9
00000160: 2004 eab9 2004 eab9 2004 eab9 2004 eab9
00000170: 0000 0000 0000 0000 0000 0000 0000 0000
00000180: 0000 0000 0000 0000 0000 0000 0000 0000
00000190: 0000 0000 0000 0000 0000 0000 0000 0000
000001a0: 0000 0000 0000 0000 0000 0000 0000 0000
000001b0: 0000 0000 0000 0000 0000 0000 0000 0000
000001c0: 0000 0000 0000 0000 0000 0000 0000 0000
000001d0: 0000 0000 3880 a23b ae55 f1b9 bdfe d2bb
000001e0: 941a d5ba 229c fab9 8ecc 31bc 71b1 87ba
000001f0: 1241 02bb 62d4 40b8 ae55 71ba ae55 71ba
00000200: ae55 71ba ae55 71ba ae55 71ba 0000 0000
00000210: 0000 0000 0000 0000 0000 0000 0000 0000
00000220: 0000 0000 0000 0000 0000 0000 0000 0000
00000230: 0000 0000 0000 0000 0000 0000 0000 0000
00000240: 0000 0000 0000 0000 0000 0000 0000 0000
00000250: 0000 0000 0000 0000 0000 0000 0000 0000
00000260: 0000 0000 0000 0000 0000 0000 0000 0000
00000270: 7c04 ab3a e85a c5b8 c6eb afba ba8f e6b9
00000280: ecec c2b8 4b2f 00bb ecf9 01b9 5f81 1bba
00000290: 3ee5 9a37 e85a 45b9 e85a 45b9 e85a 45b9
000002a0: e85a 45b9 e85a 45b9 0000 0000 0000 0000
000002b0: 0000 0000 0000 0000 0000 0000 0000 0000
000002c0: 0000 0000 0000 0000 0000 0000 0000 0000
000002d0: 0000 0000 0000 0000 0000 0000 0000 0000
000002e0: 0000 0000 0000 0000 0000 0000 0000 0000
000002f0: 0000 0000 0000 0000 0000 0000 0000 0000
00000300: 0000 0000 0000 0000 0000 0000 82fa 89ba
00000310: 02fe a238 f8a3 913a cabc 1a39 c645 ad38
00000320: c0be f939 45d0 5538 6637 ee39 677c 0737
00000330: 02fe 2239 02fe 2239 02fe 2239 02fe 2239
00000340: 02fe 2239 0000 0000 0000 0000 0000 0000
00000350: 0000 0000 0000 0000 0000 0000 0000 0000
00000360: 0000 0000 0000 0000 0000 0000 0000 0000
00000370: 0000 0000 0000 0000 0000 0000 0000 0000
00000380: 0000 0000 0000 0000 0000 0000 0000 0000
00000390: 0000 0000 0000 0000 0000 0000 0000 0000
000003a0: 0000 0000 0000 0000 3963 2cbb f1d4 0e39
000003b0: ba94 073b 2839 e039 8a84 1539 1151 bb3a
000003c0: 99c5 d338 052b 7a3a c10b 8ab6 f1d4 8e39
000003d0: f1d4 8e39 f1d4 8e39 f1d4 8e39 f1d4 8e39
000003e0: 0000 0000 0000 0000 0000 0000 0000 0000
000003f0: 0000 0000 0000 0000 0000 0000 0000 0000

exp_avg_sq f4 [128, 39]
1.8839755e-05 5.047393e-08 6.864201e-06 3.3842125e-06 4.8299178e-08 2.8374232e-05 8.585976e-07 7.7510316e-07
7.9148876e-08 2.0189572e-07 2.0189572e-07 2.0189572e-07 2.0189572e-07 2.0189572e-07 0.0 0.0
0.0 0.0 0.0 0.0 0.0 0.0 0.0 0.0
0.0 0.0 0.0 0.0 0.0 0.0 0.0 0.0
0.0 0.0 0.0 0.0 0.0 0.0 0.0 2.7444716e-05
7.252192e-08 2.5019457e-05 4.0969402e-07 7.302709e-08 1.5008985e-05 1.5818227e-07 1.3331729e-06 1.1151101e-07
2.9008768e-07 2.9008768e-07 2.9008768e-07 2.9008768e-07 2.9008768e-07 0.0 0.0 0.0
0.0 0.0 0.0 0.0 0.0 0.0 0.0 0.0
0.0 0.0 0.0 0.0 0.0 0.0 0.0 0.0
0.0 0.0 0.0 0.0 0.0 0.0 2.7585305e-05 5.841783e-08
7.3329747e-06 3.2230665e-07 5.822319e-08 2.4144732e-05 9.616785e-08 1.3756535e-06 1.1247552e-07 2.3367132e-07
2.3367132e-07 2.3367132e-07 2.3367132e-07 2.3367132e-07 0.0 0.0 0.0 0.0
0.0 0.0 0.0 0.0 0.0 0.0 0.0 0.0
0.0 0.0 0.0 0.0 0.0 0.0 0.0 0.0
0.0 0.0 0.0 0.0 0.0 6.308223e-05 1.8622772e-07 4.3812677e-05
4.484953e-06 1.7020238e-07 0.00010468073 1.2224018e-06 5.295617e-06 3.821097e-07 7.449109e-07 7.449109e-07
7.449109e-07 7.449109e-07 7.449109e-07 0.0 0.0 0.0 0.0 0.0
0.0 0.0 0.0 0.0 0.0 0.0 0.0 0.0
0.0 0.0 0.0 0.0 0.0 0.0 0.0 0.0
0.0 0.0 0.0 0.0 3.7948196e-06 1.5913882e-08 1.3965067e-06 9.480161e-07
1.586862e-08 3.395941e-06 2.5822158e-07 3.462098e-07 3.5277342e-08 6.365553e-08 6.365553e-08 6.365553e-08
6.365553e-08 6.365553e-08 0.0 0.0 0.0 0.0 0.0 0.0
0.0 0.0 0.0 0.0 0.0 0.0 0.0 0.0
0.0 0.0 0.0 0.0 0.0 0.0 0.0 0.0
0.0 0.0 0.0 1.4342132e-05 5.0107502e-08 1.108385e-05 1.6272166e-06 4.5633783e-08
3.0341607e-05 5.785006e-07 1.2411674e-06 9.7751716e-08 2.0043001e-07 2.0043001e-07 2.0043001e-07 2.0043001e-07
2.0043001e-07 0.0 0.0 0.0 0.0 0.0 0.0 0.0
0.0 0.0 0.0 0.0 0.0 0.0 0.0 0.0
0.0 0.0 0.0 0.0 0.0 0.0 0.0 0.0
0.0 0.0 2.8064771e-05 7.588207e-08 1.2159688e-05 3.0986316e-06 6.962382e-08 5.034865e-05
8.4215617e-07 2.0017005e-06 1.5545116e-07 3.0352828e-07 3.0352828e-07 3.0352828e-07 3.0352828e-07 3.0352828e-07
0.0 0.0 0.0 0.0 0.0 0.0 0.0 0.0
00000000: 110a 9e37 acc8 5833 0a53 e636 541c 6336
00000010: 8271 4f33 3305 ee37 617a 6635 af10 5035
00000020: 8ef8 a933 acc8 5834 acc8 5834 acc8 5834
00000030: acc8 5834 acc8 5834 0000 0000 0000 0000
00000040: 0000 0000 0000 0000 0000 0000 0000 0000
00000050: 0000 0000 0000 0000 0000 0000 0000 0000
00000060: 0000 0000 0000 0000 0000 0000 0000 0000
00000070: 0000 0000 0000 0000 0000 0000 0000 0000
00000080: 0000 0000 0000 0000 0000 0000 0000 0000
00000090: 0000 0000 0000 0000 0000 0000 1439 e637
000000a0: 59bd 9b33 e0e0 d137 ebf3 db34 11d3 9c33
000000b0: 1acf 7b37 d0d8 2934 79ef b235 d377 ef33
000000c0: 59bd 9b34 59bd 9b34 59bd 9b34 59bd 9b34
000000d0: 59bd 9b34 0000 0000 0000 0000 0000 0000
000000e0: 0000 0000 0000 0000 0000 0000 0000 0000
000000f0: 0000 0000 0000 0000 0000 0000 0000 0000
00000100: 0000 0000 0000 0000 0000 0000 0000 0000
00000110: 0000 0000 0000 0000 0000 0000 0000 0000
00000120: 0000 0000 0000 0000 0000 0000 0000 0000
00000130: 0000 0000 0000 0000 fe66 e737 15e7 7a33
00000140: c60d f636 7d09 ad34 1311 7a33 6b8a ca37
00000150: d684 ce33 18a3 b835 128a f133 15e7 7a34
00000160: 15e7 7a34 15e7 7a34 15e7 7a34 15e7 7a34
00000170: 0000 0000 0000 0000 0000 0000 0000 0000
00000180: 0000 0000 0000 0000 0000 0000 0000 0000
00000190: 0000 0000 0000 0000 0000 0000 0000 0000
000001a0: 0000 0000 0000 0000 0000 0000 0000 0000
000001b0: 0000 0000 0000 0000 0000 0000 0000 0000
000001c0: 0000 0000 0000 0000 0000 0000 0000 0000
000001d0: 0000 0000 044b 8438 e3f5 4734 81c3 3738
000001e0: 747d 9636 e0c0 3634 0a88 db38 6811 a435
000001f0: 01b1 b136 c224 cd34 e3f5 4735 e3f5 4735
00000200: e3f5 4735 e3f5 4735 e3f5 4735 0000 0000
00000210: 0000 0000 0000 0000 0000 0000 0000 0000
00000220: 0000 0000 0000 0000 0000 0000 0000 0000
00000230: 0000 0000 0000 0000 0000 0000 0000 0000
00000240: 0000 0000 0000 0000 0000 0000 0000 0000
00000250: 0000 0000 0000 0000 0000 0000 0000 0000
00000260: 0000 0000 0000 0000 0000 0000 0000 0000
00000270: 81aa 7e36 ffb2 8832 9b6f bb35 2c7b 7e35
00000280: 774f 8832 d2e5 6336 b4a1 8a34 b6de b934
00000290: d983 1733 ffb2 8833 ffb2 8833 ffb2 8833
000002a0: ffb2 8833 ffb2 8833 0000 0000 0000 0000
000002b0: 0000 0000 0000 0000 0000 0000 0000 0000
000002c0: 0000 0000 0000 0000 0000 0000 0000 0000
000002d0: 0000 0000 0000 0000 0000 0000 0000 0000
000002e0: 0000 0000 0000 0000 0000 0000 0000 0000
000002f0: 0000 0000 0000 0000 0000 0000 0000 0000
00000300: 0000 0000 0000 0000 0000 0000 fd9e 7037
00000310: c835 5733 c6f4 3937 bd66 da35 e0fe 4333
00000320: 1b86 fe37 424a 1b35 3096 a635 93eb d133
00000330: c835 5734 c835 5734 c835 5734 c835 5734
00000340: c835 5734 0000 0000 0000 0000 0000 0000
00000350: 0000 0000 0000 0000 0000 0000 0000 0000
00000360: 0000 0000 0000 0000 0000 0000 0000 0000
00000370: 0000 0000 0000 0000 0000 0000 0000 0000
00000380: 0000 0000 0000 0000 0000 0000 0000 0000
00000390: 0000 0000 0000 0000 0000 0000 0000 0000
000003a0: 0000 0000 0000 0000 a36c eb37 9cf4 a233
000003b0: 7601 4c37 16f2 4f36 1a84 9533 742d 5338
000003c0: 8810 6235 f454 0636 17ea 2634 9cf4 a234
000003d0: 9cf4 a234 9cf4 a234 9cf4 a234 9cf4 a234
000003e0: 0000 0000 0000 0000 0000 0000 0000 0000
000003f0: 0000 0000 0000 0000 0000 0000 0000 0000

exp_avg f4 [128]
0.00024966494 0.00021262579 -0.0004463503 -0.00092061877 -0.00018821249 0.00015544149 0.00027243004 3.1716165e-05
0.0004295288 2.6775693e-05 -0.00031054526 -1.7535034e-05 3.4838472e-06 -0.00030093902 2.4327475e-05 0.00021723086
-2.1808977e-05 3.367025e-05 0.00010028377 2.7104194e-05 -0.0002392506 -7.613924e-06 0.00013715631 0.00021030201
8.506369e-05 0.0004482519 0.00030314206 -0.00020134587 -4.070641e-05 0.00105172 -9.172379e-06 -1.3592479e-05
-3.080834e-05 1.9732419e-05 -8.942247e-05 0.00032360962 3.991313e-05 0.00013662975 -0.00019878123 -2.139535e-05
-0.00038294 -3.7833728e-05 -0.00049774454 -2.8298724e-05 -1.5316587e-05 1.2385051e-05 -0.0003345321 -8.994054e-05
-0.0008219809 -5.814543e-05 6.375842e-05 -2.9479646e-05 -3.6073634e-05 -6.773191e-05 0.0002664339 -5.718913e-05
3.7645616e-05 0.00022746481 -0.0005600073 8.2608e-05 -3.4575874e-05 0.00038893434 5.7536117e-06 -0.0005773977
0.0005465078 0.00024390838 5.8704598e-05 0.0001096969 0.00039995872 0.00015842919 1.0260451e-06 -0.00020656305
1.984451e-05 0.00021247086 0.00012575534 -0.00013270267 3.5900008e-05 2.5517504e-05 8.164717e-05 3.9256345e-05
-0.00040607562 -0.0001553563 -0.00015941108 0.00010501442 7.356191e-05 9.809965e-05 0.00027327953 -1.5307854e-05
0.0001322977 -0.00020608713 8.5176245e-05 6.236536e-05 3.8422993e-05 3.8124854e-05 -0.0012259189 -0.00011732083
0.000116441886 -0.00016605643 -2.0092994e-05 0.0005965536 2.117562e-05 -7.8579906e-05 0.00018103645 0.0002821067
5.2062504e-05 -0.00017965354 -0.0003447244 -3.0410623e-05 3.2181055e-05 1.2285848e-05 0.0006638809 -1.6731974e-06
6.8788875e-05 8.57729e-05 -0.00047834477 -0.00015983544 0.00018299941 4.3109485e-05 6.7811096e-05 0.00016181955
0.00015319268 0.00087191357 -8.0751706e-05 -0.0008020891 0.00039747258 -0.00040926118 -0.0006775078 -9.919191e-05
00000000: 76e5 8239 4df4 5e39 2004 eab9 ae55 71ba
00000010: e85a 45b9 02fe 2239 f1d4 8e39 f906 0538
00000020: 6132 e139 5d9c e037 aed0 a2b9 3318 93b7
00000030: 0acc 6936 5ac7 9db9 db12 cc37 77c8 6339
00000040: 6cf2 b6b7 2839 0d38 704f d238 d05d e337
00000050: 58df 7ab9 1c7b ffb6 9ed1 0f39 8484 5c39
00000060: 3964 b238 5a03 eb39 0aef 9e39 5f20 53b9
00000070: 2dbc 2ab8 ded9 893a 11e3 19b7 410b 64b7
00000080: 3438 01b8 0c87 a537 5388 bbb8 26aa a939
00000090: 6668 2738 4544 0f39 ee6f 50b9 2a7a b3b7
000000a0: 56c5 c8b9 a8af 1eb8 127b 02ba 0c63 edb7
000000b0: 1f7c 80b7 64c9 4f37 2364 afb9 769e bcb8
000000c0: 347a 57ba 2ee1 73b8 0bb6 8538 0f4b f7b7
000000d0: c54d 17b8 4b0b 8eb8 27b0 8b39 5cde 6fb8
000000e0: ace5 1d38 9f83 6e39 74cd 12ba d53d ad38
000000f0: 9005 11b8 e2e9 cb39 260f c136 815c 17ba
00000100: 8543 0f3a a8c1 7f39 9539 7638 130d e638
00000110: 8db1 d139 0320 2639 a4b6 8935 d998 58b9
00000120: c377 a637 b6ca 5e39 31dd 0339 1a26 0bb9
00000130: 5793 1638 6c0e d637 fe39 ab38 2ea7 2438
00000140: 8ce6 d4b9 24e7 22b9 9627 27b9 303b dc38
00000150: 4045 9a38 d9ba cd38 f546 8f39 5e69 80b7
00000160: 65b9 0a39 1819 58b9 a6a0 b238 26ca 8238
00000170: 6028 2138 40e8 1f38 03af a0ba 240a f6b8
00000180: 4332 f438 6f1f 2eb9 608d a8b7 0962 1c3a
00000190: 4ca2 b137 44cb a4b8 9ad4 3d39 b8e7 9339
000001a0: b05d 5a38 6161 3cb9 20bc b4b9 511a ffb7
000001b0: 25fa 0638 511f 4e37 4b08 2e3a a092 e0b5
000001c0: bf42 9038 fae0 b338 59ca fab9 8099 27b9
000001d0: 88e3 3f39 75d0 3438 ce35 8e38 1bae 2939
000001e0: 59a2 2039 2191 643a 3e59 a9b8 4a43 52ba
000001f0: de63 d039 1b92 d6b9 c79a 31ba 4005 d0b8

exp_avg_sq f4 [128]
2.0189572e-07 2.9008768e-07 2.3367132e-07 7.449109e-07 6.365553e-08 2.0043001e-07 3.0352828e-07 3.227304e-08
8.606208e-07 1.4503718e-07 2.8085321e-07 4.6727738e-08 1.050027e-07 2.6226138e-07 1.8299623e-08 4.1357742e-07
3.5697784e-08 1.2042999e-07 1.8767798e-07 3.1620917e-08 2.226223e-07 5.2500246e-07 1.566922e-07 7.589357e-08
4.0532518e-07 6.8863426e-07 1.6867097e-06 2.1744988e-07 1.6167142e-07 1.0101512e-06 2.1538165e-07 2.8518283e-08
3.5509352e-08 1.2161222e-07 3.4755325e-07 5.260233e-07 1.17354574e-07 1.0257089e-06 6.653691e-08 1.9391484e-07
1.7262249e-07 6.832382e-08 4.9163714e-07 1.5508368e-07 4.407225e-08 8.027664e-07 3.1054617e-07 2.3201916e-07
6.9823994e-07 2.507852e-08 3.703264e-08 1.3461559e-07 3.563975e-08 2.7661252e-07 3.4897351e-07 1.00916836e-07
2.0076116e-07 1.2645742e-06 1.6008544e-06 4.82518e-08 1.359348e-07 4.606289e-07 3.524569e-07 4.3850824e-07
1.1219664e-06 1.6990631e-07 4.3748692e-08 5.2996415e-07 2.1920965e-07 2.0773793e-07 6.183442e-08 2.059285e-06
8.706714e-09 1.2266589e-06 7.105296e-08 2.5341436e-07 1.3041532e-07 4.658637e-08 2.5585362e-07 3.877949e-07
5.3415613e-07 5.566095e-07 1.9934534e-07 5.748709e-08 1.729842e-07 7.779505e-07 6.3539346e-07 3.203055e-07
1.2151548e-06 8.399078e-08 2.1966291e-07 5.874984e-07 1.4574849e-07 4.3990505e-07 2.3989628e-06 9.532128e-08
7.339948e-08 3.939015e-07 3.940012e-07 4.805184e-07 3.1812021e-07 4.4470133e-07 4.2501037e-07 3.6639798e-07
2.3764642e-08 1.1774996e-07 5.4083944e-07 6.708168e-08 3.0100122e-07 2.760491e-07 1.5143737e-06 7.2307745e-07
2.2792261e-07 1.7832022e-07 3.361619e-07 1.4226818e-07 8.43159e-08 2.1665264e-07 3.0419545e-07 9.907027e-07
6.6425514e-07 2.0588743e-06 3.4416178e-07 1.0338786e-06 4.8384413e-07 3.998769e-06 1.0942344e-06 7.4049467e-07
00000000: acc8 5834 59bd 9b34 15e7 7a34 e3f5 4735
00000010: ffb2 8833 c835 5734 9cf4 a234 959c 0a33
00000020: 6905 6735 84bb 1b34 2cc8 9634 b1b1 4833
00000030: d87d e133 eecc 8c34 4c31 9d32 a609 de34
00000040: 2152 1933 8b4f 0134 8884 4934 91cf 0733
00000050: f409 6f34 e5ed 0c35 393f 2834 eefa a233
00000060: 789b d934 96da 3835 e762 e235 2b7c 6934
00000070: e797 2d34 8894 8735 a843 6734 5ef8 f432
00000080: f282 1833 8394 0234 5b97 ba34 0c34 0d35
00000090: 5c04 fc33 17ab 8935 0ee3 8e33 e836 5034
000000a0: 1c5a 3934 6bb9 9233 0cf9 0335 1485 2634
000000b0: f449 3d33 b07d 5735 24b9 a634 f120 7934
000000c0: af6e 3b35 406c d732 d10d 1f33 da8a 1034
000000d0: 5212 1933 5681 9434 8e5a bb34 9eb7 d833
000000e0: cf90 5734 70ba a935 f0dc d635 6a3d 4f33
000000f0: 79f5 1134 5b4c f734 4f39 bd34 1d6c eb34
00000100: 7996 9635 7e6f 3634 32e6 3b33 dc42 0e35
00000110: e45f 6b34 910e 5f34 d5c9 8433 3f32 0a36
00000120: 8894 1532 aea3 a435 c795 9833 010d 8834
00000130: 4a08 0c34 4116 4833 415c 8934 2032 d034
00000140: ee62 0f35 ea69 1535 a10b 5634 b9e7 7633
00000150: 89bd 3934 5ad4 5035 e88f 2a35 74f6 ab34
00000160: 6718 a335 6b5e b433 7bdc 6b34 95b4 1d35
00000170: 0a7f 1c34 172c ec34 defd 2036 6eb3 cc33
00000180: ca9f 9d33 6979 d334 1d87 d334 f9fc 0035
00000190: 1cca aa34 49bf ee34 fb2c e434 5bb5 c434
000001a0: 0023 cc32 badd fc33 342e 1135 8b0e 9033
000001b0: 4b99 a134 e633 9434 7c41 cb35 8119 4235
000001c0: e4ba 7434 4a78 3f34 bd79 b434 61c2 1834
000001d0: 2811 b533 06a1 6834 4e50 a334 49f8 8435
000001e0: 444f 3235 312b 0a36 3cc5 b834 ccc3 8a35
000001f0: 84e1 0135 2a2d 8636 9cdd 9235 68c6 4635
