ML Agents tutorial/Assets/results/RollerBall_2walls_between_time_col/RollerBall/RollerBall-499978.onnx (onnx, 77817 bytes, 8 tensors)

network_body._body_endoder.seq_layers.0.weight f4 [128, 12]
00000000: e230 68bd 4eb1 d1be c16d 6bbe 2376 22bd
00000010: 99c7 e3bb 2850 47be ce8b 083f 19c4 bcbe
00000020: 2baf 023f 207d d13e dd1f d8be 40d4 73bf
00000030: f476 223f eb9d fb3d 2d8f 9abe 1103 a13e
00000040: f75e 19bf 40e6 f83d 2ccb 3cbe 820f 9ebe
00000050: 5698 d3bd 3080 e53d 2a25 dc3d 476a 8b3d
00000060: b8e0 4abd a329 37be d4ab e63d 93e7 9abc
00000070: 1bc8 f6be 0ba9 3a3e f80d ae3e 2db2 893e
00000080: 3b52 2abe eb8c ba3e 6832 9bbd 1e43 a4be
00000090: 719e 673d 9fea 52be a135 d63e fadc dfbd
000000a0: aa17 393b f9f4 c73d 9144 93be 0108 de3e
000000b0: 8251 5ebe 9175 f3be bfcc 4a3d c8db b33d
000000c0: dc71 84be cf47 d53e dcbb 653c a5c5 523e
000000d0: de27 3e3e 8d42 21be 65a0 0cbf a679 fdbe
000000e0: ca07 dabe d9c2 293d e405 243f b9a3 ca3e
000000f0: a254 bfbc e1ab a13d 7f6d 21bd 6dc1 cebe
00000100: 3d66 8b3e 8f98 4f3e b635 9d3e fcc5 8c3e
00000110: 9402 3dbd 8b0b b6be 504f 87be 2c53 b53c
00000120: f3b7 67be 9789 c3be 0cb6 9f3d 3989 4c3d
00000130: caa8 97bd b29b a83e eaaa e5be c941 d8be
00000140: 7b2a 283e 469b 92be b4d7 c03d 2a18 b9bd
00000150: 4c20 aabc b0c3 663e e0f9 8b3d 0353 503e
00000160: 2fb0 6fbc fccd 7d3e 5679 a3be bda4 bd3e
00000170: d3bf cf3e 5335 3b3e d3fa 52be 0f04 31bf
00000180: cf40 3a3e 7fe9 883d 7a18 073e aa08 95bd
00000190: a16f 9e3e 9763 6f3e 8dbf bbbe c410 483f
000001a0: f4d6 1f3e 2467 3abe 1944 e23e 97eb 03bf
000001b0: 9baa 383e 5005 90bd eb33 39be bc73 a5be
000001c0: b9c8 4d3b cb32 f5be 78f0 3d3d 0325 013f
000001d0: 0a1a 283e 6c82 913e 4ac1 253f b653 02bf
000001e0: d932 98be 51de 8bbd 183e c23e 3a86 2ebf
000001f0: 2870 e73e 0c70 04bf a58f 4b3e 6cf3 e9be
00000200: cf74 feb8 af04 b7be d3b5 90be b19b ed3e
00000210: 16ca 0c3e dfa0 8c3e d982 06bf a858 993e
00000220: f10b 47bd 63ef 6f3c e2ca bbbe b405 0ebf
00000230: 50d2 8f3d 34d4 05be ad0e a83e 7101 4b3e
00000240: 4f98 883e 4b80 803e ee69 a7bc 63c8 53be
00000250: c11a 74bd f1f8 9d3e 3e67 4bbd 5b7a 64bc
00000260: a7b2 7abd 7fc9 73be 3794 d93e 2571 2e3f
00000270: 8f47 1a3d 2325 083e 3459 7a3e 50fe 13bd
00000280: ea0c f63d a277 c13d 29bb 61be db7d edbb
00000290: a616 0fbe 2f51 9fbe 42ab 1f3e dedb c0be
000002a0: 71da e2bd 2d63 99be deb6 763d 034d 2abf
000002b0: f334 193f a4f8 d6bd 295d 34be 48a0 0fbe
000002c0: 5843 243e c991 fbbe 74a0 f2bd d33d 2cbd
000002d0: e5e4 19be d4d4 1a3f 0fa4 e9bd 15a7 21be
000002e0: 4a55 a4be f72e 08bc 9258 b23e 5e2a b0be
000002f0: ce9c 0c3f acc5 89be 5b67 2c3f 6e67 973e
00000300: 518e 80be 469f 0b3e 2dc2 c83e c704 d83c
00000310: b2c0 90be b9e1 2fbe d49d cd3d c9e1 8dbe
00000320: a18d 07be d944 763d b4e2 063f f255 f73d
00000330: 6aff ddbc df6b 96bc d7cf 8cbe 1d4f af3e
00000340: 9d79 dfbd e6f7 343e eed6 f5bc 1fff adbd
00000350: c0ba 2dbe 5a13 0dbf 4893 8a3d 3f2b 11be
00000360: fed9 e23d 0889 c93e bb39 42be 24c9 a3be
00000370: f1f8 8a3d fb35 653e 8806 99be 01ad 8e3c
00000380: 1be0 70bc c135 063e 0eb7 c93d 72e4 f83e
00000390: 95df 35bd f1df 0e3d 8783 463e a5a8 c23d
000003a0: cb95 ecbe 92a7 1dbe 45ea e7bd a971 ba3d
000003b0: a778 7dbd aea2 b03e c5b4 063f 427c 2bbe
000003c0: c697 92be 3d84 b73e 2b04 02be f3b2 033f
000003d0: 2b62 243e 8806 b1bd e44a 1e3e 9ff1 ca3e
000003e0: e96f e5bd d071 7c3d 731d 9a3e ab10 cbbe
000003f0: 29fd 3b3d 0e2b 13bf 15c9 db3d 48b5 09be
-0.056687243 -0.40955585 -0.22991087 -0.039663445 -0.006951284 -0.19464171 0.53338325 -0.3686836
0.51048535 0.40915775 -0.4221181 -0.9524574 0.6346276 0.1228598 -0.3018736 0.31447652
-0.5991053 0.12153292 -0.18436879 -0.30871207 -0.1033179 0.112060905 0.10749276 0.0680738
-0.049530715 -0.17886977 0.11263242 -0.018909251 -0.48199543 0.18228547 0.33995032 0.2689375
-0.16632931 0.36435637 -0.075779736 -0.32082456 0.056547586 -0.20597313 0.4183779 -0.1093082
0.0028242865 0.09763522 -0.2876325 0.43365481 -0.2171078 -0.47550634 0.049511667 0.08782154
-0.25868118 0.41656348 0.01402184 0.20583208 0.18569896 -0.15748043 -0.5493224 -0.49506873
-0.42584068 0.041445587 0.6407149 0.39578035 -0.023355786 0.078941114 -0.039411064 -0.40381947
0.2722644 0.2027304 0.3070504 0.274948 -0.046145037 -0.35555682 -0.26427698 0.022134386
-0.22628765 -0.3819091 0.077983946 0.049935553 -0.07405241 0.32931286 -0.4485696 -0.4223769
0.16422455 -0.2863409 0.09416142 -0.09037812 -0.020767353 0.22535586 0.06834769 0.20344166
-0.014629408 0.24785608 -0.3192851 0.37039748 0.40576038 0.1828206 -0.20603494 -0.6914682
0.18188785 0.06685161 0.13192931 -0.07277043 0.3094454 0.23377834 -0.3666958 0.7815058
0.15609342 -0.18203408 0.4419258 -0.51531357 0.18033831 -0.07032263 -0.18086211 -0.3231486
0.0031400158 -0.47890314 0.046371907 0.504471 0.16416183 0.28419816 0.6474806 -0.5090898
-0.29726294 -0.06829513 0.37938 -0.68173563 0.45202756 -0.5173347 0.19879015 -0.4569353
-0.00012133421 -0.3574576 -0.2826372 0.46407846 0.13748965 0.27466485 -0.5254341 0.29950452
-0.048595373 0.014644477 -0.36678225 -0.5547745 0.07022536 -0.1306923 0.32823697 0.19824769
0.26678702 0.2509788 -0.020436253 -0.2068191 -0.059595827 0.3085399 -0.049659006 -0.013945187
-0.061205532 -0.23807333 0.4249589 0.68141395 0.0376659 0.13295417 0.24448091 -0.036131203
0.12014182 0.09446646 -0.22044052 -0.007247669 -0.13973483 -0.31116626 0.15592673 -0.37667745
-0.11076821 -0.29958478 0.06023299 -0.6652376 0.5984642 -0.10496643 -0.17613663 -0.14025986
0.16041315 -0.49134663 -0.1184701 -0.042051148 -0.15028723 0.60481 -0.11408245 -0.15786393
-0.3209632 -0.008311979 0.348332 -0.34407324 0.54926765 -0.26908624 0.6734521 0.29571098
-0.2510858 0.13634977 0.39210644 0.026369466 -0.28272015 -0.1717595 0.10039869 -0.27711323
-0.13237621 0.060124252 0.5268967 0.1207694 -0.02709933 -0.018361984 -0.2750232 0.34240046
-0.10911868 0.17672691 -0.030009713 -0.08495926 -0.1696577 -0.55107653 0.06766373 -0.14176653
0.11076735 0.3936236 -0.18967335 -0.31989396 0.06785763 0.22383873 -0.29887795 0.017416479
-0.014701868 0.13106443 0.09849368 0.4861179 -0.044402678 0.034881536 0.19386111 0.09504823
-0.46208033 -0.15395954 -0.1132398 0.0910371 -0.06188264 0.34499115 0.5261958 -0.1674662
-0.2863142 0.35843077 -0.12696902 0.5144493 0.16053073 -0.08643824 0.15458256 0.39637467
-0.11202986 0.061631978 0.30100593 -0.39661154 0.04589573 -0.5748757 0.10731713 -0.1344806

network_body._body_endoder.seq_layers.0.bias f4 [128]
00000000: bc67 203d 8f00 27be 20d8 3fbe a108 52be
00000010: 49c9 2c3e 2188 4ebe d709 72bd d49e 3ebd
00000020: 2a88 35bd 30d7 fbba bc8c 553d 2dd6 9e3b
00000030: 1d99 85be b988 b5bd 8e75 c8bd 7460 4ebc
00000040: f2d4 18be 87e2 efbd 0212 343c 64dc 20be
00000050: 33cb 053c aaf9 3fbd 9ee6 6dbc 1384 df3a
00000060: ddab 903c 230a c2bd bea6 17be 7b28 f23d
00000070: 015a e0bb bc20 24be d19c 4dbe 4e50 4cbc
00000080: 7d1e a73d 3ead 44be 3dc5 843d 04ef a83d
00000090: eb0f b13d ef4c 57be 56ec f4bd 47fd a0bc
000000a0: d4c6 893c e603 f1bd 5e5c 54be f115 b73d
000000b0: 323a a3bc c4d8 68bd 2dcf d33d 46f4 2bbe
000000c0: 646e 70bd a9eb 92bd 0ba8 fc3d 245e c4bd
000000d0: 76a5 92bd 9c0c 5fbe 43e4 a33d 0b52 9ebd
000000e0: 8746 68bd 934e b9bd 5031 d83d 15e8 b9bd
000000f0: 1c9f 89bd 00e2 e3bd c165 08bd 847d 0e3d
00000100: e6c6 25bd f21d 9dbd 8d94 84bd c191 943d
00000110: 3b9b 3d3d 04e4 663c 4d49 2d3e f1a3 a9bc
00000120: 1850 febd b9a4 65bd 6fb0 2a3b b393 6f3d
00000130: 078d 1abd f971 ec3d 1637 c53d 32f6 03be
00000140: bd17 2fbd 03c1 7abd 25d5 793d bd4e 2cbe
00000150: 733e 77bd ebe1 1ebe 2afa aebd 1ad7 39be
00000160: 7096 2cbd 510b 09bc 543c 14be 2248 5dbd
00000170: 9fbb 12be c88e 2bbe 991a 993d 49be 3b3e
00000180: 2922 f63c 9ec2 773d b568 86bd 4d4b c9bd
00000190: bc70 a23b c924 3f3d 6c0c 78bd 2b89 65ba
000001a0: d68c 5a3d 6505 243d b147 c23d 08c8 34be
000001b0: 5043 943d 587f a7bd b867 b93d ebc6 183e
000001c0: e4bb bfbd a1fd 963d f14e 163d 1776 c4bd
000001d0: 51e1 46be ba8e 10be 6c80 d63b 6275 76be
000001e0: 68d5 9fbd add7 223d 6fde 833d 2ea8 bfbd
000001f0: 6b76 723d f5b8 813c 7fe9 cdbc 2d4b c3bd
0.03916143 -0.16308807 -0.18734789 -0.20511104 0.16873659 -0.20169117 -0.059091415 -0.04653819
-0.04431931 -0.0019213911 0.052136168 0.004847309 -0.2609338 -0.088639684 -0.09788047 -0.012596238
-0.14924982 -0.117131285 0.0109906215 -0.15709072 0.008166122 -0.046868958 -0.014520315 0.0017052911
0.017660076 -0.0947459 -0.14809701 0.11824127 -0.006846667 -0.16028112 -0.20079352 -0.012470318
0.08160112 -0.19206712 0.06482933 0.082487136 0.08645614 -0.21025442 -0.1195914 -0.019652022
0.016818441 -0.11768322 -0.2073836 0.08939732 -0.01992521 -0.05684735 0.1034225 -0.16792402
-0.058699027 -0.07173855 0.12336739 -0.095882684 -0.071604654 -0.21782154 0.08002522 -0.07730492
-0.056707885 -0.0904819 0.105562806 -0.09077469 -0.06719801 -0.111270905 -0.033300165 0.03478767
-0.040472887 -0.07671727 -0.06473646 0.07254363 0.046290617 0.014092449 0.16922493 -0.020708056
-0.124176204 -0.056065295 0.0026045104 0.058490466 -0.03773215 0.11545176 0.096296474 -0.12886885
-0.042747248 -0.061219227 0.060994286 -0.16826911 -0.06036229 -0.15515868 -0.08543809 -0.18148461
-0.042135656 -0.008364514 -0.14476138 -0.05402387 -0.14329384 -0.16753685 0.07475776 0.18334307
0.030045586 0.060488336 -0.0656294 -0.098288156 0.0049572866 0.04666594 -0.06055872 -0.00087560964
0.053356968 0.040044207 0.0948633 -0.17654431 0.07239401 -0.08178586 0.09052986 0.14919631
-0.09362009 0.073725946 0.03669638 -0.09592836 -0.19421889 -0.14116946 0.006546071 -0.24068215
-0.07804376 0.039756466 0.0643891 -0.093582496 0.059194963 0.015835265 -0.025135754 -0.09535823

network_body._body_endoder.seq_layers.2.weight f4 [128, 128]
00000000: d3b9 f73b e6c7 7abd 4c05 ad3d 16c8 3e3d
00000010: bbe0 74bd 6566 603d 6b61 563b c4dc d93d
00000020: 0286 e2bd be60 8c3d 63a0 91bd 6548 e73d
00000030: 0105 8cbd 66b8 4d3d d9d6 6cbe 9f05 16be
00000040: c254 de3b 22be 0b3d 225e 4abe eca4 27bd
00000050: 1edc 9ebd e1cc 0bbd f350 f9bd b891 1c3e
00000060: df19 bcbc 585f 173e c4d1 f4bd cf57 eb3d
00000070: 8c79 b73d 0722 113e 90f1 753e dc68 b73d
00000080: 372b 40be 874e 4ebd e8dc 90be dcd1 85bd
00000090: 2c41 8bbd 0543 06bd 964f 27bd 44d0 0f3e
000000a0: 92b2 953d 706c 26bc 18f1 3d3d 5bd9 133e
000000b0: a6ea f33d d06a 063e 0be9 babd 23cc 9cbc
000000c0: efdf b43d 675e c0bc add2 b53c 061b 0dbe
000000d0: 8793 223e f460 393e 4af4 163e c04c 13bd
000000e0: 94d2 8fbd bf74 873c 9623 01be bd40 0e3e
000000f0: 5f59 013e 336a 0e3c b683 a43b d472 ab3d
00000100: becc 863d f90c 8b3d 0ee8 a0bc 0e3b 5fbd
00000110: 9a0b 2cbd 308b 82bd 0dfb d4bd 354c eebd
00000120: 8391 783a 2ae3 25be eec4 64be cb62 543e
00000130: 4713 6dbe c496 7ebd d4b6 053c 5bd0 5f3d
00000140: 7952 4b3d 4f84 1dbe 9510 8ebd 9ead 4d3e
00000150: e176 ecba b2bc 8dbd 71e0 9b3c 0aec 2fbe
00000160: 86ee 79be a42c f33d f334 a7bd f1ee 193e
00000170: e9ba 7ebd eba2 37bc fab7 003d 94d6 babc
00000180: 4614 92be d508 263e 1615 adbc a2a2 e7bb
00000190: 601e cdbd 783e cfbb cc12 1abd 0a3c d0bd
000001a0: a483 293d fede 3a3e 2efe 633d 9b4b 4dbe
000001b0: a183 e83c 50ea aebd 6e9a 5f3d 2ac8 9ebe
000001c0: b9f4 d93d bba6 bfbd 2318 2bbe 37f1 233e
000001d0: 8477 17bb 17b1 20be a7af 513e 5186 58bc
000001e0: 3f19 36be 4ca5 f63d 9349 d1bc 89dc 2ebe
000001f0: b3ba 293c 6a5d 6bbc fa66 16bb bd57 8c3b
00000200: 0f4f 11bd caf2 51bd 2dd0 633d 0699 92bd
00000210: 9ed7 1cbe b9a4 a1bd 83c8 12be 1bb2 7abe
00000220: 2656 4ebd ab37 1f3e 87bb 64bd f2c8 d8bc
00000230: 0c5b fc3d 7a9f f4bd 2053 cabd 2a80 dd3d
00000240: 2eb5 75bd 15dc 04be a7a5 e13c 92de 443d
00000250: 1d49 233d 8f43 1a3e 743d 04bc 9aa4 68be
00000260: 8439 36be 3de9 a6bd 6780 b6bd fedf 843e
00000270: 7d7b 2abd 95b2 c4bd b320 c43d 95c0 9a3d
00000280: bfa2 613d 49d3 bf3d 875e 403c 9e77 98bd
00000290: d103 ecbd 9009 f1bc 7d8f 94be df97 8bbd
000002a0: 887b 273e 8aa5 9c3c 9535 9ebc fbf5 1abd
000002b0: 090c 0abe 3fad 09be 98e0 6cbd 94ae 363e
000002c0: 2ffc 90bc e8a0 003e a49e a4bd 5807 86bd
000002d0: b944 23be 9378 0dbc 8c83 093d fd7b f13c
000002e0: 21b4 38bd 69ec 6b3d 4abf 3d3e f7f8 84bd
000002f0: f798 0fbe cbd7 f9bb 6b40 ebbd f0e6 22bd
00000300: 3698 5b3d 0193 963d 0c64 d6bd 886a 9abd
00000310: ab7b c63c 0dbe 3bbd aa2d 603d d0bc 14be
00000320: 9b34 663d ff90 633e 6079 e5bd e2a6 1c3e
00000330: da15 24bd 3f0b 663d bcb7 87be 8a8f 013e
00000340: 40e9 63be 037b c6bc 5ff7 acbd e27c 033b
00000350: 7504 5d3d 7f5a 85bc b4e3 27bd 71bd 56bd
00000360: 5ee5 113e b923 a93d 3002 173e ec5a c43d
00000370: ffee 323e f87f 62bc 302b 70bd e06b 823d
00000380: 9bd8 373e ab51 bdbd 47a9 87bd 028e d2bd
00000390: d753 543d 76ec 56be 1ad8 1dbe b2c8 85bd
000003a0: ee12 87bd 11df c3bd 0e20 0fbe 3197 1bbe
000003b0: a769 a5bd 3876 563d 1c02 11bc d9c9 dd3d
000003c0: 0116 1e3d 9853 05be 5a77 163e f4a9 473d
000003d0: 06bf a3bc 786a 88bc a910 33be 242c b2bd
000003e0: b4da 87ba c4bd 26be 9de5 43bc 7b72 8b3e
000003f0: c591 b2bd c015 a03c 3abc b3bc 4b14 b63d
0.007559994 -0.061225794 0.08448276 0.046577536 -0.059784632 0.05478515 0.0032711874 0.10637811
-0.11060716 0.068543896 -0.071106695 0.11293105 -0.06836892 0.050224684 -0.23128833 -0.14650582
0.0067850063 0.03411687 -0.19762471 -0.040928766 -0.07756828 -0.034130935 -0.12173643 0.15289962
-0.022961555 0.14782465 -0.11954072 0.114913575 0.0895873 0.14173137 0.2401793 0.08955547
-0.18766485 -0.05036786 -0.28293538 -0.06534168 -0.0679954 -0.03277876 -0.040847383 0.14044291
0.0730945 -0.010157689 0.046372503 0.14438383 0.1190999 0.13126683 -0.09126481 -0.019140309
0.088317744 -0.023482515 0.022195185 -0.1377984 0.1587659 0.18103391 0.14741626 -0.035961866
-0.070225865 0.016535161 -0.12611231 0.13891883 0.12631749 0.008692312 0.005020584 0.08371511
0.0658202 0.06789584 -0.019641902 -0.05449968 -0.04200325 -0.06374204 -0.10399447 -0.11635629
0.0009482132 -0.16199937 -0.22340748 0.20740812 -0.23151885 -0.0621555 0.008161265 0.054642063
0.0496392 -0.15382503 -0.069367565 0.20085761 -0.00180408 -0.069207564 0.01902792 -0.17179886
-0.24407396 0.11873749 -0.08164396 0.15032555 -0.06218997 -0.011208276 0.031425454 -0.022807397
-0.28531092 0.16214307 -0.021128219 -0.007068948 -0.10015559 -0.0063245855 -0.037615582 -0.101677015
0.041385308 0.18249127 0.055662327 -0.20048372 0.028383078 -0.08540785 0.054590635 -0.31012088
0.1064238 -0.09357973 -0.16708426 0.16009985 -0.0023112008 -0.15692554 0.20477162 -0.013215617
-0.17783068 0.120432466 -0.025547778 -0.17076315 0.010359454 -0.014365533 -0.0022949562 0.00428292
-0.035475787 -0.051256932 0.055618454 -0.07158093 -0.15316626 -0.078927465 -0.14334302 -0.24482004
-0.050375126 0.1554858 -0.055842903 -0.026463006 0.12322053 -0.1194448 -0.09879136 0.10815461
-0.05998724 -0.1297458 0.02754481 0.048063822 0.039864648 0.15064834 -0.008071292 -0.2271904
-0.17795378 -0.081499554 -0.089112096 0.25952142 -0.041621674 -0.09604374 0.095765494 0.07556263
0.055086847 0.09366471 0.011741287 -0.0744469 -0.115241654 -0.029423505 -0.29015723 -0.068160765
0.16355717 0.019121904 -0.01931266 -0.03783224 -0.13481154 -0.13444994 -0.057831377 0.17840034
-0.017698376 0.12561381 -0.08038071 -0.065443695 -0.15944184 -0.008634704 0.03357272 0.029478068
-0.04509366 0.057598505 0.18530002 -0.06492799 -0.14023195 -0.0076246015 -0.11486896 -0.03977102
0.053611957 0.073522575 -0.10468301 -0.075398505 0.024228891 -0.045835543 0.05473105 -0.14525151
0.056202512 0.2222328 -0.11204791 0.15298036 -0.0400599 0.05616307 -0.26507366 0.12652412
-0.22256947 -0.024228578 -0.0844562 0.002006345 0.05395933 -0.016278503 -0.04098864 -0.05242676
0.14247653 0.08258767 0.14746928 0.095876545 0.17473982 -0.013824455 -0.058634937 0.06368232
0.17953722 -0.092440926 -0.06624084 -0.10280992 0.05183777 -0.2098864 -0.15414467 -0.0653242
-0.065954074 -0.09564031 -0.13977072 -0.15194394 -0.08076792 0.052358836 -0.008850601 0.10829515
0.038595203 -0.1302017 0.14693967 0.048746064 -0.019988548 -0.01665233 -0.17486824 -0.086998254
-0.0010364861 -0.16283327 -0.0119566 0.2723578 -0.087192096 0.019541621 -0.02194034 0.08890589

network_body._body_endoder.seq_layers.2.bias f4 [128]
00000000: 5c1d 6abc 806b 17be e706 fdbd c301 513a
00000010: 004c e8bd d5ad 9b3c 2cb2 ddbd 2a6a e0bd
00000020: cb61 c8bd f006 40bd 4054 a03b c554 2ebd
00000030: 870c fbbc 1b8a b23c e226 c7bd 96ec dfbd
00000040: 0eb4 92bd 16b2 3cbc 2a42 9dbd 65b0 b2bd
00000050: 17e7 34be 01d5 98bd 8a23 8fbb a094 91bd
00000060: 06b1 fbbd 4a66 d63b 9b35 9bbd f85a 34bc
00000070: a3b1 b7bb db7a c0bd 440e c1bd 3037 8abd
00000080: 65fe a3bd da70 cbbd c612 bfbd b853 09be
00000090: 303f b3bd 2019 96bc ae72 7b3c b373 19be
000000a0: 4abe a23d 47a3 503d 5d16 99bd b68d e1bd
000000b0: a5ce b2bc 0cc4 82bd fb10 ccbd 569b a6bd
000000c0: c96b 98bd 816e b8bd 1345 9abd 55bb c9bd
000000d0: 4904 23bd 08e0 cabd f1c7 4abd 0d68 33bd
000000e0: b99f cbbc 23e6 a03d 16ed 8f3c 1b82 e43c
000000f0: fdc8 983d 7a4d f13d 4d6b b4bd 9aa1 72bd
00000100: d6b7 97bd 441a 6cbc ca1a ddb9 b21a b3bb
00000110: 9d68 03bd 5744 82bb 87ae 99bd e9ce 0dbe
00000120: 5a54 6bbd a18a a3bd 63b4 1cbd 86c0 c3bc
00000130: 734a 95bd a981 04bd abc2 52bc f272 2fbd
00000140: 8713 04bd cee7 b53d 1065 43bd 5639 673d
00000150: f248 763d c452 08be 5eaa fbbd 5079 92bd
00000160: d882 a4bc 8368 1c3d 1af0 a0bd cfd4 e3bc
00000170: 8544 91bc bf1e e9bb 1544 c3bd a7df 17bd
00000180: a84b 383c 266a e4bd d072 bdbd 7f87 c7bd
00000190: a20f 563d 94f0 31bd a773 82bd 218c 01bd
000001a0: 071e b7bb fd54 31be 4cd4 34bd d0be f2bb
000001b0: b290 f6bd 2ba3 663c 2d68 00be d1bc 1dbd
000001c0: f840 70bd d374 af3d e116 efbd 60b5 80bd
000001d0: 197e ce3b ac5e 593d 8ac9 55bd 3688 b5bd
000001e0: c457 933d 8679 ea3d 0ca9 963d ae0c 78bc
000001f0: d908 92bd fc5a 82bd 0129 3ebd 5891 07be
-0.014289226 -0.14787102 -0.12354832 0.000797298 -0.11342621 0.019003788 -0.10824999 -0.10957749
-0.097842775 -0.046881616 0.004892856 -0.04256131 -0.030645622 0.02179437 -0.09724213 -0.10933797
-0.07163249 -0.011517068 -0.076786354 -0.08725051 -0.17666279 -0.07462502 -0.0043682503 -0.07108426
-0.12289624 0.0065429555 -0.07578584 -0.011008017 -0.0056058927 -0.09398433 -0.09426549 -0.067488074
-0.08007506 -0.09933634 -0.093297526 -0.13410842 -0.087522864 -0.018322527 0.015347166 -0.14985542
0.07946451 0.050936963 -0.074749686 -0.11013357 -0.021827051 -0.06385049 -0.09964176 -0.08135097
-0.074424334 -0.09005452 -0.07532706 -0.09850184 -0.03979901 -0.09906012 -0.049507085 -0.043800402
-0.024856435 0.07856395 0.017569106 0.02789407 0.074602105 0.117823556 -0.088095285 -0.059236147
-0.07408111 -0.014410559 -0.00042172364 -0.005465829 -0.03208219 -0.003975432 -0.075039916 -0.13848461
-0.05745349 -0.07985426 -0.038257968 -0.023895513 -0.07289591 -0.032350216 -0.012863795 -0.04283423
-0.032245185 0.08882104 -0.047703803 0.056451164 0.06012816 -0.13312823 -0.12288354 -0.07152045
-0.020081922 0.038185608 -0.07858296 -0.027811436 -0.017732868 -0.007114261 -0.0953447 -0.037078526
0.011248507 -0.11153059 -0.09250414 -0.09742641 0.052261002 -0.043442324 -0.06369715 -0.031627778
-0.0055882963 -0.17317577 -0.044147775 -0.0074080005 -0.12039317 0.014076988 -0.1253974 -0.038510147
-0.05865571 0.08567204 -0.11674286 -0.062845945 0.006301653 0.0530688 -0.052194156 -0.08863871
0.07194474 0.1144896 0.07356462 -0.015139742 -0.07130594 -0.0636501 -0.046425823 -0.13239038

action_model._continuous_distribution.log_sigma f4 [1, 2]
00000000: c288 9dbe d6b8 70be
-0.307684 -0.2350801

action_model._continuous_distribution.mu.weight f4 [2, 128]
00000000: 3f15 8dbd 4e27 f53b 8e40 22bc 0a4c 713d
00000010: a560 f63c 683d 763d 597b 073e 37fa a43d
00000020: b5ee 083d 0341 dabc b837 b1bc 09f3 56bc
00000030: bb5b 6d3d 7ac3 22be 712b a13c 5f68 463d
00000040: 0e56 463d bd45 f8bd daf7 f83c 6628 93bd
00000050: 013e ff3d f8cb 36bc 8ea3 bf3d 890d b2bd
00000060: 6abf 88bd 7756 c73d 1aa9 eebc b371 a0bc
00000070: f9a2 143d ad94 1a3d 5595 103d 91fd fbbd
00000080: 871c 92bc 7382 4b3d 9399 2d3d e26d 873c
00000090: e5a1 a53c 37b9 ac3c faba d23d 29fd 683a
000000a0: 8183 78bd 881b af3d d515 56bd adc0 523d
000000b0: ed98 12be 4278 0f3d 90ab 5bbd 8d83 93bd
000000c0: c806 4ebc cdc8 40bc 4c93 3dbc c712 ab3d
000000d0: ed53 983d 1141 34bc d21c 1ebd f433 d4bc
000000e0: 9dd9 c13d 949c 34bd cef2 afbd 6ae1 f93c
000000f0: 6a52 ca3d fee8 c9bd 0e8f 743d 5066 eebd
00000100: dbd1 aabd 4eec 58bc 3f4e d73d 92e1 f03c
00000110: b4e9 2ebd 9bb9 4f3c 8a01 053c 981f 4dbd
00000120: e083 bfbc f02d 7d3d e395 623c 6081 b3bd
00000130: 0846 b3bb 2d24 dcbc 258b c03d c874 283d
00000140: 90bf eebc 8cf3 853d 55e0 813d 4f02 cf3d
00000150: 7b47 3ebb 4c75 d8bd 0bd0 d63d eaca 10be
00000160: 3509 8fbd 69a0 093e 045b 7b3c fa44 ccbc
00000170: 384a 5fbd 5a37 acbb 80f8 abbd 0b65 a9bd
00000180: c52f ed3c 13a2 75bd 38f3 963d d9c8 903d
00000190: 6857 a13d 7872 0d3d e2e5 08bc 3fb4 a6bb
000001a0: a883 cfbd fe86 5e3b 1d33 30bd c075 c0bb
000001b0: 8cd0 efbc 936d de3c 0cbe fd3c c2bd 173e
000001c0: f6e9 a9bd 1327 afbd 2d92 8cbd ebb9 eabc
000001d0: ce28 9abd 8763 0dbe 48e6 813d bc5b 503d
000001e0: 45f0 233d 1e73 01be 2585 d4bc 3296 733d
000001f0: 251b 15be dcd3 bf3d 160b 413e 6c0b 493b
00000200: 6515 17bd 1e7b 07bc 9954 ffbc be1d 0ebe
00000210: e2dd 6dbe e7ca 263d 552d b03d b733 32be
00000220: bd7b 34be acad 75bd de32 e8bd 9da4 50bd
00000230: c372 3dbe 4a93 bebc 827f afbd 3487 98bd
00000240: cbe1 493c 2e0e 35bd 863f 80bd fd96 9bbd
00000250: 12bf 9a3c 0a8b 1ebe 90b6 553c ab87 a2bd
00000260: d3c4 cabd 247a d1bd dfb1 7ebe ce2f 5f3c
00000270: 2692 efbd e0b2 10be 7639 65be dbf8 8bbc
00000280: ae55 a0bd bf77 07be 2f7c 65bd 7c99 27be
00000290: 6f93 2ebd e5a7 033d deb6 d1bc 9d37 9b39
000002a0: 6824 093d 6d9a 4d3a a5c1 4fbd f2c5 e2bd
000002b0: 0a28 47bd 3d9c 823b 5b7f 01be 77bb 8dbd
000002c0: 1312 fbbd 8567 bcbd 5607 483d 371c 6dbe
000002d0: c8be a13d b9a1 8a3d 5a52 7cbc 8463 e4bd
000002e0: 4f57 d73c 0821 8e3b 0eec d9bd cc04 27be
000002f0: 0cc9 963d 0c26 983d d889 6fbe bdb6 97bd
00000300: b7fb ac3d 7fcc f1bd d58d 95bd 495e 89be
00000310: 33e1 fcbd 0b56 023d 978e 09be 9192 a43c
00000320: c71d acbd b55c 52bd 9a59 64be 8dcf 8dbc
00000330: f9e2 10be ebc4 80be a186 05be 4a6a 88bd
00000340: ca7d 54be e493 313c d98f 01be 9358 d63d
00000350: 73a1 c83d b3bf a6bd b77d 2abe 1e44 3b3c
00000360: 0ae4 d7bd b0ab 31bd 0d29 2ebe de8a adbd
00000370: f091 2f3d 16b8 b03d 736a 8b3d 896f 62bd
00000380: f8c7 71bd ea95 47bd 2fb9 8ebc 2450 1a3d
00000390: cf78 d93c b00f 4bbe 50ef 09be 9a10 d137
000003a0: 1b13 733d b5f0 4b3d 0b7b 69be f356 88bd
000003b0: 645e 54be 1aea 193d 50c8 4ebd 03bf 92bd
000003c0: 38f8 05bd ab84 8c3c 31f1 c83c 2f2c 67bd
000003d0: 5a87 a6bd 91da 083e 9aef 1dbe 2291 64be
000003e0: b9e6 e23d c882 63bc ffe9 8b3c 9b7f 1bbe
000003f0: 85a2 af3d 9ee7 83be 1a76 163d f458 9ebd
-0.06888818 0.007481492 -0.009903086 0.058910407 0.03007538 0.060117155 0.13230647 0.08055537
0.033430774 -0.026642328 -0.021633014 -0.0131194675 0.05794881 -0.15894881 0.019674035 0.04843938
0.048421912 -0.121226765 0.030391622 -0.0718544 0.12462998 -0.011157028 0.093573675 -0.08693988
-0.06677134 0.09733289 -0.029133368 -0.019585466 0.036288235 0.037739445 0.035298664 -0.12304223
-0.017835869 0.049684953 0.042382788 0.016531888 0.020218799 0.021084411 0.10289569 0.00088878215
-0.060672287 0.08550173 -0.052266914 0.05145328 -0.14316149 0.035026796 -0.05363041 -0.07202826
-0.012574859 -0.011766625 -0.011570763 0.08353191 0.074378826 -0.011001841 -0.038601704 -0.02590368
0.094653346 -0.044094637 -0.08591233 0.030502994 0.098790005 -0.09858893 0.05970674 -0.11640608
-0.08340808 -0.013239933 0.10512971 0.029404435 -0.042703345 0.012678529 0.008118043 -0.05007896
-0.023378313 0.061811388 0.013829681 -0.08764911 -0.005470995 -0.026872719 0.0940154 0.041126996
-0.029144078 0.065405935 0.06341616 0.10107862 -0.0029034305 -0.105692476 0.104889 -0.14139906
-0.06984178 0.13440098 0.015341524 -0.024935234 -0.05451414 -0.005255622 -0.08397007 -0.082712255
0.028953442 -0.05996902 0.07370609 0.07069559 0.078779995 0.034532994 -0.00835559 -0.005087405
-0.10132533 0.0033954973 -0.043017495 -0.005873412 -0.029274248 0.027151858 0.03097441 0.1481848
-0.08296578 -0.08552375 -0.06863818 -0.028653106 -0.07527314 -0.13807498 0.06342751 0.050868735
0.04002406 -0.1264157 -0.025942395 0.05946941 -0.14561136 0.09366581 0.18851885 0.0030676974
-0.036885638 -0.0082690995 -0.031168269 -0.13878533 -0.23229173 0.040720847 0.086023964 -0.1740254
-0.17625327 -0.05998008 -0.11337827 -0.050938237 -0.1850081 -0.023263592 -0.08569242 -0.07447663
0.0123219 -0.044202976 -0.06262116 -0.07597158 0.018889938 -0.15482727 0.013044015 -0.07936033
-0.099008225 -0.102283746 -0.2487254 0.013622237 -0.116977975 -0.14130735 -0.22385201 -0.017086437
-0.07828842 -0.13229273 -0.056026634 -0.16367143 -0.042621072 0.03214254 -0.025599893 0.0002960534
0.033481985 0.00078431406 -0.050721783 -0.11072911 -0.04862217 0.00398591 -0.12646239 -0.06920522
-0.12259307 -0.09199432 0.04883512 -0.23155294 0.07897717 0.067691274 -0.0154004935 -0.111517936
0.02628675 0.0043374337 -0.10640727 -0.16310424 0.073625654 0.07429132 -0.23392427 -0.074079014
0.08446448 -0.11806583 -0.07302443 -0.26829746 -0.12347641 0.03182034 -0.134333 0.02008942
-0.08404117 -0.051357944 -0.22299805 -0.017310882 -0.14149083 -0.25150236 -0.13039638 -0.06660898
-0.2075111 0.0108384825 -0.1265253 0.10466113 0.09796419 -0.081420325 -0.16649519 0.011429815
-0.10541542 -0.043376625 -0.17007847 -0.084737524 0.042863786 0.086288616 0.06807413 -0.05528215
-0.059028596 -0.048726954 -0.017422287 0.037674084 0.026546864 -0.19830203 -0.13470197 2.4922472e-05
0.059344392 0.049790103 -0.22800843 -0.06657209 -0.20739132 0.037576772 -0.050484 -0.07165339
-0.032707423 0.017153105 0.024529072 -0.05643862 -0.08131285 0.13364626 -0.15423432 -0.22320989
0.11079163 -0.013886161 0.017079351 -0.15185396 0.0857592 -0.25762647 0.036733724 -0.0773181

action_model._continuous_distribution.mu.bias f4 [2]
00000000: 5b3a 41bd c896 373e
-0.047174793 0.17928612

action_model._discrete_distribution.branches.0.weight f4 [1, 128]
00000000: 725a 93bb cfb1 623b 13e1 61bc 03c1 d3bb
00000010: 835f 40bc 1c04 36bb 6da1 213b b389 25bb
00000020: 0060 d0bb 17de 993b aee4 103c 1846 5939
00000030: 4256 2c3b add8 b4bb 4bb9 91bc 74da 08bc
00000040: e746 873c 1d94 81bb 655c ff3b f3ed 853c
00000050: 7b53 2ebc 7328 c5bb 8011 3a3c d6a9 29bb
00000060: fbc1 30bc fb45 c8bc 6083 bcbb ca25 8abb
00000070: 30b6 ef3b 4288 ff3b b2e9 31bc b082 543c
00000080: 209b d33b fba9 31ba a65b 333c 9f81 0c3c
00000090: b0c5 abbb 671d 1dbc ef2f b33c 35d1 5cba
000000a0: 4b19 e5bb 12fc 3a3c 657e 853a 738c ad3b
000000b0: 0d95 84bb 6eb6 c03a c220 a03b 2f52 02bc
000000c0: ad49 7f3b 4382 59bc 431e 0e3c 4ea0 acbb
000000d0: 800e c63c 0f74 47bb 2b9e e83b 94ad 2e3b
000000e0: d08a acbb 27fb 22bb 4f0a 0a3c d57e ffba
000000f0: c7e6 823b 5eb8 ca3b 210a c7ba eb5b 83bb
00000100: f548 d03b 8b18 78bb 6237 87ba 7ca5 4bbc
00000110: 3755 4d3a 4419 ae3a 0b6f fdbb 52fc 7dbb
00000120: 7a1f d938 b0dd 29bb 90c8 7cbc 817c 973a
00000130: 631c 04bc d75f d73b 1774 b6ba cec1 a6bb
00000140: cef2 2f3c 8f18 09bc 87f3 773b b3dc 3b3c
00000150: 6ca7 8dbc 5bc4 1e3c 16a4 c5bb 1368 033c
00000160: c72b d6ba c874 a3b8 0d02 a5bb 7762 a3bb
00000170: 2ca4 9a3b dbb8 c7ba b7f2 483b 9c4a 063c
00000180: 7801 d0b9 75af dc3a 6b1a 783c 748b 30bc
00000190: fd95 02bc f3df d8bb f1b5 98bb 0fc8 2d3c
000001a0: dbd0 b5ba 8ba4 0abc e7fd 8a3b e705 b63a
000001b0: ffd3 a0bc eb25 263c 2c1e 2fbb c0aa aebb
000001c0: 5864 c2bb b9d2 2fbb 7667 2dbb 32fa 86bb
000001d0: c5b6 cb3a a7c2 e3bb 2dd8 fd3b 02ec b5bb
000001e0: 63fc b03b 4e60 c3bb aab2 253c 053e a23b
000001f0: 6ac9 81bb a984 9ebc d7e8 343a 9bf7 14bc
-0.004496866 0.0034590845 -0.013786572 -0.006462218 -0.011741522 -0.0027773445 0.0024662868 -0.0025259077
-0.0063591003 0.0046956646 0.008843584 0.00020720845 0.002629653 -0.005518994 -0.01778855 -0.0083528645
0.016513301 -0.003954424 0.0077929967 0.016348815 -0.0106400205 -0.006016785 0.011356711 -0.0025888584
-0.010788436 -0.024447432 -0.005752966 -0.0042159306 0.0073154196 0.0077982256 -0.01085894 0.012970611
0.0064577013 -0.0006777343 0.010947144 0.008575826 -0.005242072 -0.00958953 0.021873442 -0.0008423508
-0.0069915405 0.011412637 0.0010184763 0.005296284 -0.0040460886 0.0014702806 0.0048867175 -0.007954164
0.0038953826 -0.013275686 0.008674207 -0.0052681332 0.024176836 -0.0030434167 0.007098933 0.0026653754
-0.005265571 -0.0024868937 0.008425309 -0.0019492755 0.003994796 0.006186529 -0.0015185514 -0.00400876
0.0063563534 -0.0037856426 -0.0010316188 -0.012429591 0.00078328274 0.0013282676 -0.0077341846 -0.003875513
0.00010353229 -0.002591949 -0.015428677 0.0011557491 -0.008063409 0.0065727043 -0.0013920096 -0.0050890213
0.0107390415 -0.008367672 0.0037834363 0.011466193 -0.017291747 0.0096903695 -0.0060315235 0.008020419
-0.0016339951 -7.794198e-05 -0.005035645 -0.004986103 0.004719278 -0.0015237586 0.0030662247 0.008196499
-0.00039673946 0.0016836958 0.015143017 -0.010775436 -0.00797033 -0.0066184937 -0.004660361 0.01060678
-0.0013871448 -0.008462082 0.0042416933 0.0013887257 -0.019632338 0.010140876 -0.0026720865 -0.0053304136
-0.005932372 -0.0026828481 -0.0026459373 -0.004119181 0.001554214 -0.0069506946 0.0077467174 -0.005551816
0.0054011806 -0.005962408 0.010113398 0.004951241 -0.003960778 -0.019350367 0.0006901151 -0.009092237
