ML Agents tutorial/Assets/results/RollerBall_2walls/RollerBall/RollerBall-499992.onnx (onnx, 75769 bytes, 8 tensors)

network_body._body_endoder.seq_layers.0.weight f4 [128, 8]
00000000: c78c d93d 4790 70be 6bbf 653e 707b d2bc
00000010: f96b c53e 2c12 54be 0ee7 2bbe 6651 e53e
00000020: 9d5d 0c3f bdc2 e1be 0aa9 b7be 2814 4d3e
00000030: d846 643f 0eb2 123e f32f f93e ab75 66bf
00000040: 1b41 043f 45e6 b0be e7b6 31be 6e9b 6e3d
00000050: 28d3 88be 41e6 193f 87ac fa3d 86be 25be
00000060: b2f2 ccbe fb82 843f bafd e5be aeaf 6e3e
00000070: 4453 aabd 377c 90bd 03ff 92be ff87 00bf
00000080: 38fe 13bd 16e6 a93d 5101 4fbd 9f3d a63e
00000090: d4cf adbe 05fc 9d3c 34ad 51bd 92db f23d
000000a0: f25f ce3e 8f4a 273e 1f4c c03e 0863 203f
000000b0: 400c 0cbf b48d 58bd a7c4 b93e a1c0 20bd
000000c0: 980d 44be 7aae edbe 0103 07bf e042 e7bd
000000d0: 808d cf3e 6fad 7a3e 4236 b1be 3f0c d9be
000000e0: a18f 8abe 9a05 283f 22da 603f fc36 91be
000000f0: a6d7 bdbe 471c b3be b921 ebbe db67 60be
00000100: 1d6e bbbc 2d9d 963e ab2c ef3e 6448 333d
00000110: 55da 2d3e 8ff1 6cbc df9a dbbd b386 923e
00000120: ec0e dd3e 1ddc e8bd 6943 37be 192e 8cbc
00000130: 9b23 33be 1769 dcbc 829e f63d 9258 10bf
00000140: 8b30 823e 4e62 0dbd 57f4 103f 6644 05bf
00000150: 47b5 ff3d afa9 473f 5e05 dbbe 904d df3e
00000160: 7957 68bd 5095 78be 2a8f 9f3e f691 26be
00000170: 2dee b3bd 87ff 123f 60f7 84bb 5333 4f3e
00000180: 8502 eb3e 556b 0dbf 11fa aebe ba42 60bc
00000190: 5c98 2f3e 3979 c73c b555 b73e 2b8e 7cbe
000001a0: bdb0 623e b39c a63e f74b f33e aa19 883f
000001b0: d67d 3d3d f921 ea3e 906a 97be c928 4ebc
000001c0: f8ae bebe 25e0 7f3c 63ac 8b3e 3229 fa3e
000001d0: 56a3 be3e 9574 863d 6114 d43e dbd2 03bf
000001e0: 0338 8a3e 8ec5 1e3d fddb 05be 8b43 003d
000001f0: 92dc 9bbc d3cf 40be 254c e83d befc 9b3d
00000200: 4171 3ebf 16ab 3fbe 4b0b 203e 08d4 cebd
00000210: 4981 e9be 0b81 9dbe c449 c03e 1c45 223f
00000220: 9f53 74bf fc88 123e 8a9f 653e 72bf bb3c
00000230: 88b6 a03e 0545 193e 3ae0 57be 8b66 853e
00000240: bad1 63be 093f 1abe b2af 773e 784d 1d3d
00000250: 4088 1dbe 46b9 923d ad3c 53bf 4464 a63b
00000260: 6184 86be 07d6 1d3c 677e 1cbe 9fa1 a7be
00000270: 37d3 93be 3437 413e 9b57 49be c4e4 2fbe
00000280: fd8f 5fbe 0bfa b5bc 252b 7cbd 3744 883e
00000290: b299 0d3f b27f ebbd 30d3 81be 4b0c 673e
000002a0: 02f8 983e 715f d13d 9bd9 c0be fa29 ce3e
000002b0: dbf7 b63e 6969 a83e af2f 003f aebf a33e
000002c0: f1a7 4d3e 2d0a 623e 5893 a0be 1ffd c03e
000002d0: e553 e93e cf2c a9bd 9050 413f 81d4 ef3e
000002e0: 9ae1 4ebe 9b7a 1cbe 0006 84bd be23 1b3f
000002f0: b4a6 fe3c c4bb d03d c3ca 09bf 194e 8bbe
00000300: f968 fe3e a173 a5be 3d8a 98bd ee37 713d
00000310: 51ae 073e ebb1 17bf a8c8 a53c 52da 763e
00000320: dcc7 dfbc 8a36 643f f2de 5cbd 8766 913e
00000330: 0885 3dbd c8d7 173f 9eb6 453f 48b0 70be
00000340: a6d8 153e 4c73 5f3e 07c3 a6bd c08e c5be
00000350: 1a61 6abe 653d e83e 7677 a2bc 77cd 353e
00000360: 89bd 27bf d057 92be ac75 4c3e 55b8 943e
00000370: 0ffc e93d 7238 d2bb b540 3bbf 4c88 d9bc
00000380: b627 02bf 67ff 56be 7ec1 cf3e 8765 053f
00000390: a4ad f4be 86a9 01be bd16 1e3e ca10 023f
000003a0: da20 e83a 8414 943e 132b 7bbf 8e88 c9be
000003b0: cd00 323e 01e5 88be 4e5e 8d3e c4bb 81be
000003c0: 22ab b0bd 5c09 f63d 56bf 233e 23e2 5a3d
000003d0: 7489 85be 08f9 ea3e d046 3f3e 8e60 a1bd
000003e0: 1666 debc b682 8e3e 23cb cc3e d7c7 e23e
000003f0: 5e73 c43c 59c5 67bd 0d04 e6be c6d0 26bf
0.10622554 -0.23492537 0.22436301 -0.025693625 0.3855894 -0.20710057 -0.16787359 0.44788665
0.5483034 -0.44093886 -0.35871154 0.2002722 0.891706 0.14325735 0.48669395 -0.900233
0.51661843 -0.34550682 -0.17354928 0.058253698 -0.267236 0.60116965 0.12239938 -0.1618596
-0.40028912 1.0352472 -0.4492014 0.23309204 -0.08316663 -0.07054942 -0.28710184 -0.50207514
-0.036131114 0.082958385 -0.050538365 0.32468888 -0.33947623 0.019285211 -0.05119057 0.11858286
0.40307575 0.16337036 0.37558076 0.6265111 -0.5470619 -0.052869514 0.36282846 -0.039246205
-0.1914581 -0.46422178 -0.5273896 -0.11292052 0.40537643 0.24480222 -0.34611708 -0.42392156
-0.27062705 0.6563355 0.87832844 -0.28362262 -0.3707859 -0.3498251 -0.45924166 -0.21914618
-0.022879655 0.2941679 0.46713766 0.04377021 0.16977818 -0.014461889 -0.10722899 0.28618392
0.43175447 -0.11370108 -0.17896809 -0.017111825 -0.17494051 -0.02690558 0.12041952 -0.5638515
0.2542766 -0.03451758 0.56622833 -0.5205749 0.12485748 0.7799329 -0.42777532 0.43613863
-0.056724045 -0.24275708 0.31163913 -0.16266617 -0.08785663 0.57421154 -0.0040578097 0.20234422
0.4590036 -0.552419 -0.3417516 -0.013687784 0.17147964 0.024349796 0.35807577 -0.24663608
0.22137733 0.32541427 0.47518894 1.0632832 0.046262585 0.45729044 -0.29573488 -0.012582966
-0.37242866 0.015617405 0.27279958 0.48859555 0.3723399 0.06565205 0.41421798 -0.51493615
0.2699586 0.03876262 -0.130722 0.031314414 -0.019026075 -0.18829279 0.113426484 0.07616566
-0.7439156 -0.18717608 0.15629308 -0.100990355 -0.4560645 -0.30762514 0.3755628 0.633867
-0.95440096 0.14310068 0.2242414 0.022918437 0.3138926 0.14967735 -0.2108163 0.26054797
-0.22247973 -0.15063109 0.24188116 0.038403958 -0.15384007 0.07164244 -0.8251446 0.0050778706
-0.26272872 0.009633548 -0.15282594 -0.32740495 -0.28872082 0.18868715 -0.19662325 -0.17177111
-0.21832271 -0.022213956 -0.061564583 0.26614544 0.55312645 -0.11498965 -0.25356436 0.22563283
0.29876715 0.10223282 -0.3766602 0.402664 0.35735974 0.32892922 0.5007276 0.31982177
0.20083596 0.22074194 -0.31362414 0.37693116 0.4557182 -0.082605 0.75513554 0.46841815
-0.20203248 -0.15281145 -0.06446457 0.60601413 0.03108535 0.101920635 -0.53825015 -0.2720802
0.49689463 -0.3231478 -0.07448242 0.05889123 0.1325009 -0.59255856 0.020237282 0.2410672
-0.02731698 0.8914572 -0.053923555 0.28398535 -0.046269447 0.5931363 0.77231777 -0.23504746
0.14633426 0.21821326 -0.08142667 -0.38585472 -0.22888604 0.4535934 -0.019832354 0.1775416
-0.6552358 -0.2858262 0.19966763 0.29046884 0.114250295 -0.00641542 -0.7314561 -0.02655425
-0.50841844 -0.20995866 0.4057731 0.52108043 -0.47788727 -0.12662324 0.15438361 0.5080687
0.0017709986 0.28921902 -0.981126 -0.39361995 0.17383118 -0.26737216 0.2761101 -0.25338566
-0.08626391 0.12013504 0.15990958 0.053438317 -0.2608143 0.4589312 0.18679357 -0.078797445
-0.027148288 0.278341 0.3999873 0.4429309 0.023980793 -0.05658469 -0.44924966 -0.65162313

network_body._body_endoder.seq_layers.0.bias f4 [128]
00000000: f0bc 10be 2e4c 383d 185c 013d 4e45 10bc
00000010: f162 c5bd d878 ab3b 5751 e0bd ae96 0ebd
00000020: 0f66 08bc ccba 013d 0d57 95bd 81cf 44bc
00000030: d39c 6abb 9301 d73b 0f88 6d3d 5ebf abbd
00000040: 829d c43d 9f69 3ebc b1dd 203c 46fb 03bd
00000050: 7cda 8e3d 6f2b 5ebd 275c 02bd ede5 43bd
00000060: c6c4 afbd e87e 113d 0161 52bd a35c 883c
00000070: 7192 6dbd 8ed0 b2bd a8fa d2bc db00 9c3d
00000080: a81e 85bc 9624 87bd 78d7 0a3d ab4e be3a
00000090: 0b69 cbbd 544b 4a3d b6f5 3abe 74d5 50bd
000000a0: e667 babd 2ddb fabd 220b e9bc 0bf1 bcbd
000000b0: 43f0 98bd c8a4 51bc 9d99 153a 6dad 8b3b
000000c0: fe80 7dbd 19c6 1bbd 41d3 c73c b224 a0bc
000000d0: a8e5 bebd ebdc cebb 9fac 26bd 3ffe 4d3c
000000e0: c520 0b3d 8c63 81bd 7176 abbc 4def 993c
000000f0: 9ef1 08be 00fe 74bd bfa2 193c 5cb2 5cbd
00000100: 4496 03be 05aa 5a3c f2d6 103d 98fe 4f3c
00000110: 7a2d 19bd 9f29 e9bd 6e9b bc3b 99fb 35be
00000120: c06d 513d b6c9 c93b dcd3 993c 73ab 19bd
00000130: 547e 893c c563 c73c d7cc 373d 005b 04bd
00000140: 977e 783d eeca f03c 9565 a33c df72 efbd
00000150: f1a8 3fbd 0458 aa3c e46a 56bd 024c a9bd
00000160: f6c6 d3bd f57e 693d 8820 1fbd b223 c0bd
00000170: 28a5 ec3c 613e a2bd 57ea f3bc ff09 abbd
00000180: cf3b 06be d620 50bd e8ac 8e3d 3ffd 05bc
00000190: 2342 1fbe dfe1 16bd 8303 87bd ebef a43c
000001a0: baf2 053d c8c2 3abc b43e c6bd ad31 733d
000001b0: 362b b4bd 2d28 103c 8dd8 4c3b 0d2d a1ba
000001c0: 6766 13bc 5cc1 19bd 950f 5c3c ccf2 ddbd
000001d0: bc8c b7bc 58be 60bd 3d32 a9bd affc 213d
000001e0: c25a 3abb 0d4b 9bbb 620c bdbb 4de5 5bbd
000001f0: e27f 4ebc 4425 edbd e039 573d 1ba9 43bc
-0.14134574 0.044994526 0.031581968 -0.008805586 -0.09638012 0.0052329116 -0.10953014 -0.034811668
-0.008325114 0.031672284 -0.07291994 -0.012012363 -0.003579904 0.006561467 0.057991084 -0.0838611
0.09600355 -0.011621862 0.00981848 -0.032222055 0.06975266 -0.05424064 -0.031826165 -0.047826696
-0.085824534 0.035521418 -0.05136204 0.016645735 -0.058000986 -0.08731185 -0.025754288 0.07617351
-0.01624997 -0.06598775 0.033896893 0.0014519294 -0.09932145 0.049388245 -0.18257794 -0.050984815
-0.09101848 -0.12248836 -0.028447691 -0.09225663 -0.07467701 -0.012795635 0.0005706789 0.0042626173
-0.061890595 -0.038030718 0.024392726 -0.019548748 -0.09321147 -0.0063129566 -0.040691968 0.012572824
0.0339668 -0.06317815 -0.0209305 0.018790865 -0.1337342 -0.059812546 0.009377181 -0.053881034
-0.1285029 0.0133462 0.035361238 0.012694977 -0.037396885 -0.11384892 0.0057558334 -0.17771758
0.051130056 0.006158079 0.01877778 -0.037517022 0.01678387 0.024339566 0.044873085 -0.032313347
0.0606676 0.02939364 0.019945899 -0.11691832 -0.046791974 0.020793922 -0.052348033 -0.082664505
-0.10340683 0.05700584 -0.038849384 -0.09381808 0.028887346 -0.07922054 -0.029774828 -0.08351516
-0.13108753 -0.050812565 0.06966573 -0.008178054 -0.15552573 -0.0368365 -0.06592467 0.020133933
0.032702185 -0.0113989785 -0.096799284 0.059373546 -0.08797304 0.008798641 0.0031257004 -0.0012296751
-0.008996583 -0.037537917 0.013431449 -0.108373255 -0.022405975 -0.054869026 -0.08261535 0.03954762
-0.0028435444 -0.0047391714 -0.0057692984 -0.053685475 -0.012603732 -0.115793735 0.05254543 -0.011942173

network_body._body_endoder.seq_layers.2.weight f4 [128, 128]
00000000: e2fc 13be 8934 5f3d ff55 323d 885a fcbd
00000010: 859f c73d 12c9 15bd 116c bf3c 83e8 69bd
00000020: 64be a93b 8ed5 723d b2a9 163e 6afe c43a
00000030: 2633 e2bc f6a4 04be ec15 a9bd 2173 0dbc
00000040: cb72 fa3a 3260 61be 0566 4e3d fc4a 8ebd
00000050: 65da febd efbc c3bc 6401 b83c ba85 073e
00000060: 3b05 01bd 2d43 37be 2fdf 9b3d cba7 f43d
00000070: e426 2bbd c3a6 203e f3e2 38be 5b2a 26bc
00000080: 0ccc 14bc 798e 54be 7a9d 9cbc dba4 52bd
00000090: f228 bdbc f1f2 2fbe 4ed4 c9bb 9cea 41be
000000a0: 5d1f c23d 96ad cabc b960 383d 2472 34be
000000b0: 5189 ecbd 3b7f c9bd 584d 87bd 7af2 e3bc
000000c0: 9506 9a3c fe44 a6bd 4e63 adbd 241f 14bd
000000d0: 2acd ff3d d212 403d 82f4 4a3d c6fe b83d
000000e0: c113 033e c5f8 0b3c d0a1 e53c 86a8 65be
000000f0: 3532 d0bd 6aba 803c beb6 d7bd 9b5e 80bc
00000100: 7225 04be 10aa 64bd 249d bcbd 1c3a eabc
00000110: aeed 953d b05f e73b 4bd8 e23b 9509 60bd
00000120: 1468 a0be dc19 0fbe 6f73 b3bd 85d2 fbbd
00000130: 6683 1b3e 9750 7f3d e43a 803d f361 9abd
00000140: 79ce 75bd 6f26 2abd 5f3c aabc 2d2c 29bc
00000150: b21c 213c a30f bb3d dd97 67be 586e 6ebe
00000160: ebae cdba 3a90 063c d811 6abd c1f8 663e
00000170: d3a6 02be e14a 033d b640 303e 8635 6abd
00000180: 53f9 913d e09c 8abd d6b5 b73d b513 123e
00000190: 5e19 86bd 0ec7 babd ff24 dd3c 6eed 7bbe
000001a0: 6d31 3fbd cbbe fd3d 0200 503c d518 55bd
000001b0: a8f8 013e 12a5 183e c5f3 313b 4ae5 8e3d
000001c0: 353a 67bd 6535 313d 8ea4 e1bd b18b f93b
000001d0: 03ba c8bd 8b67 0fbc 8566 3f3e 2693 e73c
000001e0: 3411 32bd e1b9 1ebd ed3b 403d 86e0 d23b
000001f0: d9c6 103d 9bed a23c e30e 32bd 162d a3bb
00000200: 2ea5 813d 1847 c5bd dd8a d5bd dee7 25bd
00000210: 477e 25be 55d3 88bd 42fc 96bd 5cd7 3dbe
00000220: f663 d0bd 95fb 07bd e942 b03c 358b 91bd
00000230: 8b8e 733d 029e e13d 5db7 00be 2097 a4bd
00000240: c8dd 7abd eebe 9cbd 33e9 6fbc 9a13 8abd
00000250: 0b21 94bd 6bde afbd fd1d 17be 2589 f9bd
00000260: f488 8b3d 3ad3 2dbe 4df9 433b 8950 83be
00000270: 8ef5 a33b ea01 0a3d 7411 4abe 00c1 813e
00000280: e2b7 9bbd ab3d 173e 52f8 03be e440 f3ba
00000290: aea0 7abd 19f5 26be 7fad c2bc f87c 523d
000002a0: 5786 9dbd 1087 99bd 7aa2 6a3d 6a70 f2bd
000002b0: 0c50 20be a14b 38bc 58c7 8fbe ca04 923d
000002c0: 8b90 67bd 4ce4 633d a8eb 373c 80ae 8d3b
000002d0: bdda c5bd abf6 72be 36cb a23d d7b2 ea3a
000002e0: 6fbf c5bd d5d5 ad3c 08d4 2a3d 47ce 783d
000002f0: 9794 09be 5ab8 973d e9f7 b5bd cd69 a33c
00000300: 45cb 9ebc 8954 d6bd d8af 9f3c 2d50 7fbd
00000310: 78a7 353e 412d 8cbd 768b 693d d3f4 bf3d
00000320: 5347 8dbd ad7c 38bd a596 cebc 2f65 bebd
00000330: e333 933d e413 423e ce00 0abe f8c8 02bd
00000340: 1f60 8c3d 58db 3abe 9c54 94bb 03f3 a33c
00000350: b77c dabb 2881 ebbd ef98 4fbe 8235 21be
00000360: 1a35 6ebe 693c 493e e142 03be 6246 02be
00000370: 48fe 683d 56f0 bfbd cf0e a2bc 2f35 c63d
00000380: a115 fa3d 5904 333d efc5 573e 18da 033d
00000390: 22d2 54bb 2f14 303c 9879 193e 8cf7 303e
000003a0: 479d 23be e776 78bd 8a2d 2fbd cfd7 cb3d
000003b0: 81af d13d 4765 c2bd fff8 d73c bacc 1b3e
000003c0: 43e6 edbc 80f6 9ebd bff0 0d3e 1706 13be
000003d0: 69e5 b63d d03b aa3d b739 c13d 8dce 763d
000003e0: 223e c13d 1012 2cbe 2b51 303d 057a 98bc
000003f0: 5388 45bd fd2d 3fbe 27f1 d43c eef5 bcbd
-0.14451936 0.05449346 0.043539044 -0.12321955 0.09747223 -0.03656871 0.02336696 -0.057106506
0.005180167 0.059285693 0.14713171 0.0015029435 -0.02761228 -0.12953553 -0.082561344 -0.008633406
0.0019107697 -0.22009352 0.050390262 -0.06947896 -0.12443999 -0.023893801 0.0224616 0.13234606
-0.03149913 -0.1789672 0.07610928 0.119460665 -0.041785136 0.15688615 -0.18055324 -0.010141934
-0.009081852 -0.20757474 -0.01911806 -0.05142675 -0.023090813 -0.17182519 -0.006159342 -0.18937153
0.09478638 -0.024740975 0.045014117 -0.17621666 -0.115496285 -0.098387204 -0.06606549 -0.027825583
0.018801967 -0.08118628 -0.084662065 -0.03616251 0.12490304 0.04689295 0.049549587 0.09032969
0.12800504 0.008543198 0.02803126 -0.22427568 -0.10165826 0.01571389 -0.10532902 -0.015670111
-0.12904909 -0.055826247 -0.0920966 -0.028592162 0.073207244 0.0070609674 0.006922757 -0.054696638
-0.31329405 -0.13974708 -0.087622516 -0.12296013 0.15186843 0.062332716 0.062612325 -0.075382136
-0.06001136 -0.04154056 -0.02078074 -0.010325474 0.009833502 0.09133842 -0.22616525 -0.2328428
-0.0015692388 0.008213097 -0.057145923 0.2255583 -0.12758951 0.032053832 0.17212185 -0.05717995
0.07127633 -0.06768203 0.08970229 0.1426533 -0.06547807 -0.09119998 0.02699518 -0.24602291
-0.046677995 0.123899065 0.012695314 -0.052025635 0.12692511 0.1490672 0.0027153355 0.06977327
-0.056451995 0.04326381 -0.110177144 0.0076155295 -0.09801104 -0.008752714 0.18691452 0.028268408
-0.043473437 -0.038751487 0.04693215 0.0064354567 0.035345886 0.01988869 -0.04347123 -0.00497974
0.06330334 -0.09632701 -0.10426877 -0.04050433 -0.16161452 -0.066809334 -0.07372333 -0.18539184
-0.10175316 -0.03319891 0.02151628 -0.0710663 0.05946211 0.11016466 -0.12569948 -0.08036637
-0.061246663 -0.076536044 -0.014643001 -0.0674202 -0.07232865 -0.08587345 -0.14757533 -0.12184361
0.06813231 -0.16975108 0.0029903234 -0.2564738 0.0050036376 0.03369323 -0.1973322 0.2534256
-0.07603432 0.14769618 -0.12887695 -0.0018558768 -0.061188392 -0.16304435 -0.02376437 0.05138871
-0.07691639 -0.07496464 0.057283856 -0.118378475 -0.15655535 -0.0112485 -0.28081775 0.0712982
-0.05653433 0.055637643 0.011225618 0.0043237805 -0.09660862 -0.23726909 0.07948916 0.0017906082
-0.09655654 0.021220127 0.041706115 0.060743596 -0.13435589 0.07408209 -0.08885176 0.01994791
-0.019384036 -0.104653426 0.019493029 -0.06233232 0.17739666 -0.06844569 0.057017766 0.093728684
-0.0689837 -0.045040775 -0.025218317 -0.09296643 0.07187631 0.189529 -0.1347687 -0.03192994
0.06854271 -0.18247736 -0.004526688 0.020013338 -0.006667699 -0.11499244 -0.20273183 -0.15743068
-0.23262444 0.19651951 -0.12818481 -0.12722161 0.056883126 -0.09372012 -0.019782452 0.09678113
0.12211157 0.043705318 0.210716 0.032190412 -0.0032473882 0.010747 0.1498779 0.17281932
-0.15977965 -0.06066027 -0.04276804 0.099532716 0.10238553 -0.09491973 0.026363848 0.15214816
-0.029040461 -0.0776186 0.13861369 -0.14357792 0.08930475 0.083121896 0.09434836 0.060255576
0.09435679 -0.16803765 0.043046158 -0.018612871 -0.048225712 -0.18669887 0.025993897 -0.09226595

network_body._body_endoder.seq_layers.2.bias f4 [128]
00000000: eb62 903c c2c3 253c da74 043d e5a0 2dbe
00000010: 74c2 98bd afb6 423d 8aac adbd 07f5 b0bd
00000020: b81b 2cbc 57a2 32bd 81fd 93bc c767 03bd
00000030: 8c8c 0abe 4631 afbd 069f d43c 2d1a 943c
00000040: e7aa 5fbd 4227 9bbd 2c70 853d 5f97 59bd
00000050: 3078 aabd 1905 dfbd a0d4 f63c c130 eabc
00000060: 53f8 683c b5ab 88bd 8d1d ffbd d1b7 523d
00000070: a0ee 00bc 60b1 b1bd 8f99 e3bc a222 70bd
00000080: 2e33 1abc 0ecd 573d 868e 31bd 1747 c53d
00000090: c0e7 ebbd 4ec7 8cbd e7cd eabb 3e92 d33b
000000a0: 4604 5abd 8ed9 94bd d1e9 c8bd 5172 b6bc
000000b0: 6b0e 31bd 7b9c b63d ff71 f9bb b9d8 af3c
000000c0: a2b9 b4bd ec48 563d 7e55 a03d 3940 1abd
000000d0: 5319 a5bc 0397 833c 91f8 82bd b102 18bc
000000e0: b974 36bc cbaa c8bd f7f8 6fbd 3d90 a73c
000000f0: 44eb 3dbb 88cb 9f3d a934 6bbd 55dc 913d
00000100: fcb6 2bbd f580 92bd a88f 3fbe e4c4 b13c
00000110: be28 973b 4629 adbc ea72 9fbc 2e24 c8bd
00000120: 9d19 a53b a736 a8bc a8ba bd3d c2cb 1d3d
00000130: 8792 803c c994 2dbe 4bf5 2e3d b0b4 7dbc
00000140: f71a 4a3d f4e5 02bd 35d9 bfbd bab1 1bbc
00000150: 7054 473d ba5c 0b3d bf2b d1bc 0cc7 95bd
00000160: 2ebf 2bbd 43ee 9b3c 2a70 8fbd 601a 80bd
00000170: 1a7b fbbc 0fa5 ea3d 7673 c03c 043e e3bd
00000180: 6116 663d ce5a 8abd 7bee 113e ac66 fa3c
00000190: ae16 cf3d fa5f d43c 063b 78bd 3c45 2e39
000001a0: 4ed9 bfbc 560a 8ebd 68d0 5dbc 6a16 da3d
000001b0: 9a42 a73d fdc1 61bd 12a2 d23c 1c79 613c
000001c0: 48a8 a63d 9826 19bd 3da9 0b3d 866f 653c
000001d0: ddcb 2b3d 26d8 89bd 6e16 48bd 228e c9bd
000001e0: b75e 1e3d e1c2 4dbd 0cba b9bd 51cb 9ebd
000001f0: 8f75 463c d9f2 89bd 2eaa adbd faeb 62bd
0.017625293 0.010117473 0.032338 -0.16955908 -0.07458964 0.047537502 -0.08480175 -0.08640485
-0.010504656 -0.04361185 -0.018065216 -0.03208139 -0.13530177 -0.0855432 0.025954735 0.018078888
-0.054606345 -0.07575847 0.06515536 -0.053122874 -0.08323705 -0.10889644 0.030130684 -0.0285877
0.014219361 -0.066733755 -0.12456808 0.051444832 -0.007869393 -0.0867641 -0.027783183 -0.05862678
-0.009411616 0.05268579 -0.04334881 0.096327 -0.11518812 -0.06873952 -0.0071656588 0.0064566424
-0.05322673 -0.07268058 -0.09810222 -0.022271307 -0.04322664 0.08916565 -0.0076124663 0.021465646
-0.08824469 0.052315637 0.07828806 -0.037658904 -0.020153677 0.016063219 -0.063950665 -0.009277985
-0.011136227 -0.09798201 -0.05858704 0.02045452 -0.002897934 0.078024924 -0.057423268 0.07122103
-0.041922554 -0.07153503 -0.18707144 0.02170033 0.004613011 -0.021137845 -0.019463975 -0.09772526
0.0050384537 -0.020533873 0.092641175 0.038524397 0.01569487 -0.16951288 0.0427144 -0.015484974
0.049342122 -0.03195758 -0.09367601 -0.0095028225 0.04866451 0.034023978 -0.025533555 -0.07313356
-0.04193037 0.01903451 -0.070038155 -0.06255031 -0.030698348 0.11457264 0.023492556 -0.11095813
0.056173686 -0.06755601 0.1425113 0.030566536 0.10111748 0.025924671 -0.060603164 0.00016619725
-0.023419049 -0.06935565 -0.013538457 0.106488064 0.08167 -0.055116642 0.025712047 0.013761785
0.08137566 -0.03739032 0.034096945 0.01400364 0.041942466 -0.0673068 -0.048849516 -0.09841563
0.038664546 -0.05023468 -0.09068689 -0.07753623 0.012112989 -0.06735773 -0.08479725 -0.055400826

action_model._continuous_distribution.log_sigma f4 [1, 2]
00000000: 651f 95be c301 22bc
-0.29125515 -0.009888115

action_model._continuous_distribution.mu.weight f4 [2, 128]
00000000: df6c 113a f86d 78bc 98fa 253c 50a2 9c3d
00000010: bf0b 043e f1d6 093d b2e9 183e 240a e93c
00000020: 597f f5bb 55d4 ec3d 9633 e43c 719c 7a3d
00000030: 2f7a cf3d 1ebe 643d 62db 8cbc bda0 87bb
00000040: f419 833d abd5 d93b 4f96 dcba df71 f53d
00000050: 1606 513d 78aa 233e 0c44 36bd 32f0 793d
00000060: 0227 9fbc f6bc a23b 5852 053e e5f4 14bd
00000070: 931e 703a 0d5d 803d 966c 5b3b 9cd9 243d
00000080: 3766 083a d14a 2d3d 4c69 ce3d 70ce 8fbd
00000090: 7fd0 ca3c 796a c03d 52e7 bc3b e244 3abc
000000a0: 3cd1 153e 1a32 813d 014d 7cbb 78d0 5b3c
000000b0: de63 a13d f2c0 38bd 049b 8c3c af5d cd3c
000000c0: 3695 963c d851 0cbd 18a8 85bd a222 db3d
000000d0: d8a2 b3bb 14c5 33bd 36a6 8a3d 974a 833b
000000e0: 07af 103c 1c90 943d bcda 003c 35fe fe3c
000000f0: 53cd 15bc 3039 c7bc 5d47 953d 250b 173d
00000100: a623 0cbb b37d 293d 6d24 893d 4566 2e3c
00000110: a5a4 f8bc 5a26 013e e19b 7f3a 74b7 6d3d
00000120: 2ac4 ddbc 7159 053e 5b3f 1abd f3bb 593d
00000130: 9fe3 113c c96f 823d ee99 b2bc 0a6b a13d
00000140: 2c99 57bc 699f 69bc 41c0 253e 4719 5c3a
00000150: 113c 30bd 5ba8 9e3d 49a8 953b c22d 053e
00000160: 09d7 0a3d 8e0c c1bb 43a5 063d 8bc8 cf3d
00000170: 99f7 173e 7e88 adbd 0ecd 223e b80a a93c
00000180: 6cde 93bc 0166 ea3d 2801 65bd 6675 ccbc
00000190: 8d60 56bd 2fb0 443b ef57 2b3e 0008 80bd
000001a0: 9fcb d23b 6bf3 07bc a32b f03d a0ac 3ebd
000001b0: bbc9 adbd 4c50 443e 9a8e 1abc 067b b43d
000001c0: 1d0e 153c 400b ac3c 098c 913c 6a87 343e
000001d0: e355 edbc 4f9d 3f3e 6b55 2dbb ed98 1d3d
000001e0: 89e3 f5bb 7aa5 283e 1360 cf3d 38b1 593d
000001f0: 196a b0bd 3fd2 4c3d 5f0e a1bb 1d8e a43b
00000200: 4b9b a1bc 0354 463d 2777 94bc 8167 3abc
00000210: ff96 5d3c 7eec 36bd 5da9 c73c 9a44 903d
00000220: f460 753d 6da7 ae3d 8348 a23d fc60 753b
00000230: 91d7 e73d a3c5 cdbc 2b96 73bd 9093 74bd
00000240: c6a1 40bd b70d 8d3d c830 b0bd 361f 9a3c
00000250: d1be d83c 0933 d23d a707 063d 1069 70bd
00000260: 3d7b 2e3d 1fea 3d3d 3085 81bc c2f6 1fbd
00000270: 0a20 7c3d 0e0a 423d d8cb 833d 96d6 52bc
00000280: 43d9 8d3d fa25 143c 3b14 3a3c 1989 9bbc
00000290: 1a2f e8bc 7d58 913d 66fe e03d cfbd a33d
000002a0: cd4d 653d 7999 293d 092d 7d3c 4674 88bd
000002b0: 3e7f d23d ed24 2bbd 242f 07bb e5b2 bf3d
000002c0: 4dfc 183d 2e07 653d 6d75 90bb 6951 183e
000002d0: 47ee 8b3d a4e7 623d 342e 6ebb 0226 bc3d
000002e0: f31b d43d 25b6 293d 5547 813d 98ec b2bd
000002f0: 7e94 913d 2c22 cabd 4725 ccbb 612e 72bc
00000300: 7a65 863d ff29 59bd 8be2 253d 083f 003e
00000310: 7b9a 2c3c 6615 a4bc 0ec7 5f3d 9cc8 2bbd
00000320: 8422 70bd af18 4d3d 937e a7bd 22ec 70bd
00000330: f7ae f53d c97c 973c b3e4 92bc e82d 9239
00000340: c5f7 cbbd 6b3b 063d 5e53 a73c f247 9b3d
00000350: cfe5 81bb 6c57 24bd 08f4 953d 228b 073b
00000360: 96b7 5abd f17c f33d fdeb 27bc c65c bd3c
00000370: e58f 153c 7a65 87bd 5930 ea3d dd23 aebc
00000380: 82dd 5b3d 8845 873d bffb bdbc 2315 1abd
00000390: 429c 8ebd 1278 dc3d 92dc b33d eb86 9a3d
000003a0: ab31 c93d 40b3 b03c 7aa5 ce3c 8a87 18bd
000003b0: c553 a8bd 430b 4ebb c217 fa3d cf11 0fbd
000003c0: 0df8 91bd c952 913d 5215 73bd bf90 ca3c
000003d0: c2cb 253c a0be 8c3d 59db 913d 1cc6 af3d
000003e0: 9d6a 34bc ae16 b13c 4df8 b53d 7225 bb3c
000003f0: 4bb9 3bbd f880 1ebc fe2e 553d e667 2f3d
0.0005547534 -0.015162937 0.010130547 0.07648146 0.12895106 0.03365225 0.14932898 0.028447218
-0.0074919877 0.115639366 0.02785663 0.06118435 0.101307265 0.055845372 -0.017194454 -0.0041390345
0.064014345 0.0066477857 -0.0016829463 0.1198461 0.051031195 0.15982997 -0.04449849 0.061020084
-0.01942778 0.0049663736 0.13019693 -0.036366362 0.00091598294 0.06267748 0.003348147 0.04024659
0.00052032195 0.04230768 0.100786775 -0.07021797 0.024757622 0.09395308 0.00576488 -0.011368962
0.14630598 0.06308384 -0.0038498046 0.013416402 0.07880376 -0.045105882 0.017163761 0.025069086
0.018381696 -0.03425774 -0.06526202 0.10699965 -0.005482059 -0.04388912 0.067699835 0.0040066945
0.008830792 0.07254049 0.00786465 0.031127075 -0.009143191 -0.024319261 0.07289002 0.036875863
-0.0021383553 0.04137964 0.06696401 0.0106445 -0.030351946 0.12612286 0.0009750706 0.058036283
-0.027071077 0.130224 -0.037658077 0.053157758 0.008904367 0.063689776 -0.021801915 0.07881744
-0.013159078 -0.014259198 0.1618662 0.00083961006 -0.043026034 0.07746955 0.0045671803 0.13005736
0.03389648 -0.005891389 0.03287245 0.101456724 0.14840545 -0.084732994 0.15898535 0.020634994
-0.018050395 0.11445237 -0.055909306 -0.024958324 -0.05233817 0.003001224 0.16732763 -0.06251526
0.006432965 -0.008297781 0.11727073 -0.046551347 -0.08485743 0.19171256 -0.009433413 0.08812527
0.009097603 0.021001458 0.01776697 0.17629781 -0.028971618 0.18712352 -0.0026448618 0.03847592
-0.007503931 0.16469374 0.101257466 0.053147525 -0.086139865 0.050005194 -0.0049150432 0.005021824
-0.01972737 0.048419964 -0.018123223 -0.011377216 0.01352477 -0.04465913 0.02437275 0.07044335
0.059906915 0.08528028 0.07923987 0.003744184 0.11320413 -0.025118655 -0.059469383 -0.05971104
-0.04702928 0.068873815 -0.08603054 0.01881371 0.026458176 0.102636404 0.03272214 -0.058693945
0.042597998 0.046365853 -0.015810579 -0.039053686 0.061553992 0.04737287 0.064353645 -0.012868544
0.06926205 0.009042257 0.011357362 -0.018986272 -0.028342772 0.07096956 0.10986023 0.079951875
0.0559824 0.04140613 0.015452632 -0.066628024 0.10278176 -0.041783262 -0.0020627463 0.09360293
0.037349988 0.05591505 -0.0044085295 0.14874806 0.06832557 0.05539669 -0.0036343457 0.09186937
0.103568934 0.041433472 0.06312434 -0.08736533 0.07108401 -0.09869799 -0.0062300297 -0.014781565
0.06562324 -0.053018566 0.04049925 0.12524045 0.010534878 -0.020029735 0.054633193 -0.041939363
-0.058626667 0.05007237 -0.08178439 -0.058818944 0.119962625 0.01849212 -0.017931318 0.00027881493
-0.09959368 0.03277151 0.020425495 0.07582082 -0.003964163 -0.040122434 0.07321936 0.0020682295
-0.053397737 0.11889065 -0.010249135 0.023115527 0.009128545 -0.06611152 0.11435003 -0.021257335
0.053678043 0.06605059 -0.023191331 -0.037617814 -0.069633976 0.10765089 0.08782305 0.07545265
0.098239265 0.021569848 0.02522539 -0.037238635 -0.08219103 -0.0031439818 0.12211563 -0.034929093
-0.0712739 0.07095868 -0.059346505 0.024727223 0.01011938 0.06872296 0.07121915 0.08582708
-0.011011747 0.02161726 0.0888525 0.022845004 -0.045831006 -0.009674303 0.05204677 0.042823695

action_model._continuous_distribution.mu.bias f4 [2]
00000000: 337d 12be a0ef 9bbc
-0.14305572 -0.01903516

action_model._discrete_distribution.branches.0.weight f4 [1, 128]
00000000: 33a2 413b e781 d23b e780 313c abfe 643a
00000010: 7b33 c3bb c4a8 c93b 9bd6 1f3c 1b65 cf3b
00000020: dd6a a73a 727c 933c 9948 c1bc 2068 603c
00000030: e976 2d3c 9769 443c fac9 0fbc d042 4d3c
00000040: 82db 8aba d954 ad3b 4e76 c9ba eae6 233c
00000050: 272c 1e3c 7553 f3b6 975a 0bbc 4a48 03bc
00000060: 8022 563c 921d b8bb 87a0 d93c a360 a73b
00000070: 6d99 02bc 85ce bf3b 0634 b8bb 4f77 9a3b
00000080: 4150 833b 43dc 9b3b 275b fd3b aa8c 013c
00000090: f75e 32bb f717 003d 5df3 203b 0102 0e3c
000000a0: d743 36bb 9f21 65bc 2259 493c 1fb6 5dbb
000000b0: 5f50 33bb 78a8 f8bb 31b5 373a 0b46 42bb
000000c0: 0730 06bc f901 8f3c f081 383b 430a 87bc
000000d0: 9005 e93b 8360 d03a 7f6e 663b a3ea bfbb
000000e0: d0c5 173b 85db b73b bb8f 533b 3406 ba3c
000000f0: 2026 463b 0b55 353c 7a4e 95ba 63d4 b33c
00000100: 478f 543c a40f b53b 9581 993c 6bee 5ebc
00000110: 428c f2ba 9a2e 2cbb 1ad6 8cbb 7ff7 fcbb
00000120: f066 be3a 86a3 bcba b352 69bc 78a2 28bb
00000130: 9cd3 c2bb 586a 763c 2085 feb9 4fa3 9fbc
00000140: 0b64 cc3b 8c2c b4bb b737 e0bb 164e bebc
00000150: 13cb 153c e2d9 f8bb 6351 92bc 0b43 5dbb
00000160: 9d7e 03bc ed39 0ebc d7fc 103c 5be7 343b
00000170: 4aed d2bb ff51 49bb 0d27 ffbb 82cc 913c
00000180: 4fbc 8c3b dbfa 41bb 5d1b ccbb 2315 25bc
00000190: 834c a83c 62ab cdbb 4878 e13a 4a34 c1bb
000001a0: 2c82 b1b8 3b8f 723b 6fb4 9b3c b2bd debb
000001b0: a99b 02bc aa84 893b c3ec e33b 426f 0b3b
000001c0: 3793 813b 4451 02bb 455b 77bc 9024 2dbc
000001d0: a2e5 383b e680 0cbb 9a68 b8bb 5936 a9bb
000001e0: 93e5 2a3c 15d6 3b3c 5d94 00ba 1b8f 5c3b
000001f0: 2d33 e33b 83b7 3ebc 6e3f c83a 5e88 3bbb
0.002954614 0.006424177 0.010833955 0.0008735458 -0.0059570647 0.0061541516 0.009755756 0.0063291914
0.0012772937 0.018003676 -0.023594188 0.0136967 0.010587432 0.011988065 -0.008776182 0.012528136
-0.0010593983 0.0052896556 -0.001537034 0.010003785 0.009654081 -7.25168e-06 -0.008505485 -0.0080128405
0.013069749 -0.0056187594 0.026565803 0.0051079555 -0.00797115 0.0058534765 -0.005621436 0.0047139297
0.0040073697 0.004756482 0.0077318135 0.007907072 -0.0027217248 0.031272855 0.0024559118 0.00866747
-0.0027811432 -0.013985067 0.012289317 -0.0033830476 -0.0027361137 -0.0075884424 0.00070078956 -0.00296438
-0.008190162 0.017456995 0.002815362 -0.016484385 0.007111259 0.0015897903 0.0035161076 -0.0058568283
0.0023158677 0.0056108856 0.0032281715 0.022708036 0.0030235127 0.011067639 -0.0011391186 0.02195186
0.012973613 0.005525546 0.018738547 -0.013606648 -0.0018504935 -0.0026272894 -0.004297984 -0.0077199335
0.0014526527 -0.0014391996 -0.014240908 -0.0025731605 -0.005945636 0.015040003 -0.0004854584 -0.019487051
0.006237512 -0.0054984745 -0.006842579 -0.023230594 0.009142655 -0.007594333 -0.017861074 -0.0033761885
-0.008025792 -0.008680803 0.008849344 0.002760372 -0.0064369785 -0.003071904 -0.0077866376 0.017797712
0.004294909 -0.0029598984 -0.006228848 -0.01007584 0.020544296 -0.006276534 0.0017201984 -0.005896126
-8.464264e-05 0.0037011642 0.019006936 -0.006797516 -0.007971683 0.004196723 0.0069557144 0.0021276032
0.003954317 -0.0019884864 -0.015097444 -0.010567799 0.0028213044 -0.0021439134 -0.005627704 -0.0051639494
0.010430711 0.011464615 -0.00049049204 0.0033654633 0.006933591 -0.011640432 0.0015277693 -0.0028615217
