ML Agents tutorial/Assets/results/RollerBall_2walls/RollerBall/RollerBall-499992.pt (torch, 446793 bytes, 39 tensors)

network_body._body_endoder.seq_layers.0.weight f4 [128, 8]
00000000: c78c d93d 4790 70be 6bbf 653e 707b d2bc
00000010: f96b c53e 2c12 54be 0ee7 2bbe 6651 e53e
00000020: 9d5d 0c3f bdc2 e1be 0aa9 b7be 2814 4d3e
00000030: d846 643f 0eb2 123e f32f f93e ab75 66bf
00000040: 1b41 043f 45e6 b0be e7b6 31be 6e9b 6e3d
00000050: 28d3 88be 41e6 193f 87ac fa3d 86be 25be
00000060: b2f2 ccbe fb82 843f bafd e5be aeaf 6e3e
00000070: 4453 aabd 377c 90bd 03ff 92be ff87 00bf
00000080: 38fe 13bd 16e6 a93d 5101 4fbd 9f3d a63e
00000090: d4cf adbe 05fc 9d3c 34ad 51bd 92db f23d
000000a0: f25f ce3e 8f4a 273e 1f4c c03e 0863 203f
000000b0: 400c 0cbf b48d 58bd a7c4 b93e a1c0 20bd
000000c0: 980d 44be 7aae edbe 0103 07bf e042 e7bd
000000d0: 808d cf3e 6fad 7a3e 4236 b1be 3f0c d9be
000000e0: a18f 8abe 9a05 283f 22da 603f fc36 91be
000000f0: a6d7 bdbe 471c b3be b921 ebbe db67 60be
00000100: 1d6e bbbc 2d9d 963e ab2c ef3e 6448 333d
00000110: 55da 2d3e 8ff1 6cbc df9a dbbd b386 923e
00000120: ec0e dd3e 1ddc e8bd 6943 37be 192e 8cbc
00000130: 9b23 33be 1769 dcbc 829e f63d 9258 10bf
00000140: 8b30 823e 4e62 0dbd 57f4 103f 6644 05bf
00000150: 47b5 ff3d afa9 473f 5e05 dbbe 904d df3e
00000160: 7957 68bd 5095 78be 2a8f 9f3e f691 26be
00000170: 2dee b3bd 87ff 123f 60f7 84bb 5333 4f3e
00000180: 8502 eb3e 556b 0dbf 11fa aebe ba42 60bc
00000190: 5c98 2f3e 3979 c73c b555 b73e 2b8e 7cbe
000001a0: bdb0 623e b39c a63e f74b f33e aa19 883f
000001b0: d67d 3d3d f921 ea3e 906a 97be c928 4ebc
000001c0: f8ae bebe 25e0 7f3c 63ac 8b3e 3229 fa3e
000001d0: 56a3 be3e 9574 863d 6114 d43e dbd2 03bf
000001e0: 0338 8a3e 8ec5 1e3d fddb 05be 8b43 003d
000001f0: 92dc 9bbc d3cf 40be 254c e83d befc 9b3d
00000200: 4171 3ebf 16ab 3fbe 4b0b 203e 08d4 cebd
00000210: 4981 e9be 0b81 9dbe c449 c03e 1c45 223f
00000220: 9f53 74bf fc88 123e 8a9f 653e 72bf bb3c
00000230: 88b6 a03e 0545 193e 3ae0 57be 8b66 853e
00000240: bad1 63be 093f 1abe b2af 773e 784d 1d3d
00000250: 4088 1dbe 46b9 923d ad3c 53bf 4464 a63b
00000260: 6184 86be 07d6 1d3c 677e 1cbe 9fa1 a7be
00000270: 37d3 93be 3437 413e 9b57 49be c4e4 2fbe
00000280: fd8f 5fbe 0bfa b5bc 252b 7cbd 3744 883e
00000290: b299 0d3f b27f ebbd 30d3 81be 4b0c 673e
000002a0: 02f8 983e 715f d13d 9bd9 c0be fa29 ce3e
000002b0: dbf7 b63e 6969 a83e af2f 003f aebf a33e
000002c0: f1a7 4d3e 2d0a 623e 5893 a0be 1ffd c03e
000002d0: e553 e93e cf2c a9bd 9050 413f 81d4 ef3e
000002e0: 9ae1 4ebe 9b7a 1cbe 0006 84bd be23 1b3f
000002f0: b4a6 fe3c c4bb d03d c3ca 09bf 194e 8bbe
00000300: f968 fe3e a173 a5be 3d8a 98bd ee37 713d
00000310: 51ae 073e ebb1 17bf a8c8 a53c 52da 763e
00000320: dcc7 dfbc 8a36 643f f2de 5cbd 8766 913e
00000330: 0885 3dbd c8d7 173f 9eb6 453f 48b0 70be
00000340: a6d8 153e 4c73 5f3e 07c3 a6bd c08e c5be
00000350: 1a61 6abe 653d e83e 7677 a2bc 77cd 353e
00000360: 89bd 27bf d057 92be ac75 4c3e 55b8 943e
00000370: 0ffc e93d 7238 d2bb b540 3bbf 4c88 d9bc
00000380: b627 02bf 67ff 56be 7ec1 cf3e 8765 053f
00000390: a4ad f4be 86a9 01be bd16 1e3e ca10 023f
000003a0: da20 e83a 8414 943e 132b 7bbf 8e88 c9be
000003b0: cd00 323e 01e5 88be 4e5e 8d3e c4bb 81be
000003c0: 22ab b0bd 5c09 f63d 56bf 233e 23e2 5a3d
000003d0: 7489 85be 08f9 ea3e d046 3f3e 8e60 a1bd
000003e0: 1666 debc b682 8e3e 23cb cc3e d7c7 e23e
000003f0: 5e73 c43c 59c5 67bd 0d04 e6be c6d0 26bf
0.10622554 -0.23492537 0.22436301 -0.025693625 0.3855894 -0.20710057 -0.16787359 0.44788665
0.5483034 -0.44093886 -0.35871154 0.2002722 0.891706 0.14325735 0.48669395 -0.900233
0.51661843 -0.34550682 -0.17354928 0.058253698 -0.267236 0.60116965 0.12239938 -0.1618596
-0.40028912 1.0352472 -0.4492014 0.23309204 -0.08316663 -0.07054942 -0.28710184 -0.50207514
-0.036131114 0.082958385 -0.050538365 0.32468888 -0.33947623 0.019285211 -0.05119057 0.11858286
0.40307575 0.16337036 0.37558076 0.6265111 -0.5470619 -0.052869514 0.36282846 -0.039246205
-0.1914581 -0.46422178 -0.5273896 -0.11292052 0.40537643 0.24480222 -0.34611708 -0.42392156
-0.27062705 0.6563355 0.87832844 -0.28362262 -0.3707859 -0.3498251 -0.45924166 -0.21914618
-0.022879655 0.2941679 0.46713766 0.04377021 0.16977818 -0.014461889 -0.10722899 0.28618392
0.43175447 -0.11370108 -0.17896809 -0.017111825 -0.17494051 -0.02690558 0.12041952 -0.5638515
0.2542766 -0.03451758 0.56622833 -0.5205749 0.12485748 0.7799329 -0.42777532 0.43613863
-0.056724045 -0.24275708 0.31163913 -0.16266617 -0.08785663 0.57421154 -0.0040578097 0.20234422
0.4590036 -0.552419 -0.3417516 -0.013687784 0.17147964 0.024349796 0.35807577 -0.24663608
0.22137733 0.32541427 0.47518894 1.0632832 0.046262585 0.45729044 -0.29573488 -0.012582966
-0.37242866 0.015617405 0.27279958 0.48859555 0.3723399 0.06565205 0.41421798 -0.51493615
0.2699586 0.03876262 -0.130722 0.031314414 -0.019026075 -0.18829279 0.113426484 0.07616566
-0.7439156 -0.18717608 0.15629308 -0.100990355 -0.4560645 -0.30762514 0.3755628 0.633867
-0.95440096 0.14310068 0.2242414 0.022918437 0.3138926 0.14967735 -0.2108163 0.26054797
-0.22247973 -0.15063109 0.24188116 0.038403958 -0.15384007 0.07164244 -0.8251446 0.0050778706
-0.26272872 0.009633548 -0.15282594 -0.32740495 -0.28872082 0.18868715 -0.19662325 -0.17177111
-0.21832271 -0.022213956 -0.061564583 0.26614544 0.55312645 -0.11498965 -0.25356436 0.22563283
0.29876715 0.10223282 -0.3766602 0.402664 0.35735974 0.32892922 0.5007276 0.31982177
0.20083596 0.22074194 -0.31362414 0.37693116 0.4557182 -0.082605 0.75513554 0.46841815
-0.20203248 -0.15281145 -0.06446457 0.60601413 0.03108535 0.101920635 -0.53825015 -0.2720802
0.49689463 -0.3231478 -0.07448242 0.05889123 0.1325009 -0.59255856 0.020237282 0.2410672
-0.02731698 0.8914572 -0.053923555 0.28398535 -0.046269447 0.5931363 0.77231777 -0.23504746
0.14633426 0.21821326 -0.08142667 -0.38585472 -0.22888604 0.4535934 -0.019832354 0.1775416
-0.6552358 -0.2858262 0.19966763 0.29046884 0.114250295 -0.00641542 -0.7314561 -0.02655425
-0.50841844 -0.20995866 0.4057731 0.52108043 -0.47788727 -0.12662324 0.15438361 0.5080687
0.0017709986 0.28921902 -0.981126 -0.39361995 0.17383118 -0.26737216 0.2761101 -0.25338566
-0.08626391 0.12013504 0.15990958 0.053438317 -0.2608143 0.4589312 0.18679357 -0.078797445
-0.027148288 0.278341 0.3999873 0.4429309 0.023980793 -0.05658469 -0.44924966 -0.65162313

network_body._body_endoder.seq_layers.0.bias f4 [128]
00000000: f0bc 10be 2e4c 383d 185c 013d 4e45 10bc
00000010: f162 c5bd d878 ab3b 5751 e0bd ae96 0ebd
00000020: 0f66 08bc ccba 013d 0d57 95bd 81cf 44bc
00000030: d39c 6abb 9301 d73b 0f88 6d3d 5ebf abbd
00000040: 829d c43d 9f69 3ebc b1dd 203c 46fb 03bd
00000050: 7cda 8e3d 6f2b 5ebd 275c 02bd ede5 43bd
00000060: c6c4 afbd e87e 113d 0161 52bd a35c 883c
00000070: 7192 6dbd 8ed0 b2bd a8fa d2bc db00 9c3d
00000080: a81e 85bc 9624 87bd 78d7 0a3d ab4e be3a
00000090: 0b69 cbbd 544b 4a3d b6f5 3abe 74d5 50bd
000000a0: e667 babd 2ddb fabd 220b e9bc 0bf1 bcbd
000000b0: 43f0 98bd c8a4 51bc 9d99 153a 6dad 8b3b
000000c0: fe80 7dbd 19c6 1bbd 41d3 c73c b224 a0bc
000000d0: a8e5 bebd ebdc cebb 9fac 26bd 3ffe 4d3c
000000e0: c520 0b3d 8c63 81bd 7176 abbc 4def 993c
000000f0: 9ef1 08be 00fe 74bd bfa2 193c 5cb2 5cbd
00000100: 4496 03be 05aa 5a3c f2d6 103d 98fe 4f3c
00000110: 7a2d 19bd 9f29 e9bd 6e9b bc3b 99fb 35be
00000120: c06d 513d b6c9 c93b dcd3 993c 73ab 19bd
00000130: 547e 893c c563 c73c d7cc 373d 005b 04bd
00000140: 977e 783d eeca f03c 9565 a33c df72 efbd
00000150: f1a8 3fbd 0458 aa3c e46a 56bd 024c a9bd
00000160: f6c6 d3bd f57e 693d 8820 1fbd b223 c0bd
00000170: 28a5 ec3c 613e a2bd 57ea f3bc ff09 abbd
00000180: cf3b 06be d620 50bd e8ac 8e3d 3ffd 05bc
00000190: 2342 1fbe dfe1 16bd 8303 87bd ebef a43c
000001a0: baf2 053d c8c2 3abc b43e c6bd ad31 733d
000001b0: 362b b4bd 2d28 103c 8dd8 4c3b 0d2d a1ba
000001c0: 6766 13bc 5cc1 19bd 950f 5c3c ccf2 ddbd
000001d0: bc8c b7bc 58be 60bd 3d32 a9bd affc 213d
000001e0: c25a 3abb 0d4b 9bbb 620c bdbb 4de5 5bbd
000001f0: e27f 4ebc 4425 edbd e039 573d 1ba9 43bc
-0.14134574 0.044994526 0.031581968 -0.008805586 -0.09638012 0.0052329116 -0.10953014 -0.034811668
-0.008325114 0.031672284 -0.07291994 -0.012012363 -0.003579904 0.006561467 0.057991084 -0.0838611
0.09600355 -0.011621862 0.00981848 -0.032222055 0.06975266 -0.05424064 -0.031826165 -0.047826696
-0.085824534 0.035521418 -0.05136204 0.016645735 -0.058000986 -0.08731185 -0.025754288 0.07617351
-0.01624997 -0.06598775 0.033896893 0.0014519294 -0.09932145 0.049388245 -0.18257794 -0.050984815
-0.09101848 -0.12248836 -0.028447691 -0.09225663 -0.07467701 -0.012795635 0.0005706789 0.0042626173
-0.061890595 -0.038030718 0.024392726 -0.019548748 -0.09321147 -0.0063129566 -0.040691968 0.012572824
0.0339668 -0.06317815 -0.0209305 0.018790865 -0.1337342 -0.059812546 0.009377181 -0.053881034
-0.1285029 0.0133462 0.035361238 0.012694977 -0.037396885 -0.11384892 0.0057558334 -0.17771758
0.051130056 0.006158079 0.01877778 -0.037517022 0.01678387 0.024339566 0.044873085 -0.032313347
0.0606676 0.02939364 0.019945899 -0.11691832 -0.046791974 0.020793922 -0.052348033 -0.082664505
-0.10340683 0.05700584 -0.038849384 -0.09381808 0.028887346 -0.07922054 -0.029774828 -0.08351516
-0.13108753 -0.050812565 0.06966573 -0.008178054 -0.15552573 -0.0368365 -0.06592467 0.020133933
0.032702185 -0.0113989785 -0.096799284 0.059373546 -0.08797304 0.008798641 0.0031257004 -0.0012296751
-0.008996583 -0.037537917 0.013431449 -0.108373255 -0.022405975 -0.054869026 -0.08261535 0.03954762
-0.0028435444 -0.0047391714 -0.0057692984 -0.053685475 -0.012603732 -0.115793735 0.05254543 -0.011942173

network_body._body_endoder.seq_layers.2.weight f4 [128, 128]
00000000: e2fc 13be 8934 5f3d ff55 323d 885a fcbd
00000010: 859f c73d 12c9 15bd 116c bf3c 83e8 69bd
00000020: 64be a93b 8ed5 723d b2a9 163e 6afe c43a
00000030: 2633 e2bc f6a4 04be ec15 a9bd 2173 0dbc
00000040: cb72 fa3a 3260 61be 0566 4e3d fc4a 8ebd
00000050: 65da febd efbc c3bc 6401 b83c ba85 073e
00000060: 3b05 01bd 2d43 37be 2fdf 9b3d cba7 f43d
00000070: e426 2bbd c3a6 203e f3e2 38be 5b2a 26bc
00000080: 0ccc 14bc 798e 54be 7a9d 9cbc dba4 52bd
00000090: f228 bdbc f1f2 2fbe 4ed4 c9bb 9cea 41be
000000a0: 5d1f c23d 96ad cabc b960 383d 2472 34be
000000b0: 5189 ecbd 3b7f c9bd 584d 87bd 7af2 e3bc
000000c0: 9506 9a3c fe44 a6bd 4e63 adbd 241f 14bd
000000d0: 2acd ff3d d212 403d 82f4 4a3d c6fe b83d
000000e0: c113 033e c5f8 0b3c d0a1 e53c 86a8 65be
000000f0: 3532 d0bd 6aba 803c beb6 d7bd 9b5e 80bc
00000100: 7225 04be 10aa 64bd 249d bcbd 1c3a eabc
00000110: aeed 953d b05f e73b 4bd8 e23b 9509 60bd
00000120: 1468 a0be dc19 0fbe 6f73 b3bd 85d2 fbbd
00000130: 6683 1b3e 9750 7f3d e43a 803d f361 9abd
00000140: 79ce 75bd 6f26 2abd 5f3c aabc 2d2c 29bc
00000150: b21c 213c a30f bb3d dd97 67be 586e 6ebe
00000160: ebae cdba 3a90 063c d811 6abd c1f8 663e
00000170: d3a6 02be e14a 033d b640 303e 8635 6abd
00000180: 53f9 913d e09c 8abd d6b5 b73d b513 123e
00000190: 5e19 86bd 0ec7 babd ff24 dd3c 6eed 7bbe
000001a0: 6d31 3fbd cbbe fd3d 0200 503c d518 55bd
000001b0: a8f8 013e 12a5 183e c5f3 313b 4ae5 8e3d
000001c0: 353a 67bd 6535 313d 8ea4 e1bd b18b f93b
000001d0: 03ba c8bd 8b67 0fbc 8566 3f3e 2693 e73c
000001e0: 3411 32bd e1b9 1ebd ed3b 403d 86e0 d23b
000001f0: d9c6 103d 9bed a23c e30e 32bd 162d a3bb
00000200: 2ea5 813d 1847 c5bd dd8a d5bd dee7 25bd
00000210: 477e 25be 55d3 88bd 42fc 96bd 5cd7 3dbe
00000220: f663 d0bd 95fb 07bd e942 b03c 358b 91bd
00000230: 8b8e 733d 029e e13d 5db7 00be 2097 a4bd
00000240: c8dd 7abd eebe 9cbd 33e9 6fbc 9a13 8abd
00000250: 0b21 94bd 6bde afbd fd1d 17be 2589 f9bd
00000260: f488 8b3d 3ad3 2dbe 4df9 433b 8950 83be
00000270: 8ef5 a33b ea01 0a3d 7411 4abe 00c1 813e
00000280: e2b7 9bbd ab3d 173e 52f8 03be e440 f3ba
00000290: aea0 7abd 19f5 26be 7fad c2bc f87c 523d
000002a0: 5786 9dbd 1087 99bd 7aa2 6a3d 6a70 f2bd
000002b0: 0c50 20be a14b 38bc 58c7 8fbe ca04 923d
000002c0: 8b90 67bd 4ce4 633d a8eb 373c 80ae 8d3b
000002d0: bdda c5bd abf6 72be 36cb a23d d7b2 ea3a
000002e0: 6fbf c5bd d5d5 ad3c 08d4 2a3d 47ce 783d
000002f0: 9794 09be 5ab8 973d e9f7 b5bd cd69 a33c
00000300: 45cb 9ebc 8954 d6bd d8af 9f3c 2d50 7fbd
00000310: 78a7 353e 412d 8cbd 768b 693d d3f4 bf3d
00000320: 5347 8dbd ad7c 38bd a596 cebc 2f65 bebd
00000330: e333 933d e413 423e ce00 0abe f8c8 02bd
00000340: 1f60 8c3d 58db 3abe 9c54 94bb 03f3 a33c
00000350: b77c dabb 2881 ebbd ef98 4fbe 8235 21be
00000360: 1a35 6ebe 693c 493e e142 03be 6246 02be
00000370: 48fe 683d 56f0 bfbd cf0e a2bc 2f35 c63d
00000380: a115 fa3d 5904 333d efc5 573e 18da 033d
00000390: 22d2 54bb 2f14 303c 9879 193e 8cf7 303e
000003a0: 479d 23be e776 78bd 8a2d 2fbd cfd7 cb3d
000003b0: 81af d13d 4765 c2bd fff8 d73c bacc 1b3e
000003c0: 43e6 edbc 80f6 9ebd bff0 0d3e 1706 13be
000003d0: 69e5 b63d d03b aa3d b739 c13d 8dce 763d
000003e0: 223e c13d 1012 2cbe 2b51 303d 057a 98bc
000003f0: 5388 45bd fd2d 3fbe 27f1 d43c eef5 bcbd
-0.14451936 0.05449346 0.043539044 -0.12321955 0.09747223 -0.03656871 0.02336696 -0.057106506
0.005180167 0.059285693 0.14713171 0.0015029435 -0.02761228 -0.12953553 -0.082561344 -0.008633406
0.0019107697 -0.22009352 0.050390262 -0.06947896 -0.12443999 -0.023893801 0.0224616 0.13234606
-0.03149913 -0.1789672 0.07610928 0.119460665 -0.041785136 0.15688615 -0.18055324 -0.010141934
-0.009081852 -0.20757474 -0.01911806 -0.05142675 -0.023090813 -0.17182519 -0.006159342 -0.18937153
0.09478638 -0.024740975 0.045014117 -0.17621666 -0.115496285 -0.098387204 -0.06606549 -0.027825583
0.018801967 -0.08118628 -0.084662065 -0.03616251 0.12490304 0.04689295 0.049549587 0.09032969
0.12800504 0.008543198 0.02803126 -0.22427568 -0.10165826 0.01571389 -0.10532902 -0.015670111
-0.12904909 -0.055826247 -0.0920966 -0.028592162 0.073207244 0.0070609674 0.006922757 -0.054696638
-0.31329405 -0.13974708 -0.087622516 -0.12296013 0.15186843 0.062332716 0.062612325 -0.075382136
-0.06001136 -0.04154056 -0.02078074 -0.010325474 0.009833502 0.09133842 -0.22616525 -0.2328428
-0.0015692388 0.008213097 -0.057145923 0.2255583 -0.12758951 0.032053832 0.17212185 -0.05717995
0.07127633 -0.06768203 0.08970229 0.1426533 -0.06547807 -0.09119998 0.02699518 -0.24602291
-0.046677995 0.123899065 0.012695314 -0.052025635 0.12692511 0.1490672 0.0027153355 0.06977327
-0.056451995 0.04326381 -0.110177144 0.0076155295 -0.09801104 -0.008752714 0.18691452 0.028268408
-0.043473437 -0.038751487 0.04693215 0.0064354567 0.035345886 0.01988869 -0.04347123 -0.00497974
0.06330334 -0.09632701 -0.10426877 -0.04050433 -0.16161452 -0.066809334 -0.07372333 -0.18539184
-0.10175316 -0.03319891 0.02151628 -0.0710663 0.05946211 0.11016466 -0.12569948 -0.08036637
-0.061246663 -0.076536044 -0.014643001 -0.0674202 -0.07232865 -0.08587345 -0.14757533 -0.12184361
0.06813231 -0.16975108 0.0029903234 -0.2564738 0.0050036376 0.03369323 -0.1973322 0.2534256
-0.07603432 0.14769618 -0.12887695 -0.0018558768 -0.061188392 -0.16304435 -0.02376437 0.05138871
-0.07691639 -0.07496464 0.057283856 -0.118378475 -0.15655535 -0.0112485 -0.28081775 0.0712982
-0.05653433 0.055637643 0.011225618 0.0043237805 -0.09660862 -0.23726909 0.07948916 0.0017906082
-0.09655654 0.021220127 0.041706115 0.060743596 -0.13435589 0.07408209 -0.08885176 0.01994791
-0.019384036 -0.104653426 0.019493029 -0.06233232 0.17739666 -0.06844569 0.057017766 0.093728684
-0.0689837 -0.045040775 -0.025218317 -0.09296643 0.07187631 0.189529 -0.1347687 -0.03192994
0.06854271 -0.18247736 -0.004526688 0.020013338 -0.006667699 -0.11499244 -0.20273183 -0.15743068
-0.23262444 0.19651951 -0.12818481 -0.12722161 0.056883126 -0.09372012 -0.019782452 0.09678113
0.12211157 0.043705318 0.210716 0.032190412 -0.0032473882 0.010747 0.1498779 0.17281932
-0.15977965 -0.06066027 -0.04276804 0.099532716 0.10238553 -0.09491973 0.026363848 0.15214816
-0.029040461 -0.0776186 0.13861369 -0.14357792 0.08930475 0.083121896 0.09434836 0.060255576
0.09435679 -0.16803765 0.043046158 -0.018612871 -0.048225712 -0.18669887 0.025993897 -0.09226595

network_body._body_endoder.seq_layers.2.bias f4 [128]
00000000: eb62 903c c2c3 253c da74 043d e5a0 2dbe
00000010: 74c2 98bd afb6 423d 8aac adbd 07f5 b0bd
00000020: b81b 2cbc 57a2 32bd 81fd 93bc c767 03bd
00000030: 8c8c 0abe 4631 afbd 069f d43c 2d1a 943c
00000040: e7aa 5fbd 4227 9bbd 2c70 853d 5f97 59bd
00000050: 3078 aabd 1905 dfbd a0d4 f63c c130 eabc
00000060: 53f8 683c b5ab 88bd 8d1d ffbd d1b7 523d
00000070: a0ee 00bc 60b1 b1bd 8f99 e3bc a222 70bd
00000080: 2e33 1abc 0ecd 573d 868e 31bd 1747 c53d
00000090: c0e7 ebbd 4ec7 8cbd e7cd eabb 3e92 d33b
000000a0: 4604 5abd 8ed9 94bd d1e9 c8bd 5172 b6bc
000000b0: 6b0e 31bd 7b9c b63d ff71 f9bb b9d8 af3c
000000c0: a2b9 b4bd ec48 563d 7e55 a03d 3940 1abd
000000d0: 5319 a5bc 0397 833c 91f8 82bd b102 18bc
000000e0: b974 36bc cbaa c8bd f7f8 6fbd 3d90 a73c
000000f0: 44eb 3dbb 88cb 9f3d a934 6bbd 55dc 913d
00000100: fcb6 2bbd f580 92bd a88f 3fbe e4c4 b13c
00000110: be28 973b 4629 adbc ea72 9fbc 2e24 c8bd
00000120: 9d19 a53b a736 a8bc a8ba bd3d c2cb 1d3d
00000130: 8792 803c c994 2dbe 4bf5 2e3d b0b4 7dbc
00000140: f71a 4a3d f4e5 02bd 35d9 bfbd bab1 1bbc
00000150: 7054 473d ba5c 0b3d bf2b d1bc 0cc7 95bd
00000160: 2ebf 2bbd 43ee 9b3c 2a70 8fbd 601a 80bd
00000170: 1a7b fbbc 0fa5 ea3d 7673 c03c 043e e3bd
00000180: 6116 663d ce5a 8abd 7bee 113e ac66 fa3c
00000190: ae16 cf3d fa5f d43c 063b 78bd 3c45 2e39
000001a0: 4ed9 bfbc 560a 8ebd 68d0 5dbc 6a16 da3d
000001b0: 9a42 a73d fdc1 61bd 12a2 d23c 1c79 613c
000001c0: 48a8 a63d 9826 19bd 3da9 0b3d 866f 653c
000001d0: ddcb 2b3d 26d8 89bd 6e16 48bd 228e c9bd
000001e0: b75e 1e3d e1c2 4dbd 0cba b9bd 51cb 9ebd
000001f0: 8f75 463c d9f2 89bd 2eaa adbd faeb 62bd
0.017625293 0.010117473 0.032338 -0.16955908 -0.07458964 0.047537502 -0.08480175 -0.08640485
-0.010504656 -0.04361185 -0.018065216 -0.03208139 -0.13530177 -0.0855432 0.025954735 0.018078888
-0.054606345 -0.07575847 0.06515536 -0.053122874 -0.08323705 -0.10889644 0.030130684 -0.0285877
0.014219361 -0.066733755 -0.12456808 0.051444832 -0.007869393 -0.0867641 -0.027783183 -0.05862678
-0.009411616 0.05268579 -0.04334881 0.096327 -0.11518812 -0.06873952 -0.0071656588 0.0064566424
-0.05322673 -0.07268058 -0.09810222 -0.022271307 -0.04322664 0.08916565 -0.0076124663 0.021465646
-0.08824469 0.052315637 0.07828806 -0.037658904 -0.020153677 0.016063219 -0.063950665 -0.009277985
-0.011136227 -0.09798201 -0.05858704 0.02045452 -0.002897934 0.078024924 -0.057423268 0.07122103
-0.041922554 -0.07153503 -0.18707144 0.02170033 0.004613011 -0.021137845 -0.019463975 -0.09772526
0.0050384537 -0.020533873 0.092641175 0.038524397 0.01569487 -0.16951288 0.0427144 -0.015484974
0.049342122 -0.03195758 -0.09367601 -0.0095028225 0.04866451 0.034023978 -0.025533555 -0.07313356
-0.04193037 0.01903451 -0.070038155 -0.06255031 -0.030698348 0.11457264 0.023492556 -0.11095813
0.056173686 -0.06755601 0.1425113 0.030566536 0.10111748 0.025924671 -0.060603164 0.00016619725
-0.023419049 -0.06935565 -0.013538457 0.106488064 0.08167 -0.055116642 0.025712047 0.013761785
0.08137566 -0.03739032 0.034096945 0.01400364 0.041942466 -0.0673068 -0.048849516 -0.09841563
0.038664546 -0.05023468 -0.09068689 -0.07753623 0.012112989 -0.06735773 -0.08479725 -0.055400826

action_model._continuous_distribution.log_sigma f4 [1, 2]
00000000: 651f 95be c301 22bc
-0.29125515 -0.009888115

action_model._continuous_distribution.mu.weight f4 [2, 128]
00000000: df6c 113a f86d 78bc 98fa 253c 50a2 9c3d
00000010: bf0b 043e f1d6 093d b2e9 183e 240a e93c
00000020: 597f f5bb 55d4 ec3d 9633 e43c 719c 7a3d
00000030: 2f7a cf3d 1ebe 643d 62db 8cbc bda0 87bb
00000040: f419 833d abd5 d93b 4f96 dcba df71 f53d
00000050: 1606 513d 78aa 233e 0c44 36bd 32f0 793d
00000060: 0227 9fbc f6bc a23b 5852 053e e5f4 14bd
00000070: 931e 703a 0d5d 803d 966c 5b3b 9cd9 243d
00000080: 3766 083a d14a 2d3d 4c69 ce3d 70ce 8fbd
00000090: 7fd0 ca3c 796a c03d 52e7 bc3b e244 3abc
000000a0: 3cd1 153e 1a32 813d 014d 7cbb 78d0 5b3c
000000b0: de63 a13d f2c0 38bd 049b 8c3c af5d cd3c
000000c0: 3695 963c d851 0cbd 18a8 85bd a222 db3d
000000d0: d8a2 b3bb 14c5 33bd 36a6 8a3d 974a 833b
000000e0: 07af 103c 1c90 943d bcda 003c 35fe fe3c
000000f0: 53cd 15bc 3039 c7bc 5d47 953d 250b 173d
00000100: a623 0cbb b37d 293d 6d24 893d 4566 2e3c
00000110: a5a4 f8bc 5a26 013e e19b 7f3a 74b7 6d3d
00000120: 2ac4 ddbc 7159 053e 5b3f 1abd f3bb 593d
00000130: 9fe3 113c c96f 823d ee99 b2bc 0a6b a13d
00000140: 2c99 57bc 699f 69bc 41c0 253e 4719 5c3a
00000150: 113c 30bd 5ba8 9e3d 49a8 953b c22d 053e
00000160: 09d7 0a3d 8e0c c1bb 43a5 063d 8bc8 cf3d
00000170: 99f7 173e 7e88 adbd 0ecd 223e b80a a93c
00000180: 6cde 93bc 0166 ea3d 2801 65bd 6675 ccbc
00000190: 8d60 56bd 2fb0 443b ef57 2b3e 0008 80bd
000001a0: 9fcb d23b 6bf3 07bc a32b f03d a0ac 3ebd
000001b0: bbc9 adbd 4c50 443e 9a8e 1abc 067b b43d
000001c0: 1d0e 153c 400b ac3c 098c 913c 6a87 343e
000001d0: e355 edbc 4f9d 3f3e 6b55 2dbb ed98 1d3d
000001e0: 89e3 f5bb 7aa5 283e 1360 cf3d 38b1 593d
000001f0: 196a b0bd 3fd2 4c3d 5f0e a1bb 1d8e a43b
00000200: 4b9b a1bc 0354 463d 2777 94bc 8167 3abc
00000210: ff96 5d3c 7eec 36bd 5da9 c73c 9a44 903d
00000220: f460 753d 6da7 ae3d 8348 a23d fc60 753b
00000230: 91d7 e73d a3c5 cdbc 2b96 73bd 9093 74bd
00000240: c6a1 40bd b70d 8d3d c830 b0bd 361f 9a3c
00000250: d1be d83c 0933 d23d a707 063d 1069 70bd
00000260: 3d7b 2e3d 1fea 3d3d 3085 81bc c2f6 1fbd
00000270: 0a20 7c3d 0e0a 423d d8cb 833d 96d6 52bc
00000280: 43d9 8d3d fa25 143c 3b14 3a3c 1989 9bbc
00000290: 1a2f e8bc 7d58 913d 66fe e03d cfbd a33d
000002a0: cd4d 653d 7999 293d 092d 7d3c 4674 88bd
000002b0: 3e7f d23d ed24 2bbd 242f 07bb e5b2 bf3d
000002c0: 4dfc 183d 2e07 653d 6d75 90bb 6951 183e
000002d0: 47ee 8b3d a4e7 623d 342e 6ebb 0226 bc3d
000002e0: f31b d43d 25b6 293d 5547 813d 98ec b2bd
000002f0: 7e94 913d 2c22 cabd 4725 ccbb 612e 72bc
00000300: 7a65 863d ff29 59bd 8be2 253d 083f 003e
00000310: 7b9a 2c3c 6615 a4bc 0ec7 5f3d 9cc8 2bbd
00000320: 8422 70bd af18 4d3d 937e a7bd 22ec 70bd
00000330: f7ae f53d c97c 973c b3e4 92bc e82d 9239
00000340: c5f7 cbbd 6b3b 063d 5e53 a73c f247 9b3d
00000350: cfe5 81bb 6c57 24bd 08f4 953d 228b 073b
00000360: 96b7 5abd f17c f33d fdeb 27bc c65c bd3c
00000370: e58f 153c 7a65 87bd 5930 ea3d dd23 aebc
00000380: 82dd 5b3d 8845 873d bffb bdbc 2315 1abd
00000390: 429c 8ebd 1278 dc3d 92dc b33d eb86 9a3d
000003a0: ab31 c93d 40b3 b03c 7aa5 ce3c 8a87 18bd
000003b0: c553 a8bd 430b 4ebb c217 fa3d cf11 0fbd
000003c0: 0df8 91bd c952 913d 5215 73bd bf90 ca3c
000003d0: c2cb 253c a0be 8c3d 59db 913d 1cc6 af3d
000003e0: 9d6a 34bc ae16 b13c 4df8 b53d 7225 bb3c
000003f0: 4bb9 3bbd f880 1ebc fe2e 553d e667 2f3d
0.0005547534 -0.015162937 0.010130547 0.07648146 0.12895106 0.03365225 0.14932898 0.028447218
-0.0074919877 0.115639366 0.02785663 0.06118435 0.101307265 0.055845372 -0.017194454 -0.0041390345
0.064014345 0.0066477857 -0.0016829463 0.1198461 0.051031195 0.15982997 -0.04449849 0.061020084
-0.01942778 0.0049663736 0.13019693 -0.036366362 0.00091598294 0.06267748 0.003348147 0.04024659
0.00052032195 0.04230768 0.100786775 -0.07021797 0.024757622 0.09395308 0.00576488 -0.011368962
0.14630598 0.06308384 -0.0038498046 0.013416402 0.07880376 -0.045105882 0.017163761 0.025069086
0.018381696 -0.03425774 -0.06526202 0.10699965 -0.005482059 -0.04388912 0.067699835 0.0040066945
0.008830792 0.07254049 0.00786465 0.031127075 -0.009143191 -0.024319261 0.07289002 0.036875863
-0.0021383553 0.04137964 0.06696401 0.0106445 -0.030351946 0.12612286 0.0009750706 0.058036283
-0.027071077 0.130224 -0.037658077 0.053157758 0.008904367 0.063689776 -0.021801915 0.07881744
-0.013159078 -0.014259198 0.1618662 0.00083961006 -0.043026034 0.07746955 0.0045671803 0.13005736
0.03389648 -0.005891389 0.03287245 0.101456724 0.14840545 -0.084732994 0.15898535 0.020634994
-0.018050395 0.11445237 -0.055909306 -0.024958324 -0.05233817 0.003001224 0.16732763 -0.06251526
0.006432965 -0.008297781 0.11727073 -0.046551347 -0.08485743 0.19171256 -0.009433413 0.08812527
0.009097603 0.021001458 0.01776697 0.17629781 -0.028971618 0.18712352 -0.0026448618 0.03847592
-0.007503931 0.16469374 0.101257466 0.053147525 -0.086139865 0.050005194 -0.0049150432 0.005021824
-0.01972737 0.048419964 -0.018123223 -0.011377216 0.01352477 -0.04465913 0.02437275 0.07044335
0.059906915 0.08528028 0.07923987 0.003744184 0.11320413 -0.025118655 -0.059469383 -0.05971104
-0.04702928 0.068873815 -0.08603054 0.01881371 0.026458176 0.102636404 0.03272214 -0.058693945
0.042597998 0.046365853 -0.015810579 -0.039053686 0.061553992 0.04737287 0.064353645 -0.012868544
0.06926205 0.009042257 0.011357362 -0.018986272 -0.028342772 0.07096956 0.10986023 0.079951875
0.0559824 0.04140613 0.015452632 -0.066628024 0.10278176 -0.041783262 -0.0020627463 0.09360293
0.037349988 0.05591505 -0.0044085295 0.14874806 0.06832557 0.05539669 -0.0036343457 0.09186937
0.103568934 0.041433472 0.06312434 -0.08736533 0.07108401 -0.09869799 -0.0062300297 -0.014781565
0.06562324 -0.053018566 0.04049925 0.12524045 0.010534878 -0.020029735 0.054633193 -0.041939363
-0.058626667 0.05007237 -0.08178439 -0.058818944 0.119962625 0.01849212 -0.017931318 0.00027881493
-0.09959368 0.03277151 0.020425495 0.07582082 -0.003964163 -0.040122434 0.07321936 0.0020682295
-0.053397737 0.11889065 -0.010249135 0.023115527 0.009128545 -0.06611152 0.11435003 -0.021257335
0.053678043 0.06605059 -0.023191331 -0.037617814 -0.069633976 0.10765089 0.08782305 0.07545265
0.098239265 0.021569848 0.02522539 -0.037238635 -0.08219103 -0.0031439818 0.12211563 -0.034929093
-0.0712739 0.07095868 -0.059346505 0.024727223 0.01011938 0.06872296 0.07121915 0.08582708
-0.011011747 0.02161726 0.0888525 0.022845004 -0.045831006 -0.009674303 0.05204677 0.042823695

action_model._continuous_distribution.mu.bias f4 [2]
00000000: 337d 12be a0ef 9bbc
-0.14305572 -0.01903516

action_model._discrete_distribution.branches.0.weight f4 [1, 128]
00000000: 33a2 413b e781 d23b e780 313c abfe 643a
00000010: 7b33 c3bb c4a8 c93b 9bd6 1f3c 1b65 cf3b
00000020: dd6a a73a 727c 933c 9948 c1bc 2068 603c
00000030: e976 2d3c 9769 443c fac9 0fbc d042 4d3c
00000040: 82db 8aba d954 ad3b 4e76 c9ba eae6 233c
00000050: 272c 1e3c 7553 f3b6 975a 0bbc 4a48 03bc
00000060: 8022 563c 921d b8bb 87a0 d93c a360 a73b
00000070: 6d99 02bc 85ce bf3b 0634 b8bb 4f77 9a3b
00000080: 4150 833b 43dc 9b3b 275b fd3b aa8c 013c
00000090: f75e 32bb f717 003d 5df3 203b 0102 0e3c
000000a0: d743 36bb 9f21 65bc 2259 493c 1fb6 5dbb
000000b0: 5f50 33bb 78a8 f8bb 31b5 373a 0b46 42bb
000000c0: 0730 06bc f901 8f3c f081 383b 430a 87bc
000000d0: 9005 e93b 8360 d03a 7f6e 663b a3ea bfbb
000000e0: d0c5 173b 85db b73b bb8f 533b 3406 ba3c
000000f0: 2026 463b 0b55 353c 7a4e 95ba 63d4 b33c
00000100: 478f 543c a40f b53b 9581 993c 6bee 5ebc
00000110: 428c f2ba 9a2e 2cbb 1ad6 8cbb 7ff7 fcbb
00000120: f066 be3a 86a3 bcba b352 69bc 78a2 28bb
00000130: 9cd3 c2bb 586a 763c 2085 feb9 4fa3 9fbc
00000140: 0b64 cc3b 8c2c b4bb b737 e0bb 164e bebc
00000150: 13cb 153c e2d9 f8bb 6351 92bc 0b43 5dbb
00000160: 9d7e 03bc ed39 0ebc d7fc 103c 5be7 343b
00000170: 4aed d2bb ff51 49bb 0d27 ffbb 82cc 913c
00000180: 4fbc 8c3b dbfa 41bb 5d1b ccbb 2315 25bc
00000190: 834c a83c 62ab cdbb 4878 e13a 4a34 c1bb
000001a0: 2c82 b1b8 3b8f 723b 6fb4 9b3c b2bd debb
000001b0: a99b 02bc aa84 893b c3ec e33b 426f 0b3b
000001c0: 3793 813b 4451 02bb 455b 77bc 9024 2dbc
000001d0: a2e5 383b e680 0cbb 9a68 b8bb 5936 a9bb
000001e0: 93e5 2a3c 15d6 3b3c 5d94 00ba 1b8f 5c3b
000001f0: 2d33 e33b 83b7 3ebc 6e3f c83a 5e88 3bbb
0.002954614 0.006424177 0.010833955 0.0008735458 -0.0059570647 0.0061541516 0.009755756 0.0063291914
0.0012772937 0.018003676 -0.023594188 0.0136967 0.010587432 0.011988065 -0.008776182 0.012528136
-0.0010593983 0.0052896556 -0.001537034 0.010003785 0.009654081 -7.25168e-06 -0.008505485 -0.0080128405
0.013069749 -0.0056187594 0.026565803 0.0051079555 -0.00797115 0.0058534765 -0.005621436 0.0047139297
0.0040073697 0.004756482 0.0077318135 0.007907072 -0.0027217248 0.031272855 0.0024559118 0.00866747
-0.0027811432 -0.013985067 0.012289317 -0.0033830476 -0.0027361137 -0.0075884424 0.00070078956 -0.00296438
-0.008190162 0.017456995 0.002815362 -0.016484385 0.007111259 0.0015897903 0.0035161076 -0.0058568283
0.0023158677 0.0056108856 0.0032281715 0.022708036 0.0030235127 0.011067639 -0.0011391186 0.02195186
0.012973613 0.005525546 0.018738547 -0.013606648 -0.0018504935 -0.0026272894 -0.004297984 -0.0077199335
0.0014526527 -0.0014391996 -0.014240908 -0.0025731605 -0.005945636 0.015040003 -0.0004854584 -0.019487051
0.006237512 -0.0054984745 -0.006842579 -0.023230594 0.009142655 -0.007594333 -0.017861074 -0.0033761885
-0.008025792 -0.008680803 0.008849344 0.002760372 -0.0064369785 -0.003071904 -0.0077866376 0.017797712
0.004294909 -0.0029598984 -0.006228848 -0.01007584 0.020544296 -0.006276534 0.0017201984 -0.005896126
-8.464264e-05 0.0037011642 0.019006936 -0.006797516 -0.007971683 0.004196723 0.0069557144 0.0021276032
0.003954317 -0.0019884864 -0.015097444 -0.010567799 0.0028213044 -0.0021439134 -0.005627704 -0.0051639494
0.010430711 0.011464615 -0.00049049204 0.0033654633 0.006933591 -0.011640432 0.0015277693 -0.0028615217

exp_avg f4 [128, 8]
00000000: 606b d73b 4dc5 3eba e810 52bc 620f 7f3b
00000010: 8781 3fba cce1 8dbb 92b5 da3b c1c3 aebb
00000020: c2fb b43a 609a 0d39 6a28 7c3a b216 683a
00000030: ba0e fa38 a46a 8e39 b766 283a c083 8d39
00000040: 0ccd a4bb 8ace 2eb9 58de 3cbb ea1f f8b9
00000050: 305f 24b9 543f bd38 fb6e 83ba 273e f839
00000060: 8b28 c3bc a028 933a 8022 0f3a ae6d 76bb
00000070: 61db 973a b8e8 d73a 6f2c b7bb 9e3d 92ba
00000080: 092f 233b 8eeb f2b8 744d c1ba ee32 873a
00000090: 198a f1b8 34af bc38 33f1 813a 95a3 563a
000000a0: f3e0 46bb 77cc 14b9 c00c 2ebb 5178 c5b9
000000b0: 93c3 10b9 4db8 24b9 e40a f1b9 1218 fb37
000000c0: e41e 4cbd 8801 1e3b ef93 783b 8bce 93bc
000000d0: 13a0 1e3b 44b5 0c3b 44cf 8dbc b70b d5bb
000000e0: da8a 3dbc fefa 7c3a 8ae8 8c3c 7e1f dcbb
000000f0: b297 833a 74ca 543b 6902 35bc cb23 9e3b
00000100: 35c1 083d 5608 0cbb bc51 11bd fe27 ca3c
00000110: 126e 08bb 036e c6bb 1596 c13c 709a 2dbb
00000120: c97e aa3b 0a72 3e38 3783 b33a ccff f33b
00000130: f1eb a238 4452 9a3b e85b a33b e2f0 a23b
00000140: 5a4a d73c 2c95 e9ba a808 ccbc 722b 563c
00000150: b8e3 e4ba f1c0 a3bb 9441 953c 606e 53bb
00000160: 5a5b 1e3d 268c 16bb ca50 05bd 92e6 d93c
00000170: 00e6 14bb 65a1 a6bb 1d44 da3c 7bae 0d3b
00000180: ca94 84b9 384c 1939 145b 50ba f588 0fb9
00000190: 979c 0839 5b97 4839 6d59 80b9 d91c acb9
000001a0: 23ba 8f3b e0d4 52ba 372e 9dbc 164b d03b
000001b0: 895a 51ba a455 b7bb eae0 193c 40bb 09bc
000001c0: ab1a 11bc 1cb8 8539 fcf2 64bb 95ad 0b3b
000001d0: 044d 8b39 6181 1d3b fcf7 01bb 6770 3a3b
000001e0: 0609 1cbb f3ca f338 f49c 7239 d3e2 86b9
000001f0: fab0 f738 53ea 7439 dc37 23ba 9453 5739
00000200: 0d60 103d 76be d6ba 46b1 31bc 5111 073d
00000210: 8400 caba a315 113b 5267 db3c 025a b03c
00000220: c41e 953c 3ef6 45ba 41f9 953b b95c d33c
00000230: 1fdc 21ba 2865 bd3b 0de0 813c 8200 d13c
00000240: 4356 dbbb 0687 4a3a d4be 913c a2d3 01bb
00000250: 6ad2 553a de92 913b be52 ecbb a652 1d3c
00000260: 10af 14bd 9636 fb3a 5187 553c def0 9cbc
00000270: 3c6d f33a 61fc 483b d0c2 b7bc ba04 333b
00000280: 76b6 d5ba 3553 a239 484a 5e3c 42cc f33b
00000290: 2f61 a639 de13 0f3c 70f8 aeb9 4cc2 b23c
000002a0: 4233 68b9 62ad c8b7 ddc2 823a b37a 43ba
000002b0: d171 93b7 a62a acb9 de9b bcb9 3eeb e539
000002c0: 9420 64bb 8e2e 0639 b792 e8b9 b5f9 41ba
000002d0: 49cc 0b39 1296 8639 eba5 20ba b67d 243a
000002e0: d498 673c 0a14 32ba 49c8 483b bed5 223c
000002f0: fd87 31ba 4bf9 22ba 9100 193c ff69 093c
00000300: 030c 8939 bbf4 c438 819d c93a b630 b6b9
00000310: 174f c038 3919 0eb9 d76a 7eb9 b69e 9bb9
00000320: fa7a 843b 6e01 7eb9 f0b6 28bb 41f4 bfba
00000330: a92e 72b9 8c32 af39 ccff 92b9 adc0 ee38
00000340: 36fe 083c 228d 39ba 353c 7ebc c216 ea3b
00000350: 0236 34ba f603 49bb 586a 433c 3e18 a1bb
00000360: 83a6 41bc 2e96 3f3a 448b cc3c 94a5 453b
00000370: af04 5d3a da1b cd3b f400 aabb 3b89 b43c
00000380: 60ed 7c3b 90e4 79b8 20d7 12bc d4d0 7f3b
00000390: 483a 11b8 5cbf b3ba fec6 493b 4fcf 65bb
000003a0: 83ba 20bd 0d98 f23a 64e8 923a dc75 87bc
000003b0: 82d2 f33a 040b 803a cd15 67bc 4be0 cfbb
000003c0: 3eb4 253d eea2 2dbb aa44 e6bc 9b4a 9b3c
000003d0: 9a75 2dbb bc9f 21bc 5f01 cc3c 0098 d1bb
000003e0: c433 683c ac10 08ba e0b0 b73a ae54 713c
000003f0: 9289 f0b9 2cd1 0b3b 3241 b03b 12b3 e03b
0.0065740794 -0.0007277325 -0.012821414 0.003891908 -0.0007305373 -0.0043298956 0.006674477 -0.0053333943
0.001380794 0.00013504317 0.0009619059 0.00088534795 0.00011923672 0.00027163804 0.0006423997 0.00026991777
-0.0050293263 -0.00016670875 -0.002881905 -0.00047326024 -0.00015675719 9.024018e-05 -0.0010027582 0.00047348553
-0.023823043 0.0011227317 0.0005460158 -0.0037601995 0.0011585766 0.0016472554 -0.0055900137 -0.0011157279
0.0024899861 -0.00011583335 -0.0014747814 0.0010314861 -0.00011517498 8.997173e-05 0.0009913802 0.0008187828
-0.0030346483 -0.00014190549 -0.0026557893 -0.0003766441 -0.00013805767 -0.00015708916 -0.00045975216 2.993274e-05
-0.049834147 0.00241098 0.0037929972 -0.018042823 0.0024204298 0.0021470347 -0.017310746 -0.0065016407
-0.011568749 0.0009650438 0.017200727 -0.0067176213 0.0010039716 0.0032469304 -0.011047938 0.004826044
0.03338738 -0.0021367273 -0.03547834 0.024677273 -0.002081756 -0.006055595 0.023631135 -0.0026489757
0.0052031022 4.5405737e-05 0.0013695721 0.007446265 7.7687095e-05 0.004709514 0.0049853213 0.004972563
0.02628057 -0.0017820946 -0.024906471 0.013071882 -0.0017462885 -0.0049973656 0.018219747 -0.0032261834
0.03866134 -0.0022971719 -0.03254775 0.026599202 -0.0022720098 -0.0050851577 0.026643807 0.002161889
-0.00025287858 0.00014619611 -0.0007948142 -0.00013688563 0.00013028305 0.0001912987 -0.0002448069 -0.0003282789
0.004386203 -0.0008042585 -0.019187076 0.006356607 -0.0007986208 -0.005594926 0.009392003 -0.00840646
-0.008856456 0.0002550491 -0.003493487 0.002131318 0.00026569527 0.0024033415 -0.0019831648 0.0028448345
-0.002380909 0.00011624945 0.00023137388 -0.0002572747 0.00011810842 0.00023356946 -0.000622628 0.00020535133
0.03524785 -0.0016383666 -0.010845488 0.0329755 -0.0015411531 0.002213814 0.026782665 0.021527294
0.018203147 -0.00075516466 0.0045768325 0.02580105 -0.0006174463 0.005779881 0.015853906 0.025512937
-0.006693633 0.00077258085 0.01779119 -0.001980998 0.00081566593 0.0044425568 -0.007212012 0.009602224
-0.036299765 0.0019166048 0.01303275 -0.019157823 0.0018571983 0.0030668008 -0.022431761 0.002731605
-0.0016304988 0.00030961042 0.013567515 0.007440121 0.00031734395 0.008732764 -0.00033372967 0.021821164
-0.00022144339 -2.3922596e-05 0.0009976287 -0.0007456943 -1.7576765e-05 -0.00032838172 -0.00035974284 0.00043853553
-0.0034809457 0.00012796579 -0.000443598 -0.0007399575 0.00013332175 0.00025670283 -0.00061282393 0.0006274836
0.014135558 -0.0006793147 0.0030636957 0.009938655 -0.0006772278 -0.0006216957 0.009338514 0.008387088
0.00026139626 9.391593e-05 0.0015382023 -0.00034750038 9.170005e-05 -0.00013551571 -0.00024263129 -0.00029682153
0.0040429803 -0.0002422386 -0.0025743805 -0.0014644937 -0.000230963 0.0003341626 -0.00028037874 0.00011384613
0.00836139 -0.00070782204 -0.015517284 0.007143826 -0.0006874503 -0.0030672527 0.01192721 -0.00491622
-0.011819485 0.00073084503 0.02496875 0.0030158507 0.0008431179 0.0062594237 -0.005188102 0.022038093
0.0038593635 -5.957909e-05 -0.008962423 0.0039034383 -3.4624973e-05 -0.0013713646 0.0030788775 -0.0035066193
-0.03924037 0.001850845 0.0011208174 -0.016535692 0.0018602165 0.0009768908 -0.014104319 -0.0063438765
0.040455095 -0.0026494819 -0.028108913 0.018956473 -0.00264678 -0.009864744 0.024902998 -0.0063962936
0.014172498 -0.00051904726 0.0014014505 0.014729662 -0.00045878865 0.0021334393 0.0053788656 0.0068572843

exp_avg_sq f4 [128, 8]
00000000: 53a5 f83a 5cf4 5837 afa3 763b 7b4b 503a
00000010: 14e0 6337 0cde 0d3b 1271 503a 8ef4 be3a
00000020: 5cd1 e53a 373f d236 6cb6 e33a 7067 033a
00000030: d450 d036 a744 663a d505 dd39 b3b2 1c3a
00000040: d70b 453b 7d77 a737 0146 d43b f9e9 dd3a
00000050: 93d9 a637 183b 963b 6109 c53a e088 263b
00000060: 4950 1e3b 863f 1037 5dc6 063b 7272 6b3a
00000070: c241 1037 bb06 b139 732d f439 fdf8 a339
00000080: 3c84 3239 8fe8 df35 027b 033a b6e6 9538
00000090: f015 ea35 2781 fe38 7b2a 1b38 6755 da38
000000a0: c843 043b 0bfb 4a37 b9bc 4c3b 2c2e 543a
000000b0: 88b4 5137 a293 f03a 7458 373a 6f28 993a
000000c0: 36a5 573b 69e5 1d37 4f46 da3a 23d9 593a
000000d0: 1c32 1e37 9f5a a739 5beb 103a b6a7 d139
000000e0: 8e5c 1f3b ee2b be37 50d3 da3b 9470 9c3a
000000f0: 56b9 cd37 2a5a 223b 0676 7f3a ead8 df3a
00000100: 24a6 d13b abc1 6138 42e1 693c ad16 0e3b
00000110: b326 7338 b63a c43b 2ab4 173b 6a12 8c3b
00000120: 3468 ed3a 292f da36 803d 133b 408c 093a
00000130: 12c7 db36 bbf0 c339 3b33 aa39 47cd d339
00000140: 2ef3 c53b 8786 2e38 bbe5 3b3c b807 153b
00000150: 820b 3838 56fa d03b ed01 1d3b dbaf 883b
00000160: b65a 0e3c 5c27 5038 d86d 4e3c 6b0b 5f3b
00000170: 4352 5938 2510 163c 8502 673b 9f61 c73b
00000180: 75c0 413b 5093 1837 2dde 1b3b af89 823a
00000190: 1bbd 1437 822f ff3a b770 6d3a 7dfd aa3a
000001a0: df61 ab3b f0ea 3b38 63cd 483c c163 c83a
000001b0: 0d94 4538 c242 a83b 027e ec3a 2ca7 5a3b
000001c0: 9931 1f3b 1d6d 9e37 e8e9 b33b ef83 3c3a
000001d0: ad81 a737 c121 b73a 5cde 013a 9c1b 523a
000001e0: 4894 2c39 e5c3 8535 9be7 b539 ee40 9338
000001f0: 9109 8435 a339 db38 f940 6038 e3f2 9838
00000200: d774 6b3b 4bd1 5e37 e8c5 363b d78e ad3a
00000210: 4d23 6337 d591 8c3a b1a6 8b3a ee54 a73a
00000220: 1fef 773b 37b4 9d37 e285 a73b 5a53 c63a
00000230: d616 a537 a169 e73a 4d77 953a 381a bb3a
00000240: 0ba9 463b 0dc4 f637 d3b2 123c fbc3 993a
00000250: 8243 0538 31ae 3d3b 0ac0 6c3a a16d df3a
00000260: 224b 813b 659a 8537 5c6e 7f3b d3f9 ac3a
00000270: 0157 8837 504a 063b f9d8 983a 24fc c23a
00000280: 6a25 9e3b 7e58 0038 7af7 013c e8c6 f63a
00000290: 6a7a 0538 05db 703b ee75 f33a bd7f 493b
000002a0: bc0c 2b3b 1f35 8b37 0eb2 903b 9746 c43a
000002b0: 5006 8937 76b8 643b 203f ab3a 6a2f 0f3b
000002c0: 2b04 b33a 5db9 fa36 b4e9 f43a 75b1 023a
000002d0: 03ae f636 ad83 673a 830f b939 7d60 233a
000002e0: 52d7 203a c095 d235 cdec 8739 3d9b a239
000002f0: 3e42 d335 c2eb 0439 2360 6539 2d8b 4639
00000300: ab2c 073a f933 3036 eb99 6d3a 1188 0939
00000310: da66 2f36 e71d 7c39 35be aa38 b9c3 4a39
00000320: cb42 9d3b 2e1e fa37 ed6c 063c efbd 0b3b
00000330: b108 0038 d83e 9a3b 97c3 e43a 1f3b 453b
00000340: d2df 7c3b 16e9 c637 85f7 e43b a934 dd3a
00000350: 3c70 cc37 e3f1 a63b d512 f93a 52a7 553b
00000360: 4bb4 d33b d3ef 4338 c1b2 423c 842a 4d3b
00000370: 1884 5238 9795 ac3b bbcb 293b c69a 873b
00000380: f2ad c33a 4f0b 2337 47d4 533b 48e4 fa39
00000390: 2670 2937 08c3 6c3a 5274 d939 fbd6 2a3a
000003a0: 3e8b 873b 222d 3337 45a0 e73a 0589 923a
000003b0: 71ff 3537 0181 113a a929 2c3a 87c7 113a
000003c0: 36a3 063c a698 7738 1465 803c a19f 6f3b
000003d0: eb50 8138 11f9 193c e8e7 713b 47bb d43b
000003e0: 07df 3b3b 7744 4a37 2080 433b dd86 883a
000003f0: cb2a 4e37 4bc1 cb39 72e7 453a f89b 343a
0.0018970169 1.2931498e-05 0.0037634184 0.0007945818 1.3582427e-05 0.0021647243 0.0007951419 0.0014568733
0.0017533707 6.265847e-06 0.0017373092 0.0005012667 6.2082927e-06 0.00087840337 0.0004215675 0.0005977556
0.0030066872 1.9963592e-05 0.0064780717 0.0016930691 1.9890058e-05 0.0045846812 0.0015032702 0.0025411174
0.002415674 8.597859e-06 0.002056501 0.0008981592 8.598379e-06 0.00033765085 0.0004657317 0.00031275293
0.00017024664 1.6682478e-06 0.0005015583 7.147847e-05 1.7440743e-06 0.0001213572 3.6994443e-05 0.000104109575
0.0020182002 1.2098589e-05 0.0031240417 0.00080940383 1.2499404e-05 0.0018354545 0.00069940765 0.0011685024
0.003290487 9.411343e-06 0.0016653034 0.0008310249 9.429201e-06 0.0003192024 0.0005528235 0.0003998854
0.0024316642 2.2670221e-05 0.0066780224 0.0011935406 2.4524208e-05 0.002477298 0.0009745065 0.0017078195
0.0063979793 5.3824548e-05 0.014274897 0.0021680996 5.7971756e-05 0.005988444 0.0023148158 0.004274656
0.001811272 6.5023964e-06 0.0022467077 0.0005247034 6.5498834e-06 0.00037372657 0.00032463096 0.00040398
0.006040952 4.161012e-05 0.011468346 0.0022740196 4.3879736e-05 0.0063774986 0.0023957447 0.004171354
0.008688619 4.962772e-05 0.012599431 0.0034033905 5.1813444e-05 0.009159123 0.0035249304 0.0060846354
0.0029564176 9.094205e-06 0.002378355 0.0009959246 8.865517e-06 0.0019469114 0.00090576283 0.0013045516
0.005230173 4.4803077e-05 0.012255999 0.0015288518 4.7106343e-05 0.0051349113 0.0018042924 0.0033363802
0.0024291037 1.8885878e-05 0.0054905303 0.00071912905 1.9968336e-05 0.0013971851 0.00049540936 0.00080149784
0.00016458437 9.966285e-07 0.0003469557 7.0216e-05 9.837551e-07 0.000104534694 5.3466272e-05 7.293166e-05
0.0035927796 1.3280961e-05 0.0027888957 0.0013241422 1.35384735e-05 0.0010724614 0.0010654536 0.00127664
0.0037831736 1.8799778e-05 0.0051123956 0.0015131042 1.9680167e-05 0.0017655381 0.0011403352 0.0014274782
0.003031316 2.9416778e-05 0.008953768 0.001173138 3.1772543e-05 0.0028942937 0.00090313016 0.0017046222
0.003945724 1.5926731e-05 0.0038975691 0.0013197012 1.6252978e-05 0.002049107 0.0011661343 0.0014876169
0.0048262374 3.0599993e-05 0.007932538 0.0018827589 3.1823678e-05 0.003675164 0.0018574574 0.0030746304
0.002610012 1.6594828e-05 0.004415757 0.0014974651 1.6334612e-05 0.0034899986 0.0013065077 0.002184833
0.0013657858 7.4721597e-06 0.0018685372 0.00049855496 7.351629e-06 0.0008831572 0.00035297507 0.00062323344
0.0006135601 1.5689802e-06 0.00025925637 0.0003101471 1.5740004e-06 0.00012676328 0.00021874956 0.00018934598
0.00051564974 2.6256296e-06 0.0009063768 0.00013116027 2.61369e-06 0.00024043732 8.1416605e-05 0.00019337134
0.004799222 2.9816376e-05 0.008204681 0.0021322926 3.0525673e-05 0.0047071986 0.001745331 0.0030095053
0.0038585556 2.3711978e-05 0.0069875144 0.0016876656 2.4370958e-05 0.005094753 0.0019002805 0.0032600951
0.0064607016 4.6714977e-05 0.011883439 0.003130586 5.0190924e-05 0.005266856 0.0025908786 0.0041383235
0.0014929159 9.71819e-06 0.0032322572 0.000478538 1.0099297e-05 0.00090317475 0.0004147613 0.000651702
0.004136472 1.067974e-05 0.0017671665 0.0011179751 1.0847915e-05 0.0005550534 0.0006567487 0.0005561043
0.008217623 5.9031554e-05 0.015673198 0.0036563652 6.1662715e-05 0.009397761 0.0036911909 0.0064920518
0.002866687 1.2056079e-05 0.0029831007 0.0010416169 1.228852e-05 0.00038863192 0.00075494417 0.0006889696

exp_avg f4 [128]
00000000: 4ec5 beba 609a 8d39 87ce aeb9 a028 133b
00000010: 8eeb 72b9 77cc 94b9 8801 9e3b fcfa fc3a
00000020: 5508 8cbb 1672 be38 2b95 69bb 278c 96bb
00000030: 374c 9939 e1d4 d2ba 1cb8 053a f3ca 7339
00000040: 75be 56bb 3bf6 c5ba 0687 ca3a 9536 7b3b
00000050: 3053 223a 65ad 48b8 902e 8639 0b14 b2ba
00000060: bbf4 4439 6e01 feb9 228d b9ba 3496 bf3a
00000070: 88e4 f9b8 0e98 723b eea2 adbb ad10 88ba
00000080: 4a4c 7aba c860 8f3b f658 3cba b7be 873a
00000090: 7489 61bb b3d8 9bba f1f4 12ba 9357 84ba
000000a0: f3a1 383b 0e3e c8ba e514 a1ba 69e2 fbba
000000b0: 888a 58ba 163f 74b9 d1c2 8dbb a71a 503a
000000c0: 5e1b 64ba c64c b5b9 e838 41b9 7906 ef37
000000d0: ca37 323b e127 a3b9 eaed 6eb9 f5bd 2f3a
000000e0: 67cf 5b3a 129a 1dba 666a 9eba f1ee 93ba
000000f0: 8c7a d03a 71d6 b8bb deb2 3b3a 04a3 e5b7
00000100: b63c e4ba eef1 c238 339e ab3a 3236 a039
00000110: f2ff 2d3b 512c 833b 1e5b 43bb d893 6a3a
00000120: a18e b3bb 34a0 bcba 78cd 1c3a 8982 f6ba
00000130: aca9 813b 5d0f 3cba ae49 5638 7c30 323b
00000140: ec8a 293b ec87 00ba 0c51 33b9 2225 cfb9
00000150: bfe9 3dbb dd8f 2dba d7e7 83bb 04bd 06bb
00000160: c761 82bb 60d2 2239 d92e 9937 4ef6 97ba
00000170: 14ac 8438 40b7 7f37 a349 003c 14a3 bab9
00000180: 485e 453b 625f 703b 46f7 843b 90bc 69bb
00000190: a885 e539 c212 033b 6e0d deba 44f0 8039
000001a0: 1031 4eba dc69 31bb e644 cdba 4c7d 6839
000001b0: ae01 bfb9 21ba 2538 7aef 2f3b 6817 b33b
000001c0: 226e f0b9 8eb8 9e37 ec69 10bb 5ca3 2fb7
000001d0: d003 81ba 9ce7 be39 4244 ceb9 c059 a43a
000001e0: 1c9c a139 14d5 16bb b0a2 ff36 1eed 44bb
000001f0: 12df 48bb 9a70 1a3b b015 c838 8278 9438
-0.0014554651 0.00027008634 -0.0003334174 0.0022454634 -0.0002316667 -0.00028381098 0.00482196 0.0019300873
-0.004273454 9.081156e-05 -0.003564189 -0.004594344 0.0002923922 -0.0016085171 0.0005100982 0.0002324989
-0.003276733 -0.001510329 0.0015451617 0.0038332094 0.00061922055 -4.7845202e-05 0.00025593163 -0.0013586296
0.00018783186 -0.0004844772 -0.0014156441 0.0014616908 -0.000119158125 0.0037016901 -0.0052989637 -0.0010380946
-0.0009548111 0.004375551 -0.0007184887 0.001035652 -0.0034414204 -0.0011890143 -0.0005605957 -0.00100969
0.00281727 -0.0015277283 -0.0012289552 -0.0019217256 -0.0008260389 -0.00023293155 -0.0043262024 0.0007938542
-0.0008701588 -0.0003458021 -0.00018427114 2.8494034e-05 0.0027193897 -0.00031119495 -0.00022786079 0.0006704026
0.00083850924 -0.0006012033 -0.0012086153 -0.001128642 0.0015905662 -0.005640798 0.0007160137 -2.7374837e-05
-0.0017413113 9.295704e-05 0.0013093412 0.00030557957 0.002655026 0.0040030857 -0.0029808949 0.0008948422
-0.005479649 -0.0014391006 0.0005981545 -0.0018807213 0.003956994 -0.000717392 5.1090195e-05 0.0027189543
0.0025870157 -0.00049030664 -0.00017100963 -0.00039509783 -0.0028978435 -0.00066208636 -0.00402544 -0.002055944
-0.003978941 0.00015527895 1.8260836e-05 -0.001159379 6.3263025e-05 1.5241851e-05 0.007830056 -0.00035598187
0.003011601 0.0036677946 0.0040577976 -0.003566537 0.00043777865 0.0020000194 -0.0016941258 0.00024593074
-0.0007865587 -0.0027071154 -0.0015660792 0.00022171921 -0.0003643161 3.951241e-05 0.002684562 0.0054654367
-0.00045858423 1.8921008e-05 -0.002203579 -1.0468848e-05 -0.0009843055 0.00036412186 -0.00039342238 0.0012538955
0.00030824624 -0.0023015188 7.6185315e-06 -0.003004856 -0.0030650538 0.002356565 9.540783e-05 7.079636e-05

exp_avg_sq f4 [128]
00000000: 5cf4 5838 373f d237 7d77 a738 873f 1038
00000010: 8de8 df36 0efb 4a38 69e5 1d38 ee2b be38
00000020: adc1 6139 272f da37 8786 2e39 5c27 5039
00000030: 5193 1838 eeea 3b39 1d6d 9e38 e6c3 8536
00000040: 4ad1 5e38 38b4 9d38 0fc4 f638 659a 8538
00000050: 8058 0039 1f35 8b38 5db9 fa37 c195 d236
00000060: fa33 3037 2e1e fa38 15e9 c638 d2ef 4339
00000070: 4f0b 2338 232d 3338 a698 7739 7644 4a38
00000080: 3825 e838 675f 4337 6676 b038 1f43 5538
00000090: 834e 3639 e6ff 2139 6814 9b37 e1d9 0038
000000a0: 9185 3537 3b24 7338 1655 5638 e9f1 1338
000000b0: cf7a 0837 ba47 0239 ab73 c739 6d60 ea37
000000c0: 50d8 0238 37ed 7137 6341 8c39 c4bb 4737
000000d0: 085a a237 ef6e bf39 3fd4 1d39 5813 fa37
000000e0: f7f2 1d39 1721 7337 9c5f a336 e4a6 9838
000000f0: d3fa fa37 5712 4b39 72dd fa37 293c 1738
00000100: 63ca 5337 d4ee d837 4c25 c038 c7d5 8b38
00000110: bfa0 e537 b913 4a37 6b7a bf39 b706 fe36
00000120: 1d3a 0f39 2831 1139 4d2f 6838 b485 ab39
00000130: 3879 7337 b2d2 8937 429e 8237 7776 8338
00000140: 59ce 4439 e44e 7039 964d c637 e76d a037
00000150: 16fc 6f39 32f2 f338 0aec 0c38 6d11 7b37
00000160: 3477 6738 eb93 4c38 ed47 c536 8926 7b38
00000170: 6ed0 ed37 d6f8 3638 2b52 3c38 32ed 3d37
00000180: 6deb 4337 f901 6a37 f6e9 2c38 c466 2c39
00000190: f743 9d37 f371 4a39 777b 1939 22b1 8137
000001a0: 3760 1f39 fc58 9839 5d4d 4b37 be30 ac37
000001b0: 0e23 1037 7fa6 1738 5fb8 8f38 4f53 0938
000001c0: a4ef b438 efe8 6338 73a8 7439 d1c4 4036
000001d0: c33c f638 4d82 0538 5dff cb37 7271 1438
000001e0: 14db d938 7dbe 0439 dca4 c736 b7a8 d139
000001f0: fe81 f639 496a 5137 4524 4337 5091 ae39
5.172599e-05 2.5063388e-05 7.985437e-05 3.439144e-05 6.6729904e-06 4.8394366e-05 3.764537e-05 9.0680885e-05
0.00021529822 2.6009582e-05 0.00016644048 0.00019851088 3.6376823e-05 0.00017921228 7.554351e-05 3.9865145e-06
5.312384e-05 7.519912e-05 0.00011766713 6.3706924e-05 0.0001224 6.637931e-05 2.9888639e-05 6.2759214e-06
1.0502519e-05 0.0001192655 9.484791e-05 0.00018685989 3.887276e-05 4.2718963e-05 0.00023612622 4.8224312e-05
0.000110695546 1.1645118e-05 8.4143874e-05 5.084567e-05 0.0001738612 0.00015449486 1.8486942e-05 3.0720494e-05
1.0819539e-05 5.7969457e-05 5.110082e-05 3.5272828e-05 8.134825e-06 0.00012424486 0.00038042417 2.7939876e-05
3.1195872e-05 1.441995e-05 0.00026751598 1.1905042e-05 1.9353829e-05 0.0003651301 0.00015051755 2.981133e-05
0.00015063198 1.4491633e-05 4.868909e-06 7.2790106e-05 2.9919122e-05 0.00019366421 2.990544e-05 3.6057234e-05
1.2623702e-05 2.586042e-05 9.1622205e-05 6.6678556e-05 2.737378e-05 1.204473e-05 0.00036521567 7.5705716e-06
0.00013659192 0.0001384659 5.5357163e-05 0.00032715278 1.4512152e-05 1.6429785e-05 1.5570902e-05 6.2686326e-05
0.00018768887 0.00022917573 2.3639568e-05 1.9124664e-05 0.00022886725 0.00011632255 3.359843e-05 1.4964823e-05
5.518571e-05 4.877515e-05 5.879431e-06 5.9878952e-05 2.834966e-05 4.3623928e-05 4.4899218e-05 1.1320504e-05
1.167772e-05 1.3947946e-05 4.122589e-05 0.00016441481 1.8747507e-05 0.0001930667 0.00014637211 1.5460482e-05
0.00015199264 0.00029057998 1.2117755e-05 2.0526695e-05 8.591231e-06 3.6156267e-05 6.853113e-05 3.2740933e-05
8.6277054e-05 5.4337954e-05 0.00023332406 2.8724792e-06 0.00011741512 3.1831023e-05 2.4318399e-05 3.5391604e-05
0.00010388173 0.00012659463 5.9498543e-06 0.0003998929 0.00047017628 1.2482117e-05 1.163135e-05 0.00033296132
