ML Agents tutorial/Assets/results/RollerBall_2walls/RollerBall/RollerBall-791365.pt (torch, 446793 bytes, 39 tensors)

network_body._body_endoder.seq_layers.0.weight f4 [128, 8]
000000 bc 0d 62 3d 5d 20 76 be fd 60 34 3e 28 e4 d0 bc
       0.05518888 -0.24035783 0.17615123 -0.025499418
000010 93 25 c2 3e 65 d6 4a be 0f 58 78 be d6 7c dd 3e
       0.37919292 -0.19808348 -0.24252342 0.43259305
000020 f6 31 21 3f 29 02 e8 be 88 b5 80 be e2 05 62 3e
       0.6296686 -0.45314148 -0.25138497 0.22072557
000030 f5 cd 5e 3f 20 23 03 3e 1c 77 eb 3e 6b c9 60 bf
       0.87033015 0.12806368 0.4598931 -0.8780734
000040 38 54 fa 3e 6d d5 c1 be 9f 88 35 be 8e 2f aa 3d
       0.4889238 -0.37858143 -0.17727898 0.083098516
000050 f3 74 95 be 08 58 0b 3f 6a 1a c3 3d 98 e4 56 be
       -0.29190788 0.544312 0.095265225 -0.20985639
000060 4c 92 c7 be 29 25 74 3f cd 64 d4 be 3c db a5 3e
       -0.38978803 0.953692 -0.41483155 0.32393825
000070 3c 5f 20 be 9d 4c 6a bc d0 50 8a be e3 a7 d6 be
       -0.15661329 -0.014300493 -0.2701478 -0.41924962
000080 07 31 1b 3d bb e3 90 3d 04 17 d0 3b 3d 31 9b 3e
       0.037888553 0.07074686 0.0063504 0.30311003
000090 49 96 b5 be 84 17 37 3d cc 00 59 3c 6a 14 16 3e
       -0.3546622 0.04470016 0.013244819 0.14656225
0000a0 8b eb b8 3e b1 33 16 3e e3 75 b8 3e 00 2d 16 3f
       0.36117205 0.14668156 0.3602744 0.58662415
0000b0 5b 40 0d bf c3 64 e8 bd 3f 21 a1 3e 7b e6 da bd
       -0.55176324 -0.11347344 0.31470677 -0.10688492
0000c0 7e 46 42 be 20 08 f2 be 65 da fd be d6 ad 6c bd
       -0.18972203 -0.47271824 -0.49580684 -0.05778297
0000d0 fe e6 d0 3e 31 e3 7e 3e a4 e2 95 be 0c 7b cc be
       0.40801233 0.24891354 -0.29274476 -0.39937627
0000e0 5d 7b 99 be 71 0c 27 3f 41 81 4b 3f b0 a6 91 be
       -0.2997693 0.6525336 0.794941 -0.28447485
0000f0 60 05 be be 3f 1d b1 be 89 06 0b bf ee b3 95 be
       -0.37113476 -0.34592625 -0.54306847 -0.29238838
000100 f2 98 8f bd ed f0 8e 3e 99 8a e0 3e 51 ba 2a 3d
       -0.07011594 0.27918187 0.43855742 0.04168159
000110 60 2b 2a 3e 45 b7 1c bc 48 4f 0d be bf 76 8a 3e
       0.16618109 -0.009565179 -0.13799775 0.2704372
000120 a1 91 b9 3e f5 20 bd bd 97 61 06 be 54 2c 00 be
       0.3624392 -0.09234802 -0.13123165 -0.1251691
000130 09 da 1b be 7e 86 e7 bd 3c de 07 bd a7 40 2a bf
       -0.15219893 -0.11304949 -0.033170924 -0.665049
000140 9b 47 58 3e c1 87 23 bd ce fb 0d 3f 2f 28 0e bf
       0.21121065 -0.039924387 0.5546235 -0.55530065
000150 43 78 16 3e 51 a5 3b 3f 0d cc ed be 59 bf c6 3e
       0.14694314 0.7329913 -0.4644474 0.38817862
000160 4e a6 e8 bd 49 ba 7f be 15 6f a0 3e 6e 64 2c be
       -0.11359845 -0.24973406 0.3133475 -0.16835186
000170 a6 d8 93 bd 4c 1d 0b 3f fe cf 28 bd 4e ad 2e 3e
       -0.07219057 0.5434158 -0.04121398 0.17058298
000180 a3 8e 08 3f d5 39 10 bf 6a d9 40 be 91 15 55 3c
       0.53342646 -0.56338245 -0.18832937 0.01300563
000190 34 3e 0f 3e f7 1f 93 3d d3 41 c4 3e a4 3d 56 be
       0.13988572 0.07183831 0.3833147 -0.20921952
0001a0 8a 6f 0e 3e d8 3e b6 3e 5d 15 f0 3e ca 3b 85 3f
       0.13909736 0.3559482 0.468913 1.0408871
0001b0 7a f8 bd 3d bf 98 df 3e 1e 2f ad be 8c 53 78 bd
       0.09275909 0.43671224 -0.3382501 -0.06062655
0001c0 02 ad d3 be 6d f6 ac 3d d4 4d 76 3e 0c f0 f2 3e
       -0.41342932 0.084454395 0.24053127 0.47448766
0001d0 b1 8e e6 3e 39 a9 c6 3b 3e 69 e9 3e 93 cd 09 bf
       0.4503074 0.0060626534 0.45588106 -0.53829306
0001e0 fd 77 8b 3e dd 15 33 bd 71 ea aa bd 41 bb 70 3d
       0.2723998 -0.043722022 -0.083454974 0.05877233
0001f0 66 18 fa bd 8a d7 55 be 7f ab 0e 3e 83 0b 10 3d
       -0.12211685 -0.20883003 0.13932608 0.03516723
000200 f7 5b 3b bf d1 6f 1e be c0 38 38 3e 8d 21 d5 bd
       -0.731872 -0.15472342 0.17990398 -0.1040679
000210 82 d3 d3 be d6 da b6 be 3f 27 f6 3e db a5 14 3f
       -0.41372305 -0.35713834 0.48076817 0.58065575
000220 44 57 64 bf 4d eb 15 3d c7 3f 33 3e ec 12 d6 3d
       -0.89195657 0.036601353 0.17504798 0.10452828
000230 f3 da 55 3e 9d f4 0b 3e c2 4c 0c be 5c eb 83 3e
       0.20884304 0.13667531 -0.13701156 0.25765502
000240 e1 bc 2f be 46 ea 53 be 88 0c 2e 3e 32 ae 04 3d
       -0.17161895 -0.20694837 0.16996968 0.032392688
000250 6b c9 51 be e0 d1 aa 3d 8f ed 53 bf a8 e3 3e 3d
       -0.20486991 0.08340812 -0.8278436 0.04660383
000260 f3 ca 59 be 9a e9 53 bd 91 3b 42 be 4e 5f 8d be
       -0.21268825 -0.05173645 -0.18968035 -0.27611774
000270 a7 e7 b0 be c9 ed 87 3e fd 35 32 be 4a 89 c7 bd
       -0.34551737 0.26548603 -0.17403407 -0.09742983
000280 5c 23 39 be 67 3c ca bd aa fb fa bd a6 41 8c 3e
       -0.18079895 -0.09874802 -0.12255032 0.27393836
000290 df 90 f5 3e 09 b3 05 be c4 a2 9b be 98 7b 87 3e
       0.4796209 -0.13056578 -0.30397618 0.26461482
0002a0 cc c9 9a 3e 96 d3 82 3d 23 bb 9f be c3 94 b6 3e
       0.30232084 0.06388013 -0.3119746 0.3566037
0002b0 3f d5 b0 3e 98 08 98 3e 44 f9 f5 3e 23 69 96 3e
       0.34537694 0.29694057 0.48041737 0.29377088
0002c0 98 a8 66 3e 96 b1 5d 3e 16 ac 6b be ed c9 be 3e
       0.22525251 0.21649775 -0.23014864 0.37263432
0002d0 d7 ba e9 3e 0f d4 97 bd 70 60 52 3f 32 45 eb 3e
       0.4565036 -0.07413494 0.821784 0.4595123
0002e0 af ac 2f be 3f e6 57 be 30 0a d3 bd 4e c8 27 3f
       -0.17155717 -0.21083926 -0.103046775 0.65540016
0002f0 74 c5 c3 bc f7 0d ae 3d f2 9d f8 be 94 7c 87 be
       -0.023897864 0.08498757 -0.48558003 -0.26462233
000300 76 bc f8 3e ba 2c ae be 71 ba 02 bd a2 0f 35 3d
       0.48581284 -0.340185 -0.031916086 0.04420436
000310 3c 3f e2 3d ac 3a 22 bf 6e 76 3f bd b5 dd 4e 3e
       0.11047217 -0.63370776 -0.046743803 0.20201762
000320 49 5e 5c bd 3e 8b 63 3f e4 95 95 bd db 20 a2 3e
       -0.053800855 0.8888434 -0.0730398 0.31665692
000330 3a a3 10 bd ab d4 18 3f 57 a7 4d 3f ff 6b 77 be
       -0.035311915 0.59699506 0.80333465 -0.24162291
000340 95 f7 07 3e 87 87 71 3e 6f ef 22 bd 7a 6d ca be
       0.13278039 0.23586856 -0.039779123 -0.3953665
000350 8e b3 46 be 0e d9 de 3e b7 19 08 bd 6a b9 38 3e
       -0.19404432 0.43524975 -0.03322765 0.1803948
000360 ec 35 17 bf 09 7e ca be 05 2b 3c 3e 5f 78 b0 3e
       -0.59066653 -0.39549282 0.18375786 0.34466836
000370 2c 7c 24 3c 5d 9a 0f bc ed 57 2c bf 95 dc 5e bd
       0.0100393705 -0.00876483 -0.67321664 -0.054409582
000380 ca 7c f7 be cf cc 5f be 66 70 bb 3e ec a0 0e 3f
       -0.48337394 -0.21855472 0.3660919 0.557143
000390 ef 46 f3 be 0c 68 ed bd 34 d3 4d 3e 74 fb fb 3e
       -0.47515056 -0.11592111 0.20100099 0.4921528
0003a0 7f 06 60 3c 0a 0d 60 3e c9 4d 72 bf 90 ab 93 be
       0.013673424 0.21879974 -0.9464994 -0.2884183
0003b0 32 90 db 3d 8c 28 25 be 8e 29 ac 3e 90 0f 5b be
       0.107208624 -0.16128749 0.33625454 -0.21392655
0003c0 b0 bf d5 bd 5b d7 f4 3d 83 54 27 3e 7f b4 96 3d
       -0.10436952 0.11955138 0.16340832 0.07358646
0003d0 13 08 78 be 18 d9 e4 3e 94 48 36 3e 0a e9 b9 bd
       -0.2422183 0.4469688 0.17801124 -0.09077652
0003e0 b1 bb 87 bd d3 66 a1 3e ea 7f bb 3e 0b 77 f3 3e
       -0.06627596 0.3152376 0.36621028 0.4755176
0003f0 1e 5d 71 3d 89 cb 84 bd f0 3f d8 be 3b 5e 2c bf
       0.058926694 -0.06484134 -0.4223628 -0.67331284

network_body._body_endoder.seq_layers.0.bias f4 [128]
000000 c8 4d 16 be d9 4d 06 3d bb 9f c2 ba 5b 10 b9 bd
       -0.14678109 0.032789085 -0.0014848629 -0.09036323
000010 31 65 de bd 2a b8 3b bc ce b8 f1 bd d9 22 1e bd
       -0.108591445 -0.011457482 -0.11802827 -0.038607452
000020 11 f8 be bc 11 30 59 3d 99 69 a0 bd a2 8c 9b bc
       -0.023311647 0.053024355 -0.07832641 -0.018987957
000030 9d 5b 6e bc e7 f0 17 3d 4d df 01 3e 81 56 2a be
       -0.0145482095 0.037094977 0.12682839 -0.16634561
000040 a6 89 03 3e 21 ea f1 bd 11 75 3e bd 5e ad bf bd
       0.12845477 -0.11812235 -0.046498362 -0.09359239
000050 e3 3b de bb 08 a2 bd bd f1 bd 13 bd 05 cb d8 bd
       -0.0067820414 -0.09259421 -0.036069814 -0.10585598
000060 58 a8 d2 bd 7e c4 06 3d e9 0e 0a bd bf 80 be bd
       -0.10286015 0.032902233 -0.033705626 -0.093019
000070 96 63 88 bd a7 83 21 be 30 c2 d7 bc cc 8f e7 3d
       -0.066596195 -0.15772878 -0.026337713 0.11306724
000080 d2 4b cb bc 57 1f ff bd 1c 7b 15 3c 25 71 5f bd
       -0.024816427 -0.124571495 0.00912359 -0.054551262
000090 20 6c 0b be 56 b4 eb 3c f5 4f 4c be 31 94 d5 bd
       -0.13615465 0.028772514 -0.19952376 -0.10428656
0000a0 16 58 d4 bd f9 46 1f be d5 36 89 bd c7 10 e8 bd
       -0.103683636 -0.15554418 -0.066999115 -0.11331325
0000b0 29 dc 15 be 0b 53 bc 3c 06 44 92 bb d0 12 2d 3c
       -0.14634766 0.022988817 -0.0044636754 0.010563567
0000c0 d7 f4 d9 bd d1 40 4f bb 4c 88 c4 3c 6d 4a 9c 3b
       -0.106424026 -0.0031624327 0.023990773 0.0047696144
0000d0 68 43 03 be e5 a2 8e 3c 53 ed 3c bd c9 79 59 bd
       -0.12818682 0.017411659 -0.046124768 -0.05309466
0000e0 dd 25 6d bd 27 11 26 be f6 f8 aa bc 80 c7 21 bb
       -0.057897437 -0.1621748 -0.020870667 -0.0024685562
0000f0 73 54 17 be f9 8f 51 bd cb bb 72 bb e5 aa 9e bd
       -0.14778309 -0.051162694 -0.0037038203 -0.07747439
000100 33 81 07 be f3 50 6d bc 25 8d 06 bc da 28 12 3d
       -0.1323288 -0.014484632 -0.008212362 0.03568349
000110 75 1b 94 bc 22 58 28 be 85 f7 bc 3c f4 db 8d be
       -0.018079499 -0.1643987 0.023067245 -0.27706873
000120 70 43 2d 3d 4d 4c 00 3d 0e 2f 0f bd 1e 70 81 bc
       0.04230064 0.031322766 -0.034956984 -0.015800532
000130 4e ed 79 3b eb 23 34 3d 85 16 60 bc ba 51 e1 bd
       0.003813583 0.043979567 -0.013677244 -0.11001916
000140 3e 9e a4 3c 2f 40 41 3d e2 a9 73 bc 1e 87 0d be
       0.020094987 0.04718035 -0.014872046 -0.13821074
000150 fe 05 9d bd 76 a0 4c bc 53 9d 9f bd 60 8c 31 be
       -0.076671585 -0.012489429 -0.07793679 -0.17338705
000160 46 94 2a be 30 f3 94 bc 33 6d 96 bd cf 5d 24 be
       -0.16658124 -0.018182367 -0.07345047 -0.1605141
000170 de f9 0c 3b 44 a1 16 be 61 27 e8 bc e1 ce dd bd
       0.0021511237 -0.14709955 -0.02833909 -0.10830475
000180 6b 9b 09 be 6e c4 e3 bd 4b 0d 45 3b 44 5e 76 3c
       -0.13438194 -0.1112145 0.0030067738 0.015037123
000190 a3 b9 18 be 28 76 c4 bd cb 85 aa bd d1 28 71 3c
       -0.14914565 -0.09592849 -0.083263 0.014719204
0001a0 f1 99 1a 3d ec 67 1a 3c b4 0d 90 bd de 7d e3 3c
       0.037744466 0.009424191 -0.07033864 0.02776998
0001b0 9c 73 0e be 7d 8a 04 bd 97 1c 32 3d 7d 3d 8a 3c
       -0.13911289 -0.032358635 0.043484297 0.016875023
0001c0 50 99 c9 bc c5 0e d2 bc 1f 25 36 3d 87 72 10 be
       -0.024609238 -0.025641808 0.044468995 -0.14106189
0001d0 3f 3d ab bd b6 b7 ab bd 0c 07 f6 bc ad 21 e2 3c
       -0.08361291 -0.083846495 -0.030032657 0.027603948
0001e0 ee 56 5f bd ec 0a 47 bc 85 84 c6 bd d3 0a d6 bc
       -0.054526262 -0.0121486 -0.09693245 -0.026128208
0001f0 12 02 d3 bc 47 d5 05 be b5 2b ac 3d 79 03 0a 3b
       -0.025757823 -0.1306964 0.08406774 0.0021059199

network_body._body_endoder.seq_layers.2.weight f4 [128, 128]
000000 51 58 1a be 8e 72 47 bd b8 83 e5 bd 2b d1 20 be
       -0.15072753 -0.048693232 -0.11206764 -0.15704791
000010 03 4e 29 3e ab 76 77 bd 58 11 36 bd c5 57 d0 bd
       0.16533665 -0.060415905 -0.044450134 -0.10172991
000020 d8 75 d2 b8 d1 be bf bb c2 50 fd 3d 35 6f c3 3c
       -0.000100355304 -0.0058516045 0.12368919 0.023856739
000030 77 9f 07 be b9 20 1f be 16 50 b5 bb 6c 1f 16 be
       -0.13244425 -0.15539826 -0.0055332286 -0.14660424
000040 ef 26 80 3a 0a 9d 24 be b7 85 80 3d 9f 04 c4 bd
       0.0009777228 -0.1607553 0.06275504 -0.09571194
000050 ea 09 fa bd 12 a8 f4 bd da 7b 7e bd 50 c2 63 3e
       -0.12208922 -0.11946119 -0.062129833 0.22242093
000060 49 fd 24 be 66 86 82 be 42 ad c3 ba 83 36 10 3e
       -0.16112246 -0.25493163 -0.0014928954 0.14083295
000070 88 05 56 3c be d4 3d 3d 89 9f 0a be 47 0b 1d bd
       0.013062842 0.046345465 -0.1353742 -0.038340833
000080 d6 0c b9 bd 96 d4 80 be a6 04 3b ba 81 ba 0f be
       -0.090356514 -0.2516219 -0.00071341766 -0.1403599
000090 6b 13 22 bd 98 29 19 be 13 ad ca bd dc 7b 89 bd
       -0.0395693 -0.14957273 -0.098962925 -0.067130774
0000a0 c0 e6 45 3c d2 9b a7 39 e3 9f 3e 3b 26 72 db bd
       0.012078941 0.00031968817 0.0029087 -0.107151315
0000b0 1c d4 4c be 2f 53 36 be a6 06 8a bd da 8a 80 bd
       -0.20002788 -0.1780517 -0.06739549 -0.06276484
0000c0 28 e9 7b 3d 94 ea 72 bd 88 ea 07 be 78 37 cd bd
       0.061501652 -0.059305742 -0.1327306 -0.100203454
0000d0 f2 90 57 3d d7 e2 f3 3c 26 a9 02 bd f9 20 4b 3d
       0.052628465 0.029771252 -0.031899594 0.049591992
0000e0 aa 23 0d 3e b7 71 2c bd d9 eb 45 3d a6 e4 93 be
       0.13783136 -0.042100634 0.048320625 -0.28885382
0000f0 0b 8d b5 bd 20 b0 ef 3c c6 0c 29 be a3 be 1b be
       -0.088647924 0.029258788 -0.16508779 -0.15209441
000100 30 bf 5c bd af c3 1b be 6d ed 25 be e3 d5 12 be
       -0.053893268 -0.15211366 -0.16203852 -0.14339404
000110 0d 72 52 3d a6 21 7c bd 6a 55 0f 3c fd f6 37 be
       0.0513783 -0.061555527 0.008748392 -0.17965312
000120 44 d3 90 be e0 34 fd bd 9e a0 1d be 6a c1 eb bd
       -0.28286183 -0.12363601 -0.15393302 -0.115115
000130 36 c4 04 3d 3d a8 af 3d 5d f3 c7 bd 2d a3 e4 bd
       0.032413684 0.08577011 -0.09763215 -0.11163936
000140 6a cb c7 bd 6b 00 b5 bd 4c a8 fe bd 6d 64 8a bd
       -0.09755595 -0.0883797 -0.12434444 -0.06757436
000150 34 fe e0 3c 22 4b 4c bc 11 32 d1 bd 58 81 0c be
       0.027464963 -0.012469085 -0.102146275 -0.13721216
000160 16 b0 ef 3c 54 9f 73 bd 93 24 ed bd 1d 16 5f 3e
       0.029258769 -0.05947812 -0.115792416 0.2178578
000170 5e 78 5b be 0b f5 98 3d 7f a5 04 3e 9a 23 14 be
       -0.21432635 0.07468613 0.12953757 -0.14466706
000180 5f c6 e5 bc 2d ae 1a be b2 d8 74 bc ba 0d aa 3d
       -0.028048692 -0.15105505 -0.014944242 0.083033994
000190 2d 70 0e be 1c 18 1c be a0 68 8c 3b 45 5d b1 be
       -0.13909979 -0.15243572 0.004284933 -0.34641472
0001a0 86 6c 42 bd 82 63 ab 3d 05 0e 4e bd 98 10 bd bd
       -0.047466777 0.08368589 -0.05030634 -0.09231681
0001b0 f8 63 33 3e bf de 9d 3b 8b 52 56 3d 94 d9 27 bc
       0.17518604 0.004817813 0.052324813 -0.010244746
0001c0 b5 9a b4 bd b4 f2 90 3c b1 79 0c be e7 1a c3 3c
       -0.088185705 0.017693855 -0.13718297 0.023816539
0001d0 7d 15 25 be d8 d0 1f bd fe a3 77 3e 50 30 3f 3d
       -0.16121478 -0.03901753 0.24183652 0.046676934
0001e0 e1 36 af bd 46 5d a7 bc 54 45 8a bd 42 37 db bc
       -0.08555389 -0.020430218 -0.067515045 -0.026759747
0001f0 e7 1a 93 3c 6a b3 4c bd f0 f4 ec bd 4c 2d 7c 3a
       0.017957164 -0.04997579 -0.115701556 0.0009619787
000200 c6 fe cd 3d f1 85 09 bd b0 92 59 bd 44 5b ad bd
       0.1005836 -0.033575002 -0.053118408 -0.08464673
000210 c7 e8 8b be 45 74 cf 3b a2 ec 0c be e8 16 11 be
       -0.27326033 0.006330999 -0.13762143 -0.14168894
000220 9d cd a8 bd 3b 4d 2e bb 1d d7 30 3d 44 57 ad bd
       -0.082423426 -0.0026596326 0.043173898 -0.0846391
000230 e5 f0 af 3d ba 10 39 3e f0 06 40 be 15 1b cf bc
       0.08590869 0.18072787 -0.18752646 -0.025281468
000240 ad 5d 04 be 8e 7d 20 be a7 01 e0 bd 5f ff 26 be
       -0.1292636 -0.15672895 -0.10937815 -0.16308354
000250 58 3d 01 be ba f2 da bd 0d 15 21 be 40 fe 41 be
       -0.12621057 -0.10690828 -0.15730686 -0.18944645
000260 3c e5 e2 3d c9 0e 99 be 10 e6 6c bd 4a a7 95 be
       0.11078879 -0.29894093 -0.057836592 -0.29229194
000270 d8 fa ec bd 1c 02 c7 3c 18 89 86 be e9 75 93 3e
       -0.11571282 0.024292998 -0.2627647 0.28800896
000280 1f 92 26 bd 57 ee 91 3d f0 d0 5b be 9a ac cd 3c
       -0.040666696 0.07125538 -0.21466422 0.025106717
000290 c3 7b 43 bd fb e0 84 be f7 4b 8d bc 3b 3b ba bd
       -0.04772545 -0.25952896 -0.017248137 -0.090933286
0002a0 ec 0d 37 be 0c 32 02 be eb 28 f6 3c 96 8d 43 be
       -0.17876405 -0.12714404 0.030048808 -0.1909698
0002b0 ee b7 13 be 33 3a 31 bd 09 89 90 be 5f d4 73 3d
       -0.14425632 -0.043268394 -0.2822955 0.059528705
0002c0 ed 44 54 bd 02 07 09 bc 80 bf 5e 3d 60 ff 5e 3d
       -0.051823545 -0.008363487 0.054381847 0.054442763
0002d0 88 19 04 be 53 35 45 be 1d b3 b8 3d 46 b7 44 bd
       -0.12900364 -0.19258623 0.09018538 -0.048026346
0002e0 c0 98 43 be c9 13 08 bc cf b0 4d bc b7 b3 ce 3d
       -0.19101238 -0.008305498 -0.0125543615 0.10092872
0002f0 67 ec 68 be ad f4 99 3d c5 51 d6 bd 06 ea 8b 3d
       -0.2274643 0.07517371 -0.10464815 0.06831746
000300 04 e8 22 be 11 8c 9c bd fb 6a 87 bd 4a da 11 bd
       -0.1590882 -0.07643903 -0.06612202 -0.035608567
000310 8c 8d 81 3e d4 f2 d8 bd 3e 6e c1 3d 03 de 96 3c
       0.25303304 -0.10593191 0.09444855 0.01841641
000320 03 39 68 be ee 0f 92 bc 57 87 6d bd 53 4b d1 bc
       -0.22677998 -0.017829861 -0.0579904 -0.025548613
000330 ce fd 57 3d cf ce 5d 3e 0b e7 b8 bd 86 70 66 bd
       0.05273228 0.21660922 -0.09028443 -0.056259654
000340 44 95 ca 3c f8 94 ff bd 45 ba 8d 3d 39 c8 e7 3c
       0.024729379 -0.124795854 0.06920294 0.028293716
000350 2f 10 48 3c 48 68 77 bd a8 d2 9b be cf 77 6d be
       0.01221089 -0.060402185 -0.30434155 -0.23190235
000360 b3 88 b2 be 47 72 46 3e cd 9a 34 3b 6d 17 db bd
       -0.34869918 0.19379531 0.0027558089 -0.106978275
000370 c2 9c 84 3d fc f2 12 be cf e6 2b 3d fb 4b 06 3d
       0.06475212 -0.14350504 0.041968163 0.032787304
000380 03 f9 93 bc 3f 6f b7 3d 29 b3 4b 3e 3b e5 ab bd
       -0.018063074 0.089567654 0.19892563 -0.083933316
000390 67 ba 03 3d fb 67 c2 bc 4e 34 46 3e 44 7f 8c 3e
       0.03216019 -0.023731222 0.1935589 0.27440846
0003a0 e6 94 5d be ef 2c 06 bd 5e 1a 61 bd 4e e8 28 3e
       -0.21638831 -0.032757696 -0.054956786 0.16494867
0003b0 09 39 80 3d 85 dc 71 bd 8a b0 90 3d 3f 49 4b 3e
       0.062608786 -0.059048194 0.07064922 0.1985216
0003c0 47 b6 91 bc 69 14 3b be 51 aa 51 3e 02 7b 42 be
       -0.017787112 -0.18269505 0.20475127 -0.18992236
0003d0 43 91 fa 3d 26 16 00 3e 4d 6a 83 3b 32 3a 99 3d
       0.12234738 0.12508449 0.004010475 0.07481803
0003e0 18 f5 1f 3b ef aa 57 be 7f 40 e2 3d 69 68 cf 3c
       0.0024407562 -0.210613 0.11047458 0.025318341
0003f0 ea f7 cb 3b f0 4e 57 be d8 05 f2 3c fd 20 81 bd
       0.006224622 -0.21026206 0.029543802 -0.0630512

network_body._body_endoder.seq_layers.2.bias f4 [128]
000000 00 bb 19 be 02 d6 b3 3c b3 6c 46 bd 14 ab 1c be
       -0.15012741 0.021952633 -0.048443507 -0.15299636
000010 71 5a fd bc 01 aa 55 3d d0 35 f8 bc 6b 7e b6 bd
       -0.030926915 0.05216408 -0.030299097 -0.08910831
000020 d3 e9 1e 3b 29 c1 f5 3c 80 b3 e6 3c ab a1 0e bd
       0.0024248257 0.029999333 0.028161764 -0.034822147
000030 7e 16 b9 bd 00 fe a1 bd 61 46 02 bc cf 79 95 bc
       -0.09037493 -0.07909775 -0.00795135 -0.01824656
000040 ac 6a 10 be 0d 7c 17 bd d9 e3 34 3d 8c f0 a9 bc
       -0.14103192 -0.03698354 0.044162605 -0.020744585
000050 ff 66 b0 bc 8e dc 12 bd d5 bf 48 bd 23 6c dc bd
       -0.021533487 -0.03585487 -0.04901107 -0.10762813
000060 22 20 9d 3d f3 c4 9f bd fe ad f1 bd 99 c5 70 3d
       0.076721445 -0.07801237 -0.118007645 0.058782194
000070 67 69 a8 3b a4 aa 60 bd e9 e3 25 3c a5 41 9f bd
       0.005139518 -0.054850236 0.010125139 -0.077761926
000080 a3 e0 83 3a 26 5d 0d 3d 39 81 a4 bd a0 7a ca 3d
       0.0010061454 0.03451266 -0.0803246 0.0988667
000090 d5 31 15 be 34 4a e0 bc 94 5b 22 3d 54 98 9c 3c
       -0.1456979 -0.027379133 0.039638117 0.019115604
0000a0 a7 a4 1f 3d ce e3 45 bd 55 31 7e bd b1 62 d2 bd
       0.038975384 -0.048312955 -0.062058765 -0.1027273
0000b0 ed db 97 3c 8f 94 96 3d 1e 96 84 bb 9f f2 98 3d
       0.018537486 0.07352554 -0.0040462157 0.07468151
0000c0 d5 da 23 bd ff 56 6a 3d c5 d8 78 3d 67 5e e7 3b
       -0.040003616 0.057211872 0.060753603 0.007060814
0000d0 d3 74 0b 3b 5d ea 96 bd 3d 5e b8 bd ef 15 0e 3d
       0.002127935 -0.0736892 -0.090023495 0.034688886
0000e0 c4 e3 19 3d fd cb 32 be 92 69 44 bd bf e9 51 3d
       0.03757073 -0.17460628 -0.047952242 0.05124831
0000f0 0a bc 0a 3c 33 eb 44 3d 03 ff eb 3c 01 04 04 3e
       0.008467684 0.048075866 0.028808123 0.12892152
000100 ea b1 21 bc a9 28 40 bd ac a4 44 be 51 f5 92 3d
       -0.009869078 -0.046913777 -0.19203442 0.07175697
000110 7e 0d 60 3d 71 b7 ff 3c ad f0 26 bd 81 4d cd bd
       0.054700367 0.031215401 -0.04075687 -0.10024548
000120 9c f1 30 bc 7a 9b a6 3a 05 be 8d 3d c0 af 20 3c
       -0.010799792 0.001271113 0.06921009 0.009807527
000130 a2 ba 1f 3d 1a 56 2a be a4 2d 57 bd 2f ce 11 bd
       0.038996346 -0.16634408 -0.05253376 -0.035597023
000140 3b e7 26 3d ef 3a 99 bd a5 fe dc bd d7 e7 2d 3c
       0.040747862 -0.07481944 -0.10790757 0.010614357
000150 03 4c ce 3c 1b e9 5a bc df 8a 69 3b 54 9a 49 bd
       0.02518273 -0.013361241 0.0035635752 -0.049219444
000160 ff 4b 08 bc a2 91 56 3d e8 b2 c9 bd 84 b3 4d bd
       -0.0083189 0.05238498 -0.09848577 -0.050220028
000170 cc 3f 31 bd e3 f6 ca 3d 25 49 b9 3d 30 af bc bd
       -0.043273732 0.09910371 0.09047154 -0.09213102
000180 76 3d 70 bd a8 94 33 bc 84 29 e3 3d 28 28 af 3d
       -0.058652364 -0.010960735 0.11091903 0.08552581
000190 d8 af 90 3d 80 0c 24 3d ad b6 fb bc f0 0f 2e 3c
       0.070647895 0.040050983 -0.030726755 0.010623917
0001a0 a5 76 f4 b9 bb 9e b9 bd 3b e1 40 3c f6 e2 c0 3d
       -0.00046627704 -0.090634786 0.011772449 0.09418289
0001b0 e4 b5 c4 3c 13 ad 21 bd fb c5 5c 3d 12 c1 75 39
       0.024012513 -0.039471697 0.053899746 0.00023436945
0001c0 5a 70 21 3d 1b f8 df bc af 4e 2b 3c 84 4a 13 bc
       0.039413787 -0.027339986 0.010455771 -0.008989934
0001d0 d5 5d ca 3d 13 d7 9d 3b 0f 36 11 bd cb a5 8a bd
       0.09881178 0.0048168986 -0.035451945 -0.06769904
0001e0 1b b5 16 3d 2e 3b 20 bd f1 d1 9d bd 00 b8 ab bd
       0.03679381 -0.03911894 -0.07706059 -0.083847046
0001f0 11 f6 82 bb b5 d6 71 bd c2 a8 9e bd 97 9d 8f bd
       -0.0039966186 -0.05904265 -0.07747032 -0.0701248

action_model._continuous_distribution.log_sigma f4 [1, 2]
000000 22 ea c3 be cb 54 8e 3d
       -0.38264567 0.06949767

action_model._continuous_distribution.mu.weight f4 [2, 128]
000000 e4 ef 9a bb a5 46 b3 bd 29 ad 61 3c 52 f7 8a 3d
       -0.004728304 -0.08753709 0.013774195 0.06785454
000010 e6 66 89 3d 92 56 df bb 3b e1 04 3e bf f3 16 bd
       0.067090794 -0.00681574 0.12976544 -0.03685355
000020 7b fa f4 3c e5 57 03 3e bb 6f 02 3d 37 fd 0e bd
       0.029904595 0.12826498 0.031844836 -0.034909453
000030 78 7d df 3d 47 43 ec 3d 23 8b 1d bd 3e 8d 50 3b
       0.10912603 0.1153627 -0.03846277 0.0031822468
000040 cc bb 96 3d 45 38 1a 3a 5c df 18 bd 94 a5 df 3d
       0.07360038 0.00058830186 -0.037322387 0.109202534
000050 2e df 94 3d 04 5b 3c 3e b5 77 04 3b 7f 55 22 3c
       0.07269131 0.18394095 0.0020212953 0.009908079
000060 85 02 55 bc 4c c3 f5 bc 8d 8e f5 3d c0 66 45 bd
       -0.013001089 -0.030000351 0.1199008 -0.048193693
000070 03 39 29 3c d9 be bd 3d d6 7c b6 bc ab d9 a0 3c
       0.010328534 0.09264917 -0.022276323 0.019635042
000080 4b 37 25 bb fc c3 58 3d 5f f4 14 3d 78 b0 db bd
       -0.002520996 0.05292128 0.036365863 -0.10727018
000090 22 67 1f 3c 69 1a 05 3e 32 c2 ae 3b 8c 9e 12 3d
       0.009729179 0.12998356 0.0053332085 0.035795733
0000a0 d7 d0 52 3e d2 3d f3 3d f7 59 47 bc 8b 7d 17 3b
       0.20587479 0.11877026 -0.012167445 0.00231156
0000b0 d3 c5 f4 3d a0 a2 40 bd 27 5d 1a bb 52 8d 44 bd
       0.119517945 -0.04703009 -0.0023554058 -0.047986336
0000c0 d3 05 7a 3d e5 e6 ff 3a 11 28 b9 bd 6a 6d 11 3e
       0.06104071 0.0019523768 -0.09040845 0.14201894
0000d0 ea 36 99 bb cd e9 8d bc 68 16 0e 3e bf a2 3a 3c
       -0.0046757357 -0.017323399 0.13875735 0.011391341
0000e0 c0 49 55 3c 45 ec 22 3c a0 e9 eb 3b 06 06 41 3d
       0.013018072 0.009944026 0.007199481 0.047124885
0000f0 ba 9d 83 3c 03 92 02 bd ea 49 ba 3d 4e 58 71 3d
       0.01606642 -0.03187753 0.09096129 0.058922105
000100 5d 1f d1 3c 32 02 ac 3c e8 86 18 3d 65 db 8b 3c
       0.02552765 0.02099714 0.03723803 0.017072389
000110 e8 93 07 be 3e 23 42 3d f5 30 4a 3d 77 13 0f 3d
       -0.13240016 0.04739689 0.049363095 0.034930672
000120 98 56 1e bd 24 50 f1 3d fa 79 2e bd 82 67 8f 3d
       -0.0386568 0.11782864 -0.042596795 0.070021644
000130 3d 1d 6c 3c d9 ca 63 3d a8 5f e7 bc f6 5a fd 3d
       0.014411268 0.055613372 -0.028243855 0.12370865
000140 79 aa a5 bc 65 b2 35 bc ab 86 45 3e 19 d5 19 3c
       -0.02022289 -0.011089896 0.19289653 0.009389185
000150 a2 b2 d2 bc 15 ad a5 3d 97 e6 9a 3b 66 60 26 3e
       -0.025719944 0.080896534 0.0047271955 0.1624771
000160 de 10 cb 3c f8 21 91 b9 3f 80 bd 3b 6a 3c 9d 3d
       0.024788316 -0.00027681864 0.0057831104 0.07677539
000170 f0 d2 2e 3e c2 68 68 bd f8 fd 2c 3e 30 71 1a bc
       0.17072654 -0.05674053 0.16893756 -0.0094264
000180 4a 8c d2 3c dc 79 f5 3d 37 d9 65 bd ff ec bd 3c
       0.02570166 0.119861335 -0.056115355 0.023184298
000190 c4 05 2c bd d5 a6 cd 3a 40 47 20 3e 11 35 c3 bb
       -0.041997686 0.0015689979 0.1565218 -0.0059572537
0001a0 20 c7 6d 3c 4d 7a 8d bc f0 73 89 3d 2e 1e ad bc
       0.014512807 -0.017270232 0.067115664 -0.021132555
0001b0 17 53 15 3c 4c b2 61 3e bb 7f f1 3b 7d 22 87 3d
       0.009114048 0.22040671 0.007369963 0.06598375
0001c0 7b de a6 3b f0 28 69 bd 24 00 11 3d a7 f1 ea 3d
       0.0050924397 -0.056923807 0.035400525 0.11471873
0001d0 3e 47 43 3d cd 6f 72 3e 15 a8 35 3c 5c ee 79 3d
       0.047675364 0.23675461 0.011087437 0.061018333
0001e0 f0 c3 f1 bb 22 40 52 3e 97 d5 ed 3d fc a5 2e 3c
       -0.007378094 0.20532277 0.11613005 0.010659691
0001f0 77 79 c6 bd a9 cd 7d 3d 1a 37 2d ba 08 f9 06 bd
       -0.09691136 0.06196371 -0.0006607637 -0.03295234
000200 27 e2 94 bb 60 49 0f 3d 5c 19 52 bc 91 29 88 bb
       -0.004543561 0.034982085 -0.012823429 -0.0041553457
000210 31 3f 4f bd 95 c6 a0 bd a4 c3 94 3d ec 11 df 3d
       -0.050597373 -0.078503765 0.07263878 0.1089209
000220 e5 1a 2c 3d 82 f1 9c 3d c4 08 99 3d 7b a3 c8 3d
       0.042017836 0.076632515 0.07472375 0.097968064
000230 e6 31 bd 3d 00 1e 84 3c 09 8d d7 bd e1 81 52 bc
       0.09238033 0.016127586 -0.10524947 -0.012848348
000240 ea 97 a1 ba 74 96 82 3d e3 eb ce bd 8c a9 a5 bc
       -0.0012328599 0.06376353 -0.101035856 -0.020222448
000250 57 38 76 bd 18 ef 0b 3e 83 4c b3 3c 52 e9 74 3b
       -0.060112324 0.13665426 0.02188707 0.0037370515
000260 47 fa ba 3d 9d 61 3f 3c dc 03 76 ba 87 03 92 bd
       0.09129768 0.011680988 -0.00093847304 -0.07129579
000270 3f 32 1c 3d e1 f0 56 3d 12 a5 b2 3d 2e db f8 bd
       0.038133856 0.052475814 0.08722891 -0.1215118
000280 54 85 63 3d ba 29 07 bd f5 f4 57 bd 86 08 81 bd
       0.055547073 -0.032998778 -0.052723844 -0.06300454
000290 32 bb b7 bd fc 95 68 3d 28 4d e9 3d 55 89 49 3d
       -0.089712515 0.05678366 0.113916695 0.049203236
0002a0 75 0e cd 3d 69 12 c4 3c 89 a1 e3 3d 11 8e 00 be
       0.10012523 0.02393456 0.11114795 -0.12554194
0002b0 d8 4f b1 3d 9d a9 9d bd 76 3a 13 3d 14 96 c6 3d
       0.08657807 -0.07698367 0.035944425 0.09696594
0002c0 16 8c de bc 34 71 98 3d 13 bb 12 bd 92 1e 10 3e
       -0.027166408 0.07443467 -0.03582294 0.14074162
0002d0 8f 08 4d 3d 7f a1 be bb 27 30 d6 3b 66 b6 a6 3d
       0.05005699 -0.0058175917 0.006536502 0.081402585
0002e0 fa 5a c8 3d 5d 51 2a bc 58 0e 44 3d 01 ca 28 be
       0.097829774 -0.010395375 0.04786524 -0.16483308
0002f0 48 f8 6a 3d c2 49 f8 bd 3d ce b1 bc a1 c4 40 bd
       0.057365686 -0.12123443 -0.021704787 -0.04706252
000300 23 45 3f 3d 34 b5 53 bd 8c 07 50 bc 99 1b f5 3d
       0.046696793 -0.05168648 -0.012697112 0.119681545
000310 9d 21 45 3c 62 bf 19 bd f6 9b e8 3c 04 4d 82 3c
       0.01203194 -0.037536032 0.02839468 0.015905865
000320 3e c0 93 bd 85 4f be 3d e5 d4 cd bd ac a0 12 bd
       -0.07214402 0.09292511 -0.10050372 -0.03579776
000330 34 70 e9 3d 93 6f c9 bd ef 5c 89 bc 66 a6 55 bc
       0.11398354 -0.09835734 -0.016767947 -0.013040161
000340 01 08 af bd fb 36 85 3d c8 66 ce 3d ac 0d 78 3d
       -0.085464485 0.06504627 0.10078198 0.060559914
000350 7c 1a b3 bc e0 eb 3f bc c2 20 8f 3d e9 e8 f3 bd
       -0.021863215 -0.011713952 0.0698867 -0.119096585
000360 43 d0 20 be b1 3f e0 3d 71 7e 88 3d fb a2 bd bd
       -0.15704446 0.10949648 0.06664742 -0.09259602
000370 97 93 9d 3d f6 44 73 bd 4a 05 2b 3e 93 68 b3 bd
       0.07694166 -0.05939194 0.16701236 -0.0876018
000380 ce 86 fa 3c d0 ed 50 3d ff d8 1e bd 82 77 1f be
       0.030581858 0.051008046 -0.038781162 -0.15572932
000390 b0 b8 df bd 13 80 ce 3d d6 aa 4d 3d 53 b7 a4 3d
       -0.10923898 0.10083022 0.05021175 0.08042779
0003a0 af bb b9 3d d5 bf 5d ba f1 fe 0c bc 6d 55 89 bd
       0.09069001 -0.0008459066 -0.008605705 -0.06705747
0003b0 32 24 c7 bd da 75 8c 3d 69 95 cf 3d 73 de b8 3d
       -0.097237006 0.06858416 0.101359196 0.09026804
0003c0 cd 25 da bd ec 64 ae 3d 9f 1c 0c bd 99 0d e7 3c
       -0.10651741 0.08515343 -0.034206983 0.028204726
0003d0 0d eb aa 3c e8 c5 d9 3d c9 de 42 3d cc ff 96 3d
       0.020864034 0.10633451 0.047575746 0.07373008
0003e0 89 3d f7 3c 42 69 a1 3d 16 bc 07 3e 1b 5c 54 bd
       0.03018071 0.078814045 0.13255343 -0.05184565
0003f0 d0 dc f0 bd ed e6 3e bd df db 4b 3d ff 91 f2 3d
       -0.11760867 -0.046606947 0.049770232 0.11844253

action_model._continuous_distribution.mu.bias f4 [2]
000000 ed 2a 03 be bc 61 ce ba
       -0.12809344 -0.001574568

action_model._discrete_distribution.branches.0.weight f4 [1, 128]
000000 33 a2 41 3b e7 81 d2 3b e7 80 31 3c ab fe 64 3a
       0.002954614 0.006424177 0.010833955 0.0008735458
000010 7b 33 c3 bb c4 a8 c9 3b 9b d6 1f 3c 1b 65 cf 3b
       -0.0059570647 0.0061541516 0.009755756 0.0063291914
000020 dd 6a a7 3a 72 7c 93 3c 99 48 c1 bc 20 68 60 3c
       0.0012772937 0.018003676 -0.023594188 0.0136967
000030 e9 76 2d 3c 97 69 44 3c fa c9 0f bc d0 42 4d 3c
       0.010587432 0.011988065 -0.008776182 0.012528136
000040 82 db 8a ba d9 54 ad 3b 4e 76 c9 ba ea e6 23 3c
       -0.0010593983 0.0052896556 -0.001537034 0.010003785
000050 27 2c 1e 3c 75 53 f3 b6 97 5a 0b bc 4a 48 03 bc
       0.009654081 -7.25168e-06 -0.008505485 -0.0080128405
000060 80 22 56 3c 92 1d b8 bb 87 a0 d9 3c a3 60 a7 3b
       0.013069749 -0.0056187594 0.026565803 0.0051079555
000070 6d 99 02 bc 85 ce bf 3b 06 34 b8 bb 4f 77 9a 3b
       -0.00797115 0.0058534765 -0.005621436 0.0047139297
000080 41 50 83 3b 43 dc 9b 3b 27 5b fd 3b aa 8c 01 3c
       0.0040073697 0.004756482 0.0077318135 0.007907072
000090 f7 5e 32 bb f7 17 00 3d 5d f3 20 3b 01 02 0e 3c
       -0.0027217248 0.031272855 0.0024559118 0.00866747
0000a0 d7 43 36 bb 9f 21 65 bc 22 59 49 3c 1f b6 5d bb
       -0.0027811432 -0.013985067 0.012289317 -0.0033830476
0000b0 5f 50 33 bb 78 a8 f8 bb 31 b5 37 3a 0b 46 42 bb
       -0.0027361137 -0.0075884424 0.00070078956 -0.00296438
0000c0 07 30 06 bc f9 01 8f 3c f0 81 38 3b 43 0a 87 bc
       -0.008190162 0.017456995 0.002815362 -0.016484385
0000d0 90 05 e9 3b 83 60 d0 3a 7f 6e 66 3b a3 ea bf bb
       0.007111259 0.0015897903 0.0035161076 -0.0058568283
0000e0 d0 c5 17 3b 85 db b7 3b bb 8f 53 3b 34 06 ba 3c
       0.0023158677 0.0056108856 0.0032281715 0.022708036
0000f0 20 26 46 3b 0b 55 35 3c 7a 4e 95 ba 63 d4 b3 3c
       0.0030235127 0.011067639 -0.0011391186 0.02195186
000100 47 8f 54 3c a4 0f b5 3b 95 81 99 3c 6b ee 5e bc
       0.012973613 0.005525546 0.018738547 -0.013606648
000110 42 8c f2 ba 9a 2e 2c bb 1a d6 8c bb 7f f7 fc bb
       -0.0018504935 -0.0026272894 -0.004297984 -0.0077199335
000120 f0 66 be 3a 86 a3 bc ba b3 52 69 bc 78 a2 28 bb
       0.0014526527 -0.0014391996 -0.014240908 -0.0025731605
000130 9c d3 c2 bb 58 6a 76 3c 20 85 fe b9 4f a3 9f bc
       -0.005945636 0.015040003 -0.0004854584 -0.019487051
000140 0b 64 cc 3b 8c 2c b4 bb b7 37 e0 bb 16 4e be bc
       0.006237512 -0.0054984745 -0.006842579 -0.023230594
000150 13 cb 15 3c e2 d9 f8 bb 63 51 92 bc 0b 43 5d bb
       0.009142655 -0.007594333 -0.017861074 -0.0033761885
000160 9d 7e 03 bc ed 39 0e bc d7 fc 10 3c 5b e7 34 3b
       -0.008025792 -0.008680803 0.008849344 0.002760372
000170 4a ed d2 bb ff 51 49 bb 0d 27 ff bb 82 cc 91 3c
       -0.0064369785 -0.003071904 -0.0077866376 0.017797712
000180 4f bc 8c 3b db fa 41 bb 5d 1b cc bb 23 15 25 bc
       0.004294909 -0.0029598984 -0.006228848 -0.01007584
000190 83 4c a8 3c 62 ab cd bb 48 78 e1 3a 4a 34 c1 bb
       0.020544296 -0.006276534 0.0017201984 -0.005896126
0001a0 2c 82 b1 b8 3b 8f 72 3b 6f b4 9b 3c b2 bd de bb
       -8.464264e-05 0.0037011642 0.019006936 -0.006797516
0001b0 a9 9b 02 bc aa 84 89 3b c3 ec e3 3b 42 6f 0b 3b
       -0.007971683 0.004196723 0.0069557144 0.0021276032
0001c0 37 93 81 3b 44 51 02 bb 45 5b 77 bc 90 24 2d bc
       0.003954317 -0.0019884864 -0.015097444 -0.010567799
0001d0 a2 e5 38 3b e6 80 0c bb 9a 68 b8 bb 59 36 a9 bb
       0.0028213044 -0.0021439134 -0.005627704 -0.0051639494
0001e0 93 e5 2a 3c 15 d6 3b 3c 5d 94 00 ba 1b 8f 5c 3b
       0.010430711 0.011464615 -0.00049049204 0.0033654633
0001f0 2d 33 e3 3b 83 b7 3e bc 6e 3f c8 3a 5e 88 3b bb
       0.006933591 -0.011640432 0.0015277693 -0.0028615217

exp_avg f4 [128, 8]
000000 ec 8c 37 ba dd ee e6 39 3c e2 f5 ba df c1 86 bb
       -0.0007001895 0.00044046986 -0.001875944 -0.0041124667
000010 dd ee e6 39 45 c2 16 bc 66 64 ad b8 e5 d2 39 39
       0.00044046986 -0.009201591 -8.2679835e-05 0.00017721539
000020 94 68 1f 38 36 5f 73 b8 bd e9 90 3a 78 bd ac 38
       3.800595e-05 -5.8024387e-05 0.0011055988 8.2368904e-05
000030 36 5f 73 b8 26 bc b7 3a 05 20 17 39 ee e3 26 b8
       -5.8024387e-05 0.0014017865 0.0001441241 -3.978976e-05
000040 91 fd cf b7 cc 2e b9 37 cb c1 86 b9 6d 05 01 b9
       -2.4794399e-05 2.207551e-05 -0.0002570286 -0.0001230442
000050 cc 2e b9 37 de bb ef b9 3b 4f 8d b7 33 74 e2 37
       2.207551e-05 -0.00045725604 -1.6845404e-05 2.6995409e-05
000060 6d 14 db b9 59 5e ce 39 8e be a2 bb 20 9b 05 bb
       -0.00041786153 0.00039361676 -0.0049665635 -0.002038665
000070 59 5e ce 39 e2 97 02 bc fd b0 50 b9 03 6f 1f 3a
       0.00039361676 -0.007970782 -0.00019902359 0.00060819107
000080 50 af b4 38 e5 a5 64 b8 b2 c1 7b 39 68 29 04 3a
       8.615723e-05 -5.4513937e-05 0.00024009382 0.00050415704
000090 e4 a5 64 b8 0e f3 95 3a ec e3 90 37 71 4d 1f b8
       -5.4513934e-05 0.0011440234 1.7272272e-05 -3.7980677e-05
0000a0 01 85 89 38 7d 3e 3e b8 8a 75 9b 39 44 d3 cd 39
       6.557443e-05 -4.5357727e-05 0.00029651477 0.00039258052
0000b0 7e 3e 3e b8 e4 7c 70 3a 98 b7 f6 b7 b8 e6 4a b8
       -4.535773e-05 0.00091738836 -2.9410978e-05 -4.8375427e-05
0000c0 98 0d 02 ba ab c9 06 3a de 62 ee bb b6 c3 1c bb
       -0.0004961132 0.0005141745 -0.0072749695 -0.0023920364
0000d0 ab c9 06 3a 56 30 22 bc 32 46 18 39 a2 8c 92 3a
       0.0005141745 -0.0098992195 0.00014522 0.0011180828
0000e0 ed b6 ca 39 c1 1e 80 b9 35 2d 8c 3a bd da 11 3b
       0.00038664733 -0.00024436976 0.0010694625 0.0022255622
0000f0 c1 1e 80 b9 af f0 a8 3b 79 c7 2b 39 4e 84 74 b8
       -0.00024436976 0.005155645 0.0001638214 -5.829735e-05
000100 f7 38 0e b9 54 23 a9 38 cd e4 6c b9 b9 8b 55 ba
       -0.00013563396 8.065128e-05 -0.00022591949 -0.00081461255
000110 54 23 a9 38 ff 4b e7 ba 8c 25 30 b8 a0 b7 b3 b5
       8.065128e-05 -0.001764655 -4.1996638e-05 -1.3389981e-06
000120 40 33 c0 38 30 11 81 b7 7c d1 82 ba 90 39 51 39
       9.1648195e-05 -1.5386002e-05 -0.0009980644 0.00019953237
000130 20 11 81 b7 30 08 9e 3a 08 01 91 3a 08 af 95 39
       -1.5385973e-05 0.0012056883 0.0011062929 0.00028549903
000140 f7 88 8e 37 46 88 2c b7 d5 f0 0c 38 7f 7c d4 38
       1.6991498e-05 -1.02837275e-05 3.3602893e-05 0.00010132137
000150 46 88 2c b7 aa 47 66 39 b0 04 51 36 bc cd 3e b6
       -1.02837275e-05 0.00021961206 3.1146155e-06 -2.843196e-06
000160 e2 76 17 b7 7e 23 cb 36 7e b2 13 b8 15 d1 51 b8
       -9.027981e-06 6.0540033e-06 -3.5213765e-05 -5.0024206e-05
000170 7e 23 cb 36 10 e4 04 b9 a9 dc a8 b6 12 09 30 36
       6.0540033e-06 -0.00012673461 -5.0324784e-06 2.6231323e-06
000180 ee f9 1f b7 81 a7 48 37 ed b5 52 b9 fc 22 15 b8
       -9.53533e-06 1.1959929e-05 -0.00020094933 -3.555695e-05
000190 81 a7 48 37 80 15 99 b9 ad 01 04 b8 d6 21 4c b8
       1.1959929e-05 -0.00029198453 -3.1472813e-05 -4.8668902e-05
0001a0 ba 27 7a b4 44 08 5c 34 46 20 1d b6 be 7d 9e b5
       -2.3297517e-07 2.0492104e-07 -2.3413609e-06 -1.1808513e-06
0001b0 44 08 5c 34 b4 8c 90 b6 7a 05 32 b4 3b 82 2a 34
       2.0492104e-07 -4.3079144e-06 -1.6579534e-07 1.5879861e-07
0001c0 48 aa 89 b9 6b 05 5c 39 d6 32 04 bb da d5 b9 ba
       -0.00026257546 0.00020982853 -0.0020171902 -0.0014178113
0001d0 6b 05 5c 39 61 55 8d bb e0 f5 8a b8 5d af 06 39
       0.00020982853 -0.0043131565 -6.6261506e-05 0.00012844564
0001e0 b7 ff a0 b9 c2 38 6e 39 7a fe ee ba ca 60 f0 ba
       -0.000307081 0.00022718593 -0.0018233799 -0.0018339392
0001f0 c0 38 6e 39 08 70 94 bb 48 64 88 39 34 ba d1 39
       0.0002271859 -0.0045299567 0.00026014657 0.0004000232
000200 cf 44 ef 3a d1 8a c1 ba 36 5e 6e 3c d1 5d 22 3c
       0.001825476 -0.0014766102 0.014548829 0.009910063
000210 d1 8a c1 ba 33 56 f5 3c 6d ab 05 39 0f af a4 ba
       -0.0014766102 0.02994833 0.0001274773 -0.0012564379
000220 8b 7d 12 b8 8e 66 ef 37 6d 5f 96 b9 bb ef 4e b9
       -3.4926034e-05 2.8538776e-05 -0.00028681327 -0.00019734997
000230 8e 66 ef 37 d0 76 10 ba af 6e b6 37 2f 52 1f 38
       2.8538776e-05 -0.00055108685 2.1747632e-05 3.7985094e-05
000240 35 44 82 38 01 06 7e b8 7e 5d 51 3a a9 0e ac 39
       6.2115876e-05 -6.056391e-05 0.00079866487 0.0003281732
000250 01 06 7e b8 5b 3d 9a 3a c7 83 4c b8 68 8a fd b8
       -6.056391e-05 0.0011767553 -4.8760117e-05 -0.0001208976
000260 0c 58 ac b8 a1 d0 ae 38 6c f5 96 ba c5 c0 cc b9
       -8.217999e-05 8.335827e-05 -0.0011517233 -0.00039053537
000270 a1 d0 ae 38 d8 6d e0 ba 37 a2 34 b8 37 13 20 39
       8.335827e-05 -0.001712258 -4.306642e-05 0.00015265947
000280 fc 49 e6 ba 26 48 c5 3a e4 f1 86 bc 6b c9 15 bc
       -0.0017569656 0.0015051409 -0.016472764 -0.00914226
000290 26 48 c5 3a 44 58 fe bc f2 8e 4c ba 4c 8e 84 3a
       0.0015051409 -0.031047948 -0.0007803283 0.0010113209
0002a0 d0 3b 80 b6 45 1d 36 37 60 ba 87 b9 00 c3 f5 34
       -3.8216604e-06 1.085486e-05 -0.00025888067 4.5776687e-07
0002b0 47 1d 36 37 ae f3 77 b9 66 53 3b b7 ca 13 03 b8
       1.0854862e-05 -0.00023646533 -1.1165486e-05 -3.1251264e-05
0002c0 13 92 b1 38 78 85 be b8 8c ab ae 3a 18 0d bb 39
       8.467226e-05 -9.0847665e-05 0.0013326271 0.00035677175
0002d0 78 85 be b8 45 62 e2 3a 94 22 6d 38 2c c9 bf b9
       -9.0847665e-05 0.0017271718 5.6537407e-05 -0.00036580244
0002e0 4a f5 71 37 e9 4a d4 b7 da 58 07 3a 9e 34 10 38
       1.442183e-05 -2.5307252e-05 0.0005163081 3.438128e-05
0002f0 e9 4a d4 b7 5a 5b 05 3a 21 9b eb 37 34 bf c4 b7
       -2.5307252e-05 0.000508716 2.808642e-05 -2.3454057e-05
000300 98 69 ab 38 2e 07 e9 b7 70 d5 f9 b9 8b ac f9 39
       8.173584e-05 -2.7779108e-05 -0.00047652004 0.00047621535
000310 28 07 e9 b7 b8 86 36 3a 4d a4 ec 38 fd 57 a6 37
       -2.7779097e-05 0.00069628237 0.0001128396 1.9829715e-05
000320 3f 45 ef 36 ba 55 e4 b6 a3 29 b7 38 3d 80 17 38
       7.1308164e-06 -6.8049094e-06 8.7338754e-05 3.6120637e-05
000330 ba 55 e4 b6 51 e7 0d 39 72 37 9e b4 b6 06 64 b7
       -6.8049094e-06 0.0001353298 -2.9470135e-07 -1.35914215e-05
000340 40 ad 5d b6 e0 f4 b1 36 fa 95 d9 b8 c0 0f 22 37
       -3.303241e-06 5.3035183e-06 -0.00010375302 9.6596195e-06
000350 d0 f4 b1 36 dc c4 01 b9 f0 11 3d b8 e7 93 7f 36
       5.303511e-06 -0.00012375735 -4.5077817e-05 3.8084052e-06
000360 d2 d4 b6 36 94 2d 43 b7 43 3c 86 39 80 ca 0a b5
       5.448798e-06 -1.1633518e-05 0.0002560337 -5.170368e-07
000370 94 2d 43 b7 52 24 7b 39 8f 48 ea 37 7e c9 d0 b6
       -1.1633518e-05 0.00023950756 2.7928761e-05 -6.22234e-06
000380 38 58 c1 b8 89 5c a0 38 bd 34 4f ba 55 3a 04 ba
       -9.219389e-05 7.6466305e-05 -0.0007904282 -0.00050440925
000390 88 5c a0 38 97 04 ca ba f6 05 8b 37 f6 b7 91 38
       7.64663e-05 -0.0015412745 1.6572867e-05 6.948404e-05
0003a0 7f ad 40 b9 04 7b 62 39 68 d9 61 bb 5a e9 57 ba
       -0.00018375179 0.00021598866 -0.003446186 -0.0008236371
0003b0 04 7b 62 39 5e 24 91 bb 3b 1a fa b8 6d c7 e7 38
       0.00021598866 -0.004429384 -0.00011925815 0.00011052084
0003c0 ab 72 05 b8 12 fd ca 37 9d 71 5a b9 ac 58 37 b9
       -3.1816464e-05 2.4198122e-05 -0.00020832424 -0.00017485273
0003d0 12 fd ca 37 4b 76 02 ba 48 70 10 b7 fe e2 a1 37
       2.4198122e-05 -0.00049767335 -8.609211e-06 1.9298397e-05
0003e0 ed b0 27 b9 8d 4c 0d 39 d3 db bb ba 44 2d 62 ba
       -0.00015992271 0.00013475325 -0.001433248 -0.0008627961
0003f0 8d 4c 0d 39 4f 9c 33 bb f8 9d 7a 36 a0 6a 3a 39
       0.00013475325 -0.00274064 3.7344853e-06 0.00017778063

exp_avg_sq f4 [128, 8]
000000 3d cc 76 39 36 3a 00 37 ec 36 cb 39 6b 63 46 3a
       0.00023536473 7.642948e-06 0.00038760097 0.0007567915
000010 3e 92 00 37 b4 ec 58 3b e0 1b 68 37 f4 fe 9e 37
       7.663444e-06 0.003310007 1.3834768e-05 1.895379e-05
000020 21 38 2c 38 bf fe ae 35 6e a5 b3 39 9f b6 5e 38
       4.106027e-05 1.3038151e-06 0.00034264795 5.3099004e-05
000030 d2 40 b0 35 02 a1 d2 39 d8 81 8f 36 e2 ba 05 38
       1.3131887e-06 0.00040174281 4.276848e-06 3.188372e-05
000040 37 ff ad 38 74 62 c8 34 4b 80 b7 38 58 43 a1 37
       8.29682e-05 3.7324537e-07 8.7500164e-05 1.9224055e-05
000050 78 6d d4 34 39 af dc 37 b7 0b 09 37 17 a5 61 37
       3.9567726e-07 2.6307638e-05 8.168564e-06 1.3449483e-05
000060 0a e5 56 39 07 62 62 36 ee 21 20 3a 2c fc 8c 39
       0.00020493954 3.3733684e-06 0.00061085715 0.00026890764
000070 ba 3e 63 36 0c 60 9b 3a 6a 71 ba 37 42 fe 35 38
       3.3862148e-06 0.0011854186 2.222574e-05 4.339056e-05
000080 1f fb 9b 37 e8 b2 1c 34 c7 66 02 38 42 68 69 37
       1.8594377e-05 1.4593718e-07 3.1090134e-05 1.3912157e-05
000090 0f 93 1e 34 df f5 36 38 f5 ab 65 36 04 64 f2 36
       1.4768396e-07 4.3621167e-05 3.4223751e-06 7.2238054e-06
0000a0 d8 9f 7f 38 53 24 76 34 61 2e 89 38 c8 5d 45 37
       6.0945604e-05 2.292375e-07 6.541308e-05 1.176395e-05
0000b0 77 a9 8c 34 c4 30 47 38 66 87 f1 36 e8 0e 04 37
       2.6200334e-07 4.7490714e-05 7.198122e-06 7.871284e-06
0000c0 80 a6 ac 38 0b 5c f5 36 3c 14 b7 3a 6a a2 f1 39
       8.232612e-05 7.312284e-06 0.0013967822 0.0004608811
0000d0 e7 86 f5 36 09 48 49 3b 05 bb 5d 37 b6 b1 75 37
       7.3172737e-06 0.0030713102 1.321617e-05 1.46445145e-05
0000e0 79 3c 50 39 a1 53 81 36 5e 4e 09 39 5b 9e cc 39
       0.00019858954 3.8542353e-06 0.00013094532 0.00039027896
0000f0 55 57 81 36 49 b7 ca 3a 75 c6 6b 37 55 a3 97 37
       3.8546664e-06 0.0015466 1.4053298e-05 1.807666e-05
000100 b6 0e e1 38 a3 e2 6f 35 91 26 f1 38 9d a8 8f 38
       0.00010731576 8.936424e-07 0.00011498959 6.850178e-05
000110 21 f6 70 35 33 92 8f 39 87 63 10 38 66 2d 4a 38
       8.976513e-07 0.00027384012 3.4424967e-05 4.8202834e-05
000120 b9 39 ea 39 38 76 18 38 08 2e bc 3b 15 bc 1b 3b
       0.00044674965 3.6349724e-05 0.005742792 0.0023763229
000130 44 89 18 38 05 f7 6d 3c e6 9d 51 38 43 61 5e 39
       3.6367463e-05 0.014524226 4.9976537e-05 0.00021207803
000140 75 0c 0e 39 ef 07 45 35 57 28 cd 38 91 9a 53 38
       0.00013546816 7.3399764e-07 9.7826756e-05 5.045027e-05
000150 8c a1 4c 35 36 dd 64 38 36 94 01 38 f1 b9 0e 38
       7.6231004e-07 5.4565455e-05 3.089403e-05 3.402861e-05
000160 19 5b 15 39 32 7f 23 35 c3 ef b9 38 61 14 6f 38
       0.00014243684 6.0907325e-07 8.8661465e-05 5.700102e-05
000170 4f a3 20 35 cf a8 02 39 e2 11 59 38 0e 33 94 38
       5.984229e-07 0.00012460652 5.1753486e-05 7.0666996e-05
000180 53 34 6a 38 5c ab ba 34 d7 af dc 38 1f 73 c2 37
       5.583868e-05 3.476988e-07 0.0001052317 2.318021e-05
000190 10 9e c2 34 f6 ae e5 38 01 4e 4e 37 24 2b 9e 37
       3.6250322e-07 0.0001095216 1.22967185e-05 1.8855157e-05
0001a0 60 92 ec 38 bb 9b d6 34 2d 7c f7 38 69 da 2a 38
       0.000112806214 3.9973915e-07 0.00011801007 4.073457e-05
0001b0 c0 30 da 34 34 c4 97 38 33 26 f5 37 f0 98 44 38
       4.0641135e-07 7.236787e-05 2.9224064e-05 4.6872476e-05
0001c0 55 74 49 39 f1 37 b5 35 4f 90 bc 39 e3 ac de 38
       0.00019212191 1.3501832e-06 0.00035965673 0.000106179876
0001d0 59 89 ae 35 b5 fa e6 39 cd bc ba 38 97 22 19 39
       1.3003984e-06 0.0004405581 8.904338e-05 0.00014604103
0001e0 ac ee fb 37 1e 5b dc 36 7b d7 45 3a a1 c2 f4 39
       3.0032672e-05 6.5671184e-06 0.00075470627 0.00046684316
0001f0 4f 6d dc 36 fa 8c 38 3b a7 47 8b 36 cf 57 8d 37
       6.569236e-06 0.00281602 4.1508642e-06 1.6849399e-05
000200 dc 74 13 3a 57 e5 c5 37 63 67 37 3b 80 9f 0e 3b
       0.00056250184 2.3591025e-05 0.0027985207 0.002176255
000210 d6 b2 c5 37 ce a4 23 3c 8b 7f 84 38 88 7d c5 38
       2.3567507e-05 0.009988023 6.318007e-05 9.417074e-05
000220 c6 91 4f 39 f9 d0 5e 35 be 48 e9 38 93 b9 2e 39
       0.00019795363 8.300554e-07 0.00011123855 0.00016663065
000230 80 df 5e 35 24 6d 83 39 93 89 80 37 82 31 a7 37
       8.302668e-07 0.00025067583 1.5322852e-05 1.9931005e-05
000240 ed d0 b3 38 a7 ac 21 35 49 e5 9b 38 c5 48 27 38
       8.5743006e-05 6.0228416e-07 7.433684e-05 3.9883675e-05
000250 a5 cb 21 35 eb 74 f4 38 d6 a8 5f 37 73 92 39 37
       6.0273516e-07 0.00011656604 1.3331146e-05 1.1060957e-05
000260 a5 b1 a5 39 3d 83 22 36 a0 53 f3 39 d8 db be 39
       0.00031603608 2.4216272e-06 0.00046410877 0.0003640342
000270 de 52 22 36 27 b7 6d 3a e0 97 c4 37 a0 33 7d 38
       2.4188116e-06 0.00090681243 2.3435743e-05 6.036798e-05
000280 d2 e2 c7 39 f4 7d 08 38 ee 0c ad 3b 11 d6 08 3b
       0.00038125232 3.254223e-05 0.0052810824 0.0020879547
000290 31 93 08 38 90 ab 5c 3c 5b 2d 3d 38 f9 33 d7 38
       3.256201e-05 0.013468638 4.5103352e-05 0.000102616796
0002a0 2f e3 f1 37 e5 14 91 34 94 b8 94 38 cf a1 c5 37
       2.883523e-05 2.7023557e-07 7.09157e-05 2.3559578e-05
0002b0 d9 93 8f 34 e6 ea 95 38 c1 b5 8a 37 57 fa d3 37
       2.67434e-07 7.148627e-05 1.6535518e-05 2.5269734e-05
0002c0 eb 29 5f 38 ab 77 05 36 70 e2 d1 39 53 2f 08 39
       5.3206382e-05 1.98882e-06 0.00040032296 0.000129876
0002d0 e7 66 06 36 31 f3 4b 3a 83 f2 a4 37 dd ad 02 38
       2.0027453e-06 0.0007780074 1.9663252e-05 3.1156338e-05
0002e0 68 fb 4b 39 ee 31 8a 35 2f 86 7e 39 15 a8 f8 37
       0.00019453245 1.0296333e-06 0.00024273315 2.9642173e-05
0002f0 6b 2f 8b 35 ef 3a c0 38 c2 ac 06 38 9c 59 4e 38
       1.0370107e-06 9.166251e-05 3.2108983e-05 4.9197683e-05
000300 b8 74 95 38 40 86 a2 35 43 ac 32 39 78 d0 b8 38
       7.126614e-05 1.2109012e-06 0.00017039575 8.812634e-05
000310 8f 8b a6 35 34 d9 d9 39 ba 5a b5 36 04 5d 5d 37
       1.2408581e-06 0.00041551294 5.4047823e-06 1.3194283e-05
000320 6e 6f 08 39 a6 4c 24 35 bf f0 49 39 f2 47 12 38
       0.00013011481 6.12063e-07 0.00019258539 3.4876117e-05
000330 ba 48 2d 35 02 e7 cc 38 38 a8 30 38 3a e6 83 38
       6.4553353e-07 9.7705066e-05 4.2118336e-05 6.28945e-05
000340 cc dc 73 38 37 62 0b 35 eb 8b a4 38 57 a6 12 38
       5.8141348e-05 5.1924457e-07 7.846191e-05 3.496403e-05
000350 f7 69 0c 35 b4 d6 a7 38 fb 18 9f 37 bd c0 bd 37
       5.2308263e-07 8.003172e-05 1.896591e-05 2.2620306e-05
000360 2d 9b 05 39 64 d0 4b 35 7f 99 a4 38 5f c8 8f 38
       0.00012741676 7.592664e-07 7.84872e-05 6.8560934e-05
000370 8d 32 4b 35 54 18 ce 38 43 58 b0 37 be d7 f2 37
       7.5696954e-07 9.827377e-05 2.1021935e-05 2.894911e-05
000380 e9 cc 58 38 9f f3 9a 34 41 44 87 38 72 96 04 38
       5.168925e-05 2.8861993e-07 6.450015e-05 3.1611366e-05
000390 3a 28 99 34 5f 89 ee 38 f8 a4 f1 37 b2 a6 37 38
       2.852774e-07 0.00011374312 2.8806258e-05 4.3785847e-05
0003a0 14 ee e2 38 37 39 45 36 94 26 dc 39 a3 7b 52 39
       0.00010820865 2.938859e-06 0.00041990413 0.00020073219
0003b0 67 43 45 36 c6 de 8f 3a 6d e4 3c 37 17 d5 8b 37
       2.939452e-06 0.0010976426 1.1258858e-05 1.6669319e-05
0003c0 8e 04 04 39 f6 24 f3 34 3f 82 14 39 62 15 76 38
       0.00012590198 4.528917e-07 0.000141629 5.8670885e-05
0003d0 4d b5 ec 34 c6 b4 23 39 88 59 6f 38 e5 28 b4 38
       4.409034e-07 0.00015612235 5.7065423e-05 8.590686e-05
0003e0 ff 1f 9c 39 42 cd b8 35 10 e8 b3 39 b7 24 d5 37
       0.00029778478 1.3768806e-06 0.0003431444 2.5408675e-05
0003f0 09 f5 b8 35 58 bc 35 39 f0 bb 56 38 59 1e b0 38
       1.3780383e-06 0.00017331669 5.1196606e-05 8.397987e-05
