ML Agents tutorial/Assets/results/RollerBall_2walls/RollerBall/RollerBall-16162.onnx (onnx, 75769 bytes, 8 tensors)

network_body._body_endoder.seq_layers.0.weight f4 [128, 8]
0.25743338 0.25464988 0.2685737 0.44896868 0.47006485 -0.21294853 0.37461087 -0.42022026
0.28696355 -0.08419687 0.43036112 0.07021271 0.34032288 0.09873681 0.05578271 0.043610383
0.048936658 0.36007187 -0.07439492 -0.10750717 -0.20580782 0.37155837 0.023690397 0.5853627
-0.39011815 -0.00637906 0.3359229 0.39099762 -0.3461843 -0.38684765 -0.559099 -0.32487306
0.3280839 -0.17461273 0.42676008 0.4922364 0.21513733 -0.04224501 -0.23107165 0.073119655
-0.8049339 0.32159755 0.6563819 -0.26862285 0.568663 -0.43480712 -0.44149137 -0.49780166
-0.050058678 -0.1806464 0.041882455 -0.14722472 -0.22174032 0.075778246 -0.3477843 -0.3747235
0.06400347 0.009456645 -0.09687539 -0.39124966 -0.2876245 -0.874009 -0.30037206 -0.41375214
-0.2501032 0.058064304 -0.38183695 0.68445 0.048909225 0.15604429 -0.2088607 -0.5702718
0.6171154 0.19743733 -0.011054673 0.45401546 -0.4668623 -0.15806055 -0.6777529 -0.010476998
-0.20194629 0.6201306 -0.56165 0.27787703 -0.009531922 -0.08573109 -0.17534517 0.009728536
-0.017054997 -0.15008432 0.17027682 -0.34277368 0.07796229 -0.2553936 0.08582581 0.32851493
-0.3325073 -0.33918092 -0.41984877 -0.23436275 0.08447826 -0.105722405 0.06714403 0.28455368
0.014931683 -0.19279057 0.39604825 -0.423459 -0.4099369 0.12602477 0.19410354 -0.43870625
0.3661151 -0.7633589 -0.74718165 0.44009015 0.18570612 -0.06833874 0.07681673 -0.0005237252
0.17330883 -0.46385375 -0.18826045 0.113102235 0.7084205 -0.4202717 0.607423 -0.113213606
0.10027466 0.77227306 0.37257585 0.09529312 -0.19927843 -0.19324146 0.10649753 -0.59707326
0.41391984 0.32936946 -0.14970796 0.54180557 0.28538483 0.024944333 -0.05753754 0.26695648
-0.5992101 0.14972667 -0.49167043 0.095100135 0.16816999 0.17926566 -0.5623591 -0.37305638
0.3798427 0.2615292 -0.37414086 0.4233899 0.32136607 -0.12699743 -0.0243124 0.30368823
0.04796678 -0.5071357 0.03756995 0.17235641 0.5984577 -0.07298826 0.6927259 0.4382165
0.53574055 0.1968296 -0.15754682 0.42001763 -0.18567865 0.21472754 0.37645987 -0.0244437
-0.1560176 -0.86306816 0.0589809 -0.25575277 -0.538779 -0.046404094 -0.19590475 -0.4593027
0.34733757 0.1626384 -0.61068356 -0.021352781 0.08960081 0.05545418 -0.03666885 -0.30687508
0.32675663 -0.28643212 -0.48824674 0.394666 0.18820906 -0.072423644 0.20952405 0.038926728
0.23519139 -0.37683886 -0.038802374 0.46078068 -0.30610254 0.55672646 -0.16771333 0.24665555
0.108171605 -0.4709525 -0.17404935 0.41540602 -0.8218527 -0.45724636 -0.60805017 -0.21858738
-0.25646004 -0.24159725 -0.40365693 0.19297315 0.079591274 0.7257256 0.1828862 -0.09149124
-0.30109334 0.20054601 0.23172778 -0.50570863 0.20863548 0.06337199 0.5173729 0.16142459
0.111002915 -0.0343912 -0.39266306 -0.0385569 0.2237243 -0.5700311 -0.26420283 -0.20653686
0.097365364 0.09842016 0.13213877 -0.24128598 0.4508414 -0.37626064 0.08573416 -0.08016728
0.0684638 -0.5760489 -0.12465293 -0.50999695 0.2339149 -0.3775786 -0.28876287 0.027437795
00000000: 4fce 833e 7861 823e 7e82 893e 39df e53e
00000010: 57ac f03e 2e0f 5abe ffcc bf3e 1c27 d7be
00000020: e3ec 923e 696f acbd 4b58 dc3e aecb 8f3d
00000030: cd3e ae3e 8636 ca3d 697c 643d cda0 323d
00000040: ce71 483d 575b b83e 5d5c 98bd b82c dcbd
00000050: 49bf 52be e63c be3e 5d12 c23c 54da 153f
00000060: 91bd c7be 6f07 d1bb 16fe ab3e d730 c83e
00000070: 123f b1be e510 c6be 1d21 0fbf c355 a6be
00000080: 9dfa a73e aecd 32be 4c80 da3e 6906 fc3e
00000090: f64c 5c3e 1b09 2dbd 0c9e 6cbe c2bf 953d
000000a0: 2610 4ebf 6fa8 a43e a508 283f ef88 89be
000000b0: e693 113f 0a9f debe 280b e2be dcdf febe
000000c0: 540a 4dbd 5ffb 38be f08c 2b3d 14c2 16be
000000d0: e50f 63be a031 9b3d c910 b2be c2db bfbe
000000e0: 4014 833d 0bf0 1a3c 9b66 c6bd e051 c8be
000000f0: 8543 93be 0ebf 5fbf 5eca 99be 52d7 d3be
00000100: 870d 80be d6d4 6d3d 2280 c3be 1d38 2f3f
00000110: 0a55 483d 13ca 1f3e 94df 55be 55fd 11bf
00000120: 46fb 1d3f 032d 4a3e a91e 35bc b774 e83e
00000130: 9308 efbe a0da 21be 3781 2dbf b7a7 2bbc
00000140: 02cb 4ebe e1c0 1e3f 4bc8 0fbf e645 8e3e
00000150: c72b 1cbc c893 afbd af8d 33be 7064 1f3c
00000160: ecb6 8bbc b4af 19be 0c5d 2e3e 0880 afbe
00000170: b1aa 9f3d f3c2 82be 71c5 af3d 1c33 a83e
00000180: 663e aabe 1fa9 adbe 6bf6 d6be cafc 6fbe
00000190: f002 ad3d fd84 d8bd cf82 893d 05b1 913e
000001a0: 05a4 743c e46a 45be d6c6 ca3e 9ecf d8be
000001b0: 40e3 d1be a30c 013e 14c3 463e 1b9e e0be
000001c0: 7073 bb3e 7d6b 43bf 4c47 3fbf 7f53 e13e
000001d0: bf29 3e3e 2ef5 8bbd 1752 9d3d 9a4a 09ba
000001e0: df77 313e 3d7e edbe 59c7 40be 25a2 e73d
000001f0: 0c5b 353f da2d d7be 1380 1b3f 89dc e7bd
00000200: cd5c cd3d b0b3 453f 43c2 be3e 0a29 c33d
00000210: a50f 4cbe 17e1 45be 611b da3d cbd9 18bf
00000220: 4ded d33e 1da3 a83e 0b4d 19be c5b3 0a3f
00000230: f61d 923e 0f58 cc3c 7cac 6bbd 85ae 883e
00000240: d565 19bf f351 193e 3abc fbbe dcc3 c23d
00000250: c134 2c3e 6b91 373e c4f6 0fbf 3f01 bfbe
00000260: be7a c23e 28e7 853e 648f bfbe 90c6 d83e
00000270: 188a a43e 9d0b 02be cc2a c7bc 067d 9b3e
00000280: d078 443d a5d3 01bf f3e2 193d 337e 303e
00000290: 8634 193f de7a 95bd 7c56 313f ea5d e03e
000002a0: 4b26 093f b38d 493e f453 21be 8d0c d73e
000002b0: 8b22 3ebe 89e1 5b3e 59bf c03e 283e c8bc
000002c0: 14c3 1fbe 09f2 5cbf f595 713d 07f2 82be
000002d0: 6ced 09bf 3812 3ebd 419b 48be b929 ebbe
000002e0: 3bd6 b13e ae8a 263e c255 1cbf 07ec aebc
000002f0: a180 b73d ec23 633d 1332 16bd bb1e 9dbe
00000300: a54c a73e 3ba7 92be 7afb f9be a911 ca3e
00000310: e0b9 403e d952 94bd 798d 563e a271 1f3d
00000320: 03d6 703e 06f1 c0be 3def 1ebd 72eb eb3e
00000330: 79b9 9cbe a085 0e3f 0bbd 2bbe 4693 7c3e
00000340: 1389 dd3d b020 f1be fe39 32be 19b0 d43e
00000350: f064 52bf 321c eabe 2da9 1bbf 5fd5 5fbe
00000360: bb4e 83be 4565 77be 1fac cebe c19a 453e
00000370: c000 a33d 27c9 393f 8546 3b3e c25f bbbd
00000380: e828 9abe ef5b 4d3e 0c4a 6d3e 1f76 01bf
00000390: 8aa4 553e 2dc9 813d 8d72 043f 7d4c 253e
000003a0: 7f55 e33d c9dd 0cbd 220b c9be d7ed 1dbd
000003b0: fc17 653e 8fed 11bf 9845 87be 667e 53be
000003c0: 7e67 c73d 8290 c93d 634f 073e ac13 77be
000003d0: afd4 e63e 3ca5 c0be 6495 af3d be2e a4bd
000003e0: c036 8c3d f177 13bf 094a ffbd 298f 02bf
000003f0: 6387 6f3e fb51 c1be bad8 93be 3ac5 e03c

network_body._body_endoder.seq_layers.0.bias f4 [128]
-0.0069900393 -0.0168291 0.008364049 0.0076211235 -0.013763438 0.0141053265 0.03300577 -0.019407844
-0.017658124 0.002569959 -0.0032712168 -0.013476895 -0.0047850185 -0.0007418414 0.006596697 0.019751528
-0.0007959039 -0.010249476 0.003044876 -0.014457507 0.0041038985 -0.014958894 -0.0020394407 0.0067415144
-0.018649722 -0.0076754736 -0.00057997036 0.008429426 0.0005425046 0.010034551 0.015797641 -0.019521339
-0.0255234 -0.0026856584 0.0035451401 -0.028883725 -0.016879518 0.008648171 -0.032157212 -0.014574256
-0.0009193238 -0.013298993 -0.013883037 -0.0057966337 -0.015196625 -0.00745739 -0.025211768 0.008865027
0.0041037495 -0.024334375 -0.015813874 -0.04079737 -0.006474457 -0.028472707 0.019888116 -0.032072823
0.005037519 0.008607434 -0.015331686 0.012072329 -0.012585229 0.0040970836 -0.021060763 0.0044555133
-0.005647098 0.008333061 -0.034818314 -0.016065536 -0.012523574 -0.026115984 0.020650832 -0.016239932
0.012054345 -0.021216594 0.006566248 -0.034182623 0.005068301 -0.0067702113 -0.015562421 -0.017864952
-0.023826197 -0.006661877 -0.003256222 -0.000164458 -0.007253431 0.00067204 -0.0018236622 0.0181786
0.005464623 -0.00648043 -0.0007354354 0.012000693 -0.019877316 0.011674555 -0.00079695345 -0.006703812
-0.012601943 -0.013655705 -0.005919511 0.009134778 -0.05276336 -0.029508451 -0.0050001997 0.0072592045
0.001240447 -0.027696185 -0.00882927 -0.01882244 0.0072567123 -0.016235577 0.014264513 -0.021504663
-0.013248538 -0.015219423 0.0017817179 -0.019036783 -0.03579092 -0.032782324 -0.017314875 -0.016968034
-0.012739653 0.015045624 -0.026124163 -0.016194113 -0.041223105 -0.0059236614 -0.016471379 -0.0316385
00000000: b30c e5bb 2edd 89bc 5d09 093c 9eba f93b
00000010: 0b80 61bc 071a 673c 0f31 073d 33fd 9ebc
00000020: c5a7 90bc c26c 283b e961 56bb 32ce 5cbc
00000030: a5cb 9cbb 2278 42ba 1b29 d83b f5cd a13c
00000040: 35a4 50ba 6bed 27bc 8b8c 473b 2edf 6cbc
00000050: ff79 863b 2616 75bc 23a8 05bb ece7 dc3b
00000060: 4dc7 98bc 8a82 fbbb 2709 18ba 931b 0a3c
00000070: de36 0e3a f567 243c 0e6a 813c 37eb 9fbc
00000080: 7316 d1bc df01 30bb 9555 683b 909d ecbc
00000090: ea46 8abc 0fb1 0d3c 48b7 03bd dcc8 6ebc
000000a0: c7fe 70ba 05e4 59bc ad75 63bc b0f1 bdbb
000000b0: 44fb 78bc 1f5d f4bb e988 cebc 9e3e 113c
000000c0: bf78 863b e258 c7bc 198c 81bc 251b 27bd
000000d0: af27 d4bb 983f e9bc 67ec a23c cb5e 03bd
000000e0: c611 a53b 3206 0d3c c031 7bbc 05cb 453c
000000f0: 4732 4ebc d440 863b 9f87 acbc 8eff 913b
00000100: 4b0b b9bb 6487 083c a69d 0ebd df9b 83bc
00000110: ad2f 4dbc 30f1 d5bc ef2b a93c 9b09 85bc
00000120: 967f 453c 6cce adbc ae29 d73b 1403 0cbd
00000130: fe13 a63b a6d8 ddbb 86f9 7ebc 8559 92bc
00000140: 282f c3bc e04b dabb 5766 55bb 5c72 2cb9
00000150: 30ae edbb d72b 303a f307 efba 4aeb 943c
00000160: 9510 b33b c959 d4bb 3cca 40ba 8e9e 443c
00000170: c1d5 a2bc a246 3f3c a4ea 50ba a7ab dbbb
00000180: 6178 4ebc 2ebc 5fbc 75f8 c1bb 09aa 153c
00000190: 651e 58bd b5bb f1bc b7d8 a3bb 9fde ed3b
000001a0: 7f96 a23a 1ce3 e2bc a4a8 10bc 8531 9abc
000001b0: b7c9 ed3b 7900 85bc b4b5 693c 8c2a b0bc
000001c0: 6510 59bc e35a 79bc 8888 e93a 07f3 9bbc
000001d0: 8099 12bd c246 06bd edd7 8dbc 8c00 8bbc
000001e0: fab9 50bc ec81 763c 5702 d6bc 84a9 84bc
000001f0: 8fd9 28bd 461b c2bb fcee 86bc 5f97 01bd

network_body._body_endoder.seq_layers.2.weight f4 [128, 128]
0.033621818 0.020345446 -0.0062296535 -0.14788653 0.0949406 0.165958 -0.07751718 -0.022745961
0.20037074 0.014955551 0.014228296 -0.03376522 0.17328678 -0.052417297 0.08716647 0.07530924
0.043888852 -0.048638437 0.18498519 0.07998741 0.026003435 -0.010597469 0.03294506 0.074949846
-0.11230298 -0.09474977 -0.07824504 0.060145304 -0.018583769 0.11810387 -0.09095784 -0.012115962
0.006093044 0.05155744 0.056866735 0.1015008 -0.16051768 0.32360187 0.048974928 0.0781822
0.042132135 0.09617599 -0.09164655 0.0765694 0.12123728 0.06258078 0.03086627 -0.03678603
-0.021700406 -0.049993977 -0.045276172 0.06266669 0.09087378 -0.12778623 -0.036468234 -0.0930236
-0.023449723 -0.09571816 0.049884204 0.108828045 -0.08249268 0.017363217 -0.10269196 -0.18921411
-0.028324818 -0.13115396 -0.11814033 0.04570165 0.007863683 0.15008575 -0.13245635 0.06453216
-0.017476248 -0.026689043 -0.025284234 0.021299578 0.15390153 0.10806095 0.008788407 0.024021858
-0.031189188 -0.028409148 0.040990114 -0.054866124 -0.02347052 -0.010484072 -0.1332876 0.12980402
-0.055806227 0.09201015 0.116658255 0.10385021 0.095922515 -0.032903593 -0.03239226 0.03511658
0.06706535 0.008237606 -0.02952603 -0.022077821 0.037344713 -0.13222508 -0.05963537 -0.10004275
0.09724665 -0.05853614 0.035509404 -0.08001789 0.029553631 0.022970058 -0.08048277 -0.01622075
0.014084619 0.077253774 0.02074853 -0.14066252 0.055091854 0.10273287 0.020132327 -0.008869413
-0.10483522 -0.14306383 -0.081298366 -0.14517747 -0.07749997 -0.18445219 -0.015063741 0.021407908
-0.13076454 0.050923117 -0.06261772 0.04422874 -0.07739483 -0.092042536 -0.092045166 0.037120476
-0.010148096 0.15570457 0.09801241 -0.01592033 -0.022513164 -0.0031330232 -0.08339936 -0.009310257
-0.07590626 0.018236179 -0.07869296 0.1582687 0.060988028 0.020443084 -0.005410028 0.13037738
0.05879551 0.026968867 -0.15508534 -0.193435 -0.08565273 -0.03427191 0.009319889 0.007116769
-0.075320005 0.019957982 0.030567225 -0.042903334 0.10076976 0.04964639 0.14049385 -0.21965726
-0.029985944 0.09417834 -0.029233972 -0.06419857 0.07555132 -0.036489367 0.020851588 -0.1731472
0.11366659 0.013457695 -0.08832097 0.019930586 0.10351727 0.07186191 0.07087807 0.019085646
-0.0018324223 -0.022339175 -0.17233793 -0.004839504 -0.06637775 -0.07019786 0.116690114 0.028906796
0.038530182 0.068177655 -0.05188834 -0.06209061 -0.09451259 0.06657814 -0.00650968 -0.04729029
-0.005144124 -0.068291806 0.004836457 0.1282627 0.0042146854 -0.06954307 0.07523373 -0.21596076
0.17957734 0.077989265 0.046499413 -0.11002696 0.0018401693 -0.08484259 0.00034977065 -0.0074004987
0.051396813 0.09339091 -0.04772458 -0.07206722 0.010259721 0.103405654 -0.12490036 0.046446435
-0.016165024 -0.028680265 -0.016875852 0.17189758 0.17643031 -0.06771767 -0.12045143 -0.03135695
0.06903988 0.10934709 -0.1114521 -0.03454571 0.013231644 0.044137333 -0.100814834 0.015263729
-0.0798188 -0.03891051 0.07458876 -0.018370524 0.14317116 -0.14482228 -0.18861216 -0.0017686575
0.12910923 0.0055113835 -0.14125174 0.08022063 0.0028718382 0.0130186435 0.07755396 -0.024325889
00000000: 08b7 093d 7eab a63c 1f22 ccbb 916f 17be
00000010: 3870 c23d e5f0 293e 54c1 9ebd bd55 babc
00000020: fd2d 4d3e 2108 753c cc1d 693c 664d 0abd
00000030: 1772 313e 85b3 56bd 5684 b23d bb3b 9a3d
00000040: ccc4 333d 1939 47bd c26c 3d3e 70d0 a33d
00000050: 2805 d53c 02a1 2dbc 66f1 063d 4e7f 993d
00000060: 1bff e5bd 2b0c c2bd ef3e a0bd ec5a 763d
00000070: fd3c 98bc 71e0 f13d 1b48 babd 0782 46bc
00000080: 28a8 c73b e52d 533d 18ed 683d a7df cf3d
00000090: bf5e 24be 25af a53e ef99 483d fd1d a03d
000000a0: bf92 2c3d ebf7 c43d 30b1 bbbd 6bd0 9c3d
000000b0: 404b f83d 5a2a 803d 43db fc3c f3ac 16bd
000000c0: 0dc5 b1bc 7cc6 4cbd 8273 39bd 6557 803d
000000d0: 081c ba3d 65da 02be b75f 15bd 2883 bebd
000000e0: a219 c0bc e207 c4bd 6153 4c3d 3de1 de3d
000000f0: ecf1 a8bd 4e3d 8e3c 2a50 d2bd 58c1 41be
00000100: 7309 e8bc 394d 06be 8ff3 f1bd a731 3b3d
00000110: add6 003c 14b0 193e a3a2 07be 7029 843d
00000120: 592a 8fbc fba2 dabc e220 cfbc 747c ae3c
00000130: 5d98 1d3e 0f4f dd3d 40fd 0f3c 7dc9 c43c
00000140: 7880 ffbc 4dba e8bc 40e5 273d 4dbb 60bd
00000150: 3f45 c0bc 63c5 2bbc 8b7c 08be 58eb 043e
00000160: 1295 64bd d16f bc3d 86ea ee3d 6baf d43d
00000170: 0673 c43d ebc5 06bd bfad 04bd 67d6 0f3d
00000180: 8f59 893d 06f7 063c 93e0 f1bc 8cdc b4bc
00000190: c5f6 183d 0366 07be 3844 74bd 37e3 ccbd
000001a0: 4029 c73d 97c3 6fbd 4f72 113d 6be0 a3bd
000001b0: 751a f23c b42b bc3c 27d4 a4bd 61e1 84bc
000001c0: 2cc3 663c 3a37 9e3d d2f8 a93c d609 10be
000001d0: ffa7 613d 9c65 d23d 8dec a43c 0451 11bc
000001e0: d9b3 d6bd 537f 12be c27f a6bd 67a9 14be
000001f0: 4eb8 9ebd 09e1 3cbe e9cd 76bc a35f af3c
00000200: 24e7 05be c294 503d b83d 80bd 3229 353d
00000210: 2e81 9ebd cc80 bcbd 2d82 bcbd a40b 183d
00000220: 3344 26bc 0571 1f3e bbba c83d 5a6b 82bc
00000230: 876d b8bc 6853 4dbb 49cd aabd 0c8a 18bc
00000240: be74 9bbd 0a64 953c c629 a1bd 3111 223e
00000250: 95ce 793d 4178 a73c 9b46 b1bb a681 053e
00000260: 90d3 703d d0ed dc3c b1ce 1ebe d313 46be
00000270: b36a afbd b460 0cbd 73b2 183c c933 e93b
00000280: 6041 9abd ec7e a33c 1e68 fa3c 68bb 2fbd
00000290: 6060 ce3d 035a 4b3d 9fdd 0f3e d5ed 60be
000002a0: 15a5 f5bc 93e0 c03d 157c efbc 8a7a 83bd
000002b0: a7ba 9a3d e075 15bd f3d0 aa3c 804d 31be
000002c0: 07ca e83d aa7d 5c3c a0e1 b4bd 7845 a33c
000002d0: dd00 d43d 562c 933d 8628 913d 8059 9c3c
000002e0: e42d f0ba a500 b7bc 5b79 30be b494 9ebb
000002f0: 0ff1 87bd e5c3 8fbd 3afb ee3d f2cd ec3c
00000300: d3d1 1d3d baa0 8b3d de88 54bd b952 7ebd
00000310: d18f c1bd 1f5a 883d 274f d5bb 77b3 41bd
00000320: 0a90 a8bb 93dc 8bbd 247b 9e3b 4c57 033e
00000330: 581b 8a3b 996c 8ebd 2414 9a3d d124 5dbe
00000340: 1fe3 373e d6b8 9f3d 2b76 3e3d d155 e1bd
00000350: d631 f13a f4c1 adbd 6c61 b739 e27f f2bb
00000360: 7785 523d bc43 bf3d d97a 43bd fb97 93bd
00000370: 6418 283c 58c6 d33d c3cb ffbd 9e3e 3e3d
00000380: 836c 84bc e0f2 eabc 3a3f 8abc eb05 303e
00000390: 26aa 343e 90af 8abd 3daf f6bd 2570 00bd
000003a0: c864 8d3d 5ef1 df3d 0041 e4bd cd7f 0dbd
000003b0: 8ac9 583c 59c9 343d 0278 cebd b814 7a3c
000003c0: 0a78 a3bd a060 1fbd fec1 983d c87d 96bc
000003d0: 769b 123e 4b4c 14be 8c23 41be 4cd2 e7ba
000003e0: 3635 043e d698 b43b 4ca4 10be b74a a43d
000003f0: 7335 3c3b 264c 553c 9cd4 9e3d 1647 c7bc

network_body._body_endoder.seq_layers.2.bias f4 [128]
0.00614603 -0.00954332 0.017989982 -0.0071244254 -0.021113284 -0.01229533 0.00016813942 -0.0067626843
0.015097459 0.0027960131 0.0050569223 0.008361357 -0.019134117 -0.023046881 0.00087928673 -0.02783854
0.0029257617 -0.013655684 -0.011420404 0.0034823401 -0.005285049 0.010896053 0.0004897259 -0.015589799
-0.008550662 -0.0047392896 -0.00012477016 0.007596464 -0.018779946 -0.0182763 -0.005353311 -0.01681587
0.0024772831 0.004519489 -0.016570143 -0.017187824 0.004846601 0.0023027784 0.012798596 -0.02546692
-0.008588847 0.0055375723 0.0071598375 0.0029779153 -0.006678305 0.010323969 -0.04053217 0.018942062
0.0022865608 -0.0038555076 0.0031842075 0.00015387106 -0.015856208 -0.011384657 -0.006392333 -0.011341432
-0.0027949987 -0.011263729 -0.0002480687 -0.005254669 -0.015836306 -0.016585791 -0.0068920394 0.011581228
-0.021062912 -0.017849432 -0.0050413585 -0.004191502 -0.028668657 0.009257539 -0.0015433928 -0.004579439
0.017654583 -0.007055152 0.005736063 -0.036126208 0.005271655 -0.012901352 -0.013994493 -0.0045425566
0.0037556984 -0.012098216 -0.006619748 -0.01476607 -0.0043039224 0.028700117 -0.025485085 0.0028668628
-0.016841037 0.0072129727 -0.008149323 -0.008763187 -0.009895809 -0.018293763 0.012389425 -0.012328147
-0.0025460469 -0.020676453 -0.002410519 -0.032972265 -0.014165984 -0.037437562 -0.025618307 0.020741364
0.01907868 -0.012317584 0.0012982647 0.0018466652 -0.0112533765 -0.004523621 -0.001291187 -0.021005457
-0.0096577145 -0.016687738 -0.0038320427 -0.0099214865 -0.032213174 0.008872302 -0.006654579 -0.008044808
-0.026237998 -0.001900976 -0.0025277736 -0.00425227 -0.006057142 -0.016814454 -0.019880233 -0.004993137
00000000: a364 c93b 965b 1cbc ba5f 933c 0374 e9bb
00000010: c4f5 acbc 5a72 49bc 954e 3039 8299 ddbb
00000020: 555b 773c 513d 373b 8ab4 a53b 13fe 083c
00000030: 27bf 9cbc d0cc bcbc ef7f 663a a60d e4bc
00000040: 23be 3f3b 17bc 5fbc a51c 3bbc f937 643b
00000050: 342e adbb 5c85 323c f360 003a 5b6c 7fbc
00000060: 1318 0cbc 0b4c 9bbb bcd4 02b9 c2eb f83b
00000070: 67d8 99bc 2eb8 95bc d46a afbb 6fc1 89bc
00000080: ea59 223b 3918 943b 1cbe 87bc 7bcd 8cbc
00000090: 3cd0 9e3b 36ea 163b 34b1 513c 01a0 d0bc
000000a0: 3cb8 0cbc 8674 b53b 129d ea3b 2129 433b
000000b0: afd5 dabb dd25 293c 1005 26bd 622c 9b3c
000000c0: 20da 153b afac 7cbb 23ae 503b 7358 2139
000000d0: e1e4 81bc b686 3abc c776 d1bb 6ad1 39bc
000000e0: 4c2c 37bb 818b 38bc 380f 82b9 5c2f acbb
000000f0: 24bb 81bc edde 87bc 9ed6 e1bb 31bf 3d3c
00000100: 218c acbc f938 92bc fb31 a5bb de58 89bb
00000110: 88da eabc efac 173c ab4b caba 1e0f 96bb
00000120: 58a0 903c e82e e7bb 95f5 bb3b 13f9 13bd
00000130: d9bd ac3b 3160 53bc 2849 65bc bad9 94bb
00000140: 2a22 763b 9937 46bc 79ea d8bb 63ed 71bc
00000150: eb07 8dbb 821c eb3c 19c6 d0bc fae1 3b3b
00000160: 37f6 89bc cd5a ec3b bd84 05bc 7893 0fbc
00000170: 0822 22bc cddc 95bc 04fd 4a3c fffb 49bc
00000180: 94db 26bb aa61 a9bc ccf9 1dbb ed0d 07bd
00000190: 7118 68bc 2158 19bd 7cdd d1bc cbe9 a93c
000001a0: e44a 9c3c b1cf 49bc 892a aa3a cd0b f23a
000001b0: 1560 38bc e23a 94bb 0c3d a9ba a313 acbc
000001c0: 643b 1ebc b9b4 88bc 0223 7bbb bb8d 22bc
000001d0: f6f1 03bd 225d 113c a80e dabb 5fce 03bc
000001e0: 12f1 d6bc 2c2a f9ba 01a9 25bb a056 8bbb
000001f0: fd7a c6bb 77be 89bc dfdb a2bc 789d a3bb

action_model._continuous_distribution.log_sigma f4 [1, 2]
-0.0629502 -0.026170595
00000000: 09ec 80bd b763 d6bc

action_model._continuous_distribution.mu.weight f4 [2, 128]
0.038695507 -0.01213542 0.019838963 -0.012522271 -0.009094055 0.00883586 -0.025374152 -0.005665392
0.035449497 0.034534812 0.017485145 0.019618224 0.0021029622 -0.0071462686 0.0113678705 -0.014709632
0.014662805 -0.00289645 -0.008829825 0.037590638 0.013576057 0.045959253 0.0072595957 0.008038103
6.002838e-05 -0.0019971598 0.018990016 0.006207111 -0.008586699 -0.0026154725 0.036772706 -0.025139343
-0.017051496 0.028164113 0.0046104724 -0.019339027 0.008654624 0.020536164 0.018042605 -0.00096336217
-0.020269264 0.021711254 -0.05338872 0.011263355 -0.004818698 0.016696837 -0.026447661 0.04463807
0.04552596 0.008241432 -0.0048070536 0.0145131005 -0.009187536 0.0018300095 0.0017479876 -0.007202178
0.0023128395 -0.009299023 0.0012556047 0.0117878895 -0.0071954885 0.003057592 -0.036174446 0.011263445
0.0011904555 0.0067180404 -0.0007775189 0.0057846974 -0.0076148403 0.01246195 0.0072705387 -0.038250033
0.017897012 -0.009548782 0.015854716 0.0025168003 0.044027057 0.02486139 0.024001732 0.009636007
0.024818065 -0.0053662993 -0.0013229268 -0.016455729 0.03112142 0.0066903634 -0.0029975572 0.003709377
0.0035348637 0.028628774 -0.011881901 -0.0026983933 -0.0033698736 -0.021377984 0.021813389 -0.010755606
0.021503631 -0.0007016106 0.0065037245 -0.0074604913 0.0063688313 -0.0360569 -0.015679443 0.03296915
0.021214698 0.0022109689 -0.0037007616 0.017005611 0.014408285 0.017376177 -0.001438209 -0.0031814328
0.008897675 0.0061567677 -0.00019214317 -0.022051195 -0.011292988 0.012887811 -0.003255385 0.001615601
-0.008575027 0.018987691 0.03003956 -0.008070732 0.028546916 0.006349816 -0.004125517 0.0011669153
-0.023029074 -0.028339835 0.017930243 -0.017857434 0.026977962 0.012624085 0.011210897 0.01640316
0.018640688 -0.0113205295 0.043150622 -0.023429453 -0.0004893698 0.01234553 -0.033977747 0.026707
0.013824177 -0.005071045 0.0140498085 -0.047297675 -0.044104762 -0.0039323657 -0.04852113 0.041215427
-0.011271694 -0.019119006 -0.0012391253 -0.03316465 0.004688436 0.0042790663 -0.011186422 -0.012873524
-0.016151695 0.0054851165 0.012360128 0.0010134265 -0.025132855 0.0007579583 -0.02022825 -0.004537035
0.04219627 0.0056611844 -0.031487044 -0.022664957 0.034297433 -0.0516757 0.007041209 0.039105427
0.01974284 -0.013617128 0.02235911 -0.048466478 -0.027564047 -0.0027447448 -0.043298483 0.023330607
0.008787716 0.035130315 -0.048131566 -0.0066953343 0.0001329066 0.00965577 0.020558463 0.022564981
0.00073909294 0.0037884607 -0.030239834 -0.014705929 0.014896054 0.03030621 -0.031383183 0.0026124122
-0.043600902 -0.0066616437 -0.0052463533 0.003482992 7.650149e-06 0.02652177 -0.0269292 0.013907998
-0.00756919 -0.009450014 -0.0038813197 0.014400465 0.01540483 0.03966353 -0.0139761465 0.03595829
0.006733311 -0.0088460855 0.030887995 0.01962832 0.02413884 0.018253941 0.0133616915 0.008225097
0.019312346 0.0058908937 -0.02118157 -0.007892917 0.01386662 -0.023079569 0.013212508 -0.011740103
-0.011457765 0.018974476 -0.038463216 -0.0012612196 -0.01635297 -0.030999266 0.0042520175 0.0154099185
-0.0017363677 -0.012616293 -0.034430556 -0.011358229 -0.01136589 0.0038723391 -0.013641718 -0.00980981
0.0076657073 0.0017824223 0.025437048 -0.010089104 0.012883719 -0.02328225 -0.01895717 0.026408566
00000000: 2e7f 1e3d a4d3 46bc 5285 a23c 362a 4dbc
00000010: 3bff 14bc 48c4 103c 74dd cfbc c1a4 b9bb
00000020: 7e33 113d 6074 0d3d 023d 8f3c 66b6 a03c
00000030: dad1 093b 3f2b eabb 4e40 3a3c ab00 71bc
00000040: 433c 703c 5ed2 3dbb f8aa 10bc a4f8 193d
00000050: 1c6e 5e3c c53f 3c3d e7e1 ed3b 3fb2 033c
00000060: fbc6 7b38 c8e2 02bb f390 9b3c 0565 cb3b
00000070: 3aaf 0cbc 5968 2bbb fa9e 163d 06f1 cdbc
00000080: 94af 8bbc 6db8 e63c 7213 973b e16c 9ebc
00000090: 20cc 0d3c 753b a83c 16ce 933c 248a 7cba
000000a0: ba0b a6bc cddb b13c 21ae 5abd ef89 383c
000000b0: 2be6 9dbb cec7 883c c4a8 d8bc 69d6 363d
000000c0: 6e79 3a3d 1207 073c 7d84 9dbb 5bc8 6d3c
000000d0: 5287 16bc eedc ef3a bb1c e53a 3f00 ecbb
000000e0: 0293 173b ee5a 18bc 1a93 a43a fe21 413c
000000f0: 22c8 ebbb e261 483b a82b 14bd 508a 383c
00000100: 0f09 9c3a 0223 dc3b 69d2 4bba 8f8d bd3b
00000110: e985 f9bb 352d 4c3c b33d ee3b 11ac 1cbd
00000120: c19c 923c 7f72 1cbc c0e1 813c e7f0 243b
00000130: b755 343d 1daa cb3c 489f c43c 58e0 1d3c
00000140: 414f cb3c c8d7 afbb 0f66 adba 2ace 86bc
00000150: 59f2 fe3c d63a db3b aa72 44bb 0519 733b
00000160: 2ca9 673b e486 ea3c 4eac 42bc 87d7 30bb
00000170: 19d9 5cbb e220 afbc feb1 b23c 4838 30bc
00000180: 6228 b03c 4aec 37ba 321d d53b 2377 f4bb
00000190: a1b1 d03b 66b0 13bd 2d72 80bc a90a 073d
000001a0: 72ca ad3c e7e5 103b 7a88 72bb 5a4f 8b3c
000001b0: ba10 6c3c 7c58 8e3c 4982 bcba 967f 50bb
000001c0: 8ec7 113c b6be c93b 0a7a 49b9 b5a4 b4bc
000001d0: 3a06 39bc 6627 533c 4c58 55bb 93c2 d33a
000001e0: 457e 0cbc 138c 9b3c 8615 f63c 1a3b 04bc
000001f0: 39db e93c 1e12 d03b 582f 87bb 2ef3 983a
00000200: 78a7 bcbc f128 e8bc 72e2 923c c149 92bc
00000210: e300 dd3c 40d5 4e3c e9ad 373c eb5f 863c
00000220: 5bb4 983c be79 39bc b5be 303d 20ef bfbc
00000230: 0d49 00ba e844 4a3c 402c 0bbd a3c8 da3c
00000240: cd7e 623c 022b a6bb 2b31 663c 35bb 41bd
00000250: 32a7 34bd 13db 80bb 18be 46bd 82d1 283d
00000260: e9ac 38bc 769f 9cbc 256a a2ba a8d7 07bd
00000270: 74a1 993b 6937 8c3b 4147 37bc 79eb 52bc
00000280: 8f50 84bc 7ebc b33b 2282 4a3c f3d4 843a
00000290: 6be3 cdbc b8b1 463a b7b5 a5bc 68ab 94bb
000002a0: ffd5 2c3d 7581 b93b 8ff8 00bd dcab b9bc
000002b0: 777b 0c3d e6a9 53bd f1b9 e63b 032d 203d
000002c0: bdbb a13c 601a 5fbc 742a b73c c984 46bd
000002d0: ffcd e1bc 2de1 33bb c059 31bd d41f bf3c
000002e0: 5afa 0f3c cee4 0f3d 9b25 45bd 8964 dbbb
000002f0: d85c 0b39 3c33 1e3c 396a a83c 32da b83c
00000300: b0bf 413a d347 783b 87b9 f7bc 23f1 70bc
00000310: 940e 743c bb44 f83c a78b 00bd 0135 2b3b
00000320: dc96 32bd eb49 dabb 9ae9 abbb e942 643b
00000330: 2459 0037 2f44 d93c a09a dcbc 5fde 633c
00000340: f806 f8bb 3bd4 1abc bd5d 7ebb eeef 6b3c
00000350: 8a64 7c3c 3a76 223d 35fc 64bc 0049 133d
00000360: 1ba3 dc3b 2cef 10bc d208 fd3c 92cb a03c
00000370: d1be c53c 4a89 953c ffea 5a3c 8fc2 063c
00000380: ed34 9e3c 6608 c13b f984 adbc 4b51 01bc
00000390: d230 633c 5d11 bdbc 4679 583c 9059 40bc
000003a0: 59b9 3bbc 5c70 9b3c 9b8b 1dbd 824f a5ba
000003b0: aaf6 85bc 2cf2 fdbc 8254 8b3b e279 7c3c
000003c0: d596 e3ba 91b4 4ebc 0e07 0dbd de17 3abc
000003d0: ff37 3abc 12c7 7d3b 8381 5fbc 53b9 20bc
000003e0: 9d30 fb3b 2ba0 e93a 5b61 d03c c54c 25bc
000003f0: 3c16 533c 6bba bebc 114c 9bbc c756 d83c

action_model._continuous_distribution.mu.bias f4 [2]
0.013464532 -0.0024848573
00000000: 579a 5c3c fdd8 22bb

action_model._discrete_distribution.branches.0.weight f4 [1, 128]
-0.0044851 -0.007176188 0.005707 -0.0008045667 -0.0038442255 0.00169378 0.005710418 0.013270125
-0.003672601 -0.005992676 -0.006245401 -0.0011428639 -0.0073748776 0.0029660675 -0.0062713483 -0.017151143
-0.011358405 -0.0053122304 0.0005218559 -0.0141033 4.450033e-05 -0.0036548988 -0.0027910296 0.006883725
0.010411265 0.0055428236 -0.0048136767 -0.015985562 0.002185608 0.005315005 -0.0054482026 0.0031823304
0.008619052 0.0032130776 0.015020958 -0.0012403685 -0.00964117 -0.007822129 0.012909807 0.010119159
0.0010941352 -0.007551027 0.0042844787 0.01395977 -0.0025249736 -0.0013359411 0.018277325 0.014750855
0.010179382 -0.006807232 0.004106499 0.003983062 -0.009970703 -0.006737929 0.00953881 -0.0042701503
-0.0032560457 -0.0024936842 -0.010845766 -0.002503988 -0.009060727 0.0041942853 0.0020601342 0.001834412
0.0016841674 0.007236611 0.003834115 -0.002315086 0.006842418 -0.0029408135 0.010280102 -0.003830691
-0.011757401 -0.014655734 -0.009478478 -0.0072494573 -0.006050776 0.004834172 0.014147505 -0.0073328004
0.005014746 -0.0038951372 -0.005803768 -0.013199503 0.0011787897 0.0018004889 0.002996828 0.01506269
0.010363723 0.0029935238 0.002608448 0.0065837237 -0.0070524723 0.0030730364 0.0009910379 -0.00076182047
-0.011269041 -0.0004363055 0.008156883 0.0002443356 0.010054667 0.0063465275 0.0052122017 0.009017246
-0.0051145977 -0.0030721626 -0.006369747 -0.017611038 -0.0140211675 -0.005887048 -0.03226809 -0.012058196
0.005268048 -0.009077869 -0.0010652199 -0.00028023176 -0.0010526566 0.00013073618 -0.0002430023 -0.00011760256
-0.0025900665 0.009709048 0.017031765 -0.0063985162 -0.015036367 -0.005859189 -0.005754138 -0.0041903746
00000000: bff7 92bb 3a26 ebbb c901 bb3b 8fe9 52ba
00000010: 67ef 7bbb d301 de3a 751e bb3b f06a 593c
00000020: 05b0 70bb 365e c4bb 39a6 ccbb 26cc 95ba
00000030: f5a8 f1bb 5b62 423b e27f cdbb 8e80 8cbc
00000040: 9b18 3abc 3812 aebb 28cd 083a 8711 67bc
00000050: dea5 3a38 0787 6fbb b5e9 36bb df90 e13b
00000060: 0394 2a3c 93a0 b53b 0cbc 9dbb 27f4 82bc
00000070: 6b3c 0f3b 7e29 ae3b d686 b2bb a58e 503b
00000080: ed36 0d3c 7f92 523b 771a 763c dc93 a2ba
00000090: fff5 1dbc 6328 00bc a883 533c d4ca 253c
000000a0: 1669 8f3a 9b6e f7bb d064 8c3b 85b7 643c
000000b0: 077a 25bb bf1a afba 54ba 953c 92ad 713c
000000c0: 6cc7 263c 330f dfbb cf8f 863b 5984 823b
000000d0: 295c 23bc d8c9 dcbb ab48 1c3c 9eec 8bbb
000000e0: 6263 55bb 146d 23bb 71b2 31bc f319 24bb
000000f0: 7273 14bc 3770 893b 5103 073b a770 f03a
00000100: 48bf dc3a 1821 ed3b c745 7b3b b3b8 17bb
00000110: 5d36 e03b aaba 40bb df6d 283c 550c 7bbb
00000120: 1da2 40bc 9b1e 70bc 9e4b 1bbc db8c edbb
00000130: 9745 c6bb f967 9e3b f0ca 673c fd47 f0bb
00000140: bd52 a43b 8f45 7fbb 892d bebb ba42 58bc
00000150: 9e81 9a3a 62fe eb3a 6e66 443b 80c9 763c
00000160: 9bcc 293c ff2e 443b 7ff2 2a3b 47bc d73b
00000170: 6d18 e7bb ff64 493b b7e5 813a e8b4 47ba
00000180: c9a1 38bc efbf e4b9 72a4 053c 2b1a 8039
00000190: 54bc 243c 88f6 cf3b 1ecb aa3b 12bd 133c
000001a0: 5b98 a7bb 5656 49bb 50b9 d0bb 0645 90bc
000001b0: 0ab9 65bc 23e8 c0bb 8b2b 04bd bd8f 45bc
000001c0: 979f ac3b 58bb 14bc d99e 8bba 12ec 92b9
000001d0: 4bf9 89ba 3a16 0939 6fce 7eb9 65a1 f6b8
000001e0: 1bbe 29bb b312 1f3c 3386 8b3c a5aa d1bb
000001f0: 185b 76bc 71fe bfbb 358d bcbb 694f 89bb
