PokemonTown/Assets/results/RollerBall/RollerBall/RollerBall-15848.onnx (onnx, 77817 bytes, 8 tensors)

network_body._body_endoder.seq_layers.0.weight f4 [128, 12]
000000 46 58 bc be 92 d4 de 3d f8 91 68 bd 38 42 fa 3d
       -0.36786097 0.10880388 -0.05677983 0.122196615
000010 b0 93 73 3f 12 9d 6f 3e b9 44 d4 3d 1e 50 c4 be
       0.9514723 0.23399761 0.1036467 -0.38342375
000020 7e 73 fe bc 0f 76 3b 3e f3 eb 4c be 13 4a b9 be
       -0.03106093 0.18306755 -0.20011882 -0.36189327
000030 93 c0 cc 3e 73 b6 1c be 6d 61 2a 3e 20 b3 da 3d
       0.39990672 -0.15303974 0.16638727 0.10678697
000040 26 56 35 3f 04 53 9f 3e 5b 98 47 3f a5 35 64 be
       0.7083458 0.31118023 0.7796685 -0.22286089
000050 ce 98 5c be c2 f4 19 3e 49 87 20 be 32 71 39 3d
       -0.21542665 0.15034774 -0.15676607 0.045273967
000060 ee 9a ed be 06 7a b3 bd ee e5 7a 3e 39 3f bf 3e
       -0.46407264 -0.087635085 0.24501774 0.37352923
000070 d8 22 04 3e 8f 54 36 bd 9a 6b 77 bd bc fd 3d 3e
       0.12903917 -0.044514235 -0.06040535 0.18553823
000080 38 72 de 3d 4b 42 d6 be df a1 12 3f 43 31 e1 3e
       0.10861629 -0.41847453 0.57278246 0.43982896
000090 e8 91 12 bf dd 0a 0d 3e da 27 2d be f5 8d 45 be
       -0.57253885 0.13773675 -0.16909733 -0.19292434
0000a0 7f 8c a4 be 32 ba 26 be eb b8 81 3a 6a 99 0f 3b
       -0.3213844 -0.16281965 0.0009897029 0.002191151
0000b0 3b 12 73 3e e8 99 b3 3e 80 c8 71 be 7d 46 aa be
       0.23737423 0.3507836 -0.23611641 -0.33256903
0000c0 2c 8a ec 3e 49 85 c0 3e 34 6d 09 3f a7 e8 c0 3e
       0.46199167 0.37601689 0.53682256 0.376775
0000d0 0f 7d 93 3e d8 d0 0c 3e 3e 28 bb bd 8e eb 7f 3d
       0.2880635 0.13751543 -0.09138535 0.0624805
0000e0 b1 59 28 3f 06 38 fb bc 03 ed 99 3e fd ce 3b be
       0.6576186 -0.030666362 0.30063638 -0.18340679
0000f0 f0 06 eb bc 19 b1 84 be 89 4b 14 be 7f d9 b3 3d
       -0.028689831 -0.25916365 -0.1448194 0.087817185
000100 53 95 c5 3e c9 34 94 3d 02 29 30 bf fa 70 ca 3c
       0.38590488 0.072366305 -0.6881257 0.024712075
000110 be 8e 3f be e0 b6 f4 bc 79 9d 1d be 01 c4 bb 3e
       -0.18706796 -0.029872358 -0.15392102 0.36672977
000120 e5 ca 83 3c b9 f8 ad be 93 27 07 3f 6c 95 ec 3e
       0.016087959 -0.33978823 0.5279476 0.4620775
000130 0f ac 3d be 3f 19 17 3e 40 aa ef bc 22 42 0f 3f
       -0.18522666 0.14755724 -0.029255986 0.55960286
000140 eb af 64 3d cd 08 e2 be d2 6e 08 bd 2d 17 9c 3e
       0.05583183 -0.4414734 -0.03330881 0.30486432
000150 54 9a fb 3e ed bd 80 3c 64 36 95 be 53 4c 4c 3d
       0.4914118 0.015715564 -0.2914306 0.049877476
000160 40 3d 31 3e ae 8e c7 3b a4 68 86 3d f4 81 bd 3b
       0.17308521 0.006090007 0.06562927 0.005783314
000170 83 0e b4 3d b4 73 4c 3d 45 0f d9 bd 90 a9 be 3e
       0.087918304 0.04991503 -0.105986156 0.3723874
000180 84 f7 fc be f1 2b 46 3e aa ab 52 3e a2 97 25 3f
       -0.4940759 0.193527 0.20573297 0.646845
000190 34 ec 38 3e 0f 48 9c 3d 2f 2e 15 3f 5f 88 fd be
       0.18058854 0.076309316 0.58273596 -0.49518105
0001a0 9f 29 8a be 5b e5 5a be 98 e5 9f be ae af 29 be
       -0.2698488 -0.21376555 -0.31229854 -0.16570923
0001b0 29 15 7b 3e c9 25 cc 3e 05 be 1d 3e d9 66 4f 3e
       0.2451979 0.39872578 0.15404518 0.20254077
0001c0 99 09 4d bd 8a d6 47 bc ed 89 98 3d bf 39 40 3e
       -0.05005798 -0.012197146 0.07448182 0.18772028
0001d0 83 1d b3 bb 3b 82 6d be 19 3b 88 be da 23 0e be
       -0.0054661646 -0.2319421 -0.26607588 -0.13880864
0001e0 72 58 67 3e 7c 14 3c 3e c8 36 ce 3e 45 73 aa 3d
       0.22592333 0.18367189 0.4027617 0.08322767
0001f0 54 94 11 bd 05 5b 7d be 1d d0 81 3e a0 20 01 3d
       -0.035541847 -0.24741752 0.2535409 0.031525254
000200 3c ba 25 bf 95 0c a9 3e 8a 7d ba bd ba 62 2b be
       -0.64737296 0.33017412 -0.09105976 -0.1673688
000210 dc 6a bd 3d c6 2d 0e bf 86 48 90 be 25 19 1a be
       0.092488974 -0.55538595 -0.2818033 -0.15048654
000220 d6 03 8a be ae f8 60 3e 66 b2 0f bf 33 cc c5 3d
       -0.26956052 0.21969864 -0.5613159 0.096580885
000230 ed 7d d1 be 8c 1f c6 bd af 2b 31 3d 69 b6 ae 3e
       -0.40916386 -0.09673986 0.04325455 0.34123543
000240 ad d2 57 3e 2e c9 73 3d d7 1d 8b 3d 03 1a 85 3e
       0.2107646 0.05951803 0.06792801 0.25996408
000250 92 a7 3c 3e ae 63 80 3e c1 92 fa 3d 53 a8 51 be
       0.18423298 0.2507605 0.12235022 -0.20474367
000260 01 0c 5b be 8f 79 7e 3e aa 8c 21 3e f4 9a 20 be
       -0.21391298 0.24851058 0.15776315 -0.1568411
000270 4d 59 53 be e3 96 31 be 81 53 8a 3e 78 d3 e6 3a
       -0.20639534 -0.17342715 0.27016833 0.001761063
000280 0b 75 f9 3c 4e 70 ac be 69 33 0a bd ac f8 f5 3d
       0.030451318 -0.33679432 -0.033740435 0.12010321
000290 e4 77 7c bd a3 01 8a 3e 81 bf 50 be c4 50 b4 be
       -0.061637774 0.26954374 -0.20385553 -0.3521787
0002a0 2e e5 4b 3e e6 d9 36 bc cb 62 ec be 23 4f dd be
       0.19911644 -0.0111603495 -0.46169123 -0.4322444
0002b0 9f 69 be bd ab 39 9a bd 63 07 9c 3d a6 57 e4 be
       -0.092974894 -0.075305305 0.076185964 -0.4459812
0002c0 79 0d fc bd 7d 71 96 3c de ea 1c bf 29 16 a5 bc
       -0.12307257 0.018364662 -0.6129588 -0.020152168
0002d0 77 be d1 be 5f ac 68 be a3 c6 28 be 4c 89 fd bc
       -0.40965626 -0.22722004 -0.16482024 -0.030949257
0002e0 de 62 db 3d 6a 2f 28 be 92 e2 2a 3b 1e 35 b8 3d
       0.10712217 -0.16424337 0.0026074988 0.08994506
0002f0 fc 1c 33 bc 80 61 d4 bd 5a b5 35 3e ed 03 94 3d
       -0.010932203 -0.10370159 0.17744961 0.07227311
000300 7c eb f4 3d 30 f2 1e 3e 1e 39 ca bd 70 d8 1e be
       0.119589776 0.15522075 -0.098741755 -0.15512252
000310 80 81 4c 3e 5f 23 97 3e ec c0 01 be bc 40 a3 3e
       0.19971275 0.29519174 -0.1267125 0.31885326
000320 2a 30 72 be 72 f6 0e 3f dd 12 6a 3e 92 ba d2 be
       -0.23651186 0.55844796 0.22858758 -0.41157967
000330 60 e5 6f 3e 9f 45 8f bc 0a a7 45 be c2 76 87 3e
       0.23427343 -0.017489253 -0.19302002 0.26457793
000340 b2 ea 50 bd 2b 8a af bd 24 04 87 be 5b 9d 97 be
       -0.051005073 -0.08571275 -0.26370347 -0.2961224
000350 21 70 01 bf 79 8b c3 3e ec 7a 98 bc 19 0a 83 3d
       -0.5056172 0.38192347 -0.018613301 0.0639841
000360 61 38 96 bd e2 42 7e 3e 72 24 ec bd bd 27 33 3e
       -0.07334972 0.24830201 -0.11530389 0.17495628
000370 ca 2b 0d 3e d3 57 fe 3e 6e 8e 03 be fe 42 14 3f
       0.13786235 0.4967638 -0.12847301 0.5791472
000380 b1 f3 e8 bd 44 04 fb 3d 3f ab 86 3e c9 5d 6f 3e
       -0.113746054 0.12256673 0.26302525 0.2337562
000390 35 c7 35 be 7b 03 94 bc ae 06 80 3e 52 2e ca be
       -0.17751773 -0.018068066 0.25005096 -0.39488465
0003a0 cf bf 2f 3e 49 6c 9f be 8b b5 06 3f 07 20 0e be
       0.17163013 -0.31137303 0.5262076 -0.13879405
0003b0 80 eb 1a 3f 31 c5 c9 3e 94 b3 bd bd 20 da 7d 3e
       0.60515594 0.39408258 -0.092627674 0.2479024
0003c0 f8 cd e6 3e 44 83 23 3e ae fa 59 be 0d 4e 13 3f
       0.45079017 0.15968043 -0.21287033 0.5754097
0003d0 6a d7 88 be 50 43 79 bd 65 69 22 bf a2 7d 98 be
       -0.26726848 -0.06085521 -0.6344207 -0.2978335
0003e0 0a 16 dc be 1f ae 33 bd 8d 58 3f 3e 81 a4 aa bd
       -0.42985564 -0.043867227 0.18686123 -0.08332158
0003f0 66 b9 86 be 51 10 da 3e 76 12 2c 3e 59 fa 4d 3e
       -0.26313323 0.42590573 0.16803917 0.20115031

network_body._body_endoder.seq_layers.0.bias f4 [128]
000000 56 85 16 bc 19 bb 47 37 1a e2 75 bc ac 9e aa bb
       -0.009187063 1.1904886e-05 -0.01500752 -0.0052069034
000010 6d 2d 22 b9 84 5f 4d 3c 7f 54 a0 3b c5 b8 61 a9
       -0.00015466446 0.01253498 0.004892885 -5.0120298e-14
000020 f6 35 b7 bc e8 e4 3e bc b7 b0 87 bc 9d 6c c5 ba
       -0.022364598 -0.011651255 -0.016563756 -0.0015062277
000030 5c 2a 0a bc 14 03 6e 3b 1a 46 3e 37 a5 42 3a bc
       -0.008432951 0.0036317753 1.1341204e-05 -0.011368428
000040 a2 12 51 bc d3 83 11 35 47 2e ef bb 66 86 9a bc
       -0.01276079 5.420854e-07 -0.007299218 -0.018862914
000050 82 9c 24 ae ed 18 bb bc c3 78 24 bd 6a 38 dc b7
       -3.742829e-11 -0.022839034 -0.04015423 -2.6252314e-05
000060 cb 21 be bc 83 7c ac bc 68 3b 8d bc 84 bf 57 bc
       -0.023209473 -0.021055466 -0.017240241 -0.0131682195
000070 ec 9d 7f ad 28 ac 61 bc 50 29 b7 bb d2 e5 82 bc
       -1.45301375e-11 -0.013773955 -0.0055896416 -0.015978727
000080 f1 fd 97 bc 30 4d 2c bc 0c f6 87 bc 86 39 18 bc
       -0.018553706 -0.01051645 -0.016596816 -0.009291058
000090 7f 92 9c 33 19 98 72 38 99 63 15 b0 e5 41 b5 bc
       7.2909636e-08 5.7838948e-05 -5.434742e-10 -0.022126148
0000a0 51 61 37 bc e5 c1 12 3b 73 4f c1 ba 85 8e 36 bd
       -0.011192636 0.0022393402 -0.0014748409 -0.04456951
0000b0 44 b7 01 bc e2 78 b1 bc 7d 9c ad bb ef 1a 20 bd
       -0.007917229 -0.021664087 -0.005298196 -0.039088186
0000c0 b3 3a 65 aa 65 1b 05 bc ad 2f fe bc e9 47 2f 3c
       -2.0359651e-13 -0.008124207 -0.031028593 0.010698297
0000d0 f1 ab 3c bc ad b9 57 bb 2a 89 c3 3b ae d9 4a bc
       -0.011515603 -0.0032917068 0.005967279 -0.012381
0000e0 5c 9b b5 bb 1f de 94 bc 11 60 25 bc c5 cc ca bb
       -0.005542202 -0.018172322 -0.010093705 -0.006188961
0000f0 63 5e a8 b4 1f ff 71 3a 1f 03 01 3c bc 6d af b7
       -3.1361114e-07 0.00092314364 0.007874279 -2.0912725e-05
000100 02 91 5e ab fb 19 44 b9 06 a8 f1 bc cb 99 aa 39
       -7.907148e-13 -0.00018701695 -0.029499065 0.0003253951
000110 74 13 48 3b 8c 20 07 bc bf bf b1 3a 8a 99 2d bc
       0.0030529173 -0.008247506 0.0013561173 -0.010595689
000120 13 7d e0 a8 9c 7d 28 ba 2c 97 a3 bb c5 e2 c7 bc
       -2.4923238e-14 -0.00064274087 -0.0049923863 -0.024400124
000130 b8 83 8e 3b 12 f1 0a bb cb b0 f3 bb 48 ac e2 b5
       0.004349198 -0.0021200818 -0.007436847 -1.6888453e-06
000140 4a f3 0e bc 4e 73 83 bb fe 2c ea b9 97 bc d0 bc
       -0.008724997 -0.004011548 -0.0004466548 -0.025480552
000150 9e dc 42 bc e5 03 2b b8 5c d2 29 b6 17 16 44 28
       -0.01189342 -4.0773204e-05 -2.5305408e-06 1.0884976e-14
000160 1c 02 c5 30 4f 08 aa a4 eb 66 8c 3a 40 24 b5 bc
       1.4334236e-09 -7.373982e-17 0.0010711824 -0.022112012
000170 97 fc 17 ba a3 e7 17 bc e7 dc 2c b5 ab 04 4f 34
       -0.00057978317 -0.009271535 -6.439645e-07 1.9280075e-07
000180 7c 85 a7 b8 52 bd 16 bd bf 51 db ab 6c 44 3a bc
       -7.988044e-05 -0.036801644 -1.5583575e-12 -0.011368852
000190 f1 90 14 3c ac 4e d2 39 ba ca 3e 3b fb d5 19 2d
       0.00906776 0.00040112936 0.0029112534 8.744556e-12
0001a0 0a 7d 16 bd e1 6c bd bc 3d a9 c6 b8 a1 cc d3 b8
       -0.03674034 -0.023123207 -9.472899e-05 -0.00010099379
0001b0 2e 70 95 37 28 d5 5a bb 2f 7a ae bc 71 a8 7e bc
       1.7814422e-05 -0.0033391211 -0.021298496 -0.015543089
0001c0 53 37 ec bb ea 1a 00 bc f1 12 87 bc c5 7e b3 bc
       -0.0072087436 -0.007818917 -0.016488524 -0.021911034
0001d0 09 b6 6c bc d7 5a 9b 3b b7 d8 9e 3c 62 19 0e bc
       -0.014447697 0.0047410536 0.019390447 -0.008673044
0001e0 f1 61 c5 bc 56 fb 9e 3b ed f8 0a bc 87 8c fa bc
       -0.024094554 0.004851739 -0.0084822 -0.030584587
0001f0 f6 8d 87 bc 5d 5e f8 3b d2 b0 79 bb 9f f3 0d 3c
       -0.016547184 0.0075796084 -0.0038099778 0.008664041

network_body._body_endoder.seq_layers.2.weight f4 [128, 128]
000000 bc 1b 2d bc 6f 15 5d be 51 b1 b1 ba 19 96 8a bd
       -0.010565694 -0.21590208 -0.0013556873 -0.0676691
000010 fc 6b e1 bd fe 07 6e 3d 5e d8 1c be 6d 4b 5a 3c
       -0.110069245 0.05811309 -0.15316913 0.013323647
000020 e1 b4 61 be 2f 82 1a 3e bf 5a ab bd 17 29 15 3e
       -0.22041656 0.15088724 -0.08366918 0.14566456
000030 bb 7a e6 3c 3e 8b 80 3e 03 85 e0 3b 02 cb b3 3c
       0.028134694 0.25106233 0.0068517937 0.021947388
000040 81 d2 df 3d 9b 33 94 3b 17 d8 17 3e 8a 5c e4 bc
       0.10928822 0.0045227534 0.14828525 -0.027876157
000050 7a 21 09 be fb e6 45 be e1 11 06 be 83 76 d9 3d
       -0.13391677 -0.19326393 -0.13092758 0.106183074
000060 23 c6 ab 3d aa ef 76 3e 0d c3 b1 bc 43 b3 f6 bd
       0.08387401 0.24114862 -0.021699453 -0.1204591
000070 1f e1 90 bd 64 6c e2 3d 48 30 3f 3a 3b 35 dd 3c
       -0.070741884 0.1105583 0.0007293266 0.027002921
000080 29 cd 24 bd 9d 02 77 3d 11 50 a7 bd 14 47 18 3c
       -0.04023472 0.060305227 -0.08169568 0.00929429
000090 4a 61 2a 3d ed 0b 1c bd 25 ac 26 bd 11 d9 13 bd
       0.04159669 -0.03809731 -0.040691514 -0.036095683
0000a0 46 56 56 3d 4f be ba 3d 22 2d 93 bd d6 05 19 be
       0.05232837 0.0911833 -0.07186343 -0.14943632
0000b0 7f dd 30 3c d0 fa 28 bd 01 d5 8e bd 93 5a d9 3c
       0.010794996 -0.04125482 -0.06974221 0.026532447
0000c0 ae c0 40 bb 48 7d c3 bd db c1 e3 bc 03 57 8d 3d
       -0.002941172 -0.0954538 -0.027802398 0.06901362
0000d0 cc 5c 07 be de 65 a3 3c a2 2d f1 3d 9b 5d c2 bd
       -0.13218993 0.019946035 0.11776282 -0.0949051
0000e0 ee 62 60 bd 90 47 f0 3b aa 69 66 3c 9a 86 d9 bd
       -0.054781847 0.0073327497 0.014063278 -0.10621376
0000f0 0d 44 41 3e d9 49 fe bb b8 02 14 3d aa 91 0b 3e
       0.18873616 -0.007760268 0.036135405 0.13629785
000100 01 81 1e bd 41 de 85 3c 73 25 d0 bd 13 0a 02 be
       -0.038697246 0.01634133 -0.10163393 -0.12699156
000110 eb 4e 50 bd 29 0d 32 3d da 90 d7 3d a1 9e 5c 3d
       -0.050856512 0.04346958 0.10525675 0.053862218
000120 75 03 2b 3e ec 2c 03 be 4a 9f 69 be b6 a9 0b bc
       0.16700538 -0.12810105 -0.2281467 -0.008524349
000130 e5 fd 03 3e a6 c5 12 bd d9 df ce 3d 47 47 b0 3d
       0.12889822 -0.035833023 0.10101289 0.08607345
000140 56 e0 40 bd f9 b0 f4 3c b2 c7 74 be ab e7 1f 3d
       -0.047088943 0.029869543 -0.23904303 0.039039295
000150 02 00 0d be e8 22 82 bc 2a 9b 21 be 99 6f 16 be
       -0.13769534 -0.015885785 -0.15781847 -0.14691009
000160 88 5c 1e bd f9 34 3a 3d 6a db bb 3d 72 5b b3 bd
       -0.038662463 0.045460675 0.09172709 -0.08757676
000170 8b 0c 5a be d1 ed 0a 3e 05 3b a2 3d e4 27 49 3e
       -0.21293847 0.13567282 0.07921413 0.19644123
000180 ee 32 2f 3c 40 9f d6 bd e8 59 5d bd 73 1f 80 bd
       0.010693295 -0.10479593 -0.05404082 -0.062559985
000190 a7 61 dd 3d 69 ad 22 3d 16 d9 31 3e b0 35 5b bd
       0.10809641 0.039716158 0.17367968 -0.053517997
0001a0 5a 16 dc 3d 6e ae 81 3d 7f 58 0e 3e 2a 4d 14 be
       0.10746451 0.06332098 0.13900946 -0.14482561
0001b0 a3 fb 72 3d a6 8c d7 3d 2f 83 a9 bc 3e 5c bb bc
       0.05932201 0.105248734 -0.020692436 -0.022871133
0001c0 a9 31 9c 3d cf c9 22 bc e4 8a 23 bd 65 7d 49 bd
       0.076266594 -0.00993581 -0.03992738 -0.04919185
0001d0 a0 44 af bd 88 4b 25 3e 14 89 99 bd 0b f9 07 3c
       -0.08558011 0.16142094 -0.07496849 0.008299123
0001e0 ae 84 55 3c 36 88 16 be e5 33 86 3d 82 fa 18 3d
       0.013032122 -0.14700398 0.06552867 0.037348278
0001f0 3a ec 10 be ab ba b3 3d 01 0a 3b 3e 4d f5 7f 3d
       -0.14152613 0.087758385 0.18265535 0.062489796
000200 bb a1 1b bc a9 7c b2 bc ac a0 bb 3d e6 23 99 bd
       -0.009499009 -0.021787958 0.09161505 -0.0747755
000210 f6 b5 45 3e 49 1f 45 3d f6 69 82 bd 14 a2 8e 3d
       0.19307694 0.04812554 -0.06367867 0.06964508
000220 b0 f6 58 3d 08 22 60 bd d5 de 98 3d c6 4d 45 3d
       0.052969635 -0.054719955 0.07464377 0.048169874
000230 b1 a7 8e 3d da a1 9c bd b7 88 29 3d 66 27 e8 bc
       0.06965578 -0.07648058 0.041390147 -0.0283391
000240 01 d3 d2 bd 78 10 a6 3c 16 df 36 bd 5e ee 86 3c
       -0.10294152 0.020271525 -0.044646345 0.016471084
000250 bf e8 96 3d 63 b4 e9 bd dc 74 0c bd 93 f7 60 bc
       0.073686115 -0.11411359 -0.034291133 -0.013730901
000260 4c 36 be bc 5c 88 3a bd 60 96 8b bd d7 0a 42 bd
       -0.02321925 -0.0455402 -0.06815791 -0.04737362
000270 b1 01 35 bd de c3 04 bc 28 ab 05 be 8a ed 72 3d
       -0.044191066 -0.008103339 -0.13053572 0.059308566
000280 44 66 07 bd de a6 00 3e de 0f bb 3b 92 5f 6c bd
       -0.033056512 0.12563655 0.0057086786 -0.05770833
000290 65 39 08 3e 26 9e 35 bd 51 98 04 3e 93 e1 07 3d
       0.13303144 -0.044340275 0.12948729 0.03317411
0002a0 16 8f 28 be 27 54 60 3c d0 cf 09 bd ff e8 c3 bc
       -0.16460833 0.0136919385 -0.03364545 -0.023914812
0002b0 cd 19 c4 bd 84 ee b4 bd ca b6 fb bd 60 8e 17 be
       -0.095752336 -0.08834556 -0.122907236 -0.14800406
0002c0 75 58 34 bb 1b ff 2f 3d 50 51 05 3d 68 c0 3d bd
       -0.0027518545 0.042967897 0.03254825 -0.04632607
0002d0 33 78 d9 3c f1 6b f7 bc ce 1b 49 bd ab d9 50 bd
       0.026546573 -0.030202838 -0.049098782 -0.050988834
0002e0 c4 bf 43 3d e6 ed 7b bc 97 fa a4 3d 61 ca 76 3d
       0.047790304 -0.015376544 0.08055609 0.060251597
0002f0 62 f0 8f bd 7b 41 b0 3b 9c f7 c2 3d 6e b1 4b 3d
       -0.07028271 0.0053788996 0.09519884 0.049729757
000300 a4 ca c3 ba ce 92 42 bc 7c 66 8e 3c 0e 2e 6c bd
       -0.0014937711 -0.011875821 0.017382853 -0.05766111
000310 f8 d0 10 3e d3 da 3b bd 67 77 fe bb 5e 8c c4 3d
       0.14142215 -0.045862984 -0.0077656987 0.095970854
000320 b5 89 dd bd a9 30 9e 3d 90 09 fe bc 5d 42 ae bd
       -0.10817281 0.07724125 -0.03101042 -0.085087515
000330 45 fb 40 3d 15 28 87 bd ca 89 f8 bc b8 5b 07 be
       0.04711463 -0.06599442 -0.03033914 -0.13218582
000340 be e1 41 ba d1 4b d2 bc 2e 96 0a bd 5f 45 12 3d
       -0.0007396004 -0.025670918 -0.03383463 0.03571069
000350 8d 84 a9 3d 7d 14 2a be a5 aa f0 3c 60 f6 ff bb
       0.08277235 -0.16609378 0.029378245 -0.0078113526
000360 cf 66 44 3d b2 94 ab bd fd e4 8f bc 85 aa aa 3d
       0.04794961 -0.08377971 -0.017565245 0.08333305
000370 ec 5b c6 bd a4 a5 8b 3d 5e 42 a4 3d a0 1b d4 bd
       -0.096855015 0.06818703 0.08020471 -0.103568316
000380 3f 47 70 bc 99 58 21 3d 9d c8 d7 ba a8 af 20 3c
       -0.014665424 0.039391134 -0.0016462986 0.009807505
000390 b8 e7 0d bd ea d5 34 3d ab 46 9f bd 64 4a 76 3d
       -0.034644812 0.044149317 -0.07777151 0.06012954
0003a0 c0 4f c8 3d 65 ff 1c be be 60 85 bd bb c3 a8 bc
       0.09780836 -0.153318 -0.06512593 -0.020601144
0003b0 32 c8 be 3d 5e 46 24 bd 62 fe 2d be 89 a7 54 bd
       0.09315528 -0.04010617 -0.1699157 -0.051917586
0003c0 e3 4b a5 bd f8 d6 d4 bc 89 44 56 be 82 55 7b bd
       -0.08071115 -0.025981411 -0.20924582 -0.061360843
0003d0 31 b3 05 bc 82 31 87 3c dd c4 5e 3e 8a b5 58 bd
       -0.008160398 0.0165031 0.21754785 -0.052907504
0003e0 ba 5f f1 3d ac 32 24 be f7 af 83 bb e8 98 f2 bd
       0.117858365 -0.16034955 -0.0040187794 -0.11845571
0003f0 fe cd 77 3d 28 5c 71 bc 54 1d f5 bc f3 47 b2 bb
       0.060499184 -0.014731444 -0.029921211 -0.005440706

network_body._body_endoder.seq_layers.2.bias f4 [128]
000000 04 b7 4f bc 67 20 02 b9 15 a5 d2 bb 97 58 27 34
       -0.012677912 -0.00012409837 -0.0064283707 1.5585316e-07
000010 69 96 3b bc a6 34 2c bc 23 14 bf bb a3 8c c9 bb
       -0.011449435 -0.010510599 -0.005831258 -0.0061507984
000020 7e 03 8c bb d1 e0 b8 bc ec d6 0d bc 43 86 1b bc
       -0.0042728772 -0.022568138 -0.008657198 -0.00949246
000030 80 a8 bb bb cf c3 1f bc 71 94 ff bb 02 4c 5f bc
       -0.005726874 -0.009751274 -0.007799678 -0.0136289615
000040 93 59 c2 bb 21 5c 15 bc 50 0e bc bb 13 da 3b bc
       -0.0059310882 -0.0091162035 -0.005739011 -0.011465567
000050 4a c0 09 bc 7d 4a 2d bc c2 a6 d3 bb 09 a9 0a bc
       -0.008407662 -0.010576841 -0.006459088 -0.008463153
000060 a8 35 80 bc f0 fc 28 bc e5 70 83 ba d4 ca 27 bc
       -0.015650585 -0.010314211 -0.0010028152 -0.010241229
000070 f6 d2 60 bc 4c 18 30 bc 73 52 2a bc 95 7c e8 30
       -0.013722172 -0.01074798 -0.010395634 1.691563e-09
000080 f9 10 b9 bc 83 0e 12 bc 18 1c 12 bc 1e 40 26 bc
       -0.022591101 -0.008914593 -0.008917831 -0.010147123
000090 47 32 c5 bb b8 9f 02 bc 7b 60 58 bc 7f 20 8f ba
       -0.0060179564 -0.00797265 -0.0132065965 -0.0010919719
0000a0 d7 83 41 bc 8d 38 e9 bb 0e f8 8f bc 97 31 49 b4
       -0.011811218 -0.007117337 -0.017574336 -1.8737624e-07
0000b0 fb 28 89 bc f3 af 27 bc 0d 65 17 bc f9 fb 3a bc
       -0.016743174 -0.010234821 -0.009240401 -0.011412614
0000c0 65 78 03 bc ae 5c 7d 36 81 ab ce bb c7 03 36 bc
       -0.00802431 3.7753884e-06 -0.006307066 -0.011109299
0000d0 1f fc 85 ba 8f 77 28 bc a5 9b 62 38 8f 58 1b bc
       -0.0010222233 -0.010282411 5.4027554e-05 -0.009481563
0000e0 09 89 8a bb 7e f6 6f bc bb 7d cf bb c6 8c 07 bc
       -0.0042277616 -0.014646171 -0.006332127 -0.008273309
0000f0 66 8a 2f bc ac 46 2b bc 1a 16 67 bc 2b ac 72 bb
       -0.010714149 -0.010453861 -0.0141043905 -0.003702889
000100 55 89 08 bc 6f f6 a1 bb aa ae e3 bb e9 9b 92 bb
       -0.008333524 -0.0049427073 -0.006948312 -0.0044741523
000110 53 e5 77 bc ef fe a4 bb 59 65 e1 bb 19 24 6a bc
       -0.015130359 -0.0050352733 -0.0068785367 -0.014290833
000120 b2 53 dc bb 9b 70 a2 bb 1c a9 0c bc 39 40 17 bc
       -0.0067238444 -0.0049572713 -0.008585241 -0.0092316205
000130 98 a3 9a bb e8 39 43 bc 24 64 0c bc f3 97 86 bc
       -0.004719209 -0.011915661 -0.008568797 -0.016429877
000140 89 86 14 bc d8 72 72 ba a0 e9 2a ba 6b 67 5c b8
       -0.009065279 -0.00092486804 -0.0006519798 -5.2548403e-05
000150 d2 6e 68 bc 82 e2 fb bb 18 8b 14 bc 5c 5a 82 bb
       -0.014186578 -0.007686914 -0.009066366 -0.003978057
000160 de 7f a8 bb b2 a3 a1 bc 8f 83 4d bb 0e f0 c4 bb
       -0.005142196 -0.019731376 -0.0031358933 -0.006010062
000170 77 00 c6 bb 5b f9 35 bc fc 18 56 bc e6 a2 af b8
       -0.006042536 -0.011106814 -0.01306748 -8.3749925e-05
000180 29 91 ec bb 97 85 2c bc 8b 89 88 bc 6e 6f a5 bb
       -0.007219453 -0.010529897 -0.016667148 -0.005048684
000190 7f 9a 25 b4 ff 08 7d bc 40 c9 6b b8 f4 ed 01 bc
       -1.5423028e-07 -0.015444039 -5.6215795e-05 -0.007930268
0001a0 ab 2b 3a ba eb 9f 88 bc 81 b4 63 bc f4 e6 20 bb
       -0.0007101844 -0.016677817 -0.013898016 -0.0024551721
0001b0 32 7f 8c ba a9 0b 24 bc 8b be fe bb d6 4d 29 bc
       -0.001071906 -0.010012546 -0.0077741793 -0.010333499
0001c0 3a 0a c2 bb b9 7a 1d bc dd 23 91 b8 4d a5 bf bb
       -0.0059216293 -0.009611779 -6.920819e-05 -0.005848563
0001d0 2f 10 5c b9 8a 06 4a ba 2e 38 5d bc f1 f9 f0 bb
       -0.00020986864 -0.0007706663 -0.013502164 -0.007354014
0001e0 c8 f7 57 bb 6f 4d 15 bc 19 28 46 bc 54 43 a0 b9
       -0.0032954086 -0.0091127 -0.012094521 -0.00030567741
0001f0 1c 7e e3 bb 1b 0a 3f bc bd cc 36 bc 9f 98 04 bc
       -0.0069425236 -0.011660124 -0.011157212 -0.008093028

action_model._continuous_distribution.log_sigma f4 [1, 2]
000000 76 65 cb 3c 52 59 ec 3b
       0.024828654 0.0072127962

action_model._continuous_distribution.mu.weight f4 [2, 128]
000000 f8 16 a0 3a 78 bd 87 3c c1 6f 3d 3d 17 f2 6f 3c
       0.0012213876 0.016569838 0.046249155 0.014645121
000010 64 ab cf 3b 7f 27 93 3c 58 47 43 3c a0 9d 70 bc
       0.00633757 0.01796317 0.011918865 -0.014686018
000020 1f ec f1 38 a0 54 9d b9 e0 b8 8f 3b 1d 0b d6 bb
       0.000115357565 -0.00030008424 0.0043860525 -0.0065320865
000030 6e 97 a3 bc 6d 7c b2 3c 4e 2b 71 bc 57 0f c8 3b
       -0.019969668 0.021787846 -0.014719797 0.0061053443
000040 00 f0 12 3d 54 9a 17 3a dd 70 12 ba 59 17 0b bc
       0.035873413 0.00057831896 -0.0005586276 -0.008489453
000050 8d 08 8e 3b a9 27 20 3c 47 69 dc 3a 73 d9 4f bb
       0.0043345154 0.009775081 0.0016816043 -0.0031715303
000060 52 4d a2 b8 6b ee 52 3b 7e e2 10 3c a4 dd 00 bd
       -7.739164e-05 0.0032185565 0.008843062 -0.031461373
000070 bb ff 64 3b 72 9c ab 3c bc 47 b8 3c 5d e7 9e 3b
       0.0034942466 0.020948622 0.022495143 0.004849358
000080 91 9e 6e 39 4a 0d c4 3a 6f fe 88 3b b3 d8 a2 3c
       0.0002275652 0.0014957574 0.0041807215 0.01987872
000090 f5 84 4b bc f0 5d ad 3c 7e b3 6b 3b 54 46 a3 3c
       -0.012421836 0.021162957 0.003596514 0.019930996
0000a0 7e 58 e0 3a 01 02 d8 bc 5e ba 71 3a e6 4d 7e 3c
       0.0017116216 -0.026368143 0.0009221191 0.015521502
0000b0 aa fd 7b ba 87 ee 37 bc 23 36 0d 3c 6f 9b 15 bc
       -0.0009612689 -0.011226303 0.008618864 -0.009131297
0000c0 09 cd 19 3a df 13 21 bc b9 f3 94 bb 3f 1b 17 3a
       0.00058670394 -0.009831398 -0.0045456556 0.0005764253
0000d0 49 e5 17 3b b8 97 8c 3a e7 3c a8 3c 7e 15 7f 3c
       0.0023177436 0.0010726368 0.020536853 0.015569089
0000e0 1c 67 73 bc 15 2a bd 3b ae 43 12 bc e4 8d 56 bc
       -0.014856126 0.005772839 -0.008927269 -0.013095353
0000f0 b5 68 04 bc 4c 45 0d bd 37 56 d0 bb 2c b6 ad 3c
       -0.008081605 -0.034489915 -0.006357934 0.02120503
000100 b1 20 75 bc 7b dd 69 3a 98 b2 8e bc 12 a2 32 bc
       -0.0149614075 0.0008921248 -0.017419145 -0.010902898
000110 98 70 2e b7 56 03 75 bc 22 95 ad bc ec 7b 19 3c
       -1.03974235e-05 -0.014954409 -0.021189276 0.009367924
000120 b7 b0 01 bc 9a 20 d9 bc 12 10 e5 3b dd 5e a6 3b
       -0.007915667 -0.026504803 0.006990441 0.0050772266
000130 66 71 92 3b 6a 54 fd bb 23 9c 52 bc 32 96 c2 3a
       0.0044690846 -0.00773101 -0.012854609 0.0014845787
000140 a6 ff 48 bc 39 b5 35 3c 88 86 49 bd 88 ce 8e bc
       -0.012267983 0.01109057 -0.049200565 -0.017432466
000150 ab 8e d2 ba 67 96 03 3c 1f ff 02 3c 0f 4e e0 bc
       -0.0016064247 0.008031464 0.007995396 -0.027380971
000160 79 d8 4a 3c 17 d2 e8 ba cb fc 93 bb 7f 2a 26 bc
       0.012380713 -0.0017762807 -0.0045162193 -0.010141968
000170 98 4f 52 3b 10 01 26 3b 1d b6 40 3c 47 9a b4 3c
       0.0032090899 0.0025330223 0.011762169 0.022046221
000180 89 ea 53 3c 3c c5 b1 3a 6f 7a 99 3b d4 d2 07 3d
       0.0129343355 0.0013562809 0.0046837847 0.033160046
000190 b4 9b a0 bc 19 d7 e7 bb 94 64 44 bc 53 f3 04 3c
       -0.019605495 -0.007075202 -0.01198687 0.008114654
0001a0 6e 02 19 bb 31 e1 03 3b e0 66 aa 3b d2 7c 20 bd
       -0.0023347395 0.0020123238 0.005200252 -0.039181538
0001b0 ab dc db 3b d4 91 88 3b 9a 5e a4 ba 88 89 41 3c
       0.0067096553 0.0041677747 -0.00125404 0.011812575
0001c0 9b cc f1 3c e1 fd 7d bb 06 51 31 bc a3 f6 c0 bc
       0.029516509 -0.003875606 -0.01082254 -0.023555106
0001d0 9e f3 80 3b 8a ef c5 bb ae 98 a2 3b f1 2b 45 3b
       0.0039352914 -0.006040518 0.0049620485 0.0030086006
0001e0 93 22 e3 3b ec 76 b7 3b 22 d5 fe ba 66 4c b3 bc
       0.006931612 0.0055988934 -0.0019442181 -0.021887016
0001f0 47 d6 05 3c 24 db a5 bb 49 40 cf 3b 78 e5 6e 3c
       0.0081687635 -0.005061524 0.006324802 0.014581077
000200 3c 5c 46 3a 1f 78 2a 3b 52 8b 7a bc 67 db 99 3b
       0.00075668446 0.002601154 -0.015292006 0.0046953443
000210 43 16 52 3b be 99 94 3b 5c 94 ba bb 7d 57 ad bc
       0.0032056726 0.004534929 -0.0056939553 -0.021159882
000220 fa 9d 01 b8 97 41 39 b9 eb f9 13 3c 9c 10 bf ba
       -3.0903124e-05 -0.00017667409 0.009031753 -0.0014577094
000230 c4 2e 00 b9 83 7c e0 bc 99 9a b0 3b 47 06 97 3b
       -0.00012224453 -0.027403122 0.005389523 0.0046089026
000240 40 2a 34 3c 3a fb c8 3a 04 d7 03 bb 4e cc 8d bb
       0.010996401 0.001533366 -0.0020117173 -0.0043273335
000250 28 02 63 3c 50 d8 20 3c f7 1a 19 bc aa 77 22 3b
       0.013855495 0.009817198 -0.009344808 0.0024790564
000260 56 b6 d5 ba 50 41 06 3c a1 ef f9 3b 70 ef ea 3c
       -0.0016304951 0.008194283 0.007627443 0.028678626
000270 6a eb 27 ba 69 91 cc bb 78 d7 e1 bb 2f 74 03 bc
       -0.0006405624 -0.00624292 -0.006892141 -0.008023306
000280 db 5a 21 ba 0a 4a f5 3a bc 3e 1c 3a 35 be aa bc
       -0.0006155201 0.0018714082 0.0005960276 -0.02084265
000290 fb 6e ad b9 5d 88 6c 3c fa f6 b0 39 e1 dc ee bc
       -0.00033079818 0.014436808 0.00033753348 -0.029158058
0002a0 81 a0 ba bb 75 e9 f9 bb 5d c7 66 3a 0e 78 d9 3c
       -0.005695403 -0.007626707 0.0008803511 0.026546504
0002b0 7d 98 da 39 31 be ed ba 79 7b 9f bc 71 31 95 38
       0.00041693813 -0.0018138346 -0.019468056 7.114083e-05
0002c0 4b 50 79 39 98 12 88 3c e0 a1 be ba f0 dc 97 ba
       0.00023776402 0.016610429 -0.0014544092 -0.001158623
0002d0 89 d7 ff 3b 70 8e af b9 66 56 6d 3c 5e 04 16 3a
       0.007807676 -0.00033484725 0.014485931 0.00057226967
0002e0 8c d3 41 bc 70 5c 42 bc f2 d3 86 39 a9 b6 21 bc
       -0.011830222 -0.011862859 0.00025716383 -0.00987021
0002f0 ad 9a ea 3c 5b 48 da 3b 8f 38 43 bb a8 fa e6 bc
       0.028638208 0.0066614575 -0.002978835 -0.028195694
000300 ce 23 a0 bb 17 bd 4a bb a7 b6 4f bc b5 ec 54 bb
       -0.0048870808 -0.003093546 -0.012677825 -0.0032489721
000310 c3 0f db b8 09 b4 cc bb 00 c1 66 3c 5f 28 61 3c
       -0.000104456696 -0.006247048 0.014084101 0.013742535
000320 b8 23 68 bc 9e fe 59 bc 15 d5 89 bb c0 04 f5 bb
       -0.014168672 -0.013305334 -0.0042063096 -0.007477373
000330 d9 1f 54 bd d5 b9 4b 3c 5a 8a 07 3b 81 c3 06 bc
       -0.051788185 0.0124344425 0.002068183 -0.008225323
000340 28 dd d6 3b 69 f5 cf bb 42 6d 4b bc 2c 15 cc bb
       0.0065571256 -0.006346394 -0.012416186 -0.00622811
000350 96 d1 21 bb 00 66 19 bc 0d f2 46 bc 66 96 6e bc
       -0.0024691573 -0.009362698 -0.01214267 -0.014562225
000360 08 25 2c 3d 84 4d 44 3a 50 1b 78 bc 08 b4 9f 3c
       0.042027503 0.00074883574 -0.015143231 0.019495025
000370 ca 4b cc bb 48 fa dd 3a 35 68 dd 3b 4b bb db 3c
       -0.0062346207 0.0016935552 0.006756807 0.026822707
000380 fc 3d 88 3c b4 85 99 bb fc 86 88 bb 59 5e e9 bc
       0.016631119 -0.004685128 -0.004166482 -0.028487371
000390 98 c3 fc bb db 41 5d bb d0 1b bc 3b 3a 20 e3 37
       -0.0077137463 -0.0033761177 0.00574062 2.7075515e-05
0003a0 6e 9d 67 3c b2 51 ce 39 50 d2 91 b9 21 fd a6 bc
       0.014136655 0.0003935225 -0.0002781325 -0.020384373
0003b0 39 f3 40 3c 51 3a 9d 38 57 cd 66 bb 54 05 cb 3b
       0.011776739 7.497206e-05 -0.0035217607 0.0061957035
0003c0 e3 0c 92 3b ea 88 e0 3a 02 b8 22 bd ba c1 46 3b
       0.0044571026 0.0017130647 -0.039726265 0.0030327872
0003d0 13 51 66 bc 45 87 9c 39 88 8d c5 bb 69 5b c9 3a
       -0.014057416 0.00029855422 -0.0060288347 0.0015362325
0003e0 09 c3 18 bb cd d3 8e ba 17 0b 06 3c 39 f5 fc bb
       -0.002330961 -0.0010896862 0.008181355 -0.0077196625
0003f0 fb 92 c8 39 cc 47 c2 bb 72 dc ad bb 76 65 b6 3c
       0.00038256482 -0.005928969 -0.00530582 0.022265177

action_model._continuous_distribution.mu.bias f4 [2]
000000 6d fc 55 bb 39 40 e1 39
       -0.0032651678 0.00042963194

action_model._discrete_distribution.branches.0.weight f4 [1, 128]
000000 7b 1c 19 bc 57 0b 10 3c 7d cb a5 bb 88 34 93 bc
       -0.009345169 0.008791766 -0.005059658 -0.017969385
000010 24 11 0b 3b af f7 1b 3c 71 e1 8f 3b c5 d2 9c 3b
       0.0021219933 0.009519502 0.0043908884 0.004785868
000020 55 3a 15 3c 3d 61 68 bc 7a 78 eb bb 9e a6 ca ba
       0.009108146 -0.01418334 -0.007185993 -0.0015461033
000030 7f e2 3e 3c b2 56 42 3c 18 01 7e 3b 80 4b 41 bc
       0.011650681 0.01186149 0.0038757976 -0.011797786
000040 d0 0c 25 3c 4d ec 8b 3b c7 2f 94 b8 58 43 13 bc
       0.0100738555 0.0042701126 -7.066089e-05 -0.008988224
000050 56 69 21 3a 33 fc 4c 3b 99 b3 40 bb 77 21 7e bc
       0.0006157359 0.0031278252 -0.0029403924 -0.015510908
000060 57 b5 af 3b 2a e1 a6 3c 9f 72 96 bb 35 e0 0b bc
       0.0053621936 0.020371038 -0.0045913006 -0.008537342
000070 30 90 d4 3a 74 a3 28 3c 6b ca af bb ba 52 6d 3b
       0.0016217288 0.0102928765 -0.0053647063 0.003621264
000080 c5 d4 14 3c 49 45 0d 3c 67 78 12 3c b8 20 2d bc
       0.009083931 0.008622476 0.008939839 -0.010566883
000090 dd 8e 34 bb 69 b4 39 3b 6f 8e 8a bb bc 8b 17 bb
       -0.0027550973 0.0028336293 -0.004228405 -0.002312406
0000a0 a3 1f d8 ba f7 41 c9 bb ba 22 df 3c 20 14 3c bc
       -0.0016488921 -0.006141897 0.027238239 -0.011479408
0000b0 e2 6f 59 3c 0b b8 4d 3c 83 d4 c4 bb ba 4a 91 3b
       0.013271304 0.012556086 -0.0060067787 0.004433957
0000c0 d0 03 37 3c 55 7e 32 bb 01 bf 8d ba c2 19 c6 ba
       0.011170343 -0.0027235944 -0.001081437 -0.0015113878
0000d0 39 3f 43 3b ce 20 91 bc fd 3f 1c 3b dd 57 af 3a
       0.0029792322 -0.017715838 0.002384185 0.0013377626
0000e0 3d 0b 8a bc f1 98 20 b8 73 c2 87 ba 69 ca 19 bc
       -0.016851062 -3.828941e-05 -0.0010357633 -0.009386637
0000f0 da 2d c0 3b 0d b4 d4 b9 5b 3f 70 bb 06 79 38 bb
       0.005864841 -0.0004056994 -0.0036658857 -0.0028148307
000100 6d 8b 39 3c 1c 3c 8a 3b d2 2d 12 bb 4d 7f 1b bc
       0.011324746 0.0042185914 -0.0022305143 -0.0094908
000110 5e 1a 0e 3c 19 a2 3f ba ea c3 34 3c 1a 98 d3 bb
       0.008673279 -0.0007310226 0.011033038 -0.006457341
000120 2b 1b 12 bc aa c3 f1 ba 06 1d c9 bb 32 a4 8e 3a
       -0.00891761 -0.0018445153 -0.006137493 0.0010882674
000130 94 f0 ac ba 7e 85 85 3c 87 d3 a7 3b 05 0f e4 3b
       -0.0013194256 0.016299006 0.0051216516 0.0069597983
000140 8d 20 eb 3b ec bc c5 bb c9 a1 20 bc 8c e9 83 bc
       0.007175511 -0.006034484 -0.009804198 -0.016102575
000150 17 e8 0c 3c c0 57 53 3c 25 d9 2b 3b 32 a2 e5 3b
       0.008600256 0.012899339 0.0026221958 0.0070078606
000160 93 28 61 3c 60 4f a2 3b fd 3d 02 3c 5f fc ef 38
       0.013742584 0.00495331 0.0079493495 0.00011443416
000170 36 9c 33 3c 47 37 8e ba f2 13 30 3c 80 4b 8e ba
       0.010962537 -0.0010850214 0.010746943 -0.0010856241
000180 7f 4b 0e bc 3f a4 38 3c f7 2d 9b 3b d7 2a 00 3c
       -0.008684992 0.011269628 0.004735704 0.007822714
000190 9e cb 81 bb 67 1a da 3b af a9 ef b8 e3 ef be bb
       -0.0039610406 0.0066559794 -0.00011428014 -0.0058269366
0001a0 da b1 4d 3c e2 29 5e 3c 73 03 08 3a 07 49 92 bb
       0.01255461 0.01355979 0.0005188502 -0.004464272
0001b0 4f ed cf 3a 13 ee 20 3c 8a fc 51 bc a0 64 20 3c
       0.001586357 0.009822386 -0.012816558 0.009789616
0001c0 eb 15 03 bc 28 46 1d 3c 82 d3 7f bc e7 1b 94 3b
       -0.008000831 0.009599246 -0.015614392 0.004519928
0001d0 70 68 5c 3b e3 4b 06 3b 92 49 82 3c 62 2d 13 3c
       0.0033631586 0.002049201 0.015904222 0.008982988
0001e0 66 b8 48 3b 7b b3 da 3b 5c 3a a5 b8 6c 18 00 3b
       0.0030627488 0.006674228 -7.8786834e-05 0.0019545807
0001f0 3b 2e 5c 3b 73 3f 26 3b 7a 18 f9 3b 52 b9 e3 3b
       0.0033596891 0.0025367409 0.007601795 0.006949582
