ML Agents tutorial/Assets/results/RollerBall_2walls_between/RollerBall/RollerBall-371284.pt (torch, 449865 bytes, 39 tensors)

network_body._body_endoder.seq_layers.0.weight f4 [128, 9]
00000000: 0be5 c13d a760 28be b9f3 44bc cc1c c8bb
00000010: 08c5 853f 30e0 953e 14ed 62bf cd78 60be
00000020: 6816 16bf e57c a3be 2551 bb3e 2b7f 09bf
00000030: bc1b f13e 72ca b0be 272f 043e 066c 583e
00000040: b7f4 673f 2478 c9be e015 333e 0498 f1bd
00000050: e75d c1be f2ae 30be 97b7 1b3c 068f 9abe
00000060: 566a e1be 5661 7a3e 74e0 eabd d1e7 1b3f
00000070: b177 9a3d 70cd f53d 8174 883e 83a0 b2be
00000080: 6dd9 4bbe 05df 623e 0007 99be aa61 b6bc
00000090: be2e b9be 9b95 d2bd 2d26 153e 4a5c abbe
000000a0: cccc c03e 26b2 debe c7e6 91be 0018 9abe
000000b0: 4a83 f1be b484 163f ddb5 293e 9afc c33e
000000c0: 1514 13bf c41e b73e 119e 07bf 9ce0 163e
000000d0: f3d4 69be cfa7 98bc 87e5 59be 8f07 dabd
000000e0: 8e5c 4d3d f611 bd3d b98e a93e 057f 83bb
000000f0: 47fd 433f 4c97 363f 0bb5 523f a439 0b3f
00000100: 5167 083d 3339 04be 403e b5be 38d3 31be
00000110: 7861 533e e978 4cbf 9ecb 2f3e 1474 043e
00000120: a3d9 b83d f239 a7be dd35 f73d a99f 80bd
00000130: 59b5 3fbf 861e 95be 75d5 1cbf 6856 b9be
00000140: 9c11 1fbf 6a43 413f d36f 583d 60dc 513e
00000150: 9e99 a43e a634 93be 5c5f bdbe abb5 7d3c
00000160: 555e 5b3e 70df ae3e 363f 253d c0d3 183f
00000170: ee39 e6bd 8cf9 a8be f2de 14be 99fe f8bd
00000180: b791 0bbe fdfc 5d3f df2f c1bd be48 06be
00000190: 7fac 693e 0ef6 a93e f71a 40be d87e 273e
000001a0: bb4d a13d 01df 21bf 9a79 c93e 6ec7 0fbf
000001b0: 6a42 02bd 80b2 c83e c11b ccba 315c a83d
000001c0: 372e 47be ed28 6d3e 98e3 9cbf 8449 3a3e
000001d0: 91d8 75be 8ab8 6bbd cc0b 55be 79dd 6fbe
000001e0: 464c 893e 3f88 4fbe 90e9 f03c b955 76be
000001f0: e2db 49bf 1ba5 e93d 7eee f4bd 8e86 3c3e
00000200: ae81 40bd d66d 81bd eebe b73e 4090 aebd
00000210: 775a 7e3f d6cb 88bd a1c8 a5bd d90e 53be
00000220: 73f8 97bd be6c e2bc 5ec9 8e3e 6785 1d3d
00000230: 4ccb be3e 20fa bcbc 9445 623f 3f07 803e
00000240: a493 f03d c573 e03d 8b91 b3be 5665 05bd
00000250: 17e1 2e3e 45f8 95be 10e9 41bf 736b e3be
00000260: 892b 933e 1922 73be bbb7 093f 6fc2 a6be
00000270: 23c3 a13c f78e 953d 6b1a 7a3e 73dc e83e
00000280: 4602 633f f0e6 c4be 6df6 413f 72d5 f8be
00000290: 60a6 8e3e 1eac 16bf 4fba 0bbe d523 bfbd
000002a0: 0413 a43e 4164 d33e 7650 e73d f50a 3bbe
000002b0: 8317 fb3e 5f59 9b3d a1c0 a9bd fd7e adbe
000002c0: 14eb 7c3f 8e40 933f 3621 3b3f 0737 7dbc
000002d0: fae2 673d 1cbc a9be 5bf1 853e b107 113e
000002e0: 02bc 95be afda 45be a800 8abe 1dd6 d5be
000002f0: 98f9 393e 49ca 70be 3ceb 463c 25d8 193f
00000300: b5d3 2abf b5cc a53c 4e2c 25be 13b0 263e
00000310: 2c53 af3e e1bb 87bd 7d7c cf3c 6189 91be
00000320: 9da0 2f3e b4bd 2ebe c7c6 bbbe 92dc eabe
00000330: f9ad c6be be90 18be 7884 03be d0d3 a1bd
00000340: e628 c33e 7ea0 a2be b6ae dcbd 22b7 15be
00000350: ddab 94be 127b 553f 91a5 69bf cef0 e33e
00000360: a44a 3a3e 79ac 883e 062d d6bd f426 c7be
00000370: d984 0b3e c03b 213e a3e2 62bf 5830 423f
00000380: 762e 933d 20bb 423e 0de4 77bd 6b96 1f3e
00000390: 4cc0 1cbe 0d76 c1be 99fe 7fbe d1ff 22be
000003a0: 229c d33e 2570 c43e 171f 23be 73c5 f03d
000003b0: 4b04 c53d c127 683e 57a6 2d3e b4d9 18bf
000003c0: fead ca3e afef babd b0ac d5be 53f9 79be
000003d0: 3b3c 8dbe 62ad 263d fd8d 3f3c 85cb 82be
000003e0: 5788 f3bd 7f2a 76bf 3d2b 97bc fd4e 1b3f
000003f0: 95f3 be3e 231d bebd 5f2c 863e 8d92 6b3e
0.094675146 -0.1644312 -0.012020999 -0.0061069485 1.0450754 0.29272604 -0.88643 -0.21921082
-0.5862794 -0.31931224 0.36585346 -0.5370967 0.47091472 -0.34529454 0.12908612 0.21134958
0.9060778 -0.39349473 0.17488813 -0.11796573 -0.37766954 -0.17254236 0.00950422 -0.30187243
-0.4402644 0.24451193 -0.11468592 0.609006 0.075423606 0.12002075 0.26651385 -0.34888086
-0.1990716 0.22155388 -0.29888153 -0.022263367 -0.36168474 -0.10282441 0.14565344 -0.33468848
0.37656248 -0.4349529 -0.28496382 -0.30096436 -0.47170478 0.5879624 0.16573282 0.38278657
-0.5745252 0.3576566 -0.52975565 0.14734119 -0.2283514 -0.018634705 -0.21278964 -0.10645973
0.050137095 0.092319414 0.331167 -0.0040129446 0.76558346 0.7132461 0.823075 0.5438483
0.033301655 -0.12912445 -0.35399055 -0.1736573 0.2064265 -0.79871994 0.17167518 0.12934905
0.09025886 -0.32661396 0.120708205 -0.06280453 -0.7488609 -0.2912485 -0.6126321 -0.36198735
-0.62136245 0.7549349 0.05284102 0.20494223 0.3214845 -0.28751105 -0.36986816 0.015485208
0.21422704 0.34154844 0.040343486 0.59698105 -0.11241518 -0.3300289 -0.14538172 -0.12157936
-0.13629805 0.86714154 -0.09432959 -0.13113686 0.22819708 0.33195537 -0.18760286 0.16356981
0.07876154 -0.632309 0.39350587 -0.5616368 -0.03180162 0.39198685 -0.0015572236 0.08220709
-0.19451223 0.23160143 -1.2256956 0.18192106 -0.24008395 -0.057549037 -0.20805281 -0.23424329
0.26816005 -0.20266818 0.029408246 -0.24056138 -0.7885114 0.114084445 -0.11959551 0.18410704
-0.046998672 -0.06319778 0.35887855 -0.08523607 0.9935679 -0.066795036 -0.080949076 -0.20611133
-0.07420435 -0.027639743 0.27888006 0.0384573 0.37264478 -0.023068488 0.8838742 0.25005528
0.1174691 0.10959581 -0.35071978 -0.032567345 0.17078052 -0.29290977 -0.7574625 -0.44417915
0.28744152 -0.23743476 0.53795975 -0.32570216 0.019746369 0.07302659 0.2442414 0.4548069
0.88675344 -0.3845744 0.7576664 -0.48600346 0.2786131 -0.5885638 -0.1364529 -0.09333006
0.32045758 0.41287425 0.112946436 -0.18265899 0.49041376 0.075854056 -0.08288694 -0.33885947
0.987962 1.1504076 0.7309755 -0.015455014 0.056612946 -0.3315133 0.26160702 0.1416309
-0.29245 -0.19321702 -0.26953626 -0.41764918 0.18161619 -0.23514666 0.012141045 0.60095435
-0.6672929 0.020239213 -0.16130182 0.16278104 0.34243143 -0.06627632 0.025327915 -0.28425124
0.17151113 -0.17064553 -0.36675093 -0.45871407 -0.38804606 -0.14898965 -0.12843502 -0.07901728
0.3811714 -0.3176307 -0.10775511 -0.14620641 -0.2903737 0.83390915 -0.9126826 0.44519657
0.18192536 0.26694086 -0.10457806 -0.38896906 0.13624896 0.15745449 -0.8862707 0.75855017
0.07186596 0.19016695 -0.06052022 0.15584724 -0.1530773 -0.37785378 -0.24999465 -0.15917899
0.41330057 0.3836681 -0.15929829 0.117564104 0.096199594 0.22671415 0.16957985 -0.5970719
0.3958587 -0.09127747 -0.41733313 -0.24411516 -0.27585015 0.040692694 0.0116915675 -0.25545898
-0.11891239 -0.96158594 -0.018453235 0.606674 0.37295213 -0.09282901 0.26205727 0.23005123

network_body._body_endoder.seq_layers.0.bias f4 [128]
00000000: 92a8 c0bb 1860 c4bd d88c 92bd 23cb d5bd
00000010: f827 c1bd be94 93bc 2490 0a3d fee5 5a3d
00000020: 71b2 27be 5966 9dbd 54f7 1bbd 1a60 b9bc
00000030: 18bf 1c3c f11a 67bd 9a1b 293d b1b3 bdbd
00000040: c972 243a 6f06 32be e721 e03c d49b ba3c
00000050: 0211 1cbe 3304 11bd 18ed 55be b205 4f3d
00000060: 8374 c53b 1f62 35bd 28a9 23be 8aa9 423d
00000070: ef57 39be 845c e3bc c32e e9bd 312d 39bd
00000080: 1efd 1ebc 19b7 03be 6865 393d bdab 0cbc
00000090: dba9 6fbd 95b7 a3bb beb8 38be 6e8e 2f3d
000000a0: d5ea 2a3c 6b5b bf3d 42c3 e9bd e5a3 113c
000000b0: cf7c bfbd a6f1 9fbd 50d7 6fbd 434b 44be
000000c0: 8cdf 12be f0f7 1abe a825 ee3b a365 9abd
000000d0: a5bb de3c 06c5 103e 0935 b4bd 027b 89bc
000000e0: b745 28bc 3acd b03b b8a0 68bd 4821 a03b
000000f0: 8f64 dcbd ad19 97bd 5c5b 453e 5b10 04be
00000100: 9566 8dba fcea 7cbd 6702 7abd b490 d83d
00000110: c608 af3d 2f61 11be c1fb a93c 924f 9cbd
00000120: 95b9 e3bd 3305 9cbd 730d 57bd cf03 48be
00000130: 8806 19be 48ef 8b3d f625 88bd b296 3c3d
00000140: 0272 bc3b e5c0 183d 7cfc 17be c6f0 30bd
00000150: f36b 3abc 09d3 dbbd 11d7 ca3d 811d 773c
00000160: 00c1 07bc fdce 21be 9f2b c43d f8cd 363c
00000170: 7970 ddbd 7dc0 94bd 9a2e d7bb ba8d 32ba
00000180: a912 cbbd 8b49 5abd 89db d4bc 030f 733c
00000190: d919 b0bd 9122 22be 1b9a 07bd 426c 07bc
000001a0: 5e22 cfbd a7d4 8dbb 098a ce3c 55ae 49be
000001b0: 80ad 93bc 92b9 343d cfbe 45bd 778e be3a
000001c0: f833 a5bd 8bdf c9bd 8604 1ebe 376b 573c
000001d0: 06c5 d5bd 4f56 34bd 5753 46bd de33 2abe
000001e0: 47df d43c 2514 04be 9b15 fdbd 16c0 863c
000001f0: 9b4c b93c 3b86 8e3d 0936 babc b115 093e
-0.00587947 -0.09588641 -0.0715577 -0.10439136 -0.094314516 -0.018015262 0.03382887 0.053441994
-0.16376664 -0.07685537 -0.038077667 -0.022628833 0.009567045 -0.056422178 0.04128609 -0.09262789
0.0006273208 -0.17385267 0.027359916 0.022779383 -0.15240863 -0.035404395 -0.20891225 0.05054254
0.006025852 -0.04428303 -0.15982497 0.047524966 -0.1809995 -0.027754076 -0.11385872 -0.045209114
-0.0097039025 -0.12862815 0.045262724 -0.0085858675 -0.058511596 -0.00499625 -0.18039224 0.04286044
0.010431965 0.093436085 -0.114141956 0.008889173 -0.09349977 -0.07809763 -0.058554947 -0.19169335
-0.14343089 -0.15133643 0.0072676726 -0.07538917 0.027189085 0.14137658 -0.08799178 -0.016782288
-0.010270528 0.0053955587 -0.0567939 0.00488678 -0.107613675 -0.07377944 0.19273132 -0.12896864
-0.0010788018 -0.061747536 -0.061037447 0.10574475 0.08546595 -0.14197229 0.020749928 -0.07632364
-0.11119381 -0.07618179 -0.05250306 -0.19532703 -0.14943898 0.06832749 -0.066478655 0.04604215
0.0057508955 0.037293334 -0.14842409 -0.04319837 -0.011378276 -0.10733611 0.09904302 0.015082718
-0.008285761 -0.15801616 0.095786326 0.011157505 -0.10812468 -0.07263277 -0.0065668346 -0.000681128
-0.099156685 -0.053292792 -0.025983589 0.014835122 -0.0859868 -0.15833499 -0.03310595 -0.008265557
-0.10113977 -0.0043283287 0.025212305 -0.19695409 -0.018027067 0.044122286 -0.048277672 0.0014538307
-0.08066553 -0.098570906 -0.15431413 0.013148121 -0.1043797 -0.044027623 -0.048419323 -0.16621348
0.025985373 -0.1289831 -0.123576365 0.016449016 0.022619536 0.06959196 -0.022730844 0.13387181

network_body._body_endoder.seq_layers.2.weight f4 [128, 128]
00000000: 2283 89bd fe67 8cbe 963e 9d3e 1fef 253e
00000010: 9b2e 4abe 1a1a 483e 8422 673d f28b 183e
00000020: 9ae7 143c aad5 f83c e351 31be 0dab 52be
00000030: 1b47 3dbe d010 ad3d d600 8abd 5eaf 3abe
00000040: 99e4 293e ab6c 58bd 3ae1 deba 28af 12be
00000050: d840 4e3d da69 683d 96b4 2f3d fded 57be
00000060: dbf6 36be 5267 373e 30ad 3ebd a9f8 70be
00000070: 7a0d b1bc 287c 5cbe 736b 87be 38d5 77be
00000080: fb38 97bd 87b0 1e3d 87d9 0abb 9a89 2dbe
00000090: 7c94 113e 90cb 03be 30e8 16be b52f 30bd
000000a0: aa3e d43d dc5a 02be 41ec e53d 3046 13be
000000b0: 8f91 793c 7807 3bbe 06b0 1fbe 54ac 1fbe
000000c0: 7511 46be a9c1 eebb 7165 243d b46e 9fbe
000000d0: 2b60 00bd fcd5 793e 9822 443d bfa2 f63c
000000e0: 4431 f63c 9fa4 4ebd 3a89 e43d 74a3 96bd
000000f0: 4b55 b3bd 6945 4a3d 8828 a53d ff66 dcbd
00000100: 754d f43d 9312 423d ba45 c2bd 24d5 bf3d
00000110: f351 893d da76 b43b 1130 993d e81e d1bd
00000120: c911 073e 59ec 5cbd 0500 1ebd 53e6 ddbd
00000130: 4c52 803e 5123 cfbd 82bc 2dbe c3a1 413d
00000140: feb7 4ebd 3c02 803b 17c2 4c3e d373 73bd
00000150: 70b2 bcbd e911 38be 6394 ef3d 446f 2cbe
00000160: 7b11 67be 5b4d 4dbe 093a 933c 182d 4cbd
00000170: 00ea 1d3b 0e79 aa3d 5729 ae3d 61f0 c23d
00000180: 8acc 013d 6cc4 59be fc73 d43d 6059 243d
00000190: 277c 433d 5d7d 3a3e 027e e9bd 3c4d 59be
000001a0: abcf e5bc 965a 353e f4e5 a33d 2a20 fb3d
000001b0: a155 413d bc5a 89be 7029 9bbd b050 05be
000001c0: c9b6 5e3e 94b4 203d c404 4d3e 0f18 28be
000001d0: 086e b23c 780a 04be 17a3 c8bd eafb 903d
000001e0: 1ecd 3d3d 4275 1eba e88b 10be 5abd 12be
000001f0: 606c 83bd df0f 123e 4ce9 cd3d 95f6 623e
00000200: a074 69be 1c23 fcbd db42 d0bd 6212 11be
00000210: 4ead 81be 9589 87bd 7ea4 10be 8e95 91be
00000220: 6aec af3e 3081 143e 7f30 dcbd c73b 903c
00000230: 224c 22be 99b8 f8bc af5d 223c 7053 60be
00000240: eeb9 4d3e 7a67 6cbe 9d5f 673b 7a5b 94be
00000250: 7072 1e3c 9dc7 4cba a806 b53d 6f78 9c3d
00000260: ae5a a4be e021 c4bc e34a d03c dbb5 dfbd
00000270: 80c6 58be 0273 19be 5faf 0cbe 5a96 34be
00000280: 4b28 29be 8ab8 16bd f3b6 f43d 8cf9 04bd
00000290: 0e7c 6cbc 2180 9fbd 5102 85bd f1b0 00be
000002a0: 9f07 993c 6e91 cf3d a158 263e 1e53 7f3d
000002b0: 85b9 d2bd b4df f4bd b04d 9f3d 9a69 dabd
000002c0: 3261 7fbd b928 54be f806 6c3d 5c1b 82bd
000002d0: 9a2f e43c 9ac1 5d3d 29aa 88bd ab88 07bd
000002e0: 7641 4b3d 74f0 01bd 5167 563d c7bd 193e
000002f0: 39d4 963c acee db3c a8c0 673e b170 933e
00000300: 7e96 2f3c 2c65 1c3d 102c dcbd fbff 02be
00000310: b338 bfbd 024c 6f3d 5915 ad3d 6e2f 283e
00000320: 2972 aabc 2727 b7bd 0abb eebd 5fcd 783d
00000330: a395 923d 1164 dd3c db32 39be 8b18 8b3c
00000340: e78e 26be 5184 953d ecce 573e 4af3 a7bc
00000350: cd7b ba3d 0d75 49be dca2 fdbd 24d1 da3c
00000360: 35c4 8a3d 898f c1bd f118 03be 1e23 adbe
00000370: 137e 1a3c 60bf 37bd 7d12 68be 5dae 1d3d
00000380: caad 8d3d 7e3c 4dbe 8c55 223e 6dd2 8ebd
00000390: 79c8 02bc 012e 023e 2d5c fdbd 0b4a 15bd
000003a0: bafd f3bc e708 833d 5e94 babd b6d9 8b3d
000003b0: d397 303e 0042 62bd 0597 38be 0b5a 86be
000003c0: b51b 093e e102 873d bcdf e8bd eb4a 86be
000003d0: a1d6 7d3c de91 ffbd 8980 e8bd bc8e aa3d
000003e0: f602 9b3d 1342 ee3c 20c4 043e 34b1 0ebe
000003f0: 223f 4fbc eda7 cbbd 8446 953c d0aa 863d
-0.06714465 -0.2742309 0.30711812 0.16204499 -0.19744341 0.19541207 0.0564294 0.14897135
0.009088421 0.03037532 -0.17316394 -0.20573063 -0.18484156 0.08450472 -0.06738441 -0.1823096
0.1659111 -0.05283801 -0.0017004379 -0.1432463 0.05035481 0.056741573 0.04289683 -0.21086879
-0.17867605 0.17910507 -0.046551883 -0.23532356 -0.021612871 -0.21531737 -0.26449165 -0.2420243
-0.07383915 0.03874257 -0.0021186785 -0.16947022 0.14216799 -0.12870622 -0.1473701 -0.043014247
0.10363515 -0.12729973 0.112267025 -0.14382243 0.015232458 -0.18264568 -0.15594491 -0.15593082
-0.19342597 -0.0072862697 0.040135805 -0.31139147 -0.031341713 0.24398035 0.047884554 0.0301069
0.030052789 -0.050449964 0.111589864 -0.07355395 -0.08756503 0.0493826 0.08064371 -0.107618324
0.11928836 0.047380995 -0.094859555 0.09366825 0.06705084 0.0055073323 0.07479871 -0.10210973
0.13190378 -0.053936336 -0.038574237 -0.108349465 0.25062788 -0.10114158 -0.16966441 0.04727341
-0.050468437 0.0039065164 0.19995914 -0.05943663 -0.09213722 -0.17975582 0.116982244 -0.1683932
-0.22565262 -0.2004904 0.01797201 -0.049847692 0.0024095774 0.083238706 0.08503979 0.09518505
0.031689204 -0.21266335 0.10373685 0.040124297 0.047725823 0.18211885 -0.11400987 -0.21220869
-0.028053125 0.17710337 0.080028445 0.12261994 0.047200803 -0.26827037 -0.07576263 -0.13019061
0.21749415 0.039234713 0.20021349 -0.16415428 0.021780983 -0.12894619 -0.09796732 0.07079299
0.046338193 -0.00060446945 -0.1411587 -0.14330044 -0.06417155 0.14263867 0.100542635 0.22164376
-0.22798395 -0.12311384 -0.10169002 -0.14167169 -0.25327533 -0.066180386 -0.14125249 -0.28434414
0.34360057 0.14502406 -0.107514374 0.017606629 -0.15849355 -0.03036146 0.009910031 -0.21906829
0.20090458 -0.23086348 0.0035304793 -0.2897604 0.009670839 -0.0007811727 0.0883916 0.076401584
-0.32100433 -0.023941934 0.025426334 -0.10923358 -0.21169472 -0.14985278 -0.13738774 -0.1763548
-0.16519277 -0.036797084 0.11948957 -0.03246455 -0.014433874 -0.077881105 -0.064945824 -0.12567498
0.018680392 0.101351604 0.16244747 0.062335126 -0.10289291 -0.119567305 0.077784896 -0.10664673
-0.062348552 -0.2071866 0.057623833 -0.06352875 0.02785473 0.05413971 -0.066730805 -0.03308932
0.049622975 -0.031723455 0.052344624 0.150138 0.018411743 0.026847206 0.22632086 0.28796914
0.0107170325 0.038182423 -0.10750592 -0.12792961 -0.093369864 0.058422096 0.08451337 0.16424343
-0.020806389 -0.089430146 -0.116567686 0.060742732 0.07157447 0.027025254 -0.18085806 0.016979476
-0.1626545 0.07300628 0.21075028 -0.020501751 0.091056444 -0.19673558 -0.123845786 0.026711054
0.06775705 -0.09451205 -0.12802483 -0.33815855 0.0094294725 -0.044860244 -0.22663303 0.038496364
0.06917913 -0.20042607 0.15852946 -0.06973729 -0.007982367 0.12712862 -0.12371097 -0.036447566
-0.029784072 0.06398182 -0.0911033 0.068286344 0.17245416 -0.055238724 -0.1802636 -0.26240572
0.13389476 0.06592346 -0.11370799 -0.26229033 0.015493066 -0.12478994 -0.11352641 0.08328006
0.07568924 0.029084241 0.12965441 -0.13934785 -0.012649329 -0.09944139 0.018222101 0.06575549

network_body._body_endoder.seq_layers.2.bias f4 [128]
00000000: 980a 86bd 9d83 0bbe 9494 12bc bd19 12be
00000010: 154c 28bd 28c5 c8bd f20e 0ebe db7c 073d
00000020: 844b 97bd d602 23be f34c d7bd 5903 8cbe
00000030: 62bc 57be 108f 0abd 1ebd bbbd 0907 febd
00000040: d6a4 3abd bd86 5dbe 7097 86bd 6945 c53c
00000050: c5ee 6ebe 6706 75bd 9f13 c7bd 8b31 e4bd
00000060: 98b1 e0bd e71d 68be c194 a5bd e8c2 0cbe
00000070: ee1f 2abe 923f c2bd 8fea 97bd 6f28 4bbd
00000080: d226 9fbd dc24 123c afc0 9bbd f2b9 fabc
00000090: e926 e7bd b4f8 eb39 c268 0cbc d123 8fbd
000000a0: 1055 eebd dcab cdbc 93a9 3bbc 12b9 32be
000000b0: 8db3 08be 6861 14be 3994 09be 0194 babd
000000c0: ea69 2ebe a761 26be 29e0 21be 97c2 61be
000000d0: c625 cebd 2e4c 70bd fcf8 96bd 7fb2 e9bb
000000e0: e85d 04be fcd5 fdbd 46f6 dcbd cd82 d3bd
000000f0: b73e 38be 423c 023c 3a8d 113c 7c25 b7bd
00000100: c85e 1cbd ce77 5b3d 486f c3bd daf9 ccbd
00000110: c9b2 54be 3ead c7bc c815 63bd 0b40 7ebd
00000120: 3238 95bd 1786 11be eda4 ffbd 921c 17be
00000130: 61af 22be 9359 b238 8b61 da3c 8542 30be
00000140: c135 8f3d 3851 bfbd 2601 543b b707 11be
00000150: 697f acbb e2f7 bebd be22 a9bc f964 a0bd
00000160: 54c9 cbbd 678f 0dbe 78cd 4fbd 9533 18be
00000170: 77be cabd 81d0 debd 71b6 87bd 2bc9 9dbd
00000180: fd98 90bd 855e 04be f847 75bd e664 10be
00000190: 6446 2abe 4305 6dbd afa1 4dbe 6c96 93bd
000001a0: 3fcf e43c 54df 89bc 1cdd b2bd 4f21 3ebe
000001b0: 54ca 3dbe 19b2 c4bd 3dd3 253b c37d 3fbe
000001c0: dc31 30be 82f3 183d 8653 77be bb60 d7bd
000001d0: 3b8a 05be 4e05 923d fcd5 fabd 18f5 1dbe
000001e0: dc9f 453d d58d 6dbc 1f64 5e3d 94ad 9c3d
000001f0: 80f4 fdbd f069 95bd 869a a83c 0ce8 38bd
-0.06544989 -0.13624425 -0.008946557 -0.14267631 -0.041088182 -0.098032296 -0.13872889 0.033078056
-0.0738745 -0.1591905 -0.10512724 -0.27346304 -0.21067956 -0.03382784 -0.091669306 -0.124036856
-0.045567356 -0.2163343 -0.06571853 0.024080949 -0.23333271 -0.05982056 -0.09720539 -0.11142262
-0.10971373 -0.22667657 -0.08085013 -0.13746226 -0.16613743 -0.09484781 -0.074177854 -0.049599107
-0.07771076 0.008919921 -0.07605111 -0.030606244 -0.112867184 0.0004500799 -0.008569898 -0.06989253
-0.11637318 -0.025106363 -0.011454004 -0.17453411 -0.13349743 -0.14490283 -0.13435449 -0.09110261
-0.1703259 -0.16248189 -0.15808167 -0.22046886 -0.100657985 -0.0586664 -0.07371709 -0.007131874
-0.12926447 -0.1239433 -0.107891604 -0.10327683 -0.17992674 0.007948937 0.008883769 -0.089426965
-0.038176328 0.05358105 -0.095427096 -0.10008593 -0.20771326 -0.0243746 -0.055440694 -0.062072795
-0.07286109 -0.14211307 -0.12482629 -0.14756992 -0.15887214 8.504386e-05 0.02665784 -0.17212875
0.069926746 -0.09341663 0.0032349317 -0.14163099 -0.005264212 -0.09324624 -0.02064645 -0.07831759
-0.0995051 -0.13824235 -0.05073306 -0.14863427 -0.098996095 -0.10879613 -0.06626595 -0.07704385
-0.0706043 -0.12926681 -0.059883088 -0.1410099 -0.16628414 -0.057866346 -0.20081209 -0.07206425
0.027930854 -0.016830124 -0.087335795 -0.18567394 -0.18534213 -0.09604282 0.002530291 -0.18700318
-0.1720652 0.037341602 -0.24152955 -0.10516497 -0.13041012 0.07129918 -0.122478455 -0.15425527
0.048248157 -0.014499147 0.0542947 0.07650295 -0.1240015 -0.072955966 0.020581495 -0.045143172

action_model._continuous_distribution.log_sigma f4 [1, 2]
00000000: c418 69bf 2d95 92bf
-0.91053414 -1.1451775

action_model._continuous_distribution.mu.weight f4 [2, 128]
00000000: 44d5 053c bfb8 1e3d 770d 893d 10d5 c93b
00000010: 5406 263c 1383 833c 1fd2 bebc 4786 903d
00000020: dc4f 5dbd d65e 253d 8d8e 293c f31c 523d
00000030: eb66 24ba 232e 8c3b de28 633c 41eb 223d
00000040: fc31 7e3c 1790 053d 06ef c1bd 1bd2 bebb
00000050: 22d2 383c fa94 4ebd d096 31bd 0991 1b3d
00000060: a59e 483d 2d4f 503d a466 513d b91c f73c
00000070: e08f 043d ecae 163d 253c bf3c 39a8 9fbd
00000080: 832b 213d 1a15 6c3d 40c8 67bd 8d5d 69bc
00000090: a6cf da3b 32ca 433d 9fe4 873d 543f ad3c
000000a0: 3488 e03a 4707 853c b21e ccbd bfce 21bc
000000b0: 12e2 1a3d 228f 7a3d c430 3cbd 42d6 9d3d
000000c0: 0680 433d 9703 e53c b46d aeb9 2f63 db3c
000000d0: e7af 493d 7e50 d73c d080 11ba ba72 21bd
000000e0: 2455 183d df1b 88bc 5520 163d ab31 c5bc
000000f0: 5a00 823c d23f e0bd 4207 f2bd 00b9 bdbb
00000100: 965c b3ba 6559 ca3d 6c68 eebc 4f4f 8d3c
00000110: a675 c83c dd38 f23a 733e 39bc 963a 4b3d
00000120: 5030 0dbd 2550 6e3c 4dd8 fdbc c406 493d
00000130: 3af6 1b3d 7f69 363b df3d 3d3d 93d3 063d
00000140: 6934 133e 8517 4b3d 72aa 9c3c 8990 f33c
00000150: a06b 17bd 5280 fc3c 943b 8c3c 35ea c63c
00000160: 9bf7 dcbc 08f6 1a3c 4c1f 3f3d 73a6 933d
00000170: 1b75 c83a 8ef7 8b3d 5ddf ef3b 8ad9 c53c
00000180: 03bd 153c d4a8 b33d 0102 1a3c 826f 303d
00000190: 650e 073c 9ba2 e4bd 5ad5 753c 8764 263d
000001a0: a39e da3c 9b4f 97bc 824c ad3c b761 513c
000001b0: 32a4 c53c 5e8f cdbd b46f 91bd 59b9 ef3c
000001c0: 6278 223c a162 bd3d 92be 733d a16b 7cbb
000001d0: 0d67 0f3d 72c3 923d 7397 3ebd 4664 d0bc
000001e0: c485 673d b050 a73d 37eb 123d 44ab 74bc
000001f0: fb47 02bd b01a 7c3c b938 97bc e0dd a03d
00000200: 0d71 9abb 2c5c 3cbd 97cf 0abd b73f b1bb
00000210: 46d8 3dbc a2ec 0bbd dc7d 15bd 228a d93c
00000220: 642f 50bd 6301 c7bc a058 d1bc c920 f1bc
00000230: 3a4b 24ba 65f1 d3bd df4b 773c 6ade e6bc
00000240: 5769 c3bc c254 6cbb dd07 243c 2fb1 b13d
00000250: abd2 c9bc cbe2 65bd 066d 7abd cac9 29bc
00000260: c577 25bd 6fc2 f3bc a2cb c8bb 391e c8bc
00000270: 1005 14bd 79dc 52bc 85b4 a8bc f618 60bd
00000280: 470a 33bd 6494 87bc 587d 6f39 12b5 8ebc
00000290: fbc7 0fbd 1393 09bd e5df e53c dda7 00bd
000002a0: 8d96 05bd 5f9a 14bb fc01 b93c 53b4 083c
000002b0: a01a 7dbc 126b 2fbd 962c 07bd 4330 42bd
000002c0: 76bc bebc 3122 1cbd abce 4bbd 0aa4 25bc
000002d0: e012 a8bc 3f25 85bd 7bd0 cabc da6d 3e3d
000002e0: fe9b bdbc 9e4e 07bd 2af1 02bc b8ca 45bd
000002f0: fe76 51bd 8147 4e3d b970 343c 533b 61bc
00000300: 9c30 32bd 8f18 0abd 2b10 5fbd 69dd 3abd
00000310: c2a5 a6bc f87a 45bc c2a9 4cbd 3ccc 183c
00000320: e5ba 43bd 2bb3 15bd 9de0 41bd b5e4 f3bc
00000330: 4222 39bc 4314 a43c 2ba7 443d e32e 6dbd
00000340: 1576 083d feda 08bd 650b a7ba 96aa 643a
00000350: 8794 043d 829a 81bb 97dc 9b3b 6342 1fbc
00000360: fea2 8dbd 1916 86bb 7fca 7a3c b868 63bc
00000370: ab89 0cbd d196 b0bc 1b7f 5abd 949c e73b
00000380: 1b86 b03c 9a9e b4bc 2211 313b 4744 c3bc
00000390: 598e 03bd d65f 46bb cb11 b3bb 20f3 b4bc
000003a0: 93e0 c63d 47ad f5bd d921 3dbb d242 15bd
000003b0: a0e9 6abc f2d0 92bd 2f3c 913d 98f8 fbbc
000003c0: 45b1 0abd 3f8a 753d 4dce 29bd 9d8a f4bc
000003d0: ca53 81bd 201d 1abd ba38 5bbd 3cda 2bbd
000003e0: a928 ad3d cbe6 61bc 07d3 a0bc 506b 8c3d
000003f0: 7df5 2bbd 4d46 47bd dc4f 3e3c 4db9 52bb
0.008168522 0.038750406 0.06692021 0.006159432 0.010133345 0.016053712 -0.023293553 0.07056861
-0.054031238 0.040373646 0.010348928 0.05129714 -0.00062714395 0.004277961 0.013864724 0.039775137
0.015514847 0.032608118 -0.09469418 -0.0058233864 0.011280568 -0.050435044 -0.043356717 0.037980113
0.04897942 0.050856758 0.051123276 0.030165063 0.032363772 0.036787912 0.023344109 -0.07795758
0.039348137 0.05763731 -0.056587458 -0.014243496 0.0066775857 0.04780025 0.06635403 0.021148361
0.0017130435 0.016238822 -0.09966792 -0.009875952 0.037813254 0.06117166 -0.045944944 0.07706882
0.047729515 0.027955813 -0.000332696 0.026780693 0.04924002 0.026283499 -0.00055505056 -0.039416052
0.03719057 -0.016614852 0.036651928 -0.024071535 0.015869308 -0.10949673 -0.118177906 -0.005789876
-0.0013684209 0.09880332 -0.029102527 0.017249731 0.024470162 0.0018480081 -0.011306393 0.04961642
-0.034469903 0.014545475 -0.03098693 0.049078718 0.038076617 0.0027833877 0.046201583 0.032916617
0.14375462 0.049582977 0.019124243 0.029732006 -0.036967874 0.030822907 0.017118253 0.0242816
-0.026973536 0.0094580725 0.046660706 0.07209482 0.0015293689 0.06834327 0.007320328 0.024151582
0.009139302 0.08772436 0.009399892 0.043075092 0.008243178 -0.11163827 0.01500448 0.040623214
0.026686972 -0.018470576 0.021154646 0.012779645 0.024126146 -0.10037111 -0.07101384 0.029263185
0.009916397 0.092473276 0.059507914 -0.00385163 0.035010386 0.071661845 -0.046531152 -0.02543844
0.056524053 0.08169687 0.03586885 -0.014933411 -0.031806927 0.015387222 -0.018459665 0.07854819
-0.0047131837 -0.04598634 -0.03388938 -0.0054092067 -0.011587208 -0.034161218 -0.036496982 0.026555125
-0.050826445 -0.024292653 -0.025554955 -0.029434578 -0.0006267313 -0.10348777 0.015093773 -0.028182227
-0.02385394 -0.0036061262 0.01001164 0.08676373 -0.024636587 -0.05612449 -0.06113913 -0.010363052
-0.040397424 -0.0297558 -0.0061277905 -0.024428474 -0.03613764 -0.012869948 -0.02059389 -0.054711305
-0.043710973 -0.01655025 0.0002283951 -0.017420325 -0.035102826 -0.033587527 0.028060863 -0.031410087
-0.03261428 -0.002267502 0.022583954 0.008343774 -0.015448242 -0.04282672 -0.033001505 -0.047409307
-0.023283225 -0.038118545 -0.04975764 -0.010109911 -0.020516813 -0.06501245 -0.024757614 0.04649148
-0.023145672 -0.03303396 -0.007992068 -0.04828903 -0.05113887 0.05036116 0.011013203 -0.013747054
-0.04350339 -0.033714827 -0.05445878 -0.04562131 -0.020342711 -0.012053244 -0.04996658 0.009326037
-0.04778566 -0.03654782 -0.04733335 -0.029772142 -0.011299672 0.020029193 0.048010986 -0.057906043
0.033315737 -0.033411972 -0.0012744485 0.0008722929 0.03236821 -0.0039551863 0.004756521 -0.009720418
-0.06915854 -0.0040919897 0.015307068 -0.013879947 -0.034310978 -0.02155629 -0.053343873 0.007068226
0.021548321 -0.022048283 0.0027018269 -0.023836268 -0.032118175 -0.0030269525 -0.0054647676 -0.022088587
0.09710803 -0.11995941 -0.0028859286 -0.036440678 -0.014337927 -0.071687594 0.07091557 -0.030758187
-0.033860464 0.059946295 -0.04145651 -0.029851252 -0.063148096 -0.037625432 -0.053520896 -0.04195617
0.08455021 -0.0137879355 -0.019631876 0.06856406 -0.041982163 -0.04865103 0.01161572 -0.0032153905

action_model._continuous_distribution.mu.bias f4 [2]
00000000: f877 943d 741e ce3c
0.07249445 0.025161006

action_model._discrete_distribution.branches.0.weight f4 [1, 128]
00000000: 35b8 22bc f71d 023c 6dc8 15bc 9330 d0ba
00000010: 4dbb 243c d986 433b c78e bebb 4d4d 5c3b
00000020: a75e 41bc d2cd 273c a1ec c9bb 7165 863b
00000030: 2593 e53a 34f2 0abb 816e 9a3b 3412 9bbb
00000040: 0388 a83b f3fa 823a 302a 083b 7fc8 553c
00000050: d372 3fbb 8c16 3c3b 19ee 24bc 0b93 13ba
00000060: 0dd1 35bb 12c8 f0bb 5054 0bbc acc7 a13a
00000070: d12c 15bc 8aa1 ccbb 72dd cf3b a4f8 3fbb
00000080: dd92 b7bc 6838 003b 8f38 1cbc 244e 803b
00000090: 1aa0 bbbc 87e4 29bb 45a0 cdba 2813 923c
000000a0: f6ee 223c f507 eb39 8f74 c3ba 9500 9ebc
000000b0: 73a9 da3a 4bad 7fba 5ce7 1dbb 2128 3fbc
000000c0: 79f0 27bc 50cd 263c f44d aa3b 739c 5ebc
000000d0: 08f1 88bc 6da0 68bc a0bc b8bb 1f29 93bb
000000e0: e661 a73a c3d9 2d3c 5bf2 17bc 6cb8 c1ba
000000f0: 6be0 cd3b 27ae 59bc 7d9d 8e3b 86ac b83b
00000100: 7b12 e2bb 13da 333b f2c3 babb f012 ff3a
00000110: c39e 60bb 705f 603c c157 2f3b f435 143c
00000120: 0dea b2bc c291 4e3b 6afd 01bc a01d f4bb
00000130: b3cf 9ebc a35b a83b ca42 7abc 636d e5bb
00000140: 4e7d c4bb 836f 0e3b 6721 1e3c d00b aebc
00000150: 58fd 3fbc 3b57 5dbb bbfa f43b 27b3 d6bb
00000160: da92 ae3c 27ae 343b 8fef 323c c01a bc3b
00000170: 62f9 8c3c efff 273b fdf4 e5b9 130f ffbb
00000180: b7e8 86ba 801a d83b 0a1c 533c af51 bc3b
00000190: 4158 9ebb 5bef 5dbc 203d fa3b 8031 d8bb
000001a0: e742 a9bb faee fbba ab9f e3bb 5d94 3c3b
000001b0: 12bf e83b 923f 34bb 779c 333c fe87 9aba
000001c0: 4b51 f1bb 28d9 7dbc d53e e6bb f04f e73b
000001d0: b1ed 39ba 4bcd 263c 1246 b03a 1721 51bc
000001e0: c840 7fbc 4724 b43b a339 f43a bf96 2a3b
000001f0: dd35 71bb e9be b63b d5da 393c 34dd 37bb
-0.009931614 0.0079417145 -0.0091420235 -0.0015883617 0.010054422 0.0029835014 -0.00581536 0.003361541
-0.011802352 0.0102419425 -0.0061622416 0.004101448 0.0017515166 -0.0021201493 0.00471288 -0.0047323946
0.005143167 0.0009993002 0.0020777099 0.01304829 -0.0029212728 0.0028699962 -0.0100665325 -0.0005629516
-0.0027743012 -0.007348069 -0.008503988 0.0012342832 -0.009104923 -0.006244843 0.006343537 -0.0029292488
-0.022408897 0.001956487 -0.009534969 0.003915565 -0.02290349 -0.0025923566 -0.0015688023 0.0178314
0.009944668 0.0004482862 -0.0014912057 -0.019287387 0.001668258 -0.00097533007 -0.00240942 -0.011667282
-0.010250204 0.010180786 0.005197281 -0.013587105 -0.016716495 -0.014198405 -0.00563772 -0.004490986
0.0012770265 0.0106110005 -0.009274091 -0.0014779693 0.006282856 -0.01328615 0.00435227 0.005635801
-0.0068991757 0.0027443215 -0.005699628 0.00194606 -0.0034274317 0.013694629 0.0026755186 0.009046067
-0.02184012 0.0031519984 -0.007933954 -0.0074498206 -0.019386148 0.005137877 -0.015274713 -0.0070015653
-0.005996383 0.0021733947 0.009651518 -0.021245867 -0.011718117 -0.0033773917 0.0074761785 -0.0065521183
0.021310259 0.0027569623 0.010921373 0.0057404935 0.017208759 0.0025634726 -0.00043860814 -0.0077837794
-0.0010292743 0.006594956 0.012885103 0.005747042 -0.004832298 -0.013545836 0.007636681 -0.0065976977
-0.005165446 -0.0019221001 -0.006946524 0.0028774955 0.0071028555 -0.0027503711 0.010962597 -0.0011789796
-0.007364427 -0.015493669 -0.007026533 0.00705909 -0.0007092609 0.010180782 0.0013448617 -0.012764237
-0.01557941 0.0054974887 0.00186329 0.0026029793 -0.0036805787 0.0055769575 0.0113436775 -0.0028055431

exp_avg f4 [128, 9]
00000000: f098 7f38 ff41 3fb8 8eea 073a e819 88b9
00000010: ff41 3fb8 eb54 dcb9 bf14 a239 3bd3 6bb8
00000020: ff41 bfb8 57c1 efba d744 0ab9 79f8 2bbb
00000030: 6244 8bba d744 0ab9 ae7e 353a f8d8 aeb9
00000040: fcb7 8bb9 d744 8ab9 eced e53a 1089 46b9
00000050: efaf ab3b c938 383a 1089 46b9 0ecb 23bb
00000060: 4b69 dd37 9dae b438 1089 c6b9 5af7 8f37
00000070: 7edb 8bb7 d0bd 3b39 019f 8c38 7edb 8bb7
00000080: b610 3ab9 dd86 b3b7 abf3 8db7 7edb 0bb8
00000090: 7ddb 0f38 54a5 9f37 7b3d c4b8 e175 d037
000000a0: 54a5 9f37 9e0b 9638 ec18 1c38 1484 9d36
000000b0: 54a5 1f38 4f1a c737 8008 2538 b849 98b9
000000c0: aef8 2338 8008 2538 a365 6239 9995 e937
000000d0: b666 4837 8008 a538 4f31 66bb 843d 1438
000000e0: b0a3 f6bb 8fcd f2ba 843d 1438 a482 553b
000000f0: 57b9 fdb9 2c0f b3b9 843d 9438 53ef 163a
00000100: 3ee9 69b9 34a4 4b3b c081 9ab8 3ee9 69b9
00000110: 085b 00bb 96db 3939 b8e5 25b8 3ee9 e9b9
00000120: 6660 6038 2a6a 1437 4a6c 0d38 1c44 1138
00000130: 2a6a 1437 2098 e1b6 98f9 c837 0a82 3d37
00000140: 2a6a 9437 83be ab37 744c 4a37 eac1 81b8
00000150: f41d 4438 744c 4a37 cc9a 0237 36e5 4037
00000160: 62c2 5437 744c ca37 6b21 07ba 3813 bbb7
00000170: 6470 63ba 9172 c3b9 3813 bbb7 3dc1 bc39
00000180: cbd1 04b9 c6fe 0438 3813 3bb8 12fc 3239
00000190: f25b 9ab7 bc98 053a c931 2a38 f25b 9ab7
000001a0: f1e5 77b9 6370 4a37 459d e637 f25b 1ab8
000001b0: f808 9339 d5bf 81b9 b2a2 313b fed7 e8b9
000001c0: d5bf 81b9 6936 eaba f4f9 3139 3934 c4b7
000001d0: d5bf 01ba 91a4 0f3b 75cc 1c39 70d9 523b
000001e0: 5af4 aa3a 75cc 1c39 fe55 5dba 8c7e 9839
000001f0: d52f a439 75cc 9c39 9660 40ba d004 e537
00000200: b0a1 e4ba a118 a4b9 d004 e537 a14c 653a
00000210: 0ab3 9cb9 38ce 1038 d004 6538 686b b4ba
00000220: 7bb5 42b9 891b a1ba 181d 81ba 7bb5 42b9
00000230: 0094 10b8 6752 99b9 a3be 06b9 7bb5 c2b9
00000240: ff12 183b fac0 e038 d81f 7c3b eed2 8f3a
00000250: fac0 e038 101a a3ba 72cd 223a 5e23 a039
00000260: fac0 6039 3273 abb9 4652 09b9 2e80 ef39
00000270: 1850 68b9 4652 09b9 227a 08ba 423e 62b9
00000280: 54e3 37b8 4652 89b9 a0f2 9fb6 b22d 7836
00000290: 89da 2eb8 123e 10b7 b22d 7836 3e85 9737
000002a0: 23ae 2837 f5a4 d9b6 b22d f836 166c 45bb
000002b0: e804 5b38 90b7 d9bb 85b2 d3ba e804 5b38
000002c0: 372f 283b b896 b6b7 8d2d 96b9 e804 db38
000002d0: c593 0738 198b af37 ae05 efb8 6611 a038
000002e0: 198b af37 b099 7b38 73c0 ac37 1f81 fdb6
000002f0: 198b 2f38 5bc6 1a38 4d5d 2038 0910 85b9
00000300: 127a 9d38 4d5d 2038 9757 3839 08cc e337
00000310: db92 1036 4d5d a038 168d 1138 4c26 7d37
00000320: be6b 76b8 929e 3637 4c26 7d37 1343 6238
00000330: f3e6 e537 9d51 1037 4c26 fd37 17c5 fc3a
00000340: 911e d038 35c9 4b3b 9e5c c13a 911e d038
00000350: 2448 88ba 7d0a f6b8 93cc c639 911e 5039
00000360: 8c88 55ba 0b48 76b8 572a 99ba 3fb7 25ba
00000370: 0b48 76b8 6209 c438 9041 6939 f0b2 18b9
00000380: 0b48 f6b8 a6aa 2938 8037 17b7 b2b4 2839
00000390: 103f f736 8037 17b7 ccb0 b1b8 6ead d4b5
000003a0: 108b 5f36 8037 97b7 95d3 1438 78c3 94b6
000003b0: 442c e938 8b26 3837 78c3 94b6 8e20 4fb8
000003c0: 3f10 d8b6 f539 6337 78c3 14b7 aae9 5c3a
000003d0: 62da 0fb9 6314 3f3b da98 7639 62da 0fb9
000003e0: cab7 c8ba 8d71 8038 c2eb bc38 62da 8fb9
000003f0: fe0a 30b8 d8ef a938 54c8 4dba 7a8c 9939
6.093917e-05 -4.5599412e-05 0.00051847927 -0.00025959243 -4.5599412e-05 -0.0004202494 0.00030914505 -5.622509e-05
-9.1198825e-05 -0.0018291873 -0.0001318635 -0.002624063 -0.0010625238 -0.0001318635 0.0006923479 -0.0003334952
-0.00026649225 -0.000263727 0.001754222 -0.00018933811 0.005239479 0.00070275046 -0.00018933811 -0.0024992856
2.6394284e-05 8.615593e-05 -0.00037867622 1.716211e-05 -1.66723e-05 0.0001790442 6.705337e-05 -1.66723e-05
-0.00017744568 -2.1401263e-05 -1.6921977e-05 -3.33446e-05 3.429827e-05 1.9031264e-05 -9.35746e-05 2.4850424e-05
1.9031264e-05 7.154721e-05 3.721651e-05 4.6943405e-06 3.8062528e-05 2.37349e-05 3.934698e-05 -0.00029046624
3.909383e-05 3.934698e-05 0.00021590902 2.7845426e-05 1.1944843e-05 7.869396e-05 -0.0035124605 3.534324e-05
-0.0075268373 -0.0018524396 3.534324e-05 0.0032579089 -0.0004839401 -0.00034152844 7.068648e-05 0.0005757708
-0.00022307501 0.0031073214 -7.36746e-05 -0.00022307501 -0.001958551 0.00017724777 -3.9553008e-05 -0.00044615002
5.349554e-05 8.846206e-06 3.371787e-05 3.4634126e-05 8.846206e-06 -6.723232e-06 2.3958084e-05 1.1295555e-05
1.7692411e-05 2.0473502e-05 1.2057939e-05 -6.187319e-05 4.6757938e-05 1.2057939e-05 7.784645e-06 1.1497459e-05
1.2681443e-05 2.4115878e-05 -0.0005154821 -2.2301087e-05 -0.00086761103 -0.00037278657 -2.2301087e-05 0.00036002128
-0.00012666655 3.170853e-05 -4.4602173e-05 0.00017069306 -1.8401046e-05 0.00050963066 4.0577524e-05 -1.8401046e-05
-0.00023641415 1.2066305e-05 2.7491371e-05 -3.6802092e-05 0.00028044707 -0.00024747723 0.002710503 -0.00044411415
-0.00024747723 -0.0017868999 0.0001697315 -2.3389339e-05 -0.00049495447 0.0021918158 0.00014953486 0.003217306
0.0013042793 0.00014953486 -0.0008443295 0.00029085984 0.00031316155 0.0002990697 -0.0007338611 2.7301168e-05
-0.0017443206 -0.00031298868 2.7301168e-05 0.00087470753 -0.00029888033 3.452433e-05 5.4602337e-05 -0.001376492
-0.00018568888 -0.0012291531 -0.000985059 -0.00018568888 -3.447011e-05 -0.0002924383 -0.00012850254 -0.00037137777
0.0023204682 0.00010717097 0.0038471129 0.0010972896 0.00010717097 -0.001244368 0.00062104233 0.0003054393
0.00021434194 -0.0003270149 -0.00013095987 0.00045681134 -0.00022155081 -0.00013095987 -0.00052061875 -0.00021576232
-4.3842316e-05 -0.00026191975 -4.7668145e-06 3.6981478e-06 -4.168836e-05 -8.597521e-06 3.6981478e-06 1.8062648e-05
1.0054125e-05 -6.4863075e-06 7.3962956e-06 -0.0030124239 5.2218238e-05 -0.006644197 -0.0016151225 5.2218238e-05
0.0025662908 -2.1766275e-05 -0.00028644167 0.000104436476 3.232413e-05 2.0926398e-05 -0.00011397466 7.632635e-05
2.0926398e-05 5.9986196e-05 2.0593614e-05 -7.5550192e-06 4.1852796e-05 3.6901194e-05 3.8233866e-05 -0.00025379684
7.509081e-05 3.8233866e-05 0.00017580237 2.7155518e-05 2.1543153e-06 7.646773e-05 3.470209e-05 1.5088892e-05
-5.8751313e-05 1.0884965e-05 1.5088892e-05 5.3945067e-05 2.7406471e-05 8.602071e-06 3.0177784e-05 0.0019284812
9.923906e-05 0.003109527 0.0014752334 9.923906e-05 -0.0010397476 -0.00011732148 0.00037917923 0.00019847813
-0.0008145652 -5.8718066e-05 -0.0011685592 -0.0006321556 -5.8718066e-05 9.347756e-05 0.00022245036 -0.00014562509
-0.00011743613 4.045167e-05 -9.0132235e-06 0.00016089043 7.368515e-06 -9.0132235e-06 -8.472949e-05 -1.5845706e-06
3.3310534e-06 -1.8026447e-05 3.5483e-05 -4.4334993e-06 0.00011118551 1.0976229e-05 -4.4334993e-06 -4.9382965e-05
-6.439193e-06 1.35437485e-05 -8.8669985e-06 0.00084271526 -0.00013718897 0.0029156439 0.0002351733 -0.00013718897
-0.0015313562 6.124666e-05 9.008452e-05 -0.00027437793 -4.1971907e-05 8.103222e-05 -0.00078499806 0.00029287097

exp_avg_sq f4 [128, 9]
00000000: 85b0 433a 9c36 0938 4156 873b a4df 6b39
00000010: 9f4c 0838 037b 443b 4b3d 7d39 bb2b dc39
00000020: 94f3 0239 e69a 9c39 56bb 0138 414c 5b3b
00000030: b38b b339 ffb9 0138 85b0 b63a 9e8b f837
00000040: 939c e537 c96c ff38 b38e a439 a04b 1237
00000050: 41ac c43a bff5 0139 5e92 1137 488c 263a
00000060: 11dc 1038 9a0c a338 7064 0d38 28b2 2f3a
00000070: dacf cd35 83f0 053a ce21 1639 17a6 ac35
00000080: d90e 9c3a 98f9 8a39 113b f439 25ca 2236
00000090: 5242 1339 fc9a e034 f22b f838 1f32 b437
000000a0: e9c0 c334 09f8 8a39 e93c 6538 6124 d238
000000b0: e223 4135 e50c 2839 e8cb 8e35 9b85 0539
000000c0: 8918 7d38 d12b 8e35 edf8 1838 90dc a637
000000d0: 02d5 8d37 95b7 6f36 a262 6e3a beca a938
000000e0: 47c1 353c 8158 fa39 64ce a938 2ffd 893b
000000f0: 6b18 f637 e9dc 5337 f8eb a639 5746 2339
00000100: ed97 a737 a009 2b3b 2f4c d638 3999 a737
00000110: af13 953a 0c58 9136 b4e9 6a36 db7e a638
00000120: 8a58 0d38 b0a4 5834 01b9 5238 e5c9 0337
00000130: b04a 4b34 30c9 8038 45e1 4737 c103 c037
00000140: 5d42 ee34 853b 523a 47b2 bc35 ca4d 203a
00000150: 899b 0339 7720 9235 72d2 c73a e867 ab39
00000160: 2d50 1b3a b681 a635 2c4b 8c38 1932 7836
00000170: 8916 113a 5ba2 ed37 f933 7836 8ade 7239
00000180: 80bb 2c35 05e4 ca34 2ac9 6a37 dcfe 8738
00000190: 35e9 7635 7584 0839 c952 8837 08f7 7635
000001a0: 2669 0238 bca6 a134 f5f3 de33 159c d535
000001b0: 0cc6 043a 02ef 1138 ab7b 903b dbe6 5639
000001c0: afc9 1138 3770 1e3b 9aec 4238 ae69 a738
000001d0: a297 0c39 471e 963a 2275 4538 1503 f23b
000001e0: 2409 ee39 1c78 4438 3c52 833b 54e0 8839
000001f0: c997 f139 19b2 4039 98d4 113a 5e36 8c37
00000200: a8b5 2b3b 4294 3e39 c537 8c37 1ab1 813a
00000210: b33a 9637 155f 8a37 39f1 8038 3a56 bd39
00000220: 86e2 4138 fdf5 c23b 1b81 7839 17e3 4138
00000230: 36dc 2d3b 96bc f136 ec70 3c36 68ea 3f39
00000240: 0dc1 4a3a fe9b 9238 a35f 1a3c 196c 163a
00000250: 2e8c 9238 dfa8 713b 3692 a338 e7f3 df38
00000260: d12a 9139 b430 9a38 7285 0a37 01db 3d3a
00000270: 9065 7538 2c87 0a37 11b1 9239 35d9 6436
00000280: d2c7 8435 40da 0838 67fe 8739 d487 9f35
00000290: 679d 1839 5d26 ed38 cb6d 9e35 ef4c c737
000002a0: 3d95 d737 0ff7 e937 7cb8 8136 25ea 1c3a
000002b0: 0dfe 8b38 c2a7 e53b a4c2 f939 02ec 8b38
000002c0: 27e4 1c3b acfe 9338 0d68 8237 9ea3 8939
000002d0: 5343 ab3a e9e0 3236 0c31 823a 7287 b839
000002e0: 7726 1436 8229 0f3b 7856 073a c922 673a
000002f0: 47f8 7236 e48c ff37 9735 d734 e400 c537
00000300: 39b8 dc36 a739 d734 d4f2 3237 8501 0935
00000310: 6de2 8334 fd62 8d35 148f 8638 c97b 1835
00000320: 5f77 0f39 8ede 9637 db84 1335 fdb6 d138
00000330: bef5 af37 ddc0 2238 ce3c ae35 cb31 8a3a
00000340: 8697 8a38 a203 253c bf50 eb39 8896 8a38
00000350: 9ef4 9a3b 2735 e437 f1e9 2438 56da 8639
00000360: c6c2 223a 4ed0 6338 5d67 f93b c90e 9039
00000370: 21d6 6338 8176 7c3b d2e4 3337 ee39 2c37
00000380: e410 5e39 6ac7 463a 9a71 df35 1579 243a
00000390: 9728 0339 d8b3 bc35 2655 a33a 9f9b 8c39
000003a0: 3e45 ff39 e7de 1536 971a ab39 9fdb a735
000003b0: 4c7a 4a39 619b 6839 2989 a435 a980 fc38
000003c0: 22df 6f38 350d aa38 dfcb 8436 a155 f03a
000003d0: a47a be36 ce2f df3a babd 8f39 b4d6 a636
000003e0: 4e2d 683b 8873 3c3a 6caa ac3a f550 4137
000003f0: aa3e 2739 2129 6a35 0820 0839 0e0d 5438
0.0007464963 3.2714204e-05 0.0041301553 0.00022494659 3.2496286e-05 0.0029980547 0.00024150794 0.00041994252
0.00012488506 0.00029870047 3.0930467e-05 0.00334622 0.00034245625 3.092922e-05 0.0013938105 2.9628918e-05
2.7371838e-05 0.0001217961 0.00031386837 8.719886e-06 0.0015004949 0.00012393946 8.676752e-06 0.0006353301
3.453723e-05 7.774793e-05 3.371056e-05 0.00067022676 1.5334183e-06 0.00051093864 0.00014317708 1.2863337e-06
0.001190628 0.00026507373 0.00046583315 2.4257545e-06 0.00014043719 4.1836017e-07 0.00011833747 2.1481012e-05
3.646194e-07 0.00026506212 5.465458e-05 0.000100203564 7.195032e-07 0.00016026532 1.0639169e-06 0.0001273364
6.034275e-05 1.0592577e-06 3.6471454e-05 1.989145e-05 1.69077e-05 3.5720634e-06 0.0009093677 8.096312e-05
0.011093444 0.00047749656 8.096991e-05 0.00421109 2.9336856e-05 1.2628015e-05 0.00031837798 0.00015571095
1.9978697e-05 0.0026098266 0.000102185055 1.9979301e-05 0.0011373664 4.3315868e-06 3.500475e-06 7.9391255e-05
3.3699478e-05 2.017648e-07 5.02402e-05 7.855216e-06 1.893302e-07 6.14099e-05 1.1913774e-05 2.2889932e-05
4.437924e-07 0.00080197334 1.4058977e-06 0.0006115107 0.00012551075 1.0887296e-06 0.0015245213 0.00032693078
0.0005924728 1.2405715e-06 6.689722e-05 3.698404e-06 0.0005534669 2.8328204e-05 3.6985132e-06 0.0002316182
6.434784e-07 3.7791338e-07 1.3994324e-05 6.484773e-05 9.19815e-07 0.00013019315 1.6251013e-05 9.200162e-07
3.1092342e-05 3.0109902e-07 1.0382056e-07 1.5915163e-06 0.00050649117 3.4793287e-05 0.0044092736 0.00020494631
3.4758526e-05 0.0024175772 4.6473557e-05 7.982865e-05 0.00013407928 0.0011453115 4.707755e-05 0.0073856213
0.00045401708 4.6841902e-05 0.004007606 0.0002610708 0.0004608019 0.00018376893 0.000556299 1.6714617e-05
0.0026200805 0.00018175042 1.671527e-05 0.0009894699 1.7908727e-05 1.6495158e-05 6.148447e-05 0.00036113133
4.6225752e-05 0.0059497342 0.00023699219 4.622628e-05 0.002652896 7.204314e-06 2.8079912e-06 0.00018302503
0.0007734455 6.990878e-05 0.009422216 0.00057381537 6.987933e-05 0.0036874337 7.7996796e-05 0.00010678899
0.00027688456 7.352364e-05 8.256511e-06 0.0007242412 5.850714e-05 8.256913e-06 0.00027979215 3.4101079e-06
9.892922e-07 3.2628188e-05 0.0002593875 1.1885954e-06 0.00014554487 0.000113081864 1.1803871e-06 2.3758474e-05
2.5699492e-05 2.789081e-05 3.8659764e-06 0.0005985818 6.675357e-05 0.0070085237 0.00047638 6.6719964e-05
0.00239397 7.0569426e-05 1.554566e-05 0.0002625258 0.0013066329 2.6654982e-06 0.000993283 0.0003519613
2.2076108e-06 0.002184481 0.0005162726 0.0008817134 3.6205327e-06 3.0463976e-05 4.0085862e-07 2.3484645e-05
6.5779573e-06 4.0088818e-07 1.0666165e-05 5.103869e-07 2.4565398e-07 1.0534128e-06 6.416268e-05 5.6804544e-07
0.00013682012 1.7985029e-05 5.49551e-07 9.999981e-05 2.0976058e-05 3.8803428e-05 1.2981707e-06 0.0010543404
6.608576e-05 0.010071667 0.00044882853 6.6083914e-05 0.0047288677 2.7204469e-05 3.9318522e-05 0.00025721145
0.0006208833 5.4315016e-05 0.007611199 0.00027476836 5.432044e-05 0.0038522782 1.0722508e-05 1.0265487e-05
0.00021177862 0.00075828156 1.6647857e-06 0.0006274146 0.00012508254 1.4059433e-06 0.0012461289 0.00026818828
0.0004868898 2.2332476e-06 0.00032635473 1.2506388e-06 0.0001930978 0.00022183127 1.2258871e-06 0.00012040261
5.718985e-05 8.108692e-05 3.9576403e-06 0.0018336066 5.6767185e-06 0.0017027797 0.00027416443 4.9721802e-06
0.0035427394 0.00071888464 0.0013173348 1.1522546e-05 0.00015949705 8.7231643e-07 0.00012981903 5.0556897e-05

exp_avg f4 [128]
00000000: ff41 bfb8 d744 8ab9 1089 c6b9 7edb 0bb8
00000010: 54a5 1f38 8008 a538 843d 9438 3ee9 e9b9
00000020: 2a6a 9437 744c ca37 3813 3bb8 f25b 1ab8
00000030: d5bf 01ba 75cc 9c39 d004 6538 7bb5 c2b9
00000040: fac0 6039 4652 89b9 b22d f836 e804 db38
00000050: 198b 2f38 4d5d a038 4c26 fd37 911e 5039
00000060: 0b48 f6b8 8037 97b7 78c3 14b7 62da 8fb9
00000070: d8ef 2939 ff99 9439 4028 9bb9 fe19 8438
00000080: 7417 87b8 3cbb bb38 ce6e b2b8 f241 2bba
00000090: 2232 9537 f2f2 bdb9 169c 1eba 455f c5b9
000000a0: 6083 ed36 7eb5 d5b9 8a50 b737 a3e4 37ba
000000b0: 7874 6cb9 3447 3ab7 1f64 4cb8 cfda d437
000000c0: 33e2 9b39 fbfb 5739 b6cb 9b38 d642 94b9
000000d0: 6c76 eb38 00f0 a636 b75b 8537 2e8d 23b8
000000e0: b95c 41b9 284a 51b8 9d2b 9038 5aec 9539
000000f0: 5669 e4b9 2ec2 2bba 1638 953a 36e3 4e36
00000100: 5f12 5938 69f8 8537 9e35 5139 b0da 003a
00000110: 4276 e738 a7f6 69b7 f06b a838 203f 2ab7
00000120: 3bab e737 ccb6 6a39 22b5 7c39 1147 a239
00000130: 77e0 75b8 126f 46b8 fdac 8f37 f17e 0db8
00000140: 2748 0c3a c0e1 6838 414d 4438 b326 1439
00000150: 9de8 a3b9 1f74 7fb9 9bc1 deb9 9e5c ef38
00000160: 3059 1eb8 b6a3 69b9 8563 213a 90db 8d38
00000170: ec39 4938 b7c1 a938 7417 11b6 3cad b5b7
00000180: a9be 2ab8 01ab 9cb9 cef5 5738 1242 7b38
00000190: 2435 4ab9 d006 cfb4 70c6 e7b8 50b9 e1b9
000001a0: 32b4 2939 1c9f 5fba 0729 e8b9 f53f 34b8
000001b0: b0cf fab5 1672 83b9 c879 0c3a 7363 3eb9
000001c0: ac7a 1bb8 94d5 2db7 be69 d8b6 97c0 a8b9
000001d0: e5d2 ca37 6607 7bb9 5d41 a8b8 9b38 2fb7
000001e0: ebce 2739 5628 b9b7 60ff a036 d68c 2639
000001f0: b6de fd38 b2b0 eb37 483f aa38 d7ba e639
-9.1198825e-05 -0.000263727 -0.00037867622 -3.33446e-05 3.8062528e-05 7.869396e-05 7.068648e-05 -0.00044615002
1.7692411e-05 2.4115878e-05 -4.4602173e-05 -3.6802092e-05 -0.00049495447 0.0002990697 5.4602337e-05 -0.00037137777
0.00021434194 -0.00026191975 7.3962956e-06 0.000104436476 4.1852796e-05 7.646773e-05 3.0177784e-05 0.00019847813
-0.00011743613 -1.8026447e-05 -8.8669985e-06 -0.00027437793 0.00016206445 0.00028343496 -0.00029593892 6.299092e-05
-6.44167e-05 8.95173e-05 -8.5083404e-05 -0.0006532959 1.7785529e-05 -0.00036229898 -0.00060504803 -0.0003764575
7.0784445e-06 -0.00040761748 2.1852804e-05 -0.00070149655 -0.00022550102 -1.1103042e-05 -4.8730635e-05 2.537426e-05
0.00029732435 0.00020597868 7.42892e-05 -0.00028278556 0.00011227731 4.975125e-06 1.5897544e-05 -3.8993712e-05
-0.00018440456 -4.9898546e-05 6.874579e-05 0.0002859559 -0.0004356603 -0.00065520674 0.0011384513 3.0828646e-06
5.175394e-05 1.597051e-05 0.00019951767 0.00049153995 0.000110369656 -1.39453105e-05 8.030969e-05 -1.0147487e-05
2.7617081e-05 0.00022384076 0.0002410007 0.00030951996 -5.86216e-05 -4.731032e-05 1.7127482e-05 -3.3735243e-05
0.00053513277 5.5523356e-05 4.680199e-05 0.00014128796 -0.00031263093 -0.00024361954 -0.00042487387 0.000114136594
-3.7753198e-05 -0.00022281599 0.0006156492 6.7643006e-05 4.797608e-05 8.09463e-05 -2.1620335e-06 -2.165755e-05
-4.0708725e-05 -0.00029882047 5.1488918e-05 5.9904596e-05 -0.00019284018 -3.856171e-07 -0.000110519 -0.00043053413
0.00016184224 -0.0008530484 -0.00044281056 -4.297491e-05 -1.8686897e-06 -0.00025071268 0.0005358723 -0.0001815686
-3.7069127e-05 -1.0361331e-05 -6.4496116e-06 -0.00032186948 2.4178482e-05 -0.00023939981 -8.023039e-05 -1.0443992e-05
0.00016003444 -2.2072501e-05 4.798101e-06 0.00015883459 0.00012105463 2.8096463e-05 8.118019e-05 0.00044008225

exp_avg_sq f4 [128]
00000000: 9c36 0939 56bb 0139 a04b 1238 dacf cd36
00000010: fc9a e035 e8cb 8e36 beca a939 ed97 a738
00000020: b0a4 5835 47b2 bc36 1932 7837 35e9 7636
00000030: 02ef 1139 2275 4539 5e36 8c38 86e2 4139
00000040: fe9b 9239 7285 0a38 d487 9f36 0dfe 8b39
00000050: e9e0 3237 9735 d735 c97b 1836 8697 8a39
00000060: 4ed0 6339 9a71 df36 9fdb a736 a47a be37
00000070: 2129 6a36 4a3e 0e38 539c 5838 09da 6038
00000080: 3922 1139 6f3d dd35 5f9f f639 1234 9539
00000090: 8599 0436 167a 2b39 4e53 3a38 b17d 7b39
000000a0: a744 bc36 79f7 a839 fef9 1937 e08c aa38
000000b0: 22c0 a137 a77d ac37 30ab 2538 62ae 0535
000000c0: 1269 6538 2160 e837 e05e 0e37 1fe5 1d38
000000d0: 4b97 d739 3235 1239 415b 2636 0575 6437
000000e0: a823 2938 2599 8339 6e91 1a37 5f20 3239
000000f0: 4f85 f138 1a24 3439 705d fa39 21f1 7e36
00000100: bd20 4036 3df3 9436 388a 4a39 9472 6c38
00000110: effa 8239 d48f 6035 3475 1037 c9ca d538
00000120: 2d43 1337 bdd8 3838 4e8c 9339 a4c0 e737
00000130: 25b9 1636 558d a037 2d54 fc35 efd7 2939
00000140: f2f1 6538 864d 8936 bbfe cf36 9af3 0d37
00000150: fc7b fc36 cdf1 6c38 4c36 c239 1646 8337
00000160: 94c9 2a39 19ff 4a37 2b07 3339 5266 2e39
00000170: f3c0 fb36 542c 2436 054b e235 a398 9e36
00000180: 4f57 c236 feb1 3f39 35b6 5c37 bbba 2837
00000190: f356 3b37 75c0 3c36 c3b0 7439 64b8 6a39
000001a0: c9e3 1638 3f56 8d39 bdc9 1239 a100 8536
000001b0: 4bc3 4937 bc5e ad39 7e0a ae38 b8b1 4139
000001c0: 34cf 7d37 ca3d 2536 d053 3637 4cc6 2839
000001d0: 63c2 e236 1113 1b39 2705 0b38 fca3 ac36
000001e0: dcf4 8138 47f7 5f37 acc1 d937 1bf9 1a39
000001f0: c020 d536 268b 9536 ed23 1838 da21 9639
0.00013085682 0.00012372187 3.4879544e-05 6.133673e-06 1.6734407e-06 4.2556676e-06 0.00032385247 7.991479e-05
8.070592e-07 5.623591e-06 1.4793616e-05 3.67926e-06 0.00013917315 0.0001883102 6.685847e-05 0.00018490301
0.00027963513 3.3026045e-05 4.7543817e-06 0.0002670143 1.0661993e-05 1.6034345e-06 2.2721817e-06 0.00026434305
0.00021726007 6.659143e-06 5.002555e-06 2.2706874e-05 3.4892657e-06 3.391345e-05 5.1644e-05 5.3608823e-05
0.00013841027 1.6483663e-06 0.00047039517 0.0002845829 1.9758893e-06 0.00016353311 4.442344e-05 0.00023984049
5.610829e-06 0.00032227839 9.1777165e-06 8.132472e-05 1.9282164e-05 2.056251e-05 3.9498496e-05 4.980012e-07
5.469571e-05 2.7701319e-05 8.485949e-06 3.7645103e-05 0.00041120718 0.00013943462 2.4789044e-06 1.3617105e-05
4.0325947e-05 0.0002510037 9.212976e-06 0.00016987462 0.00011516606 0.00017179587 0.00047753332 3.7989305e-06
2.8629286e-06 4.4390604e-06 0.00019315712 5.6373494e-05 0.00024982492 8.36558e-07 8.610357e-06 0.00010194403
8.777523e-06 4.407087e-05 0.0002814256 2.7627051e-05 2.245951e-06 1.91393e-05 1.8799961e-06 0.00016197537
5.4823184e-05 4.091943e-06 6.1987353e-06 8.460973e-06 7.524619e-06 5.649198e-05 0.00037043018 1.5649053e-05
0.00016287557 1.2099533e-05 0.0001707344 0.0001663205 7.502845e-06 2.4463707e-06 1.6860146e-06 4.726536e-06
5.7918146e-06 0.00018281487 1.3155445e-05 1.0057057e-05 1.1166313e-05 2.8126208e-06 0.00023335502 0.0002238467
3.597493e-05 0.00026957874 0.00013998798 3.963782e-06 1.2026004e-05 0.00033067714 8.298921e-05 0.0001847212
1.5128218e-05 2.4622882e-06 1.08675595e-05 0.000160956 6.7579545e-06 0.00014789055 3.314498e-05 5.1450897e-06
6.196808e-05 1.33494095e-05 2.5958601e-05 0.00014779383 6.3517073e-06 4.456745e-06 3.6273083e-05 0.0002863545
